checkpoints/herg_karim_33_train1_neg/Aug25-07:00:41_800.pth (torch, 389311 bytes, 294 tensors)

layers.0.weight f4 [12, 16]
0.9409494 1.3010863 0.04404256 1.0676776 -1.1588026 0.10192972 -0.22703962 0.10334745
0.37633 -0.9281494 0.7049709 0.0020086572 0.44364667 0.3383468 -0.9667128 0.0046646334
1.538444 -0.0058172382 -0.277333 0.18337919 -0.392898 -0.20045628 -0.4322895 0.1710257
-0.11993119 -1.3967304 -0.18244398 -0.086737745 0.3633243 -2.016085 1.1997522 -0.05559126
0.33115306 -0.04464181 -0.1809906 0.1341366 0.35295156 1.0568125 0.2448488 -1.6116815
0.43685883 -0.13697907 -0.20114289 1.8893483 0.18483852 -0.08020623 -0.026022598 -0.312693
0.35905322 -0.4759177 -0.47261572 0.07675734 0.15627247 1.8551073 0.31648406 0.4664957
0.57136923 -0.118275 -0.011788387 -0.34164095 -0.14205553 -0.045966007 0.035609573 -0.13609675
0.36552215 -0.41616407 0.3210074 0.08276096 0.25447643 -0.40913212 0.2606757 -0.071584575
1.7473139 -0.1508596 -0.21797368 -0.21912788 -0.23924905 -0.13455983 -0.27525425 -0.1706411
0.29814106 -0.8337102 0.060632095 0.05958946 0.084504426 0.1105175 0.49929735 -0.06819365
0.5509553 -0.2619565 0.15161437 -0.14497727 -0.017083244 -0.15804225 -0.44794482 -0.07636478
1.1334738 0.2702202 -1.1460497 -2.0084043 -0.25064674 -0.11070311 -0.77927107 -0.2683212
-0.08512358 -1.0382872 -0.61746836 -0.007520846 -1.2965353 0.5352871 -0.33708254 0.095335625
-0.110719614 -0.79851633 -0.8327514 0.57903874 0.43152714 0.009511929 -0.76050395 -0.4253166
-0.049332883 0.042009503 1.3541496 -0.074941345 -0.5646751 -0.37477428 -0.30138823 -0.01859652
0.67705536 -0.7136905 0.8276689 -0.10564295 -0.44303504 0.19516927 0.4780714 -0.1798437
-0.3005748 -0.2892869 0.10454679 -0.051623218 -0.43809912 -0.13388355 -0.37857622 -0.101844855
1.6750265 0.5548921 0.6022211 0.81361455 1.0660623 -0.28702787 1.2453581 0.0967932
-0.32290572 -1.5030988 0.86556643 -0.08850723 -0.08023935 1.3364486 1.0019733 -0.264125
0.74767154 0.24567382 -0.16074044 -1.1302038 1.4073861 0.05187556 -0.50423676 0.3405254
-0.04654713 -0.76923615 0.48312 -0.029147921 0.93390423 -0.53074336 -0.94958544 -0.074667126
-0.9121788 0.93418247 0.61368686 -0.9818574 -0.12756993 0.11804657 1.1670656 -0.15934302
0.3265726 0.77379346 1.4416775 0.092873916 -0.52513164 -1.0705215 0.309591 0.0054633343
00000000: 0fe2 703f ff89 a63f f965 343d a9a9 883f
00000010: a553 94bf 87c0 d03d 137d 68be d4a7 d33d
00000020: 53ae c03e 339b 6dbf f978 343f ada3 033b
00000030: a825 e33e cb3b ad3e 7d7a 77bf c8d9 983b
00000040: bceb c43f 889e bebb 97fe 8dbe c1c7 3b3e
00000050: ed29 c9be 6944 4dbe 0d55 ddbe 5c21 2f3e
00000060: 7c9e f5bd 10c8 b2bf 98d2 3abe 8fa3 b1bd
00000070: a505 ba3e 8907 01c0 7b91 993f a9b3 63bd
00000080: e58c a93e 55da 36bd 9a55 39be 1b5b 093e
00000090: 11b6 b43e a245 873f a5b9 7a3e 944b cebf
000000a0: f6ab df3e 3e44 0cbe 67f8 4dbe 2ad6 f13f
000000b0: 4f46 3d3e 2a43 a4bd 582d d5bc 4c19 a0be
000000c0: d3d5 b73e 7cab f3be b0fa f1be f432 9d3d
000000d0: e405 203e 2874 ed3f 330a a23e 86d8 ee3e
000000e0: 4145 123f 2a3a f2bd 1424 41bc 90eb aebe
000000f0: 0177 11be da46 3cbd 58db 113d f25c 0bbe
00000100: b825 bb3e 7513 d5be 155b a43e 947e a93d
00000110: bc4a 823e c479 d1be 4977 853e ef9a 92bd
00000120: fba7 df3f f07a 1abe 7e34 5fbe 0f63 60be
00000130: b4fd 74be 0dca 09be 20ee 8cbe 8abc 2ebe
00000140: f2a5 983e 086e 55bf 5c59 783d 1414 743d
00000150: a810 ad3d 0057 e23d e7a3 ff3e 1da9 8bbd
00000160: 680b 0d3f 2a1f 86be cc40 1b3e ec74 14be
00000170: 29f2 8bbc d4d5 21be 0659 e5be 2365 9cbd
00000180: ab15 913f 4d5a 8a3e c2b1 92bf b289 00c0
00000190: c554 80be 50b8 e2bd 4f7e 47bf 6561 89be
000001a0: 4655 aebd 98e6 84bf 6812 1ebf 6e71 f6bb
000001b0: def4 a5bf 9308 093f 1596 acbe 533f c33d
000001c0: f7c0 e2bd 916b 4cbf 322f 55bf e23b 143f
000001d0: 20f1 dc3e ecd7 1b3c 63b0 42bf 19c3 d9be
000001e0: 4711 4abd 2812 2c3d c654 ad3f d97a 99bd
000001f0: 8c8e 10bf 6ae2 bfbe 8f4f 9abe bb57 98bc
00000200: 8053 2d3f 6cb4 36bf 1ce2 533f 555b d8bd
00000210: 7dd5 e2be 74da 473e c6c5 f43e f228 38be
00000220: f1e4 99be 6a1d 94be a11c d63d de72 53bd
00000230: 874e e0be c518 09be bed4 c1be 0994 d0bd
00000240: 4567 d63f 690d 0e3f 292b 1a3f 0b49 503f
00000250: bb74 883f 51f5 92be e567 9f3f 833b c63d
00000260: e653 a5be 8b65 c0bf c395 5d3f 4743 b5bd
00000270: 8754 a4bd bf10 ab3f a940 803f 643b 87be
00000280: 6767 3f3f eb91 7b3e 2499 24be 85aa 90bf
00000290: 3a25 b43f 787b 543d a915 01bf 5859 ae3e
000002a0: 34a8 3ebd a9ec 44bf 815b f73e 9fc7 eebc
000002b0: 5914 6f3f ccde 07bf 0818 73bf 14eb 98bd
000002c0: 8d84 69bf 9526 6f3f 951a 1d3f 025b 7bbf
000002d0: b1a1 02be 66c2 f13d 6862 953f d12a 23be
000002e0: 8634 a73e 5417 463f e388 b83f ae34 be3d
000002f0: 076f 06bf d906 89bf b682 9e3e c505 b33b

layers.0.bias f4 [16]
0.1420983 0.54007405 -0.22127625 0.54703826 0.19456671 -0.79563576 0.30902898 0.90031445
-0.6031136 0.51287675 -0.41959706 -0.18072644 -0.38338402 -0.67919236 -0.41537952 -1.3341215
00000000: 3782 113e 4b42 0a3f 3e96 62be b30a 0c3f
00000010: 7f3c 473e c9ae 4bbf 0c39 9e3e 027b 663f
00000020: a765 1abf e44b 033f 6dd5 d6be 5a10 39be
00000030: e94a c4be 8ddf 2dbf a0ac d4be 7ec4 aabf

layers.1.weight f4 [16, 16]
-0.07530241 -0.09121993 0.58466554 0.3951301 -0.062937535 -0.075985946 0.39465994 0.78484255
0.14643158 -0.24040052 0.12689896 -0.15247412 -0.1432042 -0.65807307 -0.09681623 -0.36043862
-0.35726058 -0.051550705 -0.58130604 -0.03230514 0.14541157 -0.78927165 -0.34956366 0.46810466
0.3754961 -0.08717167 0.5098511 -0.5234146 -0.48477447 0.42677107 0.10151783 0.036382318
-0.01582956 0.017098233 -0.122619405 -0.041407045 0.07271289 -0.7351546 -0.7186587 -0.15245281
0.105471835 0.30908564 -0.041158393 0.51194376 0.17298682 0.15759622 -0.08037131 -0.20853044
-0.0977055 -0.20457223 0.32193443 0.23701881 0.0023223553 -1.2288972 -0.63153046 0.39402992
0.2019356 -0.07819287 -0.017808834 -0.21915758 -0.20275383 -0.41182828 0.067421906 0.30935383
-0.037053134 -0.18826237 0.31365353 0.31791133 0.17684631 -0.15554853 0.27247757 0.4843857
0.20084369 -0.1250908 -0.2625384 -0.24498723 -0.2063216 -0.40379876 0.038781136 -0.033784874
0.11321147 0.3002316 0.9935167 0.6026566 0.029026799 -0.07796523 -0.10320798 -0.098707244
-0.63314617 -0.44875777 -0.021714317 -1.1549567 -0.09520217 -0.6917142 0.11780297 0.011274901
0.04934401 -0.20838155 0.569974 0.25827157 0.013683276 -0.9660981 -0.5441595 0.13173115
-0.055021334 0.074529774 0.020954244 -0.34590405 -0.12156416 -0.6423836 0.13369627 0.39492914
-0.1416757 -0.14724472 -1.0461295 -0.65786827 -0.88817155 -0.19727857 -0.22180636 -0.08893507
-0.9070856 -0.24479075 0.29749668 0.43965724 1.1255256 0.502876 0.20868127 0.12316066
0.10848829 -0.12574741 1.2410829 0.60912746 -0.23466627 -0.20728067 -0.34695378 -0.25454733
-0.41105822 0.14032957 0.086216554 0.32311293 0.36469725 -1.1535003 -0.026772656 -0.11834318
-0.1285591 -0.1704642 0.0155568635 0.15560971 0.07053252 -0.70680255 -0.05286661 -0.0641108
0.13976559 -0.18617567 0.30656496 -0.25057423 -0.30487752 -0.14498658 0.0869934 0.8398482
0.13936166 0.12197304 -0.25943655 -0.27225867 -0.1252856 -0.5742535 -0.7692249 -0.24023426
-0.343934 0.17708364 -0.57617694 0.24990867 0.37009156 0.39814377 0.24006741 -0.11789707
-0.09137467 0.020797502 0.5211281 -0.010614113 -0.556991 0.012786708 -0.22272202 -0.3550678
1.4634062 0.09048003 0.26489264 -0.743721 0.24325323 -0.93777126 0.09846642 0.16589557
0.052711993 0.2372496 -0.16859847 -0.10007888 0.12836644 -0.44911414 -0.6780528 -0.06667292
0.104194 0.3204788 -0.19125026 -0.27198976 -0.074985236 0.37477803 0.14399906 -0.34980574
0.091722384 0.21334802 -0.38619205 -0.24776609 -0.042101406 -0.61305255 -0.886984 -0.32792643
-0.26622415 0.2747444 -0.00919136 0.1532665 0.24969567 0.5034139 0.14927547 -0.3561621
-0.020746285 0.32347172 -0.43985963 -0.16854602 -0.033071686 -0.11414095 -0.43660527 -0.049476873
-0.13897796 0.042306717 -0.108020045 -0.14213555 0.14816765 0.5728995 0.38564098 -0.57836163
-0.9703793 1.0178826 0.6986274 1.215184 -0.4522169 -0.45320442 0.7022909 0.7000909
-0.08959321 0.42659062 0.3511728 0.25395048 1.3613366 -0.057245474 -0.64853436 1.199351
00000000: 2638 9abd 84d1 babd a4ac 153f 7e4e ca3e
00000010: 65e5 80bd 859e 9bbd de10 ca3e 71eb 483f
00000020: 29f2 153e 8e2b 76be cdf1 013e 2d22 1cbe
00000030: 1fa4 12be 7a77 28bf 9647 c6bd 698b b8be
00000040: dcea b6be d526 53bd 79d0 14bf 6552 04bd
00000050: c5e6 143e b50d 4abf 02fa b2be 6aab ef3e
00000060: 0641 c03e 0f87 b2bd 9a85 023f 80fe 05bf
00000070: 5c34 f8be bd81 da3e 94e8 cf3d a005 153d
00000080: feac 81bc 9811 8c3c e21f fbbd 6f9a 29bd
00000090: 7fea 943d 1833 3cbf 04fa 37bf 971c 1cbe
000000a0: 9e01 d83d 7940 9e3e b495 28bd bf0e 033f
000000b0: 7523 313e e760 213e b799 a4bd 0189 55be
000000c0: d219 c8bd 627b 51be 97d4 a43e 0fb5 723e
000000d0: a832 183b 814c 9dbf fbab 21bf 4abe c93e
000000e0: 35c8 4e3e 9523 a0bd d5e3 91bc d86a 60be
000000f0: b39e 4fbe 28db d2be 7f14 8a3d a063 9e3e
00000100: 07c5 17bd dac7 40be 3297 a03e 46c5 a23e
00000110: 3317 353e 1d48 1fbe 2e82 8b3e 6701 f83e
00000120: f8a9 4d3e cd17 00be 6f6b 86be efdd 7abe
00000130: f845 53be b6be cebe f8d8 1e3d 0262 0abd
00000140: 6adb e73d f5b7 993e 1c57 7e3f b447 1a3f
00000150: 9cc9 ed3c 3cac 9fbd b55e d3bd 0627 cabd
00000160: de15 22bf 94c3 e5be 39e2 b1bc 9fd5 93bf
00000170: 5bf9 c2bd 2f14 31bf af42 f13d 5dba 383c
00000180: f21c 4a3d f961 55be d1e9 113f 2c3c 843e
00000190: d22f 603c 3552 77bf 094e 0bbf 88e4 063e
000001a0: 0d5e 61bd 11a3 983d 3ca8 ab3c 561a b1be
000001b0: a1f6 f8bd 4073 24bf ade7 083e 2734 ca3e
000001c0: 6f13 11be 52c7 16be 92e7 85bf 0e6a 28bf
000001d0: 365f 63bf 6503 4abe 3521 63be 9723 b6bd
000001e0: c336 68bf 6daa 7abe 7c51 983e c11a e13e
000001f0: 3911 903f 7bbc 003f 8bb0 553e a83b fc3d
00000200: 1c2f de3d eec3 00be cedb 9e3f c7ef 1b3f
00000210: 5b4c 70be 6241 54be eda3 b1be 0754 82be
00000220: 3976 d2be 8eb2 0f3e 4e92 b03d 0f6f a53e
00000230: 99b9 ba3e e6a5 93bf 5452 dbbc e95d f2bd
00000240: ffa4 03be 2b8e 2ebe 37e2 7e3c 2758 1f3e
00000250: 5b73 903d 03f1 34bf a98a 58bd 864c 83bd
00000260: b61e 0f3e d6a4 3ebe 15f6 9c3e 444b 80be
00000270: e818 9cbe 5d77 14be 9829 b23d 4b00 573f
00000280: d3b4 0e3e 00cd f93d ded4 84be 7d65 8bbe
00000290: de4a 00be 4702 13bf eceb 44bf f8ff 75be
000002a0: 1e18 b0be 6a55 353e 5580 13bf 0fe8 7f3e
000002b0: a47c bd3e 80d9 cb3e 3bd4 753e 0574 f1bd
000002c0: a522 bbbd 865f aa3c a768 053f d1e6 2dbc
000002d0: f696 0ebf 577f 513c 3e11 64be 72cb b5be
000002e0: e550 bb3f 984d b93d 02a0 873e 8064 3ebf
000002f0: 6017 793e c711 70bf c3a8 c93d 87e0 293e
00000300: 88e8 573d 8ff1 723e 14a5 2cbe 28f6 ccbd
00000310: 7e72 033e 4af2 e5be de94 2dbf d08b 88bd
00000320: aa63 d53d cc15 a43e 1cd7 43be 3e42 8bbe
00000330: dc91 99bd e8e2 bf3e 7d74 133e bd19 b3be
00000340: f2d8 bb3d e777 5a3e f7ba c5be 65b6 7dbe
00000350: 8672 2cbd 03f1 1cbf 6211 63bf f9e5 a7be
00000360: 884e 88be 4cab 8c3e 5c97 16bc e5f1 1c3e
00000370: 39b0 7f3e bcdf 003f abdb 183e e15a b6be
00000380: 1df4 a9bc 169e a53e 4835 e1be 5497 2cbe
00000390: 2d76 07bd bbc2 e9bd ba8a dfbe 43a8 4abd
000003a0: 3d50 0ebe cf49 2d3d 9d39 ddbd fb8b 11be
000003b0: 43b9 173e 8ba9 123f bc72 c53e 820f 14bf
000003c0: c76a 78bf fa49 823f 3fd9 323f 268b 9b3f
000003d0: f988 e7be 690a e8be 56c9 333f 2839 333f
000003e0: a57c b7bd 166a da3e eccc b33e cc05 823e
000003f0: 4740 ae3f 3b7a 6abd 5906 26bf 5584 993f

layers.1.bias f4 [16]
-0.37094083 1.1926333 0.5173593 0.008327121 -0.23386979 -0.03556199 -0.24880646 -0.4893744
-0.4426607 0.20884165 -0.40928134 0.20624116 0.38429475 -0.009385946 -0.41975152 -0.18908267
00000000: f5eb bdbe 35a8 983f a971 043f 7a6e 083c
00000010: 907b 6fbe 73a9 11bd 1fc7 7ebe 488f fabe
00000020: 6ca4 e2be 96da 553e 538d d1be e230 533e
00000030: 48c2 c43e 83c7 19bc ace9 d6be e39e 41be

final.linears.0.weight f4 [88, 44]
0.9894765 -1.0488096 0.427329 0.20758295 0.17937163 0.13711351 0.6651752 0.6110468
-0.87646335 0.17373854 1.7180421 0.30906472 -0.3418223 0.4902411 -0.04279448 -0.33072758
0.6944163 -0.026509421 -0.17758615 0.19929971 0.16826956 -0.2535403 0.55588055 0.10147904
0.63404715 0.53061104 -0.73426247 0.010070095 -0.04155361 -0.05028551 -0.19424938 0.26249197
-0.021697232 0.14847724 -0.0068851155 -0.18651466 -0.08214519 -0.14035411 0.13886234 0.038084537
0.011074635 0.090884134 0.00674627 0.317836 1.4876136 1.888389 0.13698971 0.10666496
0.088269256 0.1812479 0.057407822 0.025980534 -0.3824294 1.0890617 1.7152902 -0.061073832
0.078572705 0.050586693 0.02691199 -0.10654893 0.047815476 -0.04447901 -0.11308688 0.026436696
0.034396082 -0.42226425 0.101849385 -0.11291325 0.2191323 -0.1847851 0.15136953 0.115973994
-0.041803543 -0.008390428 -0.045616243 0.14683743 0.13912421 0.06653671 -0.08806473 -0.036266558
-0.09399118 -0.011714386 -0.010390867 0.05755749 -0.13842537 0.11699738 0.06712116 -0.055438764
0.1855006 -0.41083884 -0.2744548 0.23022991 0.06409346 -0.045525547 -0.3432763 0.056883335
0.24363768 0.1366296 0.22335783 0.37821883 0.04009909 -0.14095856 -0.20803648 0.034749124
-0.023612529 -0.10711779 -0.068795346 0.17685726 -0.038810793 0.03046351 -0.045225117 0.008615437
-0.010186037 -0.0010990265 -0.028993523 -0.1671988 -0.01877982 -0.12886085 0.082153074 0.07958919
-0.07725953 -0.007454077 -0.118334845 -0.04250568 -0.041806255 -0.014700226 0.05291937 -0.0520252
-0.12600197 -0.055251244 0.1060708 0.098918356 0.06929799 -0.029931296 1.5636318 -1.0100161
-0.4980038 -0.8379065 -0.067552105 -0.13085645 0.012318967 0.10015936 0.067616165 0.113442
-0.005994862 0.11539924 0.113596626 -0.13620159 0.06411073 -0.18818206 -0.111072354 -0.15117472
-0.037541002 -0.0122877 -0.24409193 0.41394955 0.2546177 0.059357066 -0.0042884112 0.07497347
0.014764273 0.26252005 0.19526266 0.041586068 -0.75996536 0.40219194 -0.4410958 -0.39381173
0.60743123 0.011756226 -0.24247342 -0.04777235 0.15400735 -0.17184146 0.010106944 -0.15899563
-1.5594172 0.62188625 0.0648441 0.03644189 0.013318499 -0.21154736 -1.7405567 -0.01789771
0.303733 1.9475224 -0.4059569 -1.5909159 -0.1443424 -0.31772795 0.073219486 0.040983785
0.5351213 -0.19961788 -0.0014297969 0.10482097 -0.19001906 -0.11996407 -0.0018964211 0.016686158
0.30491892 0.38668004 0.284597 0.049073208 -0.047825225 -0.023628185 -0.30297565 0.190532
-0.072883174 0.17162065 0.01609983 -0.060742106 0.042578127 -0.17718305 0.13734509 -0.09065977
0.13811952 -0.27629578 -0.2361525 0.12018038 1.564834 0.5919108 0.008246127 -0.055087224
-0.040984593 -0.17916135 -1.8227386 0.5938723 -0.033599578 -2.3007615 -0.513578 -1.8011866
-0.026239574 -0.19280693 0.1098556 0.27310956 -0.55367076 0.12704347 -0.35193554 0.029244091
0.08178369 7.693141e-05 -0.088502206 0.09213799 0.46216515 0.12699157 -0.33471245 0.101181984
-0.075739756 -0.0036667958 0.013147983 0.101964206 0.0811229 0.21670398 -0.19487038 0.09202055
00000000: 554e 7d3f 653f 86bf deca da3e a090 543e
00000010: 32ad 373e 7c67 0c3e ec48 2a3f 906d 1c3f
00000020: e75f 60bf 84e8 313e cee8 db3f bb3d 9e3e
00000030: 5503 afbe e200 fb3e 4449 2fbd 2055 a9be
00000040: 44c5 313f 492a d9bc 25d9 35be 3915 4c3e
00000050: db4e 2c3e 09d0 81be 304e 0e3f 3ed4 cf3d
00000060: ea50 223f 20d6 073f a0f8 3bbf 0afd 243c
00000070: 1e34 2abd 2ef8 4dbd 4fe9 46be 5965 863e
00000080: 65be b1bc 6b0a 183e 899c e1bb b3fd 3ebe
00000090: bd3b a8bd fdb8 0fbe ee31 0e3e 88fe 1b3d
000000a0: 6372 353c 7621 ba3d d10f dd3b 66bb a23e
000000b0: 1f6a be3f bbb6 f13f 0847 0c3e 2973 da3d
000000c0: 83c6 b43d 0d99 393e 7724 6b3d 21d5 d43c
000000d0: c9cd c3be 6066 8b3f a18e db3f 8e28 7abd
000000e0: baea a03d fe33 4f3d 8976 dc3c 5336 dabd
000000f0: 29da 433d 9f2f 36bd 189a e7bd c591 d83c
00000100: e8e2 0c3d 0533 d8be 6996 d03d 103f e7bd
00000110: 3864 603e 4e38 3dbe 9d00 1b3e c683 ed3d
00000120: 313a 2bbd 0178 09bc 19d8 3abd 8d5c 163e
00000130: 9476 0e3e 6644 883d 485b b4bd 3e8c 14bd
00000140: 737e c0bd b2ed 3fbc 743e 2abc 67c1 6b3d
00000150: 61bf 0dbe 539c ef3d d276 893d c213 63bd
00000160: dff3 3d3e 7859 d2be 5785 8cbe 64c1 6b3e
00000170: 6f43 833d ff78 3abd e9c1 afbe 80fe 683d
00000180: 287c 793e a1e8 0b3e eab7 643e e6a5 c13e
00000190: f23e 243d 7157 10be 8407 55be 1955 0e3d
000001a0: 106f c1bc 9260 dbbd 93e4 8cbd 121a 353e
000001b0: 11f8 1ebd 9c8e f93c f93d 39bd c327 0d3c
000001c0: 56e3 26bc 360d 90ba d383 edbc 2a36 2bbe
000001d0: 23d8 99bc 19f4 03be df3f a83d a8ff a23d
000001e0: 3f3a 9ebd 5441 f4bb 8a59 f2bd 701a 2ebd
000001f0: 093d 2bbd 37d9 70bc fbc1 583d 6018 55bd
00000200: a906 01be 214f 62bd a63b d93d b595 ca3d
00000210: 1bec 8d3d 7a32 f5bc 1625 c83f 3548 81bf
00000220: 5bfa febe 0a81 56bf c258 8abd 3cff 05be
00000230: 7ed5 493c 5a20 cd3d 587a 8a3d 4754 e83d
00000240: 8c70 c4bb 7056 ec3d 59a5 e83d 6e78 0bbe
00000250: 7d4c 833d ccb2 40be e779 e3bd 8ccd 1abe
00000260: 98c4 19bd 5952 49bc 3cf3 79be 32f1 d33e
00000270: 405d 823e 6520 733d cd85 8cbb b18b 993d
00000280: d9e5 713c 0769 863e eff2 473e 2756 2a3d
00000290: 178d 42bf 1aec cd3e 4fd7 e1be b1a1 c9be
000002a0: 9d80 1b3f 309d 403c f44a 78be f1ac 43bd
000002b0: 1ab4 1d3e 35f7 2fbe 9897 253c c0cf 22be
000002c0: fc9a c7bf f033 1f3f fccc 843d 1744 153d
000002d0: d535 5a3c df9f 58be 90ca debf 389e 92bc
000002e0: e482 9b3e 6a48 f93f 95d9 cfbe 22a3 cbbf
000002f0: 7ece 13be 3dad a2be 19f4 953d 9dde 273d
00000300: b6fd 083f a168 4cbe 0668 bbba 60ac d63d
00000310: 5b94 42be b9af f5bd 5591 f8ba 69b1 883c
00000320: 551e 9c3e edfa c53e b3b6 913e fd00 493d
00000330: 62e4 43bd e58f c1bc a01f 9bbe d21a 433e
00000340: c643 95bd 53bd 2f3e cae3 833c b7cc 78bd
00000350: 6766 2e3d 796f 35be 31a4 0c3e d4ab b9bd
00000360: 346f 0d3e a476 8dbe f6d1 71be 2221 f63d
00000370: 7b4c c83f 7787 173f c31a 073c 24a3 61bd
00000380: 76df 27bd 1376 37be 804f e9bf 0408 183f
00000390: b69f 09bd ad3f 13c0 d979 03bf 488d e6bf
000003a0: 60f4 d6bc 2e6f 45be f9fb e03d 04d5 8b3e
000003b0: 5ebd 0dbf af17 023e e530 b4be 4e91 ef3c
000003c0: 357e a73d 3c56 a138 a540 b5bd d8b2 bc3d
000003d0: e9a0 ec3e 140a 023e 6e5f abbe 8038 cf3d
000003e0: 721d 9bbd a04e 70bb a36a 573c 9cd2 d03d
000003f0: c323 a63d a6e7 5d3e 1a8c 47be 4575 bc3d

final.linears.0.bias f4 [88]
0.07181044 0.23302566 0.78424025 0.6737322 0.09351901 0.30321836 0.3770842 0.014916378
-0.1543416 0.16829485 0.45619252 0.4154776 0.18303543 0.5278214 0.25590315 -0.20704281
0.21928562 -0.08239045 0.009652529 0.26903433 0.60919654 0.2343335 0.26899746 0.44476834
0.43758073 0.7214682 0.22915061 0.087539755 -0.023103876 0.21829686 0.13352393 0.11566528
-0.12848228 0.017969223 -0.06956825 -0.294273 0.13008007 0.3038849 -0.28581208 0.2548786
0.098514736 0.02127338 -0.17738482 0.33685058 0.14245148 -0.018124843 0.06039162 -0.027648702
0.17767629 0.07295839 0.10205271 0.098635234 -0.020585246 0.31002846 -0.05715847 0.20046242
0.3673187 0.2107102 -0.07447614 -0.21400832 0.17843324 0.34191293 0.08759478 0.32093686
0.23667113 -0.08269078 0.041571453 -0.37396 0.09888044 0.38291356 0.10742712 0.30117074
0.13272454 0.17559837 0.5164307 0.20106015 0.25975707 0.47792795 0.34049782 0.19657071
-0.3642991 -0.0039495095 -0.21703254 0.47572997 0.32700196 0.21984024 0.34258246 0.18713926
00000000: 5a11 933d 479e 6e3e f8c3 483f b779 2c3f
00000010: e586 bf3d 703f 9b3e 2e11 c13e d363 743c
00000020: b90b 1ebe 7c55 2c3e 1192 e93e 7bb9 d43e
00000030: a46d 3b3e 4e1f 073f bd05 833e 0803 54be
00000040: 698c 603e 53bc a8bd a425 1e3c debe 893e
00000050: 4ef4 1b3f 1ff5 6f3e 09ba 893e adb8 e33e
00000060: 950a e03e 24b2 383f 75a6 6a3e 0b48 b33d
00000070: 5744 bdbc 3689 5f3e 7fba 083e ebe1 ec3d
00000080: dc90 03be 3134 933c cc79 8ebd f3aa 96be
00000090: b633 053e cd96 9b3e f655 92be 737f 823e
000000a0: 18c2 c93d 8345 ae3c 5ea4 35be ae77 ac3e
000000b0: cdde 113e 8d7a 94bc 345d 773d 887f e2bc
000000c0: c6f0 353e 356b 953d 0301 d13d 4501 ca3d
000000d0: 64a2 a8bc 0dbc 9e3e 001f 6abd 0546 4d3e
000000e0: 3211 bc3e 6ac4 573e f286 98bd ff24 5bbe
000000f0: 34b7 363e 360f af3e e464 b33d d651 a43e
00000100: eb59 723e c959 a9bd d446 2a3d af77 bfbe
00000110: d481 ca3d 3f0d c43e c002 dc3d 0d33 9a3e
00000120: f1e8 073e 0fd0 333e cd34 043f b6e2 4d3e
00000130: e1fe 843e f9b2 f43e bb55 ae3e d549 493e
00000140: 6985 babe e36a 81bb c73d 5ebe e192 f33e
00000150: cd6c a73e cd1d 613e f866 af3e 6fa1 3f3e

final.linears.1.weight f4 [88, 88]
-0.41043597 -0.50189984 -0.17980386 -0.5579665 -0.5480932 -0.58509046 -0.2323673 -0.22934593
-0.27296838 -0.10862834 -0.41580856 -0.2366382 -0.6507015 -0.0736176 -0.1402414 0.018320944
-0.3597274 -0.13687427 -0.2759199 -0.13461955 -0.40715992 0.053527687 -1.8530477 -0.026421128
-0.0811783 -0.3840507 -0.37706977 -0.024932671 -0.41350994 -0.50079226 -0.18882021 -0.034176547
0.32227042 -0.50683117 0.120723486 0.21160033 -0.35623628 0.14903776 -0.21655418 -0.11560902
-0.5893566 -0.5278313 -0.31223965 -0.24573362 0.108408995 0.00059382815 -0.17892422 -0.028717447
-0.5190647 -0.17007743 -0.2574558 -0.40026724 -0.18102977 -0.635052 -0.08723019 -0.5140249
-0.29860318 -0.17163512 -0.015220612 -0.09359658 -0.36312392 -0.00461939 -0.19683592 -0.08564747
-0.4669667 0.103713706 -0.16432437 0.079724185 -0.24669796 -0.28882915 -0.3081685 -0.22705668
-0.03398895 -0.35548738 -0.04435442 -0.20170563 -0.26774108 -0.38727802 -0.411163 0.10629048
0.049954828 -0.3795783 -0.4255367 -0.2116093 -0.16124311 -0.12567279 -0.65266025 0.077888526
-0.30537543 -0.34931558 -0.1903651 -0.4798321 -0.33323023 -0.39973828 -0.18986923 -0.26717225
-0.19567424 -0.21738756 -0.26440743 -0.23889953 -0.46189636 -0.13870299 -0.11093413 -0.10128549
-0.05659521 -0.10111352 -0.21581309 -0.2318776 -0.38604566 0.13409074 -0.6439408 -0.031148858
-0.25064063 -0.38673604 -0.22563723 -0.1106034 -0.36322623 -0.2920194 -0.15977138 0.004192388
0.16474994 -1.4151881 0.1260252 0.19387129 -0.20048375 0.18399984 -0.14434403 -0.010204524
-0.35344207 -0.31070969 -0.27931783 -0.10414211 -0.10167995 -0.029300403 -0.18862052 -0.033780817
-0.37393108 -0.20285082 -0.23552935 -0.3498566 -0.27051863 -0.3769865 -0.14288038 -0.32301
-0.27364358 -0.104191944 -0.085035585 -0.24050963 -0.25008386 -0.024932774 -0.15822072 -0.01679468
-0.34574762 0.09954747 -0.050473697 0.16346283 -0.115521796 -0.2516911 -0.24900918 -0.15536308
0.05309303 -0.22884962 -0.04846355 0.0334661 -0.26478037 -0.24513306 -0.27489603 -0.08123863
0.059495445 -0.34819576 -0.29822865 -0.064272754 -0.10338728 -0.07290825 -0.37517464 -0.058288634
0.0048999097 0.008850638 0.1483942 -0.076996416 -0.044871096 -0.002222828 0.015043279 -0.046260033
0.021566281 -0.1673101 -0.033199713 -0.02087544 0.036327485 0.04730724 0.1335253 -0.0038141755
0.0016073054 0.04245197 -0.015280388 -0.0983876 -0.13018698 0.0505463 -0.16706297 0.007523164
-0.091475815 -0.054546557 -0.060344033 -0.057250824 -0.021767488 0.008730938 0.01626706 0.06367679
0.07831824 -0.054509487 0.018243367 0.06574354 0.00725831 -0.015903875 -0.03685139 0.07084539
0.2514942 -0.021818578 0.032451417 0.18978018 0.011067924 -0.17779079 -0.03293564 -0.1038611
0.00794108 -0.05638715 0.044770006 -0.05224926 -0.026073853 -0.022525843 0.28934556 -0.05452112
0.035633605 -0.23019224 0.38249293 -0.049600437 -0.018938921 0.017032485 -0.011575621 -0.014756204
0.021499477 -0.04700983 -0.027006997 -0.019756349 0.1985718 -0.14085963 0.033089098 0.09750811
0.07557232 -0.012198819 0.016306564 0.064981684 -0.04623807 0.123557456 -0.027597148 0.603218
00000000: aa24 d2be 827c 00bf 811e 38be e4d6 0ebf
00000010: d64f 0cbf 7dc8 15bf b2f1 6dbe a9d9 6abe
00000020: 83c2 8bbe 8978 debd dce4 d4be 4951 72be
00000030: 6094 26bf d3c4 96bd 719b 0fbe ce15 963c
00000040: 312e b8be c528 0cbe 6045 8dbe b5d9 09be
00000050: 4477 d0be d93f 5b3d ab30 edbf 1f71 d8bc
00000060: cf40 a6bd 4ba2 c4be 4a0f c1be 9a3f ccbc
00000070: 93b7 d3be ec33 00bf 165a 41be b5fc 0bbd
00000080: a100 a53e b0bf 01bf e03d f73d c2ad 583e
00000090: 9a64 b6be 5b9d 183e 61c0 5dbe 6cc4 ecbd
000000a0: 13e0 16bf f41f 07bf e0dd 9fbe 98a1 7bbe
000000b0: 8905 de3d 22ab 1b3a e937 37be da40 ebbc
000000c0: 6de1 04bf c728 2ebe 3fd1 83be d4ef ccbe
000000d0: de5f 39be c592 22bf bea5 b2bd 2397 03bf
000000e0: 84e2 98be 1ec1 2fbe e05f 79bc 90af bfbd
000000f0: 61eb b9be 405e 97bb 5b8f 49be f167 afbd
00000100: 4216 efbe da67 d43d a644 28be 6f46 a33d
00000110: 649e 7cbe 6ae1 93be 43c8 9dbe 8c81 68be
00000120: ff37 0bbd 7102 b6be fbac 35bd ec8b 4ebe
00000130: 5c15 89be 4e49 c6be f583 d2be d3ae d93d
00000140: 6f9d 4c3d 1658 c2be f2df d9be 1cb0 58be
00000150: ea1c 25be 5eb0 00be be14 27bf 0584 9f3d
00000160: 2b5a 9cbe 7ed9 b2be 12ef 42be 8eac f5be
00000170: 279d aabe 7faa ccbe 146d 42be cdca 88be
00000180: d45e 48be d89a 5ebe 6960 87be 14a2 74be
00000190: ae7d ecbe 2808 0ebe 6f31 e3bd c46e cfbd
000001a0: 61d0 67bd 9b14 cfbd 1bfe 5cbe 5271 6dbe
000001b0: c7a7 c5be 154f 093e 4ed9 24bf e42b ffbc
000001c0: f853 80be 4402 c6be 720d 67be 0984 e2bd
000001d0: caf8 b9be 9183 95be 1c9b 23be 4d60 893b
000001e0: 35b4 283e e224 b5bf c00c 013e 3286 463e
000001f0: 9d4b 4dbe 746a 3c3e ecce 13be e030 27bc
00000200: 5cf6 b4be 5715 9fbe bf02 8fbe 7548 d5bd
00000210: 943d d0bd 6607 f0bc bd25 41be c15d 0abd
00000220: e573 bfbe 20b8 4fbe 9b2e 71be 6720 b3be
00000230: 6b81 8abe 6004 c1be 3c4f 12be 9161 a5be
00000240: 031b 8cbe 9662 d5bd 2327 aebd 2848 76be
00000250: fe0a 80be d13f ccbc 9d04 22be ff94 89bc
00000260: d505 b1be 8bdf cb3d 82bd 4ebd cd62 273e
00000270: b196 ecbd a8dd 80be 43fc 7ebe 8017 1fbe
00000280: 1478 593d 8e57 6abe b781 46bd c013 093d
00000290: 4b91 87be 2904 7bbe 2cbf 8cbe 7060 a6bd
000002a0: 7fb1 733d b746 b2be 6db1 98be 6fa1 83bd
000002b0: b6bc d3bd ec50 95bd e416 c0be 10c0 6ebd
000002c0: 6c8f a03b 4402 113c a6f4 173e 4cb0 9dbd
000002d0: c1ca 37bd deac 11bb 1678 763c 297b 3dbd
000002e0: c5ab b03c 5753 2bbe 6cfc 07bd f902 abbc
000002f0: 21cc 143d 3dc5 413d dbba 083e 3ff7 79bb
00000300: 38ac d23a 1ee2 2d3d 985a 7abc 707f c9bd
00000310: bc4f 05be a309 4f3d 8e12 2bbe e084 f63b
00000320: ac57 bbbd 366c 5fbd 4e2b 77bd d77f 6abd
00000330: bb51 b2bc 350c 0f3c 7f42 853c fa68 823d
00000340: 5065 a03d 5745 5fbd 1d73 953c 8da4 863d
00000350: 1ed7 ed3b d848 82bc 7cf1 16bd 6317 913d
00000360: d9c3 803e e0bc b2bc c7eb 043d bc55 423e
00000370: 3d56 353c ca0e 36be 86e7 06bd 21b5 d4bd
00000380: 4e1b 023c 36f6 66bd c160 373d 5203 56bd
00000390: d598 d5bc 1e88 b8bc 1a25 943e 8a51 5fbd
000003a0: 8bf4 113d 84b7 6bbe 1dd6 c33e d429 4bbd
000003b0: cc25 9bbc b687 8b3c aca7 3dbc 01c4 71bc
000003c0: ac1f b03c 618d 40bd c73d ddbc 11d8 a1bc
000003d0: 6856 4b3e 823d 10be 6f88 073d 55b2 c73d
000003e0: a9c5 9a3d 8edd 47bc 5895 853c 1e15 853d
000003f0: 2164 3dbd b10b fd3d 6a13 e2bc 7f6c 1a3f

final.linears.1.bias f4 [88]
-0.28984693 -0.2306951 0.04625005 -0.3404891 -0.1959669 -0.21822275 -0.2298383 -0.045707006
-0.06912029 0.5671794 -0.16736484 -0.082225375 0.1731091 -0.142912 -0.0052359547 -0.06438666
-0.4840805 0.5654838 -0.18726853 -0.24763851 -0.38856804 -0.12097595 0.090187564 -0.30300975
0.12865712 -0.15977862 0.05043945 0.20294343 -0.1389189 0.50637764 -0.37324533 -0.44086233
-0.35654965 -0.12244018 -0.16887136 0.047300197 -0.35118726 -0.16490357 0.04341933 0.17738539
0.18185808 -0.273665 -0.16801825 -0.19587965 -0.3047475 -0.2590395 0.063846774 -0.1157637
-0.20764297 -0.028555144 -0.3095133 -0.012265699 -0.1546714 -0.20918767 -0.2384136 -0.16223232
-0.20493466 -0.12832622 -0.56159943 -0.1407918 -0.55884594 0.20516135 -0.14116512 -0.2436551
-0.36005098 0.025767868 -0.28175884 -0.45915568 -0.2999935 -0.17693755 -0.35641193 -0.27159005
-0.24009591 -0.2533224 -0.16120666 -0.11491306 -0.16602291 -0.48572472 -0.13770317 -0.316004
0.2916951 -0.006233529 -0.036544695 -0.3384515 0.04930842 -0.28217825 -0.24750282 -0.12492899
00000000: d166 94be 563b 6cbe b170 3d3d 9654 aebe
00000010: 8cab 48be c975 5fbe bb5a 6bbe 4537 3bbd
00000020: f08e 8dbd ab32 113f b061 2bbe c765 a8bd
00000030: 8343 313e 8657 12be 5f92 abbb 27dd 83bd
00000040: 66d9 f7be 8cc3 103f 52c3 3fbe f394 7dbe
00000050: 64f2 c6be 3dc2 f7bd 42b4 b83d 1824 9bbe
00000060: b1be 033e 029d 23be 9999 4e3d 67d0 4f3e
00000070: c240 0ebe f7a1 013f 031a bfbe b5b8 e1be
00000080: ad8d b6be ebc1 fabd 9dec 2cbe dabd 413d
00000090: d1ce b3be 7bdc 28be 78d8 313d 84a4 353e
000000a0: 0139 3a3e d21d 8cbe fa0c 2cbe ad94 48be
000000b0: dd07 9cbe d3a0 84be 19c2 823d 8515 edbd
000000c0: 5ca0 54be 7aec e9bc 8778 9ebe 12f6 48bc
000000d0: 2e62 1ebe 4b35 56be b222 74be 3b20 26be
000000e0: 64da 51be f367 03be fbc4 0fbf ba2b 10be
000000f0: 8710 0fbf d115 523e 978d 10be b980 79be
00000100: 9a58 b8be 2317 d33c b242 90be 7416 ebbe
00000110: bf98 99be 1e2f 35be a07b b6be da0d 8bbe
00000120: b4db 75be 79b3 81be 5c13 25be 8a57 ebbd
00000130: e901 2abe e9b0 f8be 0f02 0dbe 47cb a1be
00000140: 0f59 953e a242 ccbb e4af 15bd 8449 adbe
00000150: a0f7 493d ab79 90be 6171 7dbe c5da ffbd

final.linears.2.weight f4 [12, 88]
0.09025519 0.0126731135 0.16534445 -0.31511876 -0.15872207 -0.063875295 0.13323775 -0.13256256
0.12638141 -0.013362301 -0.102886185 0.0983154 -0.009720382 0.06967512 0.026843417 -0.005518416
-0.0026884757 0.008109198 0.27488887 0.40719837 -0.8246619 -0.094800614 0.0014036773 0.0075965906
-0.00024977844 0.18998583 0.0055859624 0.014547469 0.20102626 0.0015008546 -0.7190227 0.013663762
0.0008723121 -0.3161741 0.2214185 0.08693705 0.024875587 -0.35785004 -0.135857 0.0016983266
-0.0043532 -0.17193621 -0.004913902 0.0031227302 0.4376192 -0.0017471903 -0.007937559 -0.15299575
0.0057625426 0.32029268 -0.011135265 0.07495957 -0.030697683 -0.51225406 0.010184113 -0.0009338247
-0.012090167 0.056703128 0.007922041 -0.022823347 -0.043663576 -0.0050915657 -0.005749933 1.0223857
0.9579902 0.015842818 -0.26839444 0.026114546 0.5841362 -0.082719974 0.1933301 0.0018057481
-0.093477204 0.43864596 0.14672522 -0.03060074 0.11169544 -0.0048976727 -0.16544491 -0.56845534
0.029927397 0.08156609 -0.05955243 -0.33159786 0.06744494 -0.57304066 -0.2129599 0.0006838894
-0.0073412037 -0.020987326 -0.12942679 -0.30730602 0.27723458 0.08194746 -0.01687319 -0.33776605
-0.24248637 -0.018095411 -0.13537998 -0.040877417 -0.0023566391 0.19606832 0.0061058276 -0.0038854475
0.0027070981 0.0031229018 -0.20836246 0.81527716 -0.87247974 0.04094682 -0.0035272506 0.003445222
0.004807141 0.12307644 -0.0028939703 0.04957106 0.008732643 0.013350065 -0.24085636 -0.018463513
-0.0035664632 0.2452836 -0.13697152 0.16212521 0.045218065 -0.154427 -0.031214135 0.008583639
-0.004110229 0.123346016 -0.005446657 -0.006953431 -0.14348903 -0.009721552 -0.019059427 0.4407534
-0.009360107 0.1267298 -0.008121987 0.029287515 -0.01050307 0.36061084 -0.024179926 0.008617082
-0.008389611 0.26624587 0.0059895394 0.0046479045 0.018016167 -0.0064516594 0.33746392 -0.3662272
-0.48199022 0.040991947 0.57765 0.016732605 -0.56511503 -0.18326528 0.21608211 -0.028411325
-0.095733136 0.24809337 -0.27484065 -0.047277007 0.29155248 -0.004025763 -0.23798679 -0.92201555
-0.0033451198 0.109215595 -0.0399329 0.3272474 0.11250778 0.9056076 0.013675034 -0.0005430777
0.3822583 0.3066167 -0.04311351 0.16168445 -0.013012489 0.019172542 0.020072764 -0.06619913
0.02342951 -0.70801806 0.03733465 -0.041123684 0.1235464 0.016723115 -0.08973851 0.14761846
-0.16171311 -0.13120069 0.072041065 -0.103457816 -0.115009844 0.031251978 0.023563493 -0.14535426
-0.015648581 0.022113815 0.37836596 -0.8867407 -0.0025297771 0.5129492 0.07121289 -0.41360742
0.33964676 -0.09096728 0.006708509 -0.022162266 0.2929963 0.025397662 0.027764702 -0.42193165
0.11955739 0.051153865 0.16025744 0.7477217 0.294969 -0.028350482 0.22886252 -0.8614905
0.2622492 -0.018914219 1.6149443 -0.061277937 0.019366987 -0.018459732 0.30308363 -0.05006226
0.08813876 0.0046040886 0.54866385 0.22577466 0.89448667 0.05660214 0.1735371 -0.47100547
0.20982143 -0.21627559 0.34196028 0.41927478 -0.050364334 0.044327546 0.23641299 -0.9604489
0.05619416 -0.071643054 -0.055799 0.24584664 0.056273323 -0.46156284 -0.20509538 0.007665816
00000000: b7d7 b83d e4a2 4f3c 0e50 293e 3f57 a1be
00000010: 0a88 22be 0dd1 82bd 7a6f 083e 7bbe 07be
00000020: 216a 013e 8ded 5abc feb5 d2bd 9659 c93d
00000030: 3d42 1fbc d4b1 8e3d bae6 db3c d4d3 b4bb
00000040: 2331 30bb 71dc 043c 3cbe 8c3e 4e7c d03e
00000050: 0b1d 53bf d326 c2bd 98fb b73a d2ec f83b
00000060: b2f4 82b9 a58b 423e 730a b73b 8258 6e3c
00000070: d4d9 4d3e 53b8 c43a df11 38bf f9dd 5f3c
00000080: e0ab 643a 92e1 a1be 88bb 623e 0d0c b23d
00000090: e3c7 cb3c 1f38 b7be 191e 0bbe 629a de3a
000000a0: 4aa5 8ebb 0c10 30be cc04 a1bb b8a6 4c3b
000000b0: a00f e03e fa01 e5ba 890c 02bc ebaa 1cbe
000000c0: b6d3 bc3b 67fd a33e b070 36bc 6784 993d
000000d0: b579 fbbc 1523 03bf 44db 263c eacb 74ba
000000e0: d615 46bc 8a41 683d 73cb 013c 07f8 babc
000000f0: 94d8 32bd 26d7 a6bb ef69 bcbb 89dd 823f
00000100: d93e 753f ccc8 813c ff6a 89be 2cee d53c
00000110: f389 153f 1769 a9bd 53f8 453e daae ec3a
00000120: fa70 bfbd 3496 e03e 233f 163e 67ae fabc
00000130: 94c0 e43d a87c a0bb 646a 29be 4a86 11bf
00000140: 4d2a f53c 1f0c a73d 40ed 73bd 32c7 a9be
00000150: 9320 8a3d cbb2 12bf 2912 5abe 0a47 333a
00000160: 7b8e f0bb 9ded abbc 7588 04be 3757 9dbe
00000170: b1f1 8d3e 12d4 a73d a539 8abc acef acbe
00000180: 594e 78be d43c 94bc 0da1 0abe 146f 27bd
00000190: d871 1abb 22c6 483e 6513 c83b fea2 7ebb
000001a0: 9269 313b 99a9 4c3b f85c 55be 01b6 503f
000001b0: d55a 5fbf dab7 273d 7229 67bb 3cc9 613b
000001c0: 3985 9d3b 800f fc3d c4a8 3dbb 060b 4b3d
000001d0: 5c13 0f3c 3bba 5a3c 0da3 76be cb40 97bc
000001e0: 53bb 69bb a02b 7b3e 4342 0cbe 2704 263e
000001f0: 9436 393d 1d22 1ebe c9b4 ffbc 64a2 0c3c
00000200: 1aaf 86bb d69c fc3d df79 b2bb 9bd9 e3bb
00000210: caee 12be 2547 1fbc 8422 9cbc 6eaa e13e
00000220: 225b 19bc 75c5 013e 1512 05bc 5fec ef3c
00000230: 1215 2cbc fca1 b83e fb14 c6bc a92e 0d3c
00000240: 9474 09bc 6151 883e e643 c43b 734d 983b
00000250: a496 933c 7168 d3bb 12c8 ac3e 2282 bbbe
00000260: 6cc7 f6be 2ce7 273d dfe0 133f d112 893c
00000270: 61ab 10bf e5a9 3bbe a144 5d3e debe e8bc
00000280: bc0f c4bd 300c 7e3e eab7 8cbe 89a5 41bd
00000290: 5e46 953e 8cea 83bb cfb2 73be 3609 6cbf
000002a0: cc39 5bbb 6dac df3d ae90 23bd f98c a73e
000002b0: 7b6a e63d e6d5 673f 400d 603c 545d 0eba
000002c0: 5cb7 c33e ddfc 9c3e cb97 30bd 9c90 253e
000002d0: 5632 55bc bc0f 9d3c a36f a43c 6993 87bd
000002e0: 3eef bf3c ac40 35bf 38ec 183d 4f71 28bd
000002f0: e505 fd3d eafe 883c d3c8 b7bd 4b29 173e
00000300: 1f98 25be 7959 06be 448a 933d b1e1 d3bd
00000310: 488a ebbd 1302 003d 3a08 c13c bfd7 14be
00000320: 7431 80bc 0828 b53c 2fb9 c13e 7001 63bf
00000330: 9eca 25bb a450 033f 10d8 913d 5ac4 d3be
00000340: 2ee6 ad3e 0e4d babd 0dd3 db3b a48d b5bc
00000350: 9c03 963e c20e d03c cd72 e33c 6d07 d8be
00000360: 81da f43d b786 513d 871a 243e b06a 3f3f
00000370: 2d06 973e 453f e8bc f05a 6a3e a48a 5cbf
00000380: 8745 863e fef1 9abc 7fb6 ce3f 93fe 7abd
00000390: 84a7 9e3c dd38 97bc c72d 9b3e 160e 4dbd
000003a0: 1882 b43d e5dd 963b 3c75 0c3f 7931 673e
000003b0: 14fd 643f a5d7 673d b6b3 313e a127 f1be
000003c0: 6edb 563e 5977 5dbe 6b15 af3e 2fab d63e
000003d0: d54a 4ebd cd90 353d 3f16 723e fbdf 75bf
000003e0: d92b 663d 98b9 92bd 7e8d 64bd 39bf 7b3e
000003f0: db7e 663d f751 ecbe 8604 52be 8731 fb3b

final.linears.2.bias f4 [12]
-0.009761336 -0.053983558 0.3079932 -0.2928821 -0.2759626 -0.24347201 0.0053934255 0.032652605
0.08414874 0.028626526 -0.044178266 0.038207985
00000000: 03ee 1fbc dd1d 5dbd 49b1 9d3e a5f4 95be
00000010: f84a 8dbe ba50 79be 55bb b03b bdbe 053d
00000020: 2d56 ac3d 2d82 ea3c 45f4 34bd fa7f 1c3d

layers.0.attn.0.gnn_q.weight f4 [12, 16]
-1.8270803e-05 1.4217571e-06 -8.8415635e-07 0.0009938725 0.002849175 0.0032142438 -2.6741927e-06 -0.010497434
0.0011701114 -0.0016350442 0.00019292488 0.00070720585 -4.117001e-05 -0.012991734 7.5211588e-06 -0.0030512183
0.00024896278 -9.9660654e-05 -2.8073719e-06 0.00065148924 -0.00051303697 0.0012077307 -7.3881743e-06 0.0112668825
-0.0076491362 -0.0007260747 0.00018385873 0.00039603538 -6.0325588e-06 0.016871411 -1.0966071e-05 -0.005084429
-2.0165544e-05 3.006621e-05 7.922003e-07 -3.268683e-05 0.0027981421 -0.00021323748 1.5638554e-06 0.019431286
0.0016369602 8.358176e-06 1.9253626e-05 -9.452914e-05 0.00012373998 0.26336557 2.241115e-06 0.002961108
6.8824693e-06 -2.1774933e-05 1.4793949e-06 -0.00046473058 -0.0028584632 -0.00078505476 7.1924967e-07 0.00033318315
-0.0019745077 0.00048162328 -0.00014906774 -0.0003216781 1.3908203e-05 0.25727543 -2.9435864e-06 0.0029125158
-3.327387e-05 -1.1238214e-05 1.9799336e-06 -0.00037334743 0.0015842651 0.0014936833 4.9557184e-06 -0.027803306
-0.0012896083 0.00039383653 -0.000115416995 0.0001263614 -4.5818618e-07 -0.33642998 -8.454108e-06 0.0005994681
-0.00033537726 0.00010460375 2.1064993e-06 -0.0017704829 0.001607062 -0.0020793697 8.838472e-06 -0.0008289607
0.0077687674 0.0022958664 -0.0004820369 -0.0006612272 8.1074664e-05 -0.105577216 7.581109e-06 0.005982175
-0.0004398179 0.00025347795 3.0602553e-06 -0.0006378966 0.0024466843 0.0011132425 1.2023144e-05 -0.0028433325
0.0153312655 0.0011101464 -0.00030351186 1.2401964e-05 -4.375824e-05 -0.011601266 6.6648226e-06 0.0023777636
-0.00032659803 8.789976e-05 1.6564603e-07 -0.0016999932 0.003327263 -0.0036482492 1.2411009e-05 0.00016397465
0.007231026 0.002518068 -0.0005584571 -0.00085858576 4.9413287e-05 -0.024718955 1.6264341e-05 0.0047715427
0.00010005442 -1.3850908e-05 7.055425e-07 0.0017617017 -0.0021964256 0.0045553935 -5.798362e-06 0.00058982545
-0.0013168959 -0.0025837494 0.00047957318 0.0009842743 -1.0205807e-05 -0.07753552 -4.3033124e-06 -0.0032641038
1.5036512e-05 4.637028e-05 -8.663477e-07 0.00042573287 -0.0044653006 -0.00032042648 -1.6821627e-07 0.023097664
0.0022498765 -2.546917e-05 0.00015358174 -4.1301657e-05 -3.933996e-05 0.061228927 -2.1796734e-06 0.0023249537
-0.00027515617 0.00017879052 2.7236288e-06 -0.0008354748 -0.00043050078 -0.00032701745 8.062431e-06 0.0045369742
0.009981187 0.0011695832 -0.00026393324 -0.00018627691 -4.3871834e-05 0.023987692 8.6479574e-08 0.0023452134
-0.0001292366 7.829132e-05 1.6238249e-06 -0.00064760016 -0.001063935 -0.001130272 6.756421e-06 -0.0005341646
0.0037793447 0.001280672 -0.00021238039 -0.00036813383 5.9876016e-05 0.0063322373 -1.0127972e-06 0.0033503487
00000000: 4044 99b7 34d3 be35 c356 6db5 d444 823a
00000010: 39b9 3a3b 10a6 523b 4876 33b6 6efd 2bbc
00000020: 6c5e 993a fb4e d6ba e14b 4a39 c863 393a
00000030: f6ad 2cb8 48db 54bc 435e fc36 f3f6 47bb
00000040: 3887 8239 e800 d1b8 4866 3cb6 b4c8 2a3a
00000050: 547d 06ba b84c 9e3a efe7 f7b6 bb98 383c
00000060: 9ba5 fabb 0c56 3eba 34ca 4039 f8a2 cf39
00000070: 496b cab6 ea35 8a3c ebfa 37b7 489b a6bb
00000080: 2d29 a9b7 b236 fc37 97a7 5435 3719 09b8
00000090: 0961 373b 8098 5fb9 aae5 d135 5c2e 9f3c
000000a0: 458f d63a 183a 0c37 d982 a137 f23d c6b8
000000b0: 33c0 0139 dad7 863e 1066 1636 260f 423b
000000c0: f6ef e636 50a9 b6b7 9f8f c635 15a7 f3b9
000000d0: 0e55 3bbb 22cc 4dba 7612 4135 16af ae39
000000e0: be66 01bb 6282 fc39 114f 1cb9 e7a6 a8b9
000000f0: 4757 6937 9bb9 833e 6e8a 45b6 e8df 3e3b
00000100: 8c8f 0bb8 c38b 3cb7 00df 0436 d8bd c3b9
00000110: 1ea7 cf3a b2c7 c33a 4c49 a636 c2c3 e3bc
00000120: 1308 a9ba d87b ce39 070c f2b8 e17f 0439
00000130: a1fc f5b4 8d40 acbe 1ed6 0db7 a025 1d3a
00000140: 93d5 afb9 b65e db38 625d 0d36 8c0f e8ba
00000150: 0da4 d23a 0946 08bb f348 1437 9c4e 59ba
00000160: 2591 fe3b 3f76 163b e6b9 fcb9 3556 2dba
00000170: a106 aa38 de38 d8bd 3b61 fe36 1f06 c43b
00000180: 5c97 e6b9 3ce5 8439 c95e 4d36 8438 27ba
00000190: 8d58 203b 38ea 913a 03b7 4937 3457 3abb
000001a0: fd2f 7b3c 5582 913a ac20 9fb9 0812 5037
000001b0: 0d89 37b8 3d13 3ebc 64a2 df36 41d4 1b3b
000001c0: 3f3b abb9 d356 b838 6fdc 3134 4ed2 deba
000001d0: 360e 5a3b 7717 6fbb e138 5037 9cf0 2b39
000001e0: 3ef2 ec3b 2c06 253b 6c65 12ba b712 61ba
000001f0: 1d41 4f38 687f cabc 686f 8837 9a5a 9c3b
00000200: 4fd4 d138 3261 68b7 8364 3d35 e6e8 e63a
00000210: e8f1 0fbb 6945 953b 8d8f c2b6 849e 1a3a
00000220: b29b acba 1f54 29bb 396f fb39 c402 813a
00000230: 9b39 2bb7 f1ca 9ebd 2c65 90b6 93ea 55bb
00000240: 5445 7c37 b67d 4238 f68e 68b5 e634 df39
00000250: a851 92bb eafe a7b9 f09e 34b4 5037 bd3c
00000260: aa72 133b a0a6 d5b7 c90a 2139 513b 2db8
00000270: f600 25b8 2fcb 7a3d 8146 12b6 405e 183b
00000280: d642 90b9 b779 3b39 96c7 3636 c403 5bba
00000290: d6b4 e1b9 8a73 abb9 e143 0737 e6aa 943b
000002a0: 2288 233c b34c 993a 8560 8ab9 5453 43b9
000002b0: 0603 38b8 d681 c43c a6b6 b933 27b2 193b
000002c0: b083 07b9 5530 a438 33f2 d935 b6c3 29ba
000002d0: bc73 8bba a325 94ba 37b5 e236 2e07 0cba
000002e0: e2ae 773b 39dc a73a 6db2 5eb9 1602 c1b9
000002f0: 6223 7b38 a87e cf3b 72ef 87b5 8691 5b3b

layers.0.attn.0.gnn_q.bias f4 [16]
2.5586682e-05 -3.2833283e-05 9.291661e-10 -0.00020363861 0.0010635074 -0.000502761 8.949732e-08 0.023946999
-0.0019173567 0.00045991098 -1.8530465e-05 -0.00013070204 -3.850788e-05 0.24933407 -9.872792e-07 0.00028193454
00000000: fba2 d637 78b6 09b8 4068 7f30 d387 55b9
00000010: 6365 8b3a b8cb 03ba ac31 c033 7f2c c43c
00000020: d14f fbba 3520 f139 df71 9bb7 100d 09b9
00000030: 8583 21b8 6e51 7f3e a882 84b5 9dd0 9339

layers.0.attn.0.gnn_k.weight f4 [12, 16]
-2.3626086e-05 2.1026462e-06 -1.3436349e-07 0.0010756964 -0.00029820343 0.0032203477 -2.6746409e-06 -0.010566454
0.0011758849 -0.0017695917 0.0001946653 0.00070559 -3.3887885e-05 -0.0107827345 3.7341251e-06 -0.0032545598
0.00025788147 -9.9525896e-05 -2.4970604e-06 0.0006842717 0.000107929045 0.0012206868 -7.3581596e-06 0.010401527
-0.00765252 -0.00092598435 0.00018383723 0.00039622968 -2.4912242e-05 0.01524092 -1.0423971e-05 -0.0057503036
-2.1353711e-05 3.0110761e-05 6.8453863e-07 -8.314506e-05 0.00013839934 -0.00021576716 1.5019345e-06 0.02146939
0.0016400666 5.218393e-05 1.8267268e-05 -9.357638e-05 0.00013838334 0.30627757 2.961737e-06 0.002791046
1.5930758e-05 -2.2132994e-05 7.6255856e-07 -0.0006388091 0.003682318 -0.00073759945 7.133552e-07 -0.0028771693
-0.0019752553 0.0007489958 -0.00014997061 -0.00031937117 1.9489813e-05 0.20353645 -4.9927326e-07 0.003399926
-4.8019123e-05 -1.0997501e-05 2.3683428e-06 -0.0002553293 -0.004342155 0.0014569352 4.961131e-06 -0.023076108
-0.001289929 0.00035999148 -0.000115157716 0.00012542153 -5.6955982e-06 -0.26814955 -1.0039806e-05 0.00016325938
-0.0003398432 0.000105369814 3.53197e-06 -0.0016353211 -2.8704437e-05 -0.0021487107 8.800338e-06 0.0006425959
0.00777692 0.0020822235 -0.00047859267 -0.0006634371 4.9119262e-05 -0.066889435 7.972274e-06 0.0053287414
-0.00043520614 0.00025363525 2.7368355e-06 -0.00073542196 8.500744e-05 0.0011320552 1.2038391e-05 -0.0030407947
0.015328063 0.0010680287 -0.0003007204 1.3825993e-05 -3.117544e-05 -0.013141782 4.0696077e-06 0.0022660904
-0.00033102534 8.768637e-05 -2.0426464e-07 -0.0017369805 -0.0011536811 -0.003649815 1.2426597e-05 0.0011310042
0.007224573 0.002694396 -0.00056177314 -0.00085774285 5.6577046e-05 -0.011304915 1.5223332e-05 0.0046303924
9.657183e-05 -1.3357332e-05 6.992425e-07 0.0018279087 -0.00043134455 0.0045437836 -5.8229984e-06 0.0010278563
-0.001311967 -0.0026485394 0.00048423183 0.0009839251 -1.4128695e-05 -0.059185784 -5.9613344e-06 -0.0030121708
3.0383002e-05 4.6721612e-05 -5.842486e-07 0.0002883541 0.003423908 -0.00025161132 -1.10382416e-07 0.021068567
0.0022467468 -0.00031664572 0.00015287317 -3.9547216e-05 -2.3682038e-05 0.0523129 1.7119315e-06 0.0009346979
-0.00026762622 0.00017969075 3.2744585e-06 -0.0008149297 0.0012719359 -0.0002792286 8.106514e-06 0.0035294883
0.009983366 0.00086352264 -0.0002662345 -0.00018619154 -3.5723628e-05 0.027386373 -2.2253437e-06 0.001980324
-0.00012548249 7.846063e-05 8.024586e-07 -0.00072697224 -0.0006541596 -0.0010634445 6.843617e-06 -0.0010485142
0.003768311 0.0012893195 -0.00021621936 -0.00036601844 6.073078e-05 0.003235916 -1.0836084e-06 0.003735974
00000000: a230 c6b7 301b 0d36 8e45 10b4 62fe 8c3a
00000010: 3058 9cb9 780c 533b fb7d 33b6 ec1e 2dbc
00000020: 2620 9a3a a5f1 e7ba 121f 4c39 58f7 383a
00000030: d722 0eb8 11aa 30bc c897 7a36 744a 55bb
00000040: 4434 8739 8fb8 d0b8 2c93 27b6 b260 333a
00000050: f757 e238 74ff 9f3a 1ce6 f6b6 2b6b 2a3c
00000060: fec1 fabb c2bd 72ba 6ec4 4039 0cbd cf39
00000070: a2fa d0b7 0db5 793c 9de2 2eb7 0b6d bcbb
00000080: bf20 b3b7 5e96 fc37 23c1 3735 2a5e aeb8
00000090: 4a1f 1139 8e3f 62b9 1496 c935 93e0 af3c
000000a0: 81f7 d63a 11e0 5a38 a93c 9937 703e c4b8
000000b0: ff1a 1139 6ad0 9c3e 41c2 4636 fbe9 363b
000000c0: 0ba3 8537 3eaa b9b7 a0b2 4c35 c175 27ba
000000d0: 0b53 713b 765b 41ba 657d 3f35 e48e 3cbb
000000e0: 4973 01bb 4258 443a 6e41 1db9 4671 a7b9
000000f0: 0e7e a337 dc6b 503e cc05 06b5 4bd1 5e3b
00000100: 2468 49b8 e881 38b7 d2ef 1e36 b8dd 85b9
00000110: a348 8ebb a2f6 be3a ca77 a636 1b0a bdbc
00000120: d612 a9ba 3dbd bc39 d480 f1b8 9683 0339
00000130: d11c bfb6 e64a 89be a370 28b7 9b30 2b39
00000140: fb2c b2b9 fdf9 dc38 c806 6d36 4558 d6ba
00000150: 4fca f0b7 62d1 0cbb 2aa5 1337 e273 283a
00000160: 89d5 fe3b ea75 083b 9feb fab9 83ea 2dba
00000170: 6805 4e38 54fd 88bd a8c0 0537 b99c ae3b
00000180: 612c e4b9 59fa 8439 7aaa 3736 55c9 40ba
00000190: 0646 b238 7861 943a 7ff8 4937 1248 47bb
000001a0: 8e22 7b3c 19fd 8b3a 02aa 9db9 30f6 6737
000001b0: 60c2 02b8 a150 57bc aa8d 8836 b082 143b
000001c0: 788d adb9 43e4 b738 d653 5bb4 65ab e3ba
000001d0: 1d37 97ba bc31 6fbb d47b 5037 343e 943a
000001e0: 1cbc ec3b 7794 303b f543 13ba 26da 60ba
000001f0: 244d 6d38 4038 39bc b767 7f37 8cba 973b
00000200: 9b86 ca38 4e19 60b7 94b3 3b35 7096 ef3a
00000210: 1626 e2b9 05e4 943b 2d63 c3b6 22b9 863a
00000220: 4ff6 abba 1e93 2dbb 7fe0 fd39 0cf7 803a
00000230: 480a 6db7 cb6c 72bd 7907 c8b6 d767 45bb
00000240: 00df fe37 f3f6 4338 42d5 1cb5 3b2e 9739
00000250: a563 603b b3ea 83b9 600b edb3 fd97 ac3c
00000260: 283e 133b 7803 a6b9 944c 2039 80df 25b8
00000270: caa8 c6b7 0d46 563d 85c5 e535 8406 753a
00000280: 2f50 8cb9 5e6b 3c39 c5be 5b36 02a1 55ba
00000290: 16b7 a63a 6e65 92b9 3601 0837 fd4e 673b
000002a0: 4691 233c 065e 623a 6495 8bb9 693c 43b9
000002b0: f4d5 15b8 6359 e03c 1d57 15b6 53c8 013b
000002c0: f393 03b9 3b8b a438 8968 5735 4892 3eba
000002d0: e87b 2bba 4763 8bba 39a2 e536 4c6e 89ba
000002e0: c5f5 763b 62fe a83a f1b8 62b9 2ae6 bfb9
000002f0: 2eb9 7e38 a911 543b 8070 91b5 3ed7 743b

layers.0.attn.0.gnn_k.bias f4 [16]
2.9022029e-05 -3.2435615e-05 -4.457619e-08 -0.00022303875 -0.0020767457 -0.00048268196 1.1986722e-07 0.027203709
-0.0019182201 0.00040849173 -1.8230723e-05 -0.00012984595 -6.171142e-05 0.3005846 1.1746183e-06 0.0001664065
00000000: 5574 f337 7a0b 08b8 0a74 3fb3 82df 69b9
00000010: 031a 08bb 7a10 fdb9 dab4 0034 50da de3c
00000020: c96c fbba d52a d639 2eee 98b7 4227 08b9
00000030: 116b 81b8 3ae6 993e 94a7 9d35 687d 2e39
