checkpoints/lipophilicity_astrazeneca_50_train1_neg/Aug26-11:59:03_400.pth (torch, 377407 bytes, 294 tensors)

layers.0.weight f4 [10, 16]
00000000: 895d d83e b759 733e 0e3c 213c 76f8 8cbe
00000010: c1ae 81be 77a0 58bf 52c0 6dbe 480d 6b3f
00000020: c5ac 9e3d c9d6 43bf 9a6d b93f d170 5b3f
00000030: 50f0 4b3f fdce 2d3f c1b3 323e 82da 59be
00000040: d654 9a3f 27af ae3c d6cb 5fbe 5191 f13e
00000050: 27a0 b13e d508 2abf 1528 c33c 80ab 0d3f
00000060: 874b 96bf 1449 b8be 2099 85bf 39e1 1ebf
00000070: 1e82 d9be 0b80 533e 1898 3f3f d34b 5fbf
00000080: d986 b03f a9ba 1abe d0c4 41be 4de5 943e
00000090: 0d99 883f c42c 233f 8b1c 743f efe1 09bf
000000a0: 7ad4 053f 686e a73e b736 803e 82e4 4b3f
000000b0: ab6e 503f 27d0 8c3d 57a0 423f 90b0 a9bd
000000c0: 966e fc3e f423 4ebf dbe8 adbf 2615 abbe
000000d0: 3eb3 4ebf fbdf 0b3f ef44 f33e e6ce 9b3e
000000e0: 96e3 b03e 2f39 f7be d152 0f3f 6e29 24bf
000000f0: ab06 8bbe ae61 2dbf ddb8 e5bd c75c 6ebf
00000100: fbc1 a93e 1f82 e9be 7ac9 903f 1940 34bf
00000110: 8f01 0abf 83a6 cebe 8eaf a23f 9b7f 083e
00000120: 9137 3c3f e5d5 f5be 2af8 33bf 3256 3cbf
00000130: c850 8dbd 2a0c ff3e 691c b3bd fdd4 b73e
00000140: 2960 f1bd be2c 49bf 2c7a e33e 2bce 77bf
00000150: f382 ad3d a2cb 9ebb c900 4c3f 36c3 63bf
00000160: 574a 52bf 8a67 db3e 97e7 da3e d12f 4fbe
00000170: c577 0bbd 4330 263f f2a0 2fbf 1caf 4fbf
00000180: 98fc ad3d e072 973d bcc1 963d 0ff2 6abf
00000190: 99da eabe 5b6f 0fbe d8f7 87bd 992a 40bf
000001a0: a5aa 79be c393 9fbe 9b3c 9f3b 50b2 653e
000001b0: ec99 7fbf bd35 47be d24c dd3f 2b78 363e
000001c0: 2bae 753f 2a96 e9be 02a6 8cbe 22cb 34bd
000001d0: 38c2 ba3e 1761 cdbf 24f2 78bf df36 40bf
000001e0: d81a 963e 4968 57bf 3598 afbe 3904 bcbe
000001f0: eeb4 dbbe 6314 dabe 355a 60bf 2b50 cbbd
00000200: f61e 1c3f cd71 5bbc 7b1e 3e3f c490 133e
00000210: cbe9 32bf 44a9 2e3f 4800 fabe b3e0 0cbf
00000220: ccda 18bf 9222 3fbf 7004 1cbe 0087 9fbe
00000230: 66be c63f 194d 5fbf e6e1 933e 77c8 bbbd
00000240: 881b 5ebf 732c 303e 473d 553e 9a09 2c3f
00000250: 62c6 803f 62aa f1be 56d2 463f 7f5d f4be
00000260: bc74 9ebc a8bf aebf 73e6 6b3f 199e 8dbf
00000270: e9b9 a23e ca91 743d 3d73 a93e 1094 d6bd
0.42258862 0.23764692 0.009840978 -0.2753331 -0.2532864 -0.8461985 -0.23217896 0.9181714
0.07747797 -0.7649961 1.4486573 0.8571902 0.7966356 0.67893964 0.17451383 -0.2127476
1.205714 0.021323754 -0.21855101 0.4718118 0.346925 -0.66419727 0.023822824 0.55339813
-1.1741799 -0.35993254 -1.0437355 -0.6206241 -0.42482084 0.20654313 0.7484145 -0.87225074
1.3791152 -0.15110268 -0.18922734 0.29081193 1.0671707 0.6374018 0.95356053 -0.5386037
0.5227734 0.3270142 0.25041744 0.7964555 0.81418866 0.068756394 0.7602591 -0.0828563
0.4930312 -0.8052361 -1.3586687 -0.33414572 -0.8074225 0.5463864 0.4751353 0.30431288
0.34548634 -0.48285815 0.5598574 -0.64125717 -0.27153525 -0.6772717 -0.112169005 -0.93110317
0.33155808 -0.45607087 1.1311486 -0.70410305 -0.5390863 -0.40361413 1.2709825 0.13329928
0.7352229 -0.4801475 -0.70300543 -0.73569024 -0.069001734 0.49813968 -0.08745653 0.35904685
-0.11785919 -0.78583896 0.44429147 -0.9679896 0.08472242 -0.0048460523 0.796887 -0.88969743
-0.82144684 0.42852432 0.42754814 -0.20233084 -0.034049768 0.6491739 -0.6860496 -0.8112657
0.08495444 0.073949575 0.07361171 -0.917756 -0.45869902 -0.14007322 -0.06639069 -0.75065
-0.24381502 -0.3116742 0.0048595197 0.22431302 -0.9984424 -0.19454093 1.7289069 0.17819278
0.95968884 -0.4562238 -0.27470404 -0.044139035 0.36476302 -1.6045254 -0.9724448 -0.75083727
0.29317355 -0.841435 -0.34295812 -0.36721972 -0.42911476 -0.4259368 -0.87637645 -0.099274
0.6098474 -0.013393831 0.7426526 0.14410692 -0.6988799 0.6822703 -0.4882834 -0.55030364
-0.5970886 -0.74662125 -0.15236068 -0.31157684 1.5526855 -0.87227017 0.28883284 -0.09169095
-0.8676076 0.17204456 0.20824157 0.6720215 1.0060542 -0.47200304 0.776647 -0.47727582
-0.019342773 -1.3652239 0.9214851 -1.1063873 0.31782463 0.059709348 0.33095732 -0.104774594

layers.0.bias f4 [16]
00000000: 8afd 45bd 8f54 b1be ca30 a53d 7b46 e43e
00000010: d089 593d 67e6 e03d 0f10 08be add2 32bd
00000020: aa79 8cbe 0c69 9ebe 2e7e 9ebc a42b b23e
00000030: 2cdc bcbd e460 7e3e 1e8d 273c 90b2 053f
-0.048337497 -0.34634826 0.080659464 0.44585022 0.053109944 0.10981446 -0.13287376 -0.043657947
-0.27436572 -0.3093952 -0.019347277 0.3479892 -0.09221682 0.24841648 0.010226516 0.5222559

layers.1.weight f4 [16, 16]
00000000: 3b39 253f 1770 5ebe edfc 0dbf 5902 a6be
00000010: 2f2f 863e f1bd c4be 80dd f53e f096 243f
00000020: bd61 133f ac53 20bf 8481 08be a7c8 9dbd
00000030: faed 01bf 291d 8abe 49c9 993c da98 bc3c
00000040: 962b d2be 8562 603f b03f 203f 6417 05bf
00000050: 6847 02bf e251 023f 32df 553e e672 04bf
00000060: 4af2 c4bc 0379 003f 1b7f 283e 0837 ff3e
00000070: cf5b 55be d20a c8be 774e a93e ccd5 53be
00000080: dd2c b73e c653 fb3e cdaf 943e 5b49 9abd
00000090: 9866 a2bd a154 ac3e c63c 7dbd c55f ce3e
000000a0: ebcf 02bf 26e3 0cbe acca 513f 8034 2c3e
000000b0: 7607 2f3f 2dad 9fbe 03ad 8dbd 2219 27bf
000000c0: 73f9 52bd 1853 093f 9166 4d3f 1e6e 8c3e
000000d0: fc38 38bf f0fe 8dbe e86b a3bf b2ee 4e3f
000000e0: 1830 d63e 5474 7c3d 176d 09be c27c 1fbe
000000f0: afbc 2dbf 39c9 6e3c cfdb 7fbe f1d5 95bd
00000100: d1c5 68bf 9116 263f 3d97 353e 98c5 363e
00000110: 5619 06bf e9b2 83bf fda5 1ebf bc43 a53e
00000120: 5569 853f c809 bb3e 7828 a13e 8b04 ae3e
00000130: f2ed 8cbc 8b63 c4be 04e1 f43c 68a8 2dbe
00000140: 2b28 aa3e 695c 02bf 4589 0bbd c564 7cbe
00000150: ef2e 273c 034b 16be 9549 1c3e 48da b43d
00000160: e817 01bf 8c2c 563f 64f5 f4be 7030 21be
00000170: 8493 0fbf d881 823e 7cda 43be 2527 46bf
00000180: 1424 683f 9b3e 6dbf db0e 853e 6e61 42be
00000190: 3c6e 313f a244 08bf 4378 833f a97a 6dbe
000001a0: ee20 ec3e 7edc 8b3f f927 6c3e 3633 45be
000001b0: 6f97 3b3f e921 d0bd d7b7 153e 881e b3be
000001c0: 1518 853f 676b ec3d 4591 6e3f eb73 bcbe
000001d0: ea25 43be 4bb6 c13e d09f 37bd 8960 14bf
000001e0: 08b6 33bf 7ab5 e2bc 0304 0cbf 3f47 8abe
000001f0: 7aa8 07bf a5a7 bfbd f073 17be 2fcf 313f
00000200: 58c0 a83f 8dcb 1ebd 939f d9be 9f1c d5be
00000210: a46f 0bbf d229 a9bf 2a00 203f 95f9 12bf
00000220: 2ffc 95be 3af1 153c d4d6 e1be 6cbc 1cbe
00000230: 879f cd3e 0240 c9be 2ce7 02bc a1a5 a1be
00000240: 6820 44bf 9320 eb3d 3036 37bf 9405 ca3d
00000250: c7cc 00bf 61aa 8dbd 2fb1 5a3e 359f 283e
00000260: 9461 24bf 8e62 123f 77c0 9c3e 9a5c 9c3e
00000270: 6667 893e 677a cb3e c302 213e d4b6 093f
00000280: c3ea 04bf 44e4 24bf 27da 753f 2bcd 89bd
00000290: 7fd0 313e c9e4 07bf f928 0e3f 7d0a 7abf
000002a0: e21d fcbe bf29 67be 3039 b5be b885 16bd
000002b0: a231 d3be e07d 97be 8a0b 06be ed31 7bbf
000002c0: a554 0fbf 1dd2 213f 1241 3dbf 04ee 903e
000002d0: a0ed 84be 3926 fdbe 5752 99bf 65ca debe
000002e0: 9ee6 46bf b2c1 11be 5f33 883e cee3 b33c
000002f0: 9aae dbbe b905 3ebe eac8 f3bd ed61 a03e
00000300: 6f83 b1be b15f e13e 1617 8e3e 3684 283e
00000310: 831e 05bd 9ae9 37be cb53 10be 33aa 453f
00000320: ad97 29bf e820 9dbd 19c4 5d3e b00e bb3d
00000330: fe55 f6be e76e d0be a0ec 3b3e 9786 2bbf
00000340: 430f eebe d8ef 023d b0ed da3e 1baf 743e
00000350: 3c58 193d 59be cebd 935e 13bf cb0b 15bf
00000360: 3df3 b8bc 13a3 003f 8899 4b3f 39f5 30be
00000370: ff90 343f aefa 01bf bd16 603e a748 493f
00000380: 2247 553d 7a0f 043f 3d3f 0fbf aecf bc3d
00000390: ec61 a63d 9c1b e93e 9080 b9be 1e31 a6bd
000003a0: c250 fd3e 0454 ce3e 8229 dabd e61d 90bd
000003b0: 78c2 3abf 21f6 fcbe 89ab a0bd 0aa1 e4be
000003c0: 52f8 f83d 6482 503f dadf b1be c083 9c3e
000003d0: b832 acbe dee1 adbe d634 babf 9267 06bf
000003e0: ad91 09bf e508 8a3e 51bb e03d 4c11 5dbc
000003f0: d50e 083f 641f 403d 0fb4 5cba d3d5 74be
0.6454045 -0.21722446 -0.5546406 -0.32423666 0.26207873 -0.38426164 0.48020554 0.6429281
0.5757101 -0.62627673 -0.13330656 -0.07704287 -0.5075375 -0.26975372 0.018772738 0.023022104
-0.41048878 0.8765033 0.6259718 -0.51988816 -0.5089021 0.50906193 0.20885924 -0.5173782
-0.024041314 0.5018465 0.16454737 0.49846673 -0.20835803 -0.39070755 0.33067676 -0.20687026
0.35776415 0.49087352 0.29040375 -0.07533523 -0.079297245 0.33658317 -0.061825536 0.4030744
-0.5109851 -0.13758525 0.8194988 0.16816902 0.6837076 -0.3118681 -0.06917765 -0.65272725
-0.051507425 0.53642416 0.8023463 0.27427763 -0.7196195 -0.27733564 -1.2767305 0.8083297
0.41833568 0.061634377 -0.1342052 -0.15574935 -0.67866033 0.014574342 -0.24986194 -0.07316197
-0.90926844 0.64878184 0.17733474 0.17848814 -0.5238241 -1.0288974 -0.6197203 0.3227824
1.042277 0.365309 0.31476188 0.3398784 -0.017203305 -0.38357195 0.029892452 -0.16958773
0.3323377 -0.50922257 -0.034066457 -0.24647816 0.010204061 -0.14677052 0.15262444 0.08830696
-0.50427103 0.83661723 -0.47843468 -0.15741134 -0.56084466 0.25489688 -0.19126314 -0.7740348
0.9068005 -0.92673653 0.25987896 -0.18982479 0.6930883 -0.53229725 1.0271076 -0.23191322
0.46118873 1.0926664 0.23062123 -0.19257817 0.73277944 -0.10162718 0.1462091 -0.3498423
1.0397974 0.11543923 0.93190414 -0.36807188 -0.19057432 0.3783439 -0.044830143 -0.579598
-0.7019963 -0.027674425 -0.5469362 -0.2700748 -0.5299145 -0.093581475 -0.1479032 0.6945676
1.3183699 -0.03876834 -0.42504558 -0.416234 -0.54467225 -1.3215888 0.6250025 -0.5741208
-0.29293963 0.009151751 -0.44109213 -0.15306252 0.40160772 -0.39306647 -0.007989686 -0.31571677
-0.7661195 0.114808224 -0.7156706 0.09864345 -0.50312465 -0.06917263 0.21356653 0.16466983
-0.6421139 0.5718163 0.3061559 0.305394 0.268367 0.39741823 0.1572371 0.537946
-0.5192072 -0.64410806 0.96036 -0.06728586 0.17364691 -0.53083473 0.5553127 -0.97672254
-0.4924155 -0.22574519 -0.35395193 -0.036748618 -0.41248804 -0.29588223 -0.1309034 -0.98123056
-0.5598853 0.6321123 -0.73927414 0.28306592 -0.25962543 -0.49443224 -1.1978253 -0.4351379
-0.77695644 -0.14234045 0.26601693 0.021959212 -0.42906648 -0.1855687 -0.11903556 0.3132471
-0.34670588 0.4401832 0.27751988 0.16456684 -0.0324998 -0.17960206 -0.14094464 0.7721283
-0.66247064 -0.07672292 0.21656837 0.09133661 -0.48112482 -0.40709612 0.18351984 -0.6700224
-0.4649602 0.031967014 0.42759466 0.23894922 0.037437662 -0.100949 -0.57566184 -0.5822112
-0.022576923 0.5024883 0.79531145 -0.17281045 0.70533746 -0.5077313 0.21883674 0.78626484
0.05206979 0.51586115 -0.5595587 0.09219299 0.08124146 0.45528877 -0.36230898 -0.08114837
0.49475676 0.40298474 -0.10652448 -0.07036953 -0.72952986 -0.4940653 -0.07845218 -0.44654113
0.12156738 0.8144896 -0.34741098 0.30569267 -0.33632445 -0.33961385 -1.4547374 -0.52501786
-0.5373791 0.2695991 0.10973228 -0.013492893 0.5314763 0.046904936 -0.0008419165 -0.23909692

layers.1.bias f4 [16]
00000000: a238 273e 0ca5 23bd da45 84bd 18f7 3c3e
00000010: c9e9 6a3e 714b 653e 3c79 e13e aa4d eabd
00000020: 94c4 a83d 127f 2e3e 50ba e53d 2e2c a9bc
00000030: c923 433e e599 66bd 1582 bb3d a823 5abc
0.16330197 -0.039952323 -0.06458636 0.18453634 0.22940744 0.2239206 0.44037807 -0.114405945
0.08240619 0.17040661 0.11217177 -0.02065095 0.1905662 -0.05629911 0.091556706 -0.013314165

final.linears.0.weight f4 [84, 42]
00000000: 6fb9 c83e 807e 9b3f 06fc 58bf 2aa7 e6bd
00000010: 3245 67be a3a1 f8be 2671 71bf 11ba 2a3f
00000020: 5f85 ad3e bf85 583e be4b 16be 5cc0 bdbd
00000030: c50a 01be ffd3 c13c 84d6 013e 9dca 96bc
00000040: cd8f 303d 66c8 10be 6baf fd3d f17e c13d
00000050: 0563 e8bd 5f1b 0fbd da7b 99bd 6fe7 aabd
00000060: 56ac b4bb f89d ae3d 3144 893e d7ea 1a3e
00000070: 5844 233e c527 3d3d 6cee 41be 6ae6 143e
00000080: fa4e 013e 5423 29bd 2e17 7bbd 4d0a 123d
00000090: 11b0 10be 880d 913d 0435 463d eeac 893c
000000a0: 19c2 013e 7183 2b3e e057 3a3c b656 fcbd
000000b0: 6602 37bf e21c 973e 2993 6b3e d1bd 62bf
000000c0: 285a 953f 0a9c e2be b4b1 82bf 32e5 79be
000000d0: 1417 ca3e 7c89 3abd ccf3 be3e c322 113f
000000e0: 21f2 193f 2248 ed3d 9ef6 91bd 2122 bdbe
000000f0: 14b2 23be 34d2 dcbd 891d b93e e44e 5f3d
00000100: 5e9b 983f 57f1 babd e6b8 a9be 4f1a b0be
00000110: 4210 15be ba68 5abe 25d4 24be f58e c8bd
00000120: 64c5 173e 9d78 4f3e c6c5 593d b797 dfbd
00000130: fdb4 183c f28d 683c b29c 123e 228a a43e
00000140: 918a 903e f894 ac3e 45f3 e93d 2551 873e
00000150: eb60 fdbe 77cd f4be c523 2e3e 6ca5 293f
00000160: a05b 233f 5173 e73e b7af 67bf 6631 b53e
00000170: ff06 a53e 4be5 3e3e 9624 7f3d 9d66 6e3d
00000180: 8649 ab3d ee53 0dbe 26e7 fdbd 062f 6abc
00000190: 5a80 063c da00 aa3c 9ce0 e03a 521c 073d
000001a0: fda0 223d 66cc 0d3e 6417 7f3d c777 cc3d
000001b0: bd38 523d bce2 44bd 8b2f 07be 3fd9 a03d
000001c0: d54f c43d 2e5d d8bd 1129 50bd c6f2 85bd
000001d0: 6169 dbbd 9afe 673d faee 033e fe86 2ebd
000001e0: 00ae e0bc 7acc e1bb 11ac fabd 01dc a33d
000001f0: e7de 8fbc 08ad f33b 1d81 c2be 1c3b 223e
00000200: 2020 30bd 9eae e0be d19d 83be 2d47 783f
00000210: 1be9 633e b625 11bf b416 71bf e39f 24bf
00000220: 7771 8abe a514 403e d7aa 733c 9757 bdbd
00000230: 9ab5 8b3d 4190 793e 0927 823e 5879 aa3e
00000240: a75c b0bc 7c00 f23e feb5 66be f042 ca3d
00000250: 7962 c2be dc5f 863e 2f35 bcbd bbf2 883c
00000260: 6da6 c6bd 8c29 8ebd 2ccd 03be 6cad eebd
00000270: cb3e 023e bbe8 cb3d 6a97 ec3c b2a0 4d3d
00000280: 43fa 9fbd 52c1 cf3d d044 bdbd 877f 4dbd
00000290: eb65 18bd 464a a63d 08e8 5c3d de35 483e
000002a0: 4656 8cbe 2c06 073f 9757 27bf b2b3 7bbe
000002b0: 7bda 803f f789 b33d 4eb7 443f 5308 373f
000002c0: 317b 03bf ed13 5c3d 50a4 7e3d e263 353d
000002d0: d66a f13d 25c6 12be e8af 2ebd c6a2 ecbd
000002e0: 5a95 003d 583f 75bc a8dd efbd 6ff5 d9bd
000002f0: 3798 a4bd 4d4d 23be 46e8 38be b2b6 573c
00000300: 9155 393e ad8f 6cbd 8d6a 9e3c dd8a e53d
00000310: 4fa0 2e3d d6b6 4a3d 7d04 30bd f9e8 32bd
00000320: 267d 1d3e 3258 70bd 9e79 9abd 2ef9 373d
00000330: 01f7 8dbc 097f 2a3c d755 babc 9163 d0bc
00000340: 23d7 abbd 0d28 1b3d b1c8 623f 0979 56bf
00000350: f683 35bf 713e a2be b8e4 1cbf 4c94 cbbe
00000360: 50a1 fb3f 5a7e b83f 78b2 53bf cb12 be3e
00000370: f7ac c2be 6d5c ed3d d308 29be 3c9d 9dbe
00000380: 12a2 e53d 608e d6be 6f80 11bd ad8b e6be
00000390: 43d8 773e cf24 72be d7ae 0d3f 62e7 a93c
000003a0: 764d 82be c325 0fbe 785a 0c3f 00f4 c13d
000003b0: 855f f0bd 8232 c8bd 0d45 87be 74bc 2fbd
000003c0: a838 5fbd 28aa 0ebe e4e0 07be 19f3 61be
000003d0: e9de 233e 82fe 5dbe f1d9 ebbc 6a49 d43d
000003e0: 74be d13d 0a65 dabc 0f80 293e 6712 e4bc
000003f0: 5a5f 3f3f aee4 8abf e47f 98bf 07ac be3e
0.39203975 1.214798 -0.8475956 -0.11262353 -0.2258499 -0.4856082 -0.94313276 0.66690165
0.33890817 0.2114477 -0.14677331 -0.09265205 -0.12601765 0.023660658 0.12679487 -0.01840716
0.04310589 -0.14138946 0.12386974 0.0944804 -0.113470115 -0.034938212 -0.07494326 -0.08344924
-0.005513708 0.08526224 0.26809838 0.15128647 0.1594404 0.046180505 -0.18938607 0.14541021
0.12627783 -0.041293457 -0.061301403 0.035654355 -0.14129664 0.07082659 0.048390403 0.016806092
0.12671699 0.1674936 0.01137349 -0.12321226 -0.71488035 0.29514223 0.23005356 -0.88570887
1.1668139 -0.44259673 -1.0210481 -0.24403837 0.39470732 -0.04554127 0.37295377 0.5669367
0.60135084 0.11586024 -0.071271166 -0.369401 -0.159859 -0.107822806 0.36155346 0.054518595
1.1922414 -0.09128063 -0.3314888 -0.34395072 -0.14556983 -0.21329013 -0.16096552 -0.09792892
0.14821392 0.20260854 0.053167127 -0.10917609 0.009320495 0.014193999 0.14317587 0.32136637
0.28230718 0.33707404 0.11423353 0.26429096 -0.49488005 -0.47813007 0.17005832 0.6626804
0.63811684 0.45205167 -0.90502495 0.3538925 0.322319 0.18642156 0.06229075 0.05820333
0.08363633 -0.13801548 -0.12397604 -0.014293438 0.008209312 0.02075236 0.0017156783 0.032985993
0.03970431 0.13847503 0.062278166 0.09983783 0.05132364 -0.048067793 -0.1320173 0.078539364
0.09585539 -0.105646476 -0.050820414 -0.06540446 -0.10713459 0.05663929 0.12884131 -0.042609207
-0.02742672 -0.0068908306 -0.1223985 0.08000947 -0.017562343 0.0074363984 -0.3798913 0.15842861
-0.042999387 -0.43883222 -0.25706342 0.96983606 0.22256891 -0.5669817 -0.9417527 -0.6430647
-0.27039692 0.18757875 0.014872274 -0.09245222 0.06821747 0.24371435 0.25420406 0.33295703
-0.021528555 0.47265995 -0.22530362 0.098760486 -0.37965754 0.2624501 -0.091898315 0.016717305
-0.09699712 -0.06941518 -0.12871236 -0.11654171 0.12719266 0.09956499 0.028880794 0.05020208
-0.078114055 0.10144295 -0.092416406 -0.050170448 -0.03720657 0.08119635 0.05393222 0.19551799
-0.2740957 0.5274379 -0.65368026 -0.24580267 1.0066675 0.08766549 0.768422 0.71497077
-0.5135985 0.05372994 0.06216842 0.04428471 0.117879555 -0.14333399 -0.042648226 -0.11554484
0.031392433 -0.014968716 -0.117121994 -0.10642516 -0.08036845 -0.15947457 -0.18057355 0.013166117
0.18099047 -0.057754207 0.019337917 0.11208127 0.04263335 0.049490772 -0.04297303 -0.04367921
0.15379772 -0.05867786 -0.07542728 0.04491537 -0.017329695 0.010406264 -0.02274601 -0.025438102
-0.083906434 0.037879992 0.8858748 -0.83778435 -0.7090448 -0.31688264 -0.612865 -0.3976158
1.9658604 1.441356 -0.82694197 0.37123713 -0.38022587 0.115898944 -0.16507272 -0.30784023
0.11212553 -0.41905499 -0.035522874 -0.4502844 0.24203591 -0.23646854 0.5534491 0.020740215
-0.25449723 -0.13979249 0.54825544 0.094703674 -0.11736969 -0.097752586 -0.2641987 -0.042904332
-0.05449739 -0.13932097 -0.13269383 -0.2206539 0.16003002 -0.21679118 -0.028790446 0.10365565
0.10241404 -0.026659507 0.16552757 -0.027840806 0.7475487 -1.0851038 -1.1914029 0.3724062

final.linears.0.bias f4 [84]
00000000: 34b2 ef3d 6d51 6c3d 6e46 31bd 33df 533e
00000010: b33c b33d 71eb 0cbc 5a64 03bd 6a67 f1bc
00000020: 8462 5c3d 043e 043e 17b1 413e 3fda 933d
00000030: 7dc4 59bc 88d5 313d 737a 603e d6f1 a43d
00000040: 7740 56bd 89c8 103e d9a8 093d 6011 9dbb
00000050: 5ae0 c53b ae2e 063f 6043 803d f66b c43c
00000060: 250a 13bc 6dd6 c33a 5070 e4bd eb61 5abd
00000070: 213e 9d3d 28de a03d 11f9 f03d dfdb f13d
00000080: 184a 7a3d 7cf5 c23d 5bcd fd3b d6a4 de3c
00000090: 9e03 993d 1f56 493c 73b6 53bd 15f6 a0bd
000000a0: 61ca 0abe 0e32 393e a188 683c 4922 203c
000000b0: dae1 b43d fd09 4fbb 2f1c e9bc e4ef 423d
000000c0: a2c9 243e ec85 49bd fafb e43c 04ff 70bd
000000d0: 7bf7 983d 15ad a9bd d60e 0f3e 7208 5d3d
000000e0: 4e69 823d 9f5a 313d b0c2 833d fc73 4cbe
000000f0: a2c9 763c bf52 6b3d e03a 053e cf18 a23d
00000100: ed60 2e3e f6a4 a53d 1324 abbd 2e01 77bc
00000110: d705 0bbe 57d7 a03d b1c3 4e3d 1832 7a3d
00000120: 9252 673d 9362 28bd c2c2 c43d 1bab 903d
00000130: c953 f33d 6794 a73d bafa dabe a2d3 a8bd
00000140: d470 643d c223 313e 1bc4 493e 22cb c5bd
0.117039114 0.05769484 -0.043280058 0.20690612 0.08751812 -0.0086010555 -0.032078125 -0.029468257
0.05380489 0.12914282 0.1891521 0.072193615 -0.013291475 0.04341653 0.2192171 0.08053939
-0.052307572 0.14138998 0.03360829 -0.004793331 0.0060387077 0.5241498 0.06262851 0.023977261
-0.008974587 0.0014941223 -0.111542344 -0.053316038 0.07677866 0.07854873 0.11766256 0.11809515
0.061105818 0.09519479 0.0077454275 0.02717821 0.07471393 0.012288599 -0.05168767 -0.078594364
-0.13553764 0.180855 0.014192731 0.009773799 0.0883214 -0.0031591647 -0.028455822 0.04759206
0.16092542 -0.049199983 0.027952183 -0.05883695 0.07469078 -0.08284966 0.13970503 0.053963132
0.063677415 0.043299314 0.06433618 -0.1996612 0.015062721 0.05745196 0.1301074 0.07914888
0.17029162 0.080881044 -0.0835649 -0.015075965 -0.13576446 0.07853573 0.050479595 0.06108293
0.05647523 -0.041109633 0.096074596 0.07063886 0.11881215 0.081826024 -0.42769414 -0.08243491
0.055771664 0.17298797 0.19703715 -0.09657885

final.linears.1.weight f4 [84, 84]
00000000: f2cf 25be 609c e9be fdc6 8bbe c502 0bbe
00000010: db94 a4bd b4d5 1dbe 901c 6dbe 14d7 f6be
00000020: 69e9 99bc d242 93be fc67 c2bd 9130 3abd
00000030: 8657 acbd f3ba e5bd 5a2a f0bd 3864 07be
00000040: b9a1 0a3e a96d 18be d3ad e0bd 714f 553e
00000050: 7343 cfbd b9ac 07be ab66 9a3d d0b2 acbe
00000060: 57b8 9cbc c9da b9bd bbad efbd f066 08be
00000070: d5d3 c9be 62d3 0dbe 3550 17be 4beb d03c
00000080: 05ff b13e 3377 0bbe 7c03 44bd 2faa f1bd
00000090: 1be8 053d 195a c2be 0e5f 52be ffe5 8cbe
000000a0: 59b3 233d 3b91 52be 2221 733e df36 0e3e
000000b0: b5f8 90bd 55d6 c0bd adca 94bd 1da7 a3bc
000000c0: 1069 9fbe fb4f d8bd 3a19 33bf 6b9f 63be
000000d0: 1014 f6be 9f94 10be 19c0 23bc e0bb 6dbe
000000e0: d193 a73d e96e 00be 1b27 c0bd 4271 2cbe
000000f0: 5e0f 05be 1e67 91bd 31e2 97be 27cb 59bd
00000100: caa8 01be 670a b93c 7295 15be 76f3 89bd
00000110: 1072 d9bd 2d6b bbbd 01e2 28be 1d7d 48be
00000120: 4330 46be 5e97 22bd 27c4 f33d 5ced 3dbd
00000130: 35ac 65be f529 20be 49b0 28bf 11b1 9dbd
00000140: c26f a6bc ae7d 12be 4964 34be 1a6a 9fbc
00000150: 1c80 103e da37 3a3c 429f 07be 8bf8 21bd
00000160: 6e62 103d 54d8 0b3d 6efd 793a e702 29be
00000170: aa33 0bbd 6f9b c53b d6ad a83c 119b 39bc
00000180: 567c 78bc db51 14be 84e0 803c 8aed b8bd
00000190: be02 5abe c69f d93d f82e 18bd 3cde 8abd
000001a0: 8b20 0ebe 5620 27bd 238a e2bd cc89 ddbe
000001b0: 11c1 8ebc 5b91 0dbe d80c 62bd e442 3bbe
000001c0: 11b3 673d 857e 58bd a7cc a3bd afe4 e73c
000001d0: 5270 a9bd 26d5 333d 297f 5b3d 220a 7f3d
000001e0: d7a1 16bd 505b 0abe f17b 74be 3634 47be
000001f0: da62 263d 5890 d4bc 0734 dcbc 4699 77bd
00000200: 6071 dbbd 3d17 353d 48e3 803d fdf2 8f3c
00000210: 41b6 11be 49fe 66bd 2ed2 dbbd 94a4 cbbd
00000220: c09c 3b3c e938 363d 5772 29bd 4ad6 03be
00000230: 3ebe 06be 5a78 f0bd 68b9 333d d650 5bbd
00000240: e73a dd3b 1b1c 8dbe 1e60 6d3d b196 65bd
00000250: ff79 333c 2a87 813d c602 02bd a00e c1bd
00000260: 453d 853d f565 1bbc 045c 93bd 35b7 2b3d
00000270: fe0b 5abd 5d34 133d 753f 31bd a9df 713d
00000280: 6e27 bbbe d6c8 9cbd a341 89be 46c0 323c
00000290: af11 e13d 8084 52bd 6bcc 24bc 7aac a3bd
000002a0: 0a21 813c 7719 43be 4fe2 8f3e 7da9 81bd
000002b0: a326 a53e 6065 42bd 2a00 dcbc a42c 26bb
000002c0: 0533 c9bd e943 35bd 0eaa 13bd 72c6 01be
000002d0: ed2a 553d 3e1b 843e 8902 78bd 92dd a03c
000002e0: 7162 1abd 06b5 8b3e 51af 13bc 08ef 293d
000002f0: 5163 91bd 1723 8cbe e562 e53d f892 65be
00000300: 225c 813d 0c10 4d3b 14dd a93e a338 aa3d
00000310: aefc 933d e30e c53d 1ead 7c3d a4b1 94be
00000320: 1d06 49bc 9dd6 d1bd f7aa ff3c ec6e 1ebe
00000330: 4a09 a7bd ded0 583d 4e03 b6bd 05a4 65bc
00000340: 2a1a 5fbd 8ab0 a63b a9c4 0fbe b16a c2bd
00000350: de2a d03b 277f 34bd fb01 efbb 2a03 b9bd
00000360: b921 a03e 6c7f 83bd 32f8 db3b 6d4c 343d
00000370: 21cf d93d bd9a 01be 134c 0e3e bca2 cabd
00000380: 9982 54bc 301e 18be 1843 1fbd ccf1 e83a
00000390: b27c 43bc 4f70 5dbd a98e 99be 92b4 693e
000003a0: 2fe3 87bd 4d50 6cbe 6c3c 5abd 18a9 c23d
000003b0: cb02 17bc 065d 29bd da95 b7bd dc34 843d
000003c0: b5c2 c6bd 964f a7bd 13e5 263e 4118 2c3e
000003d0: 6145 b63d 4f11 0bbe cfb1 eebd df54 98bd
000003e0: 5c4c 38be ade3 613c dd3c 02be 29ae 88bc
000003f0: 4c06 04be 0b78 90be baf2 bfbc aeef 18be
-0.16192606 -0.45627117 -0.27300254 -0.13575275 -0.080362044 -0.15413553 -0.23155427 -0.48210967
-0.018788056 -0.28761917 -0.0949249 -0.045456473 -0.08415131 -0.11217298 -0.11726828 -0.13221824
0.13538255 -0.14885582 -0.10970654 0.20831086 -0.10120287 -0.13249482 0.075391136 -0.33730173
-0.019130869 -0.09074933 -0.11703058 -0.13320518 -0.39419428 -0.13850167 -0.1477669 0.025502821
0.34764877 -0.1361969 -0.047854885 -0.11800038 0.032692056 -0.37959364 -0.20544073 -0.27519223
0.03996596 -0.20563214 0.23743108 0.13888119 -0.07078687 -0.094158806 -0.0726522 -0.019977147
-0.31134844 -0.1056213 -0.6996037 -0.22228782 -0.4806218 -0.14119194 -0.00999453 -0.232162
0.081824906 -0.12542309 -0.09382459 -0.1684008 -0.12994143 -0.07099746 -0.29664758 -0.053172257
-0.12662044 0.022587968 -0.1460779 -0.067358896 -0.10617459 -0.091513015 -0.16492464 -0.19578977
-0.19354348 -0.039695136 0.119026475 -0.04636894 -0.22428973 -0.15641005 -0.6589399 -0.07699788
-0.020316962 -0.14305755 -0.17616381 -0.019459773 0.1411137 0.011365855 -0.13244346 -0.03954367
0.03525012 0.034141853 0.000953636 -0.16505013 -0.033984818 0.006030492 0.020590704 -0.011328475
-0.015166363 -0.1448435 0.015732057 -0.09029682 -0.21290109 0.106261775 -0.037154168 -0.06780669
-0.13879602 -0.040802322 -0.11061504 -0.43269193 -0.017426046 -0.1382498 -0.05518803 -0.18287235
0.056567255 -0.052855033 -0.07998019 0.028307287 -0.082733765 0.043904446 0.053588066 0.062265523
-0.036775436 -0.13511395 -0.23875405 -0.1945351 0.040621616 -0.025947735 -0.026880277 -0.060448907
-0.10714984 0.044211615 0.062933505 0.01757192 -0.1422968 -0.05639485 -0.10733448 -0.099435
0.011450946 0.044487868 -0.04136881 -0.12874714 -0.13158509 -0.11741705 0.04387799 -0.053543888
0.0067514065 -0.27560505 0.057952993 -0.056051914 0.010954379 0.063246086 -0.031740926 -0.094266176
0.06505827 -0.009484758 -0.07195285 0.041922767 -0.053234093 0.03593861 -0.043273408 0.05905119
-0.3655352 -0.07655494 -0.2680789 0.010910099 0.10989701 -0.051395893 -0.010058503 -0.07991882
0.015762825 -0.19052683 0.28102347 -0.063311554 0.3225604 -0.04745996 -0.026855547 -0.0025356198
-0.09824184 -0.044254217 -0.03605085 -0.12673357 0.05204289 0.25802034 -0.060549293 0.019636903
-0.037691537 0.27286547 -0.009013967 0.041487724 -0.07099021 -0.2737052 0.11200503 -0.22419345
0.06316401 0.0031290082 0.33176482 0.08311584 0.07225929 0.0962198 0.061688535 -0.2904178
-0.012269524 -0.10246012 0.031209452 -0.15472001 -0.081560686 0.052933566 -0.08887349 -0.014016156
-0.05446831 0.005086963 -0.14039864 -0.09493006 0.0063527664 -0.044066574 -0.0072939373 -0.090338066
0.31275728 -0.06420788 0.006712937 0.044018198 0.1063521 -0.12656684 0.13896208 -0.0989432
-0.01297059 -0.14855266 -0.038882345 0.0017772256 -0.011931585 -0.054062184 -0.29991654 0.22822788
-0.06635129 -0.23077507 -0.05328028 0.09504908 -0.0092169745 -0.04134848 -0.08964129 0.064553946
-0.09705106 -0.08169477 0.16298322 0.16806127 0.08899952 -0.13580821 -0.11655008 -0.07438063
-0.17997879 0.013787192 -0.1271853 -0.016684609 -0.12893027 -0.28216586 -0.02343117 -0.1493518

final.linears.1.bias f4 [84]
00000000: e1b0 6ebe 58f3 c5bd 8e19 0dbe bf84 b6be
00000010: 18fb 87bd 1038 1abc ba63 e63c 4454 863d
00000020: a2d5 acbd 0ee1 373d 252b 8e3d 4e8d c23b
00000030: 868c f4bc c44c 2e3e 64d1 17be db8d adbe
00000040: f281 fe3d 3c78 d6be d46e 21bd ae4c 813d
00000050: 3b0d 73bd 0bfc 96be 96ec 7cbd 0e3b 9abe
00000060: 9ac0 28bc 50bf dabd 9757 843c 1ab9 0fbe
00000070: acc8 da3d b683 d9bd bce9 5bbe 387a efbd
00000080: 5f3a 793d ac8e 01bf cf89 3bbd 4d81 85bd
00000090: a979 54bf 2db0 acbe e34d 353e 2d21 83be
000000a0: 982a 9bbe f21d f3bd e5bd debe 2b27 13bd
000000b0: 4829 89be 694c 02bd 1339 b13c e350 39be
000000c0: 71c5 4e3e dd8d 48be 314b 52be 04d7 f4bc
000000d0: 2b3b ecbe 1d4d a4be 6b50 713e 401a 373c
000000e0: 1975 0a3d c85f 24be 604a bbbd 9359 ba3d
000000f0: 08b4 4f3d 4999 3bbc e366 19be 31e6 2ebe
00000100: f5c3 443e 75a8 3fbe e934 c3bd 0881 debe
00000110: ba5d a7bd d778 86be f9b7 86be a5a5 97be
00000120: 7a0b c4bc b1a3 98be 2a5c 62bd 3b62 e0be
00000130: 23fd 3b3d 6075 acbe c180 d2bd 29bf c0bc
00000140: b223 003e 4f71 c53d 7a20 79be fd48 36be
-0.23309661 -0.09665555 -0.1377928 -0.35648152 -0.06639689 -0.00941278 0.028123725 0.06559041
-0.08439185 0.044892363 0.06941823 0.005937255 -0.029852163 0.17021471 -0.1482597 -0.3389729
0.12427129 -0.41888607 -0.039412335 0.063134536 -0.05933879 -0.2948917 -0.061749063 -0.3012318
-0.010299826 -0.10681021 0.016155047 -0.14035454 0.106828064 -0.10620825 -0.21475881 -0.11693233
0.060846683 -0.50608325 -0.04578572 -0.06518803 -0.8299814 -0.3372816 0.17705493 -0.2561125
-0.30305934 -0.11870946 -0.43504253 -0.035926025 -0.26789308 -0.03181115 0.02163366 -0.18097262
0.20192505 -0.19585367 -0.20536496 -0.029887684 -0.46138892 -0.32090083 0.23565833 0.011175692
0.03380308 -0.16052163 -0.09145045 0.09099116 0.0507088 -0.01145012 -0.14980654 -0.17079999
0.19215377 -0.18716605 -0.09531576 -0.43457818 -0.08172174 -0.26264068 -0.26312235 -0.29618564
-0.023931254 -0.29812387 -0.055263676 -0.43824944 0.045895707 -0.336833 -0.10278464 -0.023528652
0.12513617 0.096407525 -0.24328795 -0.1780128

final.linears.2.weight f4 [10, 84]
00000000: 7d1a de3c 12a2 17bc fdc7 0ebe 2796 103f
00000010: 15b0 debc 6d56 e43c 71e1 6fbd 5076 7e3d
00000020: 1a34 1a3e 398d 1ebe f632 cdbc e135 33bc
00000030: 9139 303e 593f d7bc 553a 1a3c 0a42 77bc
00000040: a479 193e 4400 04be b9bf 633c 4a81 053d
00000050: 6695 0abe 8d98 29be 32cc 0ebe c038 033f
00000060: d502 7a3d 26a3 a33c 4c7e fe3c 873e 183f
00000070: 42e1 3b3d 007e 8a3b a3bc 25be 3f30 853c
00000080: e526 1e3e 0c59 2f3c 6b66 623d 56be ea3d
00000090: b1ee 293c 583d d43e c5d2 663c bd50 00bd
000000a0: 9f3d 00bf 3b26 79bd 146c cfbd c3ce 87bd
000000b0: 9143 143e 6111 a5bd 7541 9cbc 4c8a f7be
000000c0: 3e4b 213e e5d9 113d 3c32 ccba 99e3 1b3c
000000d0: 4810 643e 9ef8 953e 20f5 0fbc 18be 003d
000000e0: 5462 a3bb 249d b3be 80bf b63d 913d c43d
000000f0: 2aea 24ba a234 26be 7d44 8f3d bc90 77bb
00000100: 0fb8 0cbc 0bc1 96be 810b 853c 7ab8 e9b9
00000110: 3e18 083b 9a1f 623d f8c0 ae3d bb5a a2be
00000120: e134 7dbc 8c2b 03bd 78d0 2b3d 467c 18bf
00000130: dc7e 13bc 0c19 2ebb 5d90 da3d 5711 813c
00000140: 14b0 3f3e 665e 4fbd 18ae babc 1ecd b23c
00000150: c1f3 1dbd 5332 093c ea74 ec3d 551e 333e
00000160: 9263 dc3b fafe 89b8 790a 46bc 3bcf dbbd
00000170: 4fa8 3d3e 78a4 fd3d 6a35 26bd 0b5e f5bc
00000180: 0bbe 6d3e 7961 b13d 44a6 4bbd 529f 71bd
00000190: d883 273c cb46 86bc 80d6 743c 32a1 28be
000001a0: 02dd 02bd ef2c b73c 0b04 10be df64 073f
000001b0: 640a 0a3d 02f4 7d3d 5e2d 853d 54f8 a6be
000001c0: 95e3 293e 73be ad3c 3ab6 9abe c991 943c
000001d0: 9b2f d53d ad4a e5bb b9d4 9bbc b1d4 0a3e
000001e0: ebba 6c3c 5d1d 28bf e439 c83c 9f25 3dbc
000001f0: 28b4 ae3e e88f c13d 6585 08be 50ee 20bd
00000200: c42c 4a3e ead5 703e bc6c ce3c e966 c7be
00000210: 4109 2f3e b17a 803c a42a 813c 36f6 bc3b
00000220: 6b44 d43e 5513 e83d 98d4 b9bc 769b de38
00000230: a2c3 c0bb 9f81 213f 560d 00be df1b bcbd
00000240: 85c9 4cbb 40ec cdbd f047 803d 722a 513a
00000250: 8227 493d 8e59 183e a129 a03c a71a c1bc
00000260: 7569 6a3b 9da2 6c3d 8a43 bebe b993 0fbf
00000270: f6bd c8bc f9aa 75bc 41e0 cbbd c573 373e
00000280: 491d be3b ee38 13bc 6b0b 03be 1e1c b7bd
00000290: f26a 11be 2c73 23be 1af1 4ebe 4613 4abd
000002a0: e223 4f3d 19b2 b5bb 8d5c e4bd 5dab 1ebd
000002b0: b6d3 b4bc db8e 0c3d 37d8 633d e190 ef3c
000002c0: ed44 813e 92c0 193e 3649 7cbc 74fa fdb9
000002d0: 4470 f0be 440a f8bd 613a 653d a05d 263c
000002e0: 096c 5ebd fa08 8b3e 6d2a 6a3c 432b 303e
000002f0: c890 123d f992 dfbe 771a 15be bc92 633f
00000300: 2e7a f4bd fb01 0ebd 0f53 23bd 4a47 dcbe
00000310: 07be 05bd 6500 283c 8598 5fbd a460 7d3d
00000320: 2b47 87bd 00d5 0f3d c639 133d 77ff fe3d
00000330: 26fb 4abc fbb3 d83e 327f 0bbd 1853 7b3b
00000340: 5d18 283d 949f f8bc 5404 c6bd 0f17 133e
00000350: 8aa5 10be 1d63 e2bd ed0e e6bd 37bc 9d3e
00000360: 7280 523e 6951 80bd de8c 9ebc 8af6 babc
00000370: 5f98 09bf 2896 19be 74df 623c f4a9 413d
00000380: fb9e 55bc 8e9d 1bbe 1023 873d c81f 993d
00000390: db2d bc3c 3cb7 b03d 6c5c f93d 8a89 b6bb
000003a0: dd5f 01bd 66d7 b83e 2ad3 283b 718c 133c
000003b0: e656 9f3a e42c b0bc e5e5 6a3e 7588 afbe
000003c0: b24d c2bc 4c93 903c 805e f23c ab59 a83d
000003d0: ee59 1abb 1d03 f83b 073f 173d c270 e73d
000003e0: 0532 31be 5c2e ba3c 552f 80be 7f52 733d
000003f0: 91a0 913c eee3 2abe e766 d73d 042d 363c
0.02711224 -0.009254949 -0.13943477 0.56479114 -0.027183572 0.027873242 -0.058564607 0.06212455
0.15058938 -0.1548356 -0.025048714 -0.010938139 0.1720946 -0.026275324 0.0094133215 -0.0150914285
0.14987808 -0.12890726 0.013900691 0.032594003 -0.13533553 -0.165621 -0.13945082 0.5125847
0.061037857 0.019975256 0.031066082 0.5947041 0.04586912 0.004226446 -0.1618524 0.016258357
0.15444525 0.010702383 0.055273455 0.11462085 0.01037185 0.41453052 0.014088337 -0.031326998
-0.50094026 -0.060827475 -0.10128036 -0.066312335 0.144789 -0.080599554 -0.019074181 -0.483477
0.15751359 0.03560819 -0.0015578936 0.009514713 0.22271836 0.29291242 -0.00878647 0.031431288
-0.004986087 -0.35080826 0.089232445 0.09582055 -0.00062909967 -0.16231015 0.06995485 -0.0037775477
-0.008588805 -0.29444155 0.016240837 -0.0004457867 0.0020766403 0.05520592 0.085328996 -0.31709847
-0.015454502 -0.03202395 0.04194686 -0.59564626 -0.009002414 -0.0026565222 0.10672066 0.015755339
0.18719512 -0.050627135 -0.022788092 0.021826323 -0.03856254 0.008373815 0.11545737 0.1749204
0.006725737 -6.580162e-05 -0.012087458 -0.107328855 0.18521236 0.123848855 -0.040578283 -0.02995207
0.23217027 0.086611696 -0.04971911 -0.05898983 0.010224305 -0.016391179 0.014943719 -0.16467741
-0.03194905 0.022360293 -0.14064042 0.5288829 0.033701316 0.062000282 0.06502794 -0.32611334
0.16590722 0.021208977 -0.30217153 0.018135922 0.10409471 -0.0069974274 -0.019022333 0.13557698
0.014448862 -0.65669805 0.024441667 -0.011544614 0.34121823 0.09451276 -0.13332136 -0.039289773
0.19743639 0.23519102 0.025198333 -0.38945702 0.17093374 0.015683504 0.015767403 0.0057666553
0.4145845 0.11331812 -0.02268438 0.00010614742 -0.0058826962 0.6308841 -0.12505087 -0.091850035
-0.0031248045 -0.10054827 0.06263721 0.0007979042 0.049109943 0.14877912 0.0195511 -0.02357228
0.0035768424 0.057772268 -0.37160903 -0.5608478 -0.024504643 -0.014994376 -0.099548824 0.17915256
0.005801831 -0.008985741 -0.12797324 -0.0894091 -0.14200953 -0.15961903 -0.2020916 -0.049334787
0.05057133 -0.0055449125 -0.11150465 -0.038737644 -0.022073608 0.034315925 0.05562612 0.029243888
0.252479 0.15014866 -0.015398314 -0.00048442523 -0.46960652 -0.12111333 0.055963878 0.010154158
-0.05430225 0.27155286 0.014292342 0.17204003 0.035782605 -0.4366682 -0.14560877 0.88895774
-0.119373664 -0.034669857 -0.039874133 -0.4302314 -0.032651927 0.010254 -0.054588813 0.06185974
-0.06605371 0.035115242 0.03594377 0.1245107 -0.01238898 0.42324814 -0.03405685 0.0038349088
0.04103886 -0.03034953 -0.09668794 0.14364265 -0.14125648 -0.110540606 -0.112333156 0.3080766
0.2055681 -0.06265528 -0.01935428 -0.022822637 -0.53748125 -0.14998686 0.013847221 0.04728122
-0.013038392 -0.15196821 0.065984845 0.07476765 0.022971084 0.08628699 0.12175831 -0.005570595
-0.031585563 0.36101836 0.002576063 0.009005652 0.0012156635 -0.02150578 0.2293926 -0.34283796
-0.023718689 0.017648362 0.029586077 0.08220228 -0.0023552137 0.0075687305 0.036925342 0.11300804
-0.17304237 0.022727184 -0.2503611 0.059404846 0.01777676 -0.16688511 0.10517674 0.011119131

final.linears.2.bias f4 [10]
00000000: a48e bcbc fa93 00bd ace6 19bd 1ccc 8c3d
00000010: 001d 18bc 98f0 25be 859c 5a3d 3381 92bd
00000020: 5c80 97bd b873 e4bc
-0.023017235 -0.03139112 -0.0375735 0.06874868 -0.009284258 -0.1620506 0.053371925 -0.07153549
-0.073975295 -0.02788721

layers.0.attn.0.gnn_q.weight f4 [10, 16]
00000000: d294 1cb5 daf2 6814 e95b 8b15 08d5 16af
00000010: 427e 5aa3 4107 1a9c 3bb2 022f 596b cd08
00000020: db6e e0b2 40d4 6926 e29f 5e2d 08f3 f08d
00000030: 5061 1893 ae55 8a2c 623a 6ca9 8a81 0aa9
00000040: a50c a635 57e2 b113 4185 7b15 bd42 3230
00000050: 5eb4 1b25 b0ff 529c a2ea faaf 5494 0908
00000060: 0ee9 c133 48d9 a5a5 dd01 90ae 7024 ae8d
00000070: 3c0f 5392 38d1 0bae a1bb 6a2a 1cd6 0829
00000080: c233 feb5 639d e494 76cb 3696 dbe2 c8b0
00000090: 2388 b0a5 199a 1e1d 317b 4d30 31e1 a988
000000a0: 0c80 0eb4 d2b8 b525 f69a d52e 280b 858c
000000b0: 1410 9e13 b3de a12e 01e5 edaa 938b 6527
000000c0: 10a8 47b8 c6cc 4714 5787 6814 9497 43af
000000d0: 921c 0ca4 2eaf 2a9c 09d6 c931 8437 9689
000000e0: 5b7b 03b5 165a 73a9 4f9d 7b30 a95d fe0e
000000f0: 29d1 3493 76ac 232d b803 32a9 abbb 612c
00000100: b3f8 4eb6 d6e3 b694 2ea7 f295 6365 b3b0
00000110: fb79 99a5 e891 f81c 71f3 5b30 c1b6 2109
00000120: d7d2 2bb4 6a92 97a4 9b7c fa2e 4aaf 610d
00000130: 7817 4013 f4b4 912e 96db dfaa fe8e caa8
00000140: 189e 57b5 2583 3595 3985 4196 6b52 f4b0
00000150: 8b93 b8a5 5fd6 5e1d 4acd 1d30 acda 5389
00000160: f684 c9b3 385a 09a7 c6d9 872e a0e6 1d8d
00000170: 09c2 cf13 b257 e82e 0ac7 11ab 278f 0f2a
00000180: a58b ff35 58a8 4e14 7147 b415 9c76 2430
00000190: adac 2f25 423e 959c 53cb 10b0 d2c9 a607
000001a0: 493e ed33 7243 1925 b04a 93ae 56c0 5e0d
000001b0: 6257 1793 9fbf f7ad 6690 8b2a 2f34 06a7
000001c0: 8d71 3335 1b18 ba14 e749 e715 d26b 8630
000001d0: 71aa 4f25 c3b5 cb9c 0075 e0af e8c3 0887
000001e0: 2f88 8f33 f9a6 c526 6b5a 5cae 876a 4e8e
000001f0: 9d56 3393 176e 4aae adf2 702a dfe2 02a9
00000200: 30fe 2f36 454d 4b94 fc3f e315 3f81 3c30
00000210: c3d9 3e25 0b21 7e9c 1bd8 3eb0 fa5d a007
00000220: e6f1 1334 40fd 19a6 f04c e3ae b0c1 f60a
00000230: 9281 b911 947b bbad d084 a52a 56b1 8529
00000240: deed e735 ad88 3f14 24c0 9815 5b29 8830
00000250: 581b 5525 28b8 979c 5c64 23b0 c95c 9707
00000260: cf78 f433 cdce efa6 40ab bcae 004a 040e
00000270: 0783 b392 0688 5eae b17d a22a 0f5f ce29
-5.833109e-07 1.1760901e-26 5.628666e-26 -1.3718104e-10 -1.184454e-17 -5.09637e-22 1.1886751e-10 1.2363226e-33
-2.6127443e-08 8.1125766e-16 1.265474e-11 -1.484965e-30 -1.9233076e-27 3.9317083e-12 -5.2453166e-14 -3.0754513e-14
1.2371644e-06 4.490427e-27 5.0794165e-26 6.4850864e-10 1.3505218e-16 -6.981364e-22 -4.5641452e-10 4.1401297e-34
9.029655e-08 -2.8770173e-16 -6.548693e-11 -1.073235e-30 -6.659864e-28 -3.1790764e-11 2.0848472e-13 3.0383777e-14
-1.8939538e-06 -2.3084195e-26 -1.4766044e-25 -1.4616391e-09 -3.0623383e-16 2.0990793e-21 7.475363e-10 -1.022426e-33
-1.3271364e-07 3.1523734e-16 9.713645e-11 -2.049861e-31 3.990066e-27 7.360992e-11 -4.225856e-13 3.1855797e-15
-4.7601818e-05 1.0087317e-26 1.1739698e-26 -1.7788998e-10 -3.038186e-17 -5.6474696e-22 5.874203e-09 -3.6163393e-33
-4.898081e-07 -5.4034976e-14 9.1536817e-10 6.2706026e-30 -2.2822318e-27 9.303771e-12 -3.9527165e-14 3.20786e-12
-3.0841154e-06 -1.8467169e-26 -9.8006785e-26 -1.305278e-09 -2.6623926e-16 1.6448979e-21 8.0017687e-10 1.94656e-33
-1.6002319e-07 -6.5733846e-17 1.1390818e-10 6.9544475e-31 2.4245378e-27 6.62598e-11 -3.9765126e-13 -2.2488518e-14
-8.03238e-07 -3.6656114e-26 -1.5632454e-25 -1.7776761e-09 -3.201889e-16 2.9492283e-21 5.7408e-10 -2.550102e-33
-9.383977e-08 -1.9061477e-15 6.1777736e-11 -4.8656965e-31 5.244548e-27 1.05657164e-10 -5.179057e-13 1.2750617e-13
1.9039622e-06 1.0433542e-26 7.2814136e-26 5.9831406e-10 1.5237335e-16 -9.876086e-22 -5.2675836e-10 2.5095523e-34
1.1047502e-07 1.3293486e-16 -6.698053e-11 6.8640548e-31 -1.9101963e-27 -2.8165746e-11 2.4791557e-13 -1.8624524e-15
6.6847934e-07 1.8790708e-26 9.3416754e-26 9.780428e-10 1.8012136e-16 -1.3480397e-21 -4.0828496e-10 -1.0289075e-34
6.683728e-08 1.3714879e-15 -5.0102516e-11 -2.5442751e-30 -2.263568e-27 -4.6027262e-11 2.1400477e-13 -2.9062578e-14
2.6224989e-06 -1.02641196e-26 9.178552e-26 6.857767e-10 1.6553654e-16 -8.4084257e-22 -6.94287e-10 2.4129359e-34
1.3778444e-07 -5.3425756e-16 -1.0336432e-10 2.3761795e-32 2.9267707e-28 -2.1314318e-11 2.9402045e-13 5.9371494e-14
1.728007e-06 9.66999e-27 6.1695456e-26 9.907056e-10 1.848407e-16 -1.0039945e-21 -5.9441674e-10 2.277449e-34
1.13841104e-07 -1.664001e-15 -8.57967e-11 1.6305886e-30 -1.1328789e-27 -5.059777e-11 2.8864197e-13 9.164728e-14

layers.0.attn.0.gnn_q.bias f4 [16]
00000000: b132 c8b9 30fc a194 9acf 5198 d0d5 41b0
00000010: 9185 8ca5 b1b2 c51c ceb5 8134 5ecb 6a8e
00000020: 4beb 1cb6 573c 062e e988 6334 bb1b 5f94
00000030: fa04 3b13 eff2 2c2e 8a6f 78aa 4401 e5b0
-0.0003818474 -1.6356316e-26 -2.7117429e-24 -7.0516837e-10 -2.4376637e-16 1.3082557e-21 2.4160403e-07 -2.8940645e-30
-2.338277e-06 3.0521665e-11 2.119083e-07 -1.1264092e-26 2.3605172e-27 3.932404e-11 -2.2065523e-13 -1.6662303e-09

layers.0.attn.0.gnn_k.weight f4 [10, 16]
00000000: f37b e634 708f aa11 68c9 7794 74f6 5f2c
00000010: 3162 6c21 080d 6b99 153b 7baf 2963 728b
00000020: 9060 1f31 864c dca8 1874 deae 2743 fc90
00000030: 5da5 b28f 2224 70aa 9619 b126 4ea5 722b
00000040: d7f4 6fb5 00ee 8d0f 3018 3694 0f8f d22b
00000050: 4559 a0a1 46d5 ba17 e23d 7130 0707 838a
00000060: 120b 01b2 a8a3 072a c587 4730 7277 7e90
00000070: a021 d50c 18cb b6a7 2699 1ba6 b11a cfac
00000080: fba8 ae35 4fac 8210 3e37 0c15 4fcc abab
00000090: 9d8a 1821 6eec 8399 c96f d1b0 b37f 7c0b
000000a0: 35fc 3632 5a78 8aaa 1a12 dab0 1b39 2a11
000000b0: 7222 e98f f6be 4c28 b5aa 68a5 3e7d 662d
000000c0: 9e2d c338 565b dd92 a94d 9e94 6343 85b0
000000d0: 6d18 27a4 4f00 671b 926f e3b1 dbc9 cd8b
000000e0: 4d05 3c35 0e74 5fa8 0d67 53b1 a0c0 ac90
000000f0: 045d c410 79de 252e a1fc c0a9 32c1 ab2c
00000100: 9f12 1336 c0f8 a811 01af da14 ef60 e2ab
00000110: 8515 6721 4bfb f898 0d92 d4b0 ff35 8a0a
00000120: a3f3 8732 88bc 79aa 5fe6 bdb0 670f f310
00000130: 7bcc db8f 20d8 aa29 02cf 30a6 9ebc 4b2d
00000140: df5d 1935 8915 fc10 cad9 3e15 c000 66ad
00000150: bc63 caa1 a7ef 2b99 fc5d a5b0 af32 8b0b
00000160: b476 9131 4105 b1aa cb99 d0b0 6a86 8711
00000170: 4a77 a38e f8be 3c2b 7409 98a7 941e 812d
00000180: afdc bcb5 d069 df8d 3aa0 9794 7161 f12b
00000190: e98c a0a0 ae26 2d19 21d5 8b30 63ad 668b
000001a0: a054 1fb2 49ad 1b2a 5770 5f30 1256 fe8f
000001b0: 0434 0f0f acb3 c2a7 a267 e325 b6eb e5ac
000001c0: da7c a4b4 960f 1712 c9e0 d494 ef36 112d
000001d0: 05a2 8421 0d86 ab99 d057 5430 2097 868b
000001e0: 5a4c b6b1 f396 032a c921 5230 5d3d 1d91
000001f0: e121 2890 9084 0eab 9237 1227 8e53 06ad
00000200: 81ca f6b5 d6b7 0191 5f0d 5994 87bd aeac
00000210: b40e 86a1 99ce 3099 7bb7 af30 0fb4 148b
00000220: 69c4 77b2 582a 052a db0a 7230 05c9 a78f
00000230: d001 8f0f 1857 7c2a e550 a2a6 5332 06ad
00000240: 86b0 a2b5 8ae2 3691 bdad 8a94 b8a5 2aad
00000250: 14e5 65a2 860c 1319 f17c 9d30 fc75 728a
00000260: 3bb8 32b2 06ff 342a d481 9330 d60c 7c90
00000270: 226c 2e10 a85f 092b d3fc 5ca7 242f 16ad
4.2931023e-07 2.690967e-28 -1.25100336e-26 3.1827015e-12 8.0089865e-19 -1.2151847e-23 -2.2849307e-10 -4.6682104e-32
2.3192435e-09 -2.4458093e-14 -1.01160136e-10 -9.949994e-29 -1.7615851e-29 -2.1328818e-13 1.2288777e-15 8.620508e-13
-8.9390727e-07 1.3995348e-29 -9.193422e-27 1.4961104e-12 -1.0865651e-18 1.2073806e-24 8.776323e-10 -1.2617485e-32
-7.511305e-09 1.2047188e-13 7.258872e-10 -5.0184685e-29 3.2838084e-31 -5.0735342e-15 -5.398398e-16 -5.886257e-12
1.301319e-06 5.154144e-29 2.8316353e-26 -1.2206988e-12 5.1683056e-19 -1.3640576e-23 -1.5238523e-09 4.8629505e-32
1.06511395e-08 -2.4597235e-13 -1.5866732e-09 1.3428232e-28 -2.2988842e-29 1.1365683e-14 -2.018063e-16 1.3101796e-11
9.3068214e-05 -1.3969577e-27 -1.5984554e-26 -9.696176e-10 -3.6233042e-17 1.9107972e-22 -6.6192536e-09 -7.9266846e-32
7.004317e-07 -1.2404152e-14 -3.0763119e-09 -6.8138824e-29 7.745168e-29 3.7714252e-11 -8.570337e-14 4.8815613e-12
2.1915546e-06 2.665903e-28 2.2081402e-26 -1.608517e-12 7.8294325e-19 -6.436024e-24 -1.546654e-09 1.3309228e-32
1.5826862e-08 -2.2181053e-13 -1.3817035e-09 9.587033e-29 -2.167383e-29 7.587008e-14 -6.1342814e-16 1.15810955e-11
5.713354e-07 9.9429654e-29 3.8542e-26 -1.3074153e-11 -1.3714452e-18 -8.88889e-24 -1.2032042e-09 5.361711e-32
4.2335504e-09 -3.1445162e-13 -1.5177702e-09 2.1382084e-28 -4.0297474e-30 6.705604e-13 -4.2198724e-15 1.4679181e-11
-1.4071319e-06 -1.37689095e-30 -1.5310302e-26 1.7151125e-12 -2.71983e-19 8.951702e-24 1.0174156e-09 -4.442683e-32
-9.27426e-09 1.3826886e-13 8.128657e-10 -2.5079487e-29 7.060462e-30 -5.4040617e-15 3.9448447e-16 -6.5347406e-12
-3.0638222e-07 4.766641e-28 -2.1495192e-26 8.2544934e-12 8.987554e-19 -1.7735128e-23 7.724994e-10 -5.184231e-32
-5.3055773e-09 1.1687508e-13 7.6445567e-10 -1.2404025e-28 -3.3158257e-29 -5.06325e-13 2.0291695e-15 -7.635571e-12
-1.8387365e-06 -1.0232954e-28 -1.0958337e-26 -4.966419e-12 -9.084085e-19 -9.140709e-24 1.2785074e-09 -2.8639224e-32
-1.4421951e-08 1.1827464e-13 8.8054514e-10 -1.6544901e-29 1.4101587e-29 2.2412313e-13 -1.1262935e-15 -7.628192e-12
-1.2121316e-06 -1.4427076e-28 -1.4002967e-26 -9.700178e-12 -3.115656e-18 7.602251e-24 1.1458764e-09 -1.16740666e-32
-1.0402853e-08 1.607569e-13 1.0732557e-09 -4.9708125e-29 3.4398752e-29 4.8804927e-13 -3.066819e-15 -8.53698e-12

layers.0.attn.0.gnn_k.bias f4 [16]
00000000: c09d 0a3a 06fd 2418 72ae 5919 1df4 5434
00000010: c49d 1b29 3901 61a0 b94c 03b4 c98e 860b
00000020: bf29 df37 bf36 0aaa 1264 88b2 e0fc 0411
00000030: 9c7f a596 bcc3 23b2 c418 732e 00be f12c
0.0005287789 2.1324247e-24 1.1253866e-23 1.9832846e-07 3.4553754e-14 -1.9058646e-19 -1.2228237e-07 5.182976e-32
2.6603111e-05 -1.2275856e-13 -1.587799e-08 1.0490887e-28 -2.673772e-25 -9.532354e-09 5.52738e-11 6.870726e-12

layers.0.attn.0.gnn_v.weight f4 [10, 16]
00000000: 35c0 403e 97b0 763e 4e5a 0e3f 4084 f2bd
00000010: 3e49 e83e e0ca 3c3f 0561 9bbd 13f7 32bf
00000020: 09a4 8b3e bf2e 733f e15e 87bd 1e62 3cbf
00000030: ccc3 8abf 7f5e 573e bec9 943e 8ec8 a73f
00000040: 8761 c83c 589b 4bbf f678 ef3e 8c06 173f
00000050: 3683 383f bbf7 0fbf e473 4fbe 0dbb 84be
00000060: afbd 613e f728 80bb ddd3 77bd 91c1 6c3e
00000070: 2235 6fbd d313 11bf 244d 573e 34c7 cbbe
00000080: a73d 21bd 7bc3 4cbf 4fce b93e 27ad 1a3f
00000090: 0d3c fb3e 7f59 29bf 431a 1abd a5e7 36bd
000000a0: fa5b 203e 0c50 89be 72d0 98bd f2fc d43e
000000b0: b005 6a3e c437 16bf 97e3 bc3d bdaf 25bf
000000c0: 1f0c 013e 2695 053e d08d 353e 4286 43be
000000d0: 61d7 f3bc 310e d0bd b736 5c3e 03f6 e23d
000000e0: cf63 3bbd 1781 e6bc a86c c63d a955 1ebe
000000f0: d06c 13bc f104 01be d65b 03be 944d 20bd
00000100: 0b30 d63c 4d23 2cbc 1a03 5a3d ac6d 6d3d
00000110: f190 2dbe 9ca9 bbbc 5874 7e3e 19b2 13bd
00000120: 5c09 c73c d81a 39bd db55 a7bd a73b fdbc
00000130: e0c6 debc 5b04 e53c 5ca0 c1bc ff09 593d
00000140: 62e2 ffbd 41cb c7bd b4c2 d6be 8ed4 ca3e
00000150: 3484 d7bd e09f 883e 0010 243d 72b9 7dbe
00000160: 6dc8 c6bd 1888 06be 3f4b 99be ff4e 1b3e
00000170: 9433 9c3d b018 d63e 5676 483d ef5b 193d
00000180: f058 edbd 441f 3bbc e575 15be ce39 e03d
00000190: da60 91bd ef00 3b3d 3448 42bd 82e9 29bd
000001a0: 5c68 d0bc e30d e1bd 3d92 c2bd 6d27 283e
000001b0: c140 1f3d 41db 7c3d 6e8a 593d b908 9d3d
000001c0: 302a e4bd f114 363f ebe3 3cbf 40c3 11bf
000001d0: 8abe 51bf 9da8 543e c793 753e c443 163f
000001e0: 13ce b8be 6fc7 f8be ed38 163e 0912 023e
000001f0: fea6 1d3f 2f2c ed3e 337f bdbe 29ac 80be
00000200: c0ad 333e a809 863d 08d0 8c3e 303c 7cbe
00000210: 8ef7 f6bd 13e1 32be 9298 733e 4bf3 3e3e
00000220: 7c44 f73d 6163 c03b c089 493e 8310 d5bd
00000230: 73d9 b83d ff0f a6be 8829 dbbd b188 bf3d
00000240: 3601 adbd e610 bf3d 4a6b 73be eb5f 0cbd
00000250: 6782 25be 418f e13d 3503 1dbd 684b 403c
00000260: 18e9 96bd 10b2 98bd af54 64bd b62b 743d
00000270: 23ab ce3d 7139 263e 5bba 373c 506c 043d
0.18823321 0.24090801 0.55606544 -0.11841631 0.4536838 0.7374706 -0.075868644 -0.69908255
0.27273586 0.94993204 -0.066098936 -0.73587215 -1.0841002 0.21032141 0.29060167 1.310808
0.024460567 -0.7953391 0.46771973 0.58994365 0.7207521 -0.5623738 -0.20259053 -0.25923958
0.22045015 -0.0039111334 -0.060504783 0.23120715 -0.05840028 -0.56670874 0.2102552 -0.39800417
-0.039365437 -0.7998578 0.36290213 0.6042046 0.49069253 -0.66152185 -0.0376227 -0.044654507
0.15660086 -0.26818883 -0.07461633 0.41599232 0.22853732 -0.5867884 0.09223097 -0.6472128
0.1260228 0.13045177 0.17729878 -0.19094184 -0.029765787 -0.10158957 0.21505247 0.11082079
-0.04574948 -0.028137727 0.09688693 -0.15462364 -0.008998111 -0.12599541 -0.12828001 -0.039136484
0.026145956 -0.010506463 0.053225614 0.05796592 -0.16949822 -0.022908024 0.24849069 -0.03605852
0.024296455 -0.045191616 -0.081706725 -0.030912234 -0.02719444 0.027956178 -0.023636036 0.05298805
-0.12494351 -0.097555645 -0.41945422 0.3961529 -0.105232626 0.26684475 0.04005432 -0.24777773
-0.09706197 -0.13137853 -0.2994022 0.15166853 0.07627025 0.4181571 0.04894098 0.03744119
-0.11589229 -0.0114210285 -0.14595754 0.10948525 -0.07098551 0.045655187 -0.04743214 -0.041482456
-0.025440387 -0.10988977 -0.09500549 0.1642129 0.038880114 0.061732534 0.053110532 0.07667679
-0.11140859 0.71125704 -0.73785275 -0.5693855 -0.81931365 0.20767446 0.23982154 0.5869715
-0.36094722 -0.48589656 0.14670153 0.12702192 0.61582935 0.46322772 -0.37011108 -0.25131348
0.17546749 0.065448105 0.27502465 -0.24632335 -0.12058936 -0.17468672 0.2378867 0.18647496
0.12073609 0.005871222 0.19681454 -0.1040354 0.0902585 -0.3243408 -0.10701281 0.09352244
-0.084474966 0.09329395 -0.23771396 -0.034271162 -0.16163026 0.11013652 -0.038333137 0.011736728
-0.07368678 -0.07455838 -0.055744823 0.059612 0.100912355 0.1623285 0.011213864 0.032329857

layers.0.attn.0.gnn_v.bias f4 [16]
00000000: 5b40 a3bd f0bd a5bd 87c0 a5bd b917 b83d
00000010: 6259 453d ac0e 2e3d c92d 23be 08d7 37bd
00000020: 4b58 383d ffff ea3c 0ee6 01bd f781 d23d
00000030: 77d5 0d3c c3ae 203d bf6e b13d c66e 913c
-0.07971259 -0.08092868 -0.08093362 0.089889 0.048180945 0.04249446 -0.15935434 -0.044882804
0.045006078 0.028686522 -0.031713538 0.10278695 0.008656851 0.039229166 0.08663701 0.017753016
