checkpoints/lipophilicity_astrazeneca_50_train1_neg/Aug26-11:59:03_800.pth (torch, 377407 bytes, 294 tensors)

layers.0.weight f4 [10, 16]
00000000: ae09 a23e 92be ac3d 8cd8 86bd 0a94 93be
00000010: df70 b6be 4560 64bf 974d 59be 307d 6e3f
00000020: bfce 863d e238 31bf 4293 bc3f cf72 743f
00000030: d609 453f ad66 363f bf12 653e b07c 3ebe
00000040: 4f9e bb3f 165c c2bb 454f d1bd bbcb e43e
00000050: 2707 e23e 6dc7 3cbf 1dc7 c83d c8ee 163f
00000060: 1785 90bf ad8d d2be 41d7 8bbf 1677 22bf
00000070: 1e8e d0be 829d 673e a023 463f 0222 34bf
00000080: 927c b23f 18d7 09bb 50c7 d0bd 7923 bc3e
00000090: f392 b03f d4c6 423f 198c 923f d033 0bbf
000000a0: 90dd 1a3f 6f61 9e3e 259b b43e 8036 343f
000000b0: f197 583f 9a95 9c3d 54c7 413f 2d08 adbd
000000c0: 58a3 103f 623d 0abf e8e8 bbbf 3b8a 93be
000000d0: b69e 3cbf 24b3 033f ea84 e43e bc06 833e
000000e0: 0fa6 a23e 45bc e3be 3d5b fa3e a152 09bf
000000f0: 77d3 afbe 2f29 20bf 26df 39be 1b9d 59bf
00000100: e326 963e 257e b6be 39e4 723f ccb5 1fbf
00000110: 630b 27bf 08ad c5be 28ef b13f 1d85 eb3d
00000120: 8a03 4c3f a73e b9be 77ab 26bf eb65 1ebf
00000130: 26d4 7e3d 215f cb3e 0ddf 4dbe b2c0 573e
00000140: 47b4 273e 35bc 07bf 2a60 d73e 2c02 52bf
00000150: 712d 30be 4d6d 873d 5641 633f 0583 5fbf
00000160: 5b97 4bbf c175 113f 2da5 e33e 6d3c 97be
00000170: 49ed cebd a5bc 2b3f 40ff 25bf 363c 14bf
00000180: 7873 04bd c5b7 3fbd 48dd e43d 655a 38bf
00000190: e0ea 0fbf 5b7a 2cbe 18ec f83c c5b7 2ebf
000001a0: ca61 3abe 3b57 d6be 495d 183e 865b 2f3e
000001b0: a283 86bf 7e24 11be 3062 e03f 47d3 273e
000001c0: 5877 9e3f b961 a2bd 6e44 efbd 56d5 a0bd
000001d0: 66a4 f33e 255e cbbf 7de3 86bf 025a 60bf
000001e0: 6728 d83e a930 53bf 4a3b 71be e11d 99be
000001f0: 4af7 d1be 56f7 b3be 1cc6 81bf f860 a7bd
00000200: a7ab 0f3f fa83 c0ba ab0c 023f ebb8 793c
00000210: 9dfa 86bf bfb3 053f 2bd9 05bf d692 15bf
00000220: 01d3 09bf d067 42bf 4cfa d1bd c5f3 bbbe
00000230: 320c ce3f 4154 65bf a864 a13e 6b30 5abd
00000240: dad6 72bf 0094 3a3b 0728 573e 1990 f13e
00000250: fcfa 973f ace8 c2be e69d 733f 30fd bcbe
00000260: 69c4 08be f3bf a3bf 3d55 653f 183e 93bf
00000270: 975c 973e 6660 013e 77e9 0b3e 09df eebd
0.3164801 0.08434786 -0.06584272 -0.28823882 -0.3563299 -0.89209396 -0.21221004 0.9315977
0.065824024 -0.6922742 1.473244 0.95487684 0.76968133 0.7125042 0.22370432 -0.18602252
1.4657687 -0.0059313877 -0.102201976 0.44686684 0.44146082 -0.737418 0.09803603 0.589581
-1.1290616 -0.41123715 -1.0925065 -0.6346296 -0.40733427 0.22618678 0.7739811 -0.7036439
1.3944266 -0.0021032747 -0.10194266 0.36745813 1.3794845 0.7608464 1.1449004 -0.54375935
0.6049433 0.3093371 0.35274616 0.7039566 0.84606844 0.07645722 0.75694776 -0.08448825
0.5649924 -0.5399991 -1.4680452 -0.288164 -0.73679674 0.5144522 0.44632655 0.25591075
0.31767318 -0.44479576 0.48897734 -0.53641707 -0.34341022 -0.6256284 -0.1815153 -0.8500535
0.29326543 -0.35643116 0.9487949 -0.62386775 -0.6525175 -0.38608575 1.390111 0.11499999
0.796929 -0.36180612 -0.65105385 -0.61874264 0.06221404 0.39721015 -0.20104618 0.21069601
0.16377364 -0.53021556 0.42065555 -0.82034564 -0.17204835 0.06612644 0.8877157 -0.87309295
-0.79527825 0.56820303 0.44461957 -0.2953829 -0.10103852 0.67084724 -0.64842606 -0.57904375
-0.032336682 -0.046806116 0.111750185 -0.7201293 -0.56217766 -0.1684355 0.030386016 -0.6824916
-0.18201366 -0.41863427 0.14879335 0.17124757 -1.0508921 -0.14174077 1.7529964 0.1638919
1.2380171 -0.07928795 -0.11682974 -0.078531906 0.47586364 -1.5888106 -1.0538174 -0.8763734
0.42218325 -0.82496125 -0.23557773 -0.29905608 -0.4100898 -0.3514964 -1.0138583 -0.08172792
0.56121296 -0.001468777 0.5080058 0.015241842 -1.0545231 0.52227396 -0.522845 -0.5842718
-0.5383759 -0.75939655 -0.102528185 -0.3670942 1.6097472 -0.89581686 0.31522107 -0.05326883
-0.9485909 0.0028469563 0.21011363 0.4718025 1.1873469 -0.3806814 0.9516281 -0.36911917
-0.13356175 -1.2792953 0.8958319 -1.1503325 0.29562828 0.1263443 0.13663279 -0.11663634

layers.0.bias f4 [16]
00000000: 5030 223c 5d84 01bf 0dc6 2b3e 2d3e 003f
00000010: 3f06 e93c 7a7f bd3d 9e25 22be c9bd a8bc
00000020: 58c8 4bbe 2e1a 83be 28fd 433b 9410 8c3e
00000030: 63ae a1bd 03b4 413e 42d9 393d 09f8 133f
0.009899214 -0.50592595 0.16774769 0.5009487 0.028445361 0.0925283 -0.15834662 -0.02059831
-0.19900644 -0.2560591 0.0029905532 0.27356398 -0.0789459 0.18916325 0.04537321 0.57800347

layers.1.weight f4 [16, 16]
00000000: 8b8c 1a3f 22bd f1be 1734 1cbf 9dbf a5be
00000010: f557 e83e 6019 e8be 7e71 a63e b274 563f
00000020: 011f 1c3f a174 f3be c9f5 c6bd 4085 e2bd
00000030: 5843 f8be 27cd a0be 1a2a f9bc 2750 3b3e
00000040: 8a65 c4be 764a 683f b775 d83e 1c93 35bf
00000050: 747c 1cbf 273b c83e 8649 fa3e 2c25 debe
00000060: e925 473d 8cae b73e 3328 963d 5c2e 443f
00000070: b71e 37be cf08 debe 41d8 0c3f a1f9 89be
00000080: 7773 0f3c d60c 173f 9b12 613e adef 8fbd
00000090: d564 18bd 1c68 483e 893a 8dbe ee40 ad3e
000000a0: cbc2 55be cd37 d3bd c20a 4b3f aae4 433e
000000b0: c12e 3f3f 26bb b9be 6434 0fbe 0129 1cbf
000000c0: 35e5 f1bd c339 093f dbbb 393f 8225 e13d
000000d0: 6742 3abf c1d7 88be 2393 9abf 498f 3a3f
000000e0: a100 8f3e e555 b83d 152f e4bd f607 50be
000000f0: 1638 29bf 57a0 a2bd 2b86 92be 62c8 50bd
00000100: 3efb 55bf 453b 423f aa47 a23e b410 a03e
00000110: e771 14bf fce4 8dbf bb42 21bf 2fe0 953e
00000120: 5ad9 8e3f 3cca ab3e 2cae 503e bc67 843e
00000130: d19d 37be be9a 3dbe 4793 ba3c d085 d2bb
00000140: 9e7d 333e da4e 1fbf 25c2 89be df37 92be
00000150: 96ce a6bc f7c4 51be f1f7 0c3e 869c 8b3e
00000160: 9ab8 17bf 8d57 843f 9f5b b1be 99ce cbbd
00000170: 9c2d ffbe 5666 1e3e 06e6 3ebe e77e 61bf
00000180: 1f7a 783f 249b 70bf 8413 d53e f48b 80be
00000190: cf40 413f b40a dbbe ea5e 703f 8986 6cbe
000001a0: 01f7 ee3e 8a6a 9b3f ebca 023e 5d65 29be
000001b0: 2409 483f e37f 5fbc 2bdc 693e 30ae aabe
000001c0: 5cf3 583f e7bd 203e 3efd 6b3f 8647 98be
000001d0: 82b6 91be 515d 163f ce68 f5bd f303 09bf
000001e0: d16b 58bf fb76 c33d 1c37 15bf 74a0 13be
000001f0: 2de6 e8be 82d0 9abd c55d 41be cf01 2d3f
00000200: 5482 b73f d18d fe3c e96c 02bf 0d66 9cbe
00000210: cfaa f5be 810a a9bf 0111 f93e eca8 0fbf
00000220: 1ba4 88be 5200 253e 0bfb c8be 87c2 50be
00000230: c0f9 1d3f f15d 75be a19e 2abd 7990 cbbe
00000240: 7596 47bf 28a6 f03d c176 7ebf 9d15 1f3e
00000250: 8bf9 f2be aa9c cfbd 42a6 053e 3b7c 61bd
00000260: 2ccd 16bf ca95 2f3f e11f 8d3e cc28 a43e
00000270: 94aa 723e 80af 873e 2237 083e fabf 083f
00000280: a92c febe fcc2 39bf b55a 903f 6777 1bbe
00000290: 541c 983e 03a6 38bf d876 eb3e 6ca3 85bf
000002a0: 3624 22bf 0326 56be 5ecf 8dbe 82fe d43c
000002b0: 6866 e9be 8993 f2bd a144 26be 4bce 82bf
000002c0: 6132 10bf 4a1d 243f 45d8 1ebf bf0c 9b3e
000002d0: e0b6 96be 2e2c 11bf a4e8 78bf e42b f7be
000002e0: 5866 50bf 46c6 283c c849 5e3e 7959 833d
000002f0: 7754 bcbe aace 1dbe 8f80 cfbd b4d9 b13d
00000300: 0ad7 4bbe 4e10 1c3f c3f7 0b3f 70af 9b3e
00000310: fa5d 08bd 61d8 eebe 75b4 f9bd 2135 573f
00000320: 2b3b 1ebf 3fe7 88bd 066b 733e e8b2 c23d
00000330: c882 1ebe cac3 a5be 18ae 543e ec51 7ebf
00000340: a559 b8be d3d9 9c3d a8a5 0e3f 730e 6e3e
00000350: 9235 543d ff04 d1bd 450b d6be db01 45bf
00000360: 6023 24be fd6b e23e c95c 373f ac4e 26bd
00000370: ac25 163f 86bf aebe 9984 863e f4f8 243f
00000380: aa2b a6bb 3941 413f 838d 0fbf 054a 2c3e
00000390: 824b b73d 85be 4a3f de87 d3be bc56 10be
000003a0: c3d4 f13e 5fbf ef3e ef0c cabc 9bdc 4fbd
000003b0: 0b73 4fbf 13cd bcbe d6df 3abd 56d3 e8be
000003c0: 5fb8 213d 8fc2 4f3f ea49 49be 9d0a 843e
000003d0: 5ca6 c8be 2d2c 91be 93f0 b7bf 8b80 c8be
000003e0: a15d b5be 0c66 963e 0f4b 9a3e e198 0abe
000003f0: 48ca 803e c551 88bd f199 c63c 2791 a0bd
0.603707 -0.4721461 -0.6101698 -0.32372752 0.45379606 -0.4533186 0.32508463 0.8377181
0.6098481 -0.47549918 -0.097148485 -0.11060572 -0.4848888 -0.3140652 -0.030415583 0.18292294
-0.38358718 0.9073862 0.4227731 -0.70927596 -0.611274 0.3910763 0.4888422 -0.43387735
0.04862014 0.35875356 0.07331886 0.7663324 -0.1788281 -0.43366095 0.5501748 -0.26948264
0.008755556 0.5900396 0.21979754 -0.070281364 -0.037205536 0.19570965 -0.2758372 0.338386
-0.20875089 -0.103133775 0.7931329 0.19130197 0.74680716 -0.36275595 -0.13984829 -0.61000067
-0.11811296 0.5360376 0.7255227 0.10993482 -0.7275757 -0.26727107 -1.2076153 0.72874886
0.27930167 0.09000758 -0.11141793 -0.20315537 -0.66101205 -0.07940739 -0.28617987 -0.05097235
-0.8358649 0.7587169 0.316953 0.31262743 -0.579863 -1.1085505 -0.6299245 0.292726
1.116008 0.3355273 0.20378941 0.25860393 -0.17931296 -0.1851606 0.022775305 -0.006424643
0.17528388 -0.6222969 -0.26905933 -0.2855825 -0.02036218 -0.20485292 0.13766457 0.27267855
-0.59266055 1.0339218 -0.34640214 -0.09951515 -0.49839485 0.15468726 -0.18642434 -0.8808426
0.9706134 -0.93986726 0.41616452 -0.25106776 0.75489515 -0.42781603 0.9389483 -0.23098196
0.46672824 1.2141888 0.1277272 -0.16542573 0.7813895 -0.01364133 0.22837894 -0.3333602
0.84746337 0.15697442 0.9218329 -0.29742068 -0.28459555 0.5873614 -0.119828805 -0.5352165
-0.84539515 0.09544178 -0.58287215 -0.14416677 -0.4548811 -0.07559301 -0.18883426 0.67580885
1.4336648 0.031073483 -0.50947434 -0.3054661 -0.4798188 -1.320633 0.48645785 -0.5611713
-0.26687703 0.16113403 -0.3925403 -0.20386706 0.61709213 -0.23961617 -0.041655187 -0.3975866
-0.77963954 0.11750442 -0.99399954 0.15535589 -0.4745601 -0.10137303 0.13051704 -0.055050116
-0.5890682 0.68587935 0.27563384 0.32062376 0.23697883 0.26501083 0.13302281 0.53417933
-0.49643448 -0.7256315 1.1277682 -0.15182267 0.29709113 -0.72128314 0.45989108 -1.0440497
-0.63336504 -0.20912938 -0.2769727 0.026000265 -0.45585942 -0.11844546 -0.16237117 -1.0219206
-0.5632687 0.6410719 -0.6204875 0.30283162 -0.29436398 -0.5670804 -0.9722998 -0.48275673
-0.81406164 0.010301178 0.21707833 0.0641355 -0.36783192 -0.15410867 -0.101319425 0.08684102
-0.1990625 0.6096238 0.5467493 0.30407286 -0.033292748 -0.4664946 -0.121926226 0.84065443
-0.61809033 -0.06684732 0.23771295 0.0950678 -0.15479577 -0.32375938 0.20769536 -0.9934375
-0.36005893 0.07658734 0.5572152 0.232477 0.0518089 -0.10206031 -0.41805473 -0.76955956
-0.1602912 0.44223014 0.71625954 -0.04060237 0.5865123 -0.34130496 0.2627304 0.6444237
-0.005071123 0.75490147 -0.56075305 0.16825111 0.08949949 0.7919696 -0.41314596 -0.14095587
0.47232637 0.46825692 -0.02466437 -0.050747495 -0.81034917 -0.3687521 -0.045623623 -0.45473737
0.03948247 0.8115625 -0.19657102 0.25789347 -0.39189422 -0.28354016 -1.4370292 -0.3916057
-0.35422996 0.2937473 0.3013539 -0.13534881 0.25154328 -0.06656221 0.024243327 -0.078401856

layers.1.bias f4 [16]
00000000: ae39 203e 05c9 8cbd 9291 11be 0869 a63e
00000010: faae 7a3e 136a 543e b937 413f 3805 52be
00000020: b8e4 d53d 50c6 473e 9c5d c63d bb07 0a3d
00000030: 65fe 8c3e 8b98 8abd b7e2 553d 20de f3bc
0.15647003 -0.06874279 -0.14215687 0.32502007 0.24480811 0.20743589 0.7547565 -0.20509803
0.10444015 0.19509244 0.09685823 0.03369878 0.27537838 -0.067673765 0.052218165 -0.029769003

final.linears.0.weight f4 [84, 42]
00000000: 3b4a 5f3f fad4 a33f 3bad 37bf 26eb 6dbe
00000010: 612d b6be 5203 dbbe 369f 9abf 40d9 2e3f
00000020: fa50 893d 81d3 563e c463 1abe 3049 a8bd
00000030: 9cb9 9bbd c22e ed3c bec6 ff3d 1ddc 863c
00000040: cd2f 693c b4f5 e3bc 1e6f 833d 7428 823d
00000050: 82eb cebc 9441 38bc 96d8 bcbc 03ca 69bd
00000060: 533a 353d 7975 883d 46e6 5e3e 7028 c73d
00000070: 20be 6d3d e1e3 ae3d c3fc eabd d840 003e
00000080: dd63 143e a430 e43b ffd1 a3bd d24a 243d
00000090: 8849 d2bd 3ca0 a73d 574b 773d c3e9 073d
000000a0: 7681 f93d b5eb c43d 500f 22bd fa04 bfbd
000000b0: 9fd2 55bf d822 6a3e 4a0a 4a3e 5382 5cbf
000000c0: df30 a23f c20b 07bf 36db 91bf 4e79 94be
000000d0: 4abf 0f3f 2900 60bd ab24 bb3e 27d1 133f
000000e0: 462f 153f d9ad ff3d 8cfc e0bc a9d8 fcbe
000000f0: fe1b edbd ef1e 49be e7d6 993e dadf a93b
00000100: f3e2 b23f bccb 33be ec8a c9be 2ca9 b5be
00000110: c689 03be b970 28be 0e90 0bbe cf15 9fbd
00000120: ad57 c13d 0f13 813e 0c34 4abb ff6a 56be
00000130: 25bb 8bbd 73b7 053d 86dc 093e 44e8 963e
00000140: 8a5c 693e 8008 ba3e 91dd 403d 9e6a 983e
00000150: cbcc babe 45fb 48be be35 1b3e 3ee9 373f
00000160: 1968 173f 8975 ea3e 57fe 9fbf 7d4b 953e
00000170: 5817 ce3e 98bb 843c cf3b 853d 6346 2c3c
00000180: c514 673d 1086 b0bd 08d7 e0bd 9507 1f3d
00000190: e357 893c 5564 8abd 17f5 e43c ed77 453c
000001a0: d232 51bd f0b7 943d 8ae3 9b3d fbc7 823c
000001b0: 0163 8fbd c47a 463c af67 cabd bd03 e53c
000001c0: 19cf 483d ff66 75bd 323c bebc 1c51 ccbd
000001d0: 3cb9 78bd f3b4 b73d fd21 b13c d367 88bb
000001e0: 5cc8 39bd 8ca9 91bd 7d14 54bd b838 4c3d
000001f0: 71ec 85bb 487f dabc 4c26 45be 6f60 c33d
00000200: c04b 03be 862f 0ebf f448 a3be 623e 2a3f
00000210: 83f2 8d3e 7b5d b9be 4646 41bf 2e32 2cbf
00000220: d2f6 90be 6cb8 793e 33c9 aa3c 722f adbd
00000230: 3516 263e 478a 683e 1249 cb3d 3de0 113e
00000240: d037 7f3c 6e16 e43e b8af 55be 3b8e 043e
00000250: db6a f2be 20f8 223e 7760 4bbd 769f 533d
00000260: 881d debc fa41 99bd 7f29 0cbd 7efa d8bd
00000270: ecbe 3c3e 26d9 f83d f2d0 bcbc d002 09b8
00000280: ba9d a2bd a86f 0a3e d94a 95bd 3aac 3bbd
00000290: ad42 16bb 6046 4fbd bd83 89bc f60c 343e
000002a0: 80f1 bfbe a527 f53e 96c5 30bf 6d58 41be
000002b0: 8871 4f3f 11b1 2d3e 806b 4a3f 80a3 403f
000002c0: 3330 fcbe 3803 413e 5948 bd3c 4ae1 bc3d
000002d0: 9f59 ed3d 0d2e e4bd e497 5cbc af32 04be
000002e0: 8d57 123d 9e6e 09be 8292 69bc 9128 e8bd
000002f0: f89a 55bd 1210 31be 7b60 13be 8607 dbbd
00000300: 4def 053e a73e 3cbd 5913 34bd 23b0 d43d
00000310: eaca c83c 2079 223b 8403 58bd e2b7 98bd
00000320: 6074 083e 4603 2b3c 91ac 09be 9b34 213c
00000330: d336 f13b ba6e 313c f86c 06bd c206 8fbc
00000340: 4a8f b2bd cde7 113d b230 523f b271 2ebf
00000350: 1c41 c3be 4cad cfbe fa01 27bf 991c 00bf
00000360: c920 1640 c0b3 bb3f e2e0 7abf 3997 7d3e
00000370: 835f cabe 9653 bd3d 7a5c acbd f269 91be
00000380: 254d 093e 97d3 b4be cec4 773d 1c7c dabe
00000390: 21ac a33e 35e5 93be 4fd6 163f d8d0 91bb
000003a0: 722f 62be 34eb b7bd b6e8 d53e 5b67 d63d
000003b0: 4db3 b4bd 7d57 bcbd a8e7 b1be 1b80 7cbd
000003c0: 5ce7 b9bc 6dce babd dbea a3bd 0803 f4bd
000003d0: 202f 9e3e 5ba8 61be 767b 24bc 1b1b 2b3d
000003e0: c196 7c3d 7fb4 1dbd e859 fe3d 8a77 44bd
000003f0: a6cf 7f3f 71d7 6fbf c842 89bf 35a9 aa3e
0.8722264 1.279937 -0.71748704 -0.23234233 -0.35581496 -0.4277597 -1.2079837 0.6830025
0.06704898 0.2097912 -0.1507712 -0.082170844 -0.076037616 0.02895296 0.12489079 0.01646238
0.014232588 -0.027827121 0.06417678 0.06355372 -0.025258783 -0.011246104 -0.023052495 -0.05707742
0.044245075 0.06663031 0.2176753 0.0972451 0.058042645 0.08539558 -0.11473992 0.12524736
0.1449122 0.006963806 -0.07999038 0.040110417 -0.10267931 0.08184859 0.060374584 0.033181917
0.12182896 0.0961527 -0.039565384 -0.09327121 -0.8352451 0.22864854 0.19730487 -0.8613636
1.2671164 -0.52752316 -1.1395023 -0.28998798 0.5615126 -0.054687653 0.36551413 0.57741016
0.5827526 0.12484331 -0.027464174 -0.4938405 -0.11577605 -0.19640706 0.3004677 0.005184156
1.397551 -0.17558187 -0.393638 -0.3548063 -0.12845525 -0.1644925 -0.13629171 -0.077678315
0.09440551 0.25209853 -0.0030853776 -0.20939253 -0.06822804 0.032645654 0.1346303 0.2947408
0.22789207 0.3633461 0.047086302 0.29768842 -0.3648437 -0.19627102 0.1515722 0.71840274
0.59143215 0.45792797 -1.2499493 0.29159155 0.40252185 0.016202733 0.06505548 0.010514828
0.05641629 -0.086193204 -0.10978514 0.03882559 0.01676554 -0.06757418 0.0279489 0.012052518
-0.051073857 0.07261646 0.07611759 0.015964499 -0.07001305 0.012114231 -0.09883057 0.027955884
0.04902563 -0.059912678 -0.023222063 -0.09976408 -0.06072353 0.0897006 0.021622652 -0.0041627674
-0.045357093 -0.071124166 -0.05177735 0.04985878 -0.004087024 -0.02667202 -0.1925289 0.095398776
-0.12821865 -0.55541265 -0.31891596 0.6650144 0.27724084 -0.36204132 -0.75497854 -0.6726407
-0.2831331 0.24386758 0.020847892 -0.08456315 0.16219409 0.22708999 0.099260464 0.14245696
0.015577272 0.44548362 -0.20867813 0.12944882 -0.4734715 0.15914965 -0.049652543 0.051665746
-0.027113691 -0.07483287 -0.03421926 -0.105946526 0.18432206 0.12150793 -0.023048852 -3.2665965e-05
-0.0794024 0.13519156 -0.07289667 -0.045818545 -0.0022927925 -0.050604224 -0.01678645 0.17583069
-0.37488937 0.4788181 -0.6905149 -0.18881388 0.8103261 0.16962077 0.7907028 0.7524948
-0.49255523 0.18848884 0.023105787 0.09222658 0.115893595 -0.11141596 -0.013463948 -0.1290996
0.035728026 -0.13421103 -0.014256122 -0.113358624 -0.052149743 -0.17291287 -0.14392273 -0.10694794
0.13079567 -0.045958187 -0.043963764 0.10385158 0.02451082 0.0024791434 -0.052737728 -0.07456948
0.13325644 0.010437792 -0.13444735 0.009839202 0.007361272 0.010829622 -0.032818764 -0.017459277
-0.087187365 0.035621453 0.82105553 -0.68142235 -0.38135612 -0.40561903 -0.6523739 -0.50043637
2.345751 1.466423 -0.97999394 0.24764718 -0.39525995 0.092444584 -0.08416076 -0.28401142
0.13408335 -0.3531768 0.060490422 -0.42672813 0.3196726 -0.2888581 0.5892076 -0.004449945
-0.22088411 -0.08980408 0.41779107 0.10468932 -0.088232614 -0.091963746 -0.34747052 -0.06164561
-0.022693329 -0.09121404 -0.080037795 -0.11914641 0.3089533 -0.22036879 -0.010039201 0.041773897
0.061667208 -0.038502213 0.12419492 -0.047965564 0.9992622 -0.9368811 -1.0723505 0.3333222

final.linears.0.bias f4 [84]
00000000: f2c0 ff3d c5dd 293d 46a8 7cbd 5f91 3a3e
00000010: 3830 cd3d a2e0 b03c 55b4 58bd eca5 34bd
00000020: 9595 953d 9b01 0e3e 0bca 383e 53b6 843d
00000030: d4a2 8abc 4079 a3bb 52c1 973e ef47 0e3e
00000040: c276 73bc fd65 343e 69aa 093d 4e99 5abd
00000050: 5f88 d93c 0e44 273f aa1b c4bb bb86 6d3c
00000060: d9f1 bfbb ef55 26bc e812 50be 6d0a d1bd
00000070: 1c43 473d 26ee d33d 5708 193e 4332 1a3e
00000080: 65a5 4d3d a73c c03d 5506 293c 1c06 9e3c
00000090: 3074 2a3d 5b25 7dbd bdfa 9bbd e9cc 51be
000000a0: 84e9 18be dd6b 283e e767 1f3d 92e3 1a3a
000000b0: 2705 d03d 99d9 8ebc 51f0 5dbd 7e86 873c
000000c0: f907 533e ccc5 99bc 245e 763c 55cc 16bd
000000d0: eb64 743c 05f7 d2bd 0c44 1e3e 3370 483d
000000e0: d115 fc3d 3c84 ef3c b6d1 f43c 957b 5bbe
000000f0: e969 9ebc 5015 933d a40b 103e eb7e c93c
00000100: e7df 033e 125d e43d ce88 f8bd 4077 823e
00000110: 7c02 d7bd b597 ad3d fd1b 713e 94bd e53d
00000120: ae31 273d 8574 36bd 3797 353d 18b1 813d
00000130: f174 2d3e 3446 983d c0d1 27bf bc83 bcbd
00000140: 64dd ad3d 81c2 7c3e 768d 8a3e a976 4ebe
0.12487973 0.04147126 -0.061683916 0.18219517 0.100189626 0.021591488 -0.052906353 -0.044103548
0.07303921 0.138678 0.18045823 0.06480088 -0.016923346 -0.0049888194 0.2963968 0.13894628
-0.014859857 0.1761703 0.03360978 -0.05336886 0.026554285 0.6533822 -0.005984743 0.014497454
-0.005857688 -0.010152324 -0.20319712 -0.10207067 0.048647985 0.103481576 0.14944588 0.15058236
0.05020656 0.093865685 0.010316451 0.019290023 0.04161471 -0.061803203 -0.07616184 -0.20488323
-0.14932829 0.16447397 0.03891745 0.00059085444 0.10157233 -0.017437743 -0.05418426 0.016543623
0.2060851 -0.018771075 0.015037093 -0.03681596 0.014916639 -0.103010215 0.15455645 0.048935127
0.12308849 0.029237859 0.029885154 -0.21433862 -0.019337611 0.071817994 0.1406694 0.024596652
0.1287838 0.11150564 -0.121354684 0.25481606 -0.10498521 0.084762014 0.23545833 0.112178
0.040818863 -0.044544715 0.044333663 0.06332606 0.16939141 0.07435265 -0.6555443 -0.09204814
0.084894925 0.24683572 0.2706105 -0.20162453

final.linears.1.weight f4 [84, 84]
00000000: be53 ffbc 07ff 20bf 7914 4cbe 82a3 59bd
00000010: 6c33 83be 8177 84be 3b97 98be 4ed4 2bbe
00000020: 26c6 ccbd d5fe a4be 7a23 a8bd eb28 f5bc
00000030: 7740 1cbe fa42 94be 00bb e4bd 0447 0c3d
00000040: 5cdd 67bc 3007 0abe e9a4 0abe 14f4 303e
00000050: 4093 19be 3614 aebd 3757 013e 6697 bcbe
00000060: 8a6e 913d c90f 44be fe7c 3fbe 9fb3 9ebe
00000070: d96c e2be 9541 2abe 796b d2bd ef9b bb3a
00000080: 55b6 813e a421 81be 5d2b a4bc 4434 48be
00000090: 860f b4bd 685a 31be 5d72 043e 35ea b2be
000000a0: d7b5 a43d 5067 c4be 93f8 6b3e 2213 9d3e
000000b0: 8b19 90bd fe43 73be 129b 3abe 40d6 a53e
000000c0: 5626 90be 29d5 a0bc 3bc5 4dbf ba8a b6be
000000d0: f543 b5be cbb2 d1be d92a 623d f4b6 0cbe
000000e0: 80e6 5f3d 9921 0fbe 3972 39be 9773 8cbe
000000f0: 6983 4bbe 8f7d a8be 5efe 8bbe 174a 2bbd
00000100: be43 0ebe 40ca 08bd 699d 0cbe 0ded 9cbe
00000110: 94ed 1f3c 1352 78be e0dc dbbe 3e50 93be
00000120: 8e13 83be 198b 19bd 8c9e 9abd 7b1e 81be
00000130: 8d4f ac3d 8ce4 53be 3d2e 62bf a8a8 c0bd
00000140: ac63 e6bd 9350 84be bdb8 67be d7cb 2bbf
00000150: f72e 853d 19d3 2ebe dacd 8cbd 9350 823b
00000160: 7244 c93b ceea 5e3d 16b5 8dbd fcaa 89be
00000170: 54c9 223d deca d6bc d7f2 0bbd d4aa 703c
00000180: 7efe d03b 2b51 d4bd b08c 9f3c d947 44bd
00000190: 6188 aebd b858 363d 0c31 eebb 4154 a3bd
000001a0: f46d 63be 1fd0 57bd 9890 40bd 31da d7be
000001b0: cd56 dd3c 5dd1 0bbe 5b17 74bc fc6f 8abd
000001c0: ca98 e9bd 42d7 58bc e30d 88bd b44d 2dbd
000001d0: 619d 50be 7b30 6a3d 00c4 cf3c 0a82 31bd
000001e0: adfc 19be 1c5e 06be ec70 55be 94fc 41be
000001f0: db17 2cbc 246a 9cbc af03 09bd 2d34 853b
00000200: d599 b3bd bef1 a23d ab6a 903d fda3 2bbd
00000210: 7f97 e0bd b602 1d3d 02d3 69be c2db 9cbc
00000220: 180c ad3b 1927 34bd 2cb0 a3bb 6192 5dbe
00000230: b53a afbd cd8b cdbd c568 a73d 59ac 43bd
00000240: 1afa ce3c 65f3 25be 3ae6 b5bd 5244 3cbe
00000250: 300e 26bd f9f1 cdbd 847d 9f3b cf22 24be
00000260: 9008 c7bd bb18 d13c 316f acbd 5e2c 933d
00000270: 63ca b3bc 7fb9 773d 0d30 7ebd ba55 8a3d
00000280: 2907 28be cb88 10be 7032 9abe 66bf 23bb
00000290: 0d88 0a3d 50db f3bc 220a babc 5a40 5dbd
000002a0: 5456 c0bc 255f 30be 683b 493e d51b b1bd
000002b0: 5f46 a53e 6b31 14bd 7e8c 4cbd b206 e6bc
000002c0: 7d65 f1bd 8ffa 92bd cdf6 dbbd 98a1 0dbe
000002d0: f910 613d ad20 8e3e 6b82 bebd dc44 1f3d
000002e0: a7e1 26bd fed0 8a3e 186a 0fbd fe00 b8bc
000002f0: f1b5 21bc 1125 9cbe 7356 823d de57 5cbe
00000300: c9c0 29bc 7c9b 81bd 2d2e bc3e 8b05 e63b
00000310: a5ff bf3c 5b98 e33b 181a c83c 2a4e 92be
00000320: 9dbb 18bd a1d3 8dbd 6448 4239 598b f1bd
00000330: ef16 97bd d8c3 ac3d 34ea 29be 7e05 0cbd
00000340: 3e81 c4bd 60cd efbc 4dc4 1cbe a53f e9bd
00000350: 4762 14bd b77c 3bbc 9558 963c 83dc cfbd
00000360: d432 c13e f194 6cbd 38eb 00bd 3975 c3bc
00000370: 9529 933d 1efb 00be 2a13 d63d cee9 d3bd
00000380: b219 85bd b475 1cbe 95f3 cbbc ea6c 2dbd
00000390: 1c8c ff3b 3b4b 53bd 8dfb 22be 0f38 543e
000003a0: 918b a5bd ad84 0ebe 671a 5cbd 1499 df3d
000003b0: cb65 923c f426 04bd ca45 bcbd d567 01bd
000003c0: da57 aebd 4238 86bd b7c4 c33d 368d 143e
000003d0: bdd4 b53c 2605 21be 707c 45bd 2f08 0bbd
000003e0: 221f 32be 86d0 c3bd 0d70 0abe 9d09 c2bd
000003f0: 6db4 a2bd 84b9 42be b6ad 16bd bcd7 45bd
-0.031167861 -0.6288914 -0.19929685 -0.05313445 -0.2562517 -0.25872424 -0.2980288 -0.16780207
-0.09998731 -0.3222567 -0.082098916 -0.029926738 -0.15258966 -0.2895735 -0.1116848 0.034247413
-0.014151897 -0.13479304 -0.1353947 0.17280608 -0.14997578 -0.08499949 0.12630926 -0.36834258
0.07101162 -0.19146647 -0.18700024 -0.30996415 -0.4422367 -0.1662658 -0.10274405 0.001431344
0.2533442 -0.25220978 -0.020040208 -0.19551188 -0.08792023 -0.17319643 0.12934251 -0.3494431
0.08042496 -0.3836007 0.23044042 0.3067866 -0.07036122 -0.23756406 -0.18223217 0.32390022
-0.28154248 -0.019632893 -0.80379075 -0.35652715 -0.3540341 -0.4095672 0.055216644 -0.13741666
0.05466318 -0.1397766 -0.18109979 -0.27431938 -0.19874348 -0.32908294 -0.27342504 -0.041818704
-0.13893029 -0.033396006 -0.13731922 -0.30649605 0.009761233 -0.24250059 -0.42941952 -0.28772157
-0.25600857 -0.03748617 -0.07549772 -0.25218567 0.084136106 -0.20692652 -0.88351804 -0.094071686
-0.1124948 -0.25842723 -0.22629066 -0.6710791 0.065030985 -0.17072715 -0.068752006 0.0039768904
0.0061421925 0.054423146 -0.06919305 -0.26888263 0.039742783 -0.026219781 -0.034167137 0.014689166
0.006377994 -0.10367044 0.019476265 -0.04792008 -0.08522106 0.044518203 -0.0072690304 -0.079750545
-0.22209913 -0.052688714 -0.047012895 -0.42158654 0.027018929 -0.13654085 -0.0148981465 -0.067596406
-0.11406095 -0.013234915 -0.06643274 -0.04231043 -0.20372535 0.05717514 0.025362015 -0.043336906
-0.15037794 -0.13121837 -0.20843858 -0.18944007 -0.010503734 -0.01909358 -0.03345078 0.0040650577
-0.087695755 0.07956265 0.07051595 -0.04190444 -0.109663956 0.038332663 -0.228344 -0.019147757
0.0052809827 -0.0439826 -0.0049953666 -0.2163787 -0.08556119 -0.100364305 0.0817428 -0.047771785
0.025265742 -0.16206129 -0.08881803 -0.18385437 -0.040540874 -0.10055918 0.0048672576 -0.16028903
-0.0971843 0.025524488 -0.084196456 0.07186197 -0.021947091 0.060479637 -0.062057544 0.06754632
-0.16408981 -0.14114682 -0.30116606 -0.0024985909 0.033821154 -0.029767662 -0.02270991 -0.05401645
-0.023478664 -0.17223795 0.19651568 -0.08647887 0.3228025 -0.03617994 -0.04993867 -0.028079364
-0.117869355 -0.071766965 -0.10740433 -0.13831174 0.054947827 0.27759305 -0.09302219 0.03888403
-0.040742543 0.27112573 -0.03501329 -0.02246141 -0.009870038 -0.3049703 0.06364145 -0.21517894
-0.010360905 -0.063284844 0.3675398 0.0070197037 0.02343733 0.0069456524 0.024426505 -0.2857526
-0.037288297 -0.06925131 0.0001852825 -0.117941566 -0.07377421 0.08435792 -0.16593248 -0.034184925
-0.095949635 -0.029272735 -0.15309258 -0.11389092 -0.036226537 -0.011443309 0.018352786 -0.10149481
0.3773409 -0.05775923 -0.031474322 -0.023859607 0.071856655 -0.12595794 0.10452874 -0.10347329
-0.064990416 -0.15279275 -0.024896422 -0.042340197 0.0077986848 -0.051585417 -0.15916272 0.2072451
-0.08083261 -0.139178 -0.053736117 0.10917869 0.017870804 -0.03226371 -0.09192999 -0.031593163
-0.0851285 -0.06553699 0.09559005 0.14506993 0.022196168 -0.1572462 -0.048214376 -0.03394335
-0.17394689 -0.09561257 -0.13519306 -0.0947449 -0.0794457 -0.19016081 -0.036786757 -0.048301443

final.linears.1.bias f4 [84]
00000000: 94d5 62be f56f 14be 3e0f 58be 21f8 d5be
00000010: 3504 b4bd 2669 1a3e 08f9 1a3c eb33 1a3d
00000020: 200e 2cbe cc48 b63c 6da7 013e bd25 4abd
00000030: 0a4b f6bd 690b f23d 3ef4 2abe 29a8 c8be
00000040: ea55 ee3d 5dfd bebe 7a5f 53bd 54c5 3a3d
00000050: 4cf1 0dbe e5ae a2be ad01 e4bd 077a cdbe
00000060: 3396 4ebd 9ee4 54be 7107 07be 1183 52be
00000070: d318 833d c05f 8ebd 5333 95be 15b4 23be
00000080: da8a 383d 99f3 1fbf 6b1c 95bd 435f a3bd
00000090: 11f5 4bbf 1173 d2be e4d9 413e 21e5 b3be
000000a0: 78fa b4be 5c39 00be 3eb8 f2be ef3e 9cbd
000000b0: f6a1 85be 94c9 e0bd 364e 8dbd 1cf8 76be
000000c0: 24a8 743e 981b 80be 6874 96be 609e 93bd
000000d0: 9282 00bf 5ca7 b9be 4060 883e 5682 913d
000000e0: 8d63 b53d f9f4 76be 4208 0abe 458b 243e
000000f0: 792c acbc 1d1d f3bd 8eb0 46be aebf 50be
00000100: ac4c 6e3e 17c2 66be b6c8 16be d2bb d7be
00000110: b100 b2bd 82a5 92be 701c b3be 8de2 bebe
00000120: 558c 2dbe 2a80 b0be 8286 74bd e366 e9be
00000130: 186a 003e 3b33 c2be 7976 16be a598 d9bd
00000140: adcc 213d 0de2 a23d 3f56 a0be 05f0 00be
-0.22151786 -0.14495833 -0.21099564 -0.4179087 -0.08789865 0.15079173 0.009458788 0.03764717
-0.16802263 0.02225151 0.12661524 -0.049352396 -0.12026031 0.118185826 -0.16694734 -0.39190796
0.116374806 -0.37302676 -0.051604725 0.045598343 -0.13861579 -0.3177406 -0.11133132 -0.40132162
-0.05043621 -0.20790336 -0.13186432 -0.2055781 0.06401219 -0.069518566 -0.2914072 -0.15986665
0.045054294 -0.62481076 -0.07280811 -0.07977154 -0.79670817 -0.41103414 0.18930775 -0.3513575
-0.35347342 -0.12521881 -0.4740619 -0.07629191 -0.2610013 -0.10975948 -0.06899683 -0.24118084
0.23892266 -0.25021052 -0.29385686 -0.07207942 -0.50199234 -0.36260498 0.26635933 0.07104938
0.088568784 -0.24116887 -0.13479713 0.16068752 -0.0210173 -0.11870787 -0.19403288 -0.2038562
0.23271435 -0.22534977 -0.14725003 -0.42135483 -0.08691538 -0.28641897 -0.34982634 -0.3728222
-0.16948064 -0.3447278 -0.05969859 -0.4558631 0.12540472 -0.3792971 -0.14693631 -0.10624818
0.039501835 0.07953272 -0.313158 -0.1259156

final.linears.2.weight f4 [10, 84]
00000000: bea4 563c 4d4e 1dbd bf27 09be cb0c 303f
00000010: 1d96 29bd a1b4 703c 4f6b c9bc 4f1e ca3c
00000020: 24e6 073e 3a6d 47be e811 a1bc 2375 bbbc
00000030: 9415 543e b560 d2bc cc6f 073d 3f9d 67bd
00000040: bd0d b43d f4f0 5bbd 18e9 293c 3c92 b73c
00000050: 23f6 a5bd 04d1 69be 08f8 1dbe 764d 233f
00000060: da76 803d 23f0 1c3b 491f 3c3d ebd4 363f
00000070: 85bd 743d 1a0a 883b 7150 56be 9284 8b3c
00000080: 7e2f 373e 3c51 773c 0e1b 223d cc51 213e
00000090: 4c95 473a 0a7d f63e 345e 5c3c a6b9 77bb
000000a0: 481a 21bf dfde 87bd c361 e8bd b909 a3bd
000000b0: bbe5 2f3e 3afb 22be 764a 4ebd 2936 13bf
000000c0: e78e 343e 6727 983c 972f 10bc 6417 3a3c
000000d0: 5b7f 5d3e 2155 a13e 1f5a ab3b 8025 83bc
000000e0: d42a 8dba fefe afbe 9f55 bf3d 1e73 dc3d
000000f0: 3305 fdbb d563 45be e506 983d c432 06bc
00000100: 8784 fbbc bf6f c4be 495c e43b 8fac f93c
00000110: 1b7d 633b 4f68 683d 88b2 f13d 8d04 a7be
00000120: c549 83bb 81b1 f0bc 28b2 063d 34d3 2abf
00000130: 0ba6 ffbb 1391 853c c1ca f13d c60d b93c
00000140: 3e1b 703e 7a47 6cbd b91b f5bc a6a5 bc3c
00000150: 433b a8bc 580b 143c bc18 123e 0ec3 7e3e
00000160: 9832 07bc be58 80bb cb82 553c dcfc 16be
00000170: 3776 723e 4fe7 143e 0cd1 d0bd 7ef5 84bc
00000180: d618 933e 89f9 b33d 2eba 3dbd 9412 b3bd
00000190: 3c75 4a3d 7efc 8abd 7f57 993b 7a71 2cbe
000001a0: 69e6 3fbd 6752 c73c 5800 20be bb5a 283f
000001b0: 86d9 cf3c 64d5 483d 7465 393d 7221 bfbe
000001c0: 0fa3 193e b3a6 553c 6b07 b9be ca7c c03c
000001d0: 6d08 fc3d f872 afbb 078e 93bb a677 263e
000001e0: dce8 fa3a 4acb 48bf 6913 b53c adda 0bbc
000001f0: 47bf b23e 6cf4 b63d f9bb f5bd 3229 0bbd
00000200: 0815 4b3e 67bd a53e 8d89 543c a806 e9be
00000210: c578 3f3e 750a 10bd 0c59 023d f3dd 033d
00000220: bc38 e23e f375 f63d 586a 17bc ffed 07bd
00000230: 77ec b9bb 546a 433f 2c67 0abe d0ff f3bd
00000240: 79cb 16bb 77a2 0ebe 93c4 fc3c c155 c1ba
00000250: 0e75 ab3d ed5f 4e3e 0eab 643b 6730 2f3c
00000260: 4c90 0cbb dafc f23b 176d eebe f13b 2abf
00000270: e157 06bc 133e bfbc 5947 9dbd 517f 333e
00000280: f42b f73b bae2 513c 7c29 0cbe f500 aebd
00000290: f117 2cbe 9730 17be 2c04 50be 9fa8 85bd
000002a0: facd e43c 07d6 d1ba 3be3 04be 2233 3dbd
000002b0: 54cb fbbb 5532 b23a c9c5 1d3d e819 443d
000002c0: eaa6 903e 5513 133e 197b fdbb ed9a bbbc
000002d0: 6259 0dbf 5930 09be 8905 7a3d 0fb1 d1bb
000002e0: 2ce0 6bbd 8348 693e 6cd8 f9ba 2dd3 2f3e
000002f0: f88f 363d 326e 0fbf 53e7 28be a788 863f
00000300: 0d04 e3bd 1aeb 32bd 360f 4abd b829 10bf
00000310: 7916 18bd 5242 243c d1b5 b33c 90bc d03d
00000320: c336 83bd 5f32 0d3c 8750 bd3b 83cc 1f3e
00000330: db42 11bb 450e e83e a53e 37bd e251 243c
00000340: 1e8d ac3d 02a8 aebc 7362 83bd 5dac 063e
00000350: e958 30be 60e1 38be f2dd 06be 87fc b03e
00000360: 379c 6b3e d627 33bd 6809 f7bc ad81 29bd
00000370: d01f 09bf d2bc 02be 249d 2e3b 9d16 853d
00000380: 7d92 cfbb 799c 76be b1a6 683d b6cd d23d
00000390: a9f6 9f3c 9409 ce3d 25fb 4f3e 2a36 8f3b
000003a0: 3b29 92bd 740d ec3e 780b a4bb 2fe7 a93c
000003b0: 0e93 d93b bfb0 68bc 6b37 813e c62c a6be
000003c0: f897 7fba fe59 1f3d 3484 003d 858f d33d
000003d0: 5910 05bc a238 713c 83d1 0e3d 78f6 f03d
000003e0: 0949 36be fe88 ad3c 1242 95be 42c7 883d
000003f0: 685c 4a3e e137 99be 8d7c 173e 1782 973c
0.013100801 -0.03840475 -0.13394068 0.6876952 -0.041402925 0.014691503 -0.024587302 0.024672655
0.13271385 -0.1947526 -0.019661859 -0.022883004 0.20711356 -0.02568088 0.033065602 -0.056546446
0.08791683 -0.053696588 0.010370515 0.022408597 -0.081035875 -0.2283364 -0.15426648 0.6379007
0.06272669 0.0023946844 0.045928273 0.7141864 0.059751052 0.004151595 -0.20929123 0.017030988
0.1788921 0.015095051 0.039576583 0.1575386 0.00076134945 0.48142272 0.013450194 -0.0037799864
-0.62930727 -0.06634306 -0.113467716 -0.07960839 0.17177479 -0.15916148 -0.05036398 -0.57504517
0.17632638 0.018573476 -0.008800409 0.011358116 0.21630614 0.3151026 0.005229249 -0.016009092
-0.001077021 -0.3437423 0.09342503 0.10764144 -0.007721567 -0.19276364 0.0742319 -0.008190814
-0.030702842 -0.38366506 0.006969009 0.03047779 0.003471202 0.0567401 0.1180163 -0.3262066
-0.0040065967 -0.029381515 0.032884747 -0.6672852 -0.0078017763 0.016304528 0.1180625 0.022589575
0.23447892 -0.057685353 -0.029920446 0.023028206 -0.02053607 0.009035908 0.14267248 0.24879095
-0.008251809 -0.003916829 0.013031672 -0.14744896 0.23677908 0.14541362 -0.101961225 -0.016230341
0.28729886 0.087878294 -0.046320133 -0.08743778 0.04942821 -0.0678644 0.00467962 -0.16840163
-0.046850596 0.024331285 -0.15625131 0.65763444 0.025372278 0.04903163 0.04526277 -0.37330204
0.15003608 0.0130402325 -0.36138472 0.023497004 0.123062946 -0.0053542815 -0.004503015 0.1625658
0.0019142884 -0.78435194 0.022103982 -0.008536023 0.34911558 0.089333385 -0.119987436 -0.033974834
0.19832242 0.32371065 0.012972248 -0.4551289 0.18698414 -0.035166223 0.031823203 0.03219409
0.4418391 0.12034216 -0.009241663 -0.033185955 -0.0056739408 0.7633412 -0.1351592 -0.11914027
-0.0023009463 -0.13929163 0.030855453 -0.0014750288 0.08371936 0.2015378 0.0034891996 0.010692692
-0.0021448312 0.007415396 -0.46567604 -0.66497713 -0.008199663 -0.023345029 -0.07679624 0.17529036
0.0075430814 0.0128104035 -0.136877 -0.08496276 -0.16806008 -0.1476463 -0.20314091 -0.065263025
0.027930249 -0.001600922 -0.12977307 -0.046191342 -0.0076841507 0.0013595322 0.0385187 0.04787627
0.28252345 0.14362843 -0.0077356216 -0.022901023 -0.5521451 -0.1339735 0.061040435 -0.006399281
-0.057586834 0.22781567 -0.0019061691 0.17170401 0.044570893 -0.5602752 -0.16494493 1.0510453
-0.11084757 -0.04368124 -0.049330913 -0.5631366 -0.037130807 0.010025578 0.021937283 0.101922154
-0.06406929 0.008617966 0.005777422 0.15605359 -0.0022165093 0.45323387 -0.044737477 0.010029288
0.084253535 -0.021320347 -0.06415262 0.13151689 -0.17221417 -0.18054724 -0.13170603 0.34567663
0.2300881 -0.043739162 -0.030155852 -0.041383434 -0.5356417 -0.12767342 0.0026643956 0.06498454
-0.0063346014 -0.24083127 0.056799594 0.102931425 0.019526796 0.10060421 0.20310648 0.0043704705
-0.0713677 0.46104014 -0.00500625 0.02074012 0.0066398447 -0.014202296 0.25237593 -0.32456034
-0.0009750123 0.038904183 0.03137608 0.103301086 -0.008121573 0.014722975 0.034867775 0.1176576
-0.17801298 0.021183487 -0.2915197 0.066786304 0.19761813 -0.29925445 0.14793606 0.018494649

final.linears.2.bias f4 [10]
00000000: 0bd3 9f3b daf3 26bd a94c c9bc 3dca 423e
00000010: 93c8 f0bd 9e89 52be e18f 203d fc70 79bd
00000020: 92c8 a4bd 90dc 60bd
0.004877453 -0.0407599 -0.024572687 0.1902246 -0.117570065 -0.2056031 0.039199714 -0.060898766
-0.08046068 -0.054897845

layers.0.attn.0.gnn_q.weight f4 [10, 16]
00000000: be30 3607 5407 db87 84dd 0306 3ac2 c087
00000010: bf6c 4c08 7e41 b987 c0fa 6f08 b094 e984
00000020: 6794 fd87 19b3 f707 1cdd 9e87 084e 9a08
00000030: 14b8 4688 b243 aa05 e1c2 7486 46ff 0e07
00000040: ade6 b607 a114 8c88 afce 0c08 6f85 9c06
00000050: d070 c987 2875 ce07 5c04 0f88 3685 0908
00000060: 14d6 9207 a2d2 ee07 315d 9b07 89c9 f806
00000070: 72a4 6c05 d5cd 7208 3188 7008 8442 d587
00000080: 3434 1008 29de c907 6b98 5008 728a 2e07
00000090: 60ee 0008 1c99 5988 705d 8708 199a b486
000000a0: 8e6b 9d87 887e 6d87 181e 1b07 db6a 5208
000000b0: ff2c 2708 5742 2408 c8f9 8887 7c7f a487
000000c0: b6f8 8e86 dbc3 9c07 6bbd 9f07 65c2 a686
000000d0: b575 8106 a00b 0c87 7498 1b87 f0cc 8087
000000e0: 0066 e185 7d85 9588 cb78 e205 b3a9 1107
000000f0: b649 0107 2ce8 5187 36b6 3e87 682c 8508
00000100: 2211 bf07 8cff d487 40cb ab85 e766 9e06
00000110: a27e ab87 c020 6d04 49ba c706 28cd e485
00000120: dbcf ab06 3266 a486 2917 ef87 c191 9187
00000130: 90b8 4e08 c0ba a107 c428 9704 5d81 0588
00000140: fa54 2787 87d5 0788 b356 bc07 ce6f 0607
00000150: c3aa 4088 0b78 e287 4c5f 1f87 f876 2908
00000160: 2a9e 3c88 43d2 b106 1b6a bf87 1ec2 c287
00000170: 4c73 3108 6da9 5606 99a5 e785 bef7 0f07
00000180: aee6 4308 3a5b 6b88 4b20 4608 1edc 1688
00000190: f21a 7088 241b f887 4446 8806 8529 5907
000001a0: e03e 0487 ea5c 0707 3a49 d407 38fa f384
000001b0: 3a7e e686 fedf 8a07 7169 1e88 131c 8387
000001c0: ce30 0b06 cb30 1288 4cd1 0e08 154c 3d08
000001d0: e5c2 f787 94a2 2508 b164 0488 1a9b 2a87
000001e0: 0ee1 b587 eabe 1f08 7c9d 9607 7f6e 2308
000001f0: b124 2388 2f0f 4c87 dd47 c607 5dac 9808
00000200: 8210 b407 add1 7f08 b04e 2208 409a 2387
00000210: 42b0 e507 1a4f 3688 5239 ff06 a2ed 2688
00000220: f0ae c307 d2a4 8a07 a932 5908 d690 3b08
00000230: 0d6d 5a87 1cce 5088 20ee 5008 c675 0187
00000240: 0946 f987 ef22 7d08 9bf0 1688 be0e 9007
00000250: 134b 8b06 50a2 a786 a033 9088 738c ac07
00000260: 1e87 de86 39d9 2688 077a 1e08 20e5 6988
00000270: b287 a406 75fd ff07 2fce f306 4007 a686
1.3706482e-34 -3.2955765e-34 2.4801106e-35 -2.9003105e-34 6.1516847e-34 -2.78742e-34 7.22162e-34 -5.4914585e-36
-3.8154432e-34 3.7269694e-34 -2.3903154e-34 9.286883e-34 -5.979984e-34 1.601159e-35 -4.6034474e-35 1.0757911e-34
2.7519895e-34 -8.430793e-34 4.2372673e-34 5.887674e-35 -3.0309424e-34 3.1064293e-34 -4.303762e-34 4.1383527e-34
2.2093462e-34 3.5934059e-34 2.337658e-34 9.358336e-35 1.11268705e-35 7.306618e-34 7.2382465e-34 -3.2087772e-34
4.339479e-34 3.0373693e-34 6.277189e-34 1.313099e-34 3.8798807e-34 -6.548104e-34 8.146984e-34 -6.79349e-35
-2.368595e-34 -1.7867083e-34 1.1669748e-34 6.3320184e-34 5.0307627e-34 4.9429937e-34 -2.0609814e-34 -2.4750906e-34
-5.377991e-35 2.3587385e-34 2.403499e-34 -6.2727897e-35 4.869736e-35 -1.0535846e-34 -1.1705706e-34 -1.937975e-34
-2.1196367e-35 -8.998994e-34 2.129731e-35 1.0958458e-34 9.726543e-35 -1.5791642e-34 -1.4347558e-34 8.015086e-34
2.8748556e-34 -3.2048412e-34 -1.6155425e-35 5.9584196e-35 -2.5803648e-34 2.7874254e-36 7.51292e-35 -2.151638e-35
6.4628467e-35 -6.1840106e-35 -3.5974335e-34 -2.1902842e-34 6.220782e-34 2.433435e-34 3.5537367e-36 -4.0175297e-34
-1.2588656e-34 -4.0876085e-34 2.8338053e-34 1.0113896e-34 -5.797863e-34 -3.4075255e-34 -1.1989836e-34 5.0996435e-34
-5.6760113e-34 6.688895e-35 -2.880085e-34 -2.9303968e-34 5.339953e-34 4.03734e-35 -2.1783967e-35 1.0830929e-34
5.895184e-34 -7.0824976e-34 5.962142e-34 -4.539773e-34 -7.2254047e-34 -3.7330844e-34 5.126076e-35 1.6337467e-34
-9.949054e-35 1.0183576e-34 3.1941253e-34 -5.7358815e-36 -8.670186e-35 2.0895583e-34 -4.767034e-34 -1.972719e-34
2.617885e-35 -4.3992633e-34 4.29776e-34 5.6964553e-34 -3.7278978e-34 4.984399e-34 -3.9840667e-34 -1.2834959e-34
-2.7366128e-34 4.807174e-34 2.2662053e-34 4.9180916e-34 -4.909416e-34 -1.5351716e-34 2.9833966e-34 9.18869e-34
2.7093092e-34 7.6982744e-34 4.88426e-34 -1.2308087e-34 3.4559685e-34 -5.4861616e-34 9.6004564e-35 -5.0233144e-34
2.9443158e-34 2.0860805e-34 6.5360613e-34 5.644352e-34 -1.6432544e-34 -6.2835004e-34 6.287264e-34 -9.739492e-35
-3.750652e-34 7.6175482e-34 -4.5421813e-34 2.1675377e-34 5.23963e-35 -6.3056915e-35 -8.678822e-34 2.5962232e-34
-8.3705656e-35 -5.020915e-34 4.768984e-34 -7.038522e-34 6.188933e-35 3.8517104e-34 9.17094e-35 -6.245291e-35

layers.0.attn.0.gnn_q.bias f4 [16]
00000000: a354 3498 292c c087 b59b 6188 9e32 3587
00000010: 067e c187 0882 b107 f85f 6e08 2081 1988
00000020: 6e16 3d88 b1f5 6308 9f2c 6908 6d37 4688
00000030: 3e1d 9f07 76ca 8c06 6a43 9b87 6d1a 6588
-2.3307185e-24 -2.8914904e-34 -6.7891507e-34 -1.3631802e-34 -2.9113482e-34 2.6708426e-34 7.173333e-34 -4.619355e-34
-5.6901485e-34 6.8599137e-34 7.016834e-34 -5.964861e-34 2.3940848e-34 5.2959637e-35 -2.336143e-34 -6.8943244e-34

layers.0.attn.0.gnn_k.weight f4 [10, 16]
00000000: e2ab 1b08 d386 0a86 5d9d 3907 af3f 8607
00000010: 8618 6c06 3590 5808 5876 8f87 cd8a 8806
00000020: 6a21 a606 0f67 8e07 9ccf 5d08 1c30 ae07
00000030: d56a d886 2818 d907 0fb4 ef86 0a4d 0887
00000040: 307c 3606 c3b8 c987 16b4 8286 8721 a287
00000050: 76da a885 411b 6708 31e4 0788 50bc 4907
00000060: 329f 1c08 5053 8a87 aa33 0e08 b89c c105
00000070: defc f686 0b65 af07 1fda a707 af34 1d86
00000080: dc08 f387 909f 6808 02d6 0788 24d9 4388
00000090: c8fa ed87 1e81 4288 c48e 6d05 7d9f b906
000000a0: ba4a 0687 c611 eb07 fa05 fb07 df57 0808
000000b0: 2a7f 4508 c397 5388 a490 8f08 bc12 e587
000000c0: 94b2 6b08 8baf 1807 b187 7486 5f11 6b88
000000d0: 6985 1588 a244 a307 1651 fa86 ade1 4a86
000000e0: bbce 5c08 d728 8f06 5337 9187 85da 8986
000000f0: 0244 b307 caa5 5e08 38cc 5388 4022 6607
00000100: 4099 e807 c2f2 f107 4bbf c307 091b 6388
00000110: e8de ee07 fe1c 8d87 f889 0488 f8a1 8a08
00000120: 1d84 4607 d036 b287 e4c8 9787 9efa ce87
00000130: f189 f407 4ae8 9487 5e43 1e07 87e5 ec06
00000140: f62c 1f86 6fe3 ed07 a348 9905 2770 2588
00000150: 5aea 5007 ae07 d907 371c 0a08 9ebd 3f08
00000160: 9656 aa87 ef3a 5507 4595 a987 e967 b307
00000170: 7f6e 2007 ff2a b107 3647 0588 0775 c286
00000180: 4948 2507 a312 4e88 1ec2 5c88 2083 0788
00000190: 5dff 8d87 5a64 0908 8558 1a08 b2bc 0808
000001a0: 822f 3988 0078 9108 37d6 5588 d985 0f88
000001b0: 1633 5207 83ae 1388 d72f df86 01dc 8287
000001c0: fe5e dd07 01b7 7f07 cb53 c185 a160 db87
000001d0: 2054 4b08 ccb4 e207 e16d e207 11ad d385
000001e0: b464 cf07 9fba 6008 b684 8907 2fdb e785
000001f0: 0523 3c08 e693 ba07 5ef6 2e88 aa08 5887
00000200: 7b90 5488 8dc0 2d88 a874 0686 511d 8688
00000210: 3390 2888 eed4 fe07 ac26 9107 85dc 0887
00000220: 0584 e387 dfb3 6688 aaf0 6788 5c91 6c08
00000230: a6ef 0b88 17fc 6f87 af88 3688 b551 2908
00000240: 63a9 0287 8cef d607 410c a807 4b91 1707
00000250: 4d6b 8a87 42f7 8f87 a96f d407 ee46 4906
00000260: 4e9c bb85 87fb 8507 f6f3 d787 f1cd 6a88
00000270: a3e1 4088 8889 8788 e840 8607 325b 1887
4.6845663e-34 -2.6053968e-35 1.3964098e-34 2.019951e-34 4.4404684e-35 6.516965e-34 -2.1585805e-34 5.1361464e-35
6.249136e-35 2.1426358e-34 6.674881e-34 2.6208886e-34 -8.1407145e-35 3.266473e-34 -9.016638e-35 -1.0254143e-34
3.4321634e-35 -3.0351712e-34 -4.916518e-35 -2.4394756e-34 -1.5878894e-35 6.954607e-34 -4.0893322e-34 1.5176899e-34
4.7131676e-34 -2.08129e-34 4.27923e-34 1.8207202e-35 -9.290647e-35 2.6390461e-34 2.5255567e-34 -2.9567124e-35
-3.6567783e-34 7.0002525e-34 -4.087665e-34 -5.8935926e-34 -3.5807193e-34 -5.853153e-34 1.1169908e-35 6.982361e-35
-1.0103e-34 3.5369316e-34 3.7769795e-34 4.1029303e-34 5.943201e-34 -6.36739e-34 8.640504e-34 -3.4467101e-34
7.092766e-34 1.1486796e-34 -4.599099e-35 -7.073816e-34 -4.499488e-34 2.4565853e-34 -9.4158693e-35 -3.8157778e-35
6.6446852e-34 5.385063e-35 -2.1849692e-34 -5.185476e-35 2.6972898e-34 6.700058e-34 -6.373556e-34 1.7313342e-34
3.4997552e-34 3.640433e-34 2.945277e-34 -6.8342107e-34 3.5941272e-34 -2.1232362e-34 -3.9884487e-34 8.343652e-34
1.4934689e-34 -2.681468e-34 -2.2838028e-34 -3.1142735e-34 3.6794114e-34 -2.2405092e-34 1.1906396e-34 8.9110593e-35
-2.9937608e-35 3.579347e-34 1.4414733e-35 -4.9784716e-34 1.571705e-34 3.2655045e-34 4.156103e-34 5.7699866e-34
-2.5629648e-34 1.6041658e-34 -2.5516027e-34 2.6994e-34 1.2069534e-34 2.665727e-34 -4.010694e-34 -7.3146646e-35
1.2434463e-34 -6.2012777e-34 -6.6432025e-34 -4.077922e-34 -2.136541e-34 4.13449e-34 4.6446743e-34 4.114782e-34
-5.5727258e-34 8.755082e-34 -6.4349164e-34 -4.3189834e-34 1.5813657e-34 -4.444134e-34 -8.395357e-35 -1.9689533e-34
3.3308216e-34 1.9237848e-34 -1.8180413e-35 -3.300825e-34 6.118698e-34 3.4110963e-34 3.4069282e-34 -1.9905919e-35
3.1205086e-34 6.762692e-34 2.069147e-34 -2.1803651e-35 5.6615357e-34 2.8073096e-34 -5.2650824e-34 -1.625258e-34
-6.3966265e-34 -5.2286636e-34 -2.5288304e-35 -8.071724e-34 -5.0725166e-34 3.8342821e-34 2.1839904e-34 -1.0296308e-34
-3.4232758e-34 -6.9424545e-34 -6.9796933e-34 7.1189536e-34 -4.2110496e-34 -1.8054444e-34 -5.4929304e-34 5.0952634e-34
-9.829891e-35 3.2339934e-34 2.5285033e-34 1.1402675e-34 -2.0826998e-34 -2.1661574e-34 3.1963843e-34 3.785601e-35
-1.7642813e-35 2.015945e-34 -3.2492992e-34 -7.0658897e-34 -5.8043133e-34 -8.15735e-34 2.0200228e-34 -1.1462009e-34

layers.0.attn.0.gnn_k.bias f4 [16]
00000000: 6305 341d 627a 4708 91ff 3f08 91e4 7408
00000010: 5f5a 5608 c090 5088 f70b 6c88 e54c 8307
00000020: 03a2 6c08 4e22 d486 7cc7 7c87 5c22 8e06
00000030: 25e8 4388 1dd3 6f88 a274 5e08 1bd1 4307
2.3825587e-21 6.0028245e-34 5.777739e-34 7.3694758e-34 6.4504513e-34 -6.2762876e-34 -7.103273e-34 1.9755884e-34
7.120911e-34 -7.9795943e-35 -1.9016996e-34 5.346495e-35 -5.8953563e-34 -7.216961e-34 6.6942796e-34 1.473162e-34

layers.0.attn.0.gnn_v.weight f4 [10, 16]
00000000: dbba a73d 4a9e 903e 8e75 e13e 139d 21be
00000010: 2965 a13e 13d4 2d3f 5a70 1ebd 5920 15bf
00000020: 63dc 223e 312e 583f 59ce 6ebd 985b 27bf
00000030: 239f 78bf 0098 723e 1b95 393e c154 a13f
00000040: 6977 dc3d fbcc 38bf c96e f43e 13ad 083f
00000050: a645 303f 124c d7be 2bfe debd 8f66 aabe
00000060: fb7b 1c3e 1973 1a3e fe4a 03be f220 3b3d
00000070: 45b7 68be 91e8 f5be d9ad 2d3e 7955 4bbe
00000080: 7a35 b2bd 2a72 2bbf b4fd 0c3e 20d8 f43e
00000090: 63df 973e b472 1abf e691 02bd 2905 a43d
000000a0: 7757 db3c facf b4be 76f3 7cbd 454a d23e
000000b0: bfe6 b13e 304e f0be 3ac3 0e3d 9d29 2ebf
000000c0: 753f b43d a4f6 e03d effd 383e 3845 21be
000000d0: babd 76bd 00a5 f7bd 5b9e 833e fcc1 c03d
000000e0: f4ef 82bd 5577 86bd a49c 9f3c 500e 09be
000000f0: 5eee c83b 7100 f5bd 6f83 febd 1e5c 53bd
00000100: 9317 b33d 9909 afbd 032a 92bc 9299 6b3e
00000110: b76d 09be db0f 2cbd 7ac7 b93e 4eee f1bd
00000120: 38d8 dabd 655d 0fbe d018 8bbe dcfd 2839
00000130: 0f6b 74bc d1b8 f33d b612 8ebd 91b5 7fbd
00000140: 04e7 e3be 2741 5abe 8cc7 efbe e612 1e3f
00000150: 2960 b5bd a624 b53e 93ca 053e 9480 debe
00000160: 5f53 28bd b115 3cbe 5cc5 00bf 3432 8a3e
00000170: 39a5 d43d b2fb f93e d47e f33d 519e fc3d
00000180: dcad 533c ad5a 23bb 995a cabd 41e3 693d
00000190: 4aa0 1abd e724 153d 55ba dc3b 7857 a3bc
000001a0: a6b2 1cbd f4bc 1abd 0dc4 0bbd b82a 353d
000001b0: 97d1 623c 9367 893d 2bb2 87bc 673f d13c
000001c0: 2402 c0bc 291f 443f 86e1 43bf e127 17bf
000001d0: df5e 60bf ad95 b23e 92d2 4f3e 761b 093f
000001e0: f0fa a7be 4b5c d1be d634 c93d 6729 093d
000001f0: 7b5e 063f 1071 0e3f dbe6 94be 672b f3bd
00000200: 6fda a0be 014a 833d eb4a 883e ac67 b6be
00000210: 1d7e 1abd 6f56 71be 10c8 81bd 8bd8 a43e
00000220: 3059 6d3e bf7e 84bd e9aa cb3e afef e63d
00000230: 0be3 963e 8182 f8be 4a32 adbc 9166 fa3c
00000240: db34 3cbd ad28 71bc a972 0cbe 1886 0a3d
00000250: 4726 f5bb e0be 3a3d 8660 3abe e588 5abc
00000260: cc9a 333d a297 e6bb 9cee 223d 6ca9 983d
00000270: c323 813d a99f 313d 6132 763d a3dc 4c3c
0.08189937 0.28245765 0.44035 -0.15782575 0.31522492 0.67901725 -0.038681366 -0.58252484
0.15904383 0.8444548 -0.058302257 -0.65374136 -0.97117823 0.23690796 0.18123285 1.260399
0.10764963 -0.72187775 0.47740772 0.5338909 0.68856275 -0.42050225 -0.108883224 -0.3328137
0.1528167 0.15082969 -0.12821576 0.045685716 -0.22726162 -0.48028997 0.16960849 -0.19856824
-0.08701606 -0.66971076 0.13768655 0.4782114 0.29662618 -0.60331273 -0.03187742 0.08008797
0.026775105 -0.35314924 -0.06175562 0.41072288 0.34746358 -0.46934652 0.03485415 -0.68032247
0.08801166 0.10984543 0.18065618 -0.15749061 -0.06023953 -0.12092018 0.25706753 0.094119996
-0.06393424 -0.065657295 0.019483872 -0.13384366 0.006131931 -0.11962975 -0.12427413 -0.05160152
0.08744731 -0.085467525 -0.017842298 0.23007801 -0.13420759 -0.04200731 0.36285 -0.11813031
-0.10685772 -0.14000471 -0.27167368 0.00016116299 -0.014918103 0.11900485 -0.069371626 -0.062429015
-0.44512188 -0.21313916 -0.4683193 0.61747587 -0.08856232 0.35379523 0.13065557 -0.43457472
-0.041095134 -0.1836765 -0.50301147 0.26991427 0.10383076 0.4882484 0.11889425 0.12334884
0.012919869 -0.0024925873 -0.098805614 0.05710149 -0.03775052 0.036412146 0.0067360797 -0.01993917
-0.03825631 -0.037777856 -0.034122515 0.044230193 0.013843915 0.06709208 -0.01656445 0.025542928
-0.02343852 0.76610047 -0.76515996 -0.59045225 -0.8764476 0.3487982 0.2029517 0.5355753
-0.32808638 -0.40890726 0.09824531 0.03348675 0.52487916 0.5564127 -0.2908238 -0.11873513
-0.31416652 0.064105995 0.26619658 -0.3562597 -0.037717927 -0.23568128 -0.06336987 0.3219646
0.23178554 -0.064694874 0.39778832 0.11276185 0.29470095 -0.48537067 -0.021142144 0.030566486
-0.045948844 -0.0147191705 -0.13715614 0.033819288 -0.0074813697 0.04559219 -0.18200883 -0.013338302
0.043848798 -0.007037119 0.039778337 0.0745419 0.06305649 0.043365154 0.06010664 0.012503776

layers.0.attn.0.gnn_v.bias f4 [16]
00000000: 0d53 0abd b3f4 cdbc 1b9b cebd 9d18 a23c
00000010: 1233 233d 0eba a03d 5b68 5abe 3449 2ebc
00000020: f8bc 313d 8f0b 823d 1b2a 443d 85c2 983d
00000030: 0d17 24bb ba97 5b3d 46cc 9a3d 3101 323d
-0.03377061 -0.025141096 -0.10088178 0.019787127 0.039843626 0.07847987 -0.21328871 -0.01063757
0.043393105 0.06349861 0.047891717 0.07458977 -0.0025038153 0.053611495 0.07558493 0.043458167
