checkpoints/bbb_martins_33_train1_neg/Aug21-21:28:16_900.pth (torch, 377407 bytes, 294 tensors)

layers.0.weight f4 [10, 16]
00000000: 60ad 4a3f 7534 7a3f 93fa c9bd 84f4 5a3f
00000010: df08 dbbd 5577 b63e acd0 9d3d 7877 553f
00000020: 0b30 9b3f 523a febe 3365 9c3d d69a 63bd
00000030: 1d16 d0bd 7ea9 5b3f 541c c9be 95b1 18bf
00000040: 3264 3b3f 21a1 69be 804b 21bf eebd 213f
00000050: fc1e 11be d820 2fbf f253 863d 7651 633f
00000060: 2ad5 97bf 7db6 03be c9be 4fbf 8991 debd
00000070: 8d9c 673e 2d54 00bd cd6c f43f 81ec 2cbf
00000080: 51c2 1a3f cd26 8abe 2845 fbbe 591f 6e3e
00000090: 845f 163f ac1c 233f ae6d cbbd 5103 02bf
000000a0: 5717 da3e c8ab d8be 4125 313f 00ba 0040
000000b0: c21c 223f 15e1 acbe b41a 1e3f 0e83 e73e
000000c0: 8437 57bd 4979 ffbe c7ad 76bf 7f27 e2bd
000000d0: 7e5b b5bf 1f1b 143f 88a9 233f 3841 583e
000000e0: e3ac c23e b88b 29bf b5d6 993f c4f0 f5be
000000f0: de74 8abe ce79 a0be f432 8d3e 1432 b5bd
00000100: de86 1d3f 2512 a9be fc60 853f 0f35 61bc
00000110: 5d4e a83e 743f 933e 201c b13f 9a4f 143e
00000120: 87c3 da3e 9571 08bf 8897 44bf de28 72bf
00000130: c16e efbd 3004 b0bd aa99 963e 2826 be3f
00000140: 4dc8 18be 2ec3 a6bf 9754 f33d d8d1 acbe
00000150: 9b4b 2b3f 2f75 083f e50c 4a3f f4fe 71bf
00000160: cbb2 77bf 8577 6c3e 1145 8e3e 91b1 a2bd
00000170: 7a92 323e 9c3e 503f 43a4 5fbf 638a 2abf
00000180: 60f3 363f 7fa2 793f c6cb 04bf 01c4 80bf
00000190: e151 b9be fe97 b43e 015b 71be b43b afbf
000001a0: 0baa ff3d faca 99be ed7a 45bf 5436 cbbc
000001b0: 735f 31bf 88fa 11be dd28 8a3f b443 d4be
000001c0: affe 1e3f 514e a3bf a79c 0ebf 6002 f83d
000001d0: ac15 373d 47d4 d4bf b601 e1be 2e31 00bf
000001e0: 1e89 013f f4a8 acbe 0ad7 c4be 3a3c f4bd
000001f0: fae8 c23d 1737 38bf 3b32 61bf 3823 86be
00000200: a0a1 513f 43bd 97be 68f3 843f 4dd2 8a3e
00000210: 7e85 4cbf 9969 713f 3d6b f4be bd29 a5be
00000220: 2102 69bf d342 b7be 26af a9be 493d 1fbe
00000230: 778a bb3e 78af 85bf 5128 5abd b128 febe
00000240: 57d9 82bf b46d 4d3f 5c94 0e3f e14b 543f
00000250: 8bb2 253f 7cc2 a0bf b12b f63e 783e 67bf
00000260: 799e 64be a5ec 0abf 9b85 963f 9809 85be
00000270: 956e bd3d 0313 42be 404a bc3e adf0 9bbc
0.791708 0.97736293 -0.09862246 0.8552935 -0.106950514 0.35637918 0.077058166 0.8338542
1.2124037 -0.4965387 0.0763649 -0.055567585 -0.10160468 0.858055 -0.39279425 -0.5964597
0.7319976 -0.22815372 -0.6300583 0.63180435 -0.14171976 -0.6840949 0.0655898 0.88796175
-1.1861928 -0.12862583 -0.8115049 -0.108676024 0.22618313 -0.031330276 1.9095703 -0.67548376
0.60452753 -0.26982728 -0.490762 0.23254146 0.58739495 0.63715625 -0.09933029 -0.5078631
0.42595932 -0.4231856 0.6919747 2.0113525 0.6332513 -0.33765474 0.61759496 0.45217174
-0.05254318 -0.4989722 -0.96358913 -0.110426895 -1.4168546 0.57853884 0.6393056 0.21118629
0.38022527 -0.6622882 1.2018648 -0.48035252 -0.27042288 -0.3134293 0.27577937 -0.08847442
0.61533916 -0.33021656 1.0420222 -0.01374556 0.32872286 0.28759348 1.3836708 0.1448349
0.427273 -0.5329831 -0.7679372 -0.9459361 -0.116910465 -0.08594549 0.2941411 1.4855394
-0.14920159 -1.3028314 0.118813686 -0.33753848 0.6691224 0.5330381 0.78925925 -0.9452965
-0.9675719 0.23092468 0.27787068 -0.07944024 0.17438689 0.81345534 -0.8736002 -0.6661741
0.7146511 0.97513574 -0.51873434 -1.0059816 -0.3619528 0.3527221 -0.23569871 -1.3690095
0.12483605 -0.3003767 -0.77140695 -0.02480618 -0.6928627 -0.14255726 1.079372 -0.41457903
0.62107366 -1.2758275 -0.5570778 0.12109828 0.044698402 -1.6627282 -0.43946618 -0.5007504
0.5059985 -0.3372265 -0.38445312 -0.1192555 0.09517093 -0.7195906 -0.8796727 -0.26198745
0.81887245 -0.29636583 1.0386782 0.27113572 -0.7989119 0.94301754 -0.47738066 -0.32258406
-0.91018873 -0.3579317 -0.3314144 -0.15550722 0.36629078 -1.0444174 -0.053261105 -0.4964042
-1.0222577 0.8024552 0.5569513 0.8292828 0.6472556 -1.2559352 0.4808021 -0.90329695
-0.22326078 -0.5426734 1.1759523 -0.25983882 0.092496075 -0.18952565 0.36775398 -0.019035662

layers.0.bias f4 [16]
00000000: 3f58 a0be cbf7 38be ac93 5c3d 2c58 d83e
00000010: 7e0d 483e 60dc 373e fcc7 0ebd 649f 2bbd
00000020: 5ec3 923e a1aa 393f fd65 5dbe dbdf c0be
00000030: fd3a 02bf c692 a0be 2469 8f3d e43a 0dbf
-0.31317326 -0.18063276 0.05385177 0.4225477 0.19536397 0.1795516 -0.03485869 -0.041900054
0.28664678 0.72525984 -0.21620937 -0.37670788 -0.5087126 -0.3136198 0.07002476 -0.55167985

layers.1.weight f4 [16, 16]
00000000: dadb dd3e 79b4 cc3e 963b 163d e944 c0be
00000010: da75 78ba 0b3b 32bf d167 48bf 8700 653f
00000020: 9ee6 113f 870d b2be 0c3e 03bf c4d8 83be
00000030: 24d2 89be 9e32 9ebd af1f 16bf a9fc b23e
00000040: 5a72 36be 4f44 c43e 49cd 323f 7e8b 84bf
00000050: 2101 c73d 5472 193f 1bb7 063f 0c8e e7be
00000060: 1354 a03e edd4 cb3e dce7 9e3e 7b60 b43d
00000070: d5de 15be 7e42 c33d 362c 5f3e d273 03be
00000080: 2552 4b3f b328 1e3f 909f 5c3e a3cd 11be
00000090: b538 353e 8e56 473e 4ff9 fc3d 434b 153e
000000a0: 7414 23bf ca5e d8be d416 393f 8cec 373e
000000b0: 4f88 453f 4306 6abe fad2 7c3d 4a52 0ebf
000000c0: f92b 0cbe f782 de3e 2b93 813f 98a3 c73e
000000d0: 7c09 19bf 642c 02bf 6ed6 b1bd 3617 0c3f
000000e0: 5ae3 913e 1a57 d8bd 8083 b63d dce3 9abd
000000f0: 0b35 0abf 03b0 803e 2969 71be 38d4 9fbe
00000100: 107a 41bf f036 543f e6f9 ea3e 5f1f 5a3f
00000110: 8e18 e2be fe8e 09bf eb19 d6bd 469d 1a3f
00000120: 1d5c db3d aaf6 913e b00e 243f 9deb 50be
00000130: 6679 8a3e 0021 b4bd bcb0 463e 59af 92be
00000140: 0d11 553e 4690 213e 4fc7 51be fc36 2fbf
00000150: a566 b2be c799 2ebf a85c e1be 9093 743e
00000160: 14a8 0dbf 0999 293e 510c e1be cf77 63be
00000170: bc76 00bf aac9 c83d fe32 00be f050 74be
00000180: 7d34 613f 146a d4be e3b2 e13c 8d2a 303f
00000190: 2be4 4c3e 76c0 2ebf f925 dabe 8ac5 00bf
000001a0: 333b 42bd f8bf 593f ae12 01bf adbb 393d
000001b0: 8c2e 113f befc dabe 81d3 803e 098b d5be
000001c0: 7d24 873e 3505 b53c 8902 8e3e c430 e5be
000001d0: 7c28 7c3e 2441 093f 95d8 a73e f161 67bf
000001e0: cb1e 54be 7856 173b a326 dd3d 1e8d 683e
000001f0: 15d6 273e da64 d6bd a148 61bf 1520 203f
00000200: 8b3f a63e 34ee 09bb 105d 823e 7ea4 08be
00000210: c1bd a3be 4d68 34bf 479b 72be fca1 3dbe
00000220: c0e0 6ebf 01f3 dc3e 4707 eebe 1cd7 48be
00000230: 8bcc 343e d368 44be 4016 9bbe fb92 e63a
00000240: ac44 29bf 7f23 b03e f5ee cbbe e863 123d
00000250: 7131 4abf 8230 ab3e 5ef2 963f 376b 71be
00000260: 5255 2ebf 6597 893d 2bf0 5b3f baaa 583e
00000270: 3fd0 453e 9a5a 1c3f 4bfa 693e bb78 db3e
00000280: e063 14bf 597d cabe 22ec 7d3f 2ace bc3e
00000290: 233f 04be 8a45 d1be b426 2cbf fb9d e3be
000002a0: f3d0 0cbf 4379 5d3c ce4f 06be 5fe0 5abe
000002b0: e51c 7bbf 83bb 3cbb e8d1 b93e ddcb 62bf
000002c0: e1ad 29bf 7d18 8a3f ec76 dabe b5cc 58be
000002d0: 2b80 debc ad94 09bf 9b09 03bf 9966 0e3d
000002e0: 7926 06bf ebe5 16bb ccf9 a23e 1166 d13d
000002f0: 90b8 84bf eb88 3abe b224 d7bd e05a f53e
00000300: 8407 76bd f589 e43e 47fa 403e 8b48 f13e
00000310: 5887 913e 84ab fabe a974 5cbf 4a8c 583f
00000320: 836c 133d 954d 32bf e8e7 4cbd 01ba ebbe
00000330: 383b 02bf a545 853e 2168 d83c 1249 e4be
00000340: 724a ffbd a5a7 7dbe 9a89 db3e 9693 f33e
00000350: 447a cd3e f7fc 613e afbc 12be 2eff c0be
00000360: b3aa 70be c130 f63e e676 313f 10de c3bd
00000370: 3c18 f23e 090d d1be f4eb eb3e 3fe0 f63e
00000380: 4aa4 863e c8b3 003f 2603 f2be d3c3 cfbe
00000390: ea07 29be 43f3 35bf 1df0 0ebf 6928 11bd
000003a0: 9f7b 893f 746a ce3e 828b b8be bda8 7abe
000003b0: 6504 a9be da66 8d3d f680 17be 7cdf 98be
000003c0: 72e0 9b3d 5a2e 2f3f d60f 54be b74b 813c
000003d0: 8b1a da3e 25fb 63bf 3cdb b4bf f994 60bf
000003e0: 2281 1fbf 0583 853e 6337 b9be d1f5 a4be
000003f0: 890f 003f d341 d1bc a75e b63e d097 bfbd
0.43331796 0.3998144 0.03667792 -0.37552574 -0.00094780105 -0.6962134 -0.7828341 0.8945393
0.5699252 -0.34775946 -0.5126655 -0.25751317 -0.26918137 -0.07724498 -0.58642095 0.3495839
-0.17817059 0.38333365 0.6984449 -1.035507 0.09717012 0.59940076 0.52623147 -0.4522556
0.31314144 0.39810887 0.3103627 0.08807465 -0.14635785 0.09534167 0.21794209 -0.1283715
0.7942222 0.6178085 0.21545243 -0.142386 0.17697413 0.19466612 0.12352239 0.14579491
-0.63703084 -0.42259818 0.7230046 0.17961329 0.77161115 -0.22853951 0.06172464 -0.55594313
-0.13688649 0.43459293 1.0123037 0.38992 -0.59780097 -0.50848985 -0.08683477 0.5472292
0.28493768 -0.10563488 0.089118004 -0.07562992 -0.5398719 0.25134286 -0.23575272 -0.31216598
-0.7557688 0.8289633 0.45893782 0.8520412 -0.4415936 -0.53733814 -0.10454162 0.6039623
0.107109286 0.28508502 0.6408491 -0.2040238 0.27045745 -0.08795357 0.19403356 -0.28649405
0.20807286 0.15777692 -0.20486186 -0.68443274 -0.34843937 -0.68203396 -0.44016004 0.23884416
-0.5533459 0.16562285 -0.4395471 -0.22213672 -0.50181174 0.09804089 -0.12519452 -0.23859
0.87970716 -0.4148718 0.02755112 0.6881493 0.20008914 -0.6826242 -0.42607096 -0.5030142
-0.047419738 0.85058546 -0.5041913 0.045344997 0.5671165 -0.42770952 0.25161365 -0.41707638
0.26395026 0.02209721 0.2773631 -0.44763768 0.24624819 0.5361502 0.32782426 -0.9038382
-0.20714872 0.002309231 0.10798385 0.22710082 0.1639026 -0.10468455 -0.8800145 0.62548953
0.32470354 -0.002104652 0.25461626 -0.13343999 -0.31980708 -0.7047165 -0.23692046 -0.18518823
-0.9331169 0.43154147 -0.46489927 -0.19613308 0.17656152 -0.19180612 -0.30290413 0.0017591411
-0.6612041 0.3440208 -0.39830747 0.03573981 -0.7898169 0.33435446 1.1792715 -0.23576055
-0.6809894 0.06718329 0.8591334 0.21158877 0.19317721 0.61075747 0.22849385 0.42865548
-0.579649 -0.39548758 0.99188435 0.3687604 -0.1291471 -0.40873367 -0.67246556 -0.44456467
-0.5500633 0.013517681 -0.1311638 -0.21374653 -0.98090965 -0.002879829 0.36292958 -0.8859232
-0.66280943 1.0788723 -0.42668855 -0.2117184 -0.027160725 -0.53742486 -0.5118653 0.034765813
-0.52402455 -0.0023025225 0.31831205 0.10224546 -1.0368824 -0.18216293 -0.10505046 0.47920895
-0.06006576 0.44636503 0.18845473 0.47125658 0.28423572 -0.4895898 -0.8611551 0.84589064
0.035992157 -0.6964963 -0.05002585 -0.46040347 -0.5087161 0.26029697 0.02641684 -0.44586998
-0.12465371 -0.24770983 0.4287842 0.47573537 0.40132344 0.22069155 -0.1432979 -0.37694687
-0.23502617 0.4808407 0.6932205 -0.095638394 0.47284114 -0.40830258 0.46078455 0.4821796
0.26297218 0.50274324 -0.47268027 -0.4057909 -0.16506925 -0.7107431 -0.55835134 -0.03543893
1.0740851 0.40315592 -0.36043936 -0.24478431 -0.33011165 0.06904383 -0.14795288 -0.29858005
0.07611169 0.684301 -0.20709166 0.015783174 0.42598376 -0.8905509 -1.4129405 -0.87727314
-0.62306416 0.26076522 -0.3617507 -0.32218793 0.50023705 -0.025544083 0.3561909 -0.09355128

layers.1.bias f4 [16]
00000000: 866d 1e3e bcdf 253e eaa6 403b 77bf 77bc
00000010: f090 7dbe 9939 ae3b 6b75 02bf e715 12be
00000020: ffc0 863d 166b bcbc 2bd3 c2be e018 9b3e
00000030: 442b 97be 2598 6fbe 822f 8d3d 9c7a 08be
0.15471467 0.16198629 0.0029396364 -0.015121332 -0.2476232 0.005316925 -0.50960416 -0.14266168
0.0657978 -0.023000281 -0.38051733 0.30292416 -0.29525197 -0.23397882 0.06893827 -0.13328022

final.linears.0.weight f4 [84, 42]
00000000: b5cb e33d bb3e 4e3f 8903 9fbe 85be cfbe
00000010: ca50 36be 8c5a cfbf 0ee2 7dbf f4ab cb3e
00000020: a71c ff3e 75b5 363e b603 6bbe 0978 0dbf
00000030: c78d bbbd 4b77 4cbe 8b96 223e 87d4 30be
00000040: f3dc 593e a562 65be ebd1 adbd f6c6 af3d
00000050: a2b1 0b3e 4837 2b3d a15d 243e fb94 3a3e
00000060: 052f 98be 4af3 a73e b8a8 82bd fc51 893e
00000070: 3ab2 a13e 629c 68be f25a 19be 53a8 543e
00000080: 46f0 783b 24bf 91be f338 d93c 1196 39be
00000090: c4fe 1abd aab4 c3bd dbd5 07be 662c f7bd
000000a0: baa0 3cbe 22a7 4d3e 671d b53c a98b bdbe
000000b0: cda7 7bbf 360a 803f 9c86 383f 6dc2 b0be
000000c0: 75b0 163f ff63 9fbe 3f3f d0be f56b 2ebf
000000d0: 929e 2c3e f9be c8bb db98 0e3e 60e7 363f
000000e0: 24f7 683f 4f3b 16bd db11 81be 1012 f2be
000000f0: 6a87 3ebe 9458 73bc a4ce a83e 1087 2b3f
00000100: 7aff 5c3f 09fc e3bd 6f7d 8f3d 4b22 fabd
00000110: 5a03 0c3e ee53 54be d958 babd e151 8fbd
00000120: 85b4 db3e bf34 963d 0ce3 303e 4e15 0abe
00000130: 71e3 d23c baab eb3c 3ef8 89bd 9bfe 543d
00000140: fa4b 0c3e 3f82 d23d 3591 eabd 0ef1 c03d
00000150: 87d8 5ebf d2db 04bf 2f49 963e f884 fd3e
00000160: 98ae 713e adca 623f 34d6 c9be fb8d f8be
00000170: 663d 033f 691b 0c3f fcc6 43bd a617 90bd
00000180: dd9e 3b3e d0e5 98be 4956 afbd 8fac 51bd
00000190: 3c8c b23d 73a0 a7be 34fd 4ebe 1552 c4bd
000001a0: 3ac4 953d 7c42 23bc 350e e73d 019f 3c3c
000001b0: 61d7 5e3c b200 4fbd 6450 0c3d 42cd ff3d
000001c0: 3a61 753d 5f23 19bd 4e4a f53a bd31 ec3d
000001d0: 363e b13d 114f d43c 1e97 413b 7ed2 72bd
000001e0: 9b7e 0bbd 0ffc 3e3d 5da9 403b 289c 573d
000001f0: a58f a03c 9914 fa3d 1034 3bbf 5f73 0a3e
00000200: b99c 2fbe 564a b3be 247a 6fbe b095 623f
00000210: a2b8 013f 5017 f7be c002 cabf 3f48 09bf
00000220: 0bcb 81be 5cf8 893e b5c4 e3bd a419 b9be
00000230: 396e b53d 0d28 0b3d a4aa 753e 20d5 f3bc
00000240: 21dd d2be f63b ad3e e997 71bd 39a2 3e3e
00000250: ffcf a6bd 31c1 703e d4bb 583e 9448 033e
00000260: 9fb7 b6bd b4ff d5bc dff4 ccbe 3060 35be
00000270: fe2a f53d ed4d 8abe 62f0 663d 4ab4 3ebd
00000280: b6c7 c73d 3edf 1e3e 7e73 5cbd 8d1e 953d
00000290: 48ce 5abc b046 1c3e 80fb 0a3e bcb7 893e
000002a0: 63e9 813d ffdd 0f39 6b11 67c0 bf03 7b3f
000002b0: ea59 cd3f 6023 a53c 485f 8f3d 3533 8a3d
000002c0: 03e4 453e dba1 6a3e 9caf 82be b913 9fbd
000002d0: 6f74 b13d b8eb 433e 81c2 413e 7504 0f3c
000002e0: 17b8 a3bc 8ed9 09bc 176c be3c 653b 423e
000002f0: 6153 88be f1eb 653e b20b a0be ced6 1bbe
00000300: 3f70 85bc 2c02 a3be c5f3 8ebd 40a9 013e
00000310: 7653 ccbd 2d6b e03c c09b a23d d6c9 f0be
00000320: 7887 2a3e 22ca 903d 32f2 acbd ddbd 473e
00000330: 1d6a 63bc 95ac 253f fbf3 82be c58d 25be
00000340: c28e 0dbe 785a 3fbd d58f dd3e 7c87 22be
00000350: e8d6 19bf c947 2a3f 6a29 cfbe ab14 4ebf
00000360: ff22 0d3f c476 4f3f 1388 b1bc 5b4c 77be
00000370: ff19 763b 0b16 cebd ee02 bebd 22cf 9d3d
00000380: c2ee 093e 8c42 c0bd 25a8 093e 8271 fb3c
00000390: 7691 09be 6d81 7b3d f066 99bd dcde 31bd
000003a0: 6e2c 31bc 02d0 f93b 7af2 633e 2475 8abe
000003b0: 3b2a a13d c653 6b3d fb50 9bbc b3c6 0e3b
000003c0: e2f4 bfbd 709f d7bd 4a02 6abe b49e 633d
000003d0: 405d adbd a28c f63d a477 81bd 2e82 cc3e
000003e0: a5fd 213d 6fdf 903c d87d 743d 06ff cabb
000003f0: 5f18 aa3d d930 2abe 67c6 11c0 ab64 f03e
0.111228384 0.8056447 -0.31057385 -0.40575042 -0.17804256 -1.6199508 -0.9917306 0.39779627
0.49826548 0.17842658 -0.22950634 -0.55261284 -0.09157901 -0.19967382 0.1587774 -0.17268573
0.21275692 -0.22400911 -0.08487304 0.08582871 0.1364198 0.041800767 0.16051342 0.18220894
-0.29723373 0.32802802 -0.06379837 0.26820362 0.3158129 -0.22715905 -0.14976099 0.20767336
0.003798501 -0.2846614 0.026516413 -0.18123652 -0.03784062 -0.09555943 -0.13265173 -0.12069015
-0.18420687 0.20083287 0.022108747 -0.37020615 -0.9830292 1.0003116 0.720804 -0.34523335
0.58863 -0.31130978 -0.40673253 -0.6813348 0.16857365 -0.0061262813 0.13925497 0.714468
0.91002107 -0.036677655 -0.25208935 -0.47279406 -0.18606344 -0.014852662 0.32970154 0.67002964
0.86327326 -0.11132056 0.070063464 -0.12213572 0.13673154 -0.20735142 -0.090989776 -0.06998039
0.42911163 0.07334279 0.17274112 -0.1348469 0.025743218 0.028768409 -0.067368016 0.052000623
0.13700858 0.10278749 -0.11453477 0.094209775 -0.87049145 -0.5189792 0.2935271 0.4951551
0.23601758 0.8859051 -0.39421237 -0.48545823 0.5126556 0.54729325 -0.04779719 -0.070357606
0.1832232 -0.29862833 -0.085613795 -0.051189955 0.08718154 -0.327396 -0.20213777 -0.095859684
0.07312818 -0.009964582 0.11282007 0.011512519 0.013601155 -0.050537772 0.034256354 0.12490322
0.059907176 -0.037387248 0.0018714161 0.11532924 0.08654444 0.025916608 0.0029539536 -0.059282772
-0.034056287 0.0466271 0.0029397823 0.052639157 0.019599745 0.1221096 -0.73126316 0.13520573
-0.17149629 -0.3501765 -0.23386437 0.88509655 0.5067235 -0.48259974 -1.5782089 -0.53625864
-0.25350222 0.26947296 -0.11121503 -0.36152375 0.08858914 0.033973742 0.23990875 -0.029764712
-0.41184333 0.3383481 -0.058982763 0.1861657 -0.08145141 0.23511197 0.211654 0.12820655
-0.08921742 -0.026122905 -0.40030572 -0.17712474 0.11971091 -0.27012578 0.05638159 -0.046558656
0.09754889 0.15514848 -0.05382108 0.07281218 -0.013354845 0.1526134 0.13572502 0.2689799
0.06343343 0.00013720243 -3.610438 0.9805259 1.6043065 0.02015847 0.07000595 0.06748048
0.19325261 0.22913305 -0.25524604 -0.07767434 0.08664786 0.19132888 0.18921854 0.00872909
-0.019985242 -0.0084136855 0.0232449 0.1896797 -0.26626113 0.22453286 -0.31258923 -0.1521866
-0.016288875 -0.31837595 -0.06980089 0.1266222 -0.099768564 0.027394855 0.07939863 -0.4702899
0.1665324 0.07069804 -0.084446326 0.19506021 -0.01388028 0.64716464 -0.25576767 -0.16167362
-0.13823989 -0.046717137 0.43273798 -0.15871996 -0.60093546 0.66515785 -0.40461284 -0.80500287
0.55131525 0.81040597 -0.02167133 -0.24150221 0.0037552116 -0.10062798 -0.092779025 0.07705523
0.13469985 -0.09387693 0.13443048 0.030693773 -0.13434395 0.061402727 -0.07490337 -0.043425426
-0.0108138155 0.0076236734 0.22260466 -0.27042496 0.07869383 0.05745294 -0.018959513 0.0021785914
-0.093728796 -0.10528457 -0.22852436 0.055571273 -0.08465052 0.12038542 -0.06321648 0.3994307
0.039548535 0.017684666 0.059690326 -0.006194952 0.0830543 -0.16620196 -2.2777345 0.46951804

final.linears.0.bias f4 [84]
00000000: b6d9 753e c866 dd3c 1e81 ee3d c709 303e
00000010: cead 9fbd d198 d63d ca7a 26be cd5e 783d
00000020: b5a7 503e 6788 0a3d 8afd 963e 170f 123d
00000030: 40fe d2bd 095a 973e cecc 50bd 6e5e 463e
00000040: 626b 303e e314 b83d 9000 1b3e 6152 113e
00000050: 8208 82bd fc35 183e 6070 9c3d 8585 c93d
00000060: e9f8 28bc 4965 033e 44ab 5cbd 326f 383d
00000070: 1f2a db3e 56ab 823e 87b6 d83d a9ef 123e
00000080: d495 653e a08a b93d 3891 f73d 23c8 163e
00000090: a1fb c03d 8d52 583e 6390 d6bd 1f21 253e
000000a0: 41db 09be d673 923e 2c44 d9bd ab64 f93c
000000b0: e9cc 203e 090e af3d 1027 0f3e cbed 8b3e
000000c0: 8276 613e 2b34 413e f31f 3a3e 5d78 2b3e
000000d0: 90fc 93bd 7b64 82bd 1318 6f3d 127e c03c
000000e0: 1d5e 013e 5d6d 32bd 1989 383e 7287 783d
000000f0: 5b9b d13d b007 0fbd ab21 f33d 5563 fd3c
00000100: fd23 5a3e 26dc e03d f012 dcbb a1f9 863d
00000110: 9a79 00be 9c00 813e bacd 593e b423 153e
00000120: 721c c53d 1aab 253e b4b6 fdbc e306 e23d
00000130: 6dc6 ca3d 7d15 b63e 5be7 efbd 9147 b93d
00000140: 52b1 0c3c 6e15 493e f23d 2c3e a31c eebc
0.24008831 0.027026549 0.11645721 0.1719123 -0.077968225 0.10478366 -0.16257778 0.060637284
0.20376475 0.03382149 0.2949031 0.035658922 -0.103024006 0.2956088 -0.050976567 0.1937196
0.17228463 0.08988359 0.15136933 0.14191581 -0.06349279 0.14864343 0.07638621 0.0983992
-0.010313251 0.12831606 -0.05387427 0.04502792 0.42805573 0.25521344 0.10581689 0.14349236
0.22420436 0.09059644 0.12088245 0.14724784 0.094229944 0.2112524 -0.10476758 0.16125916
-0.13462545 0.28604 -0.10608706 0.03044351 0.15703167 0.08547599 0.13979745 0.2732986
0.22017863 0.18867557 0.1817625 0.16745134 -0.07225907 -0.063668214 0.05837257 0.023497615
0.12633558 -0.04356133 0.18021049 0.060676046 0.1023471 -0.03491944 0.11871656 0.030931154
0.21302791 0.1097949 -0.0067161247 0.06590582 -0.12546387 0.25195777 0.21269885 0.14564401
0.09624566 0.16178551 -0.030970909 0.1103647 0.09901128 0.3556327 -0.117140494 0.09046853
0.008587198 0.19637081 0.16820505 -0.02906639

final.linears.1.weight f4 [84, 84]
00000000: 33cf b7bd cfae 233e 6886 babe db14 0b3e
00000010: df66 2f3e 405a 133e 51b2 f6bd 7829 8bbc
00000020: 85aa 773d 6784 81bd f0e7 1cbe dd7a e5bd
00000030: 6085 8c3c ee7a cfbd fb6e c5bd 516a fabd
00000040: 1c97 e33c 4d44 b5bc 5c94 e4bd 657d 4fbd
00000050: 4621 16be 1a6c 48bd f536 6cbe 07d8 c5bb
00000060: fa75 19be 7325 d03d 767e 81be 7028 37be
00000070: 5c8e 06be 5b9e 9d3c ee9d 67be 9a3b 9f3d
00000080: 7c78 393c 48bb d73d 3dda 10be 34a2 b2bd
00000090: 5692 f53d 967d 43be 9aec aabc 5246 f5bd
000000a0: e8d5 9d3d 79ae 61bd a372 e83a 02fc 27bc
000000b0: c77f f8bd 0af3 49bc 1d81 b3bd 683c 213e
000000c0: c5a3 16bd c917 89be c415 2ebe 980f d7bd
000000d0: 2e77 e9bd 05a3 883d a4e5 70bd 2fb7 a53d
000000e0: fa32 d5bb 24fa 403c 3fd0 febc 41b8 6bbe
000000f0: 4dba 44be e91f 18be 6db1 483e 882f 313d
00000100: 929b 80be 3a8c b93c 2022 31bc c06d 17bd
00000110: 9bd2 bc3d 23bb 6d3d f5a1 3a3e 9445 463d
00000120: 4eea 963d 61fd 993d 22a2 16bf 1dc3 0cbe
00000130: 6a7b 9f3d 62f5 9ebd c414 cdbd 19ad 90bd
00000140: 0f62 b9bd f6ff bcbe dd4f 1cbe 13a2 20bc
00000150: 0fc1 65bd e359 b73d 4338 0bbe 66f6 c73d
00000160: f624 1d3e a4bb 60be a476 dbbd 2dc4 dbbd
00000170: 1702 01be a380 9cbd 907d 52bd 628d 15bd
00000180: eb44 51bd c3fe 5ebd 868e 0cbe bfef 8339
00000190: a5a0 d7bd 686d dbbd ff67 c2bd aeab 4f3e
000001a0: 9e0f 5abd 553d 81bd aaef 1e3d 5257 e6bd
000001b0: 0294 02bf 60e3 5abc eea8 10be 796f 0a3e
000001c0: 9814 a23c b0f3 0ebe bd78 05be 70b5 d5bd
000001d0: b284 f8bd ee0a cfba 612a 0dbe 8062 ebbc
000001e0: 6780 e5bd 17d9 f5bd 80a8 99bd 940a 4ebd
000001f0: bb6c 38bc 6170 eebd c410 a2bd 125b 05be
00000200: 85a7 91be 6d1e e1bd b741 dcbd 9892 863d
00000210: 420a 97bd 4a34 05be 8e04 88bc 72b7 9ebd
00000220: f737 cabd aa05 05be 6b18 13be dcc4 35bd
00000230: 6e63 d7bc a1ca 75bd 8419 72bd 18a2 303c
00000240: 00f2 b5bd 808f ee3b 2db1 ce3d 211b c9bd
00000250: 5bb8 be3c 7034 ebbd 7e14 53bd e298 11bd
00000260: ae24 bcbd d06a b5bd c2fd 4dbd 7422 1dbd
00000270: eab9 b9bd b858 efbd 9039 78be 9671 a1bd
00000280: 3eef 2fbd be6f efbc c742 eebd 7b95 613d
00000290: 0de1 66bd b52f 64be 5eb6 8cbd e9b0 4e3d
000002a0: 993e 98be fb14 333e f682 50be 4403 b6be
000002b0: 037a 553e db07 20be 60e0 20be 8818 ff3c
000002c0: 0f65 94be 2a90 81be 876e 4cbe 91bf 65be
000002d0: 1066 b8be 3011 04bd 6763 78be 38b4 b4be
000002e0: 1f38 90be 7ed3 d63d c930 bbbe 7314 4ebe
000002f0: 6254 dabe c0ae a0be 3b54 a8be 8cdd debd
00000300: 215e 01bf 6504 0dbf 7bb6 abbd 04b9 5dbe
00000310: e94f 14be 798d bbbe 7e6e 9fbe 0188 32be
00000320: 5468 e9be 1e8a 24bf c6e4 b9be c8b5 b8be
00000330: 8fad adbe 279f 66be 3429 a1bd 4912 a1be
00000340: 7557 183e 1724 e9be bc02 253e d2a5 d0bf
00000350: 784b c7be d0f3 82be a7a0 d4be 4ca9 86be
00000360: 8705 45be 1cfc 92be 2b91 aebd 5b24 2dbe
00000370: 5cd1 41be 93e7 07bf f62b bdbe 5596 24be
00000380: 627b 14bd 310a 39be f6c8 72be 8ce8 61bd
00000390: 3373 06bf 5c98 d0bd 8620 93be e39e 71be
000003a0: 2975 a6be 6a6a a3be b668 80be 0065 21be
000003b0: 887f 7cbe cd16 a4be 1e11 58be 9f66 a6be
000003c0: 3e7d 62be a42b bcbe 4797 6dbe 3731 8fbe
000003d0: 35ed 34be 77a0 fabe 131b 26be 9e16 d9be
000003e0: 2e3f 93be a99e cdbd e63e b1be ebca 1bbd
000003f0: 08d4 cd3d 1273 5e3d 807c 44be 241b f8bd
-0.08975067 0.15984653 -0.3643067 0.13582174 0.17129086 0.14389896 -0.1204573 -0.016987547
0.060465354 -0.06324082 -0.15322852 -0.11205075 0.017153442 -0.10130869 -0.096403085 -0.122273095
0.027782016 -0.022127295 -0.1116111 -0.050656695 -0.1466113 -0.04893122 -0.2306784 -0.0060377154
-0.1498641 0.10163393 -0.25291795 -0.1788652 -0.13140243 0.019240549 -0.22618839 0.0777504
0.01132023 0.10533768 -0.14145751 -0.08722344 0.11990802 -0.19090876 -0.020864774 -0.11976303
0.07706815 -0.05509803 0.001773436 -0.010252954 -0.121337466 -0.012326011 -0.08764861 0.157457
-0.036777277 -0.2677596 -0.1700049 -0.10501021 -0.11399685 0.066717185 -0.058812752 0.0809158
-0.006506321 0.011778388 -0.031105159 -0.23019506 -0.19211693 -0.14855923 0.19598933 0.04325822
-0.2511869 0.022649873 -0.010811359 -0.0369699 0.09219857 0.058039796 0.18225844 0.0484062
0.07368909 0.07519031 -0.58841145 -0.13746305 0.07787211 -0.07761647 -0.10013726 -0.07064266
-0.09051906 -0.36914033 -0.1526484 -0.0098042665 -0.05609232 0.089526914 -0.13595681 0.09763794
0.1534613 -0.21946579 -0.10715988 -0.10730777 -0.12598453 -0.07641723 -0.051389277 -0.036511786
-0.051091116 -0.05444218 -0.13726243 0.00025164892 -0.105286874 -0.10714227 -0.09492492 0.20280334
-0.05323755 -0.06310526 0.03880278 -0.11247124 -0.5100709 -0.0133598745 -0.14126942 0.13519086
0.01978521 -0.13960147 -0.13034339 -0.10434997 -0.121346846 -0.0015796104 -0.13785698 -0.028733492
-0.112061314 -0.12004297 -0.07502842 -0.050303057 -0.011256392 -0.11642528 -0.07913354 -0.13023022
-0.2844812 -0.109921314 -0.107547216 0.06570929 -0.073750034 -0.13008228 -0.016603734 -0.07749833
-0.09873956 -0.12990442 -0.14364783 -0.044377193 -0.026292529 -0.060007695 -0.059106365 0.010780834
-0.088840485 0.00728029 0.10092387 -0.098196276 0.023281267 -0.11484611 -0.051533215 -0.03554619
-0.091866836 -0.088582635 -0.05029083 -0.038362935 -0.090686634 -0.11686844 -0.24240708 -0.07882993
-0.04295277 -0.029228088 -0.116338305 0.055074196 -0.05636697 -0.22283824 -0.06870721 0.050461683
-0.29735258 0.17488472 -0.20362458 -0.35549366 0.20847325 -0.15627997 -0.15710592 0.031139627
-0.28983352 -0.253053 -0.19964038 -0.22436358 -0.36015368 -0.032242954 -0.24256669 -0.35293746
-0.28167817 0.10489558 -0.36560658 -0.20124988 -0.42642504 -0.31383324 -0.32876763 -0.108821005
-0.50534254 -0.5508483 -0.08384415 -0.21652609 -0.14483608 -0.36631373 -0.31138986 -0.17434694
-0.4558741 -0.6427325 -0.36307353 -0.36076188 -0.33921477 -0.2252165 -0.07869187 -0.31459263
0.14877112 -0.45535347 0.16114324 -1.6300604 -0.38924766 -0.2557664 -0.41528818 -0.26301038
-0.1924039 -0.2870797 -0.08523782 -0.169084 -0.1892752 -0.5308773 -0.36947602 -0.16072972
-0.03625048 -0.18070294 -0.23709473 -0.055153415 -0.5251953 -0.1018531 -0.2873575 -0.23595767
-0.3251126 -0.31917125 -0.25079888 -0.15761185 -0.24658024 -0.32048646 -0.2110028 -0.3250017
-0.22118089 -0.36752045 -0.23202239 -0.27967235 -0.17668612 -0.4895055 -0.16221265 -0.42400068
-0.2875914 -0.10040028 -0.346183 -0.038035315 0.100502074 0.05430896 -0.19188118 -0.12114552

final.linears.1.bias f4 [84]
00000000: 475b ed3d 63f1 15bd ba88 d8be 612d e03c
00000010: 795a babe 56e4 86be 8bc2 123e 4164 fb3d
00000020: cfcb 8ebe 2699 9dbc 786c b33d 5490 193e
00000030: 3d50 f23b 50e5 423e db29 b5bd 9f6f a33c
00000040: 0a26 a1bc a63f d6be 959c 1ebc 6905 1dbf
00000050: fa86 3a3d f548 dabc ff06 8fbd 3a4c ff3b
00000060: 80ee 8ebe 2061 cd3e 6bd9 a4bd c934 dabd
00000070: 7fb4 aebe 6ac4 9fbe f131 9bbe 6bc0 a93d
00000080: aaea 0a3e 12e2 95bd 795d 41be 688e 48bd
00000090: 1784 d53d 5519 75be dd25 64bd 2327 97bd
000000a0: 5300 fabc 13de e8be a583 9dbe 46d3 abbc
000000b0: 2976 49be eb29 f53d e60b c7bd 0503 52bc
000000c0: 760a 4b3d 15c9 dbbe 3f30 1ebe 68d2 073e
000000d0: 932f 18bf 8433 5dbe 8c22 c3bd 8b8e 833c
000000e0: b638 55bd c2bb 6ebe e4e7 6ebe c349 77bd
000000f0: 56c3 4fbe 5e77 1abd 2402 9cbd 0a17 39be
00000100: e1f4 9f3e c5b7 85bc f9e8 27be b2f8 dbbe
00000110: ce3e 9abe 7d06 09be 5c73 73be 0963 58be
00000120: 25b7 83be 9091 1dbe d11b 11be ecaa 93be
00000130: ce6e 97bc 7fca 8cbe c206 9cbe 7412 04bd
00000140: 35e4 09bd dc9e 39be 0db1 2e3d 57ee 55bc
0.115896754 -0.036607157 -0.42291814 0.027365388 -0.3639715 -0.26346081 0.14332025 0.12274981
-0.2788987 -0.019238066 0.08760923 0.14996463 0.007394819 0.19032788 -0.08845874 0.019950686
-0.019671459 -0.41845435 -0.009680887 -0.6133638 0.04553888 -0.026646117 -0.06983756 0.0077910693
-0.27916336 0.40113163 -0.08049282 -0.10654599 -0.34122083 -0.3120454 -0.3031154 0.08288654
0.1356608 -0.0731851 -0.18883313 -0.048963934 0.10425585 -0.23935445 -0.05570017 -0.073805116
-0.030517733 -0.4548193 -0.307645 -0.020974766 -0.19673981 0.11970886 -0.09719066 -0.012818103
0.049570523 -0.4292685 -0.15448092 0.13263857 -0.5944759 -0.21601683 -0.09528074 0.01605918
-0.052056037 -0.23313811 -0.23330647 -0.06037308 -0.20289358 -0.037711494 -0.07617596 -0.18075195
0.31241515 -0.01632298 -0.16397466 -0.42963177 -0.3012604 -0.13381381 -0.23774475 -0.21131529
-0.25725666 -0.15387559 -0.14170767 -0.2884134 -0.018485453 -0.27498242 -0.30473906 -0.03224416
-0.0336649 -0.18127006 0.042649318 -0.013057313

final.linears.2.weight f4 [10, 84]
00000000: 74cb 983d 04ff dbbc 19e1 a5be 4d77 b33d
00000010: 585b 5bbc 8388 a43d 52ab f4bd 2d22 023e
00000020: d475 e93e 9c1d 9a38 212e 0dbe a026 b23b
00000030: 280b 373e eddb 24bc ad9d a93b 49d2 653b
00000040: 2621 b63d 9db7 36bd a5b4 333e 86e1 10bc
00000050: c065 33be f844 30b8 c0ea 25bc 3e25 51bd
00000060: dff4 143f 628b 8ebb bae1 8c3d 83aa d13e
00000070: e851 18bc 92c4 72bd ce8c 83be 313c b5bd
00000080: f6d2 fcbc 38dd a7bb 6452 0f3e 5aea 093e
00000090: 1687 57bd 5365 55be d4d1 db3d 545e 1ebb
000000a0: 7b21 e5bd 1339 85be a6c5 05bf b8b4 44bd
000000b0: 8e42 f83b e3d5 a43d eeae 4e3b 30a8 0bbe
000000c0: 8537 cdbb d280 df3c 3bfc 5f3c 344c 15bc
000000d0: 0e2f 053a d02b ed3e ef6b 67bd 677e c83c
000000e0: f519 3b3c f995 45be 8d29 a93e 71b2 383e
000000f0: 5269 423c 957f b0bd 9e91 e3bb 9ccc 0ebe
00000100: aa11 073c 2173 46be 7c24 963b 45f3 633d
00000110: b97c 0a3c 9767 dbbc 66ca fabe 3b03 18bd
00000120: 19e1 09bf 19f2 08bb 3e68 5e3c fa64 ddbd
00000130: 1ba3 79bd 2df2 d33b 527a c83e 3575 62bd
00000140: 73b7 463d ce17 903d 3e6b 393e 72b9 cf39
00000150: d272 7abb 732b b33d aa09 fb3e 490b 873d
00000160: a4fa 063d 3a91 14be ebb1 413d 79b4 15be
00000170: 8143 e43e faa9 5fbb a86e 01be ed61 0cbc
00000180: 13e5 b93e 34d1 9f3d 67b6 8fbd 6b65 65bd
00000190: b56a 10be 76f6 103d e9bd 083d 4289 d73b
000001a0: 05d0 613c fe0e a1b8 232d dc39 8a96 8f3d
000001b0: 1e23 86be 3f6f 383c 9207 b43c 078b 58be
000001c0: 65c1 49bb 4013 833b bef6 de3e 3581 3d3e
000001d0: 521f 203e a671 12bd 8bbd 89bc 38c2 ff3d
000001e0: ec9a 6c3d 1be5 963e 35d5 00be c1c4 f6bb
000001f0: b018 ee3d 45b8 a5bd ff4d a2be 4e03 4b3c
00000200: e517 973d 2d3f 4a3e 76ee 073c ebd7 0ebe
00000210: cd16 ea3c fa7e ce3d 4974 e8ba a25b 30bc
00000220: bf20 193d 33b7 cf3e e460 15be d26a 9cbd
00000230: 1699 06bb 83e6 133f 55ae a0be 1a52 18be
00000240: e419 14bd b411 90bd 3f90 9f3d 6270 36be
00000250: f0d1 bdbb f738 1ebd 5cbe 483c cd11 c5bc
00000260: 16d8 c4b9 b570 ef3d 9ac0 bbbe 482f 86bb
00000270: b613 c3be 66ea 5fbe 02d7 fd3c 2055 55bd
00000280: 1b25 8fbd 49ae 42bc 7e5f efbe 2d9b 2dbe
00000290: f7a1 433d ba57 31be 32ef 83bb 728b b13b
000002a0: 2c12 1dbd 80d7 1c3d 5a4e ec3d 46e3 f2bb
000002b0: b9df b43d f36e 523e 65e9 5cbb a61b 92ba
000002c0: ba42 743e 465d 3c3d d714 d1bc f97c f73c
000002d0: 7945 c4be 27c5 fcbd 5876 1dbd 86af d9bd
000002e0: 529e 973c d351 f03e 0743 fa3c 3ac6 e53e
000002f0: 8328 7c3c 2c43 a03c 9f62 f5bd 201d 093d
00000300: 1663 f83d f5ae 27be 634b 573c 466a 06be
00000310: 447b a0be 25d7 2b3e b65a f7bc 3fec 043d
00000320: 849f dabc a6fb 223e 39f6 233a 0d0f 5b3d
00000330: 7b48 2fbf 6d23 343e 7e19 063d 9931 cabd
00000340: 4aa7 763c 6f32 5f3e 9076 803d 1c70 883d
00000350: 8450 4abd de09 00bd f618 c3bd 57ff a03c
00000360: b944 283e 1f8e d83e 249c 533f 0997 49bf
00000370: 7693 42be 5ea3 48be 3d61 2abf ee24 6bbd
00000380: 1748 e43e d510 33be 82f2 153e e7e2 66bd
00000390: 42a0 db3d 8a51 2a3c 8f9b c23d 9831 1f3e
000003a0: 2e83 32be 3d92 b1bc 4e0b 163f d743 323e
000003b0: 40d8 c73d 3cfc 2c3d ca92 273d edac 9ebe
000003c0: 3910 a5bd 48fd 05bf 5aff b5bd 1704 c93e
000003d0: 9f46 2abe c1a7 293d 9e5c 2f3d fb3c 1f3d
000003e0: e95d b5be 58cd 463d cbdd 08bc 2d2b 29be
000003f0: 8024 61bd e64b e5ba e7dc ac3e d157 abbc
0.074606806 -0.026855 -0.32398298 0.08762989 -0.013388477 0.0803385 -0.11946739 0.1270835
0.45597708 7.3488074e-05 -0.13787128 0.0054367334 0.1787535 -0.0100622 0.005176267 0.0035067967
0.08893041 -0.0446087 0.17549379 -0.0088428315 -0.17519283 -4.2025902e-05 -0.01012677 -0.051060908
0.58186144 -0.004350112 0.068789914 0.40950403 -0.009296872 -0.059269495 -0.25693363 -0.08849371
-0.030862313 -0.005122807 0.13996273 0.13468304 -0.052619062 -0.20839433 0.10733381 -0.002416511
-0.111880265 -0.26020107 -0.5225471 -0.04802391 0.0075762933 0.08048608 0.0031537372 -0.13638377
-0.006262722 0.027283106 0.013670976 -0.0091124065 0.0005080559 0.4632249 -0.056499418 0.024474336
0.011419763 -0.19295491 0.33039513 0.1803682 0.011865931 -0.08618084 -0.006944849 -0.1394524
0.008243958 -0.19379856 0.004581986 0.05565192 0.008452588 -0.026782794 -0.48982543 -0.037112456
-0.53859097 -0.0020896255 0.013574658 -0.108102754 -0.060946565 0.0064680786 0.39155823 -0.05528756
0.048514795 0.070357904 0.18107316 0.00039620284 -0.003821541 0.08748522 0.4903081 0.06593949
0.032953873 -0.14508525 0.047288816 -0.14619626 0.4458275 -0.0034128414 -0.12639868 -0.008568269
0.36307582 0.07803574 -0.07017212 -0.056004923 -0.14103206 0.035391293 0.033384237 0.0065776417
0.013782506 -7.679871e-05 0.000419953 0.07011135 -0.26198667 0.011256992 0.021976266 -0.21146785
-0.0030785438 0.0040000975 0.43547624 0.1850632 0.15636948 -0.035752915 -0.016814014 0.12488216
0.057764933 0.2947167 -0.12581332 -0.007530779 0.116258025 -0.08091787 -0.3170013 0.012390925
0.073776044 0.19750662 0.0082966 -0.13949554 0.028575325 0.100828126 -0.0017734851 -0.010764034
0.037384745 0.40569457 -0.14587742 -0.07637562 -0.0020538024 0.5777361 -0.31383005 -0.1487507
-0.036157504 -0.070346266 0.07791185 -0.17816308 -0.0057928488 -0.038628545 0.012252416 -0.02405634
-0.0003754503 0.11691419 -0.3667038 -0.004094992 -0.38100976 -0.2186676 0.030986313 -0.052083135
-0.06989499 -0.011882373 -0.46752542 -0.16953726 0.047761884 -0.17318621 -0.004026317 0.0054182345
-0.03834741 0.038291454 0.11538382 -0.007412347 0.08831734 0.20550136 -0.003370845 -0.0011147156
0.23853579 0.04598739 -0.025522633 0.030210959 -0.38334253 -0.12342291 -0.03844294 -0.106291816
0.01850811 0.46937427 0.03054954 0.44877797 0.015390518 0.01956328 -0.11981701 0.03347504
0.12128274 -0.16375335 0.013140532 -0.13126478 -0.31344044 0.1678129 -0.030194622 0.032451864
-0.026687391 0.15916309 0.00062546466 0.05348115 -0.6846997 0.17591639 0.032739155 -0.09872741
0.015054533 0.21796583 0.06272614 0.06662008 -0.049393192 -0.03125941 -0.09526245 0.019653006
0.16432466 0.4229593 0.82660127 -0.78746086 -0.19001564 -0.1959357 -0.66554624 -0.057408266
0.4458625 -0.1748689 0.1464329 -0.056368735 0.10723926 0.010395417 0.09502327 0.15546262
-0.17432854 -0.021676177 0.58611 0.17408691 0.09758043 0.042232737 0.040911473 -0.30991307
-0.08059735 -0.523396 -0.08886595 0.39260933 -0.16628502 0.04141975 0.042812936 0.038876515
-0.3542321 0.048535675 -0.008353661 -0.16520377 -0.05496645 -0.0017493933 0.33762285 -0.020915898

final.linears.2.bias f4 [10]
00000000: cd65 24bd ea11 97bb 66b1 8bbd c7c4 ecbc
00000010: 2c84 78be 3f14 99bc 744f bbbc 33ef 613b
00000020: a7b2 093d 0e46 5abd
-0.040136147 -0.00461029 -0.068209454 -0.028902424 -0.2426917 -0.018686412 -0.022865035 0.003447485
0.03361764 -0.053289466

layers.0.attn.0.gnn_q.weight f4 [10, 16]
00000000: 78b0 8e19 eb85 0307 8c28 9887 9e70 c09d
00000010: d3db 3221 9243 9809 b5de b107 a470 1e88
00000020: 8bca a487 10bd ff89 7319 018e c45f b587
00000030: b493 f822 5b05 0e98 573c 8f23 0823 5a8f
00000040: b929 449d 7f6b 1807 ea72 1e08 7ccc ad9e
00000050: b467 4a22 6e28 3588 de7c 0208 1122 9688
00000060: b6e0 f306 c290 218a fcf6 830d 5e44 c807
00000070: b71a 3c24 3a83 0318 453d b724 a2db b70e
00000080: c2c7 799c 63f5 2b07 d081 7087 e654 831f
00000090: 0520 faa3 040a e689 a8e6 1708 6bf0 3488
000000a0: 1164 ad87 c8bf 698a 4484 8d0d 247e 3286
000000b0: 364b 89a5 7391 2118 17f5 38a5 f12c c810
000000c0: 2a16 939a 06da dd87 c09c 6607 40f7 811d
000000d0: bd5a 82a1 fb1a 7189 1b41 ee07 5e0b 2d88
000000e0: 4400 e087 8443 0909 702b d50d 9c0e 2a88
000000f0: b729 76a3 dc9a 2d18 2af0 aca3 703e 418f
00000100: f7b6 2d1e 7ae7 5188 f40f 8e07 828f 941f
00000110: b4e8 04a3 c6a4 730a 3791 d888 4953 2507
00000120: 6541 2a88 773c 6a0b 3d66 028f 4eff 0008
00000130: c2de fda4 d614 a899 6689 94a5 0a7f 7090
00000140: 8c7c ac1c 9048 7787 4574 1508 f6fa 581e
00000150: 2a91 e8a1 b492 1f08 568e 1587 3972 c288
00000160: 6fe8 0607 1ead 0d08 a4d7 8c8c 6f7f 8307
00000170: 3e18 eea3 977f e097 ae07 52a4 d9c9 ad8f
00000180: a7a3 479b 18c3 5f88 1a7d 3907 98b8 c19d
00000190: 0b54 a1a1 43b3 c089 6824 0208 3fce 8b87
000001a0: a9f4 4a87 e96d 628a 15e5 1e8d ec76 f807
000001b0: f526 89a3 402a 2297 b430 4fa1 704e 5710
000001c0: ebe1 871c a7bb da06 0664 2107 835f c31d
000001d0: b084 b9a1 f340 7b09 488b fa87 36e2 d506
000001e0: 1812 8487 dc00 2d0a 4468 ef8d 334c cb87
000001f0: ef5f cfa2 c826 9798 3237 faa3 31df ff8f
00000200: 5b68 dd1d 9b78 4887 1955 3607 c569 431f
00000210: e1e1 dca2 8a53 3f09 9cc8 7a88 5a1e f306
00000220: 3470 2187 a48e a50a 9cfa b28e 4f5a e207
00000230: 5630 c9a4 1b58 5c99 7a4b 59a5 aa1b 0c10
00000240: 10fe 9e9d 57c6 3187 7dde 8108 0102 359f
00000250: 25df b822 0886 5288 2b14 4308 bbdc c288
00000260: f465 b787 8737 a08a 1dc0 290e a883 6808
00000270: f95b d224 9a41 ca18 8644 2925 630d 008f
1.4753731e-23 9.8947e-35 -2.289425e-34 -5.093842e-21 6.059968e-19 3.665621e-33 2.6762895e-34 -4.7678804e-34
-2.4795021e-34 -6.156681e-33 -1.5912731e-30 -2.729014e-34 6.737692e-18 -1.8355774e-24 1.5529646e-17 -1.07549766e-29
-2.5961954e-21 1.1466799e-34 4.7681476e-34 -1.840166e-20 2.7431005e-18 -5.451523e-34 3.9267233e-34 -9.035806e-34
9.1736624e-35 -7.779094e-33 8.132958e-31 3.0132838e-34 4.078863e-17 1.6997606e-24 7.9467394e-17 4.532448e-30
-8.264537e-22 1.2936723e-34 -1.8093742e-34 5.562111e-20 -2.7118615e-17 -5.5379905e-33 4.5711045e-34 -5.444939e-34
-2.608896e-34 -1.1254612e-32 8.721638e-31 -3.3570753e-35 -2.3816677e-16 2.0882195e-24 -1.6042496e-16 7.8955334e-29
-6.083358e-23 -3.3380527e-34 1.7349342e-34 3.4401666e-21 -8.833161e-19 -2.9022006e-33 3.5848525e-34 -5.2073656e-34
-3.370393e-34 1.652252e-33 1.3137596e-30 -5.1174687e-34 -1.334452e-17 2.243791e-24 -1.874999e-17 -9.52766e-30
9.19638e-21 -6.316575e-34 2.1375162e-34 6.291785e-20 -7.205011e-18 1.1731015e-32 -1.3034167e-33 1.2437696e-34
-5.1234385e-34 4.511225e-32 -6.429185e-30 3.881871e-34 -1.10098626e-16 -1.7379208e-23 -2.5767012e-16 -4.7429522e-29
1.14142e-21 -1.8603539e-34 4.497473e-34 1.1486842e-20 -1.5759356e-18 4.801977e-34 -1.1251343e-34 -1.1702804e-33
1.0149346e-34 4.2634142e-34 -2.17002e-31 1.9785588e-34 -2.5814279e-17 -1.4507869e-24 -4.5542996e-17 -1.7136866e-29
-1.6513773e-22 -6.7335953e-34 1.3954617e-34 -5.127754e-21 -1.093203e-18 -4.6390896e-33 3.9163247e-34 -2.1035616e-34
-1.526869e-34 -1.0902176e-32 -4.8963256e-31 3.7384789e-34 -1.4870069e-17 -5.239835e-25 -7.0198786e-19 4.24617e-29
8.991949e-22 8.2278216e-35 1.2141688e-34 5.1714827e-21 -1.257121e-18 3.0243565e-33 -3.7697681e-34 8.045408e-35
-1.9871787e-34 8.329809e-33 -1.4754613e-30 -3.058883e-34 -5.6209036e-18 -3.9071744e-24 -2.712843e-17 -2.5230912e-29
5.8606114e-21 -1.508177e-34 1.3717166e-34 4.1380347e-20 -5.987028e-18 2.3030069e-33 -7.5467454e-34 9.145104e-35
-1.2145267e-34 1.5942577e-32 -4.4121716e-30 3.405778e-34 -8.725174e-17 -1.1391526e-23 -1.8847322e-16 2.7631443e-29
-4.2084946e-21 -1.3374287e-34 7.816212e-34 -3.83299e-20 5.0109563e-18 -6.335213e-34 5.8704385e-34 -1.1727844e-33
-2.7594702e-34 -1.5428327e-32 2.0923357e-30 6.996972e-34 9.122879e-17 5.2282017e-24 1.468163e-16 -6.3134654e-30

layers.0.attn.0.gnn_q.bias f4 [16]
00000000: cbb3 009d 81c2 4f88 bab2 9187 d187 3724
00000010: cac6 e8aa f652 4d14 33ea a08e 4a4e 9b08
00000020: 8d55 6a88 c664 920a b928 8b0e 5acb 4488
00000030: 6af2 4aaa 324c 4818 c0d2 13a9 0fbb e29b
-1.703361e-21 -6.2520435e-34 -2.1922221e-34 3.979684e-17 -4.1349416e-13 1.0366216e-26 -3.966857e-30 9.347129e-34
-7.051738e-34 1.4097195e-32 3.430536e-30 -5.9220643e-34 -1.8025308e-13 2.5887863e-24 -3.2823353e-14 -3.7509447e-22

layers.0.attn.0.gnn_k.weight f4 [10, 16]
00000000: 3055 7a97 8604 8908 40e1 4a88 3cd3 ae1c
00000010: 6bfb 77a2 c818 008e d4ac f606 06b1 6288
00000020: d742 0f08 9490 c787 d68c 8006 6185 aa07
00000030: 68b8 6aa2 b126 9a12 8b23 4ca1 a712 8515
00000040: ebba 4b17 26af 7b08 5a62 b186 b599 991d
00000050: d1f3 29a4 3abe 810c d0ce 9488 bb87 c087
00000060: 855e 2887 4805 3b08 952b 3b08 4bf2 9288
00000070: 3658 95a3 46fb 1192 9a95 67a2 0b0e ba94
00000080: bd3b cd18 f2aa 3887 a116 3308 563f 219f
00000090: 0e99 fd24 551c d80d f250 9188 d7f4 2d08
000000a0: c8c5 6f07 200a bf86 445b 7889 ea8c cb07
000000b0: 4f02 a625 d64f 3c94 4833 9324 12b7 3794
000000c0: b709 7997 336f d287 e6f6 7807 72d3 169d
000000d0: 1cfe 1123 2806 c50d 6cf2 3688 ff74 1b07
000000e0: ae20 6b06 417c c207 90e4 9907 4ca1 8308
000000f0: 5bb7 ae22 e874 3411 7bd5 d421 2f1a 8d94
00000100: cbc8 0098 51f9 9307 6146 7307 422d 749e
00000110: b311 1125 cfbf f58e dea3 4709 8d87 1b08
00000120: 9bd5 ef86 1070 1d08 3689 4909 5371 9a87
00000130: 19d7 4a24 299a a513 c79f 3c23 f6f9 4c16
00000140: ca03 0e97 4824 6108 41bd 2f88 098b 699d
00000150: 94f1 c223 f2f5 0d8d cd59 7187 3640 8988
00000160: 847d 6687 3474 0f87 1f43 ec08 b774 1d08
00000170: f285 3c23 7e29 c512 1a55 1222 abdd 4314
00000180: 3555 cc17 0caf 0388 3b40 2187 d357 0a9c
00000190: 08df 3821 f571 c28d a2ed ac88 adf2 7088
000001a0: 2edf 4887 a80d 7307 1f84 4489 574c 1288
000001b0: 99e4 dd22 01f1 9993 8416 e720 1239 f693
000001c0: 12aa ec97 d3ce 5808 3101 d987 60f2 5c9b
000001d0: 68a4 8b23 181b f38d 5a51 7308 291d 8588
000001e0: a18f fb07 9041 5106 bbd4 a608 e556 4385
000001f0: cee9 0d22 a385 2113 f970 3c21 7d79 1f15
00000200: b232 bb17 505a 1e08 7a8e 7186 9821 1b9e
00000210: 4b7b c524 a9fa 848e cb5e ef08 9978 2e08
00000220: c760 cb07 34c3 1307 bfed 1c89 f527 5588
00000230: 2a9f 1e24 6dea 3993 985f ff22 bcd2 0b16
00000240: cbce 2f97 f815 e806 66cc 4508 105b 401e
00000250: 00a5 91a4 56ad d00c f27b 3a88 f000 c288
00000260: 8eae 3d07 2ebc 0508 7897 bb08 5fda 8388
00000270: 5e64 2aa4 b60c 9612 ea80 f6a2 ee19 9295
-8.088688e-25 8.246451e-34 -6.1051944e-34 1.1568957e-21 -3.3607842e-18 -1.578915e-30 9.2788863e-35 -6.821749e-34
4.3111067e-34 -3.0027167e-34 4.835519e-35 2.565715e-34 -3.1810537e-18 9.728305e-28 -6.916493e-19 5.37477e-26
6.582876e-25 7.573845e-34 -6.6724515e-35 4.0657692e-21 -3.6852554e-17 1.9990085e-31 -8.956047e-34 -2.8968724e-34
-1.2666692e-34 5.6279474e-34 5.6324496e-34 -8.844018e-34 -1.6191971e-17 -4.606365e-28 -3.1385536e-18 -1.878674e-26
5.305158e-24 -1.3892858e-34 5.3892453e-34 -3.4145466e-20 1.09980545e-16 1.3318848e-30 -8.7459e-34 5.23481e-34
1.8038484e-34 -7.186109e-35 -2.9894827e-33 3.0626867e-34 2.8797974e-16 -9.507319e-27 6.383796e-17 -9.275243e-27
-8.04685e-25 -3.1662645e-34 1.8730003e-34 -1.996165e-21 7.9142755e-18 1.2142544e-30 -5.50536e-34 1.1695286e-34
4.4222597e-35 2.9262906e-34 2.3155218e-34 7.922196e-34 4.735693e-18 1.4235521e-28 1.4422187e-18 -1.4247689e-26
-1.6644987e-24 2.2264637e-34 1.8301971e-34 -1.29266115e-20 1.2582742e-16 -6.0581868e-30 2.4030804e-33 4.6802955e-34
-9.0215673e-35 4.73772e-34 2.4259011e-33 -2.323795e-34 4.3983963e-17 4.180387e-27 1.0225335e-17 1.6557863e-25
-4.5887457e-25 6.7751123e-34 -5.2884614e-34 -3.0909173e-21 2.1135834e-17 -4.3745025e-31 -1.8157215e-34 -8.2604835e-34
-1.7340163e-34 -1.0792273e-34 1.4219513e-33 4.7382667e-34 1.02198644e-17 1.2442676e-27 1.9831742e-18 9.8887004e-27
1.32047e-24 -3.9627145e-34 -1.213117e-34 -4.577388e-22 6.2636804e-19 -1.1983607e-30 -1.0407741e-33 -7.2507637e-34
-1.5111914e-34 1.8285301e-34 -2.3654765e-33 -4.4025014e-34 6.0144207e-18 -3.886028e-27 3.9147822e-19 -6.2155406e-27
-1.5294074e-24 6.5243256e-34 -3.2651231e-34 -1.8276289e-22 1.5140039e-17 -1.4982554e-30 7.322078e-34 -8.011502e-34
3.78507e-34 3.93567e-35 1.0040774e-33 -9.184816e-36 1.9232838e-18 2.0386945e-27 6.3846396e-19 3.2205632e-26
1.2097389e-24 4.7652557e-34 -4.5431737e-35 -8.212579e-21 8.5644e-17 -3.278189e-30 1.4406575e-33 5.250298e-34
3.0600926e-34 1.1116416e-34 -1.8889605e-33 -6.4144325e-34 3.4395606e-17 -2.3465864e-27 6.9219102e-18 1.1294827e-25
-5.680656e-25 8.730098e-35 5.95228e-34 1.0183227e-20 -6.316325e-17 3.2151797e-31 -5.6118036e-34 -1.1676171e-33
1.4270077e-34 4.0244436e-34 1.1290263e-33 -7.9356145e-34 -3.6947888e-17 9.469464e-28 -6.6814927e-18 -5.900984e-26

layers.0.attn.0.gnn_k.bias f4 [16]
00000000: 07ba e9a3 8913 d807 7722 550b 5646 54a5
00000010: dc36 0229 9b14 6c8f 4071 300e ad50 be88
00000020: 1cf4 c706 cbb0 a990 ca30 8914 5f08 6085
00000030: 6594 012b 1187 461f b378 792b 3652 3295
-2.5340696e-17 3.251155e-34 4.1048236e-32 -1.84119e-16 2.891338e-14 -1.1639667e-29 2.1748203e-30 -1.1454176e-33
7.5214167e-35 -6.693114e-29 1.3852709e-26 -1.0533967e-35 4.6035945e-13 4.2039855e-20 8.8630074e-13 -3.6011667e-26

layers.0.attn.0.gnn_v.weight f4 [10, 16]
00000000: 15c5 0f3f 0010 223f d91f e23e 43fa 5f3d
00000010: 609e 813d e4f5 b13e 3c5e 54bf d1b0 84be
00000020: e119 a83c 604b 433f 0c14 05bf 1e19 3ebe
00000030: e2bd 41bf 7abf c7be 88f8 443f 91b2 873f
00000040: ffbf bd3e c1f0 94bf c6e5 4cbf e294 b33e
00000050: 1e9e eb3e e3bf 0bbf 9c14 03bf 82a9 64bf
00000060: f529 babd fc3c 17bf ea29 bd3e 92bf 473e
00000070: ea8d 643e d51b 0ebe 2ee5 023f d788 01bf
00000080: b286 8cbd c275 943d 4796 4f3d 208d 073e
00000090: 427d 06be b19f aebd 37ab cbbd 5b6f 963e
000000a0: a532 88be 0cd1 3bbe b6d3 febd ccc5 903c
000000b0: 6ebd 11be 5532 07be aa7e 85bd bc94 17be
000000c0: 56ca 113d 4a63 553d 1dd6 273e bc93 0abd
000000d0: 2cda 9dbd 1545 62bd adc9 733d e63f 0c3e
000000e0: 61d4 54be 5b32 9dbc 9df3 96bd 83ff 94bd
000000f0: b2c0 82bd 0aeb 2bbd ec72 21be 846b 9c3d
00000100: 606a ca3c cac8 603e 7076 febe f3b5 a9be
00000110: a671 7dbe 227b b13e 1541 6b3e b47e 0bbe
00000120: 8639 923d 1f38 f33d 57ac ff3d 0ec7 8c3e
00000130: a14e f93d a293 803e 1244 713d c0fb 713e
00000140: 89e3 35bf af6f ff3d 4b72 043f 1b37 c13e
00000150: 6902 0abe 8a0f 163f 93cb 763f 045b fbbd
00000160: 18c2 fe3d 2b6a 433d 8d9d 75be 26ff 69be
00000170: 2936 29bc e2f7 443f 30f9 b4be dbd4 a2be
00000180: ad81 74be 756f 503d 4bee fc3e 9fc6 b53e
00000190: b336 863c e6b1 163f 55b1 d13a dc63 d8be
000001a0: fa7b 863c fcc2 823e d9a4 f7be 227e 6dbe
000001b0: ba05 e1be bc16 f73e 1d50 1b3f 22d9 d33e
000001c0: f443 3fbd ce56 2a3f 88ce 37bd c6b9 21bf
000001d0: 6679 71be 2a32 3ebe 7048 dd3e 34c0 6a3f
000001e0: 51d1 033d 1a95 7dbd 289d c13e 39c3 1a3e
000001f0: a757 c23e e1f6 ebbe 64b7 6bbf 95e2 78be
00000200: ef34 bfbd 339f f1bd a632 ee3d c8a5 753d
00000210: 84d5 07be 90b5 3b3d a908 6b3e 93fb 0f3d
00000220: 972f 04be e4b3 64bd 4180 cfbd 4f99 86bd
00000230: 0fbb 89bd 7be3 193e 721c 68be e6b0 203d
00000240: 083d be3e 667a e63e cb78 50be b688 e5be
00000250: 1922 f7bd 9bed 82be 4eb9 a5be f8dc d13e
00000260: f8df c3bc 6285 2b3e 758e d23d efd6 1b3d
00000270: 04d9 0f3e 1a0e 06bf 7d65 78be 6bfc ab3e
0.561601 0.63305664 0.44164923 0.054682028 0.06329036 0.34757912 -0.8295629 -0.2591615
0.020520153 0.7628689 -0.51983714 -0.18564269 -0.75680363 -0.39013273 0.7694173 1.0601369
0.37060544 -1.1635972 -0.80038106 0.35074526 0.4601907 -0.5458967 -0.5120332 -0.8932115
-0.09090034 -0.5907743 0.3694604 0.19506672 0.22319761 -0.13877805 0.5113095 -0.50599426
-0.068616286 0.07249023 0.050680425 0.13237429 -0.1313372 -0.085265525 -0.09944766 0.29381832
-0.2660114 -0.18341464 -0.124427244 0.017672442 -0.14232418 -0.13202794 -0.065183 -0.14802831
0.035593353 0.052096643 0.16390271 -0.033832297 -0.077076286 -0.055241663 0.059518505 0.1369625
-0.20784141 -0.01918905 -0.07370684 -0.072752975 -0.0638441 -0.041972198 -0.15766495 0.076376945
0.024708927 0.21951595 -0.49699736 -0.3314663 -0.24750385 0.34664255 0.22974046 -0.13622552
0.07139878 0.118759386 0.12484043 0.27495617 0.121732004 0.25112635 0.058902808 0.23631191
-0.71050316 0.12472474 0.517369 0.37737355 -0.13477482 0.5861746 0.9640438 -0.12273219
0.12439364 0.04770867 -0.23985882 -0.22851238 -0.010327854 0.7694074 -0.35346365 -0.3180302
-0.23877592 0.050887544 0.49400553 0.35503098 0.016383504 0.588652 0.0015998284 -0.42263687
0.016416539 0.25539386 -0.48367956 -0.23192647 -0.43949682 0.48259532 0.6066912 0.41376597
-0.046695665 0.66538703 -0.044874698 -0.6317409 -0.23581466 -0.18573824 0.43219328 0.9169953
0.03218204 -0.061909772 0.37815213 0.15113534 0.37957498 -0.4608679 -0.92076707 -0.24305184
-0.09336268 -0.11797943 0.11630754 0.059972554 -0.13265043 0.04582745 0.22952522 0.03515203
-0.12908779 -0.05583562 -0.10131884 -0.0657221 -0.06725132 0.15028183 -0.22667101 0.039231203
0.37155938 0.45015258 -0.20358579 -0.44830865 -0.120670505 -0.25571904 -0.3236794 0.40988898
-0.023910508 0.167501 0.10281078 0.038046774 0.14047629 -0.5236527 -0.24257465 0.33591017

layers.0.attn.0.gnn_v.bias f4 [16]
00000000: 7fe9 693d c919 b1bd 1a5e 2d3b 40e7 80bd
00000010: 2d13 f73d 3266 b03b 4803 813c 6445 42be
00000020: 35a9 283e 1a95 cf3d 6958 b13d 9fb5 eebc
00000030: 7ba2 af3d b09c 393d a9d8 593d 10a3 943d
0.057107445 -0.08647496 0.0026453794 -0.062941074 0.12064204 0.0053832764 0.015748635 -0.18971783
0.16470797 0.10135861 0.08659441 -0.029139338 0.085759126 0.045315444 0.05318514 0.07257664
