checkpoints/bbb_martins_33_train1_neg/Aug21-21:28:16_600.pth (torch, 377407 bytes, 294 tensors)

layers.0.weight f4 [10, 16]
00000000: 0adb 3f3f 6149 7d3f 8569 cfbd 68d3 513f
00000010: 0298 c6bd 53ae a33e 8197 ddbc dda4 5b3f
00000020: 93f9 9a3f 0b3f 17bf 36a1 163e e3ac 71bd
00000030: 5f76 5abd 06ce 3a3f ccd7 cfbe 6a07 25bf
00000040: 9f6f 373f 05d3 34be 301b 2dbf 5f54 0b3f
00000050: 5fe5 13be 1b97 29bf 0805 b03d 0868 5e3f
00000060: b70d 8fbf d8a4 2fbe a1b2 51bf a6bf fbbd
00000070: e5c5 613e 673d e1bd 9a87 f03f f73c 36bf
00000080: 6fc0 243f 4f68 7ebe 96da 11bf 3b36 843e
00000090: 01db 123f 966f 293f 4148 cdbc 8bcf 00bf
000000a0: 4a9f f83e 977e debe 8c8f 2e3f d602 f53f
000000b0: 2450 213f 0b7c a2be c8f1 1d3f 77da 003f
000000c0: 19de fbbd d741 10bf bb01 69bf 8f61 0abe
000000d0: 1e0e a4bf 4a0f 273f c785 0c3f 8569 5f3e
000000e0: 2050 c33e cec3 2bbf 61bf 963f e335 edbe
000000f0: 937b 28be 4f37 b9be a1ff 8b3e 6ae2 abbd
00000100: 9632 103f ded1 c6be 8e29 7b3f c6f7 85bd
00000110: 7cc8 5e3e e24e 7f3e 88c7 a93f 2bc0 453e
00000120: 0117 123f 4789 13bf 7d66 34bf 9d2c 59bf
00000130: d3da 09be ded2 213d 8b72 983e 24e4 bc3f
00000140: 9432 6fbe f140 a8bf 5f51 633e b1a5 debe
00000150: f06d 253f 4d81 bf3e 897b 633f 987c 72bf
00000160: 018f 66bf 34c0 643e 19ec 943e 310a 56bd
00000170: b31d 5f3e ea8f 503f 1ad7 4ebf 6bcb 34bf
00000180: 167f 253f b645 5a3f cbff fbbe 35a7 87bf
00000190: a61f b2be 790f ab3e 9d5b 60be 1cba a2bf
000001a0: 59c4 c93d 8de7 a5be 56a0 38bf 0ac9 c6bc
000001b0: 99f0 3dbf cdab 65be bbb4 813f 6e9c cabe
000001c0: 6581 113f 47a5 9cbf 26be 21bf d502 b83d
000001d0: 77c1 173e f4ea c1bf 9782 0abf 705f 03bf
000001e0: 43f6 cc3e a956 dbbe e2b4 b8be 325a 48be
000001f0: aea6 9b3d 7d53 3fbf a8a8 5cbf 6f09 85be
00000200: ec82 483f 43dc 94be 33af 923f 5d79 983e
00000210: e4ab 4ebf db6e 803f 0ace 04bf dddf a5be
00000220: be4d 6abf 72d2 adbe 366e b5be dbc2 31be
00000230: 979c e93e 86eb 8abf abb1 e93d 2962 14bf
00000240: 66b4 7cbf 968e 433f 3ac4 0d3f 04fb 5c3f
00000250: ea38 233f 941f 90bf 9add 0b3f a5ed 6cbf
00000260: c3f6 85be 6507 1bbf 5c5a 973f d8e9 b8be
00000270: ea13 cf3d 93a0 d0bd 147d ba3e 2cb9 44bd
0.749436 0.9894009 -0.10127548 0.81963205 -0.09696962 0.31968936 -0.027049782 0.85798436
1.2107414 -0.5908057 0.14709935 -0.05900277 -0.053335544 0.72970617 -0.40594327 -0.6446444
0.71654695 -0.17658623 -0.6761961 0.54425615 -0.14442967 -0.66246194 0.0859471 0.8687749
-1.117606 -0.17152727 -0.8191319 -0.122924134 0.22048147 -0.1099804 1.8791382 -0.71186775
0.6435613 -0.24844478 -0.5697416 0.25822625 0.57365423 0.6618589 -0.025058867 -0.50316685
0.48559028 -0.43455955 0.68187785 1.914149 0.6301291 -0.31735262 0.61697054 0.5033335
-0.12298221 -0.56350464 -0.91018265 -0.13513778 -1.2816808 0.65257704 0.5489163 0.21817596
0.38147068 -0.6709565 1.1777154 -0.46330175 -0.1645339 -0.3617501 0.27343467 -0.083927944
0.5632719 -0.3883199 0.9811028 -0.065414 0.21756166 0.24932435 1.3264017 0.19311588
0.5706635 -0.57631344 -0.70468885 -0.848337 -0.13462381 0.03950774 0.2977489 1.4757123
-0.23359138 -1.3144819 0.2219901 -0.43485788 0.64620876 0.37403336 0.88860375 -0.94721365
-0.90061957 0.22338945 0.29086378 -0.052255813 0.21788673 0.81469595 -0.8079697 -0.7062289
0.6464704 0.8526262 -0.49218592 -1.0597903 -0.3478977 0.33410242 -0.21909948 -1.2713046
0.098519035 -0.32403222 -0.72119653 -0.024265785 -0.7419525 -0.22428818 1.013328 -0.3957247
0.56838065 -1.2237939 -0.6318077 0.08984915 0.14819895 -1.5149827 -0.54105514 -0.513175
0.40031633 -0.42839554 -0.36075503 -0.19565657 0.07600151 -0.7473677 -0.8619485 -0.2598376
0.7832477 -0.29074296 1.1459717 0.29780093 -0.80731034 1.003383 -0.5187689 -0.32397357
-0.91524875 -0.3394962 -0.35435647 -0.17359488 0.4562728 -1.0853126 0.114108406 -0.5796228
-0.98712766 0.76389444 0.5537754 0.8632052 0.6375872 -1.1259637 0.5463501 -0.92550117
-0.26164827 -0.6055816 1.182445 -0.3611591 0.1011122 -0.10186877 0.36423552 -0.048028156

layers.0.bias f4 [16]
00000000: aa8f a1be 51fe 3bbe 7b44 313d e999 d13e
00000010: a38e 463e f139 2f3e 0814 2a3b d7df 33bd
00000020: cf11 8c3e dcef 2c3f 7a9e 61be 7d16 adbe
00000030: 86b9 edbe a5e2 95be ff50 533d 3d49 0bbf
-0.3155492 -0.18358733 0.0432782 0.40937737 0.19390349 0.17111947 0.002595188 -0.043914642
0.27357337 0.67553496 -0.2203311 -0.3380622 -0.46430606 -0.2927448 0.051590916 -0.5440863

layers.1.weight f4 [16, 16]
00000000: 68bb f83e 9db5 c23e 01c2 923a e01e c4be
00000010: 9282 513c 0c63 2bbf 7872 4fbf 268c 763f
00000020: 4176 eb3e 2fc5 9ebe 918a fbbe fd60 8cbe
00000030: 28d4 6fbe 55af 2abe c805 16bf 423d 893e
00000040: 1caf acbe 8990 c43e 650a 353f d510 87bf
00000050: 89f0 ad3d e6da 0c3f 9775 0e3f dc39 debe
00000060: 2849 a23e a94c e93e 15c7 d53e 06c4 953d
00000070: 3b0f 24be a37c d33d db81 433e 9418 16be
00000080: 7aff 663f 4456 323f a53c 813e b9b1 4ebe
00000090: d448 2f3e 59dd 813e 5f56 023e fa8f 6b3e
000000a0: e7d7 2bbf 6b69 e3be 1ead 423f 6e38 333e
000000b0: 5160 533f 8e25 45be 22c7 d43d 8e65 21bf
000000c0: 4d43 31be b834 0a3f ee37 7d3f 04fc d63e
000000d0: e089 10bf 7eae fdbe 6e05 b2bd 8682 0f3f
000000e0: c5bd 973e b908 fcbd 4a6e 8b3d fb50 98bd
000000f0: c2bf 16bf 241c 7b3e 1c7c 72be 07c2 9dbe
00000100: 1c53 41bf ec7c 473f 6981 e13e 0aae 603f
00000110: 72af 02bf 3b12 0bbf dade 00be e4db 0e3f
00000120: 4ac2 563e 8970 b43e 014a 073f 99c9 3cbe
00000130: 4685 b23d 35c4 45be f4c4 153e bc7d b0be
00000140: 9fb1 6f3e bc8b 783d 262f 93be d80e 3abf
00000150: 82ba acbe e3ad 2dbf d11b e1be 98e0 5a3e
00000160: 80ee 0bbf 5b28 4d3e aa89 bebe 16bc 5ebe
00000170: ecb8 15bf e77b 2b3d 873e 00be c993 93be
00000180: 83c4 743f 7cd1 c1be 21b4 eabc 7f91 373f
00000190: df2e 6b3e b686 30bf 56b9 c7be 062f edbe
000001a0: 626c f93c d56e 603f 52c9 eebe 539c dd3b
000001b0: 8d12 143f c3d1 e6be 4258 943e 589f f9be
000001c0: 668a b73e 8b8d 2b3e 1f2f 9d3e d0ca a6be
000001d0: 297e 833e c5bf 0c3f c474 a13e 7e74 5fbf
000001e0: 26b0 4fbe 005c 99bd e8e6 ed3d 764b 483e
000001f0: 6ece 393e 6ebb 1cbe 1622 5abf e6a9 363f
00000200: 7135 b23e 2e9e 0a3c 8739 7d3e a9d3 0dbe
00000210: a37d bbbe e7cf 2ebf e037 51be c3e9 5abe
00000220: 3da7 6dbf 6bba ce3e 9bc2 10bf b04e 3abe
00000230: d636 3e3e 8f00 96be 4320 8bbe 17ae 3fbd
00000240: 2989 2dbf e372 c33e 602a e4be f08b 8d3d
00000250: 22e1 30bf 3a27 a33e 2582 953f 36c2 70be
00000260: 9f65 36bf e0f8 ab3d 3b37 623f da91 463e
00000270: acc0 3b3e b1a1 293f 0d01 513e 947a d33e
00000280: 1261 09bf 4628 bdbe 1edc 7e3f d834 de3e
00000290: 555f 22be 3279 bfbe bb66 33bf c7ed 01bf
000002a0: 6007 06bf a8ec 97bc bd11 c0bd d5d9 4dbe
000002b0: a08b 7fbf 073b c3bd 084e 993e 5fb8 5bbf
000002c0: d122 09bf 5563 743f d785 eebe 5381 5abe
000002d0: 6a14 b4bc f775 06bf 00ac 03bf 0770 10bd
000002e0: 1b47 16bf 0256 b4bb eabd c83e bde2 653d
000002f0: 833f 87bf e3f1 6fbd 691c b3bd 820f 0a3f
00000300: 2812 89bc 45dd f13e 85e0 1f3e cb51 033f
00000310: a876 973e c904 02bf 6405 57bf e8b3 5b3f
00000320: 52da cfbb f10a 2cbf 7341 33bd 7176 d3be
00000330: aeab 05bf 1df4 433e baa3 8a3c ec30 ddbe
00000340: d804 3cbe 7a94 8ebe 4149 c93e 2db0 073f
00000350: ea20 8b3e e236 2f3e ee79 24be 142c c0be
00000360: 0a10 47be a7ba 033f 26c3 473f 1fac e7bd
00000370: db9e 043f 8fe3 13bf cafa f73e 57a0 f93e
00000380: 166c 7e3e a4e3 143f 0127 06bf 54f0 c7be
00000390: b8da 48be b3d2 2ebf edb3 12bf fbed c9bd
000003a0: 33ec 863f 472f ca3e 1b9a a1be 115a 69be
000003b0: 64a1 c0be bf5c b93d 7be1 d4bd c808 a4be
000003c0: 725a 323d 360b 333f ada5 3abe c5a1 743d
000003d0: 1ff7 ce3e ca1a 56bf 6ab0 afbf cb5d 5ebf
000003e0: d419 1bbf bf5f 973e fadf c3be c450 a8be
000003f0: 2e90 073f 1b23 413d d1db bf3e ea5b e3bd
0.4858048 0.38029185 0.0011196734 -0.38304806 0.012787478 -0.6694801 -0.8103404 0.963076
0.45988658 -0.31009814 -0.49129155 -0.27417746 -0.23420775 -0.16668446 -0.5860257 0.26804549
-0.33727348 0.38391522 0.70718986 -1.0552012 0.08493144 0.5502151 0.5564818 -0.43403518
0.3169644 0.455663 0.4175345 0.07312779 -0.16021435 0.10326507 0.19092505 -0.14657813
0.90233576 0.6966288 0.2524158 -0.20184983 0.17117625 0.25364187 0.1272826 0.23004141
-0.67126316 -0.44416365 0.76045406 0.17501995 0.8256884 -0.19252607 0.10389544 -0.63045585
-0.1731083 0.5398669 0.98913467 0.41989148 -0.5646038 -0.4954719 -0.08692442 0.5605854
0.2963697 -0.12306351 0.06808145 -0.07437321 -0.5888635 0.24522454 -0.23680156 -0.30812094
-0.7551744 0.7792499 0.44044045 0.8776556 -0.5104896 -0.5432469 -0.12585011 0.55804276
0.20972553 0.35242108 0.52847296 -0.18436278 0.08716826 -0.19313128 0.14625913 -0.34470928
0.23407601 0.060680136 -0.2874691 -0.726789 -0.33736044 -0.67843455 -0.43966535 0.21374738
-0.546608 0.20034926 -0.37214404 -0.21751437 -0.58485293 0.04186621 -0.12523852 -0.2882369
0.95612353 -0.37855136 -0.028650345 0.71706384 0.22967099 -0.6895555 -0.39008588 -0.4632494
0.030447189 0.87669116 -0.4663797 0.00676302 0.57840806 -0.4508191 0.28973585 -0.48754382
0.35847777 0.16753213 0.30700013 -0.3257661 0.2568219 0.5498012 0.31534398 -0.8728713
-0.20282039 -0.07488251 0.116163075 0.19560036 0.18145153 -0.15305874 -0.8520826 0.71352994
0.34806398 0.008460565 0.24728976 -0.13850273 -0.3661929 -0.68285984 -0.20431471 -0.21378236
-0.9283331 0.403766 -0.56546944 -0.1819408 0.18575606 -0.292973 -0.2717305 -0.046796884
-0.67787415 0.3817359 -0.4456358 0.069114566 -0.69093525 0.31865865 1.1680342 -0.23511586
-0.7124881 0.083970785 0.88365525 0.19391575 0.18335217 0.66262347 0.20410557 0.41304457
-0.5366374 -0.3694479 0.9955462 0.43399692 -0.15856679 -0.37397152 -0.7007863 -0.50753444
-0.52355003 -0.018545464 -0.09378383 -0.20102628 -0.99822426 -0.09532743 0.29942346 -0.858282
-0.5356875 0.9546407 -0.46586487 -0.21338396 -0.02198239 -0.5252375 -0.51434326 -0.035263088
-0.5870225 -0.005503417 0.39207393 0.056124438 -1.0566257 -0.05858029 -0.08745653 0.53929913
-0.01673229 0.47239128 0.15612991 0.5129668 0.29582715 -0.5078855 -0.839926 0.8582139
-0.0063431645 -0.67204195 -0.04376359 -0.413013 -0.5221509 0.1913609 0.016923774 -0.43201387
-0.18361223 -0.27847654 0.393137 0.530032 0.2717355 0.1711078 -0.16062137 -0.3753363
-0.19439712 0.51456684 0.7803215 -0.11312126 0.51804894 -0.577691 0.48433524 0.48755142
0.24845919 0.5815985 -0.52403265 -0.39050543 -0.19614685 -0.6829025 -0.57305795 -0.09859844
1.0540832 0.39489195 -0.31562886 -0.22788264 -0.3762313 0.09050893 -0.103945695 -0.3203795
0.043543287 0.6993898 -0.18227263 0.059724588 0.40422913 -0.83634627 -1.3725712 -0.86861867
-0.60586286 0.29565236 -0.38256818 -0.3287412 0.52954376 0.04715262 0.37472394 -0.111015156

layers.1.bias f4 [16]
00000000: a513 2e3e 0ea5 0a3e 18f1 76bb dd65 5dbc
00000010: ee6e 5fbe 9d70 bf3c 3d05 a7be 9008 1abe
00000020: a824 ac3c 9edb 533c cf9a afbe 7470 6d3e
00000030: 7ca9 87be 169a 0cbe b308 133d 00f9 05be
0.16999681 0.13539526 -0.0037680324 -0.013513056 -0.2181966 0.023369128 -0.32621184 -0.15042329
0.021013573 0.012930779 -0.34297797 0.23187429 -0.26496494 -0.13730654 0.035896968 -0.13083267

final.linears.0.weight f4 [84, 42]
00000000: cb0a 883d 32fa 583f 6d77 aabe ae6e b6be
00000010: 5bd5 34be 5b73 cabf 89ab 6dbf c7b3 d53e
00000020: 3d55 133f f82b 203e 2070 6bbe 73a5 02bf
00000030: fd9c ffbd 61b1 40be 94a4 363e b207 2dbe
00000040: 4f0e 3f3e f61f 77be c2ce a1bd 19e2 d53d
00000050: 3b75 0e3e 708d 873d a114 163e cd92 393e
00000060: 81de 8fbe b9c6 ac3e 72ae 35bd 37b9 9f3e
00000070: 9c50 ad3e 0cc7 5bbe 57c4 24be 3d6c 373e
00000080: 46c0 d13c dd44 84be 23d6 013d 9cce 4cbe
00000090: 401f c6bc 7b90 cfbd e762 03be d3d0 b6bd
000000a0: 2560 3cbe c922 593e e569 a63c d352 c8be
000000b0: 5342 52bf 77cb 593f 16a7 3b3f 9b47 bbbe
000000c0: be32 083f 7550 b1be ab20 ddbe b85e 24bf
000000d0: cde2 3e3e b94c 913c c819 e63d 6420 2a3f
000000e0: df14 523f 8174 f0bc b4ab 30be 90b2 cdbe
000000f0: 3539 27be d02f 3ebd a577 913e 3ce1 183f
00000100: 9ead 4b3f cc8a b8bd 5143 883d 1179 d1bd
00000110: bfdf c13d 2fbc 51be 3ef2 e8bd acf1 51bd
00000120: 40df cd3e 5a1c e33d 0f77 443e 7de0 cbbd
00000130: 3c42 a13d 0aca eebb 9feb babc e7d6 753d
00000140: e544 2b3e 0547 ac3d ba68 96bd f0d1 c13d
00000150: ae67 50bf 7859 0bbf 5a19 693e 7e08 2f3f
00000160: c661 493e 2bc5 543f 3fab e8be 91cb f4be
00000170: 4857 083f 6b2c 173f 14b4 5ebd 7760 cdbd
00000180: ba15 303e 9d1e 9dbe d74e b9bd 2de1 10bd
00000190: 30cb eb3d 01df aabe a6a3 5bbe 9ee9 8fbd
000001a0: 8a69 673d aa8f 763c 912e de3d 10e4 133d
000001b0: 04f9 063d 3bc5 51bd f9c9 063d aba2 df3d
000001c0: 8b0d 3e3d f1eb 14bb 3d68 303c 2010 d13d
000001d0: 9f81 b33d 9676 6c3d 052f 783c 61e5 89bd
000001e0: 70f7 16bd 5988 4c3d 507a 993b dc81 b83d
000001f0: 96ed 583d 17f8 c43d 0250 49bf f3dd 493e
00000200: fef4 ddbd f8d0 ccbe b8db 84be 3507 5b3f
00000210: 33a7 103f 95bd 06bf c9f7 ccbf 8acc 03bf
00000220: 20df 83be 9869 923e 0e6f d0bd 66b6 b6be
00000230: fcb9 b13d b721 893c a6df 753e 68c7 6ebd
00000240: a9a7 bebe 6c41 b03e 9bc7 6abd 776f 383e
00000250: f5c2 b8bd e0ac 633e 67d9 403e 3eb9 ec3d
00000260: 04f9 debd a458 49bd a899 bbbe d38f 3abe
00000270: 9ee6 043e d79f 87be 4c63 aa3d 8a88 24bd
00000280: 8a75 a03d 29e0 613e 3010 34bd b4f3 ab3d
00000290: dc37 463c 097d 163e e2d3 203e 2a53 843e
000002a0: df2b 0b3d 2f75 063d 9ef4 47c0 0703 353f
000002b0: 995c c73f 3842 363d 31c1 9e3c 0f87 383e
000002c0: 951d 1e3e e818 6c3e 50f0 79be 753b 4fbd
000002d0: f8af 893d 2244 293e bdd6 1f3e c103 9abc
000002e0: 3938 28bd 07cb a83c 250c 38bd 1c6e fc3d
000002f0: 93a7 62be 547d 2c3e 29bc 75be 405f 09be
00000300: d476 76bd e37b 8fbe 461b ba3b 0d7e c53d
00000310: 0dcd c1bd f7c1 023d 7269 e2b8 657d ffbe
00000320: 8593 2f3e 9948 a6bc 1ab7 b4bd 9b37 453e
00000330: f6c4 71bd 77cb 203f e6d4 88be f7f3 bebd
00000340: 6c37 e1bd 227f 16bd 2e1e e03e 950a 49be
00000350: a469 08bf 76ab 283f 4044 d5be cb62 3dbf
00000360: b430 113f e780 513f c8f2 4fbd ee03 77be
00000370: bc63 92bc 0f05 d8bd a9f0 37bd 3094 bf3d
00000380: 2a2f fd3d 5d5d 07be 196a 223e f33d 6a3d
00000390: 4207 39be 0a0d 813d ea10 afbd 2ec2 06bd
000003a0: 3cdd 0dba 3706 a2bc 18f1 853e ed81 8dbe
000003b0: e214 ce3d 46b4 b63c 2dd5 44bc f1d4 9b3c
000003c0: 57c6 a2bd 1485 e3bd eb2e 82be 417f 5f3d
000003d0: 2c69 c6bd aaf9 c93d cd7e aebd dde3 cf3e
000003e0: 5eea f23b c1ce 903b 689a 133d b549 b639
000003f0: b1fa bb3d fb0b 94be 4c61 d1bf 5897 f93e
0.066426836 0.8475677 -0.3329424 -0.35631317 -0.17659514 -1.5816454 -0.92839867 0.41738722
0.5755194 0.15641773 -0.22991991 -0.51033705 -0.12481115 -0.18817665 0.17836219 -0.16897467
0.18657802 -0.24133286 -0.07900764 0.10443515 0.13911907 0.06618774 0.14656307 0.18122406
-0.28099445 0.33745363 -0.044355817 0.31195995 0.33850563 -0.21462649 -0.16090523 0.17912383
0.025604378 -0.2583379 0.031698357 -0.2000069 -0.024184823 -0.10134979 -0.12830697 -0.08926549
-0.18396051 0.21204676 0.020314166 -0.3912569 -0.8213245 0.8507609 0.7330183 -0.36578068
0.53202426 -0.34631696 -0.43188986 -0.6420703 0.18641205 0.01773678 0.11235386 0.66455674
0.82063097 -0.029352428 -0.17253 -0.40175295 -0.16330417 -0.046432316 0.28411594 0.5971868
0.79561794 -0.090108484 0.066534646 -0.1022817 0.09466504 -0.20481943 -0.11374329 -0.051255867
0.4020939 0.11089392 0.19186042 -0.09954927 0.07873961 -0.0072872685 -0.022817431 0.0600194
0.167255 0.084119834 -0.07344194 0.094638705 -0.814082 -0.54433393 0.22763577 0.68372333
0.19666204 0.83113354 -0.4544315 -0.4781156 0.5325818 0.5905215 -0.054370955 -0.10028165
0.17195788 -0.3068742 -0.09048241 -0.035370994 0.11513364 -0.33373263 -0.21449146 -0.07026981
0.056497134 0.015048901 0.108487256 0.03610617 0.032952324 -0.051213484 0.03290746 0.10919698
0.046399634 -0.002272364 0.01076704 0.10208154 0.08764958 0.05773028 0.015147929 -0.06733204
-0.03685707 0.04993472 0.0046837702 0.09009144 0.052960955 0.09617632 -0.7863771 0.19713573
-0.10837744 -0.4000318 -0.25948882 0.8555787 0.56505126 -0.5263303 -1.6013118 -0.51483977
-0.25756168 0.28596187 -0.10177432 -0.35686034 0.08678052 0.01673971 0.24011096 -0.058295637
-0.3723729 0.34424913 -0.057319265 0.1801127 -0.0902156 0.22233915 0.18832932 0.1155877
-0.1088734 -0.0491568 -0.36640668 -0.18218927 0.12978598 -0.26489136 0.083197206 -0.040169276
0.07834919 0.22058167 -0.04396075 0.08396092 0.012098279 0.14696135 0.15705827 0.258447
0.033977386 0.0328266 -3.1243052 0.70707744 1.5575134 0.044496745 0.01937923 0.18020271
0.15440972 0.23056376 -0.24408078 -0.050593812 0.067230165 0.16529897 0.1560926 -0.018800618
-0.041069243 0.020604623 -0.044933457 0.12325689 -0.22134237 0.16844684 -0.23997559 -0.13415241
-0.060171917 -0.28024206 0.005679521 0.09643183 -0.094629385 0.03192326 -0.000107961605 -0.49900356
0.17146118 -0.02029829 -0.08823986 0.19259493 -0.059025727 0.6281046 -0.2672493 -0.09323876
-0.10996899 -0.036742337 0.43773025 -0.19632943 -0.53286195 0.6588663 -0.41653633 -0.7397887
0.5671494 0.81837314 -0.050768644 -0.24122593 -0.017869823 -0.1054784 -0.044907246 0.093544364
0.123625115 -0.13219209 0.15860786 0.057187986 -0.18069175 0.06301315 -0.08548148 -0.032900028
-0.00054116896 -0.019778354 0.26160502 -0.27638188 0.10062577 0.022302758 -0.012013716 0.019022437
-0.079479866 -0.11109367 -0.2542642 0.05456472 -0.09688029 0.09862073 -0.08520279 0.40603533
0.0074131927 0.0044191782 0.036035925 0.0003476866 0.09178675 -0.2891539 -1.6357818 0.4874828

final.linears.0.bias f4 [84]
00000000: 0727 673e 2e6a 5f3d 368e f43d 1fa1 193e
00000010: 97bd aebd 3f53 d13d 9032 ecbd 39f5 5e3d
00000020: 2b18 4d3e 4202 053d 255b 8e3e b304 263d
00000030: d8e3 e7bd 5e5d 8c3e 302e 39bd 389a 323e
00000040: 5597 313e ac2e 8f3d 5bb9 193e c557 123e
00000050: 09eb a7bd 9171 1a3e 4a29 c73d 68a1 f63d
00000060: 4e7f c3bc 345d fe3d 46d5 2dbd a120 353d
00000070: 33d0 c93e 7a9a 6d3e 9946 c43d 8f8d 103e
00000080: 12a7 573e df5f ab3d 981a dc3d c20b 023e
00000090: 2ddd ad3d e608 383e 7cae cfbd a900 113e
000000a0: 70ad e9bd 6dbd 7f3e 84af e5bd 4e21 8e3b
000000b0: 5622 143e f2e0 ac3d 3883 0e3e 6420 683e
000000c0: df91 5e3e cc1e 213e 546c 383e 168a 2d3e
000000d0: 4c59 75bd c4d1 97bd 102e 023d c8a3 243d
000000e0: 9ba7 043e 70e3 54bd 5613 1d3e b4d9 6f3d
000000f0: 7df4 b43d 0f6f 1fbd d85a e03d 0954 843c
00000100: 6375 443e 391c be3d 399a f9bb 4696 793d
00000110: 181e eabd 3571 613e 32ef 5b3e bd97 0f3e
00000120: f80c cb3d 7de1 173e 683b cdbc 8acf df3d
00000130: a8db e03d 099b 983e cf96 dfbd 47b3 a43d
00000140: 0b4f 2abc 1a8a 2f3e 86f8 183e 67fc d939
0.22573482 0.05454462 0.11941187 0.15002869 -0.08532255 0.10220956 -0.115330815 0.05443308
0.2002875 0.032472856 0.27803913 0.040531825 -0.113227546 0.27414984 -0.045210063 0.17441642
0.17342885 0.06991324 0.15012114 0.14291294 -0.08199126 0.15082385 0.09724672 0.120425045
-0.023864415 0.12420121 -0.04243972 0.04422057 0.39416656 0.2320346 0.09583778 0.141165
0.21059826 0.08367895 0.1074726 0.12699798 0.084894516 0.17972144 -0.10140702 0.14160408
-0.11410034 0.24974604 -0.112151176 0.0043374663 0.14466223 0.084413424 0.13917243 0.22668606
0.21735333 0.15734404 0.18010074 0.16947207 -0.059899613 -0.074130565 0.03178221 0.040195256
0.12954561 -0.051974714 0.15339407 0.058557227 0.08835695 -0.038924273 0.10954827 0.016153352
0.19185404 0.09282727 -0.0076172617 0.060934328 -0.11431521 0.22015841 0.21477965 0.14022727
0.09914583 0.1483211 -0.025052741 0.10928257 0.10979396 0.29805782 -0.10917436 0.08042007
-0.010394822 0.17142525 0.14938554 0.0004157752

final.linears.1.weight f4 [84, 84]
00000000: f2c5 09be e2d1 063e ed5d b2be 999e 0c3e
00000010: ace9 423e 08ab 013e 1e99 15be 5625 05bd
00000020: f103 283d 6793 10bd 2464 16be 3f86 02be
00000030: 22f8 683d e3e9 f0bd a53f ccbd 4fbd f2bd
00000040: d68f a33d 1f4d e2bb 5345 bcbd bb3e 27bd
00000050: 8901 40be d174 b0bc 5a2d 82be 652a 973c
00000060: bb3f 35be 740c cf3d ad9a a6be 9fc3 18be
00000070: 9565 e2bd b76b 02bc 363c 30be 36b9 813d
00000080: 78ef 3a3d e856 c93d 4875 fabd 1821 99bd
00000090: 2a36 6b3d 9727 80be d6e5 b23c 0f00 20be
000000a0: 1376 3b3b b033 e2bc bd82 0dbd 583f f7bc
000000b0: e8c8 0dbe 2def f73b d6c6 d3bd 6ed4 413e
000000c0: 17a5 31bd 8fdd 98be 5955 35be 1aeb d7bd
000000d0: 0a2a f8bd 6880 673d 5d5e a4bd 15bc 993d
000000e0: 10ef 98bd eaa6 56bd c562 1abd fdc6 7ebe
000000f0: 5178 49be d9e0 0bbe fd26 6a3e 6bcf 0b3e
00000100: 875e 91be 73e7 e639 1ac2 99bc ce56 f63c
00000110: 688b df3d 1f6e aa3d dc1b 403e cf3d 6b3d
00000120: 2d51 923d e785 b63d bb71 24bf 9cb2 19be
00000130: bc28 163d 03fd d9bd 31f1 34be ffc6 e3bd
00000140: 8443 c8bd 5fc8 d6be 8965 31be d0e3 26b8
00000150: 13c6 71bd 0930 8b3d 3101 09be b12b b13d
00000160: 9a0c 1c3e 28df 3abe e342 8ebd 4a73 11be
00000170: 7b94 19be 4ad9 a6bd 5ba5 8cbd bc77 47bd
00000180: 8bb3 60bd 4ec7 17be 2219 f2bd a08a 303d
00000190: 063e 02be 3fe7 f2bd 4440 e7bd 86ae 453e
000001a0: 26f1 00bd 317a 8abd 778e 06ba db70 8dbd
000001b0: 9698 d7be 4516 84bc f2be 2bbe 8040 953d
000001c0: 9a33 2d3d b669 4abe 17bd 26be 0855 54bd
000001d0: 716e d1bd 86a6 5a3c be72 fcbd 6f14 aebc
000001e0: 9f1c 0fbe ab68 e6bd 6b01 b8bc 10f4 c1bd
000001f0: fa32 18be 0b39 38be c088 84bd 88df 3bbe
00000200: 1797 77be 5457 dcbd dfcf 07be 235a cc3d
00000210: e4a1 b2bc 8aef e3bd 8743 3fbd 6837 efbd
00000220: dd3a e9bd 78a8 eabd 510b 27be c103 92bd
00000230: 86b5 babc ea46 c7bd 2a9a 4dbd 9a59 39bd
00000240: 1cb2 f9bd 52bb 303c cb2c ad3d cd48 92bd
00000250: a1ba 4c3d d444 2ebd 153e 253c 11e9 e23c
00000260: b9df b1bc f203 bcbc e2a2 9cbd 17f2 b7bc
00000270: 7812 23be b5ff 08be e526 59be cf25 87bd
00000280: ffb7 95bd efde 32bd 0646 c4bd 88c8 b13d
00000290: 10de ddbb d92c 4cbe 0a48 37bd 30cd 053d
000002a0: 5873 a7be 45e5 3a3e f322 88be 9016 bebe
000002b0: c1ed fa3c bc86 2cbe 3121 3cbe 1dec 77be
000002c0: 75e5 a5be 9580 74be f37a 47be 044d 45be
000002d0: 413a aebe cab1 debd 9f15 4bbe 5457 b1be
000002e0: b424 c2be 7a6d 023e f4e0 bbbe 3a8f 4abe
000002f0: 7c22 cabe db46 b4be 6107 82be a41f 66be
00000300: 22bc 07bf 4eb6 13bf 6e17 5dbd 7575 56be
00000310: dd74 16be 1526 acbe c4c9 9ebe 1205 2cbe
00000320: 83bb dabe 5185 3cbf 81f7 b5be 5f3d c6be
00000330: 29f0 9bbe 30b9 3abe 201c 16be 4ca4 b4be
00000340: 40ca b43d bc8c d5be 3d3f a53c 1668 c6bf
00000350: ff5d c4be 437e acbe 776e e4be d38e 64be
00000360: 38ac 8fbe be30 8abe bb99 e7bd b612 44be
00000370: 8f72 2abe 07f9 fdbe 1739 98be 8484 33be
00000380: ea76 bcbd 49a1 20be 652c 97be 941f 68bd
00000390: f431 10bf d676 45be b6a1 7cbe 86e4 61be
000003a0: b7b6 80be 45be 99be c07e 93be 51ab 3cbe
000003b0: b16a 82be e1be a7be fd7c 83be 0ec6 8fbe
000003c0: 4b42 7cbe 4982 c7be 25be 3dbe c3e9 abbe
000003d0: dabb 76be e130 ebbe 93b0 4cbe c0ac cdbe
000003e0: 6d65 95be 6a0f 58bd 5a88 bbbe 639e 64be
000003f0: 8fe7 d63d a8ce 613d 3653 5fbe 4596 1ebe
-0.13454416 0.13166001 -0.34837285 0.13732375 0.19034451 0.126629 -0.14609191 -0.03250631
0.041019384 -0.035296824 -0.14686638 -0.12746523 0.056877263 -0.1176336 -0.09973077 -0.11852514
0.07986419 -0.006906166 -0.0919291 -0.04083131 -0.18750586 -0.021540077 -0.25425225 0.018452832
-0.17700092 0.10109797 -0.32539883 -0.14918374 -0.110545315 -0.0079602515 -0.17210469 0.06334154
0.04563853 0.09831029 -0.12229401 -0.07477015 0.0574247 -0.25030205 0.02183811 -0.15625022
0.0028604313 -0.027612537 -0.03454851 -0.030181572 -0.13846171 0.007566354 -0.10340659 0.18928692
-0.043370333 -0.29856536 -0.17708339 -0.10542889 -0.12117393 0.056518942 -0.08025811 0.07506577
-0.074674726 -0.052405275 -0.03769185 -0.24880596 -0.19674803 -0.13659991 0.22866435 0.13653342
-0.2839243 0.00044041462 -0.018769313 0.030070689 0.109152615 0.08321785 0.18760628 0.057431992
0.07144389 0.089122586 -0.6423604 -0.1500954 0.03665994 -0.10643961 -0.17670132 -0.1112194
-0.097785026 -0.41949746 -0.17323889 -3.978965e-05 -0.05902679 0.06796271 -0.1337936 0.086509116
0.15239182 -0.1824919 -0.069463514 -0.14204136 -0.14998047 -0.08146913 -0.068674766 -0.048698172
-0.054858726 -0.14822122 -0.118212 0.043100953 -0.12718973 -0.11860513 -0.112915546 0.19304857
-0.031479977 -0.067615874 -0.0005132923 -0.06906291 -0.421086 -0.0161239 -0.16772059 0.07287693
0.04228554 -0.19766888 -0.1628307 -0.051838905 -0.10226143 0.013345366 -0.12326573 -0.021249978
-0.13975762 -0.112504326 -0.022461614 -0.09470379 -0.14863196 -0.1799051 -0.064713955 -0.18346989
-0.2417873 -0.10758844 -0.1326289 0.0997813 -0.021805711 -0.11129673 -0.04669526 -0.1168049
-0.113881804 -0.11457914 -0.1631291 -0.07129622 -0.022791635 -0.09730323 -0.05019585 -0.045251466
-0.12192175 0.010786848 0.08455809 -0.07142792 0.04998267 -0.04254611 0.010085602 0.027699025
-0.021713125 -0.0229511 -0.07648255 -0.022454305 -0.15925014 -0.13378794 -0.21206243 -0.06599008
-0.07310485 -0.043669637 -0.095836684 0.086808264 -0.0067708567 -0.19938983 -0.044746436 0.032666385
-0.32705188 0.18251522 -0.26589164 -0.3712659 0.030630948 -0.16848272 -0.18372037 -0.24211164
-0.32401624 -0.23877175 -0.19480495 -0.1926766 -0.3402882 -0.10873754 -0.19832467 -0.3463694
-0.37918627 0.12737074 -0.36695063 -0.19781199 -0.39479434 -0.35210308 -0.25396255 -0.22473007
-0.5302144 -0.5770005 -0.053977422 -0.20943244 -0.14693017 -0.33622804 -0.3101331 -0.16798809
-0.42721185 -0.73640925 -0.35540393 -0.38718697 -0.30456665 -0.18234706 -0.14659166 -0.352816
0.088276386 -0.41708934 0.020171756 -1.5500515 -0.38352963 -0.3369008 -0.44615528 -0.22320108
-0.2806108 -0.26990312 -0.11308619 -0.19147763 -0.16645263 -0.49604055 -0.29731056 -0.1753102
-0.092023686 -0.15686525 -0.29526058 -0.05667074 -0.5632622 -0.19283614 -0.24671063 -0.22059831
-0.251394 -0.30027977 -0.2880764 -0.18424727 -0.25472024 -0.32762817 -0.25681296 -0.2808079
-0.24634664 -0.38966587 -0.18529566 -0.33576784 -0.24095097 -0.4593573 -0.19989233 -0.4017086
-0.29178944 -0.052749075 -0.36627465 -0.22326045 0.10493385 0.055128723 -0.21809086 -0.15487011

final.linears.1.bias f4 [84]
00000000: 9615 d83d f001 13bd 6c92 c2be 67cd 073d
00000010: afcb a0be 5dd3 6dbe b2b7 e03d 2c11 183e
00000020: c306 88be cb13 43bc 50b2 d03d e872 013e
00000030: 5a0a e23c 92df 283e aa71 80bd 8961 48bc
00000040: 1b29 9d3c 9703 cebe ada6 ea39 f65e 19bf
00000050: 3e7c 403d 9c4c 09bd ce28 92bd 142a a63c
00000060: 65e6 85be 3e8f 953e ffd8 83bd 80eb aebd
00000070: 0c8a 8cbe 105d 8dbe 6b7b 88be 857a bc3d
00000080: b622 123e 6479 a1bd c481 30be 58d5 47bd
00000090: 442b 123d 5edd 4ebe 0449 28bd 4733 88bd
000000a0: 873c 3cbd 1118 dbbe af4d 9abe 3c15 78bc
000000b0: aacf 42be 7743 023e 3615 dbbd 81a5 43bb
000000c0: 416b 213d 1ff5 d0be 8b2d 08be 1367 153e
000000d0: 8934 12bf 3e5f 3dbe 8caf 88bd 61ed 683c
000000e0: af1d 6bbd affe 2dbe 6b64 48be 087e 52bd
000000f0: a3fa 5ebe 8ae1 acbc 5325 a7bd 5a61 32be
00000100: 930b 973e fed7 7ebb 0946 2cbe 0fe3 cabe
00000110: dbcf 6fbe d9bb d4bd d9a9 4dbe f6ad 2fbe
00000120: 1544 63be 1af7 d3bd 769d 20be d36d 91be
00000130: 94f4 55bd 8314 4fbe a9c2 8abe 6944 bd3b
00000140: d6d3 24bd 372b 05be dbdf 803d 38d0 8ebd
0.10550992 -0.03589052 -0.38002336 0.03315487 -0.31405398 -0.2322516 0.10972537 0.148503
-0.2656766 -0.0119065745 0.101902604 0.1264149 0.027592827 0.16491535 -0.0627168 -0.012230285
0.01918464 -0.40237114 0.0004475614 -0.59910524 0.046993487 -0.033520326 -0.07136689 0.020283736
-0.2615234 0.29210848 -0.06437873 -0.08541012 -0.2744907 -0.27610064 -0.2665666 0.09203056
0.14271054 -0.078844815 -0.17237002 -0.048787445 0.035685793 -0.20201632 -0.041085258 -0.066504054
-0.04595616 -0.427918 -0.30137393 -0.015141781 -0.1902453 0.12721048 -0.10697405 -0.0029853287
0.039408926 -0.40812013 -0.13298623 0.14590101 -0.5711141 -0.18493363 -0.06674108 0.014216752
-0.057401355 -0.16991685 -0.19569556 -0.051389724 -0.21775298 -0.02110364 -0.08161416 -0.17419949
0.29501018 -0.0038886066 -0.16823591 -0.39626357 -0.23419134 -0.103873916 -0.20084323 -0.17156205
-0.2219394 -0.10349865 -0.15685067 -0.28404102 -0.0522352 -0.20222668 -0.2710164 0.0057759774
-0.040241085 -0.13004766 0.06292697 -0.06973308

final.linears.2.weight f4 [10, 84]
00000000: f6a3 2f3d 3b13 e2bc 1f95 9bbe 5dea bf3d
00000010: 1328 31bc f17f 6e3d eefb 14be 7b90 033e
00000020: 3448 d43e 2378 11bc 9e0b 0dbe fba6 d6b9
00000030: 1460 3a3e 7d79 da3b b714 fb3b 222f 303c
00000040: dcf0 b43d 2fd1 4abd bd7f 273e 20d8 33bc
00000050: f539 2bbe 836e b3b8 f872 0539 1c45 42bc
00000060: 969a 083f 0718 9cbb 372d 863d 5f03 b83e
00000070: 593f 07bc b74c a8bd ecef 5fbe cd46 a9bd
00000080: 58c5 0fbd d8a6 d83b 4609 033e 9910 063e
00000090: 451f 8bbd 9d4f 38be 1b2e a93d 121a 87bb
000000a0: 274b d1bd ed4a 84be 28ba febe f56f c3bc
000000b0: 5623 923c b4df 923d d65e db3b f624 e7bd
000000c0: 4051 94bb 2435 ab3c d026 c03a 4dc5 1ebc
000000d0: acad 26ba aef0 e63e f7ae 02bd b418 193d
000000e0: ae8a 653c b68d 4bbe 43c1 8f3e 9c24 343e
000000f0: 4c77 713c d844 c4bd a10d ecba a40b c9bd
00000100: 695f ac3b 930d 43be c2e1 363c d368 ae3d
00000110: 178c 5e3c c9fa 9cbc bf19 d3be 73af 7cbd
00000120: caa9 eabe cd3b 09bd 892a 6a3c 9feb aabd
00000130: aaa3 65bd 5bdf c53a ce4f b73e 6f40 03bd
00000140: ea43 553d 190a 733d 8db0 2a3e 75e4 86bc
00000150: 98c5 b1bc 6b47 8d3d 73d3 df3e 6ba5 793d
00000160: 18e6 9d3c 0f77 1dbe 7733 6d3d d3e8 10be
00000170: 3beb cf3e 8e62 d3bb 46e9 f7bd 9f67 24bc
00000180: 6daf a23e 9fed 263d 8568 84bd a98f 1bbd
00000190: 925e 07be d01a 673b 9306 003d 7a03 073b
000001a0: c7c1 693b 9d0e 273b 6e89 8c3b 5afb 963d
000001b0: a623 82be de70 403c 5ed2 803c a212 55be
000001c0: aacd 313b d6df 52bc d34e cd3e 8a12 4b3e
000001d0: d41d 193e 1484 2bbd 6d49 d8bb e52e e93d
000001e0: 5a92 db3d 43ca 783e 4c43 fabd 621f 693c
000001f0: 2a9f d83d 01b4 8fbd 194e 9dbe 9d0f e83c
00000200: 26b1 763d 65d9 363e 3e5f 523b a6ff f8bd
00000210: 4188 183d 0ecb f23d ac16 0b3d 33a0 07bc
00000220: 9ea6 8d3d c04e c43e 946e 13be ac4f 63bd
00000230: 69a4 2eba 6f5c 043f 1038 8dbe 71e7 fdbd
00000240: 4447 07bd 01fd 8dbd ef5e b13d b95b ffbd
00000250: 4864 abba fc8f 22bd b402 5e3b 60d6 1ebd
00000260: f70a 8e3b 3a31 dd3d e416 b1be 85bd e9bc
00000270: 3981 aebe 0dc5 39be 0af6 c23c a33a 73bd
00000280: e50b 94bd 7ee1 2fbc f4f6 dbbe 1338 1fbe
00000290: ce33 403d 6d3a 15be 57c1 fe3b 1ba9 53bc
000002a0: 2ed1 a5bc a625 273d 0c7a c43d b673 c5bb
000002b0: 15c7 bb3d e6d3 483e 9609 72bc b003 58bb
000002c0: 08de 603e d82a 2b3d f054 15bc 3e89 ea3c
000002d0: c3d4 babe 51b9 dcbd 25f8 f7bc 7b5d dfbd
000002e0: 13b2 1c3c 3ecc d73e a031 d13c 1d82 d33e
000002f0: 6b1b 9f3c 55e4 6c3c 2f98 08be 07e3 b03c
00000300: c733 fc3d 744b 21be b876 633c 0f8d 04be
00000310: 9c6b a0be 7ef2 5b3e 552a 61bc 5d84 193d
00000320: 6f21 85bc fcf4 203e f1e7 8f3b b273 343d
00000330: a6af f4be 5d51 423e 7919 f53c 436e 0dbe
00000340: db73 6b3c 029c 543e 26e9 803d 7b7a 513d
00000350: f081 b9bc 54af 99bc 7d63 e6bd 6813 ed3c
00000360: e1c2 123e 6af9 db3e 7b5c 243f bf3c 35bf
00000370: e089 4bbe 9877 47be 2e4c 1fbf 7934 4ebd
00000380: 39fc 033f 332d 3dbe d4d3 f03d 4627 4abd
00000390: 2bd3 e13d 3ee1 9c3c 0d8c a03d 79dc 163e
000003a0: d50b 42be 04ba 88bc c7bf 043f 8a4a 433e
000003b0: 30a2 693d 2334 143d ab30 4d3d 5738 a8be
000003c0: 8388 73bd dee0 f3be 7173 a2bd bad4 c53e
000003d0: 25cd 25be 5229 8c3d 8b53 ca3c f89e c23c
000003e0: 5336 adbe 543a 373d 1dcd 453b 3e09 09be
000003f0: b89a 4dbd a02a b7bc a8c0 b03e 5292 70bc
0.042880975 -0.02759706 -0.30387208 0.09370873 -0.010812777 0.058227483 -0.14549229 0.12848084
0.41461337 -0.0088787405 -0.13773963 -0.0004094167 0.18200713 0.0066673146 0.0076623815 0.010753425
0.08835003 -0.0495159 0.16357322 -0.010976821 -0.16721328 -8.5559695e-05 0.00012726698 -0.011857297
0.5336088 -0.0047636065 0.06551593 0.35940072 -0.008254849 -0.08217757 -0.21868867 -0.08265457
-0.03510031 0.006611686 0.12796506 0.13092269 -0.067930736 -0.1799912 0.08260747 -0.004122981
-0.10219412 -0.25838414 -0.497514 -0.023857096 0.017839115 0.07171574 0.006694655 -0.112863466
-0.0045262873 0.020899363 0.0014660005 -0.009690595 -0.00063582766 0.451055 -0.03190514 0.037377074
0.014010115 -0.19878277 0.28077134 0.1759209 0.014737915 -0.095834434 -0.0018009433 -0.098166734
0.005260397 -0.19048147 0.011162223 0.085160874 0.013583205 -0.019162552 -0.4123058 -0.06169076
-0.45832664 -0.033504296 0.014292368 -0.083457224 -0.056064285 0.0015096472 0.35803074 -0.03204387
0.05206672 0.0593358 0.16668911 -0.016466359 -0.021700665 0.068983875 0.4371601 0.06094877
0.019274756 -0.15377448 0.05791041 -0.14151315 0.40609154 -0.0064509576 -0.1210504 -0.010034471
0.31774464 0.040753957 -0.06465248 -0.037978802 -0.1321967 0.0035263784 0.03125627 0.0020601437
0.0035668479 0.0025490888 0.004288844 0.0737216 -0.25417823 0.01174566 0.01572531 -0.20807889
0.0027130642 -0.012870749 0.400992 0.19831291 0.14952785 -0.041874006 -0.00660055 0.113858975
0.10721274 0.24295907 -0.12219867 0.014228674 0.10577233 -0.07016755 -0.30723646 0.028327757
0.060227536 0.17856367 0.0032100226 -0.12158136 0.037239317 0.11855136 0.03395717 -0.008277941
0.06916545 0.3834133 -0.14397651 -0.055495903 -0.0006662072 0.5170354 -0.27581835 -0.123976596
-0.03302695 -0.06933022 0.08660685 -0.124686666 -0.0013076151 -0.039688095 0.0033876123 -0.038778663
0.004334803 0.10800405 -0.34587777 -0.028532753 -0.34082964 -0.18141575 0.023798961 -0.059382092
-0.07228831 -0.010734914 -0.42961848 -0.15548734 0.046924405 -0.14573069 0.0077745127 -0.012918736
-0.020241346 0.04080739 0.09593591 -0.0060257567 0.09168831 0.19612083 -0.014772793 -0.0032961182
0.21959698 0.041788906 -0.009114489 0.028629895 -0.3649045 -0.10777534 -0.030269692 -0.10906502
0.009563941 0.42148012 0.025536358 0.41310206 0.019422254 0.0144587355 -0.13339303 0.02159263
0.12314563 -0.1575144 0.013883285 -0.12944435 -0.313321 0.21479222 -0.013743003 0.037479747
-0.016251294 0.15718454 0.0043916632 0.04405565 -0.4779026 0.1897635 0.029919373 -0.13811593
0.014370884 0.20762637 0.062944695 0.051142197 -0.022644967 -0.01876036 -0.11249445 0.028939918
0.14332153 0.42963725 0.64203614 -0.70795816 -0.19876814 -0.19479215 -0.62225616 -0.05034301
0.51556736 -0.18474273 0.11759153 -0.04935386 0.11026605 0.019150373 0.078392126 0.14732541
-0.18949826 -0.016690262 0.5185513 0.19071403 0.05703944 0.036182534 0.05009524 -0.32855484
-0.05945636 -0.47632498 -0.07932175 0.3863886 -0.16191538 0.06843819 0.02469804 0.023757443
-0.3383051 0.04473336 0.0030182071 -0.13382432 -0.05019638 -0.022359192 0.34521985 -0.014683323

final.linears.2.bias f4 [10]
00000000: 3935 28bd aefc cab9 2907 a2bd edb3 8bbc
00000010: 8ffe 67be 0eae 97bc d573 a8bb c331 8f3c
00000020: 07ce 113c 5763 7cbd
-0.041066382 -0.00038716703 -0.07911522 -0.017053569 -0.226557 -0.018515613 -0.0051407614 0.017479783
0.008899218 -0.061618175

layers.0.attn.0.gnn_q.weight f4 [10, 16]
00000000: 38f4 b6ad 45f3 121a aced 8f23 00ad 3fae
00000010: ce03 e42f de94 6da6 ad8e 5d26 dcd4 3116
00000020: 2271 1220 4c6c 84a6 f65c 9827 5e75 9d17
00000030: 42c7 9a2f 498c 0a2b 947b bb30 34a3 3727
00000040: 09b6 8b2e 5e81 9a9a 9d15 44a4 693c 102f
00000050: 3a6f bcb0 3a51 6027 8a98 10a7 3276 0b96
00000060: 6dad 91a0 1eae 3027 35d5 80a8 ef90 7598
00000070: 5a4f 69b0 549c 14ac b641 9fb1 b26e d9a7
00000080: 5ca2 902e 0074 0f1a 1eba 28a4 e02f 6230
00000090: 3550 93b2 48b1 aa26 95f5 c2a6 b451 a896
000000a0: 6586 0621 d406 2027 60a2 9da8 9891 6017
000000b0: 4f38 23b2 fc74 e9ab df52 adb2 6423 5c29
000000c0: 6c66 1d2f 3ad1 459b 455d ada4 911c a62f
000000d0: 8f9e 52b1 9e31 d927 f20c 80a7 85d0 3296
000000e0: 27dc 3ca1 0dbf 9d27 f68d fea8 5dac fb98
000000f0: 9528 04b1 a983 86ac ae40 33b2 d87b 9aa8
00000100: dc6f 39af 6a7f 071b 2a1a f924 6dfa b6af
00000110: a25b 0c31 6c20 02a8 471d bd27 e656 2f17
00000120: a1b5 0021 faa0 e7a7 3ba7 1e29 f919 e318
00000130: 780e b030 4f07 a82c 3706 3a32 c24f 4a26
00000140: 2716 6aad b608 981a a5d1 ab23 0b07 1c2e
00000150: cce7 4eae c8eb d4a6 19ed 0427 659c 8815
00000160: db94 8d20 bccf eba5 1159 3f28 e526 5a18
00000170: bab9 8faf 0c0f 452b 60cf c72e c555 2028
00000180: 9d26 ffae 4a52 549a bbdd 7a24 ae27 80af
00000190: d852 3631 0852 62a7 c9a0 1427 24bc 9f15
000001a0: 8c7d aa1f 51dc 45a7 0c16 2228 e4a4 6198
000001b0: b229 fe30 a6d7 e02b 7182 0d32 3e09 34a7
000001c0: 6361 fc2e 59db 069b 9dc5 a9a4 1a0d 852f
000001d0: dc79 36b1 b623 ab27 3e6e 77a7 cf5e 2996
000001e0: f987 c5a0 6cf6 9227 db00 d3a8 cc8c 4598
000001f0: 0a76 cdb0 1493 72ac 26e8 12b2 ef33 bba7
00000200: 1938 a0ae fe64 121b 85bd 2a24 d781 43af
00000210: f78a 1431 539f 69a7 770c b626 5247 c594
00000220: f81a f320 e571 25a7 9cfa 1428 80b6 9418
00000230: a889 d630 0be3 c82b 5cbf c631 b3d9 a428
00000240: 94f6 1eae 760c c619 a81f 8e23 4cb1 86ae
00000250: ad13 3630 3c83 efa6 e20e 6426 605a 3214
00000260: 76cf 4020 29b3 60a6 fe99 e127 6ec1 bf17
00000270: eb3a ae2f 62d9 a42b c11a 3131 c44a c627
-2.079946e-11 3.0388604e-23 1.5604749e-17 -4.3582027e-11 4.1475662e-10 -8.2427645e-16 7.686814e-16 1.4365113e-25
1.2404114e-19 -9.188694e-16 4.2289263e-15 1.0175515e-24 2.8154018e-10 4.9222134e-13 1.3641164e-09 2.5484824e-15
6.353324e-11 -6.390191e-23 -4.2519032e-17 1.3118186e-10 -1.3710413e-09 3.1130278e-15 -2.0066706e-15 -1.1265626e-25
-2.467872e-19 2.4519296e-15 -1.4303319e-14 -3.173868e-24 -8.487767e-10 -2.1118845e-12 -4.6349795e-09 -6.0349615e-15
6.577203e-11 2.966541e-23 -3.658684e-17 8.2286356e-10 -1.7149526e-08 1.1844172e-15 -1.3528019e-15 -2.7193426e-25
4.5578836e-19 2.2208162e-15 -1.750092e-14 7.256207e-25 -9.500652e-09 -1.6588115e-12 -2.0177536e-08 4.888051e-14
1.4315454e-10 -1.6363063e-22 -7.5184795e-17 3.0215522e-10 -3.0649152e-09 6.0283394e-15 -3.5541172e-15 -1.4444523e-25
-6.3988247e-19 4.378339e-15 -2.826123e-14 -6.505602e-24 -1.9231596e-09 -3.8231263e-12 -1.0433878e-08 -1.7151143e-14
-1.6865392e-10 1.1208108e-22 1.0803086e-16 -3.3283545e-10 2.0424769e-09 -7.22348e-15 5.248978e-15 5.665523e-25
4.360847e-19 -6.428991e-15 3.5228097e-14 5.870435e-24 1.2809798e-09 4.7756586e-12 1.0828038e-08 7.019092e-16
-1.3306279e-11 6.28798e-23 1.8628645e-17 3.547655e-11 -4.7044854e-11 -1.4774364e-15 1.844721e-15 5.517671e-26
2.3984833e-19 -4.0906768e-16 1.0621943e-14 2.8195476e-24 -2.6143515e-10 7.000934e-13 9.0863095e-11 8.9003825e-15
-1.16029165e-10 -4.3907045e-23 5.439792e-17 -2.3311258e-10 2.6531577e-09 -3.140827e-15 2.0626288e-15 6.451642e-26
7.22055e-20 -2.7458676e-15 8.997587e-15 -2.9163817e-24 1.8492783e-09 1.5976012e-12 8.236939e-09 -2.4985028e-15
1.14769326e-10 -1.1155095e-22 -7.362684e-17 2.4201868e-10 -2.6553755e-09 4.7500752e-15 -3.4337898e-15 -1.3681628e-25
-3.3463077e-19 4.079031e-15 -2.3426077e-14 -2.5532737e-24 -1.4949262e-09 -3.4471913e-12 -8.551103e-09 -5.1959233e-15
-7.2859226e-11 1.2109469e-22 3.7023403e-17 -1.7781275e-10 2.1615827e-09 -3.2421615e-15 1.2632166e-15 -1.9920047e-26
4.1183648e-19 -2.2960092e-15 8.269993e-15 3.844138e-24 1.5609674e-09 1.4273872e-12 5.7843135e-09 1.830207e-14
-3.6144046e-11 2.0477753e-23 1.5409078e-17 -6.125109e-11 6.6239175e-10 -1.6619528e-15 7.912356e-16 9.004527e-27
1.6331676e-19 -7.795842e-16 6.2617004e-15 1.2391914e-24 3.169228e-10 1.1713237e-12 2.5772098e-09 5.50371e-15

layers.0.attn.0.gnn_q.bias f4 [16]
00000000: 707f 972f 7fe9 51a0 857a 86a5 4937 9d32
00000010: 0ec6 43b5 68e4 4b2c beb2 adaa 5717 0699
00000020: 360a 47a6 54ae 1329 71f7 45a9 4183 c19d
00000030: 5ff2 71b4 5a6a 0ead 6abe b9b4 92e7 6bae
2.755729e-10 -1.7780246e-19 -2.3328317e-16 1.8302346e-08 -7.293137e-07 2.8974826e-12 -3.0855e-13 -6.932351e-24
-6.9055833e-16 3.2791762e-14 -4.395741e-14 -5.122239e-21 -2.2533048e-07 -8.09538e-12 -3.459748e-07 -5.363849e-11

layers.0.attn.0.gnn_k.weight f4 [10, 16]
00000000: 8696 5d2a 4ef4 979c de6c 2ca0 d023 de2d
00000010: 415e 87b0 9ed4 d627 35e1 7ba6 cd36 ce95
00000020: 97f4 21a2 c2f8 c224 7caa c3a4 f622 129a
00000030: 5cb0 98af 700e 3727 86ee e6af 7a21 41a9
00000040: a1d3 b4a9 2611 fd1c b6fe 0422 9653 89ae
00000050: 7ffe 7031 10ff bfa8 2185 2127 83fa aa15
00000060: 3179 d022 570a 3ea5 0e78 a323 dee7 671a
00000070: c78b 8730 c171 c328 3a18 b330 cec5 cd2a
00000080: fcd4 6f2d da9e 6e1d 919b 8da2 255e 97b0
00000090: 56ba 9e32 b9da 9ba8 0429 ec26 8c1f 9416
000000a0: ca20 db22 1cba 4e24 3011 f0a6 1447 6d1a
000000b0: 4088 f632 d934 11ab 6e3c df32 47fd 0c2b
000000c0: fa4e 57ac 928c 511d dd40 8a22 4a1c 50af
000000d0: 26dc f831 47e4 32a9 7952 9427 1a93 0b16
000000e0: c458 3123 a66a ffa5 9a8e 2f26 bab6 d11a
000000f0: a119 1431 9438 df29 9b36 6431 f47a 352b
00000100: ce04 1baa 0203 d19d 0fc5 43a2 e36a 492f
00000110: 61cf 06b2 234e 7129 3fec dca7 8c2d e396
00000120: 81de 81a3 19c7 0926 e8b2 5725 8371 509b
00000130: 5091 e4b0 db1e 8b27 5cbf 5fb1 980d 72ab
00000140: 65a9 d12b 39e7 bd9c f4c5 cfa1 7bbe 9cae
00000150: f087 03af e712 aa28 1a02 a6a6 32ac 2f95
00000160: f33d 68a2 1edc 6a24 7440 afa5 9d27 309a
00000170: 3851 5b2f 0063 21a9 f299 c62f 4c18 21aa
00000180: ddf8 c5aa 2f3c 7e1b f858 e120 e558 362f
00000190: b259 c5b1 790e 0b28 80ac 46a7 538e 8695
000001a0: 4a9a c3a2 6257 8b25 5c4d 8f25 5811 049a
000001b0: d603 fab0 48f2 7e27 0fd2 40b1 15e9 b1aa
000001c0: bff7 72ab c9f0 4b1d 927a 0a22 65cb 0daf
000001d0: 89ea d131 ef4a 1ba9 224e 8e27 1601 db15
000001e0: 72da 3523 a7ca c5a5 fea0 c924 5ee9 cd1a
000001f0: 927d d630 43b4 0029 0f7c 2b31 f850 262b
00000200: ff8b 842c eb85 0b9c e758 4ea2 e486 2d2f
00000210: 0e96 93b1 6d08 6228 0db7 cea6 e270 5693
00000220: aa8f 35a2 0701 aa25 ff09 65a6 90e0 4e99
00000230: ab57 d5b0 40a9 e1a9 df7c 1bb1 625d 7baa
00000240: 7b96 9e2b 6833 179c 9d01 9aa1 60ec 522e
00000250: 5f57 06b1 e4d0 7a28 52c1 9ca6 6e8f af14
00000260: ac5a fca1 45de c724 4a85 89a5 a490 8099
00000270: 425d 06b0 1096 11a9 f740 3bb0 3c78 39aa
1.9680966e-13 -1.0055493e-21 -1.4604988e-19 2.5254382e-11 -9.849331e-10 5.962745e-15 -8.738833e-16 -8.32892e-26
-2.1949054e-18 8.45555e-17 -8.485658e-17 -3.0220334e-23 -2.777395e-10 2.5404178e-15 -4.2006237e-10 -4.2883645e-14
-8.0303175e-14 1.6746568e-21 1.8024179e-18 -6.2448866e-11 3.506926e-09 -2.1315875e-14 2.2415408e-15 6.905769e-26
5.650683e-18 -1.6483376e-16 1.772334e-17 4.795698e-23 9.86227e-10 2.1698682e-14 1.303085e-09 3.655257e-13
1.3632869e-11 3.1581162e-21 -3.838284e-18 -1.1013453e-09 1.8478357e-08 -1.7303313e-14 1.6386907e-15 2.3930598e-25
5.9394786e-18 4.482677e-17 -1.6658004e-15 4.9067868e-23 2.8700128e-08 -5.158769e-13 2.5988097e-08 5.0089484e-13
-3.0597178e-12 2.7733593e-21 3.747365e-18 -1.892754e-10 7.242778e-09 -3.972194e-14 4.116767e-15 1.1274748e-25
9.613986e-18 -4.4307716e-16 6.0908583e-16 8.6735585e-23 2.1551403e-09 9.913004e-14 3.3209406e-09 6.447475e-13
-1.3768432e-13 -5.532495e-21 -2.653175e-18 1.8318817e-10 -7.846979e-09 5.3580523e-14 -6.1318405e-15 -3.6702572e-25
-1.4080442e-17 4.780125e-16 1.8708893e-16 -1.7242034e-22 -1.6630484e-09 3.8613704e-15 -3.2559546e-09 -8.5994536e-13
1.489736e-12 -1.2566741e-21 -1.4079263e-18 -7.127895e-11 -1.1962675e-10 1.8881989e-14 -1.1519134e-15 -3.5476807e-26
-3.1474659e-18 5.0927108e-17 -3.0401336e-16 -3.6427946e-23 1.9946789e-10 -3.583505e-14 3.6125375e-10 -1.4308102e-13
-3.5166913e-13 2.1029834e-22 3.8175357e-19 1.6584385e-10 -5.7436518e-09 7.719188e-15 -2.7571532e-15 -5.434672e-26
-5.3018216e-18 2.417187e-16 2.4858966e-16 -2.731097e-23 -1.8190984e-09 3.5380922e-15 -2.8059082e-09 -3.160325e-13
-8.631949e-13 2.699131e-21 1.8767376e-18 -1.2896136e-10 6.109364e-09 -3.4481908e-14 3.949763e-15 8.845511e-26
9.858287e-18 -3.4311375e-16 8.7442586e-17 8.516304e-23 1.5606239e-09 2.857806e-14 2.4954294e-09 5.9087414e-13
3.7672083e-12 -4.6164327e-22 -2.796527e-18 1.5782181e-10 -4.2953223e-09 1.2547347e-14 -1.4343737e-15 -2.7066253e-27
-2.460613e-18 2.9490995e-16 -7.946388e-16 -1.06953004e-23 -1.5522706e-09 -1.00213674e-13 -2.262645e-09 -2.2325677e-13
1.1268342e-12 -5.002815e-22 -1.0435873e-18 4.7958415e-11 -1.9549231e-09 1.3923084e-14 -1.0877074e-15 1.7727057e-26
-1.7100185e-18 8.667903e-17 -2.3856032e-16 -1.329331e-23 -4.8881443e-10 -3.2326626e-14 -6.8122524e-10 -1.6473015e-13

layers.0.attn.0.gnn_k.bias f4 [16]
00000000: c347 5bb2 86a9 261e b939 c627 55b5 fbb2
00000010: 5406 ab34 5638 fdaa 98b2 952a 477e 4d19
00000020: ac62 2b24 a989 b9aa b956 0a2c 55e8 ab1b
00000030: db5f 7834 c97c ae2f f83c 8e35 ef40 c72b
-1.27637945e-08 8.8230235e-21 5.5018623e-15 -2.9302706e-08 3.1855836e-07 -4.498092e-13 2.659164e-13 1.0623753e-23
3.7163293e-17 -3.2958122e-13 1.965912e-12 2.8439718e-22 2.3131672e-07 3.173908e-10 1.0597569e-06 1.4157823e-12

layers.0.attn.0.gnn_v.weight f4 [10, 16]
00000000: 322b f83e cb7e 0b3f 5ccb ee3e 02b0 703e
00000010: c365 dc3d 798e da3e 76cb 47bf cc6b d2be
00000020: 5b09 773d abcd 413f fb17 0dbf 2dd8 81be
00000030: 0311 4fbf aaef 5ebe 8829 4c3f b3b0 833f
00000040: bd3d b73e ad7d 96bf 9770 4bbf 2625 dd3e
00000050: 6718 063f 531b 08bf 5e18 03bf 07af 6ebf
00000060: 9be7 76bd 650c 1dbf e72f bc3e ee9d 2e3e
00000070: 2b32 5f3e 3151 c1bd a0f7 093f 7955 0fbf
00000080: d3a8 cfbd 32ad de3d 7e73 903d 2004 133e
00000090: 9a15 2bbe 67e4 70bd 6b35 a8bd f052 a03e
000000a0: c92f 96be 8084 24be beef 23be 928f e83a
000000b0: 4e2a 2abe 589e ddbd 2c95 9abd 02a7 0bbe
000000c0: 2e0d 583d 29cb 9f3b e3bf d33d 38fe e6bc
000000d0: b61c 69bd de7c 8ebd 3982 9e3d 891c ba3d
000000e0: 91a8 47be 4a61 aabd 2265 89bc f5f4 4ebd
000000f0: c074 c1bc 26ca dbbc 4007 07be 8f88 193d
00000100: a3c9 b23b 59bd 323e 75b2 09bf 60fc a0be
00000110: 7981 84be 3c78 a93e 3424 6c3e 1f79 1cbe
00000120: 45fb f03c 5522 2b3d 58d8 163e c4ee ad3e
00000130: fc4b 0e3e 4742 833e 6927 963d 6a61 3a3e
00000140: 1357 40bf 7b5f 053e 4c1a 0f3f 550c eb3e
00000150: 7421 03be 58d7 1c3f 61cf 803f 9e80 14be
00000160: c925 dd3d b9de 983c 0bd6 90be 80d5 91be
00000170: a570 f2bc b615 4f3f e007 d1be 0f92 c4be
00000180: 2209 75be 983b 813e 204b 093f 94ae 7a3e
00000190: 82cd a7bd 9f58 213f cc82 17bd 9da4 a0be
000001a0: ffc5 2c3c db14 a63e 1c87 02bf cd39 83be
000001b0: 5d72 f7be d1ca da3e be41 1d3f d552 003f
000001c0: bf8d 63be 1ed7 293f 6b04 883d 7f30 15bf
000001d0: 3733 80be f53a eebd d941 103f 7076 703f
000001e0: 12bf fe3c 2093 1cbe f7cb c13e 9d29 863d
000001f0: 8706 d93e d2ca bebe 1ed1 7cbf 97b1 c3be
00000200: d4e1 a0bd 5806 07be 96c1 993d 443f 083c
00000210: 7392 6cbe e87e c7bb 9568 833e c14d d93d
00000220: a6ae 27be 0469 02be 5b78 6abd 1805 35bd
00000230: 1102 3ebd 80b0 c83d 6417 9dbe c7d3 c53c
00000240: 50c1 fc3e 33d9 0c3f b912 8fbe 9ac4 0abf
00000250: 2951 0abe 6379 b4be c57d e2be 5149 013f
00000260: f5cf 2dbd 521d 463e 32df fe3d 8ea2 a43d
00000270: 5bdf 3b3e d85e 27bf bd6b 90be e917 d23e
0.48470455 0.54490346 0.46639526 0.23504642 0.10761597 0.42686823 -0.7804483 -0.41097867
0.060311656 0.7570445 -0.55114716 -0.25360242 -0.8088533 -0.21771112 0.7975087 1.0288299
0.3578929 -1.1757103 -0.79468673 0.43192405 0.52380985 -0.53166693 -0.51209056 -0.9323582
-0.06027947 -0.6134704 0.36755297 0.17052433 0.21796481 -0.09439314 0.5389347 -0.55989796
-0.101396225 0.10872878 0.070532784 0.14357042 -0.16707459 -0.05881157 -0.08213314 0.31313276
-0.29333332 -0.1606617 -0.16009423 0.0017742983 -0.166177 -0.10821217 -0.075479835 -0.13637927
0.052746944 0.0048765135 0.10339334 -0.028197393 -0.056912147 -0.0695741 0.07739682 0.09087474
-0.19497897 -0.08319338 -0.016771857 -0.050526578 -0.023615241 -0.02682979 -0.1318636 0.037483748
0.005456166 0.17455043 -0.5378793 -0.31442547 -0.2588003 0.33099544 0.23060685 -0.15280579
0.02941669 0.04178079 0.14730966 0.33971226 0.13896173 0.25636503 0.07331736 0.18201223
-0.75132865 0.13024704 0.558995 0.45907846 -0.1280573 0.6126609 1.0063287 -0.14502189
0.107982226 0.01866089 -0.28288302 -0.284832 -0.029594729 0.80892503 -0.4082632 -0.38392684
-0.23929265 0.2524078 0.53630257 0.24480659 -0.081934944 0.6302585 -0.036989972 -0.3137559
0.010545253 0.32437786 -0.5098741 -0.25630036 -0.4832944 0.42732862 0.6142844 0.5012639
-0.2222204 0.6634387 0.06641468 -0.58277124 -0.25039074 -0.11632339 0.56350476 0.9393072
0.031096969 -0.15290499 0.37850925 0.06550906 0.42387792 -0.37264115 -0.9875659 -0.38221428
-0.07855573 -0.13186014 0.07507627 0.008315865 -0.23102741 -0.0060881265 0.25665727 0.106105335
-0.16375217 -0.12735373 -0.057243686 -0.04419431 -0.04638869 0.0979929 -0.30681908 0.024148835
0.49366236 0.5501892 -0.27943972 -0.5420624 -0.13507523 -0.3524886 -0.4423658 0.50502497
-0.04243465 0.19347122 0.12444915 0.08038817 0.18346922 -0.65379095 -0.28207198 0.41033867

layers.0.attn.0.gnn_v.bias f4 [16]
00000000: a4fc 8d3d a005 eebd 8854 a03a 4696 54bd
00000010: ea5d fc3d 3890 26bc 2b92 2dbb adf4 53be
00000020: 6951 193e 5b5b c93d 473e bb3d 9dea 11bd
00000030: eceb aa3d d12f 1f3d 713a 863d 8285 873d
0.06932953 -0.11622167 0.0012232224 -0.051901124 0.123226 -0.01016622 -0.0026484828 -0.20698805
0.14972462 0.09831878 0.09142738 -0.035624135 0.0834578 0.03886396 0.065541156 0.066172615
