checkpoints/lipophilicity_astrazeneca_40_train1_neg/Aug26-10:57:51_900.pth (torch, 377407 bytes, 294 tensors)

layers.0.weight f4 [10, 16]
00000000: cbd7 0a3f 1c0b 0c3f c389 44bd 7951 2bbe
00000010: 803d 36be b85e 1fbf 017e ac3c bc12 403f
00000020: ad3e 43bd a3a0 59bf ba81 ca3f e2e0 913f
00000030: 3de5 cd3e 5a2f 103f af50 943e 0a71 99be
00000040: db67 5a3f f2c0 e4bc df72 3dbe fc50 f63e
00000050: 16cf b63e c146 f8be 464b da3d 1084 0e3f
00000060: d1c0 a3bf b926 44be 6e64 6abf 14f0 12bf
00000070: 3079 49bf da13 9e3e 2eb0 4b3f bcd4 87bf
00000080: 4fbe a43f c2bb fcbe 45c7 5abe 074e 833e
00000090: 9e50 763f 7165 423f ea31 4c3f 9213 45bf
000000a0: 93dd 353f 0d19 b73e 45f8 a03e d611 963f
000000b0: c96e 423f 5ba0 24bd 48e5 303f f514 1abe
000000c0: 69c9 ce3e b2ca 3cbf 160c 9cbf 605d 9cbe
000000d0: 10a5 49bf b437 203f feae 123f 94c2 dc3e
000000e0: df89 053f 33e3 d0be b901 353f 737d 55bf
000000f0: 1702 a9be 6659 66bf b818 5cbd 711e 6dbf
00000100: 1632 153f 8cc7 bcbe 853a 8e3f 41ad 50bf
00000110: 1432 94be db2d e6be 1f55 843f a0d7 a63e
00000120: e700 403f eea5 0dbf 7bf0 35bf 88e7 06bf
00000130: 3afb 34be bcf4 983e fd61 3abe 2396 9b3e
00000140: bfe9 9abe b4f3 42bf a869 233e 09b6 8abf
00000150: 64bb 92ba 9a53 36be 896d 8e3f 334e 8fbf
00000160: c459 5bbf 299a b43e ea67 0e3f 5931 9fbd
00000170: f532 85be 4697 e03e 2759 62bf a355 47bf
00000180: 2f81 2f3e 6c3d 493d 0dc5 fe3c c0db 1cbf
00000190: d1cc 1ebf edda 57be 257e dfbd 608d 64bf
000001a0: b141 90be 2292 e2be 917f 11be 587c 2c3d
000001b0: 254a 76bf 17df 74be 9a41 e73f 5bcb c53e
000001c0: 61b7 763f e6d5 6ebf c973 35bf 3b21 ca3d
000001d0: 0b40 8c3e 532d b2bf 0461 7ebf 0fb8 23bf
000001e0: fcab d53e e8a6 11bf 5590 2fbf 68b0 ccbe
000001f0: 4edb e7be 65f0 c4be ac3f 69bf b8d2 3abe
00000200: beb8 3f3f 2fdd ccbe e9f7 653f 0667 1d3d
00000210: 2010 29bf 0fdf d73e 9b82 8dbe c22c 1bbf
00000220: 0881 84bf e2ee 3cbf af37 be3d 2817 0dbe
00000230: f293 b03f 8cf8 45bf d6cf 023e f1cc 1cbe
00000240: 0af7 20bf 0da8 e73e 1afe 453d 2605 033f
00000250: 390d 8f3f 21b8 1ebf 18ef b83e aac7 14bf
00000260: c519 a73d 5345 68bf 50d4 453f a014 bcbf
00000270: 01aa 123f 634a 30bd 8178 033f d45a 06be
0.54235524 0.5470445 -0.047982942 -0.16730298 -0.17796898 -0.62253904 0.021056177 0.75028586
-0.047667194 -0.8501074 1.582084 1.1396754 0.40213957 0.5632225 0.28967807 -0.29969054
0.8531472 -0.027924035 -0.18500851 0.4810866 0.3570487 -0.4849148 0.106588885 0.5567026
-1.2793218 -0.19155397 -0.91559494 -0.5739758 -0.7870054 0.3087452 0.79565704 -1.0611796
1.2870578 -0.49361998 -0.21365078 0.25645468 0.9621676 0.7593604 0.7976366 -0.76982987
0.7104122 0.357613 0.31439415 1.1724193 0.75950295 -0.04019199 0.69099855 -0.15047057
0.4038804 -0.7374679 -1.2191188 -0.3053999 -0.7876749 0.62584996 0.57298267 0.431172
0.521635 -0.4079834 0.70705754 -0.83394545 -0.33009407 -0.8998016 -0.05373451 -0.92624575
0.5827955 -0.36870992 1.1111609 -0.81514364 -0.28944457 -0.4495686 1.0338477 0.32586384
0.75001377 -0.55331314 -0.7107007 -0.5269704 -0.1767396 0.29874218 -0.18201442 0.30387983
-0.3025646 -0.7615311 0.15958273 -1.0836803 -0.0011194763 -0.17805329 1.1127177 -1.119574
-0.85683846 0.35273865 0.5562731 -0.07773084 -0.2601544 0.43865412 -0.88417286 -0.77865046
0.17139123 0.049130842 0.03109982 -0.6127281 -0.62031275 -0.21079607 -0.10912732 -0.8927822
-0.2817512 -0.44252115 -0.14208819 0.04211077 -0.96206886 -0.23913227 1.8066895 0.3863171
0.96373564 -0.93295133 -0.708798 0.098696195 0.2739261 -1.3920082 -0.99366784 -0.63952726
0.41732776 -0.56895304 -0.6857961 -0.39978337 -0.45284504 -0.38464656 -0.9111278 -0.18244445
0.7489127 -0.400125 0.89831406 0.03842833 -0.6604023 0.42162368 -0.27638707 -0.6061517
-1.0351877 -0.73802006 0.092879646 -0.13778365 1.3795149 -0.7733238 0.12774596 -0.15312554
-0.6287695 0.452454 0.048338033 0.5117973 1.117591 -0.6199971 0.36119914 -0.58117163
0.08159212 -0.9073078 0.7727709 -1.4693794 0.57290655 -0.04303969 0.5135575 -0.13120586

layers.0.bias f4 [16]
00000000: a414 05be e151 b8be 3944 fabd ae9a 0a3f
00000010: 7e5c b53c 5247 0f3e 70de 8abd 3598 51bd
00000020: 4256 6bbe cce3 e3be c032 65bd 52b7 4c3e
00000030: 82e1 6abb 6e9f e53e af5b 063d 2bcc 1b3f
-0.12996155 -0.3599997 -0.12220044 0.5414227 0.02213883 0.1399205 -0.06780708 -0.051170547
-0.22982123 -0.44509733 -0.055956602 0.19991806 -0.003583998 0.44848198 0.03280228 0.6085841

layers.1.weight f4 [16, 16]
00000000: db1b 183f b950 5d3d c3e5 abbe 1817 06bf
00000010: 0ce0 053f 28d1 edbe 0abd 123f 719e 213f
00000020: c2b0 3c3f b38f 34bf f5a1 a1bd ec17 0fbd
00000030: ac0a acbe 1e93 d8be e695 02bf 70ac b23c
00000040: 0127 03bf cb06 543f ee0b 253f 2bba c7be
00000050: 02ae 08bf ffe7 2f3f b3aa a03d 4354 0dbf
00000060: d527 1fbd 1ddd 003f 9e08 203e d66b e53e
00000070: 90d2 30be 8d66 01bf d68d d43d 8190 c5bd
00000080: 7815 453f bd0b 033f 27a8 b33e f447 863e
00000090: 69a2 743e 3a47 c73e 51af 32bd 4566 113f
000000a0: aabd 48bf 7c72 063e a451 363f 8ba4 523e
000000b0: 849b 3c3f e8ae 89be 73ce f0bd f416 4bbf
000000c0: 06af c7bd f1fe f93e 8a05 213f 2921 7d3e
000000d0: e830 5abf 2eda 6ebe 7baa acbf ca8f 703f
000000e0: 7f6e d43e 7968 573b 9256 c73c b06f bdbe
000000f0: 129f 35bf b9b9 a33c cf36 08bf bc58 51bd
00000100: 50f1 35bf c05f 2a3f a1c7 313e 37ed 863e
00000110: a1b1 5fbf 3a93 57bf f7f6 1bbf a5b5 143f
00000120: 435e 8a3f 503e 2c3f 5582 f53e 1f84 673e
00000130: ce07 293e 5141 0cbf 2729 3c3e ed59 59be
00000140: 3de8 943e 3014 93be 22b1 32be 5b6a d4be
00000150: f348 403e c548 debe a653 cc3d f426 27be
00000160: c1f4 30bf e8f7 443f b148 28bf ddbe 99be
00000170: 162e 51bf 0e8a 1d3e f468 3cbf 2db6 25bf
00000180: 8746 713f 520a 6cbf df5c bf3e 4966 52bd
00000190: e7e9 443f a427 1cbf 1a09 5b3f 6d00 84be
000001a0: 14f8 013f dec4 9a3f 1f54 7bbe 3dd7 b3bd
000001b0: 25c6 163f 0660 cabe 1e2d 953e bc86 07bf
000001c0: 8f0b a23f 6de8 e23b 25b3 763f ccdd 19bf
000001d0: 92b9 ccbe 08dd 053f 745e f3bd b2a8 3abf
000001e0: b75a 17bf 86d1 14bd 4d74 c0be ecea 86be
000001f0: 6562 04bf 0838 40bd e15f 7cbf d796 573f
00000200: 1891 9d3f 111a 32be 1909 f9be 6865 34bf
00000210: 340a 73bf 97cb a8bf 4565 283f 0b7d 20bf
00000220: 4ce3 31bd 59f2 1fbe f692 fabe bed3 0dbe
00000230: bd95 233f 6c43 bcbe 3cf1 e4bc b9c9 a6be
00000240: 98c0 50bf 3f53 7b3d e204 1bbf fbe1 263e
00000250: 59dc 12bf 6be3 e8bd 6db9 b23e cdbd 673c
00000260: 24e3 15bf e6a6 383f a69c 1a3f 07b4 e03e
00000270: a24b a23e 5996 dc3e 5842 813d 4cab 313f
00000280: 1d54 a4be 66cb 35bf 8d8d 833f d529 e53c
00000290: 20f8 e3bd 8c39 08bf d9c7 0f3f 14de 2abf
000002a0: 4440 d9be 92e1 bebe 25bf 7abe 1df8 91bc
000002b0: aff1 77bf e26e 06bf 68e6 0f3f 0737 67bf
000002c0: f459 38bf a388 163f 907b 4cbf 58f8 fa3e
000002d0: ddba 7dbe e51f 08bf 37b3 74bf 4ca0 06bf
000002e0: 1e6a 58bf ad12 94be e1f6 253f d54b 163d
000002f0: 5e1b e3be bc79 a8be 023b abbd 9a50 233f
00000300: d3c8 b0bd 1864 ea3e fd3e 263d 31a8 a23d
00000310: 2f83 61be 5d51 aebe 78f2 afbe 62ba 543f
00000320: 9333 27bf b8e7 0dbe 27b7 bf3d f197 de3d
00000330: e2a4 13bf e980 08bf ae41 a0be 2073 24bf
00000340: e08f b2be c446 b63d ecd8 0b3f e3c9 243f
00000350: 1e4f 8bbd 86d4 c43c 215f 51bf 3c42 00bf
00000360: e9c6 dd3d 60f9 1d3f f7bf 223f 8846 63be
00000370: dfcd 3d3f 4fea 34bf f8ff e63e e97f 503f
00000380: d14d 0fbe 4942 0b3f 4fb6 18bf 50dd 9bbe
00000390: 73df c03e e581 f43e 0534 0dbf 128f 9ebe
000003a0: 4cfe 2b3f c3a5 853e 2816 00bf 1a02 debd
000003b0: 0707 2ebf 9603 bfbe f90a 473d 508b 30bf
000003c0: 5f05 c63d 20f9 3a3f e61c edbe 5ee7 993e
000003d0: e374 fbbe ad5c 9fbe 27ca adbf cd45 2dbf
000003e0: 0de6 3abf b633 423e 1929 72be 3a25 e2bd
000003f0: 86a8 6c3f a6fc 983d 5593 903e 4638 03bf
0.59417504 0.05403206 -0.33573732 -0.5237899 0.52294993 -0.46448636 0.573197 0.6313239
0.7370721 -0.7053177 -0.07892219 -0.034934923 -0.33601892 -0.42299742 -0.51009977 0.02181074
-0.5123139 0.82822865 0.6447133 -0.39009222 -0.53390515 0.6871337 0.07845058 -0.552067
-0.038856346 0.5033739 0.15628287 0.44808835 -0.17267823 -0.50547105 0.103786156 -0.096467026
0.76985884 0.51189786 0.35089228 0.2622677 0.2389008 0.3892153 -0.043624226 0.56796676
-0.78414404 0.1312961 0.71218324 0.2057058 0.736748 -0.26891255 -0.11758127 -0.793319
-0.0975018 0.48827317 0.62899077 0.24719681 -0.85230875 -0.23325416 -1.3489527 0.93969405
0.41490552 0.0032868667 0.024333272 -0.36999273 -0.7094585 0.01998602 -0.5320863 -0.051110014
-0.7107134 0.6655235 0.17361309 0.26352856 -0.87380415 -0.84209025 -0.60923713 0.5808967
1.0810016 0.6728258 0.47950998 0.22608994 0.16506884 -0.54787165 0.18375073 -0.2122571
0.29083434 -0.2872634 -0.17450383 -0.41487393 0.18777828 -0.43414894 0.09976892 -0.16323453
-0.69123465 0.76940775 -0.6573592 -0.3002843 -0.81710947 0.15384695 -0.73597646 -0.64731103
0.9424824 -0.9220325 0.37375543 -0.051367078 0.76919407 -0.60997987 0.8556076 -0.25781575
0.5076916 1.2091329 -0.24543808 -0.08781288 0.58896095 -0.39526385 0.29135984 -0.52939963
1.2659777 0.00692468 0.963671 -0.6010406 -0.3998533 0.5229039 -0.1188325 -0.7291366
-0.59122795 -0.03633263 -0.3758873 -0.26351106 -0.5171264 -0.046928436 -0.985838 0.8421454
1.2309904 -0.17392756 -0.48639753 -0.70467234 -0.94937444 -1.3187131 0.65779525 -0.626908
-0.043429658 -0.15619792 -0.48940247 -0.13850304 0.6390036 -0.3677019 -0.02794706 -0.32575777
-0.81543875 0.061358687 -0.60554326 0.16297142 -0.57367474 -0.113715015 0.34907094 0.014144373
-0.58549714 0.72129667 0.60395277 0.4388735 0.31698328 0.43083456 0.06311482 0.69402003
-0.32095423 -0.71013486 1.0277573 0.027974049 -0.111313105 -0.5321281 0.5616432 -0.66745114
-0.42431843 -0.37281471 -0.24486978 -0.017818505 -0.96853155 -0.52512944 0.5621095 -0.9031834
-0.7201226 0.5880224 -0.7987604 0.49017596 -0.24778314 -0.5317367 -0.9558596 -0.52588344
-0.8453692 -0.28920498 0.6482983 0.036693413 -0.44356817 -0.32905376 -0.08360864 0.63794863
-0.08632054 0.4577949 0.040587414 0.07942236 -0.22022699 -0.3404645 -0.34364676 0.830969
-0.6531307 -0.13857925 0.093611054 0.10868824 -0.57673466 -0.533217 -0.3130011 -0.64238167
-0.34875393 0.08900216 0.5462787 0.64370555 -0.068022 0.02402712 -0.8178578 -0.50101066
0.10828955 0.6170864 0.63574165 -0.22194874 0.7414226 -0.70670027 0.45117164 0.81445175
-0.13994528 0.5439802 -0.5965318 -0.30442286 0.37670478 0.47755352 -0.551575 -0.3096853
0.671849 0.2610303 -0.5003381 -0.108402446 -0.6797947 -0.37307423 0.04859445 -0.68962574
0.09668993 0.73036385 -0.4631111 0.30059332 -0.49112615 -0.31125394 -1.3577317 -0.6768463
-0.7300728 0.18965039 -0.2364849 -0.11042257 0.92444646 0.07470064 0.28237405 -0.5125774

layers.1.bias f4 [16]
00000000: 2423 433e 74c9 803c c44f 903b ab6b 263d
00000010: 6b89 9d3e 12d2 3c3e 08e2 9c3e 58fc 0abe
00000020: d1ac 2d3e 147a cdbd 8715 b43c d439 34be
00000030: 2742 273d bb51 da3d d3de 323d 6a5b 37bd
0.19056374 0.01572106 0.00440404 0.040630024 0.30768904 0.1843951 0.30641198 -0.13572824
0.16960455 -0.1003305 0.021982921 -0.17600185 0.040834572 0.1066012 0.043669533 -0.044764914

final.linears.0.weight f4 [84, 42]
00000000: a110 21be ce37 a53f 16f1 95bf 28f1 11be
00000010: c622 503d f177 87be 4459 cbbf f683 bf3e
00000020: 1221 3b3f 245c 2a3e 6b9d d2bd e88c 13be
00000030: 64cb 94bc 6ddb 0dbd 8fbd a13c b7a8 56bc
00000040: 49b0 123d 96ac 40bd 8b9d 9e3c b6f7 eb3d
00000050: f6c4 8dbe 15a7 b3bd 7606 0bbe 8b1e 25bd
00000060: f2a0 edbc 75e4 863c 261a cf3d 8ca2 333e
00000070: 79f3 863e 06d0 45bc 1da9 e1bd b903 fb3d
00000080: 6e6a 403e 790d 0f3e 6ba0 b9bd 5de7 583d
00000090: 7677 bd3c 8132 353d 3009 d53c d2c6 52bd
000000a0: 1c64 f6bd a628 d03d 4d98 70bc b86a 9dbe
000000b0: 98a1 31bf 6cb4 5d3e 82fe 833c 54e0 57bf
000000c0: e3e2 683f 1ce5 e4be ca6d 44bf 85e4 c3bd
000000d0: 1c30 083f 89b7 06be f82f be3e b156 9c3e
000000e0: 5a31 bf3e ce03 f83d 2581 4e3e 4223 02be
000000f0: 89dc c2bd 97ac 59bd 9a50 393e fd9e 1b3e
00000100: 56b6 3e3f 005c db3c ec8d c4be 0752 0abf
00000110: a807 12be 37bb 45be 4a45 94bd 510c a93d
00000120: 5bfc d33d 4199 fc3d 6066 84bd a565 9cbc
00000130: 6819 113d 45c3 9b3d d205 e93d b014 453e
00000140: a556 4e3e 6b71 433e 9609 7f3e 9d85 0b3e
00000150: 85c3 91be ecee 05bf 859c e73e e2f2 243f
00000160: a9e2 ff3e c02a 9a3e 0d52 04bf d7b4 823d
00000170: 997b 223e e60f 283e 69b0 86bd 92e4 8d3d
00000180: 93a3 43bc fc90 eabd ec1b 0bbe 0308 b8bd
00000190: 52b2 773d d56b 593d 6c10 9ebd 15ec 6c3c
000001a0: 5233 103e e725 cc3d e4d4 17bd 08e4 1c3e
000001b0: 7a84 a63d f812 0dbe 04ba 37be ac45 e03d
000001c0: f7bc 263d 41a8 50bd 165a 863a a610 acbc
000001d0: 56be dbbb a226 943c 3945 6c3e 5387 bebd
000001e0: a758 4c3d f84b bf3d 2468 26be 663e b63d
000001f0: 7d34 c3bd 9871 d23c 82c8 27bf 1800 a93e
00000200: 8f0c b43e c875 06bf 8d0f d2be 25ad 3a3f
00000210: cabf 243e 6dab 4ebf 1d0a b6bf 01a8 12bf
00000220: ff33 79be 4f44 113e d03b bdbd a980 66bd
00000230: d761 733e 25bb db3e bec2 a93e 522d 6b3e
00000240: 62e7 563d 3b07 1e3f 8ca3 7cbe 9108 4c3e
00000250: f42c aabe ec6b 473e c279 66bd 55cb 1b3c
00000260: d391 a9bc 2d38 56be e0e0 55be 2109 67bd
00000270: 7e51 183e f655 333c 71d6 8d3c 84d0 423d
00000280: f888 2bbd 2d76 d53e 626a 7fbd 93fc ecbd
00000290: 4dd9 80bd e788 fc3d 8302 16be 7f2f 2d3e
000002a0: 9446 a7be 0982 4b3f f0e9 12bf 825e 83be
000002b0: 9454 533f 4ae1 ad3d ef1a 463f 0448 2a3f
000002c0: 3964 d1be 12e8 af3e 80c8 40bd 7a13 ee3c
000002d0: ebbb 6a3d 588d 4fbe 0d09 5cbd b5ff ebbd
000002e0: 4f14 83bd 7ca5 853d 1a93 93be acb9 8bbd
000002f0: 8ed2 b3bd 0c2b febd 64a4 a8be ad6f 413c
00000300: 20b3 063e 0113 46bd 3e3c 613d 9861 3a3d
00000310: c25c f83c 106c 023d fa00 22bc 40bf aebd
00000320: 102d 313d a169 633d 2006 46bc ddf8 debc
00000330: 1c87 1f3d f803 45bc f3b3 aebb f5d0 8d3c
00000340: 3bcc a2bd ac73 033d 1d80 873f cac5 09bf
00000350: c4a1 62bf 288c 98be a4b2 28bf 66af 0cbf
00000360: 4165 d33f 5ee1 cd3f d80c efbe 70ca 383e
00000370: 0806 38be 55ed 3a3e 22ae 3abe 8c4c 19be
00000380: 80b8 f53d a774 c0be e37a 843c 5342 cbbe
00000390: 54be 263e 7632 83be 8574 863e 1dbd 763c
000003a0: 7cd1 e2bd 3c12 7cbe a6a6 403f 4cf9 043e
000003b0: 4cf3 1b3d f15e bebd 64da 8cbd 2532 eabd
000003c0: 368a 91bd 10a8 10bd 27cc febd 8b6d 4abe
000003d0: 3cfc 2d3d d18d ffbd 54d0 d8bd 2d7c f53d
000003e0: 4af9 413e f96f 4d3c 1487 a63e 9ba2 c2bb
000003f0: dbba 403f 0a35 94bf 0d70 82bf 08cc 0d3f
-0.15729 1.2907655 -1.1714199 -0.1425215 0.050814413 -0.26458696 -1.5886617 0.37405366
0.73097336 0.16636711 -0.10283931 -0.1440922 -0.01816339 -0.03463309 0.019743709 -0.013101748
0.03581265 -0.04703959 0.019362232 0.115218565 -0.27689332 -0.08772103 -0.13576683 -0.04031233
-0.029007409 0.016466359 0.10112409 0.17542475 0.2635763 -0.012073522 -0.11018584 0.122565694
0.187906 0.13969983 -0.090638004 0.05295502 0.023128252 0.044237617 0.026005358 -0.05145914
-0.12030813 0.10164003 -0.014684749 -0.30745482 -0.693872 0.21650857 0.01611257 -0.8432667
0.909712 -0.44706047 -0.76730025 -0.09565071 0.5319841 -0.1315595 0.37145972 0.3053489
0.3734234 0.12110101 0.20166452 -0.12708762 -0.0951472 -0.05314311 0.18097153 0.15197368
0.7449697 0.026777267 -0.38389528 -0.54031414 -0.14260733 -0.19309698 -0.07239778 0.08254302
0.10350867 0.12333918 -0.06464839 -0.019091437 0.03542462 0.07605604 0.11378063 0.19246173
0.2015024 0.19086234 0.24906 0.13625188 -0.28469482 -0.5231769 0.45236602 0.6443311
0.49977615 0.3011074 -0.516877 0.06382149 0.15867461 0.16412315 -0.06576616 0.06928362
-0.011940855 -0.11453435 -0.1358487 -0.08985903 0.060472794 0.053081352 -0.07717976 0.014460583
0.14082077 0.09968167 -0.037068263 0.15321362 0.08130737 -0.13776767 -0.17942053 0.10950789
0.040707555 -0.05094171 0.0010250236 -0.021004032 -0.0067060394 0.018084828 0.23073281 -0.09303155
0.049889233 0.09340662 -0.16250664 0.0889862 -0.09531496 0.025688931 -0.65540326 0.33007884
0.3516583 -0.5252347 -0.4102749 0.7292045 0.16088787 -0.80730325 -1.4221836 -0.57287604
-0.24336241 0.14186214 -0.09239924 -0.056275044 0.23767792 0.42916217 0.3315639 0.22966507
0.052466758 0.6172978 -0.24671763 0.19925143 -0.33237422 0.19474763 -0.05626846 0.009508927
-0.020699417 -0.20919867 -0.20886564 -0.05640519 0.14874837 0.010945788 0.017314168 0.047562137
-0.04187867 0.41691723 -0.062357314 -0.11571612 -0.06291447 0.123307995 -0.14649396 0.1691265
-0.32671034 0.7949529 -0.5738821 -0.2565804 0.8255093 0.08490236 0.7738485 0.6651614
-0.40896776 0.34356743 -0.04706621 0.029062022 0.05730812 -0.20268762 -0.05371957 -0.115233816
-0.06400358 0.06525704 -0.28823167 -0.068225235 -0.087803945 -0.12410554 -0.3293792 0.011806411
0.13154268 -0.048357967 0.054989092 0.04550323 0.030317668 0.031841338 -0.009887928 -0.08532572
0.043255866 0.055520657 -0.012086421 -0.027218277 0.03894721 -0.012024872 -0.00533151 0.017311553
-0.0794911 0.032092735 1.0585972 -0.5381743 -0.88528085 -0.2979443 -0.65897584 -0.54955137
1.6515275 1.6084402 -0.46689487 0.18045974 -0.1797105 0.18254597 -0.18230489 -0.14970607
0.11998081 -0.37589 0.016171878 -0.3969904 0.16283542 -0.25624436 0.26260772 0.015059737
-0.11075112 -0.24616331 0.75254285 0.12985724 0.038073823 -0.092954524 -0.06877592 -0.114353456
-0.0710644 -0.035316527 -0.12441283 -0.1976835 0.042476878 -0.12478221 -0.105866104 0.11986575
0.18942752 0.012538903 0.3252493 -0.0059397942 0.7528512 -1.1578686 -1.0190445 0.5538945

final.linears.0.bias f4 [84]
00000000: 707f 083e 3773 0f3e ace0 ae3d f186 793e
00000010: 9340 e63d a7f6 68bc ae9c 593d 9be2 90bd
00000020: 5587 333d 1376 193e 936a 333e c80f a73d
00000030: 1837 033d 6014 073e cad3 563e d7f6 dfbd
00000040: 98c3 6cbd d861 c6bc b2c2 2b3d b0f9 233d
00000050: 7945 913b 59b7 fc3e 772d 063e 51ed 473a
00000060: 0711 fcbc 491c c23d ce54 5dbc 8c76 6cbd
00000070: 9adc d03d 0579 2c3d 2377 0d3d 0abc 293e
00000080: 0ba9 983d 8c37 eb3d 11de fdbc fdb4 b73d
00000090: 848c 773d 4b26 acbb 0a4a debc bbf8 c6bd
000000a0: 0cdc 79be 821b 543e 23ef 6d3d d8d5 7dbc
000000b0: 5fec 393e ff19 a63d 08f7 d53c 67b6 223d
000000c0: fb97 643e c6c6 a4bd b792 8f3c c9f7 2abd
000000d0: 4545 1e3e 37d6 4fbd b7d8 3b3e 9498 f33d
000000e0: 7407 123e c7c9 313e b2ad e53d bc9e 82be
000000f0: 5c5c 043d f29f cd3d 5409 d43d 1d7b a03d
00000100: e56d 8b3e cdb2 573d 47e9 a1bc a272 243d
00000110: 6785 25be ae71 363e d6a0 8c3c 903d b63d
00000120: 43d3 643e f33c 043d 9b42 2d3e e1ff c83d
00000130: fce4 563e 7b75 703d b3cc 43be 8d36 4abd
00000140: 9230 5e3d 2f64 243e c609 153e de73 14be
0.13329864 0.14008795 0.085389465 0.24367882 0.11242785 -0.014218963 0.053127937 -0.070744716
0.043830235 0.14986448 0.17521124 0.08157307 0.032034963 0.13191366 0.20979229 -0.10935753
-0.05780372 -0.024216577 0.041933723 0.040033042 0.0044333306 0.49358633 0.13103281 0.00076266105
-0.030769838 0.09478051 -0.013508989 -0.057730243 0.101983264 0.0421076 0.034537446 0.16575637
0.074541174 0.11485204 -0.030989679 0.08970068 0.06043674 -0.0052535883 -0.027134914 -0.0971541
-0.24400347 0.20713618 0.058089387 -0.015492879 0.18156575 0.08110427 0.02611877 0.039724734
0.22323601 -0.080457255 0.017526014 -0.041740213 0.15456112 -0.0507414 0.18344389 0.11894336
0.14260656 0.17362128 0.112147704 -0.2551173 0.032314643 0.10040273 0.10353342 0.07835982
0.2723228 0.052660752 -0.019764556 0.040148385 -0.1616417 0.17816803 0.017166536 0.08898461
0.22346215 0.03228469 0.16919939 0.0981443 0.20985788 0.058705788 -0.19121055 -0.04936843
0.05424554 0.16053842 0.1455451 -0.14497325

final.linears.1.weight f4 [84, 84]
00000000: c48b dfbd af44 a73c 4085 58be 1d92 bf3d
00000010: ec97 613e fa13 da3d 823d 2bbe d0c5 e23d
00000020: 18de 84bd d849 1cbe 9584 12be 1838 d9bd
00000030: 5e6d d23d 40b3 34bd f606 843c 2c09 cc3d
00000040: d177 053e 5ce5 6d3d 6012 213b 2371 e6bd
00000050: 1a32 4dbe 7088 b0bd fb00 d13d 8b2a 77bd
00000060: 5b0e 41be 9643 f83d 1770 22be 0ef5 253d
00000070: 22dd a6bc b8b4 3abe 71d9 78bd 383f 513d
00000080: 7535 e8bc cd48 113e 1ac5 ba3d 9e42 abbd
00000090: e878 3c3d cf16 b83d 389a 2d3d dfe8 db3d
000000a0: 2c1d 183c ea81 6fbd 507c 15bd 35a4 74bc
000000b0: 9305 cfbc b0c3 673c 7d61 83bc df20 083d
000000c0: bd20 553d a46d 08be 42e1 a0bd e55a f8bd
000000d0: 0ab9 1abe 76a0 bd3e 507a c2bc 9731 8abd
000000e0: 4c7d dd3b e23b 633c 477b 28bd 22fd d2bd
000000f0: fb56 82bd f6ba 92bd e199 a6bd 40cc 013e
00000100: d977 18be d690 0bbd d0b5 a93c eb6b 143e
00000110: 773d 00be 8d2e 69bd a832 dd3d 8ee6 5dbb
00000120: 70cd 54bd 37b0 ed3d 120f 91be 0d03 f53d
00000130: 53cc f63a a650 d3bd 5037 b0bd ffe3 7a3c
00000140: d417 fbbc 8c09 f1bd e0b8 2abd 58a6 733e
00000150: 2dbd 953d 3533 743d c6df 09be b11b 0bbd
00000160: 539b 00bd 912b 39bd 4f08 9a3d 1691 ea3d
00000170: f5e8 eebd 712f 6ebc f3a5 0b3c 1e98 04be
00000180: e2a1 15bd 67bd 65be 336f d5bd 491a 22be
00000190: 798c 1ebe 1f00 41be 1508 74be 2972 273e
000001a0: d634 0bbe c1b9 d33c 3126 dbbd c7d3 8ebe
000001b0: 1646 1dbe 587d d0bd ca84 18be 2481 b0be
000001c0: 01c4 67bd 9fba 99be 04bc 55bd 760d b1bd
000001d0: 4f4c 5abe 9b34 07be 1664 84bd 8180 793d
000001e0: d80a 2dbe 1da2 bfbd fe68 d8bd efee 9ebe
000001f0: b9ac 9e3d 1e89 e2bd 32e2 51be 942d e9bd
00000200: d162 16be b817 73be 4385 1fbe 9827 f1bd
00000210: f372 53bd 6ab7 54be 2529 32be 6be4 f2be
00000220: 6a55 2abe ca71 c9bd 02d6 cebb 03e5 4ebe
00000230: 383a 25be dc0d fe3d f2c8 00be 9503 2bbe
00000240: dcce 38be d6a0 d2be bb30 c23c 79de 0cbe
00000250: 0a9a f7bd a30a 50be 08d1 15be 7303 0fbe
00000260: 0985 893e 7469 41bd 3554 5ebe c043 7dbe
00000270: 3686 85bd 3d45 afbd 8474 f3bd 6f69 13be
00000280: 92b2 38be 9aaa 18be b8f0 1bbe 9771 b2bd
00000290: 7a27 753e e28b 7fbe 6cc8 38bd e464 adbd
000002a0: 0b4e 013e a744 debd 172f 023e dcb7 233d
000002b0: e9c6 803e 964f 043c a455 9f3c a6fb 203d
000002c0: d03d 093d cfe0 81bd 7797 803c 927b c7bc
000002d0: d5e3 473d 1304 963e c917 6f3d d9eb f63d
000002e0: e690 76bc 7400 ae3e 6011 6a3d ed7e 753d
000002f0: 1021 4ebd c2b6 b8bd 61a2 103e ccbc 33be
00000300: c626 d0bc 633b 49bd e892 6e3e 34b1 583e
00000310: 1354 b3bd 29ef 4e3d fcbc 3f3e 73e5 66be
00000320: ac07 a8bd 4494 193d 01f6 ea3d 233c cbba
00000330: fc52 55bd ce66 edbd 3f92 413d e619 a53d
00000340: c660 753d 9574 e83d a769 2fbd 47fc 19bd
00000350: efe2 f83d 285e 9f3c 6150 163d d235 2e3d
00000360: c676 1a3e bd66 0a3c 9cc7 a8bd da9f 533d
00000370: 3784 073e 58dc 98bd 6f8e 4f3d 8ff8 e0bd
00000380: a55f 543c 1072 22bd e4d8 d43c b527 2c3e
00000390: 5abc 5b3d ad5c 9f3c 7d18 5dbe 349c 453e
000003a0: 8fb2 67bd 48d7 58be 39aa 803d 26c9 3d3e
000003b0: fc72 83bd bf2e 90bd e8c3 8c3d cbdb 3f3e
000003c0: c8f2 9f3d dc81 7fbc 8c36 273d 127b 313e
000003d0: c4ad 153d b65a 48bd f605 0abe 79de a73d
000003e0: 4c4f fabd 603d dfbc cbc2 21bd 272b b93d
000003f0: 3fde 9abe afe8 9cbe a81c 82bd 0d71 86be
-0.1091533 0.020418493 -0.21144581 0.09354041 0.2203061 0.106483415 -0.16722682 0.11072886
-0.064876735 -0.15262544 -0.14308389 -0.10606402 0.102747664 -0.04411626 0.0161166 0.09962687
0.13033988 0.058080062 0.0024577603 -0.11252048 -0.20038643 -0.086197734 0.10205265 -0.060343307
-0.18853132 0.12122266 -0.15863071 0.040516905 -0.020369116 -0.18233001 -0.060754243 0.05108568
-0.028345803 0.14187928 0.091196254 -0.083623156 0.046013743 0.089887254 0.042383403 0.10737776
0.009284299 -0.058473505 -0.036495507 -0.014931728 -0.025271213 0.014145777 -0.016037697 0.033234473
0.052033175 -0.13323075 -0.078554645 -0.12126712 -0.1510965 0.37036484 -0.023739964 -0.0674774
0.0067593213 0.013869258 -0.04113319 -0.103021875 -0.063642465 -0.07164566 -0.08134819 0.12675571
-0.14889468 -0.034073673 0.020716578 0.14494292 -0.12523447 -0.05692916 0.108006775 -0.0033859345
-0.051953733 0.11605876 -0.2833181 0.119634725 0.0018829204 -0.10318117 -0.086043 0.015313148
-0.03065101 -0.11769399 -0.041680217 0.23793924 0.07311473 0.059619147 -0.13464269 -0.033961955
-0.03139813 -0.045207564 0.07521116 0.11453454 -0.11665527 -0.014537678 0.008523452 -0.12948653
-0.036531337 -0.22435533 -0.104216 -0.1583034 -0.15483274 -0.18847702 -0.23831208 0.16352142
-0.13594374 0.02584541 -0.10700644 -0.27895948 -0.15358767 -0.101801574 -0.14894405 -0.34473526
-0.05658341 -0.30025193 -0.05218126 -0.086451456 -0.21318172 -0.13203661 -0.064644024 0.060913566
-0.16898668 -0.093570925 -0.10566901 -0.31041667 0.07747788 -0.11061309 -0.20496443 -0.113856465
-0.14686133 -0.23739517 -0.15578179 -0.1177513 -0.051623296 -0.20773092 -0.17398508 -0.47439894
-0.16634145 -0.09836157 -0.006312133 -0.20204549 -0.1613549 0.12404987 -0.12576655 -0.16700585
-0.1804766 -0.41138333 0.023704877 -0.13756742 -0.120899275 -0.20316558 -0.1463052 -0.1396616
0.2685931 -0.04721971 -0.2171181 -0.24732876 -0.06519739 -0.08558128 -0.11887458 -0.14395688
-0.18036869 -0.1490883 -0.15228546 -0.08713072 0.2394084 -0.24955705 -0.045113012 -0.08466509
0.12627427 -0.10852938 0.12713276 0.039970264 0.25151756 0.008075615 0.019450016 0.03930249
0.033506215 -0.06341707 0.015697224 -0.024350915 0.048801262 0.29299983 0.058372293 0.12056703
-0.015049195 0.3398472 0.057145476 0.0599355 -0.0503245 -0.09019233 0.14124443 -0.17552489
-0.025409114 -0.0491289 0.23298228 0.21161348 -0.0875627 0.05052105 0.18724436 -0.22548465
-0.08204588 0.037494913 0.11472703 -0.0015505593 -0.052081093 -0.11591874 0.04725861 0.0806158
0.059906743 0.11350361 -0.042825367 -0.037594106 0.12152659 0.019454077 0.03669775 0.042531796
0.15084371 0.008447346 -0.082411975 0.05166612 0.1323403 -0.07463902 0.050672945 -0.10984909
0.012962257 -0.03965956 0.025982328 0.16812022 0.053646423 0.019453371 -0.21591373 0.19297868
-0.05656677 -0.21175873 0.062824674 0.18533763 -0.06418416 -0.07040166 0.06873304 0.18736188
0.07809979 -0.015594926 0.040823504 0.17332104 0.03654267 -0.048914634 -0.13478836 0.0819673
-0.12222156 -0.027250946 -0.03949241 0.09041434 -0.30247685 -0.30646273 -0.06353122 -0.26258126

final.linears.1.bias f4 [84]
00000000: 34d6 ffbd 0bf4 8fbd 6648 a5bd 41ce 8ebe
00000010: 30ca 20be bd2f ac3d ab76 583b a892 003e
00000020: 6431 edbd 0b1f 503d 8a37 05bc 4717 ffbc
00000030: a404 0a3e 47c9 043e 0aa2 5fbe 3a2b a9be
00000040: 6d05 143e 423d 84be 05ed a2bd bbfa 5b3d
00000050: c055 febd 628a b3be 354f 7abd 6e33 81be
00000060: dd59 72bc c883 833d 32f1 68bd 6eff fabd
00000070: f900 f33c 136a 9dbc b286 1fbe 691c 85bd
00000080: ffa8 15bd 3bcb fdbe 589f 8fbd a2c3 60be
00000090: 6880 5ebf 4626 81be f5a5 943e 100e 2dbe
000000a0: 7e5d 5bbe 94c5 dc3d f0d1 93be c902 4dbe
000000b0: 9249 53be 5bae 003d 65fb ac3d 59cc 293d
000000c0: 25e8 433e a64e 78be d7ef 9ebe f670 643d
000000d0: 82e1 b2be 02bd 9cbe eac8 8b3e 0884 c2bc
000000e0: 5838 e3ba 0ebb 9d3d 47bf 8abd 6806 c13d
000000f0: 7347 0f3e 0215 bf3b 793d 56be efea 87bd
00000100: a8f7 853d 31f5 09be 1aba 81bd 6355 86be
00000110: 21af a4bd 885e 9ebe 6011 6fbe 7c64 2ebe
00000120: bfcc a6bd 908b f2be 6eea 5e3d 1d18 a3be
00000130: 9b25 b23c 3f53 f5bd 7786 8cbd c577 8a3d
00000140: d196 873d 4e00 fe3d aaba 8cbe 6f20 4ebd
-0.12492028 -0.070289694 -0.080704495 -0.27891734 -0.15702128 0.08407543 0.0033029716 0.12555945
-0.11581686 0.050810855 -0.008130917 -0.03113903 0.13478333 0.12967406 -0.21839157 -0.33040792
0.14455195 -0.25827986 -0.07955364 0.053705912 -0.12418699 -0.35066515 -0.061110694 -0.2523455
-0.014791933 0.0642162 -0.056870647 -0.122557506 0.02966355 -0.01921562 -0.15578726 -0.064995594
-0.03653812 -0.49569115 -0.07012814 -0.21949628 -0.8691468 -0.25224513 0.29032865 -0.16899896
-0.21422383 0.107798725 -0.28871107 -0.20020594 -0.20633534 0.03141628 0.08446387 0.041454647
0.19131525 -0.24248752 -0.31042358 0.05577179 -0.34937674 -0.30612952 0.27301723 -0.023744598
-0.0017335517 0.077016935 -0.067747645 0.0942505 0.139921 0.0058313617 -0.20921887 -0.06636607
0.06541377 -0.1347244 -0.06334324 -0.2623702 -0.08041216 -0.30931497 -0.23346472 -0.17030519
-0.08144521 -0.47372103 0.05442279 -0.31854334 0.021746447 -0.119787686 -0.06861585 0.067611255
0.06620563 0.12402402 -0.27486163 -0.0503239

final.linears.2.weight f4 [10, 84]
00000000: b7c9 293d b988 f3bc 005c c6bd 392a 193f
00000010: af08 1a3c 17cb c53c 2b74 c63c 621d bc3d
00000020: 32de e13d 6042 3fbe 4fdc c1bc 6f48 163c
00000030: 5643 e03d d3ba 073c 2711 333c 0ea1 b2bc
00000040: d58e 4f3e ac1a adbe 97c0 233d 057a 53bd
00000050: 41af a5bd cfe2 59be 9b41 febd 4b67 fe3e
00000060: e35a cc3d 0e74 703b 0b86 1e3d 5e35 1e3f
00000070: 68de 8dba 54e2 ffbb 8ec9 08bf 123f e8bc
00000080: 2944 bb3d 795a 2abd bc98 353d 5d89 133e
00000090: 3e3a 95bc 75fe 803e ca59 903b 20b8 64bc
000000a0: 26c7 e4be 4848 e9bc f9c5 b9be 3af2 67bd
000000b0: 86a3 10bc 445d cbbc a666 f33c 9127 e7bc
000000c0: 5f19 273e 8183 d53d 807d 4fbb 9f05 ee3b
000000d0: 922f ec3c a259 523d 7c5a 163d 2ad4 263a
000000e0: c8dc a8bd 4b17 43be 18c0 da3d 2197 033e
000000f0: fc95 ec3c 68c0 9cbd 512a 8d3c e5c6 c43b
00000100: 8286 3d3c aab2 85be c786 d63b eb97 c23d
00000110: fcf0 deba 84a4 983b 0fed 6fbe 6fd0 6abe
00000120: 8f92 03bd e82d 2a3e 8011 243d 5661 e3be
00000130: 34d6 0d3c c64d bebc 0e03 bb3d 4689 083d
00000140: d5fd 493e 83e2 9a3a 13e8 a43e 17be babd
00000150: 09dc 203d a198 5a3c 4e4c ab3d fd93 9b3e
00000160: 7673 cd3b bccf b33c b39a 6c3c 0af2 793b
00000170: 4389 d13e 64e6 833d abb7 d6bb 362c 03bc
00000180: 316f 653d 1676 743c 6d2c 95bd 3cc4 1c3e
00000190: caa2 adbd 6070 45be dc6d bc3d a2f2 a3bc
000001a0: 52b4 8ebc 2a1a 2f3e 4a78 21be 7782 803e
000001b0: c603 babc bc75 2fbc ceae f43b f8f7 c3be
000001c0: 4992 283e ef5d e23c d002 6abe 008d c03d
000001d0: dad0 8c3d eba0 79bc b9de 9e3d 40ab 603e
000001e0: 47fd 463b dbf7 0bbf 2767 6fbc 1cbd 0cbd
000001f0: 2507 1b3f 1606 bb3c e97e 2cbe bb6e 20bd
00000200: 3a23 393d a285 c33d 2fd7 ef3d 93ae b7bd
00000210: 06e8 653e 216d 0a3d 09dd 7a3c 419b a2bd
00000220: 7558 0e3f 1a80 f03d 667b 86bb a222 c8ba
00000230: 8047 28bd bd78 b23d 525b 29bd 3492 2fbe
00000240: c5f7 20bd a3f2 8dbd f2bf 4abc 4140 3bbc
00000250: 6977 0cbc 3043 653d 4d2f f03c 4c88 b1bd
00000260: 6986 56bb 55f8 1b3e 172b e6be 70fa 2cbf
00000270: a514 91bd e0e7 623d d265 bfbd a452 0b3e
00000280: 5eb8 823b d09c a63c ab4d 2dbe d912 cabd
00000290: 4055 99bd 1b22 35be 22fe 73be 5112 10be
000002a0: d661 4fbd f3ae 1ebe ab22 98bd 663a 00be
000002b0: 11e6 163c e5f2 d43c f01e e0bc e576 5a3d
000002c0: 26d1 8b3e 4d0d 3f3e aa19 083c 8c78 10bc
000002d0: c55c 07be 7538 443a f3ab ed3c ee55 b83c
000002e0: 01bc 3e3d 43c2 873e fa5a de3c 35d7 903d
000002f0: 871e 0ebe a227 0cbf 9aac 10be 517b 523f
00000300: df2e 24bd 5bd8 9e3b 40d7 c6ba d0c8 03bf
00000310: 3565 84bd 7a7a 333b 218c ccbd 6e56 1f3d
00000320: b3fb 19bd 7ff1 433d eba7 f83c 7dca 4a3e
00000330: 4b5c c33b b082 153f 6a94 0c3c 4cc5 00bc
00000340: c9d6 d0bd ee02 17bc f29f 98bd baa0 7b3d
00000350: bd95 19bc e144 b3bd 7c44 1cbe 9c3e 013e
00000360: 87cd 4a3e bcf7 a1bd 5d98 a4ba 619c cbbc
00000370: 9521 0dbf a938 a33d b07f 90bc 5ae2 cb3c
00000380: 1144 3abd de47 59bd c910 bc3d bdbe 0f3e
00000390: 8972 413c a944 073d cf1b 77bc 9d08 0a3b
000003a0: b384 973b e2d6 923e 358d b3bb 4164 95bc
000003b0: 58c3 b7ba bc13 c6bc 115b 353e 718b 7dbe
000003c0: 5659 d7bc cd60 0f3d b34e 273d 728b 143e
000003d0: feb1 a23b 9561 90bc da9d 2a3d f7eb c03d
000003e0: ca23 54be 7c5d 523d 2043 bebe d38c 1ebd
000003f0: 6ec7 73bd 1b93 68be c87c 163d ab96 77bd
0.041452136 -0.02972828 -0.09685516 0.5983005 0.009401484 0.024144692 0.024225315 0.09185292
0.110287085 -0.18677664 -0.023664622 0.009172543 0.10950343 0.008284288 0.010929382 -0.021805312
0.2026933 -0.33809412 0.03997859 -0.05163004 -0.08090068 -0.21277927 -0.12414857 0.4968818
0.09978273 0.0036690268 0.038702052 0.6180018 -0.0010823729 -0.007808963 -0.5343255 -0.028350387
0.0914386 -0.041590188 0.044335112 0.14407869 -0.018216249 0.25194135 0.004405235 -0.013959914
-0.44683188 -0.02847685 -0.36283854 -0.05662749 -0.0088280495 -0.024824746 0.029712033 -0.028217109
0.16318272 0.10425473 -0.0031660497 0.0072638537 0.028831277 0.05135501 0.036707386 0.00063640124
-0.08245236 -0.19051854 0.1068117 0.1285062 0.028880112 -0.07653886 0.017232092 0.0060051554
0.011567714 -0.26112872 0.0065468284 0.09501632 -0.0017009075 0.0046582837 -0.23430274 -0.22931074
-0.03212219 0.16619074 0.04005575 -0.444102 0.008657027 -0.023230445 0.09131442 0.03333404
0.19725735 0.0011816773 0.3220831 -0.09118288 0.039272342 0.013342054 0.08364163 0.30386344
0.0062698675 0.021949641 0.01444118 0.0038138651 0.40925035 0.06440428 -0.0065526566 -0.008006146
0.056014244 0.014920732 -0.07283864 0.15309232 -0.08478315 -0.19281149 0.092006415 -0.020013157
-0.017419968 0.17099825 -0.15768543 0.25099537 -0.022706877 -0.010709222 0.0074671274 -0.38275123
0.16462053 0.027632682 -0.22852635 0.094018936 0.06875773 -0.01523612 0.07757325 0.21940327
0.0030363367 -0.5467507 -0.014611996 -0.034360036 0.60557777 0.02283005 -0.16845287 -0.0391681
0.04519961 0.09546973 0.11710965 -0.08968844 0.22451791 0.03379548 0.015311488 -0.079397686
0.55603725 0.117431834 -0.0041040657 -0.001526911 -0.041083813 0.08714435 -0.041346855 -0.17145616
-0.03929879 -0.06931045 -0.012374865 -0.011428894 -0.0085733915 0.055972278 0.02931943 -0.08668575
-0.0032733923 0.1523145 -0.4495475 -0.6756964 -0.07084016 0.055396914 -0.093455926 0.13605744
0.0039892634 0.020338446 -0.16924159 -0.09866876 -0.07486963 -0.17688791 -0.23827413 -0.14069487
-0.050630413 -0.15496425 -0.074284874 -0.12522277 0.009210126 0.025994727 -0.027358502 0.053336043
0.27308005 0.18657418 0.0083069 -0.008817803 -0.13218983 0.00074852194 0.029012656 0.022501912
0.046566013 0.26515397 0.02714299 0.070722975 -0.13878833 -0.54747975 -0.14128342 0.82219416
-0.040083762 0.004847569 -0.0015170351 -0.5147829 -0.06464616 0.0027386234 -0.09987665 0.038900785
-0.037593555 0.04783773 0.030353507 0.19803806 0.00596193 0.5840254 0.008580307 -0.007859539
-0.10197217 -0.009217007 -0.07452382 0.061432578 -0.009374079 -0.08753372 -0.152605 0.1262154
0.19804965 -0.0790858 -0.0012557615 -0.02485484 -0.5512937 0.079697914 -0.017639011 0.024888206
-0.04547507 -0.053047054 0.09182889 0.14037605 0.011807092 0.033024464 -0.015082314 0.0021062263
0.0046239733 0.28679568 -0.0054794797 -0.018236281 -0.0014020009 -0.024179332 0.1771052 -0.24760224
-0.026287716 0.035004426 0.040846538 0.14506319 0.004965066 -0.017624656 0.041654445 0.09420007
-0.20716777 0.051358685 -0.37160587 -0.03870852 -0.059516363 -0.22712366 0.036740094 -0.060446423

final.linears.2.bias f4 [10]
00000000: 8ffe 1e3b 2531 37bd be0e 78bc 6e93 ca3c
00000010: 57e0 ccbd 3a86 83be ac33 4b3c 3537 e6bc
00000020: 00c9 a8bd d88d 573d
0.0024260615 -0.044724602 -0.015140234 0.024728503 -0.10003727 -0.25688344 0.012402456 -0.028102497
-0.08241463 0.052625507

layers.0.attn.0.gnn_q.weight f4 [10, 16]
00000000: 8c63 263b 47fb 45af 52c2 04b7 5761 8f3b
00000010: 61ff 4da7 eefd c0ac 054e ddb9 8ce0 c02a
00000020: 09b9 34bb 113a 122a 10a2 81a8 6038 7a35
00000030: b53b b5ac f099 ff2d 7e7f cab8 125f a92e
00000040: ddea a7bc c21c d6ae 3548 0a38 e645 81bb
00000050: 87d5 f828 12a8 d2ad 75ba 2c3c bd8a 39ab
00000060: 395f 82bc a147 892b 9d51 c2a8 2a54 0737
00000070: 4c95 2dad f128 27b0 74c9 9039 dc46 62ae
00000080: 609f a13b 5297 59ad f595 30b7 4a1f 52bb
00000090: a137 0028 d032 6b2e 9dd3 46bb 1697 ee29
000000a0: c31e 8f3b 8016 ed27 1ac1 88a8 fa93 0bb6
000000b0: 7a18 f4ac 2a79 8a2e fabd 2ab9 5015 1e2d
000000c0: 61cb debd dab8 2d2e 98a9 1bb8 0e55 15bd
000000d0: 2ad2 9ea7 1d49 9daf 8cf9 a93d eeae 172a
000000e0: 3bb6 ccbd 9587 8c2b 49ab 5228 8fee 42b7
000000f0: a290 3c2d bbef 4eb0 c585 d6b9 6fa0 d4ae
00000100: 898b 20be 6651 272f be84 e5b8 5278 82bd
00000110: f1d3 0f29 e9a0 4baf 7635 fe3d 9491 6bab
00000120: 6e10 1abe 3b2e 352c 840a c8a7 8da6 09b8
00000130: b4a6 c3ac 3ac4 9db0 970f 9eba c7b0 8daf
00000140: 4121 dabd f1e3 f82e 80f0 05b8 b866 1fbd
00000150: 2c04 7a28 1769 0c2f 4a45 ac3d 150b b8aa
00000160: 8902 cfbd d2c4 9c2b f6df eb27 06e7 30b7
00000170: 2d28 b82c 245b 8fb0 ae25 f9b9 fd6f ecae
00000180: b49f b1bb 970b ccae 5f54 4638 e097 0abc
00000190: b6f8 1ca8 4b36 37af 10b4 553c 0527 002b
000001a0: e0f4 15bc 78df 2aab a8e3 ec27 31e9 8137
000001b0: a691 dbac 72f2 0330 abfd 103a b5ec b12e
000001c0: 04d4 2f3d 5379 83af 5952 3738 754e 2e3c
000001d0: 1f54 aa28 4e01 4cae cc13 01bd 0dff 3fab
000001e0: 9543 223d 05f8 232b 6413 0da9 456f 5037
000001f0: c85b e7ac 8749 a4af d0a6 e239 c4d1 2c2e
00000200: dcc4 14ba 3d51 a22e d455 94b7 123e b5b9
00000210: 9494 00a8 be97 e9ad 66eb 96b9 f916 812a
00000220: 543c ba3a cddb ec29 22f0 8028 e07a 9bb6
00000230: 5816 932c 875c 36af 6e6b 56b9 7196 ecad
00000240: c8e6 2bbd a8a7 e82e b60a a9b8 f08c dcbc
00000250: 594e 0ca8 d187 be2e b5e9 173d ffcc e62a
00000260: deb3 31bd a565 f72a 47e8 7728 f169 c2b7
00000270: 0b9a 8f2c f687 b3ae 9d6f 65ba 5652 95ae
0.0025388924 -1.8006317e-10 -7.913057e-06 0.0043756175 -2.8587906e-15 -5.48516e-12 -0.00042210534 3.4261862e-13
-0.002757611 1.2987551e-13 -1.439216e-14 9.3214294e-07 -5.1509582e-12 2.9058506e-11 -9.655858e-05 7.702118e-11
-0.020497734 -9.736702e-11 3.2969012e-05 -0.0039451 2.7626134e-14 -2.3948874e-11 0.010542502 -6.591774e-13
-0.015914546 9.754316e-13 -2.157372e-14 8.066223e-06 -9.867062e-12 -6.081243e-10 0.00027615915 -5.1449386e-11
0.004932329 -1.2368622e-11 -1.0525332e-05 -0.0032062107 7.11749e-15 5.3477944e-11 -0.0030338534 1.05955324e-13
0.0043676808 6.580511e-15 -1.5182778e-14 -2.0798748e-06 -6.9376145e-12 6.2970365e-11 -0.00016283235 8.9859925e-12
-0.10878635 3.9499827e-11 -3.7112826e-05 -0.036458068 -4.408167e-15 -2.8610084e-10 0.082995504 1.3472185e-13
-0.09995695 9.98523e-13 1.1694483e-14 -1.1618845e-05 1.0718678e-11 -7.528304e-10 -0.00040916927 -9.6691426e-11
-0.15678228 1.521748e-10 -0.00010944296 -0.063706055 3.193621e-14 -1.8519909e-10 0.124125406 -8.36908e-13
-0.1504533 2.574731e-12 -5.5522552e-15 -3.2818458e-05 -5.560741e-12 -1.1479024e-09 -0.001205909 -2.5773358e-10
-0.10650874 1.1318225e-10 -3.1933654e-05 -0.03891632 1.38786924e-14 1.2770261e-10 0.08411653 -3.2692656e-13
-0.101079054 1.1139095e-12 6.546842e-15 -1.0544207e-05 5.234055e-12 -1.0430523e-09 -0.00047521055 -1.07519306e-10
-0.0054206494 -9.278905e-11 4.7285455e-05 -0.008459061 -8.71367e-15 -1.6663042e-10 0.0130434185 4.5528886e-13
-0.009152621 -6.070626e-13 6.5749984e-15 1.5486587e-05 -6.2405246e-12 4.800206e-10 0.00055309635 8.091076e-11
0.042926803 -2.3914967e-10 4.3707292e-05 0.010638823 1.8910273e-14 -4.638539e-11 -0.03151302 -6.8210785e-13
0.039615232 5.825343e-13 -3.1325108e-14 1.2423673e-05 -6.5756046e-12 -2.988367e-10 0.00043230364 3.929458e-11
-0.0005675086 7.381338e-11 -1.7682942e-05 -0.00034569256 -7.137645e-15 -2.655642e-11 -0.00028785615 2.2930944e-13
0.0014208653 1.0518635e-13 1.4314996e-14 -4.6336645e-06 4.180472e-12 -1.6585676e-10 -0.00020448651 -2.6896903e-11
-0.041968137 1.057992e-10 -8.060543e-05 -0.026922673 -7.78855e-15 8.6643255e-11 0.037088115 4.0998452e-13
-0.043384425 4.3946544e-13 1.37616215e-14 -2.3175935e-05 4.0814067e-12 -8.164129e-11 -0.00087522884 -6.790361e-11

layers.0.attn.0.gnn_q.bias f4 [16]
00000000: 362e 06be c7dc a7af 64dd 7b38 5fe8 46bd
00000010: 96e4 8d28 e363 acae 4ee0 d73d 1691 c7aa
00000020: a78a f2bd c6c1 0bab 8d93 3aa9 bf3c 9f37
00000030: cf18 eaad 14db c42f 2772 3a3a b002 fe2e
-0.13103566 -3.0533995e-10 6.004925e-05 -0.04856145 1.5753278e-14 -7.839398e-11 0.105408296 -3.5450175e-13
-0.11842852 -4.9651635e-13 -4.1428276e-14 1.8982564e-05 -2.6613737e-11 3.5807857e-10 0.0007112347 1.155106e-10

layers.0.attn.0.gnn_k.weight f4 [10, 16]
00000000: 528a 333a c69a 34af 5dd6 9636 bbbd c7bb
00000010: 5e8f e727 6c6f 1cae 54e3 e7b8 5a0d 17ab
00000020: 1c20 80ba 101f b3aa 4af9 62a8 a86e 13b6
00000030: 311e 09ad 8d5a cc2f 06a5 b4b8 a6c6 a72e
00000040: aba6 a43c 8c34 02ae e29a ec37 9e34 aa3b
00000050: 0ed8 f4a8 8de7 9a2e 627e 2abc 4007 402b
00000060: 5991 873c 5abe 8fab dd52 f028 0033 1537
00000070: 0b62 1a2d bf64 1930 3f00 a339 19be 9a2e
00000080: 5386 adbb 86f4 1bae 16fa 1fb7 3ad0 2f3b
00000090: eb06 faa7 aa31 ca2d 547d 443b bbd8 82a9
000000a0: 3030 8fbb 5f1d e0a9 0007 0625 10bd 1ab6
000000b0: 1f7b 052d 1b5e d72e fb9f 0fb9 f844 e52d
000000c0: 3cb4 e43d c83a f62e 0a5a 1fb8 17a9 0a3d
000000d0: 7cff aba6 6b9d 90af 2497 abbd 7cf0 252a
000000e0: 7862 c23d fe00 1a2a f78f 8728 ad55 3cb7
000000f0: e0ce 74a9 13f2 822f c492 ccb9 b595 91ae
00000100: ee45 253e bd69 972f c47a e5b8 aa86 743d
00000110: 0938 3ea9 7564 c4ae 5906 00be 69b2 9e2b
00000120: f581 143e 7011 27ab 0fdb 8429 a5f1 05b8
00000130: 5cd8 f92d e679 bc2f 0f3a 9bba 3b5d a4ae
00000140: 40ba df3d 66b1 8c2f 359f f7b7 4bff 183d
00000150: 9e78 b4a8 2867 cc2f 1021 adbd 888a 1a2b
00000160: 1c50 c93d 2287 7eab 82d1 3629 5944 25b7
00000170: 0075 802d 2007 d62f ecd8 e8b9 006e 9cad
00000180: 0f05 b53b c359 46af c9eb 5638 edb5 0b3c
00000190: 0e4e 5b28 b3c5 a4af 17a5 56bc deac 21ab
000001a0: 0e1a 143c 3929 072a dbc1 dfa8 7366 8537
000001b0: 0a18 d4ac 6add 85af 3fdb 0f3a dd3a 682e
000001c0: 6ac6 34bd 5f6f 0eaf f2e4 4e38 4ad4 21bc
000001d0: bbcf 2fa8 07cc 25af 79a2 013d 2384 e72a
000001e0: d94e 1ebd a615 f4ab 0347 54a8 d1ba 7637
000001f0: 426b 6aad 92f5 8b30 1402 e939 d865 152f
00000200: 1a2f 9bb9 c282 812e 84d3 86b7 770d ba39
00000210: 872e 1927 5e09 1cae 5e99 eb39 b916 2aaa
00000220: f61c a6b9 42e5 072b 7381 8b28 9225 c5b6
00000230: 7947 7a2c bcf6 d7af 4a1c 6eb9 3e8e 95ae
00000240: 9e9b 353d 6b2c f42e e833 a7b8 5285 c43c
00000250: 04b3 a127 70ce a9ac 3031 1abd 9f7a efaa
00000260: b57a 243d 2b39 072b 10c6 1028 1e0e c1b7
00000270: 26dd 822c 6c03 85ae c23b 6cba 075a bdae
0.00068489194 -1.6425891e-10 4.4953035e-06 -0.0060956157 6.427082e-15 -3.5569256e-11 -0.000110572815 -5.3664506e-13
-0.0009775194 -3.1818341e-13 -1.2599576e-14 -2.1969117e-06 -7.794252e-12 3.7171724e-10 -8.613807e-05 7.629568e-11
0.020099005 -2.960525e-11 2.8205515e-05 0.0051942607 -2.718314e-14 7.044241e-11 -0.010406109 6.8222164e-13
0.0165488 -1.0213594e-12 2.6681289e-14 8.892966e-06 8.775656e-12 5.5804245e-10 0.00031089966 7.036877e-11
-0.0052955537 -3.54601e-11 -9.535366e-06 0.0026826994 -6.939644e-15 2.2986796e-11 0.0029981928 -5.8107565e-14
-0.004369758 -9.9526934e-14 1.1625019e-16 -2.3057837e-06 7.587513e-12 9.7937845e-11 -0.0001369714 2.6064914e-11
0.111671895 1.11972265e-10 -3.799241e-05 0.033852663 -1.1934758e-15 -2.63053e-10 -0.08378437 1.4738379e-13
0.09491438 1.3678292e-13 1.5050446e-14 -1.1225621e-05 -5.435832e-14 2.3818866e-10 -0.0003901926 -6.62043e-11
0.16139957 2.7541872e-10 -0.00010942438 0.05969874 -4.2237078e-14 -8.930893e-11 -0.12502421 1.1276094e-12
0.145027 -5.935452e-13 5.899978e-14 -3.193472e-05 2.8404105e-11 3.4283615e-10 -0.0011842864 -7.4744176e-11
0.10924196 2.55919e-10 -2.9518831e-05 0.03735284 -2.0036324e-14 3.718068e-10 -0.08453572 5.490404e-13
0.09829733 -9.042646e-13 4.0593837e-14 -9.85068e-06 1.4603874e-11 3.8931436e-10 -0.00044412108 -1.7783996e-11
0.0055242847 -1.8039885e-10 5.1241168e-05 0.008527261 1.21738675e-14 -2.99719e-10 -0.013100884 -5.743859e-13
0.009039415 1.200471e-13 -2.4842045e-14 1.5902542e-05 -6.0280713e-12 -2.4349883e-10 0.00054876873 5.2802974e-11
-0.044134535 -1.2954392e-10 4.932745e-05 -0.009877274 -9.759496e-15 -1.5079148e-10 0.031649087 4.112553e-13
-0.038649414 -1.7343251e-12 -1.1783762e-14 1.4706239e-05 -1.3325176e-11 1.0183376e-09 0.00044442771 1.3587653e-10
-0.00029598997 5.889468e-11 -1.607254e-05 0.00035486717 2.1258238e-15 -3.5478613e-11 0.0004493696 -1.5106917e-13
-0.00031683565 4.8279794e-13 1.548824e-14 -5.8754313e-06 3.5566812e-12 -3.9283587e-10 -0.00022707987 -6.801003e-11
0.04433786 1.11037256e-10 -7.972849e-05 0.023989353 4.4880566e-15 -4.826188e-12 -0.037644565 -4.2540014e-13
0.040156085 4.804097e-13 8.036554e-15 -2.3013967e-05 3.7193746e-12 -6.0487476e-11 -0.000901159 -8.610717e-11

layers.0.attn.0.gnn_k.bias f4 [16]
00000000: 43bf ff3d 1654 8daf fc0e 8e38 2c4c 513d
00000010: aba2 c8a6 8989 83af db15 d6bd 55f8 b4a9
00000020: 212b ff3d 0ebc aeab 9f01 19a9 a8da a037
00000030: bc05 35ad 2afe 1830 f9c8 263a 4744 2a2f
0.12487652 -2.5707497e-10 6.773879e-05 0.051098034 -1.3921879e-15 -2.3926486e-10 -0.10453387 -8.0366845e-14
0.12459398 -1.2415639e-12 -3.397423e-14 1.9175306e-05 -1.0289932e-11 5.5658467e-10 0.0006362345 1.5485667e-10

layers.0.attn.0.gnn_v.weight f4 [10, 16]
00000000: 67e8 d63e 3ee4 73bc 58dd 6e3f 9084 113e
00000010: 7ae3 213f 60fc 5abe 0a13 73bf 7d1d 3cbf
00000020: 135c 2c3e 8bcc 3e3f a41e 1abe c9e1 e2be
00000030: 3e27 5ebf 21c9 94be ff7b 6a3f 0214 b13f
00000040: 34d1 b4be 9633 90bf a829 96be 2ad4 353f
00000050: 83ca 103f 01f8 8ebe 3b79 07be 54e1 66bf
00000060: 2a9a 0abe 9aab febe 8dac a43e c089 6f3e
00000070: c79f 30be 9a58 383f ee6f 773e 80fe 30bf
00000080: 55f6 093e 266e 073f c9aa 06be 80f4 a7be
00000090: 9803 babe 95ed a43d 5f33 573e 53fd 213f
000000a0: 466f 123c ce7c f93b 6cd1 3ebd 5d5a 76bd
000000b0: 4891 843e 7469 c9be a2d4 93be 795f 6dbc
000000c0: ed70 9d3d 5450 bb3d ea7d 903e 8037 5ebe
000000d0: 84bc b6bb f214 64be 1966 893d 7fe8 de3d
000000e0: 724f f9bd 5464 25be f4cd 003e dfb2 92bb
000000f0: ce2d aabb fa71 13be d853 d2bd 9b72 25be
00000100: 3a27 c53d 9353 643d d129 8fbd d621 a3bd
00000110: 2461 87be 33c3 b83a d4ff f63d 1285 813a
00000120: c6d0 6ebe a965 d5bd c7ee 823d 327d cdbd
00000130: b978 633d cb9c a13d 9694 5abd 2bc4 e43d
00000140: 5055 323e 6ceb 9abd 5ac1 0abf a1ab 1e3e
00000150: 48e4 bfbd c727 b13e 4d7a 083e 6984 48bd
00000160: fe9a 40be da53 f83d 5ed4 62be dc8d bfbe
00000170: c725 803e 4026 393e 9097 4ebd 0658 b43e
00000180: fe01 78bd 13ba 983c 7cfa 3bbe 0fe7 c0bd
00000190: b382 0fbe f6e8 123e bacf cf3d d510 be3c
000001a0: 8d43 b5bd 59b3 48bd 22b9 0bbd 754f a3bc
000001b0: be37 223d 78a8 4f3e dd33 4c3c c86e 243e
000001c0: c2df 323e 3ab8 3d3d 6ff7 613e 4320 95be
000001d0: ce73 513e 102f 10bf acae 6abd 86e0 1e3e
000001e0: 13a5 db3d f908 4dbe 3d17 ec3e f566 ae3d
000001f0: 6b43 cf3d 550e c4be 8d8b 48be 26a0 39be
00000200: a463 203d 8a9e bdbd 5054 29be df2a 44bd
00000210: 8f85 12bd 752f d93d 8744 8f3c c8f5 223d
00000220: 273f 4bbd 28b2 5d3d f923 cbbd 415c a5bd
00000230: dea4 023e f4c9 403d 9cec c6bc e1ee ab3d
00000240: a84a c13e de9e 1e3f cadb 903d 725c b6be
00000250: b03a 88be c54e 6b3d 25c5 673c a1f5 0e3f
00000260: 8ba4 73bd e49c 373e f52e 2cbe 4c77 93be
00000270: 77e1 733e 7c57 1fbf f60c 2abe 4c62 ac3e
0.41974184 -0.01488596 0.93306494 0.14210725 0.63237727 -0.21385336 -0.94950926 -0.73482496
0.16831999 0.7453086 -0.15050751 -0.44312885 -0.8677863 -0.290597 0.91595453 1.3834231
-0.3531586 -1.1265743 -0.29328656 0.7102686 0.5655901 -0.27923587 -0.1322984 -0.90187573
-0.13535371 -0.49740297 0.32162896 0.23392391 -0.1724845 0.72010195 0.24163792 -0.69138336
0.13472874 0.5290245 -0.13151087 -0.32803726 -0.36330867 0.08053128 0.2101569 0.6327717
0.0089376625 0.007613755 -0.04658644 -0.06014477 0.2589209 -0.39338267 -0.28873163 -0.0144880945
0.076875545 0.09146181 0.28221065 -0.21700859 -0.005576672 -0.22273615 0.06708927 0.10884189
-0.12173356 -0.16151553 0.12578565 -0.0044768895 -0.0051934486 -0.14398947 -0.10269898 -0.16157
0.096266225 0.055743765 -0.06990398 -0.07965438 -0.264413 0.001409626 0.12060514 0.0009881577
-0.23321828 -0.10419781 0.063931994 -0.10033645 0.055535052 0.07891234 -0.05336436 0.111702286
0.17415357 -0.075644344 -0.5420128 0.15495159 -0.09369713 0.3460066 0.13327904 -0.0489544
-0.18809125 0.121253684 -0.22151324 -0.37412918 0.25028822 0.18080997 -0.05043751 0.35223407
-0.060548775 0.018643415 -0.18357271 -0.09419071 -0.14014702 0.1434668 0.101470426 0.023201386
-0.08850775 -0.048999164 -0.034112103 -0.019935349 0.03960394 0.2027911 0.012463537 0.16057885
0.1746817 0.04631827 0.22067045 -0.29126176 0.20454332 -0.5632181 -0.057295486 0.15515336
0.10724845 -0.20022954 0.4611148 0.08515731 0.10120281 -0.38292184 -0.19584484 -0.18127498
0.039157525 -0.092587546 -0.16536069 -0.047892448 -0.035771903 0.10604755 0.017488731 0.039785177
-0.049620774 0.05412498 -0.099189706 -0.08074237 0.12758204 0.047067598 -0.024282746 0.08395172
0.3775227 0.6196116 0.070731714 -0.35617405 -0.26607275 0.057448167 0.014146124 0.5584355
-0.059483092 0.17930943 -0.16814788 -0.28801954 0.23816477 -0.62242866 -0.16606507 0.33668745

layers.0.attn.0.gnn_v.bias f4 [16]
00000000: 9082 7abd 7b19 d1bc 2fb8 06be 061d bb3d
00000010: 7ac9 6e3c a7df 053e b958 89bd e35c 1ebd
00000020: a0bb e53d 60a4 f43d 691d a9bd 44ed 093d
00000030: 0bd1 aebc 4de0 6d3d d88e 9b3d f76b b63d
-0.06115967 -0.025524845 -0.13156198 0.09136395 0.014574403 0.13073598 -0.06706376 -0.038662802
0.11217427 0.119454145 -0.08257563 0.03367354 -0.021339914 0.058075238 0.07595605 0.089073114
