checkpoints/bbb_martins_50_train1_neg/Aug22-05:39:42_900.pth (torch, 383295 bytes, 294 tensors)

layers.0.weight f4 [11, 16]
000000 3c 14 db bc 5a 69 47 3f d8 14 a9 be 7d 0f 73 3e
       -0.026743047 0.7789513 -0.33023715 0.23736377
000010 c5 8f e0 be 3e 2b 87 3f f6 6b 01 3e bf 26 8d 3e
       -0.43859687 1.0560071 0.1263884 0.27568623
000020 6a 73 c8 3f ee f0 40 bf eb 86 37 be a0 ca 36 3d
       1.5660222 -0.7536763 -0.17922561 0.044626832
000030 44 a3 46 3f 66 81 f2 3e 63 0d fb 3e 1e 03 91 be
       0.77592874 0.47364348 0.4903365 -0.2832269
000040 e6 e6 e0 3e 68 d4 80 be 1c 9f 2f bd 78 ce 7f 3f
       0.43926162 -0.25162053 -0.042876348 0.9992442
000050 de da e0 be 69 5b 4a bf 00 7d 05 3e 88 fe 58 3f
       -0.43916982 -0.7904573 0.13035965 0.84763384
000060 cb d9 d5 be 1f be 8b be ca 92 96 bf a8 f2 94 bd
       -0.41767725 -0.27293488 -1.1763546 -0.072728455
000070 36 2d 88 3e 7a 63 a7 bf 76 ca ab 3f 0f 68 3d bf
       0.26596993 -1.3077233 1.3421161 -0.73986906
000080 99 aa 39 3f b5 39 f3 3c 3a 3a 14 bf a3 d1 0d 3f
       0.72525936 0.029690603 -0.57901347 0.55398005
000090 24 9c 8d 3e 8f ab 14 3f d0 1c 76 bf 80 c0 22 bf
       0.27658188 0.5807428 -0.96137714 -0.6357498
0000a0 6a 5f a4 be 9c 2d c1 3e 19 7d cb 3e f6 68 f5 3f
       -0.32104045 0.3773011 0.3974388 1.9172657
0000b0 e2 83 37 3f bb 30 94 be bc 27 01 3f 8e ed 10 3f
       0.7168561 -0.28943428 0.50451255 0.5661248
0000c0 1b 9f 1b 3f c3 1b 9d bf 26 1c 8d bf 2b a6 a5 be
       0.6078965 -1.2274097 -1.1024215 -0.3235334
0000d0 29 dd 21 bd ab 17 1a 3f fa 85 00 3f 73 79 90 3d
       -0.039517555 0.60192364 0.5020443 0.070544146
0000e0 87 95 e3 bd 9f 89 8a 3e c3 3f 80 3f f6 18 09 bf
       -0.111125045 0.27058122 1.0019459 -0.5355371
0000f0 64 5c 3c 3e 47 bc 34 bd 23 fb 20 3f f2 2b f7 be
       0.18394619 -0.044124868 0.62883204 -0.48275715
000100 08 db ef 3e e8 35 b2 bf b6 6d 30 3f 3c 24 f2 bd
       0.46846795 -1.3922701 0.68917406 -0.118233174
000110 78 16 ab bd 4f 84 9e 3e 07 f5 21 3f 67 2e 54 be
       -0.08353895 0.30960318 0.6326451 -0.20720826
000120 0a a4 e4 3e 07 ee 3e bf 2a 80 df be 0d 1e e3 3e
       0.44656402 -0.7458195 -0.4365247 0.44358864
000130 f3 d0 95 be e1 37 5a be 80 63 e4 3e c6 cf 92 3f
       -0.29260978 -0.21310379 0.44607162 1.1469657
000140 cb 70 92 be dc f9 d2 be ec 43 93 3e ee 99 2e 3d
       -0.2860168 -0.41206253 0.28762758 0.042627268
000150 34 9c 07 3f 36 9c 06 3f 7a 44 ad 3e de 9d a2 bf
       0.5297272 0.5258211 0.33841306 -1.2704427
000160 bf 6e 0f bf d8 c0 0e be 09 a4 20 bf f2 7d 7e 3d
       -0.5602836 -0.13940752 -0.627503 0.06213183
000170 4d cc 41 3f 14 fa 7c 3f 76 06 6a bf 39 b6 32 bf
       0.75702363 0.9881909 -0.9141611 -0.698093
000180 68 ff d0 3e b0 da 8b 3e ff a9 d4 be 11 58 9b bf
       0.4081986 0.27315283 -0.41535947 -1.2136251
000190 a1 68 7b bd b9 ac be bd d1 ee c2 be 34 17 4e bf
       -0.06137908 -0.09310288 -0.38072827 -0.80504155
0001a0 a2 53 ee be 99 c7 49 bf d3 fe 89 bf db 8d 72 bd
       -0.46548182 -0.78820187 -1.0780891 -0.059217315
0001b0 a3 0c 2f bf 0c 99 07 3d d7 27 c9 3f 7c b6 88 be
       -0.6837866 0.03310494 1.5715283 -0.26701725
0001c0 b8 08 1b be a5 16 e7 be 3d e1 12 bf a2 0e 20 3e
       -0.15140045 -0.45134464 -0.57374936 0.15630582
0001d0 05 dc a1 be 0c 29 55 bf b1 f3 99 be e7 92 74 bf
       -0.31613174 -0.8326576 -0.30068734 -0.95536655
0001e0 f4 d3 0d 3f be a3 35 bf 1e a0 3e 3d 2a a2 89 3d
       0.5540154 -0.70952976 0.04653942 0.067203835
0001f0 3c da 67 be 0e 64 9d bf da 0a 9f bf 8d fc 00 bf
       -0.22641844 -1.2296159 -1.2425187 -0.5038536
000200 f9 4a 05 3f b9 5c 2a 3e 6e e9 40 3f 5f a6 ca 3d
       0.52067524 0.16636933 0.75356185 0.09895014
000210 ee 6c 8a bf ac 67 83 3f 05 6a 0f be 80 20 90 bd
       -1.0814493 1.0266013 -0.14005287 -0.07037449
000220 8c 8e 03 bf 78 a2 20 bf 9f e4 fc 3e 4e 81 4a be
       -0.51389384 -0.6274791 0.49393174 -0.19775888
000230 f7 f4 5a be 2f 75 82 bf 35 a2 47 3d 9a 40 1f bf
       -0.21382509 -1.0192012 0.048738677 -0.6220795
000240 bb 37 24 3e 12 16 a2 bd 6f 62 11 3f 35 8a ee 3e
       0.16036884 -0.07914366 0.5679082 0.4658982
000250 aa 9d 08 3f 3f a4 bd bf ff 5c a2 3d 24 90 37 be
       0.53365576 -1.4815749 0.07927894 -0.17926079
000260 5d c9 d4 bd 45 06 3c bf 24 99 b2 3f 74 5b 07 bd
       -0.103899695 -0.73447067 1.3952985 -0.0330462
000270 9b 3b b7 3e 56 c9 e1 3e aa 66 34 3f a5 d3 93 be
       0.35787663 0.4409892 0.7046915 -0.2887241
000280 2c af 42 3e 5b ea 2b be 62 d7 32 3e c0 fc 81 bf
       0.19012135 -0.16788618 0.17464975 -1.0155258
000290 cd 37 6b 3f 69 54 83 3e 85 66 e5 be e7 56 9d 3f
       0.9188202 0.25650337 -0.4480478 1.2292145
0002a0 05 9e 3b bd b0 a9 2f bf ee a2 0c 3e d4 02 fd 3c
       -0.045804996 -0.686183 0.13734028 0.030885138
0002b0 57 7d 63 3f b4 ce 36 bf 49 53 11 bf 59 9a 02 be
       0.8886313 -0.71409154 -0.5676771 -0.12754191

layers.0.bias f4 [16]
000000 c5 9d 41 bf 95 af 80 3e 11 9a aa 3d 65 2b f1 bc
       -0.7563136 0.25133958 0.08330167 -0.029439637
000010 70 9d 98 3e 26 c7 15 3e df 3d 54 3e 42 58 a0 3d
       0.29807615 0.1462675 0.20726727 0.07829334
000020 fe 9d bb 3b 5d c1 d9 bd 21 05 88 3d 48 73 9a 3d
       0.0057256212 -0.10632584 0.06641603 0.075415194
000030 0e 14 91 be 4e 5e b1 be ee 53 53 3e c3 ab 9d be
       -0.28335613 -0.3464226 0.20637485 -0.30795106

layers.1.weight f4 [16, 16]
000000 97 16 c5 bf 88 de 28 bd 00 f2 0e 3f d2 21 d6 3c
       -1.5397519 -0.041227847 0.5583801 0.026139174
000010 af d2 3c 3f 01 1e 2d 3c 3e 3f a9 be b9 82 88 be
       0.7375898 0.0105662355 -0.33056062 -0.26662233
000020 cd 15 c4 3e e7 a6 98 be ca 34 0a bc b0 f1 16 bd
       0.38297883 -0.29814836 -0.008435437 -0.036851585
000030 16 ad 25 3f 23 94 aa 3c d4 1a 5e 3e 86 69 89 be
       0.64717233 0.02082259 0.21689922 -0.2683832
000040 5b 8f 5e 3f 8f 3a 0b 3e 24 29 0d be d1 98 18 bc
       0.86937493 0.13596557 -0.13785225 -0.009313778
000050 0d d5 78 bf 0d 8a f6 be a0 ba 02 3f 76 42 0c 3f
       -0.9720009 -0.481522 0.5106602 0.5478891
000060 b7 ac 40 bf e5 de a6 3e 23 58 4d 3f dc f2 79 3e
       -0.7526354 0.3259193 0.8021261 0.2440905
000070 d5 8b 65 bd b8 94 ba be ac 1c 2a be d1 5b 79 bf
       -0.056041557 -0.36441588 -0.166125 -0.97405726
000080 fe 76 69 3e 90 fd 4c 3e ea ed 31 3f 89 0f 45 be
       0.22799298 0.20018601 0.69503653 -0.19244207
000090 21 e8 27 bf dd 8f 54 bf 15 51 4c 3e 55 8c 9a 3f
       -0.65588576 -0.8303202 0.19952805 1.2074076
0000a0 90 8e 86 3e 65 d8 ef bd a9 b8 67 be 39 96 9f be
       0.26280642 -0.11711196 -0.22629036 -0.31169298
0000b0 e0 ea 36 bf b8 ce 57 3f 84 9d c5 bd a2 3e 3d 3e
       -0.7145214 0.842998 -0.09649184 0.18480924
0000c0 57 0e fb be 76 3e 84 3f 45 3c 47 3f 34 2c b9 bd
       -0.49034378 1.0331562 0.7782634 -0.09041634
0000d0 2f ad 73 3e e1 97 06 bf dd 30 28 bf 49 3d 4f 3e
       0.23796533 -0.525755 -0.6569956 0.20238222
0000e0 d8 f1 82 3d 2e 82 43 3e 1b a5 7c 3d 4a 86 6b 3e
       0.06393784 0.19092628 0.061680894 0.23000446
0000f0 1e ef 5f 3c ba c7 ed be 39 50 d7 3d ac 3e 27 bf
       0.01366785 -0.46441442 0.10513348 -0.65330005
000100 ae 8f 90 bd 56 de c1 be 31 bd 40 bf f1 d7 4b bd
       -0.07058655 -0.3786494 -0.75288683 -0.049766485
000110 36 11 5d 3c 05 d4 30 bf ea 4e 12 bf a6 2e 43 3e
       0.013492873 -0.69073516 -0.57151663 0.19060764
000120 d1 62 1c be 70 9b 84 3e 53 22 95 3c b6 04 14 be
       -0.1527207 0.2589984 0.018204844 -0.14454922
000130 7c 35 99 be c9 36 0b bf ef fb 9c 3d 3a f3 89 3d
       -0.29923618 -0.5438047 0.0766524 0.06735845
000140 fe f4 ee be 23 0d 44 3d 1e b0 ab 3d f6 14 d3 3c
       -0.4667129 0.04786409 0.08383201 0.02576683
000150 a0 81 97 3f a8 b2 43 bf f0 14 2d be 0f b8 df be
       1.1836433 -0.7644448 -0.16902518 -0.43695113
000160 1e b1 67 3d 31 74 34 3e 16 5e 2a be 18 5f 87 bb
       0.056565396 0.17622449 -0.16637453 -0.004131209
000170 98 a5 af be a0 56 78 be df 2c 1e 3e bb cb f1 be
       -0.34306026 -0.24251795 0.15446804 -0.47225747
000180 62 67 6b 3f 12 84 8b 3f ec 52 12 3e 12 27 91 3d
       0.91954625 1.089968 0.14289445 0.0708753
000190 36 7b 89 bd 53 f3 56 bd 1f b2 58 3e e3 2f 8f be
       -0.06712954 -0.052478146 0.21161698 -0.27966222
0001a0 53 4b 29 3e 18 a0 f6 bd 32 76 ff be 3f 90 d7 be
       0.1653264 -0.12042254 -0.49894863 -0.4210224
0001b0 f6 d2 e2 be a0 1e 19 3f 7d c4 a3 bd dd 8e 8c 3f
       -0.44301575 0.59812355 -0.079964615 1.0981098
0001c0 58 c2 6d 3f e2 c9 36 bf 46 e8 bd b9 9a c4 79 3c
       0.9287467 -0.714018 -0.00036221946 0.015244627
0001d0 1c 4e e2 be c5 73 53 bf c2 58 4a 3f d3 79 61 be
       -0.44200218 -0.82598525 0.79041684 -0.22019129
0001e0 63 a1 9e bd 3a 0b c0 bd 67 f8 ae bb 68 37 24 bf
       -0.07745626 -0.09377141 -0.0053396705 -0.64147043
0001f0 bc dc 0c 3f ef af b4 3e cd 80 43 be ad 80 62 3e
       0.55024314 0.35290477 -0.19092102 0.22119398
000200 7d 65 a3 bc bc d6 1b 3f f5 12 f8 be c4 5e 8d bd
       -0.019945854 0.60874534 -0.48451963 -0.06902841
000210 21 70 54 bd e1 0d a2 3d 83 c0 ce 3e cc bb e5 3e
       -0.051864747 0.079128034 0.4038125 0.4486984
000220 3d dc b9 3d 87 94 1b be 4e ce 7d bc 1c f3 bd be
       0.0907521 -0.15193377 -0.015491081 -0.3709954
000230 8c 42 65 3f e1 22 f5 3e ab e6 fd bc 07 f9 ba 3e
       0.8955467 0.47878173 -0.03099378 0.36518118
000240 14 2e 0c be 36 63 74 3e 96 08 26 bf 4f ad 14 3e
       -0.13689452 0.23865971 -0.6485685 0.14519237
000250 fa 5f 20 bd ba ff 82 be 97 22 d3 3c 72 ec 33 bf
       -0.03915403 -0.2558573 0.02577333 -0.7028266
000260 67 db cd be 3c 8d 97 3d c8 fb e5 3e fd 54 3e 3e
       -0.40206453 0.07399985 0.44918656 0.18587108
000270 45 94 67 bf ab 59 ce be d5 02 82 3c 1c 1e dd be
       -0.90460616 -0.40302786 0.015870491 -0.43187034
000280 1f 24 75 be b9 6b 6a 3f 71 0a 2e be 45 a5 49 3e
       -0.2393956 0.9157062 -0.1699617 0.19691952
000290 03 22 07 3f dd b0 6c 3d e7 56 d8 be 22 b0 96 bf
       0.5278627 0.057785857 -0.422538 -1.1772501
0002a0 dc c4 21 bf 8e a8 c6 3d 11 9e f2 3e 44 f3 9d be
       -0.6319101 0.09700118 0.4738622 -0.3084966
0002b0 27 0b d8 bd bd 50 90 be 28 77 d9 3d 16 24 8b be
       -0.10549002 -0.28186598 0.106184304 -0.2717597
0002c0 30 52 f5 3e f3 3f 8e bd c7 50 c3 be ab af 75 3c
       0.47914267 -0.06945791 -0.38147566 0.014995496
0002d0 61 5e 42 3f b8 ab 84 3e c5 cb 3d bf db b6 6f 3f
       0.7592526 0.2591226 -0.7413905 0.9363839
0002e0 b3 f3 eb 3e 09 83 90 3d 54 7d 34 bf 28 98 13 bf
       0.46084365 0.07056243 -0.70503736 -0.57654047
0002f0 8f d1 4f be 9c 45 cd bd 78 a4 75 3d 69 fa 23 bf
       -0.20294784 -0.100230426 0.059971303 -0.6405397
000300 e0 6f 7b bf c1 9e ef bc 50 fe 13 3f 7f 64 7d 3d
       -0.9821758 -0.029250504 0.57809925 0.06186342
000310 8c 4d c7 3e 7c 65 55 bf 1a b8 48 bf 36 67 aa be
       0.3892635 -0.8335798 -0.78405917 -0.3328187
000320 f5 cc 06 be fb a7 86 3c 4c 59 82 3e 15 12 4b bf
       -0.13164122 0.016437521 0.25458753 -0.79324466
000330 bf 66 f3 3d 30 c1 13 bf 89 77 28 3e 1d 21 72 bd
       0.11884832 -0.57716656 0.16451849 -0.05911361
000340 79 51 76 3e 75 a3 85 3f 08 81 32 bf 12 3b de bc
       0.24054517 1.0440508 -0.69728136 -0.027127776
000350 20 14 f0 be 09 e7 eb bd 9e 87 d8 3e ac 0a 28 3d
       -0.46890354 -0.11518676 0.42290968 0.041025802
000360 19 ae 1e 3e b0 4e 5e be 4e 68 03 3d 89 02 41 bf
       0.154961 -0.21709704 0.032081895 -0.75394493
000370 e0 6a a4 bf 89 26 46 3e f8 ad eb bd f2 cc 4c 3e
       -1.2845116 0.19350637 -0.11507791 0.20000055
000380 f3 a3 c4 be 14 0b dd 3e 75 51 9d 3e 24 1f 92 3d
       -0.38406333 0.43172514 0.3072621 0.07134846
000390 c0 b1 d9 3e 41 1c b6 be 4c 6a 71 bf 26 5c 0f bf
       0.42518425 -0.3556843 -0.9430282 -0.5599998
0003a0 9d 69 cf 3d ba 0c f3 3d 96 ef 88 be a7 0e c4 3e
       0.10127566 0.11867662 -0.2674529 0.3829243
0003b0 f5 b2 29 3f f5 dd 44 be 8a fe 1b 3e 4a 3e 50 be
       0.6628869 -0.19225295 0.15233818 -0.20336261
0003c0 87 23 9b bf cf 3f 93 3e cf 29 6c bf 8e ec 2b be
       -1.2120217 0.2875962 -0.92251295 -0.16789457
0003d0 eb 19 2e 3f f9 c7 28 be af af 48 bf 11 2d e0 3e
       0.680083 -0.16482534 -0.7839307 0.43784383
0003e0 95 11 25 3f fc 6a b4 bd 79 61 02 bf ca 2f 50 3e
       0.64479953 -0.08809468 -0.5092998 0.2033073
0003f0 78 46 6b be 1a fb 91 3e 48 2b 66 3e 78 e0 2c be
       -0.229761 0.28511888 0.22477448 -0.16882503

layers.1.bias f4 [16]
000000 9d 87 92 be 38 0b 6a 3e 6f 39 ea 3d f0 a7 c5 bd
       -0.2861909 0.22855842 0.11436736 -0.09651172
000010 22 57 c4 3d 72 10 84 3e c8 d3 29 3e d2 35 1e 3e
       0.09586932 0.25793797 0.16584694 0.15450218
000020 90 3e 6f 3e 06 f0 fc 3e f8 31 d4 bb b3 a5 9a be
       0.2336371 0.49401873 -0.0064756833 -0.30204543
000030 bb 30 b9 3b 27 4c 85 be fa 43 7b bd 74 cb e6 3d
       0.005651561 -0.26034662 -0.061344124 0.11269274

final.linears.0.weight f4 [86, 43]
000000 f4 89 90 bd d6 d7 13 3e d6 66 95 bf fc 57 fc 3f
       -0.070575625 0.14437804 -1.1672008 1.9714351
000010 03 44 82 bf 34 3d e1 bc e5 90 e2 bd ab 8c 6d 3d
       -1.0177006 -0.027495004 -0.11062793 0.05799548
000020 76 e8 84 3d 26 cd df 3e 07 0d b5 3e 83 3c 34 3d
       0.06489651 0.43711203 0.35361502 0.04400302
000030 76 f5 8a be d3 e0 48 bd d2 ea cd bd e6 65 89 3d
       -0.27140397 -0.049042534 -0.10054554 0.06708889
000040 9f 69 95 3d ad 29 c5 3d 4a b8 31 3d ba 67 1d be
       0.07295536 0.0962709 0.043388642 -0.153716
000050 36 55 9c 3c cb fb 2a 3e 69 1d 7f 3e 71 a2 23 bd
       0.0190836 0.16697614 0.24913563 -0.039949838
000060 87 c5 0c be c8 37 14 3e 09 89 0c bc 9c 85 6c be
       -0.13747226 0.14474404 -0.008577594 -0.23097843
000070 e2 4b ab 3d cd 3a c2 3c 4e 01 f9 be 90 41 54 bc
       0.08364083 0.023709679 -0.48633808 -0.012955084
000080 c0 08 bf 3d e1 d5 d3 bc b0 00 58 be 4c 2f 0d 3d
       0.09327841 -0.025858821 -0.21094012 0.034468934
000090 c4 75 49 3c bb 1f 37 3e a8 4e 7a bc 54 03 f7 3d
       0.012296144 0.17883198 -0.015277542 0.12061182
0000a0 be a1 b1 bb ba 7b 9e be c9 7a d3 bd fe 5a 8b 3e
       -0.0054208925 -0.3095377 -0.10326154 0.2721786
0000b0 47 2c a3 be 03 ce b1 be 16 fa fd be cb f2 a0 be
       -0.31869718 -0.34727487 -0.49604863 -0.31435236
0000c0 8f bb aa 3f d1 ed 55 bf dc f9 95 bf 36 7a 88 be
       1.3338488 -0.83566004 -1.1716876 -0.2665574
0000d0 35 ed f5 be ec 8c 81 bf 94 be a8 3d 87 ab ba bd
       -0.48032537 -1.0121131 0.08239475 -0.091147475
0000e0 b6 2d 43 be cc 93 58 be 4e ff 2c 3e 42 39 a0 be
       -0.19060406 -0.2115013 0.16894266 -0.31293684
0000f0 f8 f6 58 be 79 26 db 3d 87 6d 30 3e e8 7b 7b bd
       -0.21187961 0.107006975 0.17229281 -0.061397463
000100 b1 bd 70 3d 2e 87 61 3e 01 a6 7f be 2a 21 86 be
       0.058774654 0.22024223 -0.24965669 -0.26197177
000110 fc ea 0f be 8e fe 2f bd 23 f6 5e 3d 3b d4 85 3d
       -0.14054483 -0.04296737 0.054433953 0.065346204
000120 ff 16 a8 bc df ed 7c 3c f6 33 8b 3c 61 11 df bd
       -0.020518778 0.015437572 0.01699255 -0.10891987
000130 3d 3e 18 be 4e ca 0e bd eb 74 f2 3c 52 6e 0f be
       -0.14867492 -0.0348609 0.029596766 -0.14006928
000140 06 27 44 bb 06 8b 86 bd 68 21 19 3d 1b 81 0a bd
       -0.0029930486 -0.06569485 0.037385374 -0.03381453
000150 f2 41 d6 bd 9a 18 c8 bd b6 f2 19 3f 7c 3b e3 3d
       -0.10461797 -0.097703174 0.6013597 0.1109533
000160 99 0a 30 be fb c7 0f 40 26 74 48 be ae 5e 05 3f
       -0.17191543 2.2465808 -0.19575557 0.52097595
000170 b5 48 0a 3f 02 ac 62 be cc 65 a9 3e db 9c 0e bf
       0.5401719 -0.22135928 0.33085477 -0.5570809
000180 97 5b db 3e a1 40 94 3e 37 be e8 3d 11 96 a0 be
       0.42843315 0.28955558 0.113644056 -0.31364492
000190 6b fc b2 be 7d 12 00 3b 43 4f 9b 3e 97 80 83 be
       -0.34958205 0.001954227 0.3033391 -0.25684044
0001a0 ce 02 f0 be d0 07 08 3f a0 01 fc be e3 08 95 bd
       -0.4687714 0.5313692 -0.4921999 -0.07277086
0001b0 53 52 cf be e8 79 69 3e b0 4b 0a 3e 5b d2 95 bd
       -0.40492496 0.2280041 0.13505435 -0.07315513
0001c0 e2 ba f6 bd 5b 95 2d 3d c9 27 cd 3d 2b a8 a3 3c
       -0.12047364 0.042378765 0.10017354 0.01997765
0001d0 89 de 7c be ec 97 f8 3d 0e 8d fb 3c 7e 32 50 3e
       -0.24694265 0.12138352 0.030706909 0.20331761
0001e0 a9 3c ac be 00 d0 f3 3d 35 97 f9 3d e5 8a df 3d
       -0.3364003 0.11904907 0.121870436 0.10915164
0001f0 44 a7 28 bc f1 df c0 3d d6 b6 68 bd 53 74 b7 3e
       -0.0102937855 0.094177134 -0.05681499 0.35830936
000200 ab bc b0 3e e8 58 1c 3f c4 c9 94 be a6 57 dd be
       0.34518942 0.6107316 -0.29060185 -0.43230933
000210 54 1d 0f bf c8 be 0b bf f7 b8 15 bf 4c 70 64 bf
       -0.55904126 -0.54587984 -0.5848536 -0.8923385
000220 37 84 94 bf 9f e4 9f bd fb 12 26 bf b6 4e 1e bf
       -1.1602849 -0.07807278 -0.6487271 -0.61838853
000230 32 84 92 3c c3 21 8e bc bc 96 bb 3c 4a 01 8e be
       0.017885301 -0.017350083 0.022899024 -0.27735358
000240 00 40 37 3e cc ba 2f 3d 86 09 02 be ce e5 24 be
       0.17895508 0.042902753 -0.12698945 -0.16103289
000250 66 4d 2c bd 48 5d bb be b0 28 3f 3d b3 b1 33 3e
       -0.042066 -0.36594605 0.046669662 0.17548256
000260 9b 2b 51 3e a8 98 2c 3b a3 c0 01 bd 74 94 6d be
       0.2042679 0.0026336107 -0.031677853 -0.23201162
000270 1a 63 2f bd 92 56 81 bd 11 b4 07 3d 9b 73 8a 3d
       -0.04281912 -0.0631534 0.03313071 0.06760331
000280 c1 cd 9e 3d c7 09 48 3e c0 4a e3 3c d9 16 98 bd
       0.07754088 0.1953498 0.027745605 -0.07426233
000290 db c8 10 3e 8a dc c4 3b 22 ef 30 bd e6 a1 ce 3d
       0.1413912 0.0060077356 -0.043196805 0.100894734
0002a0 c3 e0 ea 3b 3d c8 a7 3c 77 3b 79 be 27 57 0d 3d
       0.007167907 0.020481223 -0.2433909 0.034506943
0002b0 5f b1 23 bf 7e 2f 66 3e 99 cb 1f be 2f ea 0e be
       -0.6394252 0.22479054 -0.1560501 -0.13956521
0002c0 7f 34 41 be 2e cd 3b 3f 6d 1c 60 3f 5d 1e 70 bf
       -0.18867682 0.73359954 0.87543374 -0.9379633
0002d0 ac 3b 4d 3e 40 f1 47 3f b5 91 bf be 43 24 27 3e
       0.20042294 0.78102493 -0.37415853 0.16322426
0002e0 14 48 76 bc 5e fd 99 3d 14 8d e6 bd 38 98 cb 3b
       -0.015031833 0.07519029 -0.11257377 0.0062132142
0002f0 f6 dc 82 be be 43 07 be 5e 9d d4 bd b3 0c 9c be
       -0.25559205 -0.13209435 -0.10381578 -0.3047844
000300 ff ee 39 be ed 92 00 3d b7 7a 20 be b4 28 09 be
       -0.18157576 0.03139012 -0.15671812 -0.13394433
000310 b8 91 9a bc 26 d4 70 3d 97 d0 0f be 27 7d d0 3c
       -0.018868312 0.05879607 -0.14044414 0.025450302
000320 db 2a 04 3e b3 41 bd 3c 5c 31 28 be 8c 1d 84 3c
       0.12906973 0.023102617 -0.16425079 0.01612737
000330 01 ef 97 ba 94 77 94 bd e8 6d 03 be ed ab 94 3c
       -0.0011591614 -0.0724937 -0.12834895 0.018148387
000340 0f 8e 31 3e 22 73 9b bc 58 b2 a0 bc 11 3e ac bd
       0.17339347 -0.018975798 -0.01961629 -0.08410276
000350 ae 34 e6 bc 10 a1 08 bd e2 1d 03 3e 75 fc df 3e
       -0.028101292 -0.033356726 0.12804368 0.43747297
000360 71 ec 70 3f 77 74 43 be 98 38 50 3c 97 d2 1a be
       0.9411078 -0.19087397 0.0127088055 -0.15119396
000370 3a a8 71 3f a1 ae bd bd 17 c1 bf bf 54 a4 33 3f
       0.9439732 -0.092618234 -1.4980801 0.7017262
000380 7f 78 3f bc 3f b2 ad bf 8c d1 4c 3e 5d 07 75 3e
       -0.011686443 -1.3570021 0.20001811 0.2392859
000390 e9 49 39 3e b3 e1 2b 3f 33 d6 04 bf f0 e8 cc 3e
       0.180946 0.67141265 -0.5188934 0.40021467
0003a0 6e 69 00 3f 48 83 66 bd 7f 38 08 be a7 c3 19 3e
       0.5016087 -0.056277543 -0.13302802 0.15016042
0003b0 45 e3 16 bf 35 40 79 be 5d 0a df 3e aa c7 15 3f
       -0.58940536 -0.243409 0.43562594 0.5850779
0003c0 12 5e df 3e 2f 10 49 be fb 6f d0 bd 4f ed c2 3e
       0.43626457 -0.1963508 -0.101776086 0.38071677
0003d0 c8 f8 83 3e f6 7c a6 3d ff 9d 91 bd 22 e2 d2 be
       0.25775743 0.08129303 -0.071102135 -0.4118815
0003e0 1e 35 93 3c c3 fa 4a bd e0 71 2b 3e 37 a8 42 3e
       0.017969664 -0.04955555 0.16742659 0.19009481
0003f0 dc 95 34 3d 36 da 8e be 9b dd ce be 0f 47 53 bd
       0.04408823 -0.27900857 -0.40403447 -0.05158144

final.linears.0.bias f4 [86]
000000 e1 1f d4 3d d2 e1 72 3d eb 9a 53 3d 5e d7 75 3e
       0.10357643 0.05929739 0.051661413 0.24007937
000010 3f 69 c9 bc 59 d1 3d bc 10 d7 1c 3d bb c6 75 3e
       -0.024586318 -0.011585557 0.038291037 0.24001591
000020 48 f3 a2 3e af ab 97 3d c4 32 df 3d 8b 63 1e 3c
       0.31826234 0.07405793 0.10898355 0.009667288
000030 33 93 02 3e c3 28 16 bd 5b 23 87 3c 99 25 91 3d
       0.12751465 -0.036659967 0.016496351 0.07087249
000040 46 6e b1 3e d6 17 ea bd a6 41 8a bd f8 57 de bc
       0.34654444 -0.114303276 -0.06750803 -0.027141556
000050 24 8e ae 3e 61 b5 2c 3d cc 45 2f bd 71 87 bf 3d
       0.3409282 0.042165164 -0.042791173 0.09352005
000060 00 d7 01 3c 4c 63 3b 3c 96 f1 e5 3c 64 ee 47 3d
       0.007924795 0.011437248 0.028069299 0.04881133
000070 0a aa 08 3e bb f4 0c 3e d1 e5 4d 3d bf 36 b3 bd
       0.13346115 0.13765232 0.050267998 -0.08750676
000080 fd 92 7a 3b f5 5e 04 bd f1 0c 1e 3e 1f d6 30 3e
       0.0038234584 -0.03231712 0.15434624 0.1726918
000090 2c 1b 3c be 86 d8 3e bd 8a 8f b2 3c 25 15 32 3e
       -0.1836974 -0.04659321 0.02179696 0.17390878
0000a0 52 5f 37 3d eb ee 8e 3c e1 9e 92 3d f4 ea c2 bd
       0.04476864 0.01744791 0.0715921 -0.0951747
0000b0 e0 56 5c bd 3f 8e a7 3c 5a ea a3 bc 68 79 42 3e
       -0.053793788 0.02045357 -0.020009208 0.18991625
0000c0 3c 4e 07 3e 8d b3 14 3e 4e 01 83 bd 0d 60 71 bc
       0.13213438 0.14521618 -0.06396733 -0.014732373
0000d0 e3 a2 6f 3d c0 e0 8c be c3 16 c0 bd aa 33 12 3d
       0.05850495 -0.2751522 -0.093793415 0.035693802
0000e0 06 9f 8e 3e b8 0e 1b bb ff 3f e1 bd c5 ea 15 3e
       0.278557 -0.0023659896 -0.109985344 0.14640339
0000f0 62 35 85 3d 18 e8 cb 3d 6e 3e 23 3e 7b fe 81 3d
       0.065043226 0.09956378 0.15941784 0.063473664
000100 74 7c 48 3d 4f 17 b4 3d 06 13 33 3d d5 06 a9 bc
       0.048946813 0.08793508 0.043719314 -0.02063314
000110 5f 7e 0d 3d 05 1a ec 3c 52 1a a4 3d f1 af ac 3b
       0.034544345 0.028821 0.08012833 0.0052699973
000120 2b 62 d3 3c 0c 0a 00 3e f9 5e f3 3d ce 94 0b 3d
       0.025803646 0.12503833 0.11883349 0.034077458
000130 af ee ed 3c 3f 5f 2c 3d 38 e8 77 bd fb 16 aa 3e
       0.029044477 0.04208302 -0.060524195 0.33220658
000140 c9 bb 97 3d 9a 90 ea bd 26 c9 0b 3d a0 dc c5 bc
       0.07408864 -0.11453362 0.034127377 -0.024153054
000150 1e 56 b5 3d 4a 0b 58 3e
       0.08854316 0.21098056

final.linears.1.weight f4 [86, 86]
000000 95 a4 c3 bd 28 8f 45 bf e1 f3 8c be 6e d3 13 bf
       -0.09552876 -0.77171564 -0.27529815 -0.5774449
000010 cb 46 d0 bc 00 67 19 bf b8 18 1b be 9d ed cf bc
       -0.025424382 -0.5992279 -0.15146148 -0.025381858
000020 62 c2 36 be 96 e4 25 be 7d db 2a be f8 55 b5 be
       -0.17847589 -0.1620048 -0.1668529 -0.3541715
000030 c2 1f e8 bd 68 f9 33 be 25 5c df be 1d 59 b9 be
       -0.11334182 -0.1757561 -0.43624988 -0.362008
000040 56 7d 6c be 14 c6 71 be 88 2c c0 bd 84 eb 03 bd
       -0.23094687 -0.23610717 -0.09383494 -0.032207027
000050 ea 0d 7e bd 63 f8 c8 bd ef 07 58 be c5 bb 92 be
       -0.06202499 -0.09813001 -0.21096776 -0.28658882
000060 e9 d2 d2 bd 2b 56 ab be c9 df 00 bf fb 17 88 be
       -0.10294134 -0.33464178 -0.5034147 -0.26580796
000070 e7 d9 51 be e2 d1 60 bd 61 7a 98 3d 7c 76 f0 be
       -0.2049328 -0.05488766 0.07445217 -0.46965396
000080 04 4b 25 be 04 42 3d 3c 35 5e 48 be 77 74 85 bc
       -0.16141897 0.011551384 -0.19567187 -0.016290886
000090 e6 e9 bd be 6e 57 61 bc 64 33 69 be c5 19 c7 be
       -0.37092513 -0.013753755 -0.2277351 -0.38886848
0000a0 c6 12 cd be 27 ac 9b be 4a 98 37 be 28 0c 1b be
       -0.40053385 -0.3040478 -0.17929187 -0.15141356
0000b0 1f ba 16 be 84 2e 80 be 61 65 b6 be b1 c0 17 be
       -0.14719437 -0.2503549 -0.3562422 -0.148196
0000c0 1b 4f e8 be b1 a5 66 3d 5d a6 6e bc 8d ef 8d ba
       -0.45372853 0.05631036 -0.014566031 -0.0010828838
0000d0 62 1e b2 3d 94 fe 3d 3d e6 0c b6 be a5 16 60 be
       0.08697201 0.046385363 -0.35556716 -0.21883638
0000e0 d2 88 6f be 46 1a e6 be dd 15 85 bf 7e 9b 26 be
       -0.23392037 -0.4494192 -1.0397297 -0.16270253
0000f0 68 a1 6b be fa 7f 29 bd 42 3d b2 be a9 af 0d be
       -0.2301079 -0.041381814 -0.3481236 -0.1383654
000100 59 e2 05 be aa fa af be 80 fb 0f be f2 48 78 be
       -0.13074626 -0.3437093 -0.14060783 -0.24246576
000110 c7 8b 8b be 41 52 ad be 63 fa 4d be ab dd 60 be
       -0.2725508 -0.33851817 -0.20115046 -0.2195956
000120 50 4d 70 be 5f ba 85 be d9 ab 5c be c8 dc 42 bc
       -0.23466992 -0.26118752 -0.2154993 -0.011893459
000130 ba 33 69 be 0b db 29 be b6 02 87 be d2 9a be be
       -0.22773638 -0.16587465 -0.26369256 -0.37227494
000140 2c 01 41 be e9 95 73 3d 82 f4 12 be 03 e5 2e be
       -0.18848103 0.059469137 -0.14351085 -0.17079549
000150 94 0a 83 be 6c c8 19 3e 6a c9 47 bf a2 b8 aa bd
       -0.25594008 0.15017861 -0.7804171 -0.08335997
000160 87 9b 12 bf c1 57 6a be e3 73 83 be 78 8c 96 be
       -0.57268566 -0.22885038 -0.25674352 -0.29404044
000170 55 fd 84 be 41 66 13 3e 07 ca f7 be 51 96 9e be
       -0.25974527 0.14394476 -0.48396322 -0.30974057
000180 3c 19 ec be 09 52 8b be 62 3a 95 be 84 f3 cc be
       -0.46113002 -0.27211025 -0.29146105 -0.40029538
000190 b9 34 b5 be 87 2e 87 be aa 54 a1 bd 08 40 a5 be
       -0.35391787 -0.26402685 -0.078774765 -0.32275414
0001a0 21 a0 31 be 8b c3 38 3d 19 ad 4d be 1e 47 89 3c
       -0.1734624 0.04510836 -0.20085563 0.016757544
0001b0 9e c6 7d bd b3 22 8b be ce 00 1a bb e8 40 a6 be
       -0.061956994 -0.2717491 -0.0023499015 -0.32471395
0001c0 7c b4 19 bc 9e c1 91 be 72 0e 5a be 42 42 35 3c
       -0.00938141 -0.2846803 -0.21294573 0.01106316
0001d0 a6 71 ad 3e 72 a0 27 be 8a db 64 3d 0e 0f 3f be
       0.3387577 -0.16369799 0.05587343 -0.18658087
0001e0 e5 0a 28 be f1 9d b1 be b7 82 e0 3d cc a9 7c 3e
       -0.16410406 -0.34690812 0.10962432 0.24674147
0001f0 f4 c9 2a be 17 df 41 be 36 e2 a3 bd f5 fd be be
       -0.16678602 -0.18932758 -0.08002131 -0.3730313
000200 41 47 0a be 23 36 33 3e c0 df 46 b7 e2 8c 84 be
       -0.13503744 0.1750112 -1.18538155e-05 -0.25888735
000210 e8 74 96 be 7a ad d5 bc e6 98 6f be 85 d7 59 be
       -0.29386067 -0.026083697 -0.2339817 -0.2127362
000220 f1 21 70 ba 3c b4 9c be b3 4c da be 4a 41 95 3d
       -0.0009160331 -0.30606258 -0.42636642 0.072878435
000230 f3 35 a7 be 98 2f 78 bf 82 78 a4 be b1 4b cf be
       -0.32658347 -0.9694762 -0.3212319 -0.40487435
000240 2e 25 ab be c8 51 1e be b9 20 2f 3b be f6 3d be
       -0.33426803 -0.15460885 0.0026722385 -0.18551156
000250 41 20 b8 be 78 e4 3e 3c 27 29 fe bd f4 9a a7 bd
       -0.35962108 0.011651151 -0.12410193 -0.08183852
000260 41 95 f0 3d 79 9c 9e 3c 89 8c aa be e8 fa 97 be
       0.11747218 0.019361721 -0.33310345 -0.29683614
000270 70 4a 36 bf ec 43 1b 3e ed 3a 77 be 7a 23 e1 be
       -0.7120733 0.15162629 -0.24143572 -0.4397238
000280 83 f9 bd bd b0 d6 38 be c7 de 5a be da 47 04 bd
       -0.09276106 -0.18050647 -0.21374045 -0.032295085
000290 32 77 e0 bd ae 79 ab be 5e 43 ab be c0 ce 87 3e
       -0.10960235 -0.33491272 -0.33449835 0.26524925
0002a0 1e 87 a2 39 40 2a 0c bf 3b 68 12 bf 36 d1 dc 3d
       0.00030999718 -0.5475197 -0.57190293 0.10782091
0002b0 6c 75 02 3e e1 7a 48 be c6 1c aa ba f8 b9 2f be
       0.12740105 -0.19578125 -0.0012978546 -0.17160785
0002c0 fc 89 ef bd 47 d5 c1 bd 84 a8 54 be c0 64 ec 3e
       -0.1169624 -0.094645076 -0.20767409 0.46170616
0002d0 56 c6 4a be 4d 65 c4 bd f9 8a 8a be c2 cf d1 bd
       -0.19802222 -0.09589634 -0.27059153 -0.10244705
0002e0 bc 99 03 be fa 64 35 be 2a 20 ab bd 32 de b2 bd
       -0.12851614 -0.17714301 -0.08355744 -0.08733787
0002f0 ce 35 05 be 2e 50 df bc ef c1 85 bd a2 82 3f 3e
       -0.13008806 -0.027259912 -0.065311305 0.18702176
000300 b0 8a ff 3d 16 e7 67 be 80 d5 93 bd 4b 86 01 be
       0.124776244 -0.22646746 -0.07218456 -0.12648885
000310 8f 89 db bd 31 e8 d0 bd 83 7e 7f bd ef 9a b2 bd
       -0.107195966 -0.10200537 -0.06237651 -0.087209575
000320 22 d3 fc 3c 30 43 3e be 44 26 61 3d c2 3a bc bd
       0.030862395 -0.18580317 0.054968134 -0.09190895
000330 83 5a 41 be de f2 01 be b4 8f f7 bd 46 06 a7 bd
       -0.18882184 -0.12690303 -0.12087956 -0.081554934
000340 4c 15 9c 3d 3f 6b 01 3d d4 77 ae bd 40 e5 d5 bd
       0.076212496 0.03159642 -0.08518949 -0.104441166
000350 03 59 f7 bd 5f 28 87 bd 89 f6 70 be 1c 3e eb ba
       -0.120775245 -0.06599497 -0.23531546 -0.0017947587
000360 af f8 24 be a7 53 04 be 71 3e fd bd ff 5c 35 be
       -0.1611049 -0.12922536 -0.123654254 -0.17711256
000370 3e 54 40 be d0 5b 19 be 10 cf 28 bd ac bb 3a 3e
       -0.18782136 -0.1497643 -0.041213095 0.18235654
000380 9a 05 00 3e 3d ca aa bd f8 14 91 bd 23 73 4e bf
       0.12502137 -0.08339355 -0.070840776 -0.80644435
000390 c5 0a 4d be 73 d2 a9 bd 8b a9 cf bd 84 be 53 be
       -0.2002364 -0.08292093 -0.1013976 -0.20678145
0003a0 3b 63 ec bd ad 83 4c be c3 ea 4b bd ad ab e4 bd
       -0.11542364 -0.19972105 -0.049784433 -0.11165557
0003b0 ad f7 ba bd 1b 90 1b be 21 62 03 be 7a 5e 43 be
       -0.09129272 -0.1519169 -0.12830402 -0.19079009
0003c0 10 84 06 be c3 33 97 bd 28 16 ba bd 22 ed 88 be
       -0.13136315 -0.0738292 -0.09086257 -0.26743418
0003d0 09 44 cf bd 2c 75 6f be cb de 0a be 38 56 9d 3e
       -0.101203986 -0.23384541 -0.13561551 0.30729842
0003e0 c2 a1 dc bd 16 bb 68 bd b6 02 0c be a9 89 f0 bd
       -0.1077304 -0.056819044 -0.13672909 -0.117450066
0003f0 cd 30 b7 3b 09 9f 1b be c2 a2 c1 bd 82 13 78 bd
       0.0055905343 -0.15197386 -0.09454872 -0.06056548

final.linears.1.bias f4 [86]
000000 fc e9 aa be ce 5f b2 be d9 82 b4 be fd b4 7a be
       -0.3338164 -0.34838718 -0.3525608 -0.24483104
000010 4e 7e 3f 3c 0f f2 a5 bc f6 5e 57 ba 31 7f 71 bd
       0.011687828 -0.020257024 -0.00082157494 -0.05895919
000020 28 52 90 3e ee ea e4 bd 39 bd 92 be bb 28 71 be
       0.2818768 -0.11177622 -0.2865999 -0.23550694
000030 e7 4b 81 be 6b 9c 87 be 18 4e ae 3e 6d 79 a3 3d
       -0.2525322 -0.26486525 0.34043956 0.079821445
000040 c9 a4 b3 bd bb 8f 3e bd a6 a7 be be 7f 21 eb bd
       -0.08771665 -0.04652379 -0.3723728 -0.11480998
000050 62 7d ae 3d e7 3b 2a be cb c3 7e be b3 a9 e1 be
       0.085200086 -0.16624413 -0.24879377 -0.44074783
000060 c8 1f 8d be d3 a3 3e 3c 71 f6 2e be 51 2e 9b bf
       -0.2756331 0.011635738 -0.17086197 -1.212351
000070 11 84 b8 bd e5 5f b4 be ed 69 87 be b4 7c 32 bc
       -0.09009565 -0.35229412 -0.26448002 -0.010893989
000080 2b 30 ad be c3 22 a2 be ca 1e 93 3d 6d 5f ad bd
       -0.33825812 -0.31667146 0.07183607 -0.08465467
000090 de 2c a5 be 03 b7 2a bf f1 5e d9 bd 49 88 09 3e
       -0.32260793 -0.66685504 -0.10613812 0.13430895
0000a0 9f d2 42 be 40 76 7d bd 1d c1 63 3d 36 ca 86 be
       -0.19025658 -0.06188035 0.05560409 -0.2632615
0000b0 3a 11 cf bd 71 ee f9 be ad b4 69 be 08 63 52 3c
       -0.101107076 -0.4881473 -0.22822829 0.012840994
0000c0 6d 38 56 be 39 18 4e be 63 9f 7f be 1c f2 3b 3d
       -0.20919962 -0.20126428 -0.24963145 0.04588519
0000d0 b7 ee 09 3e eb a7 9d 3d 73 25 6c 3d ac 82 f5 3c
       0.13469969 0.076980434 0.0576529 0.029969536
0000e0 be 7b 08 bd a9 45 77 be db 13 cd bd 7b a6 4a be
       -0.033321135 -0.24147667 -0.10013553 -0.1979007
0000f0 aa 8d 2d bc 15 3c 0c be 5a e5 9f 3d 06 d2 e0 bc
       -0.010592857 -0.13694794 0.07807417 -0.027443897
000100 a5 3a 32 be 7f 13 34 be d9 9b 5e 3d 82 05 21 bf
       -0.17405184 -0.17585562 0.054347847 -0.6289903
000110 ea 4f 77 3c a7 ba 74 be 1d 36 8d be 61 28 90 be
       0.015094737 -0.23899327 -0.27580348 -0.28155807
000120 30 e9 80 3d b4 71 90 be b8 e2 db be 4b 28 6d be
       0.06294477 -0.2821175 -0.4294641 -0.23159902
000130 18 0c ed be 5a d9 e7 be fb 11 37 3e 03 cf 95 be
       -0.4629829 -0.45283014 0.17877953 -0.292595
000140 69 43 63 3d 38 8d b9 bc bc 97 85 be ed 4d 65 be
       0.05548421 -0.022650346 -0.26092327 -0.22393008
000150 5c c4 6d be ae 45 25 be
       -0.23219436 -0.16139862

final.linears.2.weight f4 [11, 86]
000000 a6 db 14 bf c4 92 40 3d b3 b2 fc bc 7c 98 ad 3b
       -0.58147657 0.047014967 -0.03084693 0.0052977186
000010 ce f3 0f be 5b ae f6 3c ff c2 07 be e4 a3 37 be
       -0.14057848 0.030112436 -0.13257979 -0.17933613
000020 f9 4f 14 bd 92 ef cb bd 0c 3e 44 be d0 04 79 3d
       -0.03620908 -0.09957804 -0.19164294 0.060795605
000030 22 df b0 be 74 a3 46 bb db 67 5b 3c 0d 7c e0 3c
       -0.34545237 -0.0030309828 0.01339146 0.027402902
000040 9c 42 da 3c 36 c2 e9 bd 61 4c 34 be 6d 2d 18 3e
       0.02664309 -0.11413996 -0.17607261 0.14861079
000050 de 0e 3a bd 73 8c b1 bd a3 ab bc 3d 48 e1 be bd
       -0.045424335 -0.08669367 0.092124246 -0.09320313
000060 28 fd 78 3b 16 a4 e4 3d ed 87 e0 3b 85 d1 00 bc
       0.003799269 0.111641094 0.006852141 -0.007862453
000070 42 2e d8 bc f3 4c 07 bf 72 78 08 3f 06 ec fa bb
       -0.026389245 -0.5285179 0.53308785 -0.0076575307
000080 c2 cc 4d 3e 76 53 e9 3e 58 88 cd bd ec b9 89 bc
       0.2009764 0.45571488 -0.10035771 -0.016812287
000090 27 cd 17 be 2a 55 aa 3a bc 91 1b be c3 c0 b0 3c
       -0.14824353 0.0012995352 -0.15192312 0.021576291
0000a0 ae 38 ca 3d 8b e9 d2 ba 4c ea a5 3d 3a 19 47 be
       0.09874092 -0.001609133 0.08101329 -0.19443217
0000b0 dc 34 c0 bd 97 02 c2 3e 25 67 b2 3e 3a 8b f4 3d
       -0.09385082 0.378926 0.34844318 0.11940618
0000c0 5c dc a5 3d cc ff 5d 3d f1 f5 2a be 52 fd 03 3d
       0.08098671 0.054199025 -0.16695382 0.032224007
0000d0 53 99 8c 3c 50 bf bc bd f2 9e 8d 3d 74 4a 5b bc
       0.017162954 -0.092161775 0.06915082 -0.01338445
0000e0 59 a3 0f bc ad 6d 39 be 3f 3d 7b 3d f6 f3 a0 3c
       -0.008766972 -0.18108244 0.061337706 0.01964758
0000f0 1d b8 2b 3e 1b 79 1c be 40 0b ff 3d 09 ea af bd
       0.16769452 -0.15280573 0.12453318 -0.085895605
000100 6a 42 10 3e c8 91 b0 bd c6 54 35 3d a8 13 0a 3d
       0.14087835 -0.086215556 0.0442703 0.033710152
000110 4f 43 eb 3d 8e 5c a2 3e 9e f6 8f 3e d1 a0 2f be
       0.114874475 0.3171124 0.2811784 -0.1715119
000120 97 38 7a 3d 66 83 99 3e b1 77 a3 3e 01 85 13 3f
       0.061089125 0.29983062 0.31927255 0.5762482
000130 ff 54 f9 be 92 e4 9d bb 22 94 ce ba f7 7f c5 3c
       -0.4869766 -0.0048185075 -0.00157607 0.02410887
000140 18 d0 21 3c fe 2f b7 3c a6 62 a8 3d 69 4a da 3b
       0.009876274 0.022361752 0.08221941 0.0066617024
000150 66 49 01 bf b7 1f 1d bd e6 b9 8e be 40 59 f9 3a
       -0.5050262 -0.038360324 -0.27876204 0.0019023791
000160 85 e5 11 bc b2 48 be 3b 98 d8 34 3e a4 ba 4f 3e
       -0.008904819 0.005807006 0.17660749 0.20286041
000170 01 b5 87 3d 2c 5f dc bc d1 13 10 bd 3c 46 1c 3d
       0.06626321 -0.02690085 -0.03517515 0.03815292
000180 55 39 f5 3e 1b 60 d2 3d 80 bc 8e 3e 90 a3 46 3c
       0.47895303 0.10272237 0.2787819 0.012123957
000190 6d 92 23 3c 2f dd 3a ba 2c fd 14 bc 48 69 dd 3c
       0.009983641 -0.0007128296 -0.009093564 0.027027741
0001a0 a6 b7 f2 3e 5f 27 36 be fb a8 15 be bb d8 47 3d
       0.47405738 -0.17788456 -0.14615242 0.048790675
0001b0 e5 8d 38 bd 7f 61 a9 bc ef 04 8a bc 47 ef 96 bc
       -0.045057196 -0.020676373 -0.016848056 -0.018424643
0001c0 30 67 fa 3a 78 ab 00 3a f2 0e 5b bd 45 ae 0e 3e
       0.0019104239 0.00049083633 -0.05348105 0.13933666
0001d0 ab 5a ca be 20 76 ea ba ff f7 8f be 63 a0 97 bd
       -0.395223 -0.0017887987 -0.28118894 -0.07403638
0001e0 25 af ed bd 62 f4 09 3c e1 0b 52 bf e0 5f 97 3b
       -0.11605672 0.008420082 -0.82049376 0.0046195835
0001f0 5f c0 0d 3b 2e f0 ac bc 6f 8d 23 3e 10 f6 d8 bb
       0.0021629555 -0.02111062 0.15971921 -0.00662113
000200 df f0 4d bd d0 7b d0 be 0f 67 f5 bd 8a ec 9f 3e
       -0.05027854 -0.4071946 -0.119825475 0.31235152
000210 c1 e1 c7 bd 5c d9 a1 3b ac 2e 0e be 07 cb f3 3e
       -0.09759856 0.0049392413 -0.13884991 0.47615835
000220 7f 2e 63 3e 8a ba e8 3c a4 7c 9c 39 cf 4d 35 be
       0.22185706 0.028409261 0.00029847503 -0.17705463
000230 73 52 04 3e e7 43 de 3b 9e f8 09 bc 62 fc 86 be
       0.12922077 0.006782997 -0.008421091 -0.26364428
000240 2d f1 90 3c 87 76 88 bd 7a bc cf 3c 7a 37 9d 3d
       0.017693127 -0.06663232 0.025358427 0.07676597
000250 62 1d 03 3e 8e de e0 3d 57 8f c5 3d b2 7e f3 be
       0.12804177 0.10979949 0.096464805 -0.47557598
000260 05 7f 03 3d ca e0 a2 3b 14 fa 4d bd d6 7a 8a 3b
       0.032103557 0.0049706446 -0.05028732 0.004226069
000270 1b 5c bd be d3 9d 41 bd fa 52 9e bb e1 16 56 3e
       -0.36984333 -0.047269654 -0.004831669 0.20907165
000280 72 90 0e 3f b6 bf 57 3e 50 cc f6 bd d9 f0 98 bc
       0.55689156 0.21069226 -0.12050688 -0.018669533
000290 00 19 0d 3b 36 8a 77 3d 48 f5 06 3b 84 48 c3 bd
       0.0021529794 0.060434543 0.0020592976 -0.09535316
0002a0 4b b5 ef 3d 58 fc 54 37 55 b1 be 3c 52 e7 57 3c
       0.11704501 1.2694938e-05 0.023277918 0.01317771
0002b0 38 fc 28 3c 57 c9 09 3f d1 46 04 3e ef 12 78 3d
       0.01031404 0.53822845 0.1291764 0.06056493
0002c0 19 8d 0b 3d e9 ec d8 bc 84 aa 8f be b4 16 50 3c
       0.034070108 -0.026480155 -0.2805978 0.012700725
0002d0 da 2c 28 bf 5f 1a ae bb e5 50 c7 be 11 44 66 3d
       -0.6569344 -0.0053132023 -0.38928905 0.056217257
0002e0 a3 f1 ce 3e 17 33 bc bc 06 db 43 3e 65 91 1f be
       0.4041873 -0.02297358 0.1912652 -0.15582807
0002f0 2a a7 0c 3d 1c f1 7f ba 3d 1a f6 3d a1 77 43 bc
       0.034339108 -0.0009763406 0.12016723 -0.011930377
000300 2e e9 4e 3d 88 1e 53 3d 31 c5 f1 3c c5 d6 f7 3e
       0.050515346 0.05154279 0.029512974 0.48406044
000310 d4 54 c2 3d 0e bc e3 3c b2 97 16 be 65 34 98 3e
       0.09488836 0.027799632 -0.14706305 0.29727474
000320 1e bc f0 be 77 dd e7 3c 41 b6 91 3e 46 c8 a8 3f
       -0.47018522 0.028303845 0.2845936 1.3186119
000330 22 6e df 3c 71 bc 52 bd e1 37 69 bd f2 eb 60 3c
       0.027274195 -0.051449243 -0.056938056 0.013728129
000340 30 34 90 3e 4f e9 86 be 7e 43 f6 3d 1d eb d0 bd
       0.28164816 -0.26349875 0.12024592 -0.10201094
000350 74 c8 f7 3c 3f 1a c1 bd 99 15 7f bd 80 75 c3 bd
       0.03024695 -0.09428834 -0.062276457 -0.09543896
000360 b1 5e 72 3c a2 21 ce 3d 06 91 9d be c0 8e b6 bd
       0.014793084 0.10065009 -0.30774707 -0.08913946
000370 3f c1 70 3d a4 36 8b 3c f2 69 80 be a3 dd 00 bf
       0.058778044 0.016993828 -0.2508083 -0.5033819
000380 bb 8f 8a be a0 99 89 bc 22 6c 6c bf 0a a3 3a bc
       -0.27062783 -0.016796887 -0.923525 -0.011391411
000390 0a e6 d5 3c 21 8a 30 3d 2d 1f 3d 3e fc 81 97 3d
       0.026110668 0.04310048 0.18468924 0.073978394
0003a0 ae 71 49 bc 24 17 c4 b8 fe 01 29 bc 75 6b 9b bc
       -0.01229517 -9.3503186e-05 -0.010315416 -0.018972138
0003b0 89 71 ba 3d 4b 95 26 bf d9 0f 07 3f 52 06 21 be
       0.09103686 -0.65071553 0.52758557 -0.15725067
0003c0 e8 51 94 3c ca 96 54 3d 58 7c a4 bd 38 ff 11 3d
       0.018105462 0.051901616 -0.08031529 0.035643786
0003d0 a5 ba a1 bc fd 8e b9 bb 22 d8 88 38 0d c7 22 3e
       -0.01974232 -0.0056627975 6.525243e-05 0.15896244
0003e0 37 4f 50 bd ea 2d e0 3d 59 b6 d5 bd ca 03 c2 3e
       -0.050856795 0.109462574 -0.10435171 0.37893516
0003f0 01 9f 26 3b 91 b2 a5 3c c8 d5 1d 3d 8b 5a ac bc
       0.0025424364 0.020226749 0.038533956 -0.021039268

final.linears.2.bias f4 [11]
000000 fd 8b bb bc 17 ca 14 3c 77 3d 09 be 40 4f 58 be
       -0.0228939 0.009081385 -0.13402353 -0.21123981
000010 c0 0d a2 bd f5 25 9a bc eb de ba 3c e0 d4 14 bd
       -0.07912779 -0.018816927 0.022811374 -0.036335826
000020 0a bd 0e bd 8c 08 11 3c 6f fb 08 3d
       -0.03484825 0.008852135 0.03344291

layers.0.attn.0.gnn_q.weight f4 [11, 16]
000000 3b d9 36 88 d5 fd 1a 88 64 f2 65 88 2b 59 93 08
       -5.5023986e-34 -4.6641067e-34 -6.919711e-34 8.868204e-34
000010 a3 00 95 87 ae 0a 1c 07 bc df 0b 88 7f 4c 66 88
       -2.2419402e-34 1.1739274e-34 -4.209179e-34 -6.930303e-34
000020 c1 22 4c 07 af ad 48 88 9b 3d 89 07 51 81 95 88
       1.5357467e-34 -6.0389475e-34 2.0649677e-34 -8.998013e-34
000030 ab 5d 13 87 85 4f 42 08 c8 f1 13 08 89 7a 40 08
       -1.1086577e-34 5.8473226e-34 4.4520416e-34 5.792194e-34
000040 4d 53 61 88 fe c9 87 07 4a 74 c5 87 ac a6 53 88
       -6.7806394e-34 2.0431263e-34 -2.9709614e-34 -6.3691425e-34
000050 4e f9 0c 88 1c 9e ed 07 76 9b 82 88 ac f9 bb 86
       -4.2422774e-34 3.5752725e-34 -7.860639e-34 -7.070844e-35
000060 94 6d c7 07 ee f9 93 87 59 76 62 08 26 9e 8a 08
       3.0006596e-34 -2.2264997e-34 6.814852e-34 8.342753e-34
000070 36 15 1e 08 60 05 06 08 ae dc ef 07 ac 2a 53 08
       4.757133e-34 4.0330476e-34 3.6090427e-34 6.3545663e-34
000080 82 9f dc 87 24 06 56 88 9a 01 2d 88 ac 30 cc 06
       -3.3195671e-34 -6.44055e-34 -5.2062176e-34 7.680779e-35
000090 03 11 f9 86 a2 cd e4 86 03 71 f2 07 0e ab cd 87
       -9.3688386e-35 -8.606622e-35 3.6478535e-34 -3.0945509e-34
0000a0 7c 3c 58 87 04 ea 7a 07 ce ab 19 08 8f 2e b8 07
       -1.6267809e-34 1.8876681e-34 4.624372e-34 2.7712608e-34
0000b0 bd 2c 8d 87 5a f0 1e 07 66 43 96 07 21 ea c4 07
       -2.1241617e-34 1.1957232e-34 2.2609105e-34 2.962841e-34
0000c0 ab e7 25 08 f9 ea 49 07 d8 91 52 87 c6 1f 20 08
       4.9925206e-34 1.5190612e-34 -1.5841504e-34 4.81856e-34
0000d0 ff 97 5b 88 83 5e 09 88 48 6d 8d 87 4f 7e d1 86
       -6.6081586e-34 -4.1338036e-34 -2.1279552e-34 -7.8802656e-35
0000e0 c9 74 9b 07 16 2d 19 08 22 50 85 08 b6 ce cb 86
       2.3390448e-34 4.609476e-34 8.0234855e-34 -7.666385e-35
0000f0 81 c5 2a 07 74 36 7e 88 63 6d bc 87 88 08 ed 87
       1.284742e-34 -7.6499354e-34 -2.8351388e-34 -3.566481e-34
000100 56 20 3f 88 e0 af ca 07 51 59 1d 88 da 0b 4b 08
       -5.7514982e-34 3.0496952e-34 -4.735046e-34 6.110202e-34
000110 bf 1f 49 08 4b 86 87 07 a5 7a 1a 88 bb 3d 1f 88
       6.0523555e-34 2.0391473e-34 -4.6486857e-34 -4.7919886e-34
000120 8d 77 40 88 44 f3 ce 07 87 b8 25 06 18 10 d3 07
       -5.791843e-34 3.1138414e-34 3.116862e-35 3.175721e-34
000130 dc 4e 09 08 e2 69 33 05 1a 25 9e 07 ec 19 25 08
       4.1319637e-34 8.435987e-36 2.3795004e-34 4.9683352e-34
000140 b7 59 aa 08 8c b6 ef 07 2d 0c 2e 88 33 46 3e 88
       1.0252595e-33 3.6068015e-34 -5.2375533e-34 -5.7258564e-34
000150 72 a4 66 07 8b 6b b2 06 05 22 96 87 52 dd 85 07
       1.7351603e-34 6.711418e-35 -2.2589486e-34 2.0141696e-34
000160 d0 6b 8c 06 25 9e 86 88 c6 64 44 88 18 fe b1 87
       5.2820563e-35 -8.102011e-34 -5.9100063e-34 -2.6781343e-34
000170 33 86 95 88 8b b1 28 08 52 b0 1c 08 35 e8 00 08
       -8.999161e-34 5.076436e-34 4.7151806e-34 3.8791557e-34
000180 0f 0b 24 88 82 85 6b 87 78 db bb 07 17 d5 d2 07
       -4.9364954e-34 -1.771867e-34 2.8265625e-34 3.172253e-34
000190 a2 5d 78 08 c8 cb 68 88 e4 fa da 87 47 fb 7a 88
       7.473985e-34 -7.0054504e-34 -3.2948455e-34 -7.5527014e-34
0001a0 a7 fb 88 87 f6 58 da 07 d0 39 3a 88 be 4d 8d 86
       -2.0610914e-34 3.285328e-34 -5.6040297e-34 -5.3152537e-35
0001b0 e2 be 0d 06 27 ca b4 87 43 b1 76 08 e5 6a 56 87
       2.665939e-35 -2.7202204e-34 7.4236302e-34 -1.6130984e-34
0001c0 9e 46 47 87 63 40 e3 07 f6 1e 41 07 dc 08 31 87
       -1.4991849e-34 3.4193007e-34 1.4528805e-34 -1.3318604e-34
0001d0 14 4b a7 07 7b 0d 5a 88 f3 c1 fd 07 78 64 08 87
       2.5171494e-34 -6.5617835e-34 3.8181202e-34 -1.0261028e-34
0001e0 92 6b 45 06 99 fa b5 87 36 d8 04 08 84 00 47 88
       3.7130612e-35 -2.7381141e-34 3.997646e-34 -5.988499e-34
0001f0 b0 c1 13 08 34 3c 18 07 42 70 54 88 1e 33 04 08
       4.446388e-34 1.1452901e-34 -6.392839e-34 3.9782393e-34
000200 f3 d1 84 88 f9 60 b6 07 2b 06 13 87 77 a5 f9 87
       -7.99382e-34 2.7441312e-34 -1.1060863e-34 -3.7562607e-34
000210 f2 2f 2c 88 ae 3b 1e 07 97 9c de 07 e2 f9 83 08
       -5.1815727e-34 1.1904137e-34 3.3494883e-34 7.943023e-34
000220 de 49 a2 85 1d cc 00 88 eb e0 89 88 94 da 0d 88
       -1.5261541e-35 -3.8758533e-34 -8.2982655e-34 -4.268758e-34
000230 b1 38 79 88 8d 95 50 88 1d 08 05 87 d0 b7 2f 08
       -7.4997352e-34 -6.276852e-34 -1.0008192e-34 5.2878217e-34
000240 ae 8a 56 08 db 68 8d 07 2b fb 66 88 ac ae 32 87
       6.45613e-34 2.127695e-34 -6.9508354e-34 -1.3442563e-34
000250 18 02 c4 07 5f fd 42 87 f4 4d 13 08 fa fc c4 87
       2.9492033e-34 -1.4669397e-34 4.4327837e-34 -2.9639489e-34
000260 de a8 dc 07 0a bd 7a 88 60 ce b4 87 cf 07 f5 86
       3.3201172e-34 -7.5453853e-34 -2.7204686e-34 -9.217023e-35
000270 c3 1b 73 07 59 fb 96 87 75 2c a9 86 af af 48 87
       1.8289447e-34 -2.271722e-34 -6.363606e-35 -1.5097956e-34
000280 9c 7c 24 08 b4 ae 00 87 ca 87 60 87 28 c8 52 88
       4.9498432e-34 -9.68099e-35 -1.6891792e-34 -6.342986e-34
000290 7e 2a ce 87 ca 7e f7 86 00 2b 2e 08 85 96 9d 88
       -3.102041e-34 -9.3097373e-35 5.2411767e-34 -9.484481e-34
0002a0 82 fb 4c 86 71 29 92 07 5d f7 3c 08 88 38 33 08
       -3.8552914e-35 2.1991995e-34 5.6864966e-34 5.3932305e-34
0002b0 44 2e 2f 87 c5 20 11 88 89 39 54 08 f5 17 84 88
       -1.3179133e-34 -4.367287e-34 6.386406e-34 -7.950093e-34

layers.0.attn.0.gnn_q.bias f4 [16]
000000 b6 af 36 08 eb fa 69 08 7a 4c 64 08 fd 09 98 07
       5.497518e-34 7.041084e-34 6.870115e-34 2.2876289e-34
000010 05 48 f2 87 6d d9 0c 87 34 44 b6 87 4f 6a 33 07
       -3.6454442e-34 -1.0596325e-34 -2.7424403e-34 1.3497705e-34
000020 ba 14 cc 87 ec 29 be 07 6c 9c 87 85 26 66 9d 87
       -3.070669e-34 2.8612662e-34 -1.27528e-35 -2.3682772e-34
000030 40 08 71 88 6e 3e 2f 07 f4 ec 34 08 83 8c 6e 86
       -7.2532997e-34 1.3183883e-34 5.4445317e-34 -4.4866057e-35

layers.0.attn.0.gnn_k.weight f4 [11, 16]
000000 31 25 8e 07 52 90 2e 08 56 b1 22 07 45 ea 32 87
       2.1387644e-34 5.253087e-34 1.223964e-34 -1.3460077e-34
000010 79 c5 a2 88 e5 8d 08 88 26 64 35 88 a3 2e af 86
       -9.796446e-34 -4.1092808e-34 -5.458543e-34 -6.589621e-35
000020 b1 1f 0d 87 62 11 18 07 2a 6c 62 08 64 bb da 07
       -1.0616974e-34 1.1440317e-34 6.8136547e-34 3.2911133e-34
000030 d2 19 87 87 22 82 f4 07 e0 ea 8d 88 93 69 86 88
       -2.0327718e-34 3.6789525e-34 -8.541348e-34 -8.089652e-34
000040 a2 1a 22 88 15 8e 8d 07 eb 74 dd 07 f9 3f 52 08
       -4.878141e-34 2.129883e-34 3.3321102e-34 6.3269776e-34
000050 84 e6 16 88 0e d2 73 05 8c 48 79 07 40 b9 f8 07
       -4.5409953e-34 1.1464386e-35 1.8753998e-34 3.7423773e-34
000060 a4 28 c0 87 b5 0d bf 87 20 7c 96 88 73 6e 80 88
       -2.8912836e-34 -2.8746542e-34 -9.056978e-34 -7.729686e-34
000070 45 9f be 07 f5 e7 aa 07 f4 c5 f7 87 3e 70 34 08
       2.8681633e-34 2.571509e-34 -3.7280776e-34 5.429872e-34
000080 0e a0 38 08 34 01 cc 86 86 3d 2d 86 ec 62 d1 86
       5.555863e-34 -7.673804e-35 -3.2582884e-35 -7.8762415e-35
000090 29 e5 1d 87 43 eb e3 07 da 52 97 07 c9 38 6f 87
       -1.1878711e-34 3.4293438e-34 2.276865e-34 -1.7997049e-34
0000a0 4d f5 1c 07 0d 9a b3 07 24 30 81 86 b2 60 c4 85
       1.1808223e-34 2.702347e-34 -4.8595143e-35 -1.8467272e-35
0000b0 6e e6 0a 07 52 6b 34 87 85 10 3c 87 6c 47 d0 06
       1.0449683e-34 -1.3573234e-34 -1.4148403e-34 7.834585e-35
0000c0 f8 79 9c 06 c9 dd ef 86 2f 72 fe 86 e4 7b a4 86
       5.8859895e-35 -9.022769e-35 -9.571196e-35 -6.1871984e-35
0000d0 0a 2d 5d 88 9f 08 0b 08 c3 40 1d 08 49 78 bd 07
       -6.655771e-34 4.1838925e-34 4.7321596e-34 2.8508257e-34
0000e0 43 23 0c 06 3c 26 5a 07 1c 38 cd 87 13 20 82 88
       2.635698e-35 1.6411733e-34 -3.087795e-34 -7.831631e-34
0000f0 6e 95 c3 06 2b b0 5b 88 a2 f5 8c 07 10 1c f4 87
       7.3570415e-35 -6.611e-34 2.1209229e-34 -3.6729533e-34
000100 53 3c e4 07 9f 89 17 07 f1 e6 80 06 e4 4e 77 86
       3.4341083e-34 1.1400421e-34 4.8487587e-35 -4.6513496e-35
000110 b2 a4 7a 08 a7 3d e3 87 37 15 1f 88 c5 40 8f 86
       7.5425237e-34 -3.41914e-34 -4.787226e-34 -5.388579e-35
000120 40 3f 44 83 d1 a5 03 88 c1 78 94 08 d6 e7 34 88
       -5.767183e-37 -3.9616295e-34 8.935815e-34 -5.44393e-34
000130 fc a9 a7 87 80 29 86 07 44 2b e4 06 e0 5c bb 87
       -2.5227275e-34 2.018647e-34 8.582764e-35 -2.819122e-34
000140 44 55 f1 87 e4 3d 42 08 16 79 48 08 d3 b3 e8 07
       -3.6311764e-34 5.8452504e-34 6.0327647e-34 3.5013171e-34
000150 c3 a9 3a 88 90 40 8e 87 bb 48 93 88 d9 b3 84 07
       -5.6171893e-34 -2.1403732e-34 -8.8643395e-34 1.9966858e-34
000160 29 64 30 86 12 05 db 87 10 e3 44 88 45 10 2f 88
       -3.3175507e-35 -3.2954438e-34 -5.9248515e-34 -5.268127e-34
000170 ea dd 21 87 71 21 03 87 10 67 a5 06 6f 9d 17 08
       -1.2177508e-34 -9.865172e-35 6.221754e-35 4.562497e-34
000180 fa d2 cf 87 52 ca 0c 87 9b 88 ae 87 d3 8e bc 07
       -3.12699e-34 -1.0591886e-34 -2.62609e-34 2.837104e-34
000190 08 f7 96 08 56 6e ff 05 5b fb 66 88 57 a3 1d 88
       9.085873e-34 2.4020616e-35 -6.9508574e-34 -4.7437474e-34
0001a0 9d 71 97 08 d8 ed ef 07 28 fc 5b 08 4c b7 a9 05
       9.114692e-34 3.6100515e-34 6.6199324e-34 1.5960016e-35
0001b0 fe 8c 7f 87 c3 1d 1b 07 b8 88 dc 87 03 55 8f 08
       -1.9225502e-34 1.166965e-34 -3.3182277e-34 8.626486e-34
0001c0 08 03 4d 08 54 87 a3 05 ce b3 89 07 3f 21 f0 07
       6.1693507e-34 1.5378158e-35 2.0719149e-34 3.6130727e-34
0001d0 21 f5 01 08 ab de c7 07 6e fb 54 88 49 f6 69 88
       3.9107673e-34 3.0073065e-34 -6.4091984e-34 -7.0405394e-34
0001e0 bf d8 ea 07 94 92 6b 07 17 75 85 87 8a 86 e1 85
       3.5335799e-34 1.772251e-34 -2.0080435e-34 -2.120832e-35
0001f0 d1 a9 fe 06 95 ba 8e 88 1a d4 9c 87 7c 12 99 88
       9.5793704e-35 -8.590179e-34 -2.3596933e-34 -9.212698e-34
000200 d2 e0 f6 86 80 63 06 86 89 8c b3 07 04 54 eb 86
       -9.286526e-35 -2.52757e-35 2.7015526e-34 -8.8520625e-35
000210 98 8e 8f 08 60 63 6c 07 95 8b 84 88 c0 14 95 08
       8.640023e-34 1.778387e-34 -7.977277e-34 8.97249e-34
000220 bd d6 69 08 3e 71 9f 07 9f 5d 73 88 86 62 87 88
       7.036831e-34 2.3990219e-34 -7.3235204e-34 -8.14818e-34
000230 cf 2e 73 87 a4 d0 f9 07 b3 ae 19 87 98 8d 91 88
       -1.8295044e-34 3.7587984e-34 -1.156178e-34 -8.760159e-34
000240 4e 8a cc 07 4f 5f 65 08 f0 2a de 87 e7 05 0f 07
       3.0775797e-34 6.9024216e-34 -3.3428084e-34 1.0759859e-34
000250 3f 8c 1c 88 b3 cd 90 87 f7 e7 89 07 4f b6 8f 07
       -4.71094e-34 -2.178761e-34 2.0749806e-34 2.16234e-34
000260 d3 51 57 06 26 b7 02 08 1a 99 3e 88 e2 7d 2d 88
       4.049712e-35 3.933574e-34 -5.7356015e-34 -5.220827e-34
000270 22 81 24 87 2d 0f e4 87 c7 08 13 08 ea 51 67 07
       -1.2375937e-34 -3.4314547e-34 4.424652e-34 1.7402581e-34
000280 19 32 00 08 0e 3b 18 88 1e f0 92 06 4e 68 f3 87
       3.857749e-34 -4.5810255e-34 5.5271917e-35 -3.662388e-34
000290 9e 99 78 88 d3 15 02 08 07 ab 97 08 1c ed 30 07
       -7.481036e-34 3.9146106e-34 9.12819e-34 1.3310449e-34
0002a0 a9 75 d0 07 87 a1 4e 87 a5 a4 ae 87 90 3a 32 87
       3.1365516e-34 -1.5545186e-34 -2.627738e-34 -1.3408442e-34
0002b0 c7 d4 87 08 e0 56 61 88 96 f9 c2 05 44 8f 3b 08
       8.175041e-34 -6.7810596e-34 1.8335356e-35 5.6441673e-34

layers.0.attn.0.gnn_k.bias f4 [16]
000000 fe bd 4b 08 cf 23 72 87 89 b7 a7 87 fb ec 61 88
       6.1311425e-34 -1.821658e-34 -2.523524e-34 -6.7987044e-34
000010 7f 3a 19 08 53 44 e2 06 bb 38 15 08 8b 35 3e 88
       4.6110525e-34 8.5112145e-35 4.4904743e-34 -5.7238985e-34
000020 aa 92 6f 08 7d d2 72 88 92 38 71 88 9d 7c 49 87
       7.209385e-34 -7.3071654e-34 -7.2589798e-34 -1.515818e-34
000030 07 f7 43 07 6c de b4 87 36 4e af 87 70 ac 44 87
       1.4742764e-34 -2.7214118e-34 -2.6377042e-34 -1.4796076e-34
