checkpoints/cyp2c19_veith_40_train1_pos/Aug23-18:49:42_600.pth (torch, 427967 bytes, 294 tensors)

layers.0.weight f4 [18, 16]
0.83801365 0.1800345 -0.010078547 0.6619901 -0.4860563 0.07568168 -0.6572562 0.08305914
0.84623533 -0.1349285 0.82141906 -0.039455432 0.052818716 0.9873531 0.0712602 0.011368673
0.2466803 0.15935928 -0.024747757 0.22746736 -0.4803477 -0.05921518 -0.4120521 0.0558237
-1.8689533 0.19988815 -0.71675205 -0.025312986 0.055628747 -1.1254017 0.21283217 -0.1331925
0.525549 -0.15758765 -0.36899158 0.3765369 -0.39527878 0.5042346 0.48639637 -0.9128323
0.559043 0.10108365 -0.42755604 2.4238515 0.47639355 -0.6372504 0.4505057 0.4092108
0.37755245 -0.5544287 -0.2776422 -0.3865955 -0.13997376 1.202813 0.32875046 0.29669595
0.2696712 0.10553218 0.4113773 -0.46881443 0.34308165 -0.57295084 0.262029 -0.24962409
0.3177319 -0.22427815 -0.15070221 -0.4957848 -0.23234029 -0.23078316 0.3674586 0.16071227
0.29024443 -0.35721907 0.02706838 -0.46335065 0.19034734 -0.5186285 1.4387215 0.3519636
0.19002418 -0.37994692 0.0008637861 -0.3810398 0.09337413 -0.10528251 0.2728672 -0.11720417
-0.05701969 -0.060929548 0.11875761 -0.05301927 0.26060894 -0.025723329 0.07050273 -0.46526763
0.18679696 -0.09041638 -0.8273456 -0.6565724 -0.80036896 0.07943609 0.017495684 -0.15600868
0.4900516 -0.16588844 -0.7209461 0.044654958 -0.93952936 1.0784574 0.0686109 -0.7241984
0.4416789 -0.87780064 -0.64069504 0.34680408 0.72693413 -0.11417536 -0.9533115 -0.07126853
0.3978806 -0.47176677 0.44869065 0.02635337 -1.2031207 -0.86658686 -0.021325905 0.34632254
-0.12391279 -0.77818495 0.9965152 0.25318852 -0.6719038 -0.14095919 -0.12541847 -0.06659823
-0.76399845 -0.37454906 -0.013595058 0.00015682574 0.57898396 -0.19521096 0.13016379 -0.19283928
0.47139996 0.10035151 0.23543793 0.62733555 0.37432712 0.09079332 0.37650043 -0.06777567
0.14371842 -1.0411345 0.12916686 -0.16368675 0.36474523 -0.41288486 0.15322897 -0.79429734
0.87673104 0.39368668 0.28105593 -0.57338125 0.52191836 0.012000681 -0.36530852 -0.045724053
0.54245085 -0.35608652 -0.5935274 -0.026437478 0.48149157 0.20808913 -0.12553509 -0.13698505
-1.3703477 -0.3623543 0.7595549 -0.32514298 -0.34773487 0.043823265 0.278992 -0.0260883
1.0835997 -0.70052135 -0.3906634 0.004112883 -0.712367 -0.6154909 -0.1108986 0.17970672
0.7280543 0.8423294 -0.26491773 0.041148737 -0.33779648 -0.33953288 0.1796753 -0.08885065
-0.123095535 0.14463839 0.6833736 0.011462261 -0.9534882 -0.58391476 -0.06965861 -0.40226993
0.7754129 0.36020634 0.9266335 0.16753443 -0.36018643 0.01978272 0.9806277 0.1458452
0.14480926 0.25532824 -0.5663632 -0.0707042 -0.85224503 0.16500774 0.042028077 -0.40619633
-0.9397829 0.52460366 0.19679987 -0.10917005 -0.6369155 -0.28147605 -0.78801155 0.030286478
0.68569034 0.6923717 0.29718477 0.0022876174 0.2159411 -0.90052885 -0.028016314 -0.12953259
1.0417776 -0.25750527 0.46328145 -0.7255163 -0.8048303 0.09535528 -0.9877936 -0.026831599
-0.43208128 -0.12722519 -0.6824147 0.006310638 -0.37359363 -0.1324717 -0.113589965 0.025925267
00000000: 1088 563f f75a 383e 7d20 25bc 2f78 293f
00000010: 5fdc f8be fffe 9a3d f141 28bf e91a aa3d
00000020: e1a2 583f b22a 0abe 8548 523f 059c 21bd
00000030: 7058 583d 2cc3 7c3f def0 913d ac43 3a3c
00000040: c399 7c3e 142f 233e cfbb cabc 34ed 683e
00000050: 22f0 f5be 9e8b 72bd 7ef8 d2be 64a7 643d
00000060: dd39 efbf 7baf 4c3e 107d 37bf 2e5d cfbc
00000070: f8da 633d 2a0d 90bf adf0 593e 9d63 08be
00000080: 618a 063f a85e 21be 77ec bcbe 72c9 c03e
00000090: fb61 cabe 8515 013f f208 f93e 61af 69bf
000000a0: 711d 0f3f f204 cf3d a0e8 dabe 6220 1b40
000000b0: dbe9 f33e d822 23bf afa8 e63e 1484 d13e
000000c0: 8e4e c13e 0aef 0dbf 1e27 8ebe d8ef c5be
000000d0: 4855 0fbe c7f5 993f fb51 a83e 88e8 973e
000000e0: 5812 8a3e 4121 d83d 0ca0 d23e 7208 f0be
000000f0: 66a8 af3e e8ac 12bf aa28 863e 759d 7fbe
00000100: c1ad a23e 2ca9 65be ae51 1abe 81d7 fdbe
00000110: 9dea 6dbe 6c52 6cbe 8923 bc3e c291 243e
00000120: eb9a 943e 6be5 b6be 82be dd3c 4c3c edbe
00000130: 6aea 423e d6c4 04bf 0728 b83f 9334 b43e
00000140: b395 423e 6788 c2be b46f 623a a617 c3be
00000150: f03a bf3d 5b9e d7bd 40b5 8b3e bd08 f0bd
00000160: 7a8d 69bd 4391 79bd 3137 f33d bc2a 59bd
00000170: 896e 853e bbb9 d2bc bc63 903d 8f37 eebe
00000180: b447 3f3e 392c b9bd eccc 53bf 2115 28bf
00000190: fbe4 4cbf 64af a23d 1c53 8f3c bdc0 1fbe
000001a0: 0be8 fa3e a9de 29be ec8f 38bf 1ee8 363d
000001b0: ff84 70bf e40a 8a3f df83 8c3d 1165 39bf
000001c0: bd23 e23e 8bb7 60bf 9704 24bf 4e90 b13e
000001d0: 5b18 3a3f c5d4 e9bd 390c 74bf 3cf5 91bd
000001e0: 02b7 cb3e 6a8b f1be c8ba e53e 06e3 d73c
000001f0: dcff 99bf a3d8 5dbf aab3 aebc 3051 b13e
00000200: fdc5 fdbd 2137 47bf 9f1b 7f3f eda1 813e
00000210: e301 2cbf 9b57 10be b36d 00be a764 88bd
00000220: 6795 43bf e5c4 bfbe cebd 5ebc 9771 2439
00000230: 4b38 143f 62e5 47be a849 053e a977 45be
00000240: 565b f13e 1885 cd3d a416 713e 1099 203f
00000250: cea7 bf3e d9f1 b93d aac4 c03e f8cd 8abd
00000260: ec2a 133e e543 85bf 5144 043e 809d 27be
00000270: e3bf ba3e a565 d3be 0ee8 1c3e 1257 4bbf
00000280: 7271 603f 4d91 c93e 90e6 8f3e 1dc9 12bf
00000290: 719c 053f 819e 443c b809 bbbe 2549 3bbd
000002a0: 0fde 0a3f f950 b6be 69f1 17bf 6993 d8bc
000002b0: 1086 f63e 5115 553e 458c 00be cf45 0cbe
000002c0: 8e67 afbf 8186 b9be 3172 423f 2479 a6be
000002d0: 4e0a b2be 0680 333d 0ad8 8e3e 21b7 d5bc
000002e0: 65b3 8a3f 5e55 33bf 0805 c8be 5dc5 863b
000002f0: af5d 36bf d090 1dbf ce1e e3bd 0a05 383e
00000300: c461 3a3f e6a2 573f 4ca3 87be 948b 283d
00000310: a9f3 acbe 41d7 adbe cdfc 373e 54f7 b5bd
00000320: 8319 fcbd 161c 143e 92f1 2e3f 35cc 3b3c
00000330: cd17 74bf 707b 15bf 2ca9 8ebd 53f6 cdbe
00000340: 7681 463f f76c b83e da37 6d3f 258e 2b3e
00000350: 5b6a b8be 5f0f a23c 6b0a 7b3f 7258 153e
00000360: e148 143e 62ba 823e 2efd 10bf 5dcd 90bd
00000370: bb2c 5abf caf7 283e a225 2c3d f7f8 cfbe
00000380: 9d95 70bf 6d4c 063f e885 493e 8c94 dfbd
00000390: e50c 23bf a11d 90be 20bb 49bf 591b f83c
000003a0: 6789 2f3f 463f 313f 9a28 983e daeb 153b
000003b0: aa1f 5d3e 0f89 66bf 7882 e5bc 31a4 04be
000003c0: f858 853f bbd7 83be 3a33 ed3e 70bb 39bf
000003d0: 5c09 4ebf a149 c33d 0be0 7cbf f1cd dbbc
000003e0: c239 ddbe 5247 02be bbb2 2ebf 78c9 ce3b
000003f0: aa47 bfbe a9a6 07be dba1 e8bd 3a61 d43c

layers.0.bias f4 [16]
0.13433675 -0.09864016 -0.25825876 0.08802497 -0.18136613 -0.62559897 0.2049371 0.5022977
0.107591234 -0.015228401 -0.14544171 -0.60825247 0.15719816 -0.050993368 -0.77791494 0.009231774
00000000: 938f 093e da03 cabd 7e3a 84be 6f46 b43d
00000010: 0bb8 39be 4127 20bf 08db 513e 9596 003f
00000020: cb58 dc3d 8b80 79bc acee 14be 6fb6 1bbf
00000030: 8ef8 203e 6cde 50bd 6f25 47bf de40 173c

layers.1.weight f4 [16, 16]
0.2955106 0.6296003 0.19331422 0.1480267 -1.0717213 -1.3413916 0.19466858 -0.29605085
-1.0184321 -0.123910815 -1.0808766 -0.08718699 -0.29811808 -0.33985707 -0.24217138 0.7470614
-1.5448897 0.97583926 -0.062072195 0.030546485 -0.7298717 0.49002928 0.023909755 -0.0006443233
-0.6917725 0.8767759 0.10174133 -0.0707563 -0.1909454 0.03637446 0.08806148 -0.44301468
-0.7190641 -0.55283076 0.8026803 -0.04354824 0.6274863 -0.91064364 -0.25968298 -0.4771683
-0.09062323 0.96925735 -0.09906954 0.21108018 -0.24327867 0.025619173 0.24805216 -0.69990104
0.3310403 -0.029389955 -0.36543512 0.20188943 0.04274116 -0.58064914 0.021102065 0.006449021
-0.9528817 -0.025973242 0.4082524 -0.021212775 -0.8410545 0.4007781 -0.21939501 -0.100444175
1.1120722 0.18859313 -1.2039732 -0.11435144 1.1275454 0.42018375 -0.32419857 0.9309873
-0.38926837 0.063081786 -0.5260534 0.32205874 -0.010303653 0.067921385 0.28053516 -0.7396673
-0.05248276 0.43998605 0.5662679 0.034738287 0.008990986 0.1022271 -0.728708 -0.31866446
0.28699976 0.16287187 0.035425343 -0.42423156 0.306779 -1.3187518 0.14215657 1.2978386
-0.027602179 1.1448286 -0.3574252 0.14010783 1.2744353 0.42772928 0.2486332 0.0811586
-0.047989275 1.1011976 0.023245625 -0.34946746 -0.22231267 -0.26244554 -0.26715067 0.8917026
-0.35376936 0.2259417 -0.07889331 -1.0072192 0.15075378 -0.1431565 -0.26017708 0.033406086
-0.31975752 0.2684403 -0.5019736 0.24797066 0.9345566 0.72170585 0.27097937 -0.45236003
-0.9655142 -0.6555169 -1.5662881 0.15594152 0.040451378 -0.46333382 0.2314155 0.955158
0.7136065 -0.45143124 0.10976915 -0.8121679 -0.3030903 -0.3133242 -0.26216695 0.8010361
-0.36898568 0.5340804 -0.78683007 0.12685403 0.2956725 -0.8117332 0.06357331 0.20087741
-0.5942494 0.06883245 0.29523036 0.2724572 0.4357073 0.08939272 -0.045221444 -0.031379756
0.34836975 -0.9096817 -0.5449628 -0.16369809 -0.9228085 0.6537732 -0.2475765 0.522553
-0.9361529 0.85464686 -0.024695665 -0.27424145 0.49586824 -0.3056269 0.23627666 -0.09108048
-0.18979242 -0.05962797 0.1387204 -0.53874445 -0.09857555 0.24631858 0.47475576 0.38980865
0.036139004 0.07934476 -0.23401254 0.23275128 -1.0523163 -0.9705332 0.14304169 0.5069515
0.6067179 -0.1439135 -0.49990204 0.11344346 -0.3273286 0.18227367 0.2017201 0.07696483
0.56075525 1.2100022 0.46182737 0.13895006 -0.21460114 -0.32863432 -0.265621 0.8786139
0.11770785 0.99221635 -0.54555506 -0.07878713 -0.7649881 -0.4474301 -0.058768492 0.7138729
1.0727313 0.23953906 -0.283494 -0.18805048 0.11417966 0.5458784 0.22194707 -1.0879679
0.35537803 0.08032472 -0.25580785 -0.06259161 0.3180401 -0.8940089 1.215498 0.10208652
0.027754396 0.06588815 0.06553938 -0.14682533 0.5446919 -1.409017 0.46847486 0.44202626
0.25753927 0.06673597 0.28994545 0.28277284 -0.23413269 1.3527567 0.78688025 -0.33320504
-0.31043586 0.26099518 -0.13177553 -0.19589004 -0.29525408 0.19639775 -0.22809418 0.12284315
00000000: 2a4d 973e 7c2d 213f 2af4 453e 5094 173e
00000010: 2a2e 89bf b8b2 abbf 3357 473e fa93 97be
00000020: fc5b 82bf f4c4 fdbd 2a5a 8abf 188f b2bd
00000030: efa2 98be bf01 aebe c6fb 77be 6a3f 3f3f
00000040: f2be c5bf 9ad0 793f 6a3f 7ebd 9f3c fa3c
00000050: dfd8 3abf 1ee5 fa3e 64de c33c cee7 28ba
00000060: 0118 31bf 6374 603f c25d d03d aee8 90bd
00000070: 3187 43be 63fd 143d 9459 b43d d2d2 e2be
00000080: 9614 38bf 5186 0dbf 757c 4d3f a45f 32bd
00000090: f1a2 203f f11f 69bf 2bf5 84be 674f f4be
000000a0: ac98 b9bd 4021 783f f9e4 cabd 6725 583e
000000b0: 0b1e 79be 4ddf d13c 6301 7e3e b72c 33bf
000000c0: 1d7e a93e 34c3 f0bc 501a bbbe 1abc 4e3e
000000d0: 5b11 2f3d 6ca5 14bf 3dde ac3c 4f52 d33b
000000e0: 0ef0 73bf d6c5 d4bc 7506 d13e 6ac6 adbc
000000f0: 594f 57bf ca32 cd3e 16a9 60be adb5 cdbd
00000100: 6258 8e3f 8f1e 413e cb1b 9abf 1631 eabd
00000110: 6853 903f 5322 d73e 5bfd a5be 2f55 6e3f
00000120: 2f4e c7be 0631 813d 70ab 06bf e2e4 a43e
00000130: a7d0 28bc 5e1a 8b3d 4ea2 8f3e d65a 3dbf
00000140: 2af8 56bd da45 e13e eff6 103f bc49 0e3d
00000150: ee4e 133c 715c d13d 9c8c 3abf fd27 a3be
00000160: a2f1 923e e2c7 263e 2a1a 113d e134 d9be
00000170: 2312 9d3e dccc a8bf 7e91 113e 931f a63f
00000180: f71d e2bc be89 923f 7000 b7be 6d78 0f3e
00000190: b220 a33f 55ff da3e b499 7e3e 7b36 a63d
000001a0: 6790 44bd 0bf4 8c3f 9c6d be3c 66ed b2be
000001b0: efa5 63be 435f 86be f9c7 88be 9f46 643f
000001c0: 4221 b5be 435d 673e d192 a1bd 8fec 80bf
000001d0: 335f 1a3e 9e97 12be ee35 85be d2d4 083d
000001e0: 42b7 a3be 0271 893e 5881 00bf 05ec 7d3e
000001f0: 1a3f 6f3f b7c1 383f cfbd 8a3e bc9b e7be
00000200: f02b 77bf f5cf 27bf 217c c8bf 22af 1f3e
00000210: 58b0 253d 173a edbe 2ff8 6c3e 3c85 743f
00000220: eaae 363f ff21 e7be a6ce e03d 3cea 4fbf
00000230: a72e 9bbe 086c a0be bf3a 86be b410 4d3f
00000240: b1eb bcbe 7eb9 083f b26d 49bf 06e6 013e
00000250: 6362 973e bfcd 4fbf b932 823d cfb2 4d3e
00000260: bb20 18bf 07f8 8c3d 6f28 973e 837f 8b3e
00000270: 0715 df3e 8813 b73d 1f3a 39bd 0f88 00bd
00000280: 855d b23e e6e0 68bf af82 0bbf 79a0 27be
00000290: 2e3d 6cbf ae5d 273f b284 7dbe 09c6 053f
000002a0: b7a7 6fbf 23ca 5a3f 904e cabc 6069 8cbe
000002b0: 71e2 fd3e 217b 9cbe 82f2 713e 6788 babd
000002c0: f258 42be 753c 74bd b80c 0e3e 28eb 09bf
000002d0: fae1 c9bd f03a 7c3e 3013 f33e 0095 c73e
000002e0: 7e06 143d 817f a23d fca0 6fbe 5a56 6e3e
000002f0: 4db2 86bf dd74 78bf 8579 123e 93c7 013f
00000300: dd51 1b3f 0f5e 13be 29f3 ffbe 0b55 e83d
00000310: 9d97 a7be f3a5 3a3e b78f 4e3e bd9f 9d3d
00000320: a88d 0f3f 5ae1 9a3f a374 ec3e ed48 0e3e
00000330: 67c0 5bbe c242 a8be 7aff 87be d7ec 603f
00000340: d010 f13d e401 7e3f 7fa9 0bbf 265b a1bd
00000350: 43d6 43bf 8f15 e5be 3bb7 70bd 60c0 363f
00000360: 424f 893f ba49 753e 2026 91be 4e90 40be
00000370: 07d7 e93d b0be 0b3f 1846 633e 8842 8bbf
00000380: 1cf4 b53e 4981 a43d 3ff9 82be 0830 80bd
00000390: 27d6 a23e c4dd 64bf 7095 9b3f bd12 d13d
000003a0: 305d e33c 5ef0 863d 8339 863d 6159 16be
000003b0: ee70 0b3f ab5a b4bf f0db ef3e 4451 e23e
000003c0: 30dc 833e deac 883d bb73 943e 9ac7 903e
000003d0: 7bc0 6fbe 2227 ad3f fc70 493f da99 aabe
000003e0: 73f1 9ebe 29a1 853e 2af0 06be 6697 48be
000003f0: 8b2b 97be 7e1c 493e 8591 69be 3095 fb3d

layers.1.bias f4 [16]
0.08374603 -0.1540072 0.08709716 -0.17063755 0.09124596 -0.16067769 0.3204366 -0.02422334
0.19219382 0.18346477 0.008893928 0.057784837 -0.20165618 -1.009835 -0.07797446 0.04995561
00000000: 0a83 ab3d 10b4 1dbe ff5f b23d 9cbb 2ebe
00000010: 29df ba3d b188 24be 4410 a43e 0770 c6bc
00000020: 75ce 443e 30de 3b3e d6b7 113c cbaf 6c3d
00000030: f57e 4ebe 4642 81bf 13b1 9fbd 419e 4c3d

final.linears.0.weight f4 [100, 50]
0.40823376 1.4692526 0.024607152 0.06290351 0.10316389 -0.42621747 -1.0813534 1.0307493
0.34048235 -0.0075377394 0.08066787 -0.6049841 0.71054494 0.7593451 -0.4344643 1.3296872
0.6766828 0.79224575 0.05755965 0.012290688 0.023819348 -0.03382084 -0.048645597 0.11067669
-0.04649121 -0.08415596 -0.06510033 0.011667686 0.00445137 0.018423824 -0.07162689 0.032179046
0.06799282 -0.07680647 0.004344196 0.042251542 -0.097237915 0.082963035 0.0057860217 0.06330039
-0.0109902 0.007500846 0.12921745 0.042855743 0.07007792 -0.014714249 0.004904514 0.0530218
-0.05115749 -0.059787665 -0.082168646 -0.046973776 0.3512947 -0.47377226 0.1106574 -0.0031169034
0.012171759 0.07331159 -0.08149155 -0.18446834 -0.37226483 0.20466328 -0.13926575 0.096358344
0.060642496 0.16918871 0.07239327 -0.0845065 0.10475679 -0.12051968 -0.29170594 0.14445584
-0.19305615 -0.34109908 0.30480957 0.36050698 0.09259662 -0.082765415 -0.25145775 -0.16961037
0.21770753 -0.0682141 -0.41920304 0.0118765095 -0.03514009 -0.0015863117 -0.11177946 -0.14587556
-0.023647135 0.0057730568 0.1137698 -0.15976858 -0.016199611 -0.014348217 0.0115780495 -0.012137328
-0.09566666 -0.0031330555 -0.22691183 -0.033302642 -1.1642499 -1.166299 -0.025008604 -0.18296501
-0.020013338 -1.4919118 0.10830574 -0.50931674 1.3430126 -0.14351325 -1.6142353 0.51157117
1.9682462 -1.2896154 -0.95846105 1.0871205 -1.7680436 -0.6215914 -0.10076675 0.069948114
0.08479063 0.08473888 0.037121974 0.06413877 -0.05932937 -0.14202617 -0.1457049 0.11133702
0.035260316 -0.019477222 -0.13324153 -0.027016316 0.22447652 -0.14510131 0.15438965 0.07030655
-0.026352413 0.0207274 -0.14465532 -0.05361754 -0.0032220066 0.20703866 0.06147748 0.042886175
-0.025804222 -0.0236334 -0.0038300322 0.1477593 -0.12522909 0.10409036 -0.009050972 0.16303802
0.16315903 0.1668144 0.032678246 0.07942414 0.35243642 0.005770135 -0.15280099 -0.1315949
-0.8737415 -0.25270927 0.097995415 -0.0789289 -0.011043518 0.13818426 -0.012636412 0.024204088
0.059279807 0.013348209 0.029454676 -0.03280798 0.07368839 0.03209644 -0.15361835 -0.12664504
-0.14941046 0.066406325 -0.10374512 -0.059995003 -0.12925161 0.048805196 0.08284019 -0.10818393
0.07006683 -0.049171124 -0.0078070723 -0.010483043 -0.02988394 0.019294903 0.03951691 0.028420426
-0.07322892 0.011263869 0.0028593757 -0.09006807 -0.052510913 0.21570385 -0.05614179 0.1271876
0.022441475 0.031019218 1.177973 -2.4309962 0.5040016 -0.021490939 0.011121609 0.06694944
0.049520288 0.15074013 0.016390331 -0.008126484 0.017733758 -0.010947394 -0.0044850353 0.027670627
0.028603029 0.024022838 0.054054614 -0.0716529 -0.05199024 -0.09261993 0.014192225 -0.08115004
0.021413963 0.0639966 0.033249784 0.0015163706 0.04038147 -0.282247 0.032041673 0.024749603
-0.04477201 -0.10268035 -0.058459505 0.02650287 -0.014030125 0.20108917 0.006316717 0.084187016
0.050498586 -0.0010263256 -0.018340519 -0.008977967 -0.008000078 0.0901879 -0.05373635 0.38725084
-0.16923356 0.13442375 0.8467025 -0.433291 -0.57184273 -0.7746017 -0.5408822 0.02012049
00000000: 0404 d13e 7810 bc3f f094 c93c 8ed3 803d
00000010: 9747 d33d 2d39 dabe ca69 8abf 98ef 833f
00000020: b453 ae3e 24ff f6bb 3235 a53d 3de0 1abf
00000030: 46e6 353f 7164 423f 1b72 debe 3133 aa3f
00000040: 153b 2d3f 9ed0 4a3f abc3 6b3d e25e 493c
00000050: cb20 c33c b987 0abd 9b40 47bd 76aa e23d
00000060: 916d 3ebd f659 acbd 5253 85bd d229 3f3c
00000070: ccdc 913b 8fed 963c 1eb1 92bd 2dce 033d
00000080: d23f 8b3d b64c 9dbd c259 8e3b f40f 2d3d
00000090: ac24 c7bd 86e8 a93d ab98 bd3b a3a3 813d
000000a0: 3d10 34bc a8c9 f53b 9451 043e 8189 2f3d
000000b0: 0385 8f3d 0914 71bc 0cb6 a03b 632d 593d
000000c0: 848a 51bd e9e3 74bd 0948 a8bd 9367 40bd
000000d0: e6dc b33e 4792 f2be 59a0 e23d f644 4cbb
000000e0: 0f6c 473c 6324 963d 0be5 a6bd 45e5 3cbe
000000f0: 7f99 bebe 4093 513e ae9b 0ebe 8657 c53d
00000100: 4464 783d ce3f 2d3e ec42 943d be11 adbd
00000110: ba8a d63d 06d3 f6bd 7b5a 95be 3bec 133e
00000120: 83b0 45be 8aa4 aebe 0010 9c3e 5f94 b83e
00000130: 4ca3 bd3d ea80 a9bd 12bf 80be 57ae 2dbe
00000140: b9ee 5e3e d6b3 8bbd c8a1 d6be b195 423c
00000150: 0eef 0fbd caeb cfba a1ec e4bd 6760 15be
00000160: a3b7 c1bc e92b bd3b 2400 e93d 609a 23be
00000170: 0cb5 84bc c914 6bbc dcb1 3d3c a5db 46bc
00000180: e2ec c3bd f353 4dbb 935b 68be 5a68 08bd
00000190: 2406 95bf 4949 95bf d8de ccbc 2e5b 3bbe
000001a0: 03f3 a3bc f7f6 bebf 66cf dd3d 9562 02bf
000001b0: d6e7 ab3f 23f5 12be 439f cebf 54f6 023f
000001c0: 7eef fb3f 1e12 a5bf b45d 75bf c426 8b3f
000001d0: 414f e2bf 9d20 1fbf cc5e cebd f540 8f3d
000001e0: b6a6 ad3d 948b ad3d 360d 183d 305b 833d
000001f0: 5a03 73bd 4f6f 11be aa33 15be aa04 e43d
00000200: 1f6d 103d b28e 9fbc 7870 08be 5251 ddbc
00000210: 2cdd 653e 7095 14be 5218 1e3e e1fc 8f3d
00000220: 04e1 d7bc 82cc a93c 8620 14be 119e 5bbd
00000230: 4d28 53bb f101 543e cfcf 7b3d 6aa9 2f3d
00000240: 6063 d3bc d59a c1bc 4701 7bbb 374e 173e
00000250: 0e3c 00be 542d d53d 874a 14bc 70f3 263e
00000260: 2913 273e 65d1 2a3e a0d9 053d 20a9 a23d
00000270: 8c72 b43e 6713 bd3b dd77 1cbe d0c0 06be
00000280: 86ad 5fbf 1c63 81be d2b1 c83d 7aa5 a1bd
00000290: dfef 34bc 2d80 0d3e f408 4fbc a747 c63c
000002a0: 62cf 723d 72b2 5a3c ef4a f13c a961 06bd
000002b0: f0e9 963d 8f77 033d 214e 1dbe 3daf 01be
000002c0: 0eff 18be 0a00 883d 5278 d4bd 52bd 75bd
000002d0: 895a 04be f5e7 473d 1ea8 a93d 898f ddbd
000002e0: 337f 8f3d a967 49bd 78d2 ffbb 12c1 2bbc
000002f0: 2acf f4bc 5810 9e3c 7cdc 213d f4d1 e83c
00000300: 0bf9 95bd 178c 383c 5d64 3b3b 9c75 b8bd
00000310: af15 57bd 78e1 5c3e eff4 65bd 773d 023e
00000320: 2fd7 b73c 041c fe3c d2c7 963f 7195 1bc0
00000330: 4006 013f c40d b0bc 6937 363c ca1c 893d
00000340: c9d5 4a3d 9f5b 1a3e 0445 863c f224 05bc
00000350: 6346 913c b35c 33bc 34f7 92bb 83ad e23c
00000360: e650 ea3c 8bcb c43c 5f68 5d3d c1be 92bd
00000370: b8f3 54bd 85af bdbd 8286 683c fe31 a6bd
00000380: 566c af3c a610 833d ed30 083d f4c0 c63a
00000390: 0a67 253d ae82 90be 213e 033d aebf ca3c
000003a0: db62 37bd 134a d2bd 3c73 6fbd 8c1c d93c
000003b0: 9cde 65bc 52ea 4d3e 76fc ce3b 3e6a ac3d
000003c0: 9bd7 4e3d c685 86ba db3e 96bc 5318 13bc
000003d0: c212 03bc 6fb4 b83d a61a 5cbd be45 c63e
000003e0: 904b 2dbe 61a6 093e 7fc1 583f 51d8 ddbe
000003f0: 4964 12bf 4c4c 46bf 4177 0abf bad3 a43c

final.linears.0.bias f4 [100]
-0.050596554 0.65261596 -0.00974746 0.07403524 -0.0074524228 0.21765307 0.07814538 0.09339668
-0.040690262 0.0484 -0.0064654984 0.10606373 -0.13741009 0.10520019 0.09005236 0.104665905
0.18478724 0.013821071 0.5734963 -0.20750715 -0.20597687 0.13045561 0.023108229 0.12756842
0.1573381 0.07933204 -0.11045847 0.12780517 -0.11090473 0.21186413 -0.05156479 0.31535965
0.20862867 -0.11526362 0.040597234 0.0064603356 0.07031017 0.0714837 0.023075154 0.09759624
-0.044547237 0.057186615 -0.00526354 0.10227887 0.0008046349 0.10869033 0.030714694 -0.15692033
0.16381891 0.07646571 -0.03146716 -0.085728474 0.043316245 0.1478276 0.09292577 0.19068976
0.48143014 0.0011592178 0.0877792 -0.031387083 -0.05768289 0.10800392 0.00427963 0.26549482
0.09157012 -0.049613908 0.13407673 0.20860241 0.13070273 0.13568904 0.09509175 0.110197514
0.05984096 0.27103668 0.14631191 0.04077865 0.10445346 0.04240694 0.14124568 0.038102668
0.14122382 0.06902757 0.15027854 0.13093272 -0.111172326 0.07738746 -0.0029734469 -0.028296348
0.05156407 0.08302296 -0.3111439 0.1598077 -0.022783011 0.045967646 -0.049911015 0.124193154
0.443703 0.22761346 0.13848041 -0.10328345
00000000: 553e 4fbd d711 273f cfb3 1fbc ca9f 973d
00000010: 7433 f4bb 72e0 5e3e af0a a03d c246 bf3d
00000020: d5aa 26bd 143f 463d 88dc d3bb f137 d93d
00000030: 3bb5 0cbe 3273 d73d 5f6d b83d 145b d63d
00000040: de38 3d3e c671 623c a7d0 123f c17c 54be
00000050: 9aeb 52be 2896 053e 784d bd3c 4ca1 023e
00000060: 3d1d 213e d678 a23d 0d38 e2bd 5cdf 023e
00000070: 0522 e3bd e9f2 583e 9a35 53bd d276 a13e
00000080: c1a2 553e 550f ecbd 4949 263d 39b1 d33b
00000090: c7fe 8f3d 0c66 923d 1b08 bd3c 8ae0 c73d
000000a0: 2a77 36bd 833c 6a3d c679 acbb 9677 d13d
000000b0: 22ee 523a 0999 de3d 629d fb3c b9af 20be
000000c0: 25c0 273e 0e9a 9c3d b5e3 00bd 6992 afbd
000000d0: 606c 313d 1e60 173e de4f be3d 2d44 433e
000000e0: 037e f63e e5f0 973a 95c5 b33d be8f 00bd
000000f0: e544 6cbd 2931 dd3d 233c 8c3b f0ee 873e
00000100: 1d89 bb3d f437 4bbd 694b 093e df9b 553e
00000110: f0d6 053e 11f2 0a3e 77bf c23d 3caf e13d
00000120: cb1b 753d 52c5 8a3e cad2 153e 8407 273d
00000130: b2eb d53d e6b2 2d3d b5a2 103e 8b11 1c3d
00000140: fa9c 103e 545e 8d3d 9ee2 193e 3a13 063e
00000150: 51ae e3bd 517d 9e3d 29de 42bb becd e7bc
00000160: d934 533d f107 aa3d 414e 9fbe a1a4 233e
00000170: 70a3 babc 9248 3c3d 7e6f 4cbd fb58 fe3d
00000180: 0a2d e33e 8113 693e cfcd 0d3e 4686 d3bd

final.linears.1.weight f4 [100, 100]
-0.33003324 -0.18043406 -0.14128439 -0.06749138 0.031828824 -0.07992404 -0.1511472 -0.098063655
-0.09919718 -0.15068205 -0.3037841 -0.20616435 -0.25549266 -0.13555999 -0.1655053 -0.011958571
-0.025026437 0.008122795 -0.017799731 -0.19422036 0.025679892 -0.14859244 0.035196487 0.02884803
-0.062709436 -0.10409729 -0.224563 -0.19542669 -0.055631544 0.040732317 -0.17591728 -0.114725955
0.07000849 -0.20755292 -0.29583097 -0.10865855 -0.32739794 -0.14665419 -0.11677715 -0.270551
-0.03432283 -0.01237478 0.031590972 -0.234267 -0.08261127 -0.120681785 -0.12412178 -0.33906028
-0.19447297 -0.26856524 -0.28724453 -0.1653585 -0.14913075 -0.05391523 0.037661515 -0.11090172
-0.106212206 0.1697944 -0.03755956 -0.14027059 -0.3326942 -0.06848516 -0.13436809 -0.09606912
-0.17056668 0.26003933 -0.08022641 -0.23201199 -0.117632665 -0.17611973 -0.123232506 -0.18102568
-0.21811566 0.023713304 -0.22030748 -0.26443616 0.13990414 -0.12366933 -0.2074179 0.018769009
-0.12515889 -0.06638752 -0.23190269 -0.045819197 -0.13788493 -0.06988146 -0.03513289 -0.104562685
-0.06322594 -0.23471679 -0.15477575 0.0106827235 -0.17812373 -0.06842664 -0.26597258 -0.3343744
-0.15687779 0.055136815 -0.19826819 -0.002134211 -0.30206394 -0.0046213954 -0.14249276 -0.16239513
0.08797556 -0.039993495 -0.14677839 -0.1428655 -0.08411744 -0.18639284 -0.21909526 -0.23407698
-0.041523416 -0.010040558 -0.16972241 0.0042059356 -0.08478041 -0.18420173 -0.07308205 -0.0970188
0.08142185 -0.11404304 -0.10156883 -0.124928 -0.0055706883 -0.13881606 -0.00760386 -0.14710075
0.0013591994 -0.018495956 -0.16226088 -0.1845631 0.021484286 -0.2155393 -0.07984675 -0.09345115
-0.2666875 -0.1328386 -0.13102762 -0.23890795 0.014236551 -0.013939859 0.03050465 -0.1724586
0.004010111 -0.14041977 -0.09161172 -0.14373307 -0.22745834 -0.21808754 -0.1885225 -0.13632382
-0.07280062 0.0034222077 -0.092332356 -0.07870377 -0.2202056 -0.058905806 -0.040785678 -0.18190503
-0.874581 -0.22937451 -0.15985046 -0.18688014 -0.16155386 0.2958095 -0.06813965 -0.1502791
-0.074867055 -0.15368539 -0.0727492 0.0967851 -0.06901364 -0.033820227 -0.035096563 -0.07495988
0.13350882 -0.09822144 -0.021776881 -0.10126372 -0.14556742 -0.07895072 -0.16774765 -0.043208253
-0.05496155 -0.09405223 -0.025398254 -0.16170803 -0.10755753 -0.17543705 -0.052761488 0.0055959327
-0.1008472 -0.038898624 -0.109322 -0.16973752 -0.107725546 0.04914413 -0.28469118 -0.0033183016
0.12719414 0.4132549 0.16252865 -0.102001116 1.0127423 0.058761403 0.22864346 0.17365818
-0.17214197 0.45273215 0.2434083 -0.2832323 0.20614207 0.029730149 -0.1332317 0.017259525
0.10723805 -0.055789948 -0.43777758 -0.21231143 0.54477763 -0.12086181 0.061712172 0.033571847
-0.5413309 0.13676788 0.043036815 0.12076797 -0.21944962 -0.017172454 0.17998497 0.39296934
0.23405614 0.10845248 0.043744165 0.19079219 0.11156651 0.27408028 0.028535949 0.09753107
-0.41042742 0.13325453 -0.41511238 0.02354871 -0.16519226 -0.10456641 0.15291323 0.15805829
-0.0280692 -0.08256846 -0.048611812 0.1253811 0.08571916 -0.03346836 0.118173175 -0.29629162
00000000: 1efa a8be b5c3 38be dbac 10be ec38 8abd
00000010: f15e 023d 37af a3bd 55c6 1abe 99d5 c8bd
00000020: e427 cbbd 654c 1abe 9789 9bbe bf1c 53be
00000030: efcf 82be 3dd0 0abe 397a 29be e2ed 43bc
00000040: 3e04 cdbc 7915 053c bed0 91bc b4e1 46be
00000050: a35e d23c 9e28 18be 312a 103d b452 ec3c
00000060: ce6d 80bd f630 d5bd d8f3 65be ef1d 48be
00000070: e7dd 63bd eed6 263d a923 34be 71f5 eabd
00000080: 9c60 8f3d c188 54be 2877 97be 6088 debd
00000090: b4a0 a7be 842c 16be dc28 efbd a985 8abe
000000a0: 1996 0cbd 97bf 4abc 8965 013d b0e3 6fbe
000000b0: 1930 a9bd 0328 f7bd 8f33 febd 4f99 adbe
000000c0: ec23 47be 6281 89be b711 93be bd53 29be
000000d0: bbb5 18be 37d6 5cbd f642 1a3d 7120 e3bd
000000e0: c985 d9bd 95de 2d3e 0ed8 19bd 18a3 0fbe
000000f0: e556 aabe f341 8cbd ca97 09be e3bf c4bd
00000100: 08a9 2ebe e023 853e be4d a4bd 8d94 6dbe
00000110: 65e9 f0bd bb58 34be 5361 fcbd cc5e 39be
00000120: b659 5fbe 6742 c23c 4998 61be 2d64 87be
00000130: 0843 0f3e 5846 fdbd 5c65 54be 77c1 993c
00000140: a729 00be 2ef6 87bd e677 6dbe e9ac 3bbd
00000150: b531 0dbe 031e 8fbd 81e7 0fbd f624 d6bd
00000160: 9a7c 81bd 9959 70be 897d 1ebe 9706 2f3c
00000170: 1166 36be 4423 8cbd 8f2d 88be 1f33 abbe
00000180: 92a4 20be 24d7 613d d106 4bbe 1ede 0bbb
00000190: 20a8 9abe 136f 97bb 9fe9 11be e94a 26be
000001a0: 882c b43d 38d0 23bd 134d 16be 554b 12be
000001b0: c445 acbd c4dd 3ebe 825a 60be e0b1 6fbe
000001c0: 7514 2abd 2781 24bc b6cb 2dbe f2d1 893b
000001d0: 5aa1 adbd 619f 3cbe 0bac 95bd cbb1 c6bd
000001e0: 80c0 a63d 668f e9bd 5203 d0bd 40da ffbd
000001f0: 528a b6bb cc25 0ebe cd29 f9bb 94a1 16be
00000200: 2a27 b23a d584 97bc b727 26be 1cfe 3cbe
00000210: d0ff af3c 56b6 5cbe b186 a3bd 5163 bfbd
00000220: 448b 88be d806 08be 1b2c 06be 49a4 74be
00000230: 6c40 693c 0264 64bc e3e4 f93c fd98 30be
00000240: 4067 833b 33ca 0fbe ed9e bbbd c32e 13be
00000250: d7ea 68be 5752 5fbe 0b0c 41be 7998 0bbe
00000260: 7e18 95bd 1e47 603b bf18 bdbd 712f a1bd
00000270: 947d 61be 3747 71bd e20e 27bd 5045 3abe
00000280: 8ae4 5fbf 27e1 6abe d7af 23be 825d 3fbe
00000290: 606e 25be 5874 973e cd8c 8bbd c4e2 19be
000002a0: e653 99bd b45f 1dbe 88fd 94bd 4437 c63d
000002b0: 0657 8dbd 1487 0abd 6ac1 0fbd 9184 99bd
000002c0: 89b6 083e 5328 c9bd 6e65 b2bc 5a63 cfbd
000002d0: a00f 15be eab0 a1bd 0ac6 2bbe 23fb 30bd
000002e0: 5d1f 61bd 759e c0bd 0010 d0bc ca96 25be
000002f0: 1f47 dcbd c5a5 33be 6e1c 58bd 165e b73b
00000300: fa88 cebd 2a54 1fbd 36e4 dfbd accf 2dbe
00000310: 369f dcbd 5b4b 493d 0bc3 91be dd77 59bb
00000320: 2e3f 023e 2596 d33e e96d 263e f6e5 d0bd
00000330: 8aa1 813f ccaf 703d 8321 6a3e 73d3 313e
00000340: fc45 30be 82cc e73e 0740 793e d303 91be
00000350: e816 533e a48c f33c e46d 08be d963 8d3c
00000360: 9f9f db3d 0084 64bd 6224 e0be 2b68 59be
00000370: 8c76 0b3f 6686 f7bd e7c5 7c3d a282 093d
00000380: a994 0abf e10c 0c3e 5f47 303d 3355 f73d
00000390: 67b7 60be 3fad 8cbc fb4d 383e 4733 c93e
000003a0: 6aac 6f3e 551c de3d 152d 333d 075f 433e
000003b0: fb7c e43d 4054 8c3e 39c4 e93c 5fbe c73d
000003c0: 8b23 d2be e073 083e 9c89 d4be 39e9 c03c
000003d0: 2928 29be ea26 d6bd 4995 1c3e 08da 213e
000003e0: 61f1 e5bc a719 a9bd 2e1d 47bd e763 003e
000003f0: 878d af3d 1e16 09bd c704 f23d 89b3 97be

final.linears.1.bias f4 [100]
-0.05505192 -0.05321808 -0.1462816 0.013628165 -0.1775281 -0.115913965 0.038772285 -0.1758634
-0.12807904 -0.27356917 -0.30948797 -0.29355672 -0.32820806 -0.08277232 -0.19525824 -0.31805977
-0.21791542 0.32250094 -0.036436677 -0.3806582 -0.16656737 0.038093008 -0.22604002 -0.09233116
-0.37977624 -0.008482966 -0.22472636 -0.16426115 -0.05817614 0.038670607 -0.35061875 -0.2680842
-0.08029274 -0.10987978 -0.028574094 -0.10951318 -0.30504435 -0.16929428 -0.3568561 0.036543746
0.16156763 0.57536834 0.0019441886 -0.41674313 -0.019816415 -0.25346678 -0.3748176 -0.14564204
-0.071100935 -0.32449782 -0.12607281 -0.20718984 -0.31613207 -0.06553921 -0.2301501 -0.426961
-0.019658102 -0.2540544 -0.04346899 -0.07530787 -0.4319812 -0.12612182 -0.024132771 -0.18209237
-0.1795919 -0.31749588 0.106821716 -0.14276542 -0.32917038 -0.16905455 -0.06004833 -0.30161533
-0.026743596 -0.17770311 -0.36702907 -0.052206837 -0.070495784 -0.37349108 -0.22907856 -0.12633501
-0.2942146 -0.13186453 -0.27321878 -0.10175041 -0.0002222763 -0.12366752 -0.21999544 0.020989032
-0.06445398 -0.53358406 -0.12367508 -0.3598954 -0.009107231 0.3077054 -0.3205582 -0.38756114
0.19696231 -0.13163258 -0.14202332 -0.17323291
00000000: 1f7e 61bd 34fb 59bd d8ca 15be ab48 5f3c
00000010: edc9 35be 4d64 edbd b0cf 1e3d 8915 34be
00000020: 2727 03be 4211 8cbe 3575 9ebe 114d 96be
00000030: e30a a8be 8984 a9bd c7f1 47be bbd8 a2be
00000040: 3825 5fbe d81e a53e a03e 15bd a2e5 c2be
00000050: a390 2abe 6a07 1c3d 0977 67be 1f18 bdbd
00000060: 0872 c2be 23fc 0abc ab1e 66be 1334 28be
00000070: 1b4a 6ebd 1265 1e3d 4d84 b3be 5542 89be
00000080: 8570 a4bd a608 e1bd 3814 eabc 7248 e0bd
00000090: c62e 9cbe 7b5b 2dbe d8b5 b6be e5ae 153d
000000a0: fc71 253e 574b 133f 25d4 fe3a 5b5f d5be
000000b0: 0956 a2bc 66c6 81be 18e8 bfbe 3023 15be
000000c0: 5e9d 91bd 9424 a6be 3b19 01be 9329 54be
000000d0: 10dc a1be 6c39 86bd 78ac 6bbe a29a dabe
000000e0: 070a a1bc 6b13 82be 8a0c 32bd 033b 9abd
000000f0: a42c ddbe 1426 01be 17b2 c5bc 6c76 3abe
00000100: f0e6 37be d28e a2be 58c5 da3d 1931 12be
00000110: 0589 a8be a31c 2dbe 3df5 75bd 536d 9abe
00000120: 6315 dbbc cef7 35be 3ceb bbbe d6d6 55bd
00000130: 1860 90bd 393a bfbe 9293 6abe f75d 01be
00000140: 4ca3 96be 7f07 07be 55e3 8bbe 8562 d0bd
00000150: d712 69b9 6645 fdbd 7c46 61be 31f1 ab3c
00000160: 7300 84bd f798 08bf 5c49 fdbd 3644 b8be
00000170: 7f36 15bc 908b 9d3e 3420 a4be 6a6e c6be
00000180: 7db0 493e b1ca 06be 906e 11be f863 31be

final.linears.2.weight f4 [18, 100]
0.016306274 -0.4870996 -0.009817648 -0.006178531 -0.12501931 -0.050153606 -0.23640914 0.523853
-0.029971648 -0.15848383 -0.13115153 0.40892082 -0.40649694 -0.08291465 0.32236207 -0.462539
0.47345144 0.00088354724 0.008688825 -0.005911038 0.15023516 0.21648614 -0.27822426 0.2703005
0.22461143 0.014855596 -0.207565 0.05947687 0.1829656 -0.0137135 -0.30778727 0.66318405
-0.24734114 -0.062054675 -0.04255895 0.014508342 -0.14208397 0.03691885 0.48225674 0.0007118976
0.1922542 -0.0013822863 -0.24716838 0.123457015 0.2579185 0.059832614 -0.6820654 -0.17983614
0.07229539 0.09790815 -0.027932564 -0.19246067 0.41073516 -0.20857556 0.50379187 0.13356325
-0.007771717 -0.13935064 0.010575288 -0.33398712 0.6175277 -0.113862365 0.029725526 -0.18330275
0.1800196 0.29813904 0.2915761 0.005347937 -0.15032414 0.44412166 -0.11316662 0.34150907
-0.026228098 0.034590438 -0.8009163 -0.39079273 0.120958485 -0.18275516 -0.37975657 0.030429024
-0.0025063911 -0.011344517 -0.17996421 -0.018555643 0.022004701 0.3422434 -0.22707671 0.31117228
0.049408168 -0.04996812 -0.11907487 -0.51546305 0.041186705 0.008842947 -0.27869916 -0.30606878
0.030711453 0.021561662 0.0053724675 0.3725569 0.480293 0.39003295 0.003917896 0.0018731968
-0.08595516 0.06344814 0.14668895 -0.22437009 0.018502938 -0.06718292 -0.14235881 0.6673121
0.43329096 -0.38592163 -0.57248414 0.25221878 -0.18750833 -0.016606757 0.0012622045 0.01191794
0.42685935 -0.066340186 0.19943129 0.23473723 -0.5702642 0.01172425 -0.017514361 0.26376647
0.034660026 0.38229266 0.19414099 -0.32649696 0.2042179 -0.19694375 -0.0054657958 -0.019703293
-0.36619884 -0.12673596 -0.5738004 -0.005017648 0.06348632 -0.00805389 0.07796463 -0.48764938
-0.07166459 -0.101435624 -0.023039293 -0.6802808 0.2244636 0.4595831 -0.024489833 -0.5903601
0.4061062 -0.19478092 -0.022201806 -0.09607612 0.009386256 0.58685976 -0.009475271 -0.15048315
0.3451544 -0.19851251 0.033882022 0.19246103 -0.04309427 -0.012828028 -0.24382499 -0.046826966
0.22196382 0.016195687 0.15328574 0.680222 0.020395206 0.09533175 -0.08950307 -0.15556097
0.1694949 -0.09413084 -0.6579214 -0.17429458 -0.0073182974 0.0040619224 -0.26043868 0.18231893
0.050025187 0.17546566 0.07011346 -0.07167435 0.032101095 -0.100119844 -0.016060688 -0.1028357
-0.038390134 -0.003600828 0.22261328 0.43118003 -0.0077003753 -0.024745312 -0.31836745 -0.07468121
-0.1801266 0.23581065 0.10570421 -0.24291609 -1.020251 0.081983514 -0.0321027 -0.06676948
0.17229101 -0.29155254 0.105319485 0.098967806 -0.3603974 -0.015529975 0.12822583 -0.29132196
-0.16078895 1.9992547 -0.19420964 0.067175806 0.049583953 -0.13948588 -0.3688629 0.039980356
-0.3989792 -0.1032234 0.036819912 0.04000579 0.122831196 -0.055034474 0.28232235 -0.27612552
0.065508336 0.03812941 -0.05002984 -1.4705586 0.16550869 0.057269152 0.025413888 0.06835752
0.001814762 0.03545041 -0.077176414 0.49426258 0.09074635 0.072484 0.14158213 0.10746037
-0.031848885 -0.25000647 0.04686117 0.09928763 -0.137774 -0.0035942649 0.46514338 -0.21822742
00000000: bc94 853c 1e65 f9be 33da 20bc 4675 cabb
00000010: 1005 00be de6d 4dbd 3d15 72be 3b1b 063f
00000020: 1a87 f5bc 9649 22be 964c 06be 125e d13e
00000030: 5e20 d0be 28cf a9bd a40c a53e e9d1 ecbe
00000040: 3a68 f23e da9d 673a 935b 0e3c 61b1 c1bb
00000050: 3fd7 193e 8bae 5d3e 6973 8ebe d464 8a3e
00000060: 8a00 663e e364 733c eb8b 54be 059e 733d
00000070: 565b 3b3e 97ae 60bc 4b96 9dbe 6ec6 293f
00000080: ff46 7dbe 0b2d 7ebd 4b52 2ebd 66b4 6d3c
00000090: 767e 11be 3838 173d 5bea f63e a49e 3a3a
000000a0: 49de 443e d52d b5ba b519 7dbe 08d7 fc3d
000000b0: e50d 843e 0b13 753d d79b 2ebf f726 38be
000000c0: 9b0f 943d 1184 c83d d5d2 e4bc 6914 45be
000000d0: e14b d23e d594 55be 81f8 003f cec4 083e
000000e0: e3a9 febb efb1 0ebe f943 2d3c 5c00 abbe
000000f0: 4c16 1e3f ac30 e9bd f282 f33c b7b3 3bbe
00000100: 0f57 383e aea5 983e 7649 953e bf3d af3b
00000110: 92ee 19be ea63 e33e e7c3 e7bd 47da ae3e
00000120: 4fdc d6bc b4ae 0d3d da08 4dbf fc15 c8be
00000130: 15b9 f73d 2b24 3bbe 746f c2be 4a46 f93c
00000140: 4442 24bb 5ade 39bc 8a48 38be 0102 98bc
00000150: 3443 b43c 873a af3e cc86 68be f951 9f3e
00000160: 3860 4a3d 5fab 4cbd 87dd f3bd 63f5 03bf
00000170: 64b3 283d 02e2 103c a8b1 8ebe 0cb5 9cbe
00000180: 9696 fb3c 15a2 b03c 860b b03b c7bf be3e
00000190: f7e8 f53e 66b2 c73e b261 803b 0e86 f53a
000001a0: 4209 b0bd 19f1 813d a135 163e 46c1 65be
000001b0: 7993 973c 3397 89bd 82c6 11be f7d4 2a3f
000001c0: 50d8 dd3e 8597 c5be 528e 12bf d222 813e
000001d0: 2f02 40be e50a 88bc 8e70 a53a 7743 433c
000001e0: 4f8d da3e 5ddd 87bd b737 4c3e f55e 703e
000001f0: d6fc 11bf 1217 403c 477a 8fbc 660c 873e
00000200: acf7 0d3d ddbb c33e e5cc 463e 9c2a a7be
00000210: 7f1e 513e 9fab 49be 6b1a b3bb cd68 a1bc
00000220: 6a7e bbbe 12c7 01be 95e4 12bf 156b a4bb
00000230: 1e05 823d 77f4 03bc ecab 9f3d 2ead f9be
00000240: e2c4 92bd 7bbd cfbd e6bc bcbc e226 2ebf
00000250: c9d9 653e 7a4e eb3e e79e c8bc d721 17bf
00000260: 27ed cf3e a674 47be 90e0 b5bc 8fc3 c4bd
00000270: d0c8 193c 713c 163f 2b3e 1bbc 4118 1abe
00000280: 14b8 b03e dd46 4bbe e0c7 0a3d 8114 453e
00000290: 9e83 30bd a62c 52bc 42ad 79be a2cd 3fbd
000002a0: 7c4a 633e d1ac 843c f0f6 1c3e 0723 2e3f
000002b0: d913 a73c 4b3d c33d 634d b7bd 604b 1fbe
000002c0: 1290 2d3e abc7 c0bd 896d 28bf 477a 32be
000002d0: 54ce efbb e019 853b 3858 85be d0b1 3a3e
000002e0: 36e7 4c3d 45ad 333e a597 8f3d 00ca 92bd
000002f0: 707c 033d a20b cdbd b491 83bc 869b d2bd
00000300: f93e 1dbd defb 6bbb bcf4 633e a1c3 dc3e
00000310: 6e53 fcbb aeb6 cabc 0f01 a3be 76f2 98bd
00000320: 1c73 38be 5978 713e 737b d83d ffbe 78be
00000330: 9697 82bf f9e6 a73d 1f7e 03bd 70be 88bd
00000340: 0e6d 303e 6046 95be beb1 d73d a2af ca3d
00000350: 0286 b8be 7071 7ebc a24d 033e 2728 95be
00000360: dca5 24be 94e7 ff3f e4de 46be 7893 893d
00000370: 8b18 4b3d 63d5 0ebe 99db bcbe 71c2 233d
00000380: 0047 ccbe ca66 d3bd 7ad0 163d 1cdd 233d
00000390: ec8e fb3d d46b 61bd 8e8c 903e 5360 8dbe
000003a0: 3c29 863d 962d 1c3d 17ec 4cbd 443b bcbf
000003b0: 1c7b 293e 0f93 6a3d c930 d03c 07ff 8b3d
000003c0: 4fdd ed3a 7334 113d ab0e 9ebd fc0f fd3e
000003d0: 39d9 b93d 7e72 943d e8fa 103e 2f14 dc3d
000003e0: fa73 02bd d900 80be 80f1 3f3d 5057 cb3d
000003f0: a114 0dbe c28d 6bbb 4627 ee3e 0277 5fbe

final.linears.2.bias f4 [18]
0.008029725 -0.058728974 -0.010449875 0.11252776 -0.23867235 0.026330005 0.06216008 0.0946
-0.07699662 0.013072412 -0.03313261 -0.06680938 -0.00986014 -0.05509422 -0.030721417 0.025281625
-0.016433647 -0.00019810384
00000000: 1c8f 033c cb8d 70bd f435 2bbc f474 e63d
00000010: 8666 74be 06b2 d73c 919b 7e3d a5bd c13d
00000020: 67b0 9dbd ac2d 563c 0fb6 07bd 5bd3 88bd
00000030: 6d8c 21bc 7aaa 61bd 7bab fbbc 691b cf3c
00000040: db9f 86bc 18ba 4fb9

layers.0.attn.0.gnn_q.weight f4 [18, 16]
-7.4318243e-34 8.887239e-34 5.1470623e-34 -6.1554096e-34 -8.083816e-34 6.5312096e-35 5.94391e-34 9.7390855e-34
-7.2452605e-34 1.1678909e-33 -4.317524e-34 -1.1668396e-33 3.6918861e-34 6.671626e-34 -1.7721972e-34 1.0138694e-33
-1.9264502e-34 1.16467135e-33 -4.915381e-34 4.734536e-34 1.5834485e-34 4.003503e-34 3.4402615e-34 -9.504948e-34
-5.7558154e-34 4.2739648e-34 2.0486747e-34 -1.1723713e-33 2.426745e-34 3.0911502e-34 -8.334152e-34 6.0962487e-34
1.3295227e-34 -2.1735816e-34 -7.557505e-34 -4.6072803e-34 -5.631828e-36 9.585547e-34 -2.8903588e-34 -3.1575755e-34
3.2750705e-35 -8.140992e-34 -7.4859898e-34 -4.9194723e-34 -7.6910373e-34 -5.087584e-35 5.9687135e-34 -6.100046e-34
-6.774937e-34 8.609458e-34 -9.919145e-34 -3.9545145e-34 -4.778585e-34 -5.262904e-34 -5.804045e-34 -3.440251e-34
7.819234e-34 5.3911344e-34 8.002475e-34 -2.0215316e-34 -5.946413e-34 5.466529e-34 2.4146982e-34 1.8974507e-34
1.1729285e-33 -1.1705312e-33 -3.1401256e-34 6.529719e-34 4.6057793e-34 3.2009416e-34 -1.6538255e-34 9.244161e-34
-5.195351e-35 -1.1677972e-33 1.168263e-33 3.5258505e-34 -4.1205545e-34 -2.048065e-34 1.1587679e-33 -4.758842e-34
4.182182e-34 -6.1133714e-34 7.768809e-34 -2.3054222e-34 -1.0727921e-33 6.6407464e-34 -4.7365133e-36 -5.6189108e-34
1.0729234e-33 1.1727809e-33 2.270093e-34 -1.1723189e-33 2.6446029e-34 -2.364635e-34 8.680758e-35 -3.9959714e-34
6.8631105e-34 -5.262566e-34 9.678651e-34 4.650401e-34 -3.683533e-34 1.5614869e-34 9.540741e-36 -9.729929e-34
4.0240524e-34 1.1719304e-33 -3.8057222e-34 1.0722749e-33 -5.653488e-34 1.7701878e-34 -5.2201305e-35 -5.1842616e-34
-3.2298484e-34 -9.662174e-35 2.0927278e-34 1.7472059e-34 -2.697585e-35 -6.144599e-35 1.2649791e-34 3.918354e-34
-1.0410927e-33 -1.1382636e-34 -4.9775564e-34 -5.4689393e-34 -1.1697754e-33 6.370594e-35 -1.8784182e-34 -6.8092476e-34
1.1685711e-33 -7.684361e-35 -1.074638e-33 8.755635e-34 -3.9458085e-34 6.5201288e-34 -4.6211135e-34 -1.3314721e-34
-1.7606644e-34 1.1715143e-33 -4.2422532e-36 -7.259709e-34 -2.748602e-34 -4.5301376e-34 9.500884e-34 -5.057217e-34
5.7867677e-34 9.022395e-34 3.8591085e-34 -1.3423628e-34 2.1443208e-35 5.401353e-34 -9.740316e-35 4.6570175e-34
1.0216513e-33 -1.04006675e-33 -5.265939e-34 -8.68313e-34 -1.1700966e-33 -4.0487694e-34 -4.7174374e-34 -4.243472e-34
1.1737875e-33 -3.879213e-34 9.53818e-34 5.0879034e-35 8.866885e-34 -1.4324262e-34 -2.7305225e-34 1.0715458e-33
-7.178428e-34 -7.4862455e-34 1.1639231e-33 -5.913395e-34 2.0645733e-34 3.1418074e-35 6.5087494e-34 1.9006729e-35
-2.1520365e-34 3.2906288e-35 -9.002866e-34 -4.6142263e-34 -8.305599e-35 -5.208504e-34 1.4406664e-34 -3.0663032e-34
2.8893146e-34 6.5190276e-34 4.2158164e-34 -1.1600539e-33 1.1577526e-33 1.3657068e-34 4.7457793e-34 -1.1154136e-33
1.1564176e-33 -4.5065354e-34 -7.860507e-34 4.92548e-34 6.0717713e-34 -2.076184e-34 -2.0128715e-34 4.2697895e-34
-3.618683e-34 -7.196937e-34 3.8504397e-34 -1.4120114e-34 -5.060877e-35 4.4439913e-34 -1.05601e-33 -4.733151e-34
-2.638136e-36 -4.2743192e-34 9.3577415e-35 9.721359e-35 6.3024763e-34 1.1724874e-33 -4.157284e-34 -2.100772e-34
6.828586e-34 -2.334631e-34 6.941747e-34 2.6055906e-35 -4.824443e-34 4.1392765e-34 7.660806e-34 2.060925e-34
-3.3001965e-34 7.957307e-34 -2.0817954e-34 -6.249767e-34 4.38661e-34 -4.3218005e-34 -2.3850374e-34 3.09831e-34
4.991618e-34 -1.1737361e-33 -1.169154e-33 -1.0996137e-33 -6.0127753e-34 7.092148e-34 -4.1531474e-34 8.045033e-34
1.1753317e-33 -4.7295088e-34 -1.6328259e-34 -3.4109751e-34 2.5439796e-34 -5.467689e-34 2.7831436e-34 -7.412446e-35
2.5657279e-34 -1.1694757e-33 3.2319044e-34 -2.4722634e-34 6.791056e-34 -1.3792182e-34 6.275685e-34 1.6543133e-34
00000000: f8f6 7688 22aa 9308 5d0a 2b08 6f8c 4c88
00000010: c050 8688 1ca1 ad06 3285 4508 7dd1 a108
00000020: dcc3 7088 960c c208 6f79 0f88 dedf c188
00000030: 305e f507 ebb3 5d08 bf90 6b87 3c75 a808
00000040: da08 8087 a483 c108 7057 2388 fa54 1d08
00000050: f679 5207 090a 0508 04a5 e407 94ed 9d88
00000060: 1045 3f88 df06 0e08 6528 8807 29cb c288
00000070: ed48 a107 3271 cd07 9079 8a88 2695 4a08
00000080: 50b9 3007 9375 9087 2424 7b88 681a 1988
00000090: 2d8d ef84 6844 9f08 e818 c087 5ddb d187
000000a0: f321 2e06 f343 8788 c2c3 7888 3e7a 2388
000000b0: 1c94 7f88 4d40 8786 3358 4608 74b5 4a88
000000c0: ca22 6188 960c 8f08 60cf a488 4a69 0388
000000d0: b5cb 1e88 d6e3 2e88 5bdf 4088 d6a4 e487
000000e0: 58eb 8108 b326 3308 c4f6 8408 945a 8687
000000f0: 7d9a 4588 16a8 3508 f67b a007 e736 7c07
00000100: dce2 c208 e47c c288 78b2 d087 b5fc 5808
00000110: a30d 1908 33bd d407 c4d4 5b87 5098 9908
00000120: ba1d 8a86 9908 c288 6a1c c208 3d55 ea07
00000130: cded 0888 051e 8887 8988 c008 c023 1e88
00000140: 12fa 0a08 d026 4b88 dc14 8108 ba38 9987
00000150: 883f b288 39ad 5c08 1078 c984 68b8 3a88
00000160: 1d45 b208 95dc c208 a2df 9607 eec8 c288
00000170: 96c3 af07 2e28 9d87 2dc6 e606 f7c9 0488
00000180: e310 6408 f6e0 2e88 6ed0 a008 3d89 1a08
00000190: 11d0 f487 a58e 4f07 bce8 4a05 8aaa a188
000001a0: dab8 0508 68b8 c208 02ef fc87 8829 b208
000001b0: 8fde 3b88 5f4c 6b07 5ec6 8a86 d246 2c88
000001c0: 06a9 d687 ad6e 0087 eb15 8b07 563e 6807
000001d0: a06d 0f86 f959 a386 0225 2807 ab35 0208
000001e0: 30fb ac88 1a4d 1787 5e68 2588 97bc 3588
000001f0: be5c c288 045c a906 42af 7987 ac46 6288
00000200: 8429 c208 0d49 cc86 0c8e b288 5a7a 9108
00000210: 3a1f 0388 1fab 5808 1690 1988 a6fb 3087
00000220: 4e08 6a87 b5a6 c208 0c72 b484 c63e 7188
00000230: 0aad b687 268a 1688 4bdc 9d08 0b0e 2888
00000240: 604c 4008 06e9 9508 aa3d 0008 3d6e 3287
00000250: f705 e405 a17d 3308 9478 0187 86c1 1a08
00000260: 3ec0 a908 8ccf ac88 a8fd 2e88 f345 9088
00000270: 686a c288 1f8b 0688 85c3 1c88 7803 0d88
00000280: 6607 c308 b2e8 0088 ee7a 9e08 7a42 8706
00000290: 8f53 9308 f066 3e87 6f79 b587 850a b208
000002a0: 508b 6e88 efc5 7888 d063 c108 9a81 4488
000002b0: e536 8907 110c 2706 514a 5808 3d1d ca05
000002c0: 0107 8f87 b8f5 2e06 f595 9588 7f55 1988
000002d0: facc dc86 0d15 2d88 567f 3f07 72ca cb87
000002e0: 2407 c007 c1a1 5808 3318 0c08 3cbf c088
000002f0: 595d c008 9888 3507 a0b4 1d08 7354 b988
00000300: 9124 c008 5dc1 1588 e69a 8288 5aad 2308
00000310: ebc4 4908 71fc 8987 3cc7 8587 5ae3 0d08
00000320: b380 f087 c528 6f88 d6e7 ff07 42b0 3b87
00000330: 8b8a 8686 4cad 1308 b375 af88 3249 1d88
00000340: 846d 6084 e309 0e88 7dc5 f806 1238 0107
00000350: 8a6f 5108 19d0 c208 4326 0a88 c99e 8b87
00000360: 2feb 6208 b029 9b87 daad 6608 7689 0a06
00000370: d251 2088 128d 0908 ee92 7e08 d2f8 8807
00000380: ef55 db87 a436 8408 ea5b 8a87 23af 4f88
00000390: 27c5 1108 d09d 0f88 4f83 9e87 03eb cd07
000003a0: fddf 2508 3605 c388 5042 c288 65b4 b688
000003b0: 09cf 4788 53ad 6b08 1203 0a88 c9ab 8508
000003c0: 1549 c308 362a 1d88 300a 5987 bcb2 e287
000003d0: 9213 a907 f4b1 3588 bcf8 b807 7e0e c586
000003e0: 9985 aa07 ff4f c288 01cc d607 624f a487
000003f0: eaab 6108 5d54 3787 a08b 5008 5de5 5b07

layers.0.attn.0.gnn_q.bias f4 [16]
2.5050985e-34 -6.2435005e-34 3.2012226e-34 -4.2407423e-34 2.471211e-34 -8.29494e-34 7.966168e-34 -8.479107e-34
-7.334839e-34 -2.158359e-34 -7.336176e-34 -1.1663466e-33 -3.5474436e-34 -6.8841578e-34 2.6798592e-34 5.231895e-34
00000000: 0b7e a607 d479 4f88 fbc1 d407 3fec 0c88
00000010: 7a3d a407 c6d2 8988 555c 8408 22e2 8c88
00000020: e9bd 7388 9372 8f87 49c9 7388 e6ca c188
00000030: a0c4 eb87 f0c3 6488 711b b207 0adc 2d08
