checkpoints/cyp2c19_veith_40_train1_pos/Aug23-18:49:42_700.pth (torch, 427967 bytes, 294 tensors)

layers.0.weight f4 [18, 16]
00000000: 50de 623f 1dfb 2b3e 92db 61bd 7b02 2b3f
00000010: 7ac2 f1be 6bdd 953d 91a5 30bf 843e 943d
00000020: d38b 603f 3bd3 45be 4a8a 503f 7ccd f3bc
00000030: 22ec f23c 9e0f 813f ee31 933d e2a3 fd3c
00000040: 003f f13d bfbc ee3d d783 a9bd 3903 3b3e
00000050: 4dd1 06bf 6f6a c1bc 781e e6be 533a 533d
00000060: c168 e9bf dcb1 1a3e 8011 30bf 1ba1 06bd
00000070: 02d2 403d 2cbd 8ebf 25d7 663e 5684 e3bd
00000080: 50b6 fe3e ebb9 38be c86c aebe d34e b53e
00000090: 5834 bebe 3ad8 e63e ccf7 fb3e de03 7cbf
000000a0: 8a54 093f 59f7 7f3d 6273 d7be 7e56 1f40
000000b0: 04a6 e83e 8fb8 19bf cbc7 df3e cde2 bc3e
000000c0: 8a7e c53e 5ca8 01bf df7d 88be 9852 c0be
000000d0: 1a67 20be 669d a23f d882 b73e 09cb 863e
000000e0: 2abc ac3e d9db c73d e6c3 c43e 4af0 e8be
000000f0: 8d3a 983e ae46 07bf 7df4 5f3e 1bea 5fbe
00000100: 7bbb a33e 2a15 66be f153 29be c4df e7be
00000110: 4a29 71be bde3 13be 4f87 c13e 2ee3 103e
00000120: a7c9 a43e 709d a6be a2a8 3c3d b89d ebbe
00000130: 8259 553e 5047 ffbe bed0 bb3f 9610 ab3e
00000140: 0a36 153e 0e97 a8be 1c11 873a 8271 b1be
00000150: 5994 3e3d 7a93 8cbd f187 803e 051c a8bd
00000160: 155d c0bc ce5f e8bd 00a0 133e b224 5fbd
00000170: b7b8 6b3e d418 b2bc 356b 2e3d 1647 dbbe
00000180: 3acd 143e d8fc 17bd 5a26 5bbf eaf6 2ebf
00000190: 7811 37bf 0c74 fc3c dbbb 563c 319e efbd
000001a0: 16df 1f3f 686f cbbd c112 41bf d84c 153d
000001b0: 7ef2 61bf 501d 903f 6051 483d 10e9 36bf
000001c0: 14f7 e53e a46a 4bbf 4ad5 22bf d9db a73e
000001d0: 198d 4d3f 3ba0 c2bd 56b6 62bf 95fb 6bbd
000001e0: dd7b db3e 7736 e8be 3ec4 d33e 3435 083d
000001f0: 545a 96bf 1208 40bf 6709 debb 1cde ba3e
00000200: 29ce 18bc 1708 57bf 03ea 793f 7630 883e
00000210: 92c5 23bf d44c 01be 00d3 30be 2a8a e4bc
00000220: 58f6 38bf b45f 9bbe bc33 3abc 57c4 4ebc
00000230: d5d6 0e3f bb92 b7bc f94e e33d bdbf 49be
00000240: 7519 cd3e 5e1c e43d 7ac1 3e3e 7abd 1b3f
00000250: 3698 933e e35a d83d 334b a83e 47d6 03bd
00000260: b902 233e d23a 8abf 280c cb3d 11b2 14be
00000270: ad1a a53e 5818 febe 5f8a 1a3e e839 51bf
00000280: 0d78 633f ea38 b63e 419e 853e 0ae6 0fbf
00000290: 50dc 003f e532 ff3c 9757 b3be 21d6 10bd
000002a0: 7553 093f 9f9d 9fbe c35b 04bf 041e fbbc
000002b0: 779f f43e 5c64 453e 407e 1cbe 8d57 03be
000002c0: f6b7 b7bf 5413 dabe 0934 3e3f e986 babe
000002d0: 9419 c9be 85fd e7bc 2cae 303e ee0d d6bc
000002e0: c515 893f 2c07 31bf ab4f b3be 59de 51ba
000002f0: 6a46 33bf ffbb 29bf c0d5 f3bd 0888 773e
00000300: 9931 3a3f 63a9 443f 14ee 81be 6753 af3d
00000310: c18d b4be f3ef aabe a83d 1c3e 886e 84bd
00000320: aa3a d0bd 1fc0 2a3e 1c6f 323f 9268 b93a
00000330: 9f74 6cbf 5ab6 1fbf d731 76bd 6aa8 b3be
00000340: 87fb 643f 46b4 c63e 7219 773f a437 393e
00000350: 7afc adbe dc79 843b 9cef 873f 1ffe f73d
00000360: e68e d63d 8961 9d3e d4a6 1abf 45a4 87bd
00000370: b690 4fbf aadc 373e 6f24 773d f3f0 d9be
00000380: 121e 61bf 1a16 103f b00a 293e c611 c8bd
00000390: 5ed4 11bf 077f 85be 68a1 52bf dc2f c93c
000003a0: f5e1 443f b65e 433f a8cf a93e 80b0 613a
000003b0: fafa 433e ce76 56bf 60eb f8bc 57a6 04be
000003c0: f2c2 803f 8893 67be a636 dc3e fc5e 40bf
000003d0: 711e 56bf 7b03 aa3d d3e5 83bf 26b5 cebc
000003e0: a16f ddbe 70c2 00be 0225 30bf 348b 6f3c
000003f0: 5a97 bbbe 4d29 83be 36a4 0cbe 53a7 a73c
0.8862047 0.16795011 -0.05514104 0.6680066 -0.47218686 0.07317623 -0.69002634 0.072384864
0.87713355 -0.1931886 0.8146101 -0.029761069 0.029653613 1.0082891 0.07187258 0.030961934
0.117795944 0.11657094 -0.082770996 0.18262948 -0.5266312 -0.023610322 -0.4494512 0.051569294
-1.8235093 0.1510691 -0.687767 -0.032868486 0.04707528 -1.1151481 0.22543009 -0.111092255
0.49748468 -0.18039672 -0.34067369 0.354117 -0.3714931 0.45086843 0.49212492 -0.984434
0.5364462 0.06249175 -0.42080218 2.489654 0.4543916 -0.6004724 0.43707117 0.36891785
0.38573104 -0.5064752 -0.26658532 -0.37563014 -0.1566433 1.2704284 0.35842013 0.2632678
0.33737308 0.097587295 0.3843071 -0.45495826 0.2973217 -0.52842224 0.21870609 -0.21866648
0.31978974 -0.22469011 -0.16535927 -0.45287907 -0.23550907 -0.14442344 0.37798545 0.14149162
0.321851 -0.3254199 0.04605926 -0.46018767 0.20834926 -0.49859095 1.4673078 0.33411092
0.14571396 -0.32927746 0.0010304782 -0.34656912 0.046528194 -0.068640664 0.25103715 -0.08208469
-0.023481885 -0.11346398 0.14416504 -0.054478355 0.23019682 -0.021740355 0.04258271 -0.42827672
0.14531413 -0.037106365 -0.85605395 -0.6834551 -0.7151103 0.030817054 0.013106312 -0.117000945
0.6244978 -0.099333584 -0.7541924 0.036450237 -0.8826064 1.1258945 0.04890573 -0.71449375
0.44915068 -0.79459596 -0.63606703 0.32784918 0.8029342 -0.09503218 -0.8855947 -0.057612974
0.42867938 -0.45354053 0.41360658 0.033253863 -1.1746316 -0.75012314 -0.006776023 0.3649758
-0.009326496 -0.8399672 0.976227 0.26599473 -0.63973343 -0.12626964 -0.1726799 -0.027897913
-0.7225089 -0.30346453 -0.0113648735 -0.012620053 0.5579656 -0.022408834 0.11099047 -0.19702049
0.40058485 0.11138223 0.18628493 0.60835993 0.28827065 0.1056421 0.32869872 -0.032186773
0.15919007 -1.07992 0.09914428 -0.14521052 0.32246915 -0.49627948 0.15091847 -0.8172898
0.8885506 0.35590297 0.260973 -0.56210387 0.5033617 0.031152198 -0.35027763 -0.03536046
0.5364297 -0.31174943 -0.5170252 -0.030653961 0.47777912 0.19276565 -0.15282536 -0.12826367
-1.4353015 -0.4259287 0.7429815 -0.36431053 -0.39277327 -0.02831913 0.17253941 -0.026129689
1.0709769 -0.6915157 -0.3502172 -0.00080058497 -0.7002932 -0.66302484 -0.11906004 0.24172986
0.7273193 0.76820964 -0.25376952 0.085608296 -0.352644 -0.33386192 0.15257895 -0.06466395
-0.10167439 0.16674851 0.6970079 0.0014145544 -0.9236545 -0.6238762 -0.060106125 -0.35089427
0.894463 0.38809413 0.965232 0.18087631 -0.33981687 0.004042847 1.0619998 0.121090166
0.104764745 0.30738476 -0.6041081 -0.06623129 -0.81080186 0.1795527 0.06033748 -0.42566642
-0.8793651 0.56283724 0.16507983 -0.09769015 -0.5696467 -0.26073477 -0.82277536 0.024558954
0.76907283 0.7631639 0.33166242 0.00086093694 0.19138709 -0.8377503 -0.030385673 -0.12954079
1.0059493 -0.22614872 0.43010443 -0.75144935 -0.836402 0.08301445 -1.0304512 -0.025232863
-0.4324923 -0.12574172 -0.6880647 0.014620591 -0.3663891 -0.25617447 -0.13734517 0.020465529

layers.0.bias f4 [16]
00000000: f3f8 153e a804 e1bd 01b7 8cbe 2008 bf3d
00000010: f353 43be 5584 25bf 5cfb 4b3e 6586 0e3f
00000020: 2514 e13d ae34 3e3b 46ee 15be a4c6 22bf
00000030: a4e1 283e 8314 87bd b706 48bf 10c4 0a3d
0.14645748 -0.10987216 -0.2748337 0.093277216 -0.19074993 -0.6465505 0.19920105 0.5567382
0.109901704 0.0029023099 -0.14641675 -0.6358435 0.16492325 -0.06595709 -0.78135246 0.033878386

layers.1.weight f4 [16, 16]
00000000: 08fc 903e 6297 283f aa48 473e a0dd 113e
00000010: 9025 86bf 5312 abbf be92 253e d0fc 94be
00000020: 0a84 81bf c08e f9bd 8149 8fbf fea7 27bd
00000030: 9223 65be 2cd3 aebe af16 6ebe b281 3f3f
00000040: 9120 cabf bb34 8a3f aaad 7dbc 8995 6f3c
00000050: e367 3ebf 710c f93e e64b 4abc 8e94 16bc
00000060: f76d 37bf 4fe8 4b3f 511c ab3d 4050 bbbb
00000070: 77cb edbd 2c94 633d 73bb e33d f6a5 f7be
00000080: 7f40 35bf 5303 2bbf 120c 523f 4984 40bd
00000090: e6c9 213f c758 69bf 2269 79be 7e49 f3be
000000a0: cfc1 a6bb cc6a 7b3f d1bf e7bd 93d0 3e3e
000000b0: 7f1a 37be 9f43 1e3d f49d 813e dc0e 3fbf
000000c0: fa62 ee3e d027 02be 866d ccbe 218a 3c3e
000000d0: 8dde 083e 710c 11bf c87c 173c eb55 cd3c
000000e0: 2658 76bf 1a94 043e 00b8 9b3e 9309 a53c
000000f0: 5e40 42bf eca6 d23e 7527 6cbe 7a6e bcbd
00000100: d90e 9c3f 575b 133e e461 99bf 2a61 f2bd
00000110: 289c 943f 8ab7 cc3e eb0d 90be 89c5 753f
00000120: 569d ccbe a8f6 003e e5cb febe 3467 883e
00000130: 59b1 2e3d 12bf 843d 40b4 8e3e ad74 43bf
00000140: 7e15 afba deb9 bb3e 18fa 073f 3aab f03a
00000150: 8289 413c 3aff f63d 16f4 2ebf 0a6e 99be
00000160: 40fc 8a3e 64de d73d 80b2 f23c c86a c4be
00000170: 337e b03e 1b6f a5bf 6d8f 383e 5175 a33f
00000180: f661 0dbe e171 983f d5db a8be db5d 0a3e
00000190: 27c7 a03f 66ae e13e 5a09 653e 7bb1 883d
000001a0: f2fa 8dbd 14a4 923f ac82 2abd da35 8cbe
000001b0: 7f47 45be a9bb 93be a5c0 89be 6524 6c3f
000001c0: 7491 8dbe ea00 113e cfb9 a6bd 1197 85bf
000001d0: 4e22 323e c4b1 dbbd e7e0 6dbe c780 0a3d
000001e0: 19ce 78be b84e 073e 13b3 cfbe 24fa 543e
000001f0: 634d 6b3f 7eed 323f e1b8 aa3e b553 e1be
00000200: 113c 79bf c214 33bf fafe cebf 5347 0b3e
00000210: 76a7 113a dff2 fcbe 4722 433e e84c 803f
00000220: ba6a 1e3f 440f d8be bae2 2c3e a6d4 47bf
00000230: 1637 64be 3068 a8be f4cf 82be 71d9 493f
00000240: d2c0 95be 5dbc f13e f285 3abf 4950 d53d
00000250: dba4 dd3e 8c89 74bf 8af2 853d a682 303e
00000260: 5b0d 2bbf c919 983d 2627 c23e 1196 6c3e
00000270: 8ba0 803e 1c13 133e 89e8 67bd 25e7 dabd
00000280: 1c32 b93e 9422 57bf a3ba 0dbf 42f7 29be
00000290: 768d 7dbf 33d6 293f aa01 56be bf6c 0c3f
000002a0: 660b 88bf ad2c 5e3f 4739 403c 95ac 4cbe
000002b0: 72c8 f73e 1ec3 99be 93e5 6d3e 6b3a 9ebd
000002c0: 3ec5 28be 7979 02bd 9699 063e 63de 0abf
000002d0: 60c8 f0bd d273 503e 79e6 e43e 34a8 b53e
000002e0: 4010 fe3c 48e3 a03d 3b3c 69be bab0 2f3e
000002f0: 7b10 8cbf e358 84bf f926 2d3e 9d8a 0b3f
00000300: 9727 1a3f 1c9b 38be dd83 fabe db30 e33d
00000310: e508 a5be 2cb8 803e 7068 533e b277 e33c
00000320: 3556 1a3f ca98 9d3f a187 d93e e99c 073e
00000330: f06b 4abe 2722 9bbe 212d 89be ae7e 5b3f
00000340: df91 4c3e 6dab 823f 6b54 12bf 6665 90bd
00000350: e4f6 41bf cdf3 efbe f5e8 89bd 5def 363f
00000360: 1d3f 8d3f 02f2 883e 0597 b1be ad64 59be
00000370: d27e 033e eff0 003f f10b 5d3e 117b 89bf
00000380: 6cbe ac3e 0596 833d e77c 67be 627f 37bd
00000390: ddc9 9c3e 5311 4bbf e683 9c3f 6c40 be3d
000003a0: 0b2b b63b a276 de3d d686 023d d699 29be
000003b0: 499c 0c3f a59f b3bf 31b1 ef3e ed9f e73e
000003c0: dd61 8e3e d44d 3fbc b889 833e c470 823e
000003d0: 9bcf 6ebe 525b b33f 3468 323f 3bb6 9fbe
000003e0: 60d0 bdbe 6676 f93d bc5e ccbd e23c 45be
000003f0: 26dd 98be b0d6 813e 9707 77be 8345 da3d
0.28317285 0.6585599 0.19461313 0.142447 -1.0480213 -1.3364967 0.16169259 -0.2909913
-1.011842 -0.121854305 -1.1194307 -0.040931694 -0.2237685 -0.34145486 -0.2325084 0.74807274
-1.5791188 1.0797342 -0.015483299 0.014623054 -0.7437727 0.48642305 -0.012347197 -0.009190692
-0.7165217 0.7965135 0.0835501 -0.0057163537 -0.116110735 0.05556123 0.111197375 -0.48368806
-0.7080154 -0.6680195 0.8204967 -0.047001157 0.631987 -0.9115109 -0.24356511 -0.47517008
-0.0050890218 0.98209834 -0.11315883 0.18634252 -0.17881201 0.038638707 0.2531582 -0.7463205
0.46559888 -0.127105 -0.3992731 0.18412067 0.13366146 -0.5665961 0.009246059 0.025065383
-0.96228254 0.12947121 0.30413818 0.020146167 -0.75879467 0.41142976 -0.23061927 -0.09200759
1.2192031 0.14390312 -1.1982999 -0.11834939 1.1610155 0.3998378 -0.2813562 0.9600454
-0.39963788 0.12594092 -0.49764934 0.26641238 0.0426496 0.06481756 0.27871895 -0.7634991
-0.0013357846 0.36665243 0.5311599 0.0018361576 0.01181257 0.12060399 -0.68341196 -0.29966766
0.27145576 0.105404645 0.029626131 -0.38362718 0.34471282 -1.2924532 0.18023463 1.2770177
-0.138069 1.1909753 -0.3298022 0.13512366 1.2560776 0.44078368 0.22366849 0.06674477
-0.0693263 1.1456323 -0.041628525 -0.27384835 -0.19265555 -0.2885411 -0.2690479 0.92243034
-0.27650034 0.14160505 -0.08140909 -1.0436727 0.17395899 -0.107272655 -0.23230325 0.033814218
-0.2429737 0.13213623 -0.4056631 0.20798546 0.9191496 0.69893634 0.33344176 -0.44009176
-0.9735728 -0.6995355 -1.6171563 0.13601427 0.00055562647 -0.49404046 0.19056045 1.002347
0.618816 -0.42199147 0.16883364 -0.7805885 -0.22286639 -0.3289199 -0.2554928 0.78847414
-0.29248673 0.47214022 -0.72860634 0.10415704 0.43289837 -0.9552238 0.06540401 0.17237338
-0.66817254 0.07426793 0.37920493 0.23104121 0.25122485 0.14362758 -0.056618247 -0.106886186
0.36171043 -0.8403714 -0.5536291 -0.16598228 -0.9904398 0.6634247 -0.20899072 0.54853433
-1.0628479 0.8678692 0.011732406 -0.1998771 0.48395115 -0.30031675 0.23232107 -0.07725986
-0.16481492 -0.031854127 0.13144526 -0.54245585 -0.117569685 0.20356682 0.44707087 0.3547989
0.031013608 0.078558505 -0.22776882 0.1715726 -1.094253 -1.0339626 0.16909398 0.5450838
0.6021666 -0.1802792 -0.4892873 0.11093303 -0.32233348 0.25140512 0.20645308 0.027767036
0.6028779 1.2312253 0.4248629 0.1324345 -0.19767737 -0.30299494 -0.26792243 0.8574017
0.1997752 1.0208565 -0.5716006 -0.0705059 -0.7576735 -0.46865693 -0.06733886 0.7145899
1.1034886 0.26747137 -0.3468553 -0.21229811 0.12841347 0.50367635 0.21586587 -1.0740682
0.3373903 0.06425098 -0.2260624 -0.044799216 0.3062276 -0.7932331 1.2227752 0.09289631
0.0055593303 0.10862471 0.03186687 -0.1656259 0.5492597 -1.4033095 0.46814874 0.452392
0.2780904 -0.0116762705 0.2569101 0.25476658 -0.23321383 1.4012244 0.6969025 -0.31193718
-0.3707304 0.12180786 -0.09979007 -0.19261506 -0.29856223 0.25359106 -0.24123989 0.106577896

layers.1.bias f4 [16]
00000000: ac0d cc3d d5ae e8bd d34d b43d 006d 2abe
00000010: aa7b 9f3d 9c06 24be e9fa 9f3e a81d 41bb
00000020: 1987 313e 53e6 583e 065b 343b 976a 443c
00000030: 502c 6ebe 6883 89bf 81d9 76bd ecd2 573d
0.09963545 -0.113614716 0.08803906 -0.16643143 0.07787259 -0.16018146 0.31246117 -0.002946714
0.17336692 0.21181612 0.0027520075 0.011988304 -0.23259091 -1.0743227 -0.06026602 0.052691385

final.linears.0.weight f4 [100, 50]
00000000: 077c e03e 844e c03f d84d 353d af21 953d
00000010: 6194 c83d 3529 00bf 59e9 90bf 5f7e 813f
00000020: 4aef c13e 58cc bbbc c1ac 353e 5f51 1bbf
00000030: 7df1 313f 03cb 5e3f c8c1 e4be 0dab ab3f
00000040: 4801 303f 75b5 493f 6cbc be3d 9169 193d
00000050: 96cc 313d cb07 02bc c442 5ebd 7799 e53d
00000060: c2a2 70bd 649f a0bd a5f5 adbd a472 c93c
00000070: c684 fb3b 9249 9d3c 0f12 c2bd 8016 b13c
00000080: 0b96 7c3d 5604 bbbd 516c d739 5b92 983c
00000090: e7f0 e4bd 1c04 843d 1d92 693c b04c 943d
000000a0: d2c9 723b 2dfe d83b e6e5 103e 4ecf 4f3d
000000b0: c495 ab3d 5090 1cbd 0fcd 723b 31ca 7a3d
000000c0: 42a8 43bd f1b9 52bd 3df7 87bd 7721 a0bc
000000d0: 62e0 c53e fe12 f7be e5a3 f23d 11c2 c03c
000000e0: eb27 443c c1cb 853d 9f21 a2bd ce48 33be
000000f0: 4a5c b1be 8902 583e f48c 0cbe ed30 b33d
00000100: c94e 573d 7677 1e3e 9d2f 493d c8dc 80bd
00000110: 90aa dd3d 6b0a 0ebe e687 95be 6694 0d3e
00000120: 1c2c 4bbe cfdd bcbe 4462 983e 7647 c13e
00000130: bb54 d83d e63e 9cbd 7b40 76be b53a 44be
00000140: d665 593e 7218 86bd 69b1 dbbe 2393 123d
00000150: 0e78 ffbc e2aa 03bc 74ff d5bd a78e 0fbe
00000160: fab0 91bc c84e 273c dc3d eb3d ac5e 12be
00000170: 5c19 92bc 74e2 0ebc 4252 9a3c 4680 3bbb
00000180: 7574 dfbd 63f4 573c d0f9 7abe 2ba0 a3bc
00000190: 3192 9dbf cf4a 9ebf fe92 3abd d5da 34be
000001a0: 3d0e 0bbd 41ae cdbf c914 f83d 5541 05bf
000001b0: 3e07 ae3f 6830 52be 0fbd d1bf 29a7 da3e
000001c0: 04e3 0840 aabd a2bf 8a45 64bf 56d2 8b3f
000001d0: 03bd f0bf 28e7 0abf 14a5 ccbd 3bcd 553d
000001e0: 427b c63d 6156 8a3d f0be 203c 56e0 913d
000001f0: 8010 5fbd 297e 18be 7e21 16be dae4 203e
00000200: 66b8 393d a59b dbbc 3526 08be c3e0 e3bc
00000210: 0ca4 5e3e 158c 01be 4ed4 2e3e 4dec 873d
00000220: 6be9 29bd 064a fd3b af7c f1bd b873 cabd
00000230: 32cf 4c3b 87af 5d3e 286a 423d 805e 5a3d
00000240: 0cb1 53bc 6bbe dabc 85ff 15bb d06b 043e
00000250: 69b0 0bbe 9b7d bb3d 4dc4 8fbb abdd 383e
00000260: 8756 273e e81a 233e 67dc 383d 7be2 8e3d
00000270: 54ab ad3e 15d3 c33b 862e e8bd 3dae fbbd
00000280: 38ab 64bf b4f0 88be 393b bf3d fd82 a1bd
00000290: 923c a53b 61af fe3d 31c6 30bc 82fd edbb
000002a0: a9d7 1c3d 8938 3d3c 526b b23c e21c 5abd
000002b0: 41f9 993d 0710 783d 2467 13be d853 16be
000002c0: 6fdf 0abe 8d58 2f3d 0f9b cabd 0f83 6abd
000002d0: db01 09be d7d3 493d a136 a83d d139 febd
000002e0: c224 5a3d 9211 1abd 8ea9 6bbb 48b0 c4bb
000002f0: c635 0abd 8f7f d93c 4a1f ef3c a515 a63c
00000300: 6f96 95bd 7ce6 d43c c55a 05bc fee6 c9bd
00000310: fa07 45bd 1f69 593e ae0d a2bd 208f dc3d
00000320: 35f4 af3c e27d aa3c b22f 9a3f 9bd9 1ac0
00000330: ce02 0c3f be61 d13b e13c 143c e13c 6e3d
00000340: 4e6a b53c 7e4a 453e 8944 283d 8590 eabb
00000350: 6656 713c f7ef d3bc 489e f33a 774f 683c
00000360: 6385 8b3c 93e9 a63a 31fd 5e3d 193d 97bd
00000370: 841b 28bd 4a67 a5bd b9cc 823c 975e 99bd
00000380: 4f93 b83c ce6a 8c3d 2cc4 d63c 2c44 8e3c
00000390: 188f 073d aa2d 8abe 2d65 e23c 2569 d23c
000003a0: e1a6 80bd c0e5 b9bd 0f93 51bd 1735 3e3c
000003b0: 433d 81bc cbee 373e 3d8b 933b d132 8d3d
000003c0: 3085 7a3d b6b1 1b3c 0ebd 0ebb f0ef 9abb
000003d0: 446c 47bc 46cd ce3d cff6 58bd 078a d43e
000003e0: d75c 3ebe b494 063e 0cab 343f d87c a6be
000003f0: 49a8 1cbf 5565 4abf 5f7a 0ebf b9fd 2fbc
0.43844625 1.5023961 0.04426369 0.07281815 0.09793926 -0.50062877 -1.1321212 1.011669
0.37877876 -0.022924587 0.17741682 -0.6067104 0.69509107 0.8702852 -0.44679093 1.3411576
0.68751955 0.78792506 0.09313282 0.03745419 0.043408 -0.007936428 -0.05426289 0.11210912
-0.058748968 -0.07842901 -0.084941186 0.024590798 0.00767574 0.01920012 -0.09476101 0.021617174
0.06166653 -0.091316864 0.00041088698 0.018624475 -0.11178761 0.06446096 0.0142560275 0.072411895
0.0037046564 0.006622097 0.141502 0.05073481 0.08378175 -0.038223565 0.0037048494 0.06122798
-0.047767885 -0.05144686 -0.06638954 -0.019547207 0.38647753 -0.48256677 0.11847667 0.023530038
0.011972408 0.065330036 -0.07916569 -0.17508242 -0.34640723 0.21094717 -0.13725644 0.08749566
0.05256537 0.15475258 0.049117673 -0.06292111 0.10823548 -0.13871162 -0.29205245 0.13826141
-0.19841045 -0.36887977 0.2976247 0.37749833 0.10563036 -0.076291844 -0.24048035 -0.1916302
0.21230254 -0.06547631 -0.4290879 0.03578485 -0.031185176 -0.008036347 -0.104491144 -0.14019261
-0.017784584 0.010211654 0.11486408 -0.14293927 -0.017834358 -0.008720983 0.018838052 -0.0028610392
-0.10910884 0.013180825 -0.24509358 -0.019973835 -1.2310239 -1.236658 -0.04555034 -0.17661603
-0.033949126 -1.6068803 0.121133395 -0.52052814 1.359596 -0.20526278 -1.6385821 0.42705658
2.138856 -1.2714131 -0.8916861 1.0923564 -1.8807682 -0.54258966 -0.09992424 0.052197676
0.09691478 0.06754757 0.009811148 0.07122867 -0.054459095 -0.14891876 -0.14661214 0.157123
0.04534187 -0.026807616 -0.13295825 -0.027817136 0.21742266 -0.12651093 0.17073175 0.06636868
-0.04148237 0.0077297715 -0.1179136 -0.09885353 0.0031251428 0.2164899 0.04746452 0.05331278
-0.012920629 -0.026702126 -0.0022887897 0.12931752 -0.13641514 0.09154817 -0.0043874145 0.1805331
0.16341601 0.15928233 0.045132067 0.069767915 0.33919775 0.0059760907 -0.11336999 -0.12289093
-0.8932376 -0.26746142 0.09337468 -0.07886312 0.005042621 0.124357946 -0.01078944 -0.0072628865
0.038291607 0.011549124 0.02177969 -0.0532502 0.075182445 0.06056216 -0.14394814 -0.14680421
-0.13561796 0.042809058 -0.09892856 -0.057253893 -0.13379614 0.04927429 0.08213545 -0.12413371
0.05325771 -0.037614413 -0.0035959217 -0.0060024597 -0.03374269 0.026550082 0.029189724 0.020273993
-0.073040836 0.02598881 -0.008139317 -0.098585114 -0.04810331 0.21231507 -0.079127654 0.107694864
0.021478752 0.020811979 1.2045805 -2.4195316 0.5469178 0.0063898256 0.009047718 0.058163527
0.022145417 0.19266698 0.041080985 -0.0071583414 0.014730072 -0.02587126 0.00185866 0.014179102
0.017031377 0.0012734405 0.05444068 -0.073847 -0.041041866 -0.080763415 0.01596676 -0.07488745
0.02253118 0.06856309 0.026216589 0.017366491 0.03309545 -0.26987964 0.027636135 0.025684902
-0.062818296 -0.090770245 -0.051165637 0.011609337 -0.015776282 0.17962186 0.0045026825 0.06894458
0.061162174 0.009502819 -0.0021780166 -0.00472831 -0.012171809 0.100977466 -0.05296975 0.41511557
-0.18590103 0.13142663 0.70573497 -0.32517123 -0.6119428 -0.7906087 -0.55655473 -0.010741645

final.linears.0.bias f4 [100]
00000000: e517 59bd 1403 2c3f 21bf acbb d5e4 a73d
00000010: abb6 abba 958f 6b3e 9f2c ac3d 4eee f13d
00000020: 1be5 08bd e51a 503d 35c1 89bc 4048 003e
00000030: bc47 42be 820d cf3d 5488 8d3d d00a e53d
00000040: c8ff 393e 1cf9 933c 2774 1a3f 127e 51be
00000050: 55f4 3bbe 19c2 0b3e 9162 263d 5620 073e
00000060: c60d 1a3e eb0c b43d b25d f0bd f737 0a3e
00000070: 21df eebd 69d6 6b3e 7ddd 66bd 9bfa ae3e
00000080: 79eb 6b3e 6ace 04be 876a e63c cd41 733c
00000090: dd76 843d 0268 ac3d f793 0d3d a1fa ab3d
000000a0: 7e75 5fbd 67a2 8e3d 4164 36bd df0e fc3d
000000b0: 05c0 7abb 9ebc 023e a446 593d b82c 1ebe
000000c0: 2d3e 2a3e 51c2 a13d f770 08bd d3d9 a3bd
000000d0: ea5b 483d 0c2d 153e b443 dd3d d705 473e
000000e0: 8326 063f b092 fc3c 528f dc3d 504c f9bc
000000f0: f1f5 92bd eeca d63d ae8e a13b 049c 8d3e
00000100: 2262 c03d 95af 39bd 5346 143e d8f0 5e3e
00000110: b7c9 0f3e 4799 113e f062 e03d 8236 eb3d
00000120: 7de9 a13d 0f19 903e 2f6c 2d3e 8814 8e3d
00000130: 320d 8d3d 8d39 473d 1fe6 353e e12e 3f3d
00000140: 6ba8 0f3e 6052 973d cdd8 333e d27a 0f3e
00000150: a3a9 e2bd ab47 b13d 7a33 6fbb 434c 14bd
00000160: 10b6 763d eba4 c33d 9a99 abbe 5550 293e
00000170: a52b 9ebc 6932 813d e7d5 78bd 76a9 013e
00000180: 0f9f f53e e5a1 6a3e 0e91 193e 932b c6bd
-0.053001303 0.67192197 -0.005271808 0.08197943 -0.0013100704 0.23003991 0.08406948 0.11813031
-0.033421617 0.0508069 -0.016815761 0.12527561 -0.18972677 0.10109998 0.06910768 0.11183703
0.18163979 0.01806312 0.60333484 -0.20458248 -0.18354924 0.13648261 0.040621344 0.13195929
0.15044317 0.087915264 -0.11736621 0.13497911 -0.11663652 0.2303101 -0.05636357 0.34175572
0.23039044 -0.12969366 0.028126968 0.014847231 0.06467984 0.084182754 0.03456494 0.08397413
-0.05455541 0.069645695 -0.044529203 0.12307524 -0.0038261425 0.12767264 0.053045884 -0.15446746
0.1662528 0.07898391 -0.033310857 -0.08000531 0.04891578 0.14567965 0.10803929 0.19435821
0.52402514 0.030831665 0.10769524 -0.030431896 -0.07175816 0.104879245 0.004930339 0.27658093
0.09393717 -0.045333464 0.14479952 0.21771562 0.14041792 0.14218627 0.10956371 0.11485006
0.079058625 0.28144118 0.169358 0.0693751 0.068872824 0.04863887 0.17763565 0.046675567
0.1402909 0.07388759 0.17563172 0.14011696 -0.11067512 0.08656248 -0.0036499188 -0.03620554
0.060232222 0.0955294 -0.33515626 0.1653455 -0.01930792 0.06308443 -0.06075087 0.126623
0.47972915 0.2291332 0.1499674 -0.0967628

final.linears.1.weight f4 [100, 100]
00000000: 42a5 b3be 93bb 39be d623 14be 9861 76bd
00000010: b056 6e3d c42c 6ebd 96f9 24be 2546 c4bd
00000020: 2d4c cabd 6331 22be 870c 91be 69c3 4ebe
00000030: 0c60 74be d9c1 eebd 1657 35be a6f0 b83b
00000040: 8541 7fbd f7aa a13c 9eb1 a2bc 8dcb 37be
00000050: 1e0f 323d 0ba2 f9bd c7ea 2d3c d89a 003d
00000060: fd31 92bd 0402 ddbd ca91 5bbe 2314 52be
00000070: 91a8 23bd c675 2f3d 54c5 4abe 8654 e2bd
00000080: 68e5 c73d 4e83 3bbe 20ff a8be cc99 e8bd
00000090: a15e b0be 1f34 37be 31d3 10be 5e3b 85be
000000a0: 110d 23bd 22cb 58ba 8a6f c53c 44bf 6dbe
000000b0: c663 b2bd 7c85 fcbd 79fd fcbd 9d36 b0be
000000c0: eb6c 55be d642 8cbe 901d 77be ab4e 3bbe
000000d0: 155e 0cbe 911c 33bd 75c7 473d b0ce ddbd
000000e0: bbac f7bd 749c 0b3e f9a5 acbc 88a2 18be
000000f0: ba32 b0be 0b6c 6ebd a1ce 04be a68e c0bd
00000100: 097f 28be 3241 8e3e 2bf2 bdbd 9562 63be
00000110: dc4e 0ebe 45cf 3bbe c575 17be dff2 f1bd
00000120: d6c6 64be 0d6b 9bbb 84ce 80be 3e18 8bbe
00000130: 12cb 173e 93cd 0dbe 4e3d 68be 1027 843c
00000140: 9f6d 16be 49a5 78bd 703d 62be 15fc dcbc
00000150: f20c 02be 1049 55bd 7f42 63bc 0d68 08be
00000160: 7378 47bd 0591 5cbe eb11 09be d821 a2bb
00000170: bafd 3ebe 064e 5cbd 26c2 8cbe 0db2 a6be
00000180: 83d4 2cbe dcd6 893d 5dde 2cbe af4e 483c
00000190: bb4b a4be abe6 91bc 7a27 19be 7e8d 31be
000001a0: 8a2b c53d 5720 39bd b315 21be edef 0cbe
000001b0: 6575 b9bd 4457 48be 6b0f 3cbe a2fb 7dbe
000001c0: 8947 8abc a638 98ba 0479 3abe 9323 80bc
000001d0: 971e bcbd a59d 26be d6af a1bd 9151 bfbd
000001e0: 834f c33d 068d cfbd 20b0 dcbd 1358 07be
000001f0: 5434 2eb9 3658 10be b793 0ebd 9fa1 11be
00000200: 1ac8 8e3c 1d32 1ebc 7bca 29be 9765 34be
00000210: 049d 3d3d d8c3 67be c5db 85bd 92b4 e8bd
00000220: 1210 9abe 3769 1cbe 91a9 0bbe 96ea 7bbe
00000230: c326 103c 56c9 b53b 0dea fa3c 98e6 4abe
00000240: 8616 283c 2ddf 0bbe 02aa d3bd 5ce8 18be
00000250: 95d2 60be 0115 80be d8b0 44be 23e7 2dbe
00000260: 45bf d5bd 8c97 6b3a e557 93bd b58c a5bd
00000270: bdfa 69be 9984 73bd be93 a3bc d71d 24be
00000280: 96e0 73bf d826 68be d611 10be 56ea 36be
00000290: 7567 2abe 5e41 933e 0f7a a9bd e8f2 12be
000002a0: a999 e5bd 6552 2abe f21c c4bd 6bb6 ec3d
000002b0: 4aee aebd 555d 8bbd e064 6fbc 9b94 36bd
000002c0: 1d64 043e 8490 febd 910e 84bd 3389 cebd
000002d0: ea5e 19be c1e1 83bd 65f6 3ebe 5c94 65bc
000002e0: 950d 43bd ece1 3ebd 1f52 34bc 3cdf 4abe
000002f0: 60a5 bbbd 09be 31be c01d 50bd 65bc 50bc
00000300: f233 eebd 966e aabc 87be e3bd 2b78 24be
00000310: b15a e5bd ffca 923d d987 88be 9815 363c
00000320: f733 0b3e aab1 d63e b9d9 403e b45e 92bd
00000330: 285e 833f cf4e e43d eab0 6d3e 41e0 223e
00000340: c8d6 29be f178 ef3e 6ccd 663e 59be b3be
00000350: 42c0 573e 82ba 4c3d 70f3 c3bd c805 823d
00000360: 11aa de3d c51d 97bd 93de d6be 4af6 54be
00000370: 1b4b 063f 3a74 fabd 5d5f 9e3d 6710 003d
00000380: 957e 03bf 58eb 1a3e 0d44 e23c 7b8a 073e
00000390: 6c19 65be ca7c 13bc ad42 453e 8f16 da3e
000003a0: dd9f 703e 5f48 c13d 66b4 4d3d b578 4a3e
000003b0: f8f2 003e 4190 8a3e 0796 7d3c 347a c63d
000003c0: 653a d4be b6a4 093e 6f0b cbbe 532a 333d
000003d0: 032b 0fbe f725 22be 74d8 373e 12d3 223e
000003e0: 1e8f 97bb 5d75 91bd 0ae4 a0bc 7a30 183e
000003f0: 2010 953d 2fbc b5bc 4cba 163e d72d 74be
-0.3508702 -0.1813796 -0.14466795 -0.060151666 0.05818814 -0.05814816 -0.16110834 -0.095836915
-0.098778106 -0.15839152 -0.2832987 -0.2019173 -0.23864764 -0.11658067 -0.17709002 0.005643922
-0.062318344 0.019734843 -0.019860085 -0.17948742 0.043471448 -0.1218911 0.010615057 0.03139767
-0.07138441 -0.107914 -0.21442333 -0.20515494 -0.03995568 0.042836927 -0.19801837 -0.11051278
0.09760553 -0.18311808 -0.33007145 -0.113574594 -0.34447196 -0.17890976 -0.14143063 -0.26021856
-0.039807383 -0.0008270015 0.024101038 -0.23217493 -0.087104365 -0.123301476 -0.123530336 -0.34416667
-0.2084233 -0.27394742 -0.24132371 -0.18291728 -0.13707764 -0.043728415 0.0487742 -0.10830438
-0.120934926 0.13633901 -0.021075236 -0.14905751 -0.344137 -0.058208507 -0.12969448 -0.09402208
-0.1645471 0.27784115 -0.092747055 -0.22205575 -0.1389727 -0.18340786 -0.1479102 -0.11813902
-0.22341475 -0.004742986 -0.2515756 -0.27166933 0.14823559 -0.13847952 -0.22679636 0.016131908
-0.14690255 -0.060704503 -0.22093749 -0.02697567 -0.1270025 -0.05207163 -0.013870834 -0.13320942
-0.048698854 -0.21539696 -0.13385741 -0.004947882 -0.18651477 -0.053785346 -0.27491874 -0.32557717
-0.16877942 0.06730434 -0.168817 0.012225791 -0.32089028 -0.017810186 -0.14956465 -0.17339131
0.09627445 -0.045196857 -0.15730934 -0.137634 -0.09055594 -0.19564539 -0.18365256 -0.24803022
-0.016879814 -0.0011613562 -0.18210226 -0.015641963 -0.09185522 -0.16271074 -0.07894866 -0.093417294
0.0953665 -0.1013432 -0.10775781 -0.13217191 -0.00016613427 -0.1409615 -0.03480884 -0.1422181
0.0174294 -0.009655503 -0.16581146 -0.17616878 0.04629232 -0.22633302 -0.06536058 -0.11362566
-0.30090386 -0.15274511 -0.13638903 -0.24601206 0.008798304 0.0055476828 0.030629182 -0.19814527
0.010259276 -0.13659354 -0.10335161 -0.14932388 -0.2195533 -0.25016025 -0.19208086 -0.16982703
-0.104368724 0.0008987121 -0.07194499 -0.08083478 -0.22849555 -0.059452627 -0.01996791 -0.16027008
-0.95264566 -0.22671068 -0.14069304 -0.1786283 -0.16641028 0.2876081 -0.08275234 -0.14350474
-0.11210949 -0.16632994 -0.095758334 0.11558231 -0.08541544 -0.06804911 -0.014611453 -0.044575315
0.12928815 -0.12429908 -0.06448091 -0.100847624 -0.14977613 -0.064395435 -0.1864868 -0.014012422
-0.047620375 -0.046602175 -0.011005907 -0.1981172 -0.09162402 -0.17357649 -0.05080962 -0.012740229
-0.116310015 -0.020804685 -0.111203246 -0.16061465 -0.11198939 0.07167625 -0.26666144 0.011113547
0.13594042 0.41932422 0.18833055 -0.071469694 1.0263109 0.11147844 0.23212019 0.15905859
-0.16585839 0.46771958 0.225393 -0.3510616 0.21069434 0.049982555 -0.095679164 0.06348759
0.10872281 -0.07378725 -0.41966686 -0.20797077 0.5245835 -0.122292 0.07733033 0.031265642
-0.51365024 0.15128839 0.02762034 0.1323642 -0.22372979 -0.00900192 0.19263716 0.42595336
0.23498483 0.09437632 0.05022087 0.19772609 0.12592685 0.27063182 0.015477664 0.09691277
-0.41450801 0.13441738 -0.3965716 0.043741535 -0.13981251 -0.15834795 0.17953664 0.1590083
-0.004625215 -0.071024634 -0.019639987 0.14862242 0.07278466 -0.02218446 0.14719504 -0.23845612

final.linears.1.bias f4 [100]
00000000: 5b14 70bd a37e 6cbd 88ef 39be 5008 173c
00000010: ec0d 3bbe b0aa 01be 993c 163d ed9c 22be
00000020: b345 ffbd c69f 81be 58e5 a1be be2a 97be
00000030: 629c acbe 0abc 85bd 6775 3ebe 88fb a0be
00000040: bfb8 4dbe a11a a13e 7332 8bbd 6d61 c3be
00000050: e510 15be 4fef 783c 2c65 5bbe 1429 d1bd
00000060: 9d9a bebe f467 12bc f71c 80be a73b 31be
00000070: da1f 6bbd edb8 183d 959b b2be e040 92be
00000080: e9ff b0bd da4e f2bd 6902 55bc ae90 f9bd
00000090: e330 93be 8e36 2dbe b3d7 b8be c524 c03c
000000a0: dbd6 2c3e 2743 123f 458e 4c3b 32a2 cbbe
000000b0: 054c a3bc d4c4 85be bb76 c0be 24b9 0bbe
000000c0: 1a4a 9bbd 40b3 a7be 82af 02be 5d6e 45be
000000d0: 4124 acbe da15 82bd da32 5fbe 53a4 d7be
000000e0: 0974 47bc 05b5 65be 64ba 1fbd 57ca 90bd
000000f0: c2d1 ddbe 9987 02be 69b5 d0bc 83ad 34be
00000100: dfa2 39be 5e98 a2be 7935 e13d 9642 1dbe
00000110: 30d9 a3be dab4 27be 6fa3 69bd 29d2 9abe
00000120: 6c22 9bbc ce98 41be 7027 c1be 41ec 48bd
00000130: 5b0a 80bd d9c6 bfbe c85e 5abe f199 12be
00000140: 297e a0be 1e8d ffbd 808e 80be 2031 e1bd
00000150: 43da 29bc 0266 0bbe cb31 6dbe fc16 223c
00000160: 03ac 87bd 5dbd 05bf cef6 ddbd 8514 b7be
00000170: 9c97 82bc 1299 c93e 3684 a0be 5549 c2be
00000180: 5480 4c3e 64cc 13be d562 f3bd 2c64 29be
-0.058613162 -0.057737958 -0.1815778 0.00921829 -0.1826703 -0.12662768 0.036678884 -0.15880175
-0.12464466 -0.2531721 -0.31620288 -0.29524797 -0.3371306 -0.06530006 -0.18599473 -0.31441903
-0.20090006 0.3146563 -0.06796732 -0.38160267 -0.14557226 0.015193774 -0.21425313 -0.10212913
-0.37227336 -0.008935917 -0.25022098 -0.17307912 -0.057403423 0.037285734 -0.34884325 -0.2856512
-0.08642561 -0.11831446 -0.013001063 -0.121857986 -0.28748235 -0.16915342 -0.36102065 0.023455033
0.16878836 0.57133716 0.003121273 -0.39772183 -0.01993371 -0.2612673 -0.37590584 -0.13644844
-0.07582493 -0.32753944 -0.12762263 -0.19280382 -0.3362141 -0.06351824 -0.21796742 -0.42117557
-0.012173661 -0.22432335 -0.038996115 -0.07069843 -0.43324095 -0.12747039 -0.025477128 -0.17644314
-0.18128537 -0.31756872 0.10996527 -0.15357432 -0.32001638 -0.16377583 -0.057040628 -0.30238464
-0.018937312 -0.18905947 -0.377254 -0.049053434 -0.06251975 -0.37456396 -0.21325219 -0.14316536
-0.31346253 -0.12478088 -0.2510872 -0.10995698 -0.010366979 -0.13613132 -0.23163526 0.009893175
-0.066246055 -0.5224207 -0.1083809 -0.35757843 -0.015941434 0.39374596 -0.3135087 -0.37946573
0.19970828 -0.14433438 -0.11884085 -0.16542119

final.linears.2.weight f4 [18, 100]
00000000: 26af abbc e99c 00bf 87f6 0fbc 0e78 b1bb
00000010: b64a e1bd e874 5bbd 8dbc 6cbe 1c25 083f
00000020: 0e9b eabc ade6 0cbe bdc0 00be 87b8 d93e
00000030: b418 e0be 6135 a2bd 0e94 a33e d575 f4be
00000040: 2100 003f fcfd 173a a705 363c 3a7f b4bb
00000050: 5e60 133e 9a67 733e 075e 8ebe 5811 8a3e
00000060: b495 6e3e 5430 363c dd46 59be 4e96 783d
00000070: 2d30 2e3e a006 1cbd a61a a4be 9a5d 2f3f
00000080: 5096 90be d66e 8abd f542 15bd 1338 043c
00000090: fce8 01be 6d99 443d 7f72 f43e cb15 9a3a
000000a0: 1d8e 4a3e 59a5 83ba 660f 88be f9d9 f93d
000000b0: cd1e 8e3e 42fc 8a3d fff0 31bf a155 4cbe
000000c0: db5e a63d 4553 dd3d fc9b 39bd fbd0 5ebe
000000d0: 1d09 d13e e996 54be 5634 033f 996b ee3d
000000e0: 97a5 f4bb fc39 10be 7c3a 513c cc2e a5be
000000f0: 633d 213f 3eee debd 5c2b 4c3d 3d5e 3fbe
00000100: 8b24 453e cb24 a13e 15c0 9e3e a5e6 db3c
00000110: c1ec 12be 7800 e03e e18b 0abe 7181 bb3e
00000120: b354 5bbc 5665 933c e1e7 50bf a263 dbbe
00000130: 9e81 f93d 7d17 44be 0def cabe cdcc 343d
00000140: 7de0 2639 0de9 15bc 6fa6 36be f8cb 0abd
00000150: 26e9 ab3b 2da8 a93e 48e7 7dbe 2675 a33e
00000160: 41cf 253d 979b 3bbd 68ce d5bd 485d 08bf
00000170: f9a2 293d 3eee 203c 6786 8cbe 9232 90be
00000180: 0b63 c03c 13be 923c 3f3e e13c 6dd1 c83e
00000190: c381 fd3e 6acf cb3e 6ddf ca3b fa7d 5cb8
000001a0: 058a c6bd 4f06 643d 25c0 1f3e 2bdc 47be
000001b0: a327 7a3c e30b 51bd 3bd9 16be 335b 303f
000001c0: 1245 e23e d997 c8be 2784 11bf 33b2 7e3e
000001d0: 7155 35be e8c5 a8bc 02bf 333b 28b3 483c
000001e0: 97cd d63e 901e 78bd dcbb 513e d10e 8a3e
000001f0: 23fb 20bf 3d9d 833c 0ca2 c4bc 9e14 873e
00000200: 5c0b 093d 13dd c13e 8ea0 443e 7ebf c1be
00000210: 80a9 533e 6cdc 2dbe 7959 30bc e522 bfbc
00000220: d304 b8be c5d0 f7bd dc1a 1bbf 4c88 ac3a
00000230: e8a7 8c3d 380b d5bb f0af 313d 60bf fdbe
00000240: 01c3 31bd 705f d8bd 7b61 85bc f2f5 2dbf
00000250: 718f 4d3e 23f2 e13e 3afd 57bd 8fa1 18bf
00000260: 1694 d63e fbbb 63be 4e25 33bd bc4d 0cbe
00000270: 9a58 413c 9a95 123f 8788 0cbb 438c 49be
00000280: 8a1e b53e f92f 55be d50d 883d c049 2d3e
00000290: eef9 10bd c075 98bc b55b 75be 60fe 59bd
000002a0: 11f3 533e 4256 b73c e18e 1b3e 1732 343f
000002b0: e02a 8b3c dcf2 093e 8158 a1bd cc1f edbd
000002c0: de5e 3c3e ed4a f0bd a2a4 2bbf 5fa9 2dbe
000002d0: e93e 26bc fc64 ac3b df13 7ebe 8e97 2d3e
000002e0: f2ef 7a3d 7cb9 5c3e dfc9 8f3d cbba b0bd
000002f0: 8ebf 183d 66a7 e9bd e49d 3cbc e749 ebbd
00000300: 68db 0abd 1eac 41bb 9ba8 6f3e da3a e53e
00000310: 0877 19bc f382 b9bc da28 a5be b311 a8bd
00000320: 40d9 43be 67c2 803e 78e5 ca3d 77fd 83be
00000330: e171 86bf 457f bf3d 0e11 20bd 4165 83bd
00000340: 0acb 373e 275a 97be afee ce3d 23fc bb3d
00000350: e8fb b6be c46f c7bb 4b38 d03d d84d 9fbe
00000360: 7d9f 24be e2ba 0340 01dd 56be 7747 933d
00000370: 2c81 473d b18d 12be 4664 b7be 04a1 333d
00000380: 2978 d6be 6927 d6bd 0ad9 243d 4f65 213d
00000390: 5331 093e 5137 8cbd 0309 a33e 2057 8bbe
000003a0: a871 983d f0f1 073d 3e61 4cbd 8a02 ccbf
000003b0: fa9a 273e d508 733d be46 ce3c 5786 923d
000003c0: 641a f939 c3ff fe3c 5cd9 8abd 8edc 073f
000003d0: c8e8 ba3d e410 9d3d 40ec 173e 0a32 903d
000003e0: bca8 9cbc c06e 87be 6058 393d 621d c23d
000003f0: be50 10be ad8a 7f3b 48fa fa3e 5da3 70be
-0.02095754 -0.50239426 -0.008786804 -0.005415923 -0.11000578 -0.053578287 -0.23118801 0.53181624
-0.028638389 -0.13759871 -0.12573524 0.42523596 -0.43768847 -0.079203375 0.31948894 -0.4774615
0.50000197 0.00057980395 0.011109746 -0.0055083307 0.1439223 0.2376999 -0.27806112 0.26966357
0.23299295 0.011119921 -0.21218438 0.060690217 0.17010565 -0.038092256 -0.3205158 0.685022
-0.2823968 -0.067594215 -0.03644081 0.00807001 -0.12686533 0.04799788 0.47743604 0.0011755762
0.19780774 -0.0010043784 -0.26574248 0.12199778 0.27757874 0.067863956 -0.69508356 -0.1995454
0.08123561 0.10806898 -0.045314774 -0.21759407 0.40827265 -0.20760693 0.51251733 0.116416164
-0.007466029 -0.1408462 0.012770291 -0.32262266 0.62984294 -0.10885285 0.04984604 -0.18688293
0.19252221 0.31473383 0.31005922 0.026843378 -0.14348127 0.43750358 -0.13529922 0.36622193
-0.013386893 0.017992657 -0.8160382 -0.4284945 0.12182926 -0.19149585 -0.39635506 0.044140626
0.00015914622 -0.009149802 -0.17836927 -0.033885926 0.0052462993 0.3313612 -0.24795258 0.31925315
0.040480856 -0.04580268 -0.104397595 -0.53267336 0.04141519 0.009822426 -0.2744629 -0.28163582
0.023484727 0.0179129 0.027495502 0.3922228 0.49513063 0.39806682 0.006191185 -5.2569412e-05
-0.09694294 0.05567008 0.15600641 -0.19517581 0.015268239 -0.051036727 -0.14731304 0.6888916
0.4419332 -0.3917835 -0.56842273 0.24872665 -0.17708375 -0.020602182 0.0027427082 0.012249745
0.41953728 -0.06057602 0.20481819 0.2696443 -0.62883204 0.016066188 -0.024003051 0.26382917
0.0334581 0.3786398 0.19201872 -0.3784141 0.20670128 -0.16978616 -0.010763519 -0.023332069
-0.3594118 -0.121003665 -0.6058786 0.0013163178 0.06867963 -0.0065015815 0.043380678 -0.4956007
-0.04339886 -0.10565078 -0.016281834 -0.6795341 0.2007425 0.44130048 -0.05273173 -0.5962152
0.41909856 -0.22239678 -0.04373675 -0.13701528 0.011800909 0.57259524 -0.0021443681 -0.19682412
0.35374862 -0.20819081 0.06643263 0.16922665 -0.0353946 -0.018610835 -0.23960765 -0.053221107
0.20698191 0.022379998 0.15191223 0.7038893 0.016988218 0.1347155 -0.07878209 -0.115783304
0.18395564 -0.11733041 -0.67048085 -0.16959141 -0.010146835 0.0052610617 -0.24812268 0.16952345
0.061263986 0.21555132 0.07020926 -0.08629378 0.037292056 -0.11408882 -0.011512253 -0.11488705
-0.03390065 -0.0029552053 0.23404162 0.44771463 -0.009366758 -0.02264545 -0.3225773 -0.08206501
-0.19125843 0.25148317 0.09907049 -0.25779316 -1.0503503 0.093504466 -0.039078765 -0.06415797
0.17948547 -0.29560968 0.10104119 0.09178951 -0.35739064 -0.0060863215 0.10166987 -0.31114078
-0.16076465 2.0582814 -0.20982744 0.07191365 0.048707172 -0.14311863 -0.3581869 0.04385473
-0.4188855 -0.10456736 0.040246047 0.039403256 0.13397722 -0.06846488 0.31842813 -0.2721491
0.07443553 0.033189714 -0.049897425 -1.5938275 0.16367713 0.059334595 0.025180217 0.071545295
0.00047512644 0.031127816 -0.06779739 0.53070915 0.09126431 0.07669237 0.14836216 0.07040794
-0.019123428 -0.26451683 0.045250297 0.094782606 -0.140933 0.003899257 0.49019074 -0.23499818

final.linears.2.bias f4 [18]
00000000: 55b6 b73b 6e42 6bbd ad06 943c d9f8 f03d
00000010: ff37 7abe 2eda 6e3c ca86 913d 43ef c23d
00000020: 7f24 a4bd 8e37 aa3c 6098 46bd 106e 98bd
00000030: 3c95 89bb 19c1 57bd c4f3 1fbd e464 c93c
00000040: 1ab8 85bc 6e81 5abb
0.0056064525 -0.0574364 0.01806959 0.11766214 -0.24435423 0.014578385 0.07105787 0.09518292
-0.080147736 0.020778444 -0.04848516 -0.07442868 -0.0041986983 -0.052674387 -0.039050832 0.024584241
-0.016323138 -0.0033341306

layers.0.attn.0.gnn_q.weight f4 [18, 16]
00000000: f8f6 7688 22aa 9308 5d0a 2b08 6f8c 4c88
00000010: c050 8688 1ca1 ad06 3285 4508 7dd1 a108
00000020: dcc3 7088 960c c208 6f79 0f88 dedf c188
00000030: 305e f507 ebb3 5d08 bf90 6b87 3c75 a808
00000040: da08 8087 a483 c108 7057 2388 fa54 1d08
00000050: f679 5207 090a 0508 04a5 e407 94ed 9d88
00000060: 1045 3f88 df06 0e08 6528 8807 29cb c288
00000070: ed48 a107 3271 cd07 9079 8a88 2695 4a08
00000080: 50b9 3007 9375 9087 2424 7b88 681a 1988
00000090: 2d8d ef84 6844 9f08 e818 c087 5ddb d187
000000a0: f321 2e06 f343 8788 c2c3 7888 3e7a 2388
000000b0: 1c94 7f88 4d40 8786 3358 4608 74b5 4a88
000000c0: ca22 6188 960c 8f08 60cf a488 4a69 0388
000000d0: b5cb 1e88 d6e3 2e88 5bdf 4088 d6a4 e487
000000e0: 58eb 8108 b326 3308 c4f6 8408 945a 8687
000000f0: 7d9a 4588 16a8 3508 f67b a007 e736 7c07
00000100: dce2 c208 e47c c288 78b2 d087 b5fc 5808
00000110: a30d 1908 33bd d407 c4d4 5b87 5098 9908
00000120: ba1d 8a86 9908 c288 6a1c c208 3d55 ea07
00000130: cded 0888 051e 8887 8988 c008 c023 1e88
00000140: 12fa 0a08 d026 4b88 dc14 8108 ba38 9987
00000150: 883f b288 39ad 5c08 1078 c984 68b8 3a88
00000160: 1d45 b208 95dc c208 a2df 9607 eec8 c288
00000170: 96c3 af07 2e28 9d87 2dc6 e606 f7c9 0488
00000180: e310 6408 f6e0 2e88 6ed0 a008 3d89 1a08
00000190: 11d0 f487 a58e 4f07 bce8 4a05 8aaa a188
000001a0: dab8 0508 68b8 c208 02ef fc87 8829 b208
000001b0: 8fde 3b88 5f4c 6b07 5ec6 8a86 d246 2c88
000001c0: 06a9 d687 ad6e 0087 eb15 8b07 563e 6807
000001d0: a06d 0f86 f959 a386 0225 2807 ab35 0208
000001e0: 30fb ac88 1a4d 1787 5e68 2588 97bc 3588
000001f0: be5c c288 045c a906 42af 7987 ac46 6288
00000200: 8429 c208 0d49 cc86 0c8e b288 5a7a 9108
00000210: 3a1f 0388 1fab 5808 1690 1988 a6fb 3087
00000220: 4e08 6a87 b5a6 c208 0c72 b484 c63e 7188
00000230: 0aad b687 268a 1688 4bdc 9d08 0b0e 2888
00000240: 604c 4008 06e9 9508 aa3d 0008 3d6e 3287
00000250: f705 e405 a17d 3308 9478 0187 86c1 1a08
00000260: 3ec0 a908 8ccf ac88 a8fd 2e88 f345 9088
00000270: 686a c288 1f8b 0688 85c3 1c88 7803 0d88
00000280: 6607 c308 b2e8 0088 ee7a 9e08 7a42 8706
00000290: 8f53 9308 f066 3e87 6f79 b587 850a b208
000002a0: 508b 6e88 efc5 7888 d063 c108 9a81 4488
000002b0: e536 8907 110c 2706 514a 5808 3d1d ca05
000002c0: 0107 8f87 b8f5 2e06 f595 9588 7f55 1988
000002d0: facc dc86 0d15 2d88 567f 3f07 72ca cb87
000002e0: 2407 c007 c1a1 5808 3318 0c08 3cbf c088
000002f0: 595d c008 9888 3507 a0b4 1d08 7354 b988
00000300: 9124 c008 5dc1 1588 e69a 8288 5aad 2308
00000310: ebc4 4908 71fc 8987 3cc7 8587 5ae3 0d08
00000320: b380 f087 c528 6f88 d6e7 ff07 42b0 3b87
00000330: 8b8a 8686 4cad 1308 b375 af88 3249 1d88
00000340: 846d 6084 e309 0e88 7dc5 f806 1238 0107
00000350: 8a6f 5108 19d0 c208 4326 0a88 c99e 8b87
00000360: 2feb 6208 b029 9b87 daad 6608 7689 0a06
00000370: d251 2088 128d 0908 ee92 7e08 d2f8 8807
00000380: ef55 db87 a436 8408 ea5b 8a87 23af 4f88
00000390: 27c5 1108 d09d 0f88 4f83 9e87 03eb cd07
000003a0: fddf 2508 3605 c388 5042 c288 65b4 b688
000003b0: 09cf 4788 53ad 6b08 1203 0a88 c9ab 8508
000003c0: 1549 c308 362a 1d88 300a 5987 bcb2 e287
000003d0: 9213 a907 f4b1 3588 bcf8 b807 7e0e c586
000003e0: 9985 aa07 ff4f c288 01cc d607 624f a487
000003f0: eaab 6108 5d54 3787 a08b 5008 5de5 5b07
-7.4318243e-34 8.887239e-34 5.1470623e-34 -6.1554096e-34 -8.083816e-34 6.5312096e-35 5.94391e-34 9.7390855e-34
-7.2452605e-34 1.1678909e-33 -4.317524e-34 -1.1668396e-33 3.6918861e-34 6.671626e-34 -1.7721972e-34 1.0138694e-33
-1.9264502e-34 1.16467135e-33 -4.915381e-34 4.734536e-34 1.5834485e-34 4.003503e-34 3.4402615e-34 -9.504948e-34
-5.7558154e-34 4.2739648e-34 2.0486747e-34 -1.1723713e-33 2.426745e-34 3.0911502e-34 -8.334152e-34 6.0962487e-34
1.3295227e-34 -2.1735816e-34 -7.557505e-34 -4.6072803e-34 -5.631828e-36 9.585547e-34 -2.8903588e-34 -3.1575755e-34
3.2750705e-35 -8.140992e-34 -7.4859898e-34 -4.9194723e-34 -7.6910373e-34 -5.087584e-35 5.9687135e-34 -6.100046e-34
-6.774937e-34 8.609458e-34 -9.919145e-34 -3.9545145e-34 -4.778585e-34 -5.262904e-34 -5.804045e-34 -3.440251e-34
7.819234e-34 5.3911344e-34 8.002475e-34 -2.0215316e-34 -5.946413e-34 5.466529e-34 2.4146982e-34 1.8974507e-34
1.1729285e-33 -1.1705312e-33 -3.1401256e-34 6.529719e-34 4.6057793e-34 3.2009416e-34 -1.6538255e-34 9.244161e-34
-5.195351e-35 -1.1677972e-33 1.168263e-33 3.5258505e-34 -4.1205545e-34 -2.048065e-34 1.1587679e-33 -4.758842e-34
4.182182e-34 -6.1133714e-34 7.768809e-34 -2.3054222e-34 -1.0727921e-33 6.6407464e-34 -4.7365133e-36 -5.6189108e-34
1.0729234e-33 1.1727809e-33 2.270093e-34 -1.1723189e-33 2.6446029e-34 -2.364635e-34 8.680758e-35 -3.9959714e-34
6.8631105e-34 -5.262566e-34 9.678651e-34 4.650401e-34 -3.683533e-34 1.5614869e-34 9.540741e-36 -9.729929e-34
4.0240524e-34 1.1719304e-33 -3.8057222e-34 1.0722749e-33 -5.653488e-34 1.7701878e-34 -5.2201305e-35 -5.1842616e-34
-3.2298484e-34 -9.662174e-35 2.0927278e-34 1.7472059e-34 -2.697585e-35 -6.144599e-35 1.2649791e-34 3.918354e-34
-1.0410927e-33 -1.1382636e-34 -4.9775564e-34 -5.4689393e-34 -1.1697754e-33 6.370594e-35 -1.8784182e-34 -6.8092476e-34
1.1685711e-33 -7.684361e-35 -1.074638e-33 8.755635e-34 -3.9458085e-34 6.5201288e-34 -4.6211135e-34 -1.3314721e-34
-1.7606644e-34 1.1715143e-33 -4.2422532e-36 -7.259709e-34 -2.748602e-34 -4.5301376e-34 9.500884e-34 -5.057217e-34
5.7867677e-34 9.022395e-34 3.8591085e-34 -1.3423628e-34 2.1443208e-35 5.401353e-34 -9.740316e-35 4.6570175e-34
1.0216513e-33 -1.04006675e-33 -5.265939e-34 -8.68313e-34 -1.1700966e-33 -4.0487694e-34 -4.7174374e-34 -4.243472e-34
1.1737875e-33 -3.879213e-34 9.53818e-34 5.0879034e-35 8.866885e-34 -1.4324262e-34 -2.7305225e-34 1.0715458e-33
-7.178428e-34 -7.4862455e-34 1.1639231e-33 -5.913395e-34 2.0645733e-34 3.1418074e-35 6.5087494e-34 1.9006729e-35
-2.1520365e-34 3.2906288e-35 -9.002866e-34 -4.6142263e-34 -8.305599e-35 -5.208504e-34 1.4406664e-34 -3.0663032e-34
2.8893146e-34 6.5190276e-34 4.2158164e-34 -1.1600539e-33 1.1577526e-33 1.3657068e-34 4.7457793e-34 -1.1154136e-33
1.1564176e-33 -4.5065354e-34 -7.860507e-34 4.92548e-34 6.0717713e-34 -2.076184e-34 -2.0128715e-34 4.2697895e-34
-3.618683e-34 -7.196937e-34 3.8504397e-34 -1.4120114e-34 -5.060877e-35 4.4439913e-34 -1.05601e-33 -4.733151e-34
-2.638136e-36 -4.2743192e-34 9.3577415e-35 9.721359e-35 6.3024763e-34 1.1724874e-33 -4.157284e-34 -2.100772e-34
6.828586e-34 -2.334631e-34 6.941747e-34 2.6055906e-35 -4.824443e-34 4.1392765e-34 7.660806e-34 2.060925e-34
-3.3001965e-34 7.957307e-34 -2.0817954e-34 -6.249767e-34 4.38661e-34 -4.3218005e-34 -2.3850374e-34 3.09831e-34
4.991618e-34 -1.1737361e-33 -1.169154e-33 -1.0996137e-33 -6.0127753e-34 7.092148e-34 -4.1531474e-34 8.045033e-34
1.1753317e-33 -4.7295088e-34 -1.6328259e-34 -3.4109751e-34 2.5439796e-34 -5.467689e-34 2.7831436e-34 -7.412446e-35
2.5657279e-34 -1.1694757e-33 3.2319044e-34 -2.4722634e-34 6.791056e-34 -1.3792182e-34 6.275685e-34 1.6543133e-34

layers.0.attn.0.gnn_q.bias f4 [16]
00000000: 0b7e a607 d479 4f88 fbc1 d407 3fec 0c88
00000010: 7a3d a407 c6d2 8988 555c 8408 22e2 8c88
00000020: e9bd 7388 9372 8f87 49c9 7388 e6ca c188
00000030: a0c4 eb87 f0c3 6488 711b b207 0adc 2d08
2.5050985e-34 -6.2435005e-34 3.2012226e-34 -4.2407423e-34 2.471211e-34 -8.29494e-34 7.966168e-34 -8.479107e-34
-7.334839e-34 -2.158359e-34 -7.336176e-34 -1.1663466e-33 -3.5474436e-34 -6.8841578e-34 2.6798592e-34 5.231895e-34
