checkpoints/cyp2c19_veith_25_train1_neg/Aug23-09:15:59_100.pth (torch, 456127 bytes, 294 tensors)

layers.0.weight f4 [22, 16]
0.80117583 0.52973795 0.08133218 0.79869986 0.022490222 -0.064083606 -0.6763838 0.34835893
0.7481976 -0.95855135 0.58032095 -0.16703169 0.39246216 0.27504334 0.3381822 0.22073561
0.016658716 -0.034618847 -0.020785691 0.58538365 -1.0517626 -0.18784325 -0.2092251 0.24298367
-1.2216878 -0.08862259 -0.49783954 -0.3709655 0.08674217 -0.5300357 1.0093745 -0.31959078
0.5192631 -0.12054343 0.07474836 0.48342475 0.4036563 0.28319815 0.48099762 -0.06300935
-0.16422576 0.07134615 0.40553176 0.6455307 0.051458836 -0.17226335 0.63299865 0.50164133
0.46561792 -0.5296512 -2.2510343 -0.66999716 -0.28809327 1.0755808 0.34080902 0.51718926
0.39644033 -0.534028 0.5728681 -0.6728694 -0.0069487044 -0.8878809 0.16066414 -0.10258479
-0.15356515 -0.65664 0.5423695 -0.5954672 -0.3620578 -0.70534545 0.49541017 0.60839933
0.4530803 -0.34995416 -0.28751835 -0.23402525 -1.0804211 -0.46141133 0.32170793 0.6573281
-0.12279071 -0.6865987 0.75139105 -0.18132965 -0.06790518 0.19030555 0.43450582 -0.24401908
-0.13271865 -0.33774838 0.25182837 -1.3062499 0.4296532 0.2802408 -0.84456444 -0.18220687
0.21429273 0.2583526 0.012663983 -0.7099862 -0.25294107 0.1647075 -0.4644334 -0.607415
-0.0684106 -0.5193372 -0.63757104 -0.25348935 -0.5908417 0.24983658 0.7780002 0.08835279
0.122766726 -0.50017464 -0.03728825 -0.17780529 0.1275294 -0.49053812 -0.5239536 -0.37950072
0.08675805 -0.8335145 -0.3784996 -0.08684943 -0.8088343 -0.13802627 -0.4378138 -0.59147596
0.50634724 0.16198653 0.06609823 0.3551998 -0.8146021 0.17933363 -0.3355898 0.19870217
-0.9026642 -0.36813253 -0.34055936 0.2414335 0.35628948 -0.36126333 0.35919857 -0.45929545
-0.07463867 0.63340133 0.04855968 0.6049832 0.94445825 -0.35718244 -0.017913766 -0.15920216
0.45085114 -0.5578195 0.43569183 -0.8204157 0.035001345 -0.21225798 0.6015196 -0.34874874
0.38142347 0.530495 0.03228836 -0.92478114 0.3436087 -0.37526906 -0.9908242 0.13136476
0.3373712 -0.20245269 -0.025685528 0.197102 0.7813811 -0.59293604 -0.31555077 -0.24550533
-0.6298626 0.55009437 0.05458298 -0.27114928 0.15455195 0.37855136 0.34265503 -0.24662521
0.573593 0.5895831 0.3076228 0.0351411 -1.0182432 -0.02626216 -0.10392832 -0.33501783
0.28264374 0.6988946 0.0389264 -0.5135506 -0.10836334 -0.100059725 0.15946159 0.08726115
-1.041054 -0.75984937 0.5192015 0.60778695 -0.29448974 -0.3323081 -0.7313847 -0.73147696
0.21952118 -0.16575414 0.05334795 0.73557395 -0.86953694 -0.12253335 -0.37598696 0.4563299
0.28302997 -0.05979554 0.93372196 -0.068057895 -0.49072286 0.5933802 -0.4119206 -0.07927636
-0.685089 0.50348604 0.039965518 0.1726997 -0.745248 -0.26097572 -0.48367378 0.60699254
0.5943165 1.1447845 0.41102156 -0.16095737 0.11752489 -0.5747772 -0.532333 -0.43171713
-0.06029228 -0.6011673 0.004511563 0.004274256 -0.044938363 -0.32261956 -0.60100883 0.08686181
-0.0009742893 0.38770065 -0.64818734 -0.36007118 0.22962908 -0.3541527 0.24052921 -0.69965
00000000: dc19 4d3f e89c 073f 7c91 a63d 9877 4c3f
00000010: 6a3d b83c 443e 83bd 7d27 2dbf 1a5c b23e
00000020: e189 3f3f 9f63 75bf ea8f 143f 5b0a 2bbe
00000030: cdf0 c83e 7bd2 8c3e 3826 ad3e 8408 623e
00000040: dc77 883c 7ecc 0dbd c146 aabc b4db 153f
00000050: 28a0 86bf fb59 40be 1b3f 56be b6d0 783e
00000060: 4460 9cbf c37f b5bd d3e4 febe 31ef bdbe
00000070: e1a5 b13d 6bb0 07bf 2f33 813f 67a1 a3be
00000080: 6dee 043f 79df f6bd ab15 993d 7383 f73e
00000090: 0aac ce3e 59ff 903e 5245 f63e 0c0b 81bd
000000a0: cc2a 28be ee1d 923d dca1 cf3e 8041 253f
000000b0: 80c6 523d ce65 30be 330c 223f 916b 003f
000000c0: 7965 ee3e 3997 07bf f210 10c0 ef84 2bbf
000000d0: f680 93be a2ac 893f 857e ae3e 8466 043f
000000e0: 3afa ca3e 0fb6 08bf 7ca7 123f 2b41 2cbf
000000f0: f5b1 e3bb 2a4c 63bf 2485 243e f917 d2bd
00000100: 2f40 1dbe 8f19 28bf bad8 0a3f 8a70 18bf
00000110: a45f b9be 8591 34bf 67a6 fd3e 0fc0 1b3f
00000120: 24fa e73e 312d b3be 9b35 93be 51a4 6fbe
00000130: 3d4b 8abf 1b3e ecbe e7b6 a43e a846 283f
00000140: b279 fbbd efc4 2fbf 2a5b 403f 7bae 39be
00000150: df11 8bbd 75df 423e 8c77 de3e 23e0 79be
00000160: 66e7 07be 5bed acbe a6ef 803e 3233 a7bf
00000170: 81fb db3e b97b 8f3e 6035 58bf 7094 3abe
00000180: 8e6f 5b3e cb46 843e 987c 4f3c a8c1 35bf
00000190: 7e81 81be 15a9 283e 37ca edbe 8d7f 1bbf
000001a0: db1a 8cbd 48f3 04bf db37 23bf 5bc9 81be
000001b0: 6741 17bf 29d5 7f3e 052b 473f 4ff2 b43d
000001c0: 1f6d fb3d 720b 00bf 90bb 18bd 9712 36be
000001d0: 1197 023e d027 fbbe d321 06bf eb4d c2be
000001e0: 34ae b13d 3561 55bf b3ca c1be 1dde b1bd
000001f0: c40f 4fbf c256 0dbe 2129 e0be f86a 17bf
00000200: f99f 013f ccdf 253e 825e 873d c0dc b53e
00000210: c389 50bf 3ca3 373e 6dd2 abbe 9578 4b3e
00000220: 0015 67bf de7b bcbe cc5d aebe 583a 773e
00000230: 936b b63e 82f7 b8be e0e8 b73e c628 ebbe
00000240: 29dc 98bd 9726 223f 84e6 463d 2ee0 1a3f
00000250: 04c8 713f 9ee0 b6be e4bf 92bc e405 23be
00000260: f6d5 e63e 42cd 0ebf 0013 df3e c306 52bf
00000270: 925d 0f3d 285a 59be 30fd 193f 328f b2be
00000280: f049 c33e 85ce 073f cd40 043d 75be 6cbf
00000290: 7bed af3e 4423 c0be a8a6 7dbf 7c84 063e
000002a0: ebbb ac3e c24f 4fbe 756a d2bc 1bd5 493e
000002b0: 9708 483f a8ca 17bf df8f a1be c065 7bbe
000002c0: ad3e 21bf fcd2 0c3f 6792 5f3d 14d4 8abe
000002d0: de42 1e3e 7cd1 c13e 7b70 af3e 528b 7cbe
000002e0: fed6 123f ebee 163f bc80 9d3e 1df0 0f3d
000002f0: cb55 82bf be23 d7bc 5fd8 d4bd 7587 abbe
00000300: aeb6 903e c2ea 323f 4a71 1f3d 0d78 03bf
00000310: 99ed ddbd 1dec ccbd e649 233e f9b5 b23d
00000320: 4241 85bf 7d85 42bf 64ea 043f ed97 1b3f
00000330: 5cc7 96be 4a24 aabe 073c 3bbf 1342 3bbf
00000340: 29ca 603e 74bb 29be 6183 5a3d 934e 3c3f
00000350: f999 5ebf c4f2 fabd 5d81 c0be 13a4 e93e
00000360: 4ee9 903e 2bec 74bd 6708 6f3f f061 8bbd
00000370: 0740 fbbe c4e7 173f 42e7 d2be a55b a2bd
00000380: fe61 2fbf 76e4 003f e2b2 233d 31d8 303e
00000390: 93c8 3ebf 9c9e 85be 17a4 f7be dd63 1b3f
000003a0: 2025 183f 4c88 923f 6b71 d23e 02d2 24be
000003b0: e4b0 f03d 9924 13bf fa46 08bf 070a ddbe
000003c0: 0af5 76bd 1ae6 19bf bcd5 933b 0f0f 8c3b
000003d0: 4a11 38bd 642e a5be b7db 19bf 9be4 b13d
000003e0: 7367 7fba b380 c63e 9bef 25bf 405b b8be
000003f0: e323 6b3e 8153 b5be 4a4d 763e 431c 33bf

layers.0.bias f4 [16]
-0.4980222 0.05292586 -0.3198516 0.048681285 -0.42314187 -0.43570793 0.12740082 -0.48792678
0.3123775 -0.08798702 0.15561862 0.52403915 0.47349337 0.35500658 0.39352617 -0.28869754
00000000: c4fc febe c9c8 583d 97c3 a3be 0766 473d
00000010: 0da6 d8be 1c15 dfbe 5c75 023e 8ad1 f9be
00000020: f2ef 9f3e 8a32 b4bd 7d5a 1f3e 6e27 063f
00000030: b96d f23e 6cc3 b53e 437c c93e 2ad0 93be

layers.1.weight f4 [16, 16]
0.35255912 -0.40949407 -0.27114156 0.033228397 0.38899484 -0.17783703 -0.3211841 0.5683908
-0.76001793 -0.6740734 -0.5331409 0.2854882 0.13160108 0.015854642 -0.29498345 -0.82732815
-0.42768535 0.617469 0.30726728 -0.3051268 -0.26814547 0.1273345 -0.7103291 -0.26180986
0.16662 0.39389136 0.5889081 -0.5174832 -0.44444695 -0.9849447 0.9134866 0.5241814
0.13675384 -0.18879697 -0.5415691 -0.30317405 0.5802088 0.13479224 -0.17821619 0.11377854
0.36620978 0.38041455 0.3216266 -1.1097913 -0.87866247 -0.028043706 -0.6416829 -0.14260657
-0.5572722 0.59737474 -0.16693279 -0.5078688 0.30516288 -0.60780215 -0.64893985 -0.31043842
0.0050116195 0.25300974 -0.419949 -0.6917489 -0.14279783 0.106549926 1.1035186 -0.34358215
-0.27741477 0.24221608 0.059724733 -0.44038382 -0.5116669 -0.26435122 -0.5293044 0.3338287
0.5919736 0.04921351 -0.27555093 -0.5352366 -0.2014636 0.4230654 0.5312528 -0.04382727
-0.36706623 -1.0161147 -0.7624663 -0.29447532 -0.5776525 0.088816874 -0.240576 0.114977956
-0.69216573 0.84743667 -0.22684678 0.7461593 0.84658563 -0.4169741 -1.2141166 0.5899619
0.6040375 -0.49446857 -0.10075715 -0.95958763 -0.6560926 -0.18172126 0.44514185 0.26437062
-0.50935507 0.9747352 0.32951835 0.32770926 0.40256253 0.47121027 -0.45788038 -0.48783937
0.85896504 -0.34117272 0.071552075 -0.37939656 0.61287373 0.23455091 0.4421213 -0.2783067
0.52842474 -0.030599 -0.6328118 0.56382376 -0.26291493 -0.37601992 -0.91781646 0.39736828
0.36852828 -0.33207664 -0.69671714 0.24014226 -0.1958009 -0.7118557 0.4867529 -0.18068983
0.59988284 0.59073585 0.0190478 0.628532 0.2599167 -0.10258093 -0.5592088 -0.17297387
0.662732 0.6947748 -0.06556441 -0.420567 -0.5368096 -0.07516663 -0.48880982 0.37115005
0.8930429 0.4716516 -0.35996622 -0.51710856 -0.29038495 0.13121329 0.670267 -0.57140803
0.40077266 -0.93385226 -0.19749859 -0.9841209 0.73090327 -0.7799627 0.19932465 0.08860071
0.010266352 0.572904 0.3425868 0.5735978 0.55932736 -0.5167709 -0.524095 0.28198552
0.18273047 0.83934647 -0.11341034 -0.34628823 -0.042750627 1.0124365 -0.030312799 0.2089053
-0.85251045 0.79208726 -0.56396276 -0.2527905 -0.8839041 -0.21549498 1.1332195 0.21764201
0.4071979 -0.2931021 0.16602401 0.28085312 0.5694527 -0.055270005 -0.23294137 0.5733506
-0.049331512 0.25385156 -0.55926925 -0.4588775 0.64165485 -0.3580834 0.40811962 0.21688928
0.4704743 0.8748678 -0.047107086 -0.45034605 -0.5613872 -0.6723022 -0.49942997 -0.47349086
-0.5429181 -0.41244227 -0.8145374 -0.8496091 -0.3939733 0.09879121 1.3452476 -0.0033825298
-0.34150597 0.037457332 -0.5105612 -0.22555692 0.5943184 -0.60187936 0.24994831 0.47011483
-0.042480018 0.15244235 -0.19019036 0.3024178 -0.23284988 0.20561214 -0.03839792 0.476865
-0.7292588 0.40252042 -0.0054746056 -0.5140072 -0.4341284 -1.0151901 0.48924902 -0.37303388
-0.69712275 0.6062786 -0.7796473 0.094657846 -0.5388786 -0.48011968 -0.33329347 -0.3006497
00000000: a182 b43e 35a9 d1be 11d3 8abe 801a 083d
00000010: 552a c73e e91a 36be 3e72 a4be 0f82 113f
00000020: 8990 42bf 1390 2cbf ec7b 08bf 822b 923e
00000030: 6fc2 063e 98e1 813c 1208 97be c7cb 53bf
00000040: 93f9 dabe 7312 1e3f 2352 9d3e 9439 9cbe
00000050: 5d4a 89be fa63 023e 21d8 35bf f10b 86be
00000060: 6f9e 2a3e 21ac c93e aec2 163f c779 04bf
00000070: 8d8e e3be 5625 7cbf 42da 693f c130 063f
00000080: 3309 0c3e fe53 41be 46a4 0abf a139 9bbe
00000090: 9088 143f fa06 0a3e 4e7e 36be b904 e93d
000000a0: d97f bb3e b2c5 c23e 3eac a43e a40d 8ebf
000000b0: 06f0 60bf eabb e5bc 5545 24bf 7507 12be
000000c0: 64a9 0ebf 8ded 183f 6ef0 2abe b103 02bf
000000d0: 4f3e 9c3e ec98 1bbf ec20 26bf c9f1 9ebe
000000e0: 8338 a43b 7e8a 813e 8e03 d7be 7516 31bf
000000f0: 9839 12be d936 da3d 1940 8d3f 00ea afbe
00000100: 4f09 8ebe 7e07 783e eca1 743d fd79 e1be
00000110: 9afc 02bf 0b59 87be 7e80 07bf 98eb aa3e
00000120: 958b 173f 1b94 493d 0315 8dbe 4405 09bf
00000130: 794c 4ebe 079c d83e 2f00 083f 3984 33bd
00000140: 1bf0 bbbe 0c10 82bf fe30 43bf 78c5 96be
00000150: 09e1 13bf 9fe5 b53d 8e59 76be 9079 eb3d
00000160: c631 31bf 9cf1 583f 864a 68be 4c04 3f3f
00000170: d6b9 583f a17d d5be 2c68 9bbf be07 173f
00000180: 34a2 1a3f fc2a fdbe c459 cebd 89a7 75bf
00000190: aff5 27bf 2315 3abe a2e9 e33e 965b 873e
000001a0: 1865 02bf 3f88 793f a1b6 a83e 82c9 a73e
000001b0: ad1c ce3e 7942 f13e 4c6f eabe 15c6 f9be
000001c0: 22e5 5b3f 31ae aebe e589 923d 4440 c2be
000001d0: 4be5 1c3f 1d2e 703e b95d e23e 377e 8ebe
000001e0: d846 073f c1aa fabc f4ff 21bf c156 103f
000001f0: c99c 86be af85 c0be 05f6 6abf db73 cb3e
00000200: bdaf bc3e f305 aabe 0e5c 32bf dae7 753e
00000210: 0880 48be 2d3c 36bf ad37 f93e c106 39be
00000220: ec91 193f 773a 173f 220a 9c3c 79e7 203f
00000230: cd13 853e f315 d2bd 4f28 0fbf 1020 31be
00000240: cea8 293f c3dc 313f a246 86bd 8f54 d7be
00000250: 5b6c 09bf f6f0 99bd 4845 fabe 6107 be3e
00000260: 769e 643f 527c f13e 7e4d b8be 3a61 04bf
00000270: 56ad 94be c75c 063e 9e96 2b3f cc47 12bf
00000280: 1332 cd3e f110 6fbf 123d 4abe 59ef 7bbf
00000290: 7a1c 3b3f a3ab 47bf c31b 4c3e 4a74 b53d
000002a0: 3434 283c d6a9 123f 8967 af3e 4ed7 123f
000002b0: 1430 0f3f 194b 04bf 172b 06bf 6860 903e
000002c0: b21d 3b3e 69df 563f ae43 e8bd b14c b1be
000002d0: 481b 2fbd 8597 813f 8c52 f8bc 45eb 553e
000002e0: 203e 5abf 3bc6 4a3f dd5f 10bf c26d 81be
000002f0: 8a47 62bf b7aa 5cbe 560d 913f 8cdd 5e3e
00000300: 3e7c d03e 7a11 96be 3302 2a3e fbcb 8f3e
00000310: a7c7 113f cd62 62bd 2f88 6ebe 1bc7 123f
00000320: d70f 4abd d5f8 813e 452c 0fbf fef1 eabe
00000330: 7e43 243f b556 b7be 0ef5 d03e 3918 5e3e
00000340: 02e2 f03e 56f7 5f3f 5cf3 40bd c293 e6be
00000350: 12b7 0fbf ff1b 2cbf 49b5 ffbe 656d f2be
00000360: aefc 0abf a22b d3be 8685 50bf fb7f 59bf
00000370: deb6 c9be 0c53 ca3d 1331 ac3f 6fad 5dbb
00000380: dfd9 aebe dc6c 193d 24b4 02bf 65f8 66be
00000390: 4025 183f c414 1abf 73f2 7f3e e4b2 f03e
000003a0: 87ff 2dbd d919 1c3e 43c1 42be 82d6 9a3e
000003b0: 3370 6ebe fd8b 523e 2347 1dbd a627 f43e
000003c0: b4b0 3abf 2817 ce3e 5264 b3bb fa95 03bf
000003d0: 1446 debe c0f1 81bf d97e fa3e 4cfe bebe
000003e0: a376 32bf 1335 1b3f f796 47bf f9db c13d
000003f0: f3f3 09bf 3fd2 f5be 71a5 aabe c2ee 99be

layers.1.bias f4 [16]
-0.122873776 0.28405255 -0.011934061 0.0229224 -0.060685825 -0.08858437 0.114573896 -0.06697595
0.077233166 -0.13384666 -0.010471144 -0.31244016 0.031513557 0.045064628 0.17668292 -0.19092306
00000000: 3fa5 fbbd 566f 913e 1487 43bc c2c7 bb3c
00000010: b391 78bd b96b b5bd b8a5 ea3d b02a 89bd
00000020: 6c2c 9e3d 190f 09be 298f 2bbc 28f8 9fbe
00000030: 5c14 013d b095 383d 5eec 343e 5681 43be

final.linears.0.weight f4 [108, 54]
0.46022746 0.25657806 0.11254891 -0.13531424 -0.14642808 1.6168196 0.16732371 -0.11102627
0.14963037 -0.39928132 -0.10363879 0.29552776 -0.264932 0.10150659 -0.4768356 -0.26484397
0.11693781 -0.2919634 0.17701125 0.5226722 -0.37802383 0.17346516 -0.18170178 -0.03378206
0.14060317 0.058334883 0.002607629 -0.013039881 -0.116313174 -0.13174331 -0.060235113 -0.20347862
0.14347331 -0.04259329 0.138723 -0.15654786 -0.26152426 -0.20040289 0.04640075 -0.11743119
-0.02102745 -0.07321095 0.031595707 -0.052158788 0.011273343 -0.017673582 0.077752985 0.028003851
0.024470884 -0.1699326 -0.024682155 0.106908895 -0.15586722 -0.1197904 0.19998889 0.33506936
0.66100454 -0.16876034 -0.11519186 -0.36396086 -0.47536463 -0.49415886 -0.3780039 0.051216904
0.62333083 1.1522738 -0.4799467 0.4479626 0.14362174 -0.3070376 -0.64662963 0.25858882
0.8511961 0.55411434 -0.6543287 0.5517096 0.13979958 0.3160691 0.010581923 0.01442649
-0.1236115 -0.08220067 0.02134524 0.21310905 -0.05799335 0.3072863 0.17763485 0.119095795
0.076364465 0.13172823 -0.24620418 0.18191203 0.1380177 -0.090603665 -0.043829393 0.046175197
0.0668881 -0.035890676 0.042818896 0.008931801 -0.04114695 0.07890582 0.10742156 0.074978136
0.004746616 -0.12327297 0.103341155 -0.10646969 0.4090846 -0.70260847 0.21201143 -0.036955014
-0.045788452 0.09040183 1.0506465 0.7675566 -0.29693222 0.13357253 0.27175328 -0.8320899
-0.47209787 -0.32340747 0.9204296 -0.28784028 -0.85975224 -0.03921787 0.10293545 0.7090118
-0.67299336 -0.60717326 0.052248243 0.13934256 0.07513948 0.033287834 -0.013020688 0.067275085
-0.032174505 -0.07014713 0.08694937 -0.08242438 -0.101819955 0.03534772 0.017974695 0.01647475
-0.0788406 0.08974646 0.084837995 -0.007829897 -0.013046433 0.06352279 -0.0889355 0.052569892
-0.008665965 -0.042182777 -0.035424426 -0.056438573 -0.08954482 0.047819503 -0.043902837 -0.06519396
0.015244794 0.12424295 0.5962058 0.38937676 -0.13975589 -0.09154957 -0.03965784 -0.12211517
-0.120932885 0.42906198 0.37577525 -0.37041783 0.19826823 -0.23192365 0.51354563 0.5825747
-0.18930829 -0.31915918 0.5486147 -0.24186037 -0.4798904 0.036454983 -0.27193525 0.78252274
-0.05776959 -0.09095296 0.09999552 -0.15698826 -0.0060535 0.029418087 -0.13728057 -0.08915768
-0.018874895 0.08249056 -0.15228592 -0.05353731 -0.04838299 -0.018783582 -0.020396344 0.004303652
-0.059563946 -0.022823032 -0.12757654 0.030942593 -0.049873855 -0.045397982 -0.051586103 -0.071377575
0.08863709 0.10764899 0.08731797 0.022695286 0.12159957 0.01780686 0.034512717 -0.036955897
-0.47168618 -0.17057419 0.20637982 -0.44935447 0.58813107 -0.51487464 -0.016992189 0.11551993
-0.31420207 -0.50335085 -0.24659695 0.3251823 -0.32055762 -0.1727975 -0.028620772 0.03223791
0.17262654 -0.34899184 -0.0959149 -0.3139767 -0.21029292 -0.2865033 0.18145314 0.20944704
0.078273825 0.22980934 0.08995032 -0.045048475 -0.049836032 -0.19454321 -0.3771466 -0.040427905
0.1746164 -0.3216058 0.43813905 0.3453088 -0.25538817 -0.14812823 -0.03342172 -0.16694096
00000000: efa2 eb3e 335e 833e 0b80 e63d d18f 0abe
00000010: 3ef1 15be f2f3 ce3f e856 2b3e be61 e3bd
00000020: b438 193e 9a6e ccbe 9340 d4bd 6a4f 973e
00000030: 2ba5 87be b0e2 cf3d cc23 f4be a199 87be
00000040: 177d ef3d 3a7c 95be 7042 353e d8cd 053f
00000050: 578c c1be daa0 313e 0810 3abe 0f5f 0abd
00000060: 47fa 0f3e 8ff0 6e3d c1e4 2a3b 3aa5 55bc
00000070: 9a35 eebd b8e7 06be 18b9 76bd b35c 50be
00000080: abea 123e 4d76 2ebd 670d 0e3e 154e 20be
00000090: 82e6 85be 6a36 4dbe b60e 3e3d c47f f0bd
000000a0: c241 acbc 9fef 95bd 806a 013d 74a4 55bd
000000b0: d4b3 383c 30c8 90bc f53c 9f3d 5568 e53c
000000c0: 2a77 c83c d002 2ebe 3b32 cabc 0df3 da3d
000000d0: a89b 1fbe ab54 f5bd e3c9 4c3e 368e ab3e
000000e0: 9837 293f 83cf 2cbe b6e9 ebbd 1459 babe
000000f0: fe62 f3be 6402 fdbe ba89 c1be d1c8 513d
00000100: 9c92 1f3f b57d 933f 93bb f5be 5b5b e53e
00000110: 9411 133e 0834 9dbe 8589 25bf c165 843e
00000120: fde7 593f 70da 0d3f 1682 27bf d73c 0d3f
00000130: 9f27 0f3e cfd3 a13e cd5f 2d3c 165d 6c3c
00000140: 0728 fdbd d358 a8bd 36dc ae3c 4239 5a3e
00000150: 6f8a 6dbd a154 9d3e e9e5 353e 7fe8 f33d
00000160: f964 9c3d c4e3 063e f31c 7cbe 2647 3a3e
00000170: 8354 0d3e 6a8e b9bd 7386 33bd 3422 3d3d
00000180: a1fc 883d 1a02 13bd de62 2f3d b056 123c
00000190: b489 28bd 6099 a13d d6ff db3d 238e 993d
000001a0: 8089 9b3b 8a76 fcbd 87a4 d33d c80c dabd
000001b0: 8973 d13e 26de 33bf 8619 593e 245e 17bd
000001c0: ac8c 3bbd 9824 b93d 967b 863f 977e 443f
000001d0: 8007 98be 3dc7 083e 3f23 8b3e d803 55bf
000001e0: d0b6 f1be aa95 a5be 46a1 6b3f cd5f 93be
000001f0: b918 5cbf eba2 20bd d2cf d23d cc81 353f
00000200: 4b49 2cbf b56f 1bbf 4102 563d d1af 0e3e
00000210: bae2 993d d358 083d b954 55bc 85c7 893d
00000220: 6ac9 03bd 4ca9 8fbd 8312 b23d 1dce a8bd
00000230: fb86 d0bd c5c8 103d ab3f 933c 0ef6 863c
00000240: 2e77 a1bd fecc b73d 8bbf ad3d f848 00bc
00000250: b5c0 55bc 3d18 823d d123 b6bd 8753 573d
00000260: b1fb 0dbc d9c7 2cbd 3419 11bd 222c 67bd
00000270: 4663 b7bd 62de 433d 76d3 33bd 6984 85bd
00000280: 4dc5 793c 1673 fe3d f1a0 183f 645c c73e
00000290: 2b1c 0fbe 577e bbbd 4270 22bd 8517 fabd
000002a0: a9ab f7bd 03ae db3e 9d65 c03e 68a7 bdbe
000002b0: d406 4b3e 657d 6dbe ba77 033f 9e23 153f
000002c0: 08da 41be d568 a3be 0372 0c3f 3faa 77be
000002d0: 32b4 f5be d251 153d 193b 8bbe 6953 483f
000002e0: ce9f 6cbd 8c45 babd 74ca cc3d 88c1 20be
000002f0: 705c c6bb 33fe f03c 4793 0cbe 4d98 b6bd
00000300: 869f 9abc d0f0 a83d d7f0 1bbe f049 5bbd
00000310: 3e2d 46bd 07e0 99bc 3c16 a7bc a605 8d3b
00000320: 53f9 73bd 5ef7 babc 6da3 02be 527b fd3c
00000330: 8748 4cbd 3cf3 39bd f34b 53bd 682e 92bd
00000340: 5d87 b53d 1377 dc3d c4d3 b23d 77eb b93c
00000350: 3209 f93d b1df 913c 355d 0d3d 115f 17bd
00000360: da80 f1be 00ab 2ebe 3b55 533e ca11 e6be
00000370: c28f 163f d3ce 03bf 3433 8bbc b795 ec3d
00000380: 18df a0be 9adb 00bf e983 7cbe 4b7e a63e
00000390: 2120 a4be d4f1 30be 1c76 eabc e60b 043d
000003a0: 03c5 303e 0faf b2be 086f c4bd 8ec1 a0be
000003b0: 0757 57be 8fb0 92be dace 393e 4979 563e
000003c0: 074e a03d 2453 6b3e e037 b83d c084 38bd
000003d0: de20 4cbd 5636 47be 5c19 c1be bb97 25bd
000003e0: a4ce 323e 84a9 a4be c353 e03e 51cc b03e
000003f0: 3dc2 82be edae 17be 37e5 08bd 92f2 2abe

final.linears.0.bias f4 [108]
0.07613659 0.06607012 0.040632147 0.15082088 0.020875368 0.18380769 0.12845473 0.048231434
0.13728 0.04788106 0.046184022 0.047186095 0.2161505 0.018094638 0.09195454 0.011502957
0.08406817 0.08569222 0.1637031 0.0119948285 0.042799138 0.119375035 0.07188425 0.094305664
0.020926615 0.22231667 0.06274615 0.15710822 0.030517992 0.09174907 0.26407918 0.021660725
0.14368011 0.14780991 0.10339068 0.1286758 -0.0496326 0.13979746 0.10316662 -0.01782738
0.058321707 0.16991374 0.12529518 0.051902432 0.023547875 0.09732354 0.02475694 -0.008950116
0.084305376 0.10766034 0.098734155 0.105871335 0.023564592 0.124418385 0.20029892 0.20393358
0.12421678 0.08886887 0.054583006 0.09419068 0.0010208145 0.054349303 -0.158612 0.066577
-0.060142867 0.21798041 -0.004916752 0.19714117 0.023897242 0.13305761 0.120281994 0.115454376
0.03181635 0.018792968 0.12311176 0.08109911 0.22259097 0.19339445 0.09242927 0.058732256
-0.075760275 0.028595595 -0.04563894 0.06349562 -0.0071006767 0.057533495 0.18205044 0.06382446
0.13936394 0.06854932 0.09170721 0.11576327 0.13591382 0.14701499 -0.006214392 -0.06283342
0.075402655 0.12576872 0.21482092 0.19374965 0.06122452 0.1380936 0.043593384 0.01477431
0.11770095 0.10851421 0.018702464 0.1544097
00000000: 80ed 9b3d c54f 873d e56d 263d ca70 1a3e
00000010: d202 ab3c 1538 3c3e a389 033e 538e 453d
00000020: 2193 0c3e ee1e 443d 752b 3d3d 3546 413d
00000030: 8f56 5d3e 353b 943c a952 bc3d e676 3c3c
00000040: ef2b ac3d 677f af3d c9a1 273e f585 443c
00000050: 264e 2f3d e67a f43d 0d38 933d 5423 c13d
00000060: 4b6e ab3c fba6 633e 0e81 803d fae0 203e
00000070: de00 fa3c f0e6 bb3d 6335 873e d571 b13c
00000080: e120 133e 7b5b 173e 7ebe d33d 97c3 033e
00000090: 8e4b 4bbd 1127 0f3e 0549 d33d ba0a 92bc
000000a0: bee2 6e3d defd 2d3e 614d 003e a597 543d
000000b0: 79e7 c03c 9051 c73d 11cf ca3c 82a3 12bc
000000c0: 4ca8 ac3d 067d dc3d 2235 ca3d 12d3 d83d
000000d0: 880a c13c 11cf fe3d 291b 4d3e f7d3 503e
000000e0: 5e65 fe3d e200 b63d 6e92 5f3d 0be7 c03d
000000f0: dacc 853a 609d 5e3d 2f6b 22be 8659 883d
00000100: 5e58 76bd 4236 5f3e b51c a1bb 60df 493e
00000110: 26c4 c33c 4140 083e 6856 f63d 5873 ec3d
00000120: dc51 023d b6f3 993c 0522 fc3d 4a17 a63d
00000130: e3ee 633e 3209 463e 8f4b bd3d 3c91 703d
00000140: 3428 9bbd 4f41 ea3c e6ef 3abd fe09 823d
00000150: cbac e8bb 3ea8 6b3d 6e6b 3a3e 66b6 823d
00000160: 6cb5 0e3e 9663 8c3d fdd0 bb3d 4b15 ed3d
00000170: fe2c 0b3e 198b 163e 19a2 cbbb cfae 80bd
00000180: b56c 9a3d 84c9 003e 04fa 5b3e 4f66 463e
00000190: 90c6 7a3d 6968 0d3e fa8e 323d f30f 723c
000001a0: 320d f13d b33c de3d e935 993c 941d 1e3e

final.linears.1.weight f4 [108, 108]
-0.19911739 -0.08768143 -0.23334235 -0.09880906 -0.21843006 -0.16737017 -0.1760234 -0.17562798
-0.14451626 -0.065118454 -0.18337353 -0.13802883 -0.106132835 -0.066271335 -0.074568674 -0.32413685
-0.1487671 -0.21605605 0.020960458 -0.054653097 -0.25260377 -0.2594791 -0.33685023 -0.13436054
-0.14482504 -0.07293704 -0.087431364 -0.102636784 -0.20373634 -0.09864878 -0.16747266 -0.14643255
-0.13901158 -0.20007522 0.010634508 -0.136883 -0.075559966 -0.20553601 -0.17435025 -0.1981281
-0.29065767 -0.05745858 -0.15891719 -0.07193566 -0.04433455 -0.08109867 -0.14842114 -0.017809693
-0.24710284 -0.1403251 -0.14380537 -0.1830749 -0.341691 -0.20233262 -0.29387552 -0.11514573
-0.11899324 0.08452691 -0.36878338 -0.46682534 -0.21862468 -0.027664464 -0.13134247 -0.18005641
-0.18172543 -0.2509338 -0.012415771 -0.09855696 -0.21323623 -0.122331254 -0.026832264 -0.02253558
-0.3687657 -0.08746185 -0.061816487 -0.22872601 -0.053568713 -0.12144703 -0.16596334 -0.10497989
-0.12087853 -0.094308235 -0.2736478 -0.03241411 -0.18905883 -0.16285576 -0.24155127 -0.115223646
0.05264654 -0.119838074 -0.13643058 -0.13814846 -0.0746905 -0.29747483 -0.18614219 -0.2317319
-0.091241635 -0.18623447 -0.17503448 -0.08963594 -0.07708785 -0.25751424 -0.32758164 -0.07517627
-0.12113075 -0.1706207 -0.14880104 -0.22822976 0.024358291 0.10826599 -0.06875039 -0.15459059
-0.0487837 -0.014246172 -0.12206356 0.0416406 0.04938309 -0.02194123 0.059015732 -0.064472295
-0.22892538 0.033115063 0.015781121 0.005605275 -0.08424194 -0.07600859 -0.053873647 0.2134152
0.053441945 0.04971902 0.14996208 -0.21031055 -0.065037474 -0.045983512 -0.018505009 -0.017305022
0.017761713 -0.047505185 -0.13785721 -0.12706289 -0.024272626 -0.06039665 -0.07949834 0.01579045
-0.013124297 0.041112315 -0.0116214845 -0.015111827 0.005637929 -0.08890907 0.13578282 -0.054152187
-0.11947587 -0.06917863 0.12879312 -0.03124564 -0.026015423 -0.18964058 0.10613344 -0.09935088
-0.25950643 -0.06168568 0.19397019 -0.013530018 -0.007500847 0.073794775 -0.02011124 0.05944408
0.060188316 -0.35624555 -0.013460496 -0.06427789 -0.036885012 -0.10380115 -0.06892473 -0.03744893
-0.10475757 -0.09952047 -0.06784448 -0.08864903 0.18707353 0.034508478 0.022014521 0.023799095
-0.10951648 -0.095524386 0.260926 -0.042710204 0.09537764 -0.086482935 -0.15972164 -0.18174487
-0.15009162 0.005314798 -0.061985143 -0.020544734 0.14370875 -0.10888927 -0.16818717 0.035637744
-0.02334708 0.3576493 -0.049610004 -0.23115595 0.18011813 -0.0041653216 0.043745846 0.094482444
0.047676135 -0.22783673 0.11207167 0.0039480645 -0.053278923 -0.09041074 -0.046708696 0.111588195
0.033437286 -0.040826134 -0.0870343 -0.16309527 -0.23320538 -0.16875812 -0.3056353 0.12543221
-0.24420759 -0.048057742 0.2648276 -0.12754257 0.09850307 -0.095206514 0.035204336 0.13852593
0.031078828 -0.12529163 -0.019367127 -0.20510475 -0.17910232 0.0071040047 -0.1817802 -0.123499535
-0.009763645 -0.024350205 -0.016981302 -0.028800072 -0.12464684 -0.21477297 -0.029249238 -0.18932311
-0.058523476 -0.24964128 0.10097875 -0.03756577 -0.20529325 0.0141435 -0.03819157 -0.062432986
00000000: 6ee5 4bbe 5292 b3bd 4cf1 6ebe 685c cabd
00000010: 21ac 5fbe 1663 2bbe 7a3f 34be d2d7 33be
00000020: 12fc 13be d35c 85bd 45c6 3bbe 6e57 0dbe
00000030: 2c5c d9bd 44b9 87bd 76b7 98bd 44f5 a5be
00000040: 6756 18be cc3d 5dbe 44b5 ab3c eddb 5fbd
00000050: 4855 81be 72da 84be a277 acbe cf95 09be
00000060: 044d 14be 0460 95bd 370f b3bd 3c33 d2bd
00000070: 42a0 50be 5f08 cabd f47d 2bbe 6af2 15be
00000080: 0d59 0ebe 85e0 4cbe 5c3c 2e3c 0f2b 0cbe
00000090: 2fbf 9abd 0878 52be df88 32be 18e2 4abe
000000a0: 15d1 94be b059 6bbd 30bb 22be 0153 93bd
000000b0: 2598 35bd 0f17 a6bd b6fb 17be a2e5 91bc
000000c0: 8708 7dbe 62b1 0fbe b741 13be fd77 3bbe
000000d0: 1ff2 aebe 4830 4fbe da76 96be 86d1 ebbd
000000e0: bab2 f3bd 721c ad3d 2dd1 bcbe bb03 efbe
000000f0: 26df 5fbe 96a0 e2bc a47e 06be b560 38be
00000100: 3b16 3abe 657a 80be 856b 4bbc 3bd8 c9bd
00000110: 995a 5abe cf88 fabd 56cf dbbc 899c b8bc
00000120: dcce bcbe 331f b3bd 4933 7dbd 2737 6abe
00000130: de6a 5bbd 38b9 f8bd 4bf2 29be b2ff d6bd
00000140: 2a8f f7bd ad24 c1bd 901b 8cbe a8c4 04bd
00000150: a398 41be a9c3 26be 3759 77be 60fa ebbd
00000160: e6a3 573d aa6d f5bd 75b4 0bbe ca76 0dbe
00000170: 55f7 98bd 9f4e 98be 0f9c 3ebe 214b 6dbe
00000180: e5dc babd 40b4 3ebe 3d3c 33be 0c93 b7bd
00000190: 3ce0 9dbd e8d8 83be c8b8 a7be 04f6 99bd
000001a0: 6613 f8bd 31b7 2ebe 4d5f 18be 10b5 69be
000001b0: 0a8b c73c 8fba dd3d 01cd 8cbd ff4c 1ebe
000001c0: 6bd1 47bd c768 69bc 76fc f9bd 558f 2a3d
000001d0: ec45 4a3d 18be b3bc 7bba 713d 0d0a 84bd
000001e0: 6a6b 6abe a9a3 073d 6947 813c 74ac b73b
000001f0: 0a87 acbd 64aa 9bbd 9daa 5cbd 8489 5a3e
00000200: f1e5 5a3d 2ca6 4b3d a98f 193e a65b 57be
00000210: 5e32 85bd 3559 3cbd d197 97bc 43c3 8dbc
00000220: 0381 913c cc94 42bd 712a 0dbe c61c 02be
00000230: 63d7 c6bc 7a62 77bd 07d0 a2bd f95a 813c
00000240: 4b07 57bc 6365 283d 0a68 3ebc 9997 77bc
00000250: 60be b83b f515 b6bd a70a 0b3e afce 5dbd
00000260: c4af f4bd 87ad 8dbd 58e2 033e dbf6 ffbc
00000270: 4c1e d5bc 2431 42be 7d5c d93d 7978 cbbd
00000280: 07de 84be 20aa 7cbd 1fa0 463e 02ad 5dbc
00000290: aac9 f5bb b721 973d 54c0 a4bc a37b 733d
000002a0: 0688 763d d165 b6be 6a89 5cbc 20a4 83bd
000002b0: bd14 17bd b395 d4bd 6928 8dbd 0d64 19bd
000002c0: 238b d6bd 63d1 cbbd 0cf2 8abd 9f8d b5bd
000002d0: 3490 3f3e c358 0d3d cc57 b43c 52f6 c23c
000002e0: 2d4a e0bd 4aa2 c3bd 1898 853e e5f0 2ebd
000002f0: 5a55 c33d f71d b1bd 128e 23be 541b 3abe
00000300: 9eb1 19be c227 ae3b 22e4 7dbd 6e4d a8bc
00000310: 6328 133e 5601 dfbd 4239 2cbe e2f8 113d
00000320: 6042 bfbc cf1d b73e dc33 4bbd 25b4 6cbe
00000330: e370 383e 407d 88bb d82e 333d 0380 c13d
00000340: 0d48 433d 084e 69be d585 e53d c45e 813b
00000350: 003b 5abd 4429 b9bd 9e51 3fbd 5a88 e43d
00000360: 89f5 083d 4e39 27bd 0a3f b2bd 7202 27be
00000370: 64cd 6ebe eece 2cbe 3b7c 9cbe 4d71 003e
00000380: 8e11 7abe 32d8 44bd 7c97 873e 859a 02be
00000390: fabb c93d a2fb c2bd 6c32 103d bed9 0d3e
000003a0: 0799 fe3c 734c 00be cfa7 9ebc fb06 52be
000003b0: 9966 37be b6c8 e83b 9724 3abe 53ed fcbd
000003c0: b2f7 1fbc 157a c7bc 5f1c 8bbc 21ee ebbc
000003d0: d846 ffbd 72ed 5bbe 199c efbc ebdd 41be
000003e0: 50b6 6fbd f7a1 7fbe f2cd ce3d 91de 19bd
000003f0: 6538 52be 23ba 673c c46e 1cbd bbb9 7fbd

final.linears.1.bias f4 [108]
-0.08619767 0.06347406 -0.10401155 -0.11052679 0.08146301 -0.16744791 -0.09156711 -0.086983964
-0.09454839 0.0469948 0.0017933843 -0.15885739 -0.06687312 -0.16456549 -0.09014455 -0.13594314
-0.19547251 -0.0758021 -0.010776395 -0.12413248 -0.00058109185 0.063577615 0.048630565 -0.149116
-0.15084614 -0.13915902 -0.083584934 -0.005350932 0.059181012 0.019887287 0.021283204 0.039081838
0.0318031 -0.01754436 -0.17250992 -0.12340884 -0.12359923 -0.052608915 -0.09021362 -0.17863657
-0.047512196 -0.07673113 -0.12116797 -0.15095258 0.051603056 -0.083548166 -0.1710048 -0.042222537
-0.032832462 -0.11722202 -0.044642486 0.0063909767 -0.0672674 0.049259342 -0.027186733 -0.031362586
-0.12836988 -0.17299747 -0.09964881 0.030105667 -0.12688014 -0.008091634 -0.1375922 -0.14713152
-0.076141156 -0.04137046 -0.18332261 0.10092448 0.04576439 -0.044158168 -0.17538539 -0.0066361977
-0.2283786 -0.1965548 -0.23649256 0.014658154 -0.14526096 0.10176452 -0.021572264 0.036272276
0.08607975 0.00632836 -0.10383921 0.057327297 -0.011147519 -0.18619584 -0.094361246 -0.14087962
-0.011721805 -0.044632915 -0.17195226 -0.07828351 0.013147935 -0.037593316 -0.15120883 -0.06011719
-0.048573725 -0.11972227 -0.069923766 0.041244753 0.034176145 -0.18368495 -0.021211078 0.05644206
-0.18766728 0.019541087 -0.12954727 -0.17671727
00000000: 6788 b0bd b0fe 813d 0204 d5bd df5b e2bd
00000010: 14d6 a63d 7777 2bbe 8987 bbbd a624 b2bd
00000020: 96a2 c1bd 9f7d 403d fe0f eb3a 83ab 22be
00000030: c6f4 88bd db83 28be b59d b8bd ae34 0bbe
00000040: f229 48be 223e 9bbd 7a8f 30bc 2b39 febd
00000050: 6a54 18ba fb34 823d d830 473d ddb1 18be
00000060: 6977 1abe b47f 0ebe 942e abbd df56 afbb
00000070: ca67 723d aaea a23c 1d5a ae3c 4714 203d
00000080: f843 023d 31b9 8fbc 71a6 30be c6bd fcbd
00000090: 9821 fdbd 727c 57bd ebc1 b8bd 81ec 36be
000000a0: 269c 42bd 3625 9dbd ea26 f8bd 5093 1abe
000000b0: ba5d 533d 4d1b abbd e21b 2fbe 8af1 2cbd
000000c0: 557b 06bd 1912 f0bd 0adb 36bd 666b d13b
000000d0: 7ec3 89bd 2ac4 493d b6b6 debc 0e76 00bd
000000e0: 6573 03be 4026 31be ad14 ccbd 29a0 f63c
000000f0: deec 01be c692 04bc f8e4 0cbe a5a9 16be
00000100: e5ef 9bbd 1274 29bd ecb8 3bbe 7eb1 ce3d
00000110: 7173 3b3d 32df 34bd 3a98 33be 7674 d9bb
00000120: 14dc 69be a945 49be 1b2b 72be c128 703c
00000130: 4abf 14be eb69 d03d 51b8 b0bc 3d92 143d
00000140: 944a b03d 225e cf3b a7a9 d4bd 07d0 6a3d
00000150: 15a4 36bc 1faa 3ebe 7840 c1bd bf42 10be
00000160: d00c 40bc 01d1 36bd 4114 30be 1b53 a0bd
00000170: 706a 573c 73fb 19bd 7dd6 1abe 713d 76bd
00000180: 3ef5 46bd f330 f5bd 3134 8fbd 42f0 283d
00000190: 49fc 0b3d e817 3cbe dbc2 adbc ca2f 673d
000001a0: da2b 40be a114 a03c 0aa8 04be 5ff5 34be

final.linears.2.weight f4 [22, 108]
0.114543356 -0.019653536 0.073795 0.22509095 0.11395235 -0.21218029 0.08467521 -0.27710724
0.09334649 0.005613245 -0.1705428 0.11182334 -0.039757725 0.35994452 -0.32781157 -0.18519016
-0.21561578 0.12362635 0.007513862 -0.25681004 -0.003209952 -0.14385718 0.12201639 0.049897593
-0.13959235 0.08795458 0.20755102 -0.07255049 -0.054802865 0.10579196 -0.058690485 -0.039594304
0.0064020217 -0.15880302 0.1366304 -0.043083064 -0.07456962 -0.122041374 0.095248595 0.01565189
0.18329813 -0.10237013 -0.060581706 0.2703954 -0.031354807 0.004675158 -0.024831865 -0.098621
0.089991696 -0.1699697 -0.07492771 0.13867916 -0.16130678 -0.17143908 -0.007528864 -0.07794366
-0.018509325 0.2095819 -0.03921643 0.13673118 0.011574454 0.07865972 0.14446327 0.3252903
-0.29327342 -0.115695745 0.10572887 0.0012167152 -0.12248643 -0.1357649 0.2874663 0.066277854
0.03862898 0.31144825 0.0024759434 -0.011460134 0.3376051 0.03565034 -0.062414374 0.18806998
-0.087375544 0.06659302 0.07065983 -0.049828723 0.043345552 -0.4688864 -0.026123887 -0.26547056
0.059054043 0.13878399 0.050754536 -0.09394123 0.03605821 -0.08141366 0.40754014 0.015114892
-0.029570382 -0.0037112471 -0.04280253 0.08067968 0.11669278 -0.531287 -0.008055904 -0.047386337
-0.15474656 0.12281989 -0.10289135 -0.15239763 0.008287232 0.15782 -0.007681917 -0.44126314
0.09275762 -0.3106985 -0.16937077 -0.08654132 -0.05067919 -0.20020173 0.17948996 0.083972596
-0.0553028 -0.35763448 0.1831368 0.25062996 0.1790186 0.19951537 0.004166444 0.050079014
-0.036781464 -0.120275 -0.09882842 0.05722621 -0.097907566 -0.120634526 0.15153916 0.012313181
-0.0099445395 0.10754732 0.084122136 -0.027887374 0.16814157 -0.10665378 0.14877215 0.18682873
-0.13764304 -0.11025876 -0.37612572 -0.10968792 -0.18740013 -0.058738552 0.29380274 -0.30452824
-0.033242602 -0.061964452 -0.023397317 0.024526775 -0.008627478 0.096718885 -0.013939917 -0.09579416
-0.005314145 0.10265742 -0.06669216 -0.09517266 0.47731245 0.25156596 -0.21213493 0.10390772
-0.11305338 -0.03528883 -0.039589558 0.3435179 -0.17118317 -0.10502628 -0.1560248 0.0022729158
-0.045295097 0.11022826 0.11942688 -0.11104019 0.068241805 0.10778581 -0.06584469 0.043509837
0.22287081 0.020553486 0.2950328 0.017045677 -0.05224005 0.021171696 0.2647191 -0.011952278
0.05360123 0.05847137 -0.119856164 -0.3395071 -0.03873614 -0.053016923 0.19993223 0.0073671676
-0.17472462 0.038722806 0.080069296 -0.1338137 0.07596352 0.008425636 -0.074581586 0.11157257
0.07585121 0.16648462 -0.00051603455 -0.008119297 -0.010151026 0.03327907 0.1236164 -0.36841512
-0.20209293 0.17528671 -0.0902331 -0.14648971 -0.111658566 0.17744844 0.13691343 -0.256118
0.009462703 0.036438745 -0.07286449 -0.1614391 -0.27005652 -0.15268083 -0.41582605 0.34450123
-0.09457084 -0.29691595 -0.01286408 -0.3133419 -0.088976145 -0.13965513 0.0296143 0.06428792
0.0158202 -0.11514146 0.04508613 -0.07407129 0.03396325 0.12669648 0.11280828 -0.025349127
-0.048567064 0.15041015 0.15311041 -0.21034442 0.031859137 0.10131961 0.23953946 0.0062297145
00000000: b595 ea3d 7400 a1bc d521 973d 3e7e 663e
00000010: da5f e93d ca45 59be 326a ad3d 00e1 8dbe
00000020: 722c bf3d 50ef b73b c6a2 2ebe a303 e53d
00000030: ffd8 22bd a64a b83e ebd6 a7be 7da2 3dbe
00000040: 62ca 5cbe d02f fd3d d836 f63b 9b7c 83be
00000050: 0f5e 52bb 4c4f 13be bbe3 f93d 6b61 4c3d
00000060: 4cf1 0ebe 8821 b43d 4188 543e 5a95 94bd
00000070: f878 60bd 75a9 d83d 6f65 70bd a32d 22bd
00000080: 0dc8 d13b 429d 22be d7e8 0b3e de77 30bd
00000090: f5b7 98bd d4f0 f9bd b211 c33d 6438 803c
000000a0: 81b2 3b3e 6ea7 d1bd 8624 78bd 4471 8a3e
000000b0: e66d 00bd 1132 993b 326c cbbc cff9 c9bd
000000c0: 914d b83d 890c 2ebe b373 99bd e901 0e3e
000000d0: 9b2d 25be ba8d 2fbe b0b4 f6bb eda0 9fbd
000000e0: dea0 97bc a39c 563e 68a1 20bd 4203 0c3e
000000f0: c7a2 3d3c 5918 a13d 2eee 133e 738c a63e
00000100: ef27 96be e4f1 ecbd 6188 d83d 307a 9f3a
00000110: 2ada fabd f405 0bbe c82e 933e afbc 873d
00000120: 6c39 1e3d 2576 9f3e 7043 223b 49c3 3bbc
00000130: 93da ac3e 1706 123d 37a6 7fbd 6b95 403e
00000140: f3f1 b2bd ec61 883d 1ab6 903d 3419 4cbd
00000150: 1b8b 313d e111 f0be c301 d6bc c2eb 87be
00000160: a7e2 713d 641d 0e3e fde3 4f3d 4264 c0bd
00000170: c6b1 133d 34bc a6bd 1aa9 d03e 74a4 773c
00000180: 963d f2bc 6538 73bb b551 2fbd 633b a53d
00000190: a0fc ee3d 6d02 08bf e9fc 03bc 2d18 42bd
000001a0: e275 1ebe ff88 fb3d b3b8 d2bd 200e 1cbe
000001b0: 2cc7 073c 919b 213e 97b8 fbbb 3eed e1be
000001c0: b5f7 bd3d e013 9fbe 886f 2dbe 933c b1bd
000001d0: fb94 4fbd af01 4dbe 37cc 373e d3f9 ab3d
000001e0: 3085 62bd de1b b7be 3788 3b3e 9252 803e
000001f0: a750 373e c24d 4c3e aa86 883b a71f 4d3d
00000200: 29a8 16bd bd52 f6bd 8e66 cabd 0866 6a3d
00000210: c383 c8bd 3c0f f7bd 152d 1b3e 39bd 493c
00000220: 6cee 22bc c541 dc3d 3a48 ac3d 1074 e4bc
00000230: 4e2d 2c3e 4c6d dabd ba57 183e 0850 3f3e
00000240: 4cf2 0cbe 58cf e1bd 8d93 c0be 0fa4 e0bd
00000250: d2e5 3fbe d697 70bd 506d 963e 20eb 9bbe
00000260: 6529 08bd 70ce 7dbd bbab bfbc 60ec c83c
00000270: 445a 0dbc 8d14 c63d 4064 64bc bb2f c4bd
00000280: 4722 aebb 0e3e d23d e695 88bd e2e9 c2bd
00000290: 4c62 f43e 41cd 803e e639 59be 92cd d43d
000002a0: 8888 e7bd 058b 10bd a928 22bd 94e1 af3e
000002b0: a44a 2fbe 0518 d7bd f7c4 1fbe 33f5 143b
000002c0: 5a87 39bd 5bbf e13d 1496 f43d 0a69 e3bd
000002d0: 5cc2 8b3d cfbe dc3d 95d9 86bd 5f37 323d
000002e0: 3f38 643e c95f a83c 8a0e 973e 60a3 8b3c
000002f0: aaf9 55bd 4470 ad3c 4389 873e 7dd3 43bc
00000300: f78c 5b3d ad7f 6f3d 2677 f5bd e0d3 adbe
00000310: c9a9 1ebd 4628 59bd 09bb 4c3e 4868 f13b
00000320: 03eb 32be ce9b 1e3d 5ffb a33d 7506 09be
00000330: c392 9b3d ae0b 0a3c 3bbe 98bd 2980 e43d
00000340: e157 9b3d f27a 2a3e 7e46 07ba cd06 05bc
00000350: 7d50 26bc a24f 083d 982a fd3d e8a0 bcbe
00000360: 73f1 4ebe 5c7e 333e 22cc b8bd 6601 16be
00000370: 3fad e4bd 0bb5 353e 0933 0c3e e621 83be
00000380: 7409 1b3c cb40 153d fa39 95bd 4b50 25be
00000390: d944 8abe 5d58 1cbe 27e7 d4be 7762 b03e
000003a0: 5bae c1bd 5e05 98be ddc3 52bc 596e a0be
000003b0: 2039 b6bd c101 0fbe b099 f23c 63a9 833d
000003c0: 5d99 813c 49cf ebbd 3cac 383d b0b2 97bd
000003d0: 0d1d 0b3d b9bc 013e 0708 e73d f9a8 cfbc
000003e0: 42ee 46bd 1e05 1a3e fac8 1c3e 8764 57be
000003f0: ba7e 023d a880 cf3d d549 753e a222 cc3b

final.linears.2.bias f4 [22]
0.005759969 0.022210917 -0.046026886 -0.1939063 -0.030319698 0.018013243 0.0087324735 0.056209832
0.0009534366 -0.015047391 0.021502275 -0.032636784 0.018852917 0.058660273 0.009282617 -0.05763322
0.00038918923 0.0011560486 0.009710802 0.0638876 0.020589828 -0.006403685
00000000: 1fbe bc3b abf3 b53c b086 3cbd 608f 46be
00000010: 0461 f8bc 8290 933c a612 0f3c 483c 663d
00000020: 0cf0 793a 5589 76bc 8a25 b03c 26ae 05bd
00000030: 6f71 9a3c c145 703d 1e16 183c d010 6cbd
00000040: 180c cc39 8e86 973a 0e1a 1f3c 81d7 823d
00000050: 00ac a83c 01d6 d1bb

layers.0.attn.0.gnn_q.weight f4 [22, 16]
0.010928893 0.0011010951 0.016206669 -0.016691262 -0.00012539711 0.0050908998 0.02145709 0.01060357
-0.010006732 2.8003706e-07 0.01848006 -0.010543377 0.0063397926 -0.009911152 -0.0046627223 0.007028957
-0.018236686 0.00033101332 -0.025913818 0.021532431 0.0007626325 -0.008303981 -0.016154699 -0.014240234
0.011537351 0.00038203737 -0.026433809 0.016131626 0.0007150443 0.009782874 0.0058937366 -0.0064151725
-0.0013824311 7.2226885e-06 -0.01615849 0.0076266574 -0.00132381 -0.0071758237 -0.01647688 -0.0022854477
0.0034441648 0.004934044 -0.0064988323 0.003951692 -0.010124031 -0.00038042222 0.0044335737 -0.0038366576
-0.03728701 0.0009453491 0.06988522 -0.028204523 -0.009273207 0.024266055 0.07281148 0.0049221916
-0.016774427 0.003907763 0.044206813 -0.0129308365 0.043170866 0.003257255 -0.007530937 0.005673903
0.05861327 0.003935715 0.13270454 -0.10300799 0.007540154 0.053000923 0.14440311 0.042641703
-0.057544522 -0.02140399 0.17314476 -0.066593885 0.059714165 -0.028044546 -0.034069784 0.051624835
-0.111472346 -0.0002547302 -0.05352429 0.076528594 0.0007879528 -0.015594196 -0.028267762 -0.06266109
0.039111566 -0.019632787 -0.13879333 0.07777658 0.035338525 0.052087 0.012566461 -0.01833338
-0.015970465 -0.00047835696 -0.032249484 0.023287253 -0.0023891944 -0.013577247 -0.034315865 -0.00991906
0.012702013 0.0075686425 -0.036343426 0.0147661455 -0.014022688 0.0064508114 0.009539561 -0.013152141
0.010478024 -0.0012591495 -0.0071487655 0.0020834734 -0.003685194 -0.0069379774 -0.018801115 0.007647808
0.0031556438 0.008317859 -0.004646746 -0.0063599325 -0.017568098 -0.006387566 0.005443152 -0.0069277673
0.0031392334 0.0008517467 0.032509457 -0.017207993 0.0015431626 0.013244457 0.03911442 0.007844963
-0.011942524 -0.0071260007 0.017967949 -0.009703202 0.020521889 -0.005144155 -0.010905411 0.012381729
0.0052689477 -0.00022979897 -0.017430648 0.0064020995 -0.00077832246 -0.008236889 -0.016142089 -0.00072025164
0.002766142 0.005288973 0.0008004239 0.0003623763 -0.009399817 -0.00045252906 0.005477131 -0.0039256806
0.018152641 0.00092193903 0.030679245 -0.028963301 0.0026296598 0.01155259 0.03788011 0.010982363
-0.016246727 -0.01094222 0.044747166 -0.015689759 0.01890602 -0.005509314 -0.009232523 0.014080888
-0.015015646 0.000646212 -0.008940303 0.010861474 0.0011551328 -0.0027148526 -0.0039455146 -0.01033139
0.005600813 -0.0043699867 -0.017182006 0.012506885 0.0067117764 0.007979762 0.0005018879 -0.00044324412
-0.012589486 -0.0002839312 -0.014276059 0.011778072 -0.00020122982 -0.005307882 -0.013301577 -0.008194492
0.005560972 -0.00028978128 -0.021209095 0.010040868 -0.0006021587 0.006380294 0.0033679898 -0.004558535
-0.011019372 -0.00081691396 0.0025618693 0.007384951 0.0013218204 0.0038780353 -0.00014550757 -0.008461529
0.004653415 -0.005668005 -0.0051289434 0.0065954 0.0064339 0.011716132 -0.000740704 0.0004128251
-0.036446977 -0.0008910062 -0.0027063484 0.021001788 0.0052308617 0.0072396826 0.008512442 -0.02678563
0.0112337135 -0.018014805 -0.027467823 0.027567392 0.024691269 0.029255142 -0.001989933 0.001455133
-0.034983125 -0.0010848886 0.003310534 0.019998623 0.0050025806 0.011075669 0.0064831222 -0.026254114
0.011418114 -0.01683429 -0.031291105 0.025150955 0.018555582 0.025045777 -0.0036079343 0.0018450171
00000000: 1a0f 333c 9f52 903a d9c3 843c 1dbc 88bc
00000010: 087d 03b9 90d1 a63b c7c6 af3c 99ba 2d3c
00000020: 47f3 23bc 0058 9634 7f63 973c 21be 2cbc
00000030: 09be cf3b 6262 22bc c0c9 98bb 2a53 e63b
00000040: 1a65 95bc db8b ad39 3749 d4bc c864 b03c
00000050: 67eb 473a 6c0d 08bc dc56 84bc df4f 69bc
00000060: 2807 3d3c 304c c839 b78b d8bc 7926 843c
00000070: d071 3b3a 5948 203c 3f20 c13b 5e36 d2bb
00000080: b132 b5ba 6c5a f236 cf5e 84bc 0ae9 f93b
00000090: b183 adba 2c23 ebbb 86fa 86bc 73c7 15bb
000000a0: 7fb7 613b c3ad a13b 28f4 d4bb 327d 813b
000000b0: 44df 25bc 6873 c7b9 8347 913b 6f70 7bbb
000000c0: 44ba 18bd 4ed1 773a fb1f 8f3d 2c0d e7bc
000000d0: a6ee 17bc 9bc9 c63c 2f1e 953d 564a a13b
000000e0: 866a 89bc b10c 803b 3412 353d dcdb 53bc
000000f0: efd3 303d ac77 553b 14c6 f6bb 26ec b93b
00000100: 7814 703d 2cf7 803b b3e3 073e daf5 d2bd
00000110: 6513 f73b 7f17 593d 69de 133e 11a9 2e3d
00000120: ceb3 6bbd 6c57 afbc dc4c 313e 6062 88bd
00000130: d796 743d adbd e5bc c28c 0bbd 9074 533d
00000140: 9d4b e4bd 4f8d 85b9 493c 5bbd 06bb 9c3d
00000150: 9e8e 4e3a cc7e 7fbc cb91 e7bc 7554 80bd
00000160: 7333 203d f0d4 a0bc d71f 0ebe 5449 9f3d
00000170: 21bf 103d 2e59 553d 8fe3 4d3c e22f 96bc
00000180: 7ed4 82bc fccb fab9 0918 04bd e9c4 be3c
00000190: 0894 1cbb 1a73 5ebc cb8e 0cbd 8e83 22bc
000001a0: 1b1c 503c 6002 f83b d8dc 14bd b4ed 713c
000001b0: 6bbf 65bc 5461 d33b d24b 1c3c 147c 57bc
000001c0: 05ac 2b3c 0c0a a5ba 3140 eabb e28a 083b
000001d0: 4c83 71bb f957 e3bb cc04 9abc 779a fa3b
000001e0: ebce 4e3b a147 083c bb43 98bb fb66 d0bb
000001f0: f9ea 8fbc ca4e d1bb 785c b23b 5302 e3bb
00000200: 99bb 4d3b c147 5f3a a328 053d c7f7 8cbc
00000210: f243 ca3a 47ff 583c 7136 203d 2988 003c
00000220: 94aa 43bc 3a81 e9bb 8531 933c 2efa 1ebc
00000230: 851d a83c 4d90 a8bb 9cac 32bc bcdc 4a3c
00000240: 23a7 ac3b 31f6 70b9 b8ca 8ebc b4c8 d13b
00000250: 5608 4cba 04f4 06bc 6a3c 84bc 45cf 3cba
00000260: 2948 353b 1f4f ad3b 8ad3 513a 53fd bd39
00000270: b101 1abc 6c41 edb9 8179 b33b ffa2 80bb
00000280: d9b4 943c 48ae 713a 0a53 fb3c 7244 edbc
00000290: 5f56 2c3b 1347 3d3c 2d28 1b3d 5eef 333c
000002a0: db17 85bc ff46 33bc ce48 373d cf87 80bc
000002b0: cce0 9a3c 7a87 b4bb 0244 17bc 86b3 663c
000002c0: 2f04 76bc 8e66 293a 597a 12bc 53f4 313c
000002d0: d367 973a abeb 31bb 6049 81bb fe44 29bc
000002e0: 0687 b73b 1b32 8fbb 47c1 8cbc aee9 4c3c
000002f0: 76ee db3b 8cbd 023c 2091 033a 3863 e8b9
00000300: 2244 4ebc 9adc 94b9 22e6 69bc d1f8 403c
00000310: 3801 53b9 beed adbb dcee 59bc 3142 06bc
00000320: d038 b63b c9ed 97b9 b2be adbc 7482 243c
00000330: 30da 1dba c911 d13b 7eb9 5c3b c35f 95bb
00000340: 998a 34bc 2b26 56ba 09e5 273b 76fd f13b
00000350: ef40 ad3a a326 7e3b 6493 18b9 3aa2 0abc
00000360: ad7b 983b acba b9bb b210 a8bb 3a1e d83b
00000370: 77d3 d23b 05f5 3f3c ce2b 42ba 7270 d839
00000380: 6d49 15bd 6a92 69ba fe5c 31bb f10b ac3c
00000390: a667 ab3b dc3a ed3b c577 0b3c 8a6d dbbc
000003a0: 9c0d 383c c993 93bc 3304 e1bc 03d5 e13c
000003b0: 5845 ca3c 7ba8 ef3c 8969 02bb 29ba be3a
000003c0: 774a 0fbd d232 8eba 8bf5 583b 27d4 a33c
000003d0: b0ec a33b b976 353c 5f70 d43b de12 d7bc
000003e0: 0b13 3b3c 11e8 89bc 1a2b 00bd 6009 ce3c
000003f0: e001 983c cd2c cd3c 1873 6cbb 80d4 f13a

layers.0.attn.0.gnn_q.bias f4 [16]
-0.15371907 -0.0018109136 0.08360982 0.024205904 0.015222249 0.04579771 0.16658925 -0.10166209
0.013303046 -0.106627755 -0.0254109 0.090687156 0.19129917 0.09897521 -0.017312009 0.033447005
00000000: 8868 1dbe 2d5c edba a03b ab3d 764b c63c
00000010: bd66 793c 6196 3b3d 5f96 2a3e 3734 d0bd
00000020: 05f5 593c a75f dabd 852a d0bc 30ba b93d
00000030: eee3 433e 84b3 ca3d ead1 8dbc baff 083d
