checkpoints/cyp2c19_veith_25_train1_neg/Aug23-09:15:59_700.pth (torch, 456127 bytes, 294 tensors)

layers.0.weight f4 [22, 16]
00000000: 7d2b ea3e 8b65 753e 8535 2c3d aed4 773f
00000010: 7bbf 423d 074b bdbc a417 53bf 4db6 e73d
00000020: edfa 343f 7105 73bf 44a7 173f 2bb5 5bbc
00000030: 7db3 133e 4e99 593e a5ea c03e 6f76 193d
00000040: f82e 9fbd cd67 053f adf5 2abd 3200 473e
00000050: 4b86 48bf 2db6 79bd 8fde 3ebe 4f85 4f3e
00000060: ead5 46bf 0598 493c 17dd 55be 0980 96be
00000070: 6be9 8e3d 9bf5 b7be 0d6b 083f 7f7d 20be
00000080: 1741 6b3e 16b5 80be 12ae 6f3b 417c 463c
00000090: 7d81 0e3d 1f6f f13c f0c5 af3e aece 3dbe
000000a0: 177d d73c ca7f b6be 29ed 88be 0b88 bb3d
000000b0: 9670 ff3c 85a1 093e 3e60 5f3e 5dce 493f
000000c0: f6e4 593e 1021 25bf 89a9 1ac0 ca91 0bbf
000000d0: c89a a4be f8a5 bb3f 53eb d33e 586e 333e
000000e0: f97b bd3e d698 02bf 5e32 1a3f af78 f0be
000000f0: c2d4 4bbd bec7 58bf beba 263e dddb 9dbe
00000100: fe3a 63be 4b0c 05bf 4dc4 553f eba1 bcbe
00000110: d629 adbe 484c debe f24b 813e 911d 6f3f
00000120: ad92 f53e e5fe 85be 99f5 a53d 6896 a03c
00000130: 1758 85bf 914f 26bf 3106 8e3e 66b0 423e
00000140: 0379 85be c06f 00bf d897 603f 253b 9ebe
00000150: 1d93 b2be b053 dfbe c598 de3e f1d2 473e
00000160: c229 773e 506f b3be 00b3 bc3e 1af1 96bf
00000170: 759b e3be 7868 4c3e 0ad2 403b 46cb 0fbe
00000180: e1db 843d 1314 053f fce2 003e 488e debe
00000190: c58a 5dbe ecb6 9abd 4240 b4bd ad73 20be
000001a0: a9bd 233e 1a9c 0ebe 80c3 7cbe 4ac6 efbd
000001b0: b0d1 04bf b616 0fbe 4813 983e 97aa bfbd
000001c0: 4cb7 d7bd 3de9 d8bd 2135 583d 5226 5dbc
000001d0: 9b1f e23e 3edd abbc 6dbd 47bf 8b56 30be
000001e0: 0cbc 7fbe b3ec 70bf 42e2 99bd f40e 7a3d
000001f0: be06 69be 64f5 86bd 7f6c 88be 2510 2bbf
00000200: 3997 e13d c80e 8ebe 4a80 4e3c c71c 21bd
00000210: d0a8 45bf 6e6e 6fbb a0d4 bcbe 6fe9 1a3e
00000220: 0d34 1ebf 3e35 29be 4ba7 0dbf 0582 23bd
00000230: a863 1d3e 061d 773b caac 26bb 4738 74be
00000240: 9b72 2f3e 04c0 373f 4087 ea3c 7abd 993f
00000250: 8232 b03e e6fa 99bd 06b3 fcbe cced cb3c
00000260: efcd 523f 3bb3 f2be f95b 2d3f 744d 32be
00000270: 7a31 61be d704 82be 6cba 093f 6c9b 24bf
00000280: daa3 2c3c 7c1d 223f f246 d53c 23fd 9bbf
00000290: 2780 733e bea2 c5bd c210 63bf 3828 8b3e
000002a0: abfa 273f ed12 56bd c499 e5be 5826 9f3d
000002b0: ea4a 4f3e b8a3 42be a950 7bbe 4593 9cbe
000002c0: 252b 32be 8449 0b3f 2e97 5e3d ed84 0cbe
000002d0: fb4a 433d 490b 19bc 5b89 bd3e c098 68be
000002e0: 25f8 963e dcdc 8fbe aa65 1cbe 2a94 be3d
000002f0: c4c9 e7be 6b2b 92bd 765e d9be 1e1f c2be
00000300: c59e f5bd 5c26 453f 7330 113d 4d25 6bbe
00000310: fe51 25be ec19 f9bc 12c9 be3e dc09 27be
00000320: 3612 91bf c48b 03bf 7689 2c3f 1916 413e
00000330: 8649 a2be 622c 77bc d7de 9ebe 04a9 2cbf
00000340: 8cbc 033e 87a0 b8bd 5129 f93b 061a 233f
00000350: 6b03 47bf 9cdf 993c a43f 973d 00b7 babd
00000360: dae0 e23e fe3d ac3e 36ec 4e3f a3c0 173e
00000370: 0ca8 76be 0734 823e bad5 ddbe 8f8b e03d
00000380: 4575 22be 62ca 8abd d424 d43c 6ba7 5c3f
00000390: 3e08 13bf 5e01 92bd d55e 11bf 2028 d43e
000003a0: ebec 143f 7e66 4b3f e3f0 2b3f 63e1 f3bd
000003b0: 834c 353e 23c2 3bbe f9c8 83be 8ab1 09bf
000003c0: 4c3c 2c3d 14af 6bbf 0b23 263c 04d1 c43c
000003d0: 4ac2 7f3d f1ed 86bd d68e 88bf d86f da3e
000003e0: d964 c6bd 6cd8 2c3e 74aa 3cbf 4575 02be
000003f0: 6fad da3e 6ba1 cbbd 7914 743d 571a 5dbf
0.45736304 0.23964517 0.042043228 0.968089 0.04754589 -0.023107065 -0.8245795 0.11314068
0.7069538 -0.9493018 0.592396 -0.013409893 0.14423938 0.21249887 0.3767902 0.037466463
-0.077726305 0.5211151 -0.0417382 0.19433668 -0.78329915 -0.060964752 -0.18639587 0.20265697
-0.77670157 0.012304311 -0.2088512 -0.29394558 0.06978115 -0.3592957 0.53288347 -0.15672873
0.22974049 -0.25138158 0.003657226 0.012114585 0.03479146 0.029471932 0.34330702 -0.18535873
0.026304765 -0.3564437 -0.2674344 0.091568075 0.031181615 0.13440521 0.21814057 0.7883051
0.21278748 -0.64503574 -2.4165976 -0.5451933 -0.3214934 1.4660025 0.41390476 0.17522562
0.37008646 -0.5101446 0.60233104 -0.46967074 -0.04976345 -0.8467978 0.16282174 -0.30831805
-0.22190472 -0.5197188 0.83502656 -0.36842284 -0.3382098 -0.43417573 0.25253254 0.9340449
0.47963467 -0.26171032 0.08103485 0.01960297 -1.0417508 -0.6496516 0.277391 0.19012603
-0.26068887 -0.50170517 0.87731695 -0.309045 -0.34877864 -0.43618536 0.4347593 0.19514062
0.24137023 -0.35045862 0.36855316 -1.1792328 -0.44454542 0.19961727 0.0029422068 -0.14042386
0.06487251 0.51983756 0.12586588 -0.43467927 -0.21634968 -0.07554421 -0.08801319 -0.15669127
0.15990318 -0.13926736 -0.24683952 -0.117077425 -0.5188246 -0.13973507 0.2970221 -0.09358709
-0.10533008 -0.10591362 0.052785043 -0.013497906 0.44164738 -0.02097952 -0.78023416 -0.17220514
-0.24974078 -0.94111174 -0.075138584 0.061049417 -0.22756478 -0.06589773 -0.26645276 -0.6682151
0.110151716 -0.27745652 0.012603829 -0.039334085 -0.7721071 -0.0036534327 -0.3688097 0.1512811
-0.61798173 -0.16524217 -0.55333394 -0.03991892 0.15370047 0.0037706508 -0.002543258 -0.23849593
0.17133562 0.7177737 0.028628945 1.2010949 0.34413534 -0.07518558 -0.49355334 0.024893664
0.8234548 -0.47402367 0.67718464 -0.17412359 -0.2199153 -0.25394318 0.5380008 -0.64299655
0.010537112 0.6332624 0.026034806 -1.2186626 0.23779355 -0.09650181 -0.88697445 0.27179122
0.65616864 -0.052264143 -0.44843876 0.07770985 0.20243421 -0.19007766 -0.24542488 -0.30581108
-0.17399271 0.5440905 0.054343395 -0.13722582 0.04767893 -0.0093410695 0.37018856 -0.2271452
0.29486194 -0.2809819 -0.15273157 0.09305604 -0.45271122 -0.071371876 -0.4245488 -0.37914366
-0.119931735 0.77011657 0.035446595 -0.22963448 -0.16144559 -0.030407868 0.3726278 -0.16312355
-1.1333683 -0.5138514 0.6739725 0.18856086 -0.3169672 -0.015086265 -0.31029388 -0.674454
0.12864894 -0.09014993 0.0076038023 0.63711584 -0.7773959 0.018783383 0.07385185 -0.09116936
0.44312173 0.33641046 0.8082918 0.14819579 -0.24087542 0.2543032 -0.43327123 0.10964119
-0.15865047 -0.06776883 0.025896467 0.8619296 -0.5743445 -0.07129167 -0.5678533 0.41436863
0.5817401 0.79453266 0.6716444 -0.119082235 0.17704968 -0.18335776 -0.25739267 -0.5378653
0.04204969 -0.92064023 0.010140191 0.024025448 0.062441148 -0.065883525 -1.066859 0.42663455
-0.09687204 0.16879433 -0.7369759 -0.12740047 0.42710444 -0.099428974 0.059589837 -0.86368316

layers.0.bias f4 [16]
00000000: 62c6 09bf 5c0c c7bd c2d5 223e 1c98 24be
00000010: d3ac d4be e971 2fbf 019f fe3d 9416 00bf
00000020: 7dd8 a03e 4a73 fabd fc62 be3d 6d76 213f
00000030: e43a eb3e 00bb af3e 4605 cd3e 080c 77be
-0.53818333 -0.09719154 0.15901855 -0.1607365 -0.41538104 -0.6853319 0.12432671 -0.5003445
0.31415167 -0.12229021 0.092962235 0.6307133 0.45943367 0.34322357 0.40043086 -0.24125683

layers.1.weight f4 [16, 16]
00000000: 9e84 da3e e4d3 90be d0b5 c13e 493c 213e
00000010: 6166 f33e cc3d 60be 93a7 83bd b4da 963e
00000020: 5c01 22bf d75c 0fbf 05ee 62be e3ae f1bd
00000030: c2bb d83c e14b 393c 78ed 38be b450 06bf
00000040: d0d9 6fbe c962 c03e 1cef ed3d d3bf 0dbf
00000050: b653 fabd 5321 173d e0d5 43be aaab 04be
00000060: 8daa 0b3f d1fa ed3e e9fe 903f cb82 52bf
00000070: a791 d7be 9241 89be 0b48 fd3e f7eb 6abd
00000080: ca4f 6f3e 060c 8a3a 556f 8bbe cad2 49bd
00000090: 99d0 263f 34d3 763e 2d4b 9abd ad84 5c3e
000000a0: 8c54 43be b090 c53e 3b2a 1c3f c69c afbe
000000b0: 13f2 c7bf 7df0 933e a3c3 0bbe 1d4a c63e
000000c0: 35c6 12bf 43a4 983e 82bb ec3d 44ff 21bf
000000d0: 5b86 c73e ffd8 4ebf fceb 72be 20fe b9bd
000000e0: 844a 553f ca73 a83e 10ab b9be de2b 5ebf
000000f0: 829c ccbe 3841 9fbd c9d3 413f 9e52 8ebe
00000100: 0ad4 d5be 353d 853e eadd 8d3e ee05 cebe
00000110: 820a 3ebe 0152 96be 6cf2 37be 46bc c5bb
00000120: d4aa 163f 81b2 243d 9601 39be 474a 25bf
00000130: d683 e8be 9f34 52bd f9ef a83e 8da2 37be
00000140: 7cf6 b0bc 6f94 c8bf 2f99 61bf 34ba c9be
00000150: cdd2 2a3e 708c 723e 78ee 893d 3746 193f
00000160: 5838 0ebe 2652 e73e 93ae 3dbe 9ddc 8f3e
00000170: 7bea 273f e1f0 28bf 53f0 91bf d2a7 153f
00000180: 9443 c83e 4961 b7be 6ecb bdbd 0592 b5bf
00000190: a83e 5ebf 6492 223e a2b9 163e a401 3b3e
000001a0: 71f9 dbbe 6d25 bc3f af3d 913e 6568 153f
000001b0: 45dc f13e 3cab 303e b3c5 d0be d80c 2abd
000001c0: 8d7d 643f 7a45 943d e627 d03e 271c 8abe
000001d0: 1164 933e 6de8 c1be 2718 183e 6c19 cf3d
000001e0: 59ac d63e 0438 b4bc d620 f0be 314d 4b3f
000001f0: e275 a3be b3d7 b8bc 0d8b 92bf 0a2d 77bc
00000200: 922e 633e 4c75 81be c50d 4bbe 101a bc3e
00000210: 3f03 1bbe 3e11 59bf e4e3 4f3e d76c 183d
00000220: f420 803f ba46 b93e 8786 e03d 3b4e 473f
00000230: 90be b73e adf6 e63d 70e5 fbbe 8654 5a3e
00000240: d1e1 bf3f 5b04 bb3e d322 be3d c686 41bf
00000250: fea5 12bf 6da6 1a3d fe66 41be e321 15be
00000260: 3480 273f 3b4a 1a3f 302c 3abf 4d13 56bf
00000270: bedc fabe c6a3 b4bd fc02 2e3f 2eaf 84be
00000280: 0d34 e43e deaf bcbe cd11 0bbe 3cbb a7bf
00000290: 8029 373f 7d57 10bf f71e 1b3e f3bf 003e
000002a0: 434b 13be 0da1 623f b3a3 1a3f 30d9 033f
000002b0: 8df1 f53e dcb9 7f3c bd51 d7be 3ff2 da3d
000002c0: 920c 853b 02fa e83e c13c e5be 6e79 8ebe
000002d0: 8a1b 913e a887 023f 8884 27be c382 9abe
000002e0: cc4c 0abf 496d e33e 393a 4cbe 2239 2cbf
000002f0: 7700 dcbe 8bb3 b0be e8a9 b63f 1a8a 34bd
00000300: 16fd df3e d5d3 cbbe 3943 fabe f931 1c3e
00000310: 2ec9 173f cffa 3dbd 2579 bdbd d7cd c43d
00000320: d5d6 18bd 28c9 7a3e a9f2 76bf d3bb 3abf
00000330: b688 0a3f f2b7 77be 0874 633f 49c8 fa3c
00000340: 1e7b a33e 8f8b 153f 4eef bd3d 44b6 87be
00000350: f1ad d3be 0a9b c2be 357f 4dbe 5b3f 94be
00000360: 322f 06bf e0ef fd3c 9ecb fabe d945 3ebf
00000370: 138a fabe a34a 833d 5406 2e3f d8c5 023b
00000380: a981 953d e2ff 0fbc 9ffe bebe 6f7b 87bd
00000390: 1df0 be3e f758 48bf baa8 943d f3a6 0abe
000003a0: 81bb f23d debd d13d 0aaa 46be 6650 ae3e
000003b0: ffd8 0b3e e228 813c e344 fc3d f4ef 773e
000003c0: 7988 08bf f8d4 973e ef88 773e c4d5 11bf
000003d0: c03e 52bf a483 4fbf 615e 36bd 97bb 9cbd
000003e0: 3ac7 8abf 8cec 2a3f 7aa1 e0be 6b97 34be
000003f0: 4934 0dbf 5130 edbb df83 85bc 0410 a5bd
0.42679304 -0.2828666 0.37834024 0.15745653 0.47539046 -0.21898574 -0.064284466 0.29463732
-0.63283324 -0.5600104 -0.2216111 -0.11800935 0.026456717 0.011309595 -0.18059337 -0.52466893
-0.23422933 0.37575367 0.11617872 -0.55370826 -0.12222998 0.036897015 -0.19124556 -0.1295611
0.54557115 0.4648042 1.1327792 -0.82230824 -0.4210331 -0.2680784 0.49469027 -0.05735394
0.23370281 0.0010532148 -0.27233377 -0.04927329 0.65162045 0.24104005 -0.0753387 0.21534987
-0.19075221 0.3858695 0.6100194 -0.34299296 -1.562075 0.28894415 -0.13648848 0.3872842
-0.5733369 0.29812822 0.11559202 -0.6328013 0.38969693 -0.8079986 -0.23722833 -0.090816736
0.83316827 0.3290084 -0.36263323 -0.86785686 -0.39963156 -0.07776111 0.75713784 -0.27797407
-0.41763335 0.2602326 0.2770837 -0.402389 -0.18558696 -0.2935944 -0.1796357 -0.006034407
0.58854413 0.040209297 -0.18067011 -0.64566463 -0.45413083 -0.051319715 0.32995585 -0.17933102
-0.021601908 -1.5670298 -0.88124365 -0.39399874 0.16681977 0.23686385 0.067349374 0.59872764
-0.13888681 0.45179862 -0.18523626 0.28098002 0.65592164 -0.6599255 -1.1401466 0.584592
0.39114058 -0.3581641 -0.09267317 -1.4185187 -0.86814356 0.15876156 0.14719251 0.18262345
-0.42963746 1.4698921 0.28367373 0.5836242 0.47238365 0.1725282 -0.40775833 -0.041516155
0.89254075 0.07239814 0.4065544 -0.26974604 0.28787282 -0.3787264 0.14852963 0.10112271
0.41928366 -0.021999367 -0.46900052 0.7941466 -0.31925875 -0.02256379 -1.1448685 -0.015086422
0.22185734 -0.25284803 -0.19829471 0.36738634 -0.15137957 -0.84791934 0.20301777 0.037213173
1.0010056 0.36186773 0.10963159 0.77853745 0.35887575 0.112775184 -0.49198484 0.21321306
1.4990789 0.3652676 0.09283986 -0.7559627 -0.57284534 0.037756372 -0.18886945 -0.14563708
0.6543 0.60269517 -0.72723675 -0.836232 -0.48996538 -0.088203 0.67973304 -0.25914901
0.44570962 -0.36852926 -0.13581009 -1.3104014 0.715477 -0.56383497 0.15148531 0.12573223
-0.14384179 0.88526994 0.60406035 0.51503277 0.4803585 0.015608277 -0.4205455 0.10690736
0.0040603364 0.4550324 -0.44772914 -0.27827018 0.28341323 0.50988245 -0.1635915 -0.30177888
-0.5402343 0.44419315 -0.19944085 -0.6727468 -0.42969105 -0.3451198 1.4270601 -0.044077016
0.43747777 -0.39810053 -0.48879412 0.15253438 0.5929135 -0.046381768 -0.09251622 0.09609573
-0.037314255 0.24490798 -0.9646402 -0.72942847 0.54114854 -0.24191263 0.88848925 0.030613082
0.31929868 0.58416075 0.09274159 -0.26506245 -0.41343644 -0.3800891 -0.20068057 -0.28954586
-0.52415764 0.03099817 -0.48983473 -0.7432533 -0.48933467 0.0641072 0.67978406 0.001995435
0.07300121 -0.008789035 -0.37303635 -0.0661534 0.37292567 -0.7826075 0.072587445 -0.13540249
0.1185217 0.102412924 -0.19400802 0.34045714 0.13656996 0.015766565 0.123178266 0.24212629
-0.5333324 0.2965467 0.2417333 -0.56966805 -0.82127 -0.8106024 -0.0445236 -0.076529674
-1.0842049 0.6676719 -0.43873197 -0.17635886 -0.55157906 -0.007238426 -0.016298233 -0.08059695

layers.1.bias f4 [16]
00000000: 36f0 ccbd be24 50bd d55a a4bd 7761 8fbd
00000010: 6f22 4fbe bfe5 1bbe 3e16 07bd d5b2 38be
00000020: 1fe0 663e 3198 7dbe 9f67 0ebd ebfe 8dbe
00000030: 71b7 fd3c 578a c6bd 866a f7be b841 b9be
-0.10006754 -0.05081629 -0.08025137 -0.07001012 -0.20227979 -0.1522436 -0.032980196 -0.18036969
0.22546433 -0.24765088 -0.03476679 -0.2773355 0.03097126 -0.09694355 -0.48323458 -0.36182952

final.linears.0.weight f4 [108, 54]
00000000: c419 2abc 3810 683c f046 5b3c dd12 57bf
00000010: 6064 4abf abb6 7d40 d58b 15bd 8bcb 743c
00000020: b1b8 c43c 979f 333b 3b2c 1fbe dee1 ad3c
00000030: acd1 b83d 0986 7bbb 4f93 b0bd ea3b 7fbd
00000040: 252b 1bbd ac87 d63c aa25 07bd 54b9 863d
00000050: f26e e2bc 6c26 ce3d c90f dbbc 6eda c4bc
00000060: 4093 5a3d 9a35 2ebe 1437 47bd b4ba 6dbc
00000070: 7d18 4d3c 3d9f 96bd 3165 f53c 98bb 36be
00000080: d180 c83c 03d6 3cbe 4573 373e b263 65bc
00000090: 8f87 d3bc 7fd7 7cbd 8bf8 2c3e 5709 59be
000000a0: bec7 4b3e 8879 1d3e b812 8fbd e0cf 22be
000000b0: 25e1 c2bd 7159 a7bd 7763 463d 39a2 8b3d
000000c0: 768a 303e d047 4dbd 51c5 f6bc 6893 04bd
000000d0: 2528 b7be 6e55 c1be 1645 3a3e d171 463f
000000e0: 2e99 fb3e 8e91 e9bd dfd4 4ebe e12e 34be
000000f0: 140f 39be bcb8 693d 828a 33be a5cc eebc
00000100: fdb6 ae3e ba54 563f 96f3 1fbf e118 cabe
00000110: 3a5f b03e 05e8 e3be 9b53 52bf 4aa1 793e
00000120: 5e92 6b3f 4acd e93e 3ee5 21bf e204 df3e
00000130: 0c15 503e ae1f d23d 94b7 c93b c6a0 873d
00000140: 81f7 09be 1d43 f23a 7b36 f8bc 50e2 683e
00000150: f3e8 89bd fe59 503e 7620 063e 5377 f23b
00000160: e037 a23d 5e64 333e 3e5e 04be 2088 853e
00000170: 41a6 d8bd c26b b5bd 8124 abbd d518 24bd
00000180: 3b4c d53d 63c8 8fbd 62f3 b73d c734 26bd
00000190: b410 91bb c289 b0bd 81dc 853d 6106 9d3e
000001a0: cecb 24bb dbfa 823d 3e29 5c3e 7234 693d
000001b0: cb78 1a3f 25fd 29bf 3ed2 aa3e f6cb 9bbd
000001c0: 0dee aebc cd05 b0bd 2867 1640 b0da 5b3f
000001d0: 8333 b6be adb3 eabe c2e5 993f d80e a6bf
000001e0: 4996 fd3b 9878 9ebe 590d d73e a5eb bcbe
000001f0: bbe5 cdbf 1e08 ff3e ae79 3f3f 1fdf 9f3f
00000200: 882c 8bbf 5816 bfbe 9453 403e 952c 3c3e
00000210: fdf7 853d 3602 1dbd fa9b 15bd 8a24 093e
00000220: 016c c1bd 6e83 073e d05b e43d a304 e3bd
00000230: a4d1 debc 3062 61bd 7338 b1bb 2ca6 cf3d
00000240: 53e1 b1bd dccb e43d d2e9 d73d f70b f9bc
00000250: 8197 56bd 5ccd 823c 8a0b 2cbd a62d 95bd
00000260: 311e a7bd 0468 3bbd 52df a0be b0c0 45bd
00000270: 03a5 943d 944a cbbd 6c31 67be 9bac 2ebe
00000280: 529f 01be fdbb 9b3d 8eb4 a83e c101 943d
00000290: 45f8 203e d02e 933d 29b1 8b3d f334 5f3c
000002a0: b12d a33e 4335 573f 0b45 71bd 5091 8cbd
000002b0: 58bf 533c e116 47bd 3a24 413d d411 153f
000002c0: 60d2 51bd 5036 843d ff50 8a3e cc7d e1be
000002d0: 0fc1 0dbf 3c6b f03d 9d33 9bbe b4de 083f
000002e0: e042 5c3d ca4f fa3b 1409 ad3d e7d6 24bc
000002f0: 30e2 413d aa0f d23d b07d b8bd b6c8 763c
00000300: 2286 1ebd 94c7 3d3d 1cec 02bd 290a 8ebd
00000310: 9f9f 5ebd dc9b 0dbc 009a edbc 5db8 303d
00000320: b89a bfbb 6f98 453d 5c7d e6bd b5d3 fb3c
00000330: a9f3 f4bc 76ab 8fbc c949 e83c 8f30 ac3b
00000340: 635f 7d3c 4a2d 8c3d a6d8 56bc 8dbe 93bc
00000350: 86c7 113d 1694 033d 1c2a f73b 4c7a 84bc
00000360: 1466 94be 1cdb 33be fa54 2c3e e0e5 aabe
00000370: 8e57 993f 7325 bebe 0d3e 043e 80c8 54bd
00000380: eb91 76bd b6ed 83be b9eb 1d3e b260 ae3c
00000390: a0c4 aebe 1fad 40be 31c5 56be d367 da3d
000003a0: f16d 3e3e 4e10 cc3c 4ce0 9cbd 1ab3 81be
000003b0: a92b 35be b744 17be d920 563e 270f 003f
000003c0: 005f 44bc 0eda f73e a157 a8bc c4f5 2d3c
000003d0: 62b2 90be a09f d7be 0d3b b0be a4d8 f33c
000003e0: 8090 a13e fed4 07bf bff2 293f fe9e 093f
000003f0: 601a 76be 5daa 8fbe 8cec f23b cd7f 77bd
-0.01038212 0.014164023 0.013383612 -0.8401316 -0.7905941 3.9642742 -0.036510307 0.014941107
0.024013849 0.0027408355 -0.15544216 0.021225866 0.09024367 -0.0038379452 -0.08621847 -0.062312998
-0.037882943 0.02618774 -0.032994904 0.06578317 -0.027640793 0.10065922 -0.026740925 -0.024029937
0.053363085 -0.17012635 -0.04863651 -0.0145098455 0.0125180455 -0.07354591 0.029955478 -0.17844999
0.024475487 -0.18441014 0.17915066 -0.01400082 -0.025821475 -0.06172895 0.16891687 -0.21194969
0.19900414 0.15378392 -0.06985992 -0.1589961 -0.09515599 -0.081713565 0.0484347 0.06818051
0.17240319 -0.050117314 -0.030123385 -0.03236714 -0.35772815 -0.3776049 0.18190417 0.7751742
0.49140304 -0.114047155 -0.20198391 -0.17596008 -0.18072158 0.057060942 -0.17533305 -0.029150316
0.34123984 0.8372303 -0.6248106 -0.39472106 0.34447652 -0.44512954 -0.8215882 0.24377933
0.92020214 0.45664436 -0.6324042 0.43558413 0.20320529 0.10259949 0.0061559174 0.06622462
-0.13473321 0.0018483136 -0.030299416 0.22742581 -0.06733885 0.2034683 0.1309832 0.0073994785
0.079208136 0.17518756 -0.12926576 0.26080418 -0.105785854 -0.08858444 -0.08356572 -0.040062744
0.104149304 -0.070206426 0.089819685 -0.040577676 -0.00442704 -0.08620025 0.065361984 0.3066893
-0.002514589 0.06395503 0.21500108 0.05693478 0.60340565 -0.6640189 0.33363527 -0.07607262
-0.021353746 -0.085948564 2.3500462 0.85880566 -0.35586175 -0.45840207 1.2023242 -1.297328
0.0077388627 -0.3095138 0.4200237 -0.36898533 -1.6085733 0.4981088 0.74795043 1.2489966
-1.0872965 -0.37321734 0.18781883 0.18376382 0.06541441 -0.038332187 -0.036525704 0.13392845
-0.09444428 0.1323373 0.11150324 -0.11084869 -0.027199574 -0.05502528 -0.0054083406 0.10139117
-0.08685555 0.111716956 0.105426446 -0.030401213 -0.05239058 0.015967064 -0.042003192 -0.072840974
-0.081600554 -0.045753494 -0.3142038 -0.048279464 0.07258036 -0.09926334 -0.22577447 -0.17058031
-0.12658432 0.07604215 0.32950252 0.07226897 0.15719707 0.07186663 0.068209 0.013623464
0.31870797 0.84065646 -0.058903735 -0.06863654 0.012924038 -0.048605803 0.04715369 0.5823033
-0.05122602 0.06455672 0.2701492 -0.44041288 -0.5537271 0.11739203 -0.30312815 0.5346482
0.053774714 0.007638906 0.08448997 -0.010061002 0.04733485 0.10256894 -0.09008348 0.015062502
-0.038702138 0.04633291 -0.031963453 -0.06935532 -0.054351445 -0.008643117 -0.029004097 0.043144573
-0.0058473013 0.048241075 -0.11254379 0.030740598 -0.029901342 -0.017537814 0.028355496 0.005254812
0.0154646365 0.06844576 -0.013113176 -0.018035198 0.03559067 0.032123648 0.0075428616 -0.016171597
-0.2898413 -0.17564052 0.16829291 -0.33378506 1.1979845 -0.37137946 0.12914295 -0.051949024
-0.060197752 -0.25767297 0.15421952 0.021286342 -0.34134388 -0.1881604 -0.2097366 0.10664334
0.18596627 0.024910118 -0.07659969 -0.25331956 -0.17692436 -0.14772306 0.20910968 0.5002312
-0.01198554 0.4840855 -0.020549597 0.010617677 -0.28261095 -0.42113972 -0.34420052 0.029766388
0.31555557 -0.53059375 0.66386026 0.5375823 -0.24033499 -0.28059664 0.0074134525 -0.060424615

final.linears.0.bias f4 [108]
00000000: 6768 7cbc 5dab f73d e822 393d 7c5a 923d
00000010: 2037 e2bd ecbc 183d bbcc 1e3e b31f fb3c
00000020: c475 a13d c2ec 9f3d d7d4 a03d 9869 193c
00000030: db1b 0d3f 4547 a93c f2a0 ec3d 49f9 e73c
00000040: e032 dc3d bc22 ff3d 68e8 823e 5a80 ec3d
00000050: 7fd6 74bd c3d1 8c3d c5ea dabc 44a3 9f3d
00000060: 82ec 893d 3b37 b93e c848 a53d c9f8 4c3e
00000070: a3a7 5d3c 980a 973d 4ddf 3e3f 0b8f 6a3e
00000080: 6479 4d3e 2c47 133e 3e82 9a3d 972f 2e3e
00000090: 146b acbd 7f6b 1f3e b477 4b3e 869b 06bd
000000a0: 95af e53d 9b4d 2f3e ffb6 9c3e 859f 373d
000000b0: 8c1d 573d a9ec 3c3e 35e1 3d3c 8f94 103d
000000c0: b42b 3e3e aa33 e33d f509 673e 2e62 e83d
000000d0: ce39 51bb 2fe3 dd3d c744 383e f16d 773e
000000e0: 57ad a03e 9db6 bd3e 216c 0bbd 085b 133e
000000f0: 1d71 e3bb c790 1c3e df55 c3be f0a6 5c3d
00000100: c1af 4abd ba39 053f 69b2 bcbb 62cb 9d3e
00000110: a7f8 07be 69ed 1b3e b2eb 1f3e 19be 0e3e
00000120: 94f4 4abe 22bd 72bd 272e 113e d943 173e
00000130: b038 4b3e 8299 673e a2af 1e3e 5259 013e
00000140: e908 7cbe 7914 fabe 5732 16be 039d 453e
00000150: d47b 063d 28d4 203d f56f 6f3e 520a b43d
00000160: 14e0 e63e f25e 9b3c 88e7 be3d 6ed0 013e
00000170: 3fcb 203d 7d4b 013e 6827 ccbd 1f2a 8fbe
00000180: 49f6 773e 6ec8 463e 31f3 a63e 7491 1e3e
00000190: a9a0 043e 2638 e83d 3ffc 8e3d 8b2f d83a
000001a0: 0b06 3c3e a874 b93d 8bcd ba3d a21b edbc
-0.015405751 0.12093232 0.045199305 0.07146165 -0.110456705 0.037289545 0.15507786 0.030654764
0.0788379 0.0780883 0.07853096 0.009363554 0.5512063 0.020663867 0.115541354 0.02831711
0.10751891 0.12457797 0.25567937 0.115479186 -0.059774872 0.068759464 -0.026723275 0.07794812
0.067345634 0.3617495 0.080705225 0.20016779 0.013528737 0.073750675 0.7455948 0.22906129
0.20065838 0.14382619 0.07544373 0.17010342 -0.08418861 0.1556835 0.19869882 -0.032863162
0.1121513 0.17119448 0.30608365 0.044829864 0.052518412 0.18449654 0.011589338 0.035297927
0.18571359 0.110938385 0.22562392 0.11346851 -0.0031925323 0.108343475 0.17994986 0.24163033
0.31382248 0.37053385 -0.034038667 0.14390194 -0.0069409744 0.15289603 -0.38151452 0.05387014
-0.04948402 0.5204121 -0.005758573 0.3081923 -0.13278447 0.15227284 0.15617254 0.13939704
-0.19819862 -0.059262402 0.14177762 0.14771976 0.19845843 0.22617152 0.15496686 0.12631729
-0.24612774 -0.48843744 -0.1466764 0.19298176 0.032832935 0.039264828 0.23382552 0.08791031
0.45092833 0.018966172 0.09321505 0.12677166 0.03925633 0.12626453 -0.09968454 -0.27961823
0.24215044 0.19412395 0.32607415 0.15485173 0.12951912 0.113388345 0.06981706 0.0016493661
0.1836168 0.090554535 0.091212355 -0.02894384

final.linears.1.weight f4 [108, 108]
00000000: 8dea 41be 3d1e bcbd 62b2 a9bd d946 eebd
00000010: b452 32bb 4c57 22bd 00e8 84bd e789 11be
00000020: 9d82 83bd 75b1 7e3c f278 25be cc3b aebd
00000030: 9b37 10be 946b 08bc 3ee1 9fbd 0773 2bbe
00000040: 6f51 08be b609 17be 491b 96bd d449 1fbe
00000050: 188a 13bd ab89 17be 163f 97bc ba36 f5bd
00000060: 763b ecbd b8e9 273e ceef 73be 50da 32bd
00000070: d7a5 20be ad34 0dbe bbdf 0cbe 7572 1ebd
00000080: 2b18 21be e1c5 25be 70ff 173c 0e62 0dbe
00000090: 0522 cbbd 967d 84bd 3dc8 37bd 1b9c f1bd
000000a0: 248d 8bbd 5be7 43be b414 e03b 0fa5 e7bd
000000b0: d91f 083e db17 7fbd 6529 d7bd 4f60 2abe
000000c0: 3a27 70bd d7e4 e63c f3a5 65bd f5cc b1bd
000000d0: 7abf d33c ecbf b6bd 4ebe 89bd 20d8 a4bc
000000e0: bb8a f03d bb7f efbc 74f6 efbd a4cf 8dbf
000000f0: a1c7 dcbd cbec e43c 2d78 983d 66d4 33be
00000100: 10ac 06be bcd3 04be 2ba5 a7bd 953e 26bd
00000110: 43fd 67bc 19b8 a2bd 9b7f 06be 1d5b 82bd
00000120: 277a 14be b332 0fbe f1b5 c8bd 9170 b2bd
00000130: 9e2b 003d 1084 babd 8edb dabd 0b4c bfbc
00000140: 6a96 cabd efcb 8d3d a019 16bd fdef cebd
00000150: b250 17be 4d54 e8bd f0ed c8bd ae2a 0fbe
00000160: 38cc 843d 2ca1 f9bd c0be 76bd 716c c6bd
00000170: 3510 cdbd 22b3 ecbd 4bae b7bd 2da4 be3c
00000180: 4e03 263c 9211 a8bc d0c9 2cbe 0127 82be
00000190: d133 49bd 0244 12be 2576 96bd 2db1 06be
000001a0: f2c7 15be 7a74 3cbe 96fb a6bd 6374 c53d
000001b0: 3959 82bd f5da a43d baeb a5bc 2242 5abd
000001c0: 1658 b7ba 0421 5dbc 837c 3bbd 88d1 c6bc
000001d0: 55a1 9bbc b63f 8fbc 6360 72bd 915c dabc
000001e0: 07e6 eebd f3e0 c2bc 5a48 133d 6fdb 95bd
000001f0: fcf4 babd 953d 42bd b2b0 bebc 8d60 d9bc
00000200: e813 6c3c f017 b6bc a425 0fbc 8b58 c0bd
00000210: aeb6 c7bc 7252 2ebe f18e c3bd c19f 0fbd
00000220: 8ddc dcbc a8dd 29bd db90 b0bd 66f3 debd
00000230: 6787 40bd 80e3 83bd f1c0 19bd 9b61 ebbc
00000240: e84d 88bc ca0f c2bc f71c 57bd be44 d0bc
00000250: 0840 9dbd ab4a 6dbd 0bfb 00bd dcd9 80bc
00000260: f634 9cbd 4f85 f6bd 8295 76bc 84e4 dcbc
00000270: 7c41 30ba e0fa 9bbd b843 4bbd 7072 1bbc
00000280: 4dba 33be e5ca 0dbd 88e4 d938 ec3a 2bbd
00000290: 701a 0f3d 17c3 1a3d f644 f9bc e945 96bd
000002a0: 8267 06bd 5f15 8abd 9a38 523c feb4 14bd
000002b0: 530d e1bc e624 c4bd ec33 a1bc 9755 0abe
000002c0: be26 91ba 149c 2ebd 90d7 e1bc a24a 42bd
000002d0: f04d 36bd 3a13 debc efc8 abbc a6fa b4bc
000002e0: d25e d63b bb9c 9cbc d8d7 363b aa08 85bd
000002f0: e4c6 51bc 1832 153d fcdb 8abc 23ae d6bd
00000300: c7a9 66bd 8e94 0abd 7225 72be 89f9 f4bc
00000310: 4204 633e ff10 64bd 9fc9 c9bd 8f24 eabc
00000320: 30cf 46bd d8af 223f bb8c 8fbc b499 91bc
00000330: 2f13 2e3e 96fb d8bd 824d 49bd 3712 13bd
00000340: 540f 9b3c 2960 e7be e674 0b3c 4de3 56bd
00000350: d69f 87bd 24b1 543c 7ca4 febc b6c2 d23c
00000360: 0aee ea3b 167a 08be 068c 96bc 16c6 72bd
00000370: 1c68 29bb 5339 06bc 9be2 bbbe fddc 2dbc
00000380: 197e 1cbd 1a32 e6bc 60c1 3a3c 6dbc 5cbd
00000390: b6c5 a83d 934c 1bbe e6a5 9f3d 6ac7 99bd
000003a0: 31e6 833d e356 36bd c127 27bd 47f7 55bc
000003b0: eda0 c13c 006c 1bbc 7460 c2bc bb9b 0cbe
000003c0: b87b 52bc 9ce8 df3c 640b 8e3c 5e27 cbbd
000003d0: e6e7 17be 2271 13bd 94ca abbd 5065 72be
000003e0: 81b5 9dbd e17f dabd 9e58 afbd 7a3a cebc
000003f0: 9326 69bd 1cd8 473d 2273 21bd 1a20 40bd
-0.1893713 -0.09185455 -0.08285977 -0.11634607 -0.002720994 -0.039634034 -0.06489563 -0.14212762
-0.06421397 0.015545239 -0.16159418 -0.08507499 -0.14083712 -0.00832643 -0.078066334 -0.16743098
-0.13312314 -0.14749798 -0.07329423 -0.15555507 -0.03602037 -0.1479861 -0.018462699 -0.11973329
-0.11534779 0.1639775 -0.23821947 -0.04366523 -0.15688263 -0.13789625 -0.13757221 -0.038683373
-0.15731876 -0.16188766 0.00927721 -0.13806936 -0.09918598 -0.06469266 -0.044868696 -0.11797353
-0.0681403 -0.19131224 0.0068384055 -0.11310779 0.13293399 -0.06227861 -0.10505942 -0.16638301
-0.05863116 0.028185291 -0.056066465 -0.086816706 0.02584814 -0.08923325 -0.06725751 -0.020122588
0.11745211 -0.029235711 -0.11716929 -1.1078992 -0.10780264 0.027944943 0.07444797 -0.17561492
-0.13151574 -0.12971395 -0.081858 -0.040587027 -0.014159503 -0.0794527 -0.13134615 -0.06365035
-0.14499722 -0.13984184 -0.098003276 -0.087128766 0.031291597 -0.0910722 -0.10686408 -0.02335169
-0.098919705 0.06923663 -0.03664553 -0.10104368 -0.14776877 -0.11344204 -0.09811008 -0.13981125
0.06484264 -0.12188944 -0.060240507 -0.09688652 -0.10012857 -0.11557604 -0.089687906 0.023271644
0.010132624 -0.02051619 -0.1687386 -0.25420383 -0.04912168 -0.14283755 -0.07346753 -0.13153525
-0.14627054 -0.18403807 -0.08153455 0.0964134 -0.06364674 0.08049575 -0.020254005 -0.053285725
-0.0013988044 -0.013496641 -0.04577304 -0.024269834 -0.018997828 -0.017486434 -0.059173953 -0.026655467
-0.11664968 -0.023788905 0.03595767 -0.07317244 -0.09128758 -0.04742201 -0.023277614 -0.026535297
0.014409043 -0.022228211 -0.008737002 -0.09391888 -0.0243791 -0.17023638 -0.09548748 -0.035064463
-0.026960636 -0.041471153 -0.08621379 -0.10886268 -0.04700413 -0.064398766 -0.03753752 -0.028733065
-0.016638711 -0.02368917 -0.052517857 -0.025423404 -0.076782286 -0.057932537 -0.031489413 -0.015728883
-0.07627289 -0.12037145 -0.015050294 -0.026964433 -0.0006723625 -0.0761621 -0.04962513 -0.009487733
-0.17551537 -0.034617323 0.000103899336 -0.04180424 0.034937322 0.03778371 -0.030428391 -0.07337553
-0.032813556 -0.067423575 0.012830878 -0.03630542 -0.027472174 -0.0957735 -0.019678079 -0.13509212
-0.0011074168 -0.042629316 -0.027568609 -0.047434457 -0.04450792 -0.027108777 -0.020969836 -0.022092175
0.006542065 -0.019117704 0.002789965 -0.06495793 -0.012803767 0.036424726 -0.0169506 -0.10482433
-0.056314256 -0.03383308 -0.23647097 -0.029904144 0.22169593 -0.05568027 -0.09852909 -0.028581886
-0.048537433 0.63549566 -0.01752316 -0.017773487 0.16999505 -0.10594861 -0.049146183 -0.035906043
0.018928207 -0.45190552 0.0085117575 -0.052462865 -0.06622283 0.012981687 -0.031084292 0.025727611
0.0071694897 -0.13327822 -0.018377315 -0.05927094 -0.0025849408 -0.008192378 -0.36696324 -0.01061177
-0.038206194 -0.028100062 0.011398643 -0.053890634 0.08240835 -0.1516593 0.077953145 -0.07508738
0.0644039 -0.044516455 -0.040809397 -0.013059444 0.023636306 -0.009486198 -0.023727633 -0.13731281
-0.01284688 0.027332596 0.017339416 -0.09919618 -0.14834556 -0.035996564 -0.08388248 -0.2367146
-0.07700635 -0.10668922 -0.08561824 -0.025174368 -0.056921553 0.048790082 -0.03941644 -0.046905614

final.linears.1.bias f4 [108]
00000000: 1f15 18be 8c97 48bd 559d 40be c870 5dbe
00000010: f936 2dbd 5bc6 a0be 2146 29be 39c7 82be
00000020: c9b8 08be 7f0f 98bd a302 babd 7cfc 97be
00000030: 25f4 1ebd 5eb3 84be 3cbb 5bbe 9006 b6bd
00000040: 0690 c3be e988 81be 570f 0bbd 6fc6 85be
00000050: 8a66 afbd 0ab5 253d 1ea3 c6bd 19f3 83be
00000060: ccb7 4fbe 015e edbd 2e70 49be ba13 393c
00000070: 9ea9 2cbd 438a 90bd f8c6 0b3e e003 f2bb
00000080: 12fc 14be 3874 9cbd 39bd 7dbe 2cf3 4ebe
00000090: 58d3 88be 2fc7 e5bd 40f1 64be 642c 5fbe
000000a0: 34ad dbbd 7952 80bd c2de d2bd 9900 43be
000000b0: c18c 413d 9c05 38be 2101 36be a503 3fbe
000000c0: 9696 86be 9c82 b8be 7473 27be a5af 8fbd
000000d0: b877 ddbd b9e7 bfbd 8e2b c53d 0673 08be
000000e0: 7534 a5be 80ad 7ebe 86e5 40be 1d1a 37be
000000f0: 7c1f 8bbe 0796 07be 551c aebe 701d aabe
00000100: f329 41be c00c b2bd 5d9b 83be a9c1 17bd
00000110: 7790 3fbd 0009 89bd 4abc 94be db5d 0fbd
00000120: cf75 41bf 2634 c4be 1a3b d6be debd 82bd
00000130: 76a5 84be 5c7e d43e a852 cabd d246 c7bd
00000140: bf87 00be 3e10 0ebe f38e 9ebe 2b41 983d
00000150: 2945 b1bd 919a c2be de5f 18be fb5b 7dbe
00000160: a256 a4ba 01f9 2cbc 37ed a9be 24c9 a4bd
00000170: 04a8 42bb ff03 a7bd 4b5c 8ebe 9174 6bbe
00000180: fe1d 5dbe 08c6 32bd 8632 c93c 039b 80bd
00000190: 66ce 36bd 0bd0 8cbe 129e 2ebd 47ed a93c
000001a0: 686a b7be cf6d 04be d289 6abe 7ecf 4cbe
-0.14851807 -0.04897265 -0.18810017 -0.21625054 -0.042288754 -0.31401333 -0.16530658 -0.2554262
-0.1335174 -0.07424831 -0.09082534 -0.29684818 -0.038807053 -0.25918096 -0.21458143 -0.088879704
-0.3819582 -0.25299767 -0.033950176 -0.26127955 -0.0856448 0.040455855 -0.09699081 -0.25771406
-0.20284957 -0.115901954 -0.196717 0.011296207 -0.042153947 -0.07057621 0.1365012 -0.007385716
-0.14549282 -0.076393545 -0.24779214 -0.2020995 -0.26723742 -0.11219632 -0.22357655 -0.21794277
-0.10726395 -0.062657304 -0.10296394 -0.19043197 0.047253374 -0.1797089 -0.17773868 -0.18653734
-0.26286763 -0.36037147 -0.16352636 -0.070159234 -0.1081385 -0.093703695 0.09627448 -0.13325128
-0.32266584 -0.24870872 -0.18837556 -0.17881055 -0.27172458 -0.13240825 -0.3400599 -0.33225584
-0.18863659 -0.08693838 -0.2570447 -0.037049923 -0.04676863 -0.0669117 -0.29049903 -0.035001617
-0.75570387 -0.38321036 -0.41841966 -0.063838705 -0.25907487 0.41502655 -0.09879047 -0.09730305
-0.12551783 -0.13873383 -0.30968437 0.07434305 -0.086557694 -0.3800855 -0.1488032 -0.24742119
-0.0012538026 -0.010557414 -0.33188793 -0.08046177 -0.0029702196 -0.08155059 -0.2780479 -0.22993685
-0.21593472 -0.04364589 0.024560224 -0.06279566 -0.04463043 -0.27502474 -0.042631216 0.020743025
-0.3582337 -0.12932514 -0.22904137 -0.20001027

final.linears.2.weight f4 [22, 108]
00000000: acd0 503e 99d0 313e 34d5 cc3c 134f a43e
00000010: 4283 f23d 98c4 64be acbf c1bd c9e9 d9be
00000020: 95da 053e d5ee 463e 8aa7 b4be 49ac ed3d
00000030: e719 9f3d 318f 033f 4bf3 18bf 414c e0be
00000040: 6823 aebe 8ee1 ae3e af17 ebbc 69f4 dcbe
00000050: f1f4 2b3d a0d7 16be 9af8 663d 7dd5 203e
00000060: b514 0dbe 5167 e73c db7d 883e 4c1d 15be
00000070: 3fe2 3ebe 1bfa 943e 83e1 053d 5a41 683d
00000080: a694 2ebe 4144 64be 3baf 3b3e baf1 f8bd
00000090: e1da c1bd 73e9 92bd 172c 26bd 4ac7 e7bb
000000a0: d3c6 ce3e e152 3abb 31e0 8ebd 8bbb 4d3e
000000b0: 0e81 313d ee2a aabc b85c 503c 6c23 b3bd
000000c0: 67e4 163d 3fa6 64be d614 56be 5ae8 573e
000000d0: f67a b4be be0a 48be 0c93 f33c 717a 3cbd
000000e0: 996a cf3d 9a24 e13e 6170 65be 5f36 393e
000000f0: e7e2 91bd 4517 ad3d ce93 b73e 9c13 c43e
00000100: 91ca c6be 948d 94be 1857 463e 0c10 da3b
00000110: 07a5 a0bc 100e a3bd 8fca c33e 1fd6 0c3a
00000120: 6d28 6fbc d6b7 0c3f 28eb 073d 658d 43bd
00000130: 7cea 1e3f 708d 10bc d9f4 2fbe 0fc9 da3e
00000140: 2aff c8bd eec7 8b3e 18d3 b23c ff8f a6bd
00000150: 6ed2 b4bd ccbd 13bf 3963 c8bd 5a50 eabe
00000160: 7d95 793e 64a1 cc3e 6e10 463e 0837 5ebd
00000170: aa40 593c 9523 1dbe fe7c 393f ac9d 0abe
00000180: e3f8 27be 8615 433c ce92 923c 6090 6f3d
00000190: 464b 443e fe79 43bf 34ae 51bb 0313 0cbc
000001a0: 26a5 aabe 7684 11bd 4fee 07be 5621 5cbe
000001b0: a2f5 533e de6d ca3e 1c26 84bd b229 2abf
000001c0: 1d14 0e3e a10e 20bf 41a2 e3be e4db c1bd
000001d0: dce6 263d a31e 70be 0b18 c03e f1cd 553e
000001e0: 098d 72bd f12b cdbe 7ba8 a13e 0266 b83e
000001f0: 7db5 9d3e b40a 733e 6810 da3b a58c cc3d
00000200: 187d 393d a57a 93be d2d9 533d e930 363c
00000210: 1f4e 31be 8016 41be 9511 353e a9c8 5e3d
00000220: 2f04 83bd d133 883d aee0 2c3e 2470 79be
00000230: 66f7 653e 37ae 17be 8231 6f3e 1f32 b93e
00000240: 49a7 babe f496 dfbd cb16 03bf f518 a6bd
00000250: 9fbe c1be f980 e5bb 9747 b33e eb67 edbe
00000260: 9b36 f1bd c394 75bd 312e febd 1908 35bc
00000270: 816f 913d 4875 3b3e 7d53 abbd e4be c4bb
00000280: ffb3 d13d c2d3 b5bc 08b2 3c3c 6b3d 893c
00000290: 82f8 353f 58cb 203e 55e4 e9be 5e14 9f3e
000002a0: 52c8 34be c36c 7fbc 01c5 e3bd 00fc 243f
000002b0: 0547 56be a30a 95bd 24f0 5cbd 6d55 0f3c
000002c0: a8cd a93d 47ef 98bd 0a42 a6bb 6873 5e3c
000002d0: 8017 063d 07ab 0b3d c16d 19bd 5362 c9bd
000002e0: 42f4 0a3e ddc4 37bb 4adb 9d3e 420b 0bbe
000002f0: 905c 73bd edd1 913d 9393 e23e 6062 4bbe
00000300: 00da 933e 9464 a73e 0004 37be 86ff 10bf
00000310: 099f 6dbd 612d 6abe d9f1 053f 1133 343e
00000320: 8a72 fcbd be6c 893d a8d7 a7bc 76c0 a7be
00000330: 66f1 e43d ce15 91bc 7f5e 4cbc b42c d6ba
00000340: 73be f03d d2cf 9c3e bcdf 39bb afdd 123d
00000350: ef02 57be 53dd bdbd c785 ce3e 255a 12bf
00000360: a661 a7be e62d 203e 99ea a0bd e07c 72be
00000370: c94c 3ebe 62f9 b33e dfe3 9e3e 1f74 debe
00000380: f6d5 3cbe ba06 573d f092 13be cb1c 59be
00000390: 7466 b7be ea19 1cbe d62f 10bf 468e 0e3f
000003a0: d7b2 38be d120 d9be 123f b93a 67dc cfbe
000003b0: df6e 873c eb82 ffbd 6611 5f3e b029 853e
000003c0: a3ef 8e3d c79b 11be eb50 883d f6a1 12be
000003d0: e7ac 02be fb23 af3d c9f0 0e3d 1978 0dbd
000003e0: c591 a2bd cd2e 463e a73e b93e 3a27 a4be
000003f0: 6eef 69be f197 093e 315b cf3e c962 97bd
0.20392102 0.1736473 0.025004007 0.3209158 0.11841442 -0.2234062 -0.09460387 -0.42561176
0.13071664 0.19427045 -0.35284072 0.116051264 0.07768612 0.5139037 -0.59746236 -0.43808177
-0.34011388 0.3415646 -0.028697817 -0.4315522 0.04198164 -0.14730692 0.05638943 0.1570644
-0.1377743 0.028247507 0.2665852 -0.14561957 -0.18640994 0.29097065 0.032685768 0.05670295
-0.17048892 -0.22291662 0.18328564 -0.12155481 -0.09465576 -0.07173433 -0.04056939 -0.0070733177
0.40386066 -0.0028430747 -0.06976355 0.20091073 0.043335967 -0.020772424 0.012717418 -0.087469906
0.036838915 -0.22329043 -0.20906386 0.21084729 -0.35250062 -0.19535348 0.029733203 -0.046015207
0.10127754 0.43973237 -0.2240615 0.18087147 -0.07123356 0.08451704 0.35854954 0.3829621
-0.3882642 -0.29014266 0.19369161 0.006654745 -0.019609941 -0.079616666 0.38240477 0.00053724827
-0.014597041 0.5496801 0.033183247 -0.047742266 0.62076545 -0.008822784 -0.17183246 0.4273152
-0.09814294 0.27300972 0.021829173 -0.08132934 -0.08829199 -0.5771148 -0.0978455 -0.45764428
0.24373432 0.3996688 0.19342205 -0.0542517 0.013260046 -0.15345605 0.7245635 -0.1353671
-0.16403536 0.011906987 0.017892268 0.058487296 0.1916934 -0.7635802 -0.0031994702 -0.008549455
-0.33329123 -0.035526715 -0.13274501 -0.21497092 0.2069917 0.39536947 -0.06452581 -0.6646987
0.1387486 -0.6252232 -0.44459727 -0.09465769 0.04074751 -0.23449187 0.37518343 0.20879342
-0.059216533 -0.40072587 0.31573853 0.36015326 0.30802527 0.23734552 0.006654788 0.09987763
0.045285314 -0.28804508 0.0517214 0.0111200595 -0.17314957 -0.1885624 0.17682488 0.054390583
-0.06397282 0.06650508 0.16882583 -0.24359185 0.22457656 -0.14812551 0.2335873 0.36171052
-0.36455753 -0.10917464 -0.51206654 -0.08110229 -0.37840745 -0.0070039 0.35015556 -0.46368346
-0.11777993 -0.059956323 -0.12411154 -0.011049294 0.07101346 0.18306458 -0.083655335 -0.0060042012
0.1023941 -0.0221957 0.011517055 0.01675292 0.7108232 0.1570257 -0.45682016 0.31070226
-0.17654541 -0.015589896 -0.1112156 0.6444702 -0.2092553 -0.072774194 -0.053939953 0.008748394
0.08291179 -0.074675135 -0.0050737904 0.01357732 0.032737255 0.03409865 -0.037458185 -0.09833207
0.1356974 -0.0028040924 0.30831367 -0.13578513 -0.059414446 0.07120118 0.44253215 -0.19861746
0.28877258 0.32693923 -0.1787262 -0.566399 -0.058012996 -0.22868873 0.52322155 0.17597605
-0.12326534 0.06710194 -0.020488575 -0.32764024 0.111788556 -0.017710593 -0.0124737015 -0.0016340227
0.11755075 0.30627304 -0.0028362116 0.035855945 -0.20997213 -0.0927073 0.4033644 -0.571688
-0.32691687 0.15642509 -0.07857246 -0.23680449 -0.18583979 0.351512 0.31033227 -0.43447968
-0.18440995 0.05249665 -0.14411521 -0.2120239 -0.35820353 -0.1524426 -0.5632299 0.5568584
-0.18036972 -0.4240785 0.0014133176 -0.4059784 0.01653236 -0.124761425 0.2178398 0.26008368
0.06979301 -0.1421958 0.06656059 -0.14319596 -0.1276127 0.085517846 0.0348976 -0.034538362
-0.079379596 0.1935379 0.36180612 -0.32061177 -0.22845241 0.13436867 0.4049926 -0.07391889

final.linears.2.bias f4 [22]
00000000: 0536 a53c c6ea 0bbc d34d aabd e83d 1d3c
00000010: cce3 b73d 8be2 93be b9a4 2e3d fb10 713d
00000020: fd34 5cbc 0935 bcbd 7499 bf3d 769d 61bd
00000030: b869 11bc 4777 883c 069a 39bd 7761 1b3c
00000040: 1c85 343c 96aa 313d 9b48 61bc 3f6a b93d
00000050: 2b55 683c a6d7 cebc
0.02016736 -0.008539861 -0.08315625 0.009597279 0.08978996 -0.28883776 0.04263756 0.058854084
-0.013440368 -0.09189803 0.09355441 -0.055081807 -0.008875303 0.016658438 -0.045312904 0.009483687
0.011018064 0.043375574 -0.013750221 0.09053468 0.014180462 -0.025249314

layers.0.attn.0.gnn_q.weight f4 [22, 16]
00000000: e668 b4bc 8727 15b1 30ca 8c3b 0d8a 63b9
00000010: d80f 56ba 5da9 a0b3 7ee7 f83b 64ce b9b8
00000020: 7e52 4cbb 54a5 3739 a11b 99bc 2456 0fb5
00000030: cf53 6a3b 9a9a 093b 1437 8538 9521 aeb1
00000040: b01d be3c 64af caaf ca1f 86bb 6b3b 9537
00000050: def6 61ba 1790 2eb2 c905 24bc 6f3e d2b7
00000060: e1dc 9cba b301 093a d6ea df3a 2db5 c034
00000070: e9fd 5bbb d221 1bbb 7015 85b6 f115 23b2
00000080: f01f 8d3b 0cbf 0331 53cc b4ba 900c ff38
00000090: 4bf0 3f3a 7936 0534 f583 82bc ecd5 2938
000000a0: dab3 253b d8e4 d839 fff1 853b 5a96 1336
000000b0: 46c8 a4bc ae3a a739 84f3 8fb8 9007 7e31
000000c0: d2e0 7cbc b246 25b0 410d fa3b 9a90 2db9
000000d0: 5697 373a e1e2 e1b2 3328 783e 5280 4ab7
000000e0: 4e5e 87ba 6ffc 2939 ebcb 113e f6b1 9335
000000f0: 9df4 9b3e 81c0 8ebb 681c 1638 df14 71b0
00000100: 5c32 d73c f3d8 4faf 71ce 98bb 2565 39b8
00000110: 3e13 9b37 d5c1 b6b3 adf3 a03d c65a e1b5
00000120: 9b2d 58ba aab2 2bb9 460b e93d dbe2 28b4
00000130: c2f3 8f3d 0648 1fba 5247 5437 5fa7 87b0
00000140: fe67 efbd 000d d7b0 8ea5 523c 1ee5 c738
00000150: 3a73 753a 8a8e e2b3 3ce5 da3d ba0f cd37
00000160: 8ac4 f9ba 0263 86b9 9bf1 88be 5914 b6b5
00000170: 6dbf cb3e 34fc ebbb c6b5 9137 ece7 aa31
00000180: cd06 8cbc 8f28 2430 94a2 863a f824 fe38
00000190: faf5 613a 1af5 29b2 5269 11bc 1ca2 3437
000001a0: 38ef dd39 67a4 9439 f7dc c1bd 3092 1b32
000001b0: 1e62 c13c e2fe 4bbb 2348 3eb8 374b 0f32
000001c0: 7a5c d33b e445 c930 3662 663b c5df 8038
000001d0: 9341 4d39 9627 8133 f3a4 cf3b 8203 beb7
000001e0: 4357 c33a 3631 d7b9 1743 d93c 546f a635
000001f0: 283d b5bb 2f27 0c3b 034b 5ab8 df2e 62b1
00000200: eba4 1b3c c8b1 6d2f a2c4 3bbb 8485 c737
00000210: ea25 19b9 a90e 12b3 aa82 1fbd 9548 eb36
00000220: 2d42 0aba 2297 1a3a 04e4 58bc f0f1 9db4
00000230: 377c babc 3e67 753b 0ec5 0037 d0d8 e731
00000240: f044 87bc da7a 9630 4804 ea3b 0d2b b238
00000250: 819a a53a 6303 18b3 81ef de3c 21d8 8338
00000260: a335 f9b9 cf63 76ba f509 643c a261 0136
00000270: 4dc1 1a3d 3e77 15bb e81e 0a38 1a91 44b1
00000280: 4302 e23c e5bf 4c30 ff9c 2abc e2ef b736
00000290: a4b6 cc3a 03cd acb2 089a c7bc 2fa8 0738
000002a0: 0670 9ab9 25b7 ffb8 ff8a 303c b0dc c935
000002b0: 6a33 82bc b4c3 a2bb 7cf3 0db7 5f8b 02b1
000002c0: f00f acbc 4881 c4b0 e4ae dd3a d094 6db8
000002d0: dc32 dcb9 3592 61b3 e97d 48bc 7c1c 14b7
000002e0: a008 f4ba 1e75 cf39 bff8 8fbd eb94 96b4
000002f0: e02e f03c f1d7 dd3b 521b 0538 0492 13b1
00000300: f454 94bc afad ce2f 47f5 df3b 2887 48b8
00000310: 556f e9ba e548 b133 d3d6 8a3c 0c5f 7cb8
00000320: c3dd 843a d060 fcb9 83e0 49b8 b650 9735
00000330: c682 d93c 0c15 293b 4b95 d6b7 cfea 5bb2
00000340: 9968 a7bb b1ce 3d30 9238 323b 97e3 8938
00000350: 93f1 ff3a 16d9 f9b3 1b41 c8bc be45 7f38
00000360: d1b3 8239 3a68 8cb9 9fb9 4abb d704 8636
00000370: 7bd4 c7bc 6c96 3abb 8b74 a737 eeb4 7332
00000380: facb 4dbc 8097 9ab0 64f4 2f3a 4a5c a436
00000390: 29fa a83a acb5 e4b3 c5bd 1eba 0cf0 b938
000003a0: 8537 17bb 3237 f939 4e60 ddbc f778 5f36
000003b0: 9499 4e3c 20dd 253a 21c0 e237 fa57 8230
000003c0: 7d01 9fbc ad67 e3b0 cb19 553b a88f b637
000003d0: 2c8b 8dba 2a91 a2b3 a6a9 923c 5bbb 42b8
000003e0: 0004 ebba 46db 2639 07c5 ee3b be48 23b6
000003f0: d62e ec3c f22b 95ba 1511 9237 5aab 8d30
-0.022022676 -2.1704822e-09 0.0042965636 -0.00021699835 -0.0008165813 -7.4813876e-08 0.0075959554 -8.859931e-05
-0.00311771 0.0001751383 -0.018689932 -5.3397e-07 0.003575552 0.002099669 6.352193e-05 -5.0678843e-09
0.023207515 -3.6868208e-10 -0.004093145 1.7789853e-05 -0.0008619855 -1.0160895e-08 -0.010011145 -2.5063024e-05
-0.0011967683 0.00052263885 0.0017083536 3.589461e-07 -0.003356809 -0.0023671282 -3.9662045e-06 -9.492838e-09
0.0043067858 1.9171607e-09 -0.0013793804 0.000121616875 0.0007321878 1.2406407e-07 -0.015932063 4.049197e-05
0.0025284202 0.00041369232 0.004087686 2.1992223e-06 -0.020115029 0.00031896442 -6.86413e-05 3.6966163e-09
-0.015434461 -6.0127114e-10 0.0076309745 -0.00016552434 0.0007003447 -2.629662e-08 0.24234085 -1.2070015e-05
-0.0010327788 0.00016211135 0.14237945 1.1004147e-06 0.30460063 -0.0043564443 3.5789242e-05 -8.770495e-10
0.02626913 -1.8903616e-10 -0.0046632816 -4.4201635e-05 1.84864e-05 -8.510293e-08 0.078589775 -1.6790225e-06
-0.0008246542 -0.00016374388 0.11379103 -1.5728749e-07 0.07028915 -0.0006076101 1.265279e-05 -9.870113e-10
-0.11689757 -1.5647004e-09 0.012856854 9.531736e-05 0.00093631784 -1.0549873e-07 0.10688254 2.4445228e-05
-0.0019055766 -0.00025632238 -0.2674683 -1.3565979e-06 0.39794484 -0.007201696 1.7369992e-05 4.9740176e-09
-0.017093087 5.972049e-10 0.0010271841 0.0001211855 0.0008619722 -9.892824e-09 -0.008875208 1.076658e-05
0.00042330637 0.0002835125 -0.09465974 9.055427e-09 0.023606356 -0.0031127264 -4.5366713e-05 8.340797e-09
0.006450233 1.4644539e-09 0.0035153753 6.145196e-05 0.00019574752 6.014231e-08 0.006336802 -2.2651398e-05
0.0014903325 -0.0004104466 0.026521249 1.2400365e-06 -0.005530972 0.002138566 -5.204511e-05 -3.2913972e-09
0.009499769 2.1618185e-10 -0.0028651138 2.3784822e-05 -0.00014605341 -3.4006607e-08 -0.03894297 7.0119954e-06
-0.0005274143 0.00058971543 -0.013237957 -2.9419562e-07 -0.022764308 0.003744557 7.675275e-06 6.7476336e-09
-0.016512364 1.0948853e-09 0.0071416236 8.49572e-05 0.0012634547 -3.5393338e-08 0.027213814 6.286824e-05
-0.00047532943 -0.0009399028 0.01391839 1.9279328e-06 0.037782002 -0.002280667 3.2930548e-05 -2.8604235e-09
0.02758897 7.4487466e-10 -0.010413407 5.481751e-06 0.0015618396 -2.0116664e-08 -0.02436544 3.234314e-05
-0.00029456633 -0.00012193461 0.010775327 1.5039896e-06 -0.015893657 -0.0049671773 -8.4609455e-06 -1.8996713e-09
-0.021003693 -1.4297621e-09 0.0016913083 -5.6643796e-05 -0.00041999563 -5.251987e-08 -0.012237051 -8.8281195e-06
-0.0018618293 0.00039569376 -0.070298664 -2.804803e-07 0.029319227 0.006770127 3.1735115e-05 -2.1474316e-09
-0.018106915 3.759459e-10 0.0068346593 -4.780959e-05 -0.0017809669 8.255464e-08 0.01694814 -6.017e-05
0.0010136891 -0.00048137316 -4.8131227e-05 1.1273867e-06 0.026551615 0.0025799898 -2.5580308e-05 -1.2800867e-08
-0.0051089046 6.9051526e-10 0.0027194363 6.575061e-05 0.0019526951 -1.1634454e-07 -0.024445107 6.086169e-05
0.00024929506 -0.00026780536 -0.0030933393 3.9940746e-06 -0.02439331 -0.0028471006 1.996222e-05 1.41856e-08
-0.012560839 -1.1248034e-09 0.0006712137 4.8983247e-06 0.0012891936 -1.0650123e-07 -0.00060554995 8.8662e-05
-0.0023073864 0.00047534105 -0.02702346 3.33e-06 0.012609858 0.00063272007 2.7030766e-05 9.483749e-10
-0.01940989 -1.654589e-09 0.0032516595 2.1762986e-05 -0.0010798923 -7.570118e-08 0.01790316 -4.6427693e-05
-0.0017930269 0.0001591268 0.007286671 -2.4331234e-06 0.028830927 -0.0011380895 1.741251e-05 1.0307801e-09

layers.0.attn.0.gnn_q.bias f4 [16]
00000000: 7948 2abe ede7 4530 8510 a53c fa01 0f39
00000010: 104a bcba 278b 8733 bc69 b53e 84c8 2cb8
00000020: 4f0e e33a 0a97 f339 852e a7bd 7de6 8cb5
00000030: 2189 2f3f 14ba 833b 8008 47b8 1da0 20b1
-0.16629209 7.199777e-10 0.020149479 0.00013638279 -0.0014365334 6.311739e-08 0.3543223 -4.119474e-05
0.001732299 0.00046461105 -0.0816317 -1.0497894e-06 0.6856862 0.004019985 -4.7453213e-05 -2.3374078e-09
