checkpoints/ames_33_train1_neg/Aug22-13:52:35_700.pth (torch, 377407 bytes, 294 tensors)

layers.0.weight f4 [10, 16]
0	0x3e98109d	0.29700175
1	0x3fa1bfa7	1.2636613
2	0xbedfb235	-0.4369065
3	0x3f556fd9	0.8337379
4	0x3c3b7f80	0.011443973
5	0x3f5ecf94	0.8703549
6	0xbe002ef8	-0.12517917
7	0x3f3cfca4	0.73823
8	0x3fa09a6e	1.2547128
9	0xbf8a85a6	-1.0822036
10	0xbe289f9c	-0.16467136
11	0x3c11d1d4	0.008900125
12	0xbe05fac0	-0.13083935
13	0x3f5becce	0.8590821
14	0xbf0eddc7	-0.55807155
15	0xbec6f8ef	-0.38861796
16	0x3f07769f	0.52915376
17	0xbe7ccc0b	-0.24687211
18	0xbf277584	-0.6541369
19	0x3f80ae40	1.0053177
20	0xbe2cea7a	-0.1688632
21	0xbe3b5a1d	-0.18296094
22	0xbe1a3118	-0.1505779
23	0x3f5ee264	0.87064195
24	0xbfb6dfff	-1.4287108
25	0xbea92605	-0.3303682
26	0xbf4bae5f	-0.79562944
27	0xbe1dc276	-0.15406212
28	0x3db9229d	0.09039805
29	0x3e33305b	0.17498915
30	0x3fc40135	1.5312868
31	0xbef829b6	-0.48469323
32	0x3f31bc23	0.694277
33	0xbe91373c	-0.28362453
34	0xbee6abbe	-0.45052904
35	0x3e7c221a	0.24622384
36	0x3eca97b1	0.39568856
37	0x3eedd5ca	0.4645217
38	0x3e7f59e6	0.24936637
39	0xbec7e6e9	-0.39043358
40	0x3ec20e10	0.37901354
41	0xbe078048	-0.13232529
42	0x3edf4df8	0.43614173
43	0x400e05c0	2.219101
44	0x3f2b020b	0.6679999
45	0xbeb12c01	-0.34603885
46	0x3f2c0641	0.6719704
47	0x3f088857	0.5333304
48	0x3e6ca4b2	0.23109701
49	0xbed5963d	-0.41716185
50	0xbf160818	-0.586061
51	0xbde028be	-0.10945271
52	0xbf32322f	-0.69607824
53	0x3e8da727	0.2766659
54	0x3f234129	0.637713
55	0x3cc8ff14	0.024535693
56	0x3d8953f2	0.067054644
57	0xbf51f2cb	-0.820111
58	0x3f931c40	1.1492996
59	0xbf2549b2	-0.64565575
60	0xbcfe81f3	-0.031067824
61	0xbecd9b61	-0.40157607
62	0x3ef318df	0.47479913
63	0xbdafcde7	-0.08584195
64	0x3ece729d	0.40321818
65	0xbe9f7016	-0.31140202
66	0x3f1cd14d	0.6125687
67	0x3ddf131a	0.10892315
68	0x3ea46b81	0.3211327
69	0x3e501f3a	0.20324412
70	0x3fa26299	1.268634
71	0x3decbe43	0.11559727
72	0x3eba6aef	0.3640971
73	0xbf66b0fd	-0.9011381
74	0xbf3a5f16	-0.7280134
75	0xbf31ea1f	-0.69497865
76	0xbd875472	-0.066079035
77	0xbdb7679a	-0.08955307
78	0x3eecbadb	0.4623631
79	0x3faa3f90	1.3300648
80	0x3e11e86f	0.14248823
81	0xbfa6aa86	-1.302079
82	0xbe54a264	-0.20765072
83	0xbe2279bd	-0.15866752
84	0x3f1948d6	0.59876764
85	0x3f626b26	0.88444746
86	0x3e983567	0.29728243
87	0xbf4cdb0c	-0.8002174
88	0xbfab3b59	-1.3377486
89	0xbe2db36b	-0.16962974
90	0xbd7e9afa	-0.062159516
91	0xbd0cfd4b	-0.034421246
92	0x3ed37ef7	0.41307804
93	0x3f73db4b	0.9525649
94	0xbf9bde95	-1.2177302
95	0xbec54649	-0.38530186
96	0x3f0e2676	0.55527437
97	0x3f4aca6c	0.7921512
98	0xbebd01cc	-0.36915433
99	0xbf9b1246	-1.2114952
100	0xbe4789ac	-0.19486111
101	0x3f44b0c6	0.76832235
102	0xbef6f5b8	-0.48234344
103	0xbfb6232f	-1.4229487
104	0xbed71e39	-0.42015246
105	0xbf029776	-0.5101236
106	0xbf00f591	-0.50374705
107	0xbd73388b	-0.059380095
108	0xbf60ec12	-0.87860215
109	0xb902fc70	-0.00012491806
110	0x3f9e30cb	1.235864
111	0xbe783592	-0.24239185
112	0x3e98c456	0.29837292
113	0xbf86627e	-1.0498807
114	0xbf4a2553	-0.789632
115	0xbd84c5ef	-0.06483065
116	0x3e0c2ad2	0.1368821
117	0xbfa3129b	-1.2740053
118	0xbf5a4ad8	-0.8527045
119	0xbeb7d008	-0.35900903
120	0x3ee4bb53	0.44674167
121	0xbf5aef6b	-0.8552157
122	0xbef42e38	-0.47691512
123	0xbe4b202b	-0.1983649
124	0x3df7bb9c	0.120963305
125	0xbf029ec7	-0.51023525
126	0xbf1f7c8e	-0.6229943
127	0xbd99d14f	-0.075106256
128	0x3f03c9a5	0.5147956
129	0xbed6a5f5	-0.4192349
130	0x3faa8c13	1.3323997
131	0x3eb44c74	0.3521458
132	0xbebd4693	-0.36967906
133	0x3f157dfd	0.5839537
134	0xbeeebbe9	-0.4662774
135	0xbe9bbf20	-0.30419254
136	0xbf095531	-0.53645617
137	0xbf0c1c23	-0.54730433
138	0xbea39098	-0.31946254
139	0xbe8a4b8a	-0.27010757
140	0x3ed400a3	0.41406736
141	0xbf6c339c	-0.9226625
142	0x3da96139	0.08270497
143	0xbec3ffc5	-0.38281074
144	0xbf05c86d	-0.5225895
145	0x3f878069	1.0586063
146	0x3eed83f1	0.46389726
147	0x3f9b0330	1.2110348
148	0x3ed50cec	0.4161142
149	0xbfb16039	-1.385749
150	0x3e99a8ee	0.30011696
151	0xbf9123d4	-1.1339059
152	0xbeb61f97	-0.35570976
153	0xbf2c6ea6	-0.67356336
154	0x3f175431	0.5911284
155	0xbe3f083b	-0.18655483
156	0x3e998675	0.29985395
157	0xbd18aa5c	-0.037271842
158	0x3d8ad3b4	0.067786604
159	0x3c465a3f	0.012106477

layers.0.bias f4 [16]
0	0xbf389ee2	-0.72117436
1	0xbe682483	-0.22670178
2	0xbdeca66c	-0.1155518
3	0x3eea4447	0.45755216
4	0x3ebffc9b	0.3749741
5	0x3e9f8aa2	0.31160456
6	0xbd7ad74d	-0.061240483
7	0xbdbe93da	-0.09305544
8	0x3e98af3b	0.2982119
9	0x3eb08486	0.34476107
10	0xbe85726a	-0.26063854
11	0xbedcd2c3	-0.43129548
12	0xbf2064c0	-0.6265373
13	0xbeb30366	-0.3496353
14	0xbc0e1275	-0.008671393
15	0xbf4b1fc0	-0.7934532

layers.1.weight f4 [16, 16]
0	0x3efb641b	0.49099812
1	0x3ed8e1c5	0.42359748
2	0xbc601601	-0.013677121
3	0xbf01c62a	-0.50693
4	0x3f19168d	0.59800035
5	0xbf2b0497	-0.6680388
6	0xbf6867f1	-0.907836
7	0x3f31b726	0.6942009
8	0x3ec9a272	0.39381748
9	0xbf304b2d	-0.6886471
10	0xbed235af	-0.41056582
11	0xbe78e3ed	-0.24305697
12	0xbdfc0a96	-0.123067066
13	0xbcfb3e99	-0.030669497
14	0x3df7af89	0.120940275
15	0xbe66e960	-0.22549963
16	0xbe714684	-0.23562056
17	0x3efcf366	0.49404448
18	0x3f15ccfd	0.5851591
19	0xbf38a4d7	-0.72126526
20	0x3c073c4c	0.008254122
21	0x3f2ffd0c	0.68745494
22	0x3ee7b247	0.45253202
23	0xbf30fa92	-0.6913234
24	0x3f1222a3	0.570841
25	0x3f430538	0.7617984
26	0x3e133dd1	0.1437905
27	0x3e227c8f	0.15867828
28	0x3e3a74a8	0.18208563
29	0xbeaa843f	-0.3330402
30	0x3e2ca395	0.16859277
31	0x3dd5af28	0.10433799
32	0x3ec95ecc	0.39330137
33	0x3d9ae607	0.075634055
34	0xbe0da8f8	-0.13833988
35	0x3e09e013	0.13464384
36	0x3dd9e7ae	0.106398925
37	0x3e8e57eb	0.2780145
38	0x3ddcdfb9	0.10784859
39	0xbe1e2785	-0.15444763
40	0xbf2a57ce	-0.6654023
41	0xbe8ff648	-0.28117585
42	0x3f5a96f4	0.85386586
43	0x3db00543	0.085947536
44	0x3f694186	0.91115606
45	0xbea75f43	-0.32689866
46	0x3e88f826	0.26751822
47	0xbf29baca	-0.6630064
48	0x3dcc829b	0.099858485
49	0x3e2e7fd1	0.17040946
50	0x3fadc04f	1.3574313
51	0x3e2a7364	0.1664558
52	0xbe50852a	-0.20363298
53	0xbf0782b7	-0.5293383
54	0xbd8d8049	-0.06909234
55	0x3f00c382	0.5029832
56	0x3d3b6fdb	0.04576097
57	0xbd8e47c1	-0.0694728
58	0x3d9cd6ed	0.07658181
59	0xbe18edde	-0.14934489
60	0xbf098070	-0.53711605
61	0x3e83a992	0.2571531
62	0xbea710a0	-0.3262987
63	0xbebdbd81	-0.37058643
64	0xbea48574	-0.32133067
65	0x3f06fb4b	0.5272719
66	0x3f202047	0.6254925
67	0x3f50a56a	0.815024
68	0xbf4dd8df	-0.80409044
69	0xbf18b608	-0.5965276
70	0xbdef57cd	-0.116866685
71	0x3ef90262	0.4863463
72	0x3dbd9f4d	0.092589
73	0x3f0b4daf	0.5441541
74	0x3f1fc8b7	0.6241564
75	0xbe7703e5	-0.2412258
76	0x3e4467aa	0.1918017
77	0xbed14f47	-0.40880796
78	0xbf0c2634	-0.54745793
79	0xbdbb40ab	-0.09143194
80	0x3e4ec91f	0.20193909
81	0xbeaad936	-0.33368844
82	0xbe8b56d2	-0.27214676
83	0xbf631885	-0.8870929
84	0xbe3ad30d	-0.18244572
85	0xbf0fe052	-0.5620166
86	0xbe9b1bf2	-0.30294758
87	0x3eb73c60	0.3578825
88	0xbf11d555	-0.56966144
89	0x3e594bda	0.21220341
90	0xbeada0eb	-0.33911833
91	0xbe52fa67	-0.20603333
92	0xbf113388	-0.56719255
93	0x3db194a2	0.086709276
94	0xbea9a737	-0.33135387
95	0xbefb4e26	-0.4908306
96	0x3f04d496	0.5188688
97	0xbf3b2a00	-0.7311096
98	0x3e071dd7	0.13194977
99	0x3f5911e0	0.847929
100	0x3db3ba99	0.08775825
101	0xbf2b6c48	-0.669621
102	0xbe26c8d1	-0.16287543
103	0xbeb330fd	-0.34998313
104	0xbe7fe527	-0.24989758
105	0x3f7228db	0.9459359
106	0xbe5969e3	-0.21231799
107	0xbd9ac976	-0.07557957
108	0x3e9f3f9b	0.31103215
109	0xbecfd42d	-0.40591565
110	0x3d837459	0.06418676
111	0xbef84d49	-0.48496464
112	0x3eaac7dc	0.33355606
113	0x3c26061b	0.010133292
114	0x3d887c4b	0.06664332
115	0xbf0f0701	-0.5587006
116	0x3c8a151c	0.016855769
117	0x3edab1ac	0.42713678
118	0x3e7636a6	0.24044284
119	0xbf908bda	-1.1292679
120	0x3e304a28	0.17215788
121	0xbed558cb	-0.41669306
122	0x3e70fd77	0.23534189
123	0x3df5e76a	0.12007029
124	0x3e67a765	0.2262245
125	0xbe3eed0a	-0.1864511
126	0x3e269b75	0.1627024
127	0x3eea0343	0.45705613
128	0x3da64587	0.0811873
129	0xbe95b228	-0.29237485
130	0x3f508bee	0.81463516
131	0xbf788647	-0.9707989
132	0xbd98f0a5	-0.07467774
133	0xbf39e8ab	-0.7262065
134	0xbea4e8ee	-0.3220896
135	0xbf1ba1b7	-0.6079363
136	0xbf89546b	-1.0728887
137	0x3d0a9b07	0.03383925
138	0xbe573255	-0.21015294
139	0xbe63de84	-0.22252852
140	0x3c95bc2a	0.0182782
141	0xbe3abcb5	-0.18236049
142	0xbe755fb6	-0.23962292
143	0xbd361d00	-0.04446125
144	0xbf2d7c25	-0.67767555
145	0x3eb71c7d	0.35763922
146	0xbed528c4	-0.41632664
147	0x3e2ef24b	0.17084615
148	0xbe2cc594	-0.16872245
149	0x3ef157c4	0.47137272
150	0x3f4163f4	0.7554314
151	0xbef53700	-0.47893524
152	0xbf558bd9	-0.83416516
153	0x3eb2f132	0.34949642
154	0x3f0fd74f	0.5618791
155	0x3dcd2772	0.10017289
156	0x3dd2e0ef	0.10296809
157	0x3efa3f6f	0.4887652
158	0xbe9f46db	-0.31108746
159	0x3f041609	0.5159612
160	0xbf0b18d0	-0.54334736
161	0xbe654d9e	-0.2239289
162	0x3f4b6ffb	0.79467744
163	0x3f495342	0.78642666
164	0x3da53100	0.08065987
165	0xbd782ebf	-0.060591456
166	0xbf089509	-0.5335241
167	0xbf191ebf	-0.5981254
168	0xbf17398c	-0.59072185
169	0x3d8f43a9	0.06995327
170	0xbf201a26	-0.625399
171	0xbdd9a669	-0.10627443
172	0xbfb150c4	-1.3852773
173	0xbe4cc759	-0.1999792
174	0xbc6b5505	-0.014363532
175	0xbf2e40b7	-0.68067497
176	0xbe5bd7e0	-0.21469069
177	0x3f5c3848	0.8602338
178	0xbe81443f	-0.2524738
179	0xbc99e452	-0.01878563
180	0x3d7dce58	0.061964363
181	0xbf52b662	-0.82309544
182	0xbeeebcda	-0.46628457
183	0xbf09aaf1	-0.5377646
184	0xbe5ddf9f	-0.21667336
185	0xbc63295d	-0.013864842
186	0x3f38ab55	0.7213643
187	0xbcd366d3	-0.025805866
188	0xbf9abcfd	-1.2088925
189	0xbe7608a9	-0.24026741
190	0xbdd7132c	-0.105017036
191	0xbedc8cd4	-0.43076193
192	0x3dd7d2ec	0.10538277
193	0x3eeb3744	0.45940602
194	0x3ecd5361	0.40102676
195	0x3ef104eb	0.47074065
196	0x3ee9d03c	0.45666683
197	0xbecffff9	-0.4062498
198	0xbf6704ea	-0.90241873
199	0x3f443181	0.76638037
200	0xbe0a173b	-0.13485424
201	0xbf02be2a	-0.5107142
202	0xbe81a5c8	-0.25321794
203	0xbe82cc06	-0.25546283
204	0xbf20b8aa	-0.62781775
205	0x3e27ba0f	0.1637957
206	0x3d8af630	0.06785238
207	0xbee29922	-0.44257456
208	0xbdf617df	-0.12016272
209	0xbe4924c0	-0.19642925
210	0x3ed9f124	0.42566788
211	0x3e9bf06e	0.3045687
212	0x3d936bfc	0.07198331
213	0x3e968550	0.29398584
214	0xbe112e1d	-0.14177747
215	0xbd377e12	-0.044797964
216	0xbd7db872	-0.06194348
217	0x3f60d04f	0.87817854
218	0x3f283d0c	0.6571815
219	0x3d9d2f1f	0.07675003
220	0x3f16db8c	0.5892875
221	0xbf22a8dd	-0.63538915
222	0x3f02d955	0.5111287
223	0x3f50a4f5	0.81501704
224	0x3eb90d6d	0.36143056
225	0x3e97be24	0.29637253
226	0xbef11e56	-0.47093457
227	0xbf44bb74	-0.7684853
228	0x3da46c01	0.080284126
229	0xbf38816f	-0.720725
230	0xbf17dcf7	-0.5932154
231	0x3d05a0b4	0.03262396
232	0x3f9e6340	1.2374039
233	0x3eb76558	0.35819507
234	0xbee786a2	-0.45219904
235	0xbe88b187	-0.26697943
236	0xbeaee636	-0.34160012
237	0x3e887950	0.26655054
238	0xbe5c9467	-0.21540986
239	0xbf1d58ff	-0.6146392
240	0x3e0c60f3	0.13708858
241	0x3e1dccd8	0.15410173
242	0xbe5338d6	-0.2062715
243	0x3de2faa2	0.11082961
244	0x3ed511c7	0.41615126
245	0xbf8719e9	-1.0554782
246	0xbfbbd22e	-1.4673517
247	0xbf1cb36c	-0.61211276
248	0xbf08bc1c	-0.5341203
249	0x3e38411a	0.17993584
250	0xbe35189c	-0.17685169
251	0xbeaad82a	-0.33368045
252	0x3f1a2e16	0.6022657
253	0xbe245983	-0.16049771
254	0x3ef018b6	0.46893853
255	0xbeb4c3e2	-0.35305697

layers.1.bias f4 [16]
0	0x3e90966a	0.28239757
1	0x3eca3b93	0.39498577
2	0xbe7e1b95	-0.24815209
3	0x3e507286	0.20356187
4	0x3efc6f55	0.4930369
5	0xbe49123a	-0.19635859
6	0xbf7696db	-0.9632394
7	0xbe883d26	-0.26609153
8	0x3e87660a	0.26445037
9	0xbe941efb	-0.28929886
10	0xbe0313f2	-0.12800577
11	0x3d422c40	0.04740548
12	0xbe5355d9	-0.20638217
13	0xbedfebc4	-0.43734562
14	0xbe6781d1	-0.22608115
15	0xbef45967	-0.4772446

final.linears.0.weight f4 [84, 42]
0	0xbd992f66	-0.07479744
1	0x3f443512	0.7664348
2	0xbf1b9b39	-0.60783726
3	0xbf19175b	-0.5980126
4	0xbefcc0bd	-0.49365798
5	0xbfbee11f	-1.4912452
6	0xbfcdbf79	-1.6074058
7	0x3ecb80ed	0.397468
8	0x3e42758e	0.18990156
9	0x3eb2eb32	0.34945065
10	0xbcd5ac71	-0.026083203
11	0xbe956272	-0.2917667
12	0x3dc975e1	0.09836937
13	0xbddebe6b	-0.10876163
14	0x3dda2395	0.10651318
15	0xbca29843	-0.019847995
16	0x3d064167	0.032777216
17	0xbe492450	-0.19642758
18	0xbd9036a8	-0.07041675
19	0x3ce1d151	0.02756563
20	0x3e62e55a	0.22157803
21	0x3d62b708	0.055350333
22	0x3dee6d72	0.11641969
23	0x3e3e2c8d	0.18571682
24	0xbe3c6007	-0.18396007
25	0x3dc93be5	0.09825877
26	0x3da8895f	0.082293265
27	0x3d975370	0.07388961
28	0x3e2c2ff2	0.16815165
29	0xbd58b23a	-0.052904345
30	0xbda65335	-0.08121339
31	0x3d8f20eb	0.069887005
32	0xbe537a56	-0.20652136
33	0xbe980462	-0.29690844
34	0x3d495279	0.049150918
35	0xbe2440e4	-0.16040379
36	0xbb21ff94	-0.0024718987
37	0x3cc391d7	0.023873253
38	0x3cf6f647	0.030146731
39	0xbd934f1a	-0.07192822
40	0xbd9292f6	-0.07156937
41	0x3d6eeef1	0.05833334
42	0xbdb5e0e8	-0.08880788
43	0xbe6ccd1d	-0.2312512
44	0xbec70471	-0.38870576
45	0x3f076efd	0.5290373
46	0x3f1602c4	0.5859797
47	0xbf018bb7	-0.5060381
48	0x3f556f0a	0.8337256
49	0xbc9e677c	-0.019336455
50	0xbeb4b8c6	-0.3529722
51	0xbf7696ab	-0.9632365
52	0xbd0545a9	-0.032537136
53	0x3d5f9cea	0.054593004
54	0x3e92390c	0.28559148
55	0x3f35a38e	0.7095269
56	0x3f32f756	0.69908655
57	0xbe245c5f	-0.16050862
58	0xbcddadc8	-0.027060404
59	0xbe254121	-0.16138126
60	0xbe2e95c6	-0.17049322
61	0xbe874ea7	-0.26427194
62	0x3e8e7c2f	0.2782912
63	0x3edf935d	0.43667117
64	0x3f510c4d	0.81659395
65	0x3da8bc9e	0.08239101
66	0xbe8a3015	-0.2698981
67	0xbe0e81cf	-0.13916706
68	0xbc7f3397	-0.015576265
69	0xbe3148b5	-0.17312892
70	0xbe81d6f7	-0.25359318
71	0xbe253a1b	-0.16135447
72	0x3d0f6507	0.035008457
73	0x3d72b60d	0.05925565
74	0x3e40386a	0.1877152
75	0xbe045cfd	-0.12926097
76	0x3df9efa1	0.12203909
77	0x3c766cd2	0.015040593
78	0x3c4bf620	0.0124488175
79	0x3ecbdb48	0.39815736
80	0x3c010204	0.007874016
81	0x3e45258d	0.19252606
82	0x3c1c9075	0.009555926
83	0x3e041eab	0.12902324
84	0xbf4bde0a	-0.7963568
85	0xbe97ebe1	-0.2967215
86	0x3e59e9dc	0.21280617
87	0x3f357fc9	0.7089811
88	0x3ea5cbb5	0.3238198
89	0x3f1a0238	0.60159636
90	0xbf00fe4a	-0.50388014
91	0xbe1aaf30	-0.15105891
92	0x3f0c44ac	0.54792285
93	0x3f2f1c2b	0.68402356
94	0x3d091d66	0.033475302
95	0xbe1448ca	-0.14480892
96	0x3e216ad4	0.15763408
97	0xbe26d866	-0.16293487
98	0xbe1c7fc1	-0.15283109
99	0xbcc0ed9f	-0.023550807
100	0x3de1ffc4	0.110351115
101	0xbd63f7fb	-0.055656414
102	0x3b7bf5da	0.00384461
103	0xbb803625	-0.0039127045
104	0x3ccfbf0d	0.025359655
105	0x3c518113	0.012787121
106	0x3d5df8a1	0.05419219
107	0x3d58ac09	0.05289844
108	0xbdb473d2	-0.088111535
109	0x3d8670be	0.065644726
110	0xbd7f3806	-0.062309287
111	0x3d93037f	0.07178401
112	0x3d0531ec	0.032518312
113	0xbb8a22b3	-0.0042155623
114	0x3c99c40b	0.018770238
115	0x3dc84ae8	0.09779912
116	0x3cb45ddc	0.022017412
117	0x3d2f0f87	0.042739417
118	0xbd4081d1	-0.046998803
119	0xbd4a7812	-0.049430914
120	0xbb8d1769	-0.004305769
121	0x3dbc981c	0.092087
122	0x3cc40f6f	0.02393314
123	0x3bbbfe18	0.0057370774
124	0xbc6e12e4	-0.014530871
125	0x3d5d50e1	0.05403221
126	0xbf3e14eb	-0.7425067
127	0xbcabe788	-0.020984426
128	0x3d71aa11	0.05900008
129	0xbe5c17a6	-0.21493396
130	0xbe70285d	-0.23452897
131	0x3ed05940	0.40693092
132	0x3f1890c5	0.595959
133	0xbf1389d2	-0.5763217
134	0xbfed21b7	-1.8525914
135	0x3d8786b2	0.06617488
136	0xbe05a8aa	-0.13052621
137	0x3e830aa0	0.25594044
138	0xbe88894f	-0.26667258
139	0xbeb3014d	-0.3496193
140	0x3dfa0392	0.12207712
141	0xbeadc5d8	-0.33940005
142	0x3e98f52f	0.2987456
143	0x3e1b4226	0.15161952
144	0xbec57124	-0.38562882
145	0x3f15c7e1	0.58508116
146	0x3dc27101	0.0949421
147	0x3dd1ab7e	0.10237788
148	0xbe0d7d36	-0.13817295
149	0x3da3a17c	0.07989785
150	0x3eeb10ac	0.45911157
151	0x3ec4af79	0.38415125
152	0xbd3d4175	-0.046205003
153	0x3dec739f	0.115454905
154	0xbecdfc08	-0.40231347
155	0xbdf8a822	-0.12141444
156	0x3e0431a9	0.12909569
157	0xbe09f9a6	-0.1347414
158	0x3df7c42b	0.12097963
159	0xbe7a2121	-0.244267
160	0x3e879672	0.26481968
161	0x3e4b1158	0.19830835
162	0xbdeb4fa3	-0.11489799
163	0x3e43625f	0.19080494
164	0x3cbb5b31	0.022870632
165	0x3e8dd86e	0.27704185
166	0x3cd7314b	0.026268622
167	0x3cb454d0	0.022013098
168	0xbcef0219	-0.029175805
169	0xbd26a4bf	-0.040684458
170	0xc0703e17	-3.7537897
171	0x3f50099f	0.8126468
172	0x3f89b119	1.0757171
173	0x3da42612	0.08015074
174	0x3d90545f	0.070473425
175	0x3ea6b686	0.3256113
176	0x3e95d7c8	0.2926619
177	0x3e077377	0.1322764
178	0xbee0a5e5	-0.43876567
179	0xbddee037	-0.10882609
180	0x3da4188f	0.08012497
181	0x3df18a72	0.117939845
182	0x3e0a14b4	0.1348446
183	0x3bbe8c76	0.005815084
184	0x3c5214ee	0.012822373
185	0x3e01c181	0.12671472
186	0x3c10cbee	0.008837683
187	0xbbd1e7d8	-0.0064058118
188	0xbe94ccd1	-0.29062513
189	0x3e4285df	0.1899638
190	0xbeea1e83	-0.45726404
191	0xbe0b1d36	-0.13585362
192	0xbdd35ebf	-0.10320806
193	0xbecd187d	-0.40057746
194	0x3c43fa8b	0.01196159
195	0xbbfe2620	-0.0077560097
196	0xbdb1ae94	-0.08675876
197	0xbbe96a7e	-0.0071232906
198	0xbdbacc47	-0.09120994
199	0xbf15a8dd	-0.5846079
200	0x3e91078d	0.28326073
201	0xbd4ba9db	-0.049722534
202	0x3d01f851	0.031730954
203	0x3d9645be	0.07337521
204	0x3dfd043a	0.12354322
205	0x3e9faa25	0.31184497
206	0xbe9ce6e3	-0.30644903
207	0xbd53ca2b	-0.051706474
208	0xbd071310	-0.032977164
209	0xbdc4c187	-0.09607225
210	0x3f0d9daa	0.553187
211	0xbcb9ef71	-0.022697182
212	0xbf121c54	-0.57074475
213	0x3efd3869	0.494571
214	0xbf35323e	-0.7077979
215	0xbe9ca686	-0.30595797
216	0x3f150c0f	0.58221525
217	0x3f691af0	0.9105673
218	0x3bb4b5be	0.0055148294
219	0xbd47db2a	-0.048792996
220	0xbe49c905	-0.19705589
221	0xbd086100	-0.03329563
222	0xbde94464	-0.113899976
223	0x3dfdcb1b	0.12392255
224	0x3e1aa7fe	0.15103146
225	0xbd3ed2aa	-0.046587624
226	0x3c8c5141	0.017128589
227	0xbd49576c	-0.049155638
228	0xbe4e69a8	-0.20157492
229	0x3e013403	0.12617497
230	0xbe023fd7	-0.12719665
231	0xbdc06dee	-0.093959674
232	0xbd7baa6f	-0.061441835
233	0xbd973aa7	-0.07384234
234	0x3e39cdd2	0.1814492
235	0xbe92385b	-0.2855862
236	0x3e148c04	0.14506537
237	0xbc54d3c6	-0.012989944
238	0x3b105e17	0.0022028738
239	0x3d68e712	0.05686099
240	0xbdc277a2	-0.094954744
241	0xbddc86fb	-0.10767933
242	0xbe9ad1dc	-0.30238235
243	0xbcc154fe	-0.023600098
244	0xbddb5b79	-0.107108064
245	0x3d95545a	0.072914794
246	0xbcf8b6c6	-0.03036059
247	0x3ed2d709	0.41179684
248	0x3ddbe3ba	0.10736795
249	0xbd432318	-0.04764089
250	0x3d97ecbb	0.074182
251	0xbdcfcd1e	-0.10146545
252	0x3dc7a2a8	0.09747821
253	0x3c8e9f51	0.017409952
254	0xc05ce538	-3.4514904
255	0x3f5f0078	0.8711009

final.linears.0.bias f4 [84]
0	0x3e7f0d3c	0.24907392
1	0x3d95fff5	0.073242106
2	0x3e13e6f4	0.1444357
3	0x3e94970d	0.29021493
4	0x3e7cc203	0.24683385
5	0x3e3aa9dc	0.18228859
6	0xbe7e8280	-0.2485447
7	0xbcbbaeaf	-0.022910444
8	0x3e935062	0.28772265
9	0x3df6de3a	0.12054105
10	0x3e182b05	0.1486016
11	0x3d9bfdba	0.07616754
12	0x3dc25d33	0.094904326
13	0x3ec25633	0.3795639
14	0xbc99b975	-0.01876519
15	0x3e92897d	0.2862052
16	0x3e0f1978	0.1397456
17	0x3d1b434d	0.03790598
18	0x3e85b465	0.26114193
19	0x3e03c209	0.12866987
20	0x3c780295	0.015137334
21	0x3e8dc992	0.27692848
22	0x3d245526	0.040120266
23	0x3e6d0eb0	0.23150134
24	0x3d7516b6	0.059836112
25	0x3e153bd1	0.145736
26	0x3bdc648c	0.0067258533
27	0xbcc892f1	-0.02448413
28	0x3e960a33	0.29304656
29	0x3dcf3d3e	0.10119103
30	0x3d47091b	0.048592668
31	0x3db8dacf	0.090261094
32	0x3da56ebb	0.08077761
33	0x3e7495e7	0.23885308
34	0x3e9177f8	0.2841184
35	0x3e54dfe0	0.20788527
36	0x3ded7ba4	0.11595848
37	0x3db9da35	0.09074823
38	0x3db8fd44	0.090326816
39	0x3e8a0295	0.26955095
40	0xbe945261	-0.289691
41	0x3ea78510	0.32718706
42	0xbd8e47dc	-0.069473
43	0x3dfc0717	0.1230604
44	0x3e3bcdd3	0.18340234
45	0x3de40361	0.11133457
46	0x3e5d0966	0.21585616
47	0x3eedc5fe	0.4644012
48	0x3e374c68	0.1790024
49	0x3e889e18	0.26683116
50	0xbc49e863	-0.012323472
51	0x3e8e0119	0.27735212
52	0xbd802e06	-0.06258778
53	0xbd2431bd	-0.040086497
54	0x3e790b83	0.24320798
55	0x3e1e247d	0.15443607
56	0x3daecf47	0.08535629
57	0x3de1c696	0.110242054
58	0x3d07437c	0.033023342
59	0xbd8c6a5d	-0.06856225
60	0x3e4ca02a	0.19982973
61	0x3dc5fe45	0.09667639
62	0x3e84b96d	0.2592272
63	0x3ce33a8c	0.027737878
64	0x3e53557d	0.2063808
65	0x3e3e5e5b	0.18590681
66	0x3e164c44	0.1467753
67	0x3d9d152a	0.07670052
68	0xbe38949f	-0.18025444
69	0x3e6635a0	0.22481394
70	0x3e29c928	0.16580641
71	0x3e21f033	0.15814285
72	0x3d607099	0.05479488
73	0x3e9cd463	0.30630788
74	0xbd69cdbe	-0.057080977
75	0x3e26a8fb	0.16275398
76	0x3dc70b1e	0.09718917
77	0x3e3a7849	0.18209948
78	0xbd2e4385	-0.04254486
79	0x3de1ed8d	0.11031637
80	0x3d928c32	0.071556464
81	0x3e2479e6	0.16062126
82	0x3e86a1cb	0.26295313
83	0xbc8035be	-0.015650626

final.linears.1.weight f4 [84, 84]
0	0xbddbdcd8	-0.10735482
1	0xbdeed29c	-0.11661264
2	0xbe982137	-0.2971284
3	0x3d866dd2	0.06563915
4	0x3d838ee3	0.06423738
5	0x3e053c5e	0.1301131
6	0xbd3e7aad	-0.04650371
7	0xbd5d6f9b	-0.054061513
8	0xbcf5fee6	-0.030028772
9	0xbddd1be6	-0.10796337
10	0xbc98b2ed	-0.018640006
11	0xbe3da33e	-0.18519303
12	0x3cda2107	0.026627077
13	0xbe1be357	-0.15223442
14	0xbe251a99	-0.16123427
15	0xbe00ad3a	-0.1256608
16	0xbd6b108e	-0.057388835
17	0xbbf6c4f4	-0.007530803
18	0xbd21ed63	-0.03953303
19	0xbe2255fb	-0.15853111
20	0xbdd55b4a	-0.10417803
21	0x3c6c8556	0.014436087
22	0xbe19d42b	-0.15022342
23	0xbdf0d673	-0.11759653
24	0xbdb0e742	-0.08637859
25	0x3d977306	0.07394986
26	0xbde45f9b	-0.11151048
27	0xbd57be93	-0.05267198
28	0xbb98a2ca	-0.004658078
29	0x3c242277	0.010017983
30	0xbe4233d7	-0.18965088
31	0x3de1b771	0.11021317
32	0xbccabc7a	-0.024748076
33	0x3e035009	0.128235
34	0xbdd2de9f	-0.10296368
35	0xbdc2dbe5	-0.09514598
36	0x3dd0ac8d	0.101891614
37	0xbd73bb7c	-0.05950497
38	0xbe07ded3	-0.13268594
39	0xbd2ba6ee	-0.041907243
40	0x3d3a7ecc	0.04553108
41	0xbdaafff9	-0.08349604
42	0x3cfb139c	0.030648999
43	0xbd18f47b	-0.03734253
44	0xbdfffbfa	-0.124992326
45	0xbe3c06f6	-0.1836203
46	0xbd741414	-0.05958946
47	0xbd0d64a0	-0.03451979
48	0xbdf33df2	-0.118770495
49	0xbe42b2a8	-0.19013464
50	0xbe33e94e	-0.17569467
51	0x3d2095be	0.039205305
52	0xbe330556	-0.17482504
53	0x3df85917	0.121263675
54	0xbd2cd38c	-0.042193934
55	0xbdd7e57f	-0.1054182
56	0xbd87078a	-0.06593235
57	0xbe0502ca	-0.12989345
58	0xbdb8c8e0	-0.09022689
59	0xbd47d5b4	-0.048787788
60	0xbd876b52	-0.066122666
61	0xbe0ff976	-0.14060006
62	0x3dcf2f06	0.10116391
63	0xbbb05730	-0.0053814873
64	0xbe678e89	-0.22612967
65	0xbcf4b3c4	-0.029870875
66	0xbd543500	-0.051808357
67	0xbe4a6451	-0.1976483
68	0x3e04f45a	0.12983838
69	0x3d863f47	0.06555038
70	0x3e62d406	0.22151193
71	0x3e19b825	0.15011652
72	0x3d764618	0.06012544
73	0xbbc88929	-0.0061198664
74	0xbe6e80f5	-0.2329138
75	0x3bce12b0	0.006288849
76	0x3afb74d1	0.0019184594
77	0xbde71478	-0.11283201
78	0xbdc64e26	-0.096828744
79	0xbdd83d3a	-0.10558553
80	0xbdbebddd	-0.09313557
81	0xbe611ad0	-0.21982884
82	0xbd8d29eb	-0.06892761
83	0x3dac1712	0.08402838
84	0xbd7932a4	-0.06083931
85	0xbd2a31f6	-0.041551553
86	0xbe48bf01	-0.19604112
87	0xbcd31c0e	-0.025770213
88	0x3e42f57a	0.19038954
89	0xbdd191a0	-0.10232854
90	0xbe4e6987	-0.20157443
91	0x3de016f8	0.10941881
92	0xbde74346	-0.11292128
93	0xbe0fd5a9	-0.14046349
94	0xbcb7e1ba	-0.022446502
95	0xbde9f263	-0.11423185
96	0xbdf377ef	-0.1188811
97	0x3bb5a77a	0.0055436464
98	0xbe0774f7	-0.13228212
99	0xbe3e8dea	-0.18608823
100	0xbd5f3e5e	-0.054502837
101	0xbe1c764e	-0.15279505
102	0xbd8489f1	-0.06471623
103	0xbde366e9	-0.11103613
104	0xbdff2dd8	-0.12459916
105	0xbd8053e6	-0.06266002
106	0xbd8d9e4c	-0.06914958
107	0xbde0e7d3	-0.10981717
108	0xbede5efe	-0.43431848
109	0xbd913b09	-0.07091338
110	0xbe1a9e56	-0.15099463
111	0x3dbbcd8a	0.09170063
112	0x3d34c44a	0.04413251
113	0xbdd4e4e2	-0.103952184
114	0xbe4d37c8	-0.2004081
115	0xbe86dd6b	-0.26340804
116	0xbd9cf5b5	-0.076640524
117	0xbe1fbc44	-0.15599161
118	0xbe50b239	-0.20380487
119	0xbde3338c	-0.11093816
120	0xbe4e952b	-0.2017409
121	0xbdc1f3a0	-0.09470296
122	0xbe12c155	-0.14331563
123	0xbe1c486f	-0.15262006
124	0x3d7887b3	0.060676288
125	0xbe3da436	-0.18519673
126	0xbdaca024	-0.08428982
127	0xbe7dce20	-0.24785662
128	0xbe736d15	-0.2377208
129	0xbea28316	-0.31740636
130	0xbd5575e7	-0.052114394
131	0xbdde3b9c	-0.10851213
132	0xbdeb9517	-0.11503046
133	0xbd8d3c2d	-0.06896243
134	0xbe396667	-0.1810547
135	0xbe66b808	-0.2253114
136	0x3d344355	0.044009525
137	0xbd88dc06	-0.06682591
138	0xbe6dd202	-0.23224643
139	0xbe0f56e7	-0.13997994
140	0xbdb8d535	-0.09025041
141	0x3d9e066c	0.077160686
142	0xbe060ca3	-0.13090758
143	0xbe038248	-0.12842667
144	0xbe070d3b	-0.13188641
145	0xbd9636e3	-0.073346876
146	0xbc874671	-0.016513081
147	0xbdc4b3b8	-0.09604591
148	0xbe597aa4	-0.2123819
149	0xbd1e987f	-0.03871965
150	0xbe17804f	-0.1479504
151	0x3b57a3dd	0.0032904067
152	0x3dc795cd	0.09745369
153	0xbcd7e5fd	-0.026354784
154	0xbd95ebf0	-0.07320392
155	0xbdb0c257	-0.086308174
156	0xbe2cc0eb	-0.16870467
157	0xbdf8e7d1	-0.121535905
158	0xbe943c5f	-0.2895231
159	0xbe23caa6	-0.15995273
160	0xbdcfeb46	-0.10152297
161	0xbcb6c8ec	-0.022312604
162	0x3ab263b1	0.0013610033
163	0xbdd92705	-0.106031455
164	0xbdaf8a3f	-0.0857129
165	0xbe72617c	-0.2367
166	0xbe0454d0	-0.12922978
167	0x3cadbade	0.02120727
168	0xbe8b42f9	-0.27199534
169	0xbd9e67e3	-0.077346586
170	0xbdfca2f3	-0.123357676
171	0xbec9cca9	-0.39413956
172	0x3e12bda8	0.1433016
173	0xbe6cb6da	-0.23116627
174	0x3e01c00e	0.1267092
175	0x3e98548c	0.29752004
176	0xbe8280e9	-0.25488976
177	0xbe2408e8	-0.16019022
178	0xbe4522d5	-0.19251569
179	0xbe7ab77e	-0.24484059
180	0xbee07e78	-0.43846488
181	0xbe72ea3e	-0.23722169
182	0xbe1fa6d2	-0.1559098
183	0xbebc984c	-0.36834943
184	0xbeb36107	-0.35034963
185	0x3c10d52a	0.008839885
186	0xbebae001	-0.36499026
187	0xbe755c75	-0.23961051
188	0xbef91b1d	-0.48653498
189	0xbeec3823	-0.4613658
190	0xbea50e27	-0.3223736
191	0xbe72a0e0	-0.23694181
192	0xbed4f87f	-0.41595837
193	0xbef928d6	-0.48663968
194	0xbe4f06d2	-0.20217445
195	0xbe6f90d1	-0.23395087
196	0x3c9245ea	0.017855603
197	0xbe9b8d30	-0.30381155
198	0xbe5ff87c	-0.21872133
199	0xbe7c05af	-0.24611543
200	0xbee18711	-0.4404836
201	0xbf56e7d0	-0.8394747
202	0xbe48a861	-0.19595481
203	0xbf003e1f	-0.5009479
204	0xbef37674	-0.4755131
205	0xbe137069	-0.1439835
206	0xbe4c19ee	-0.19931766
207	0xbee868f0	-0.4539256
208	0x3e4d34c8	0.20039666
209	0xbef0ce20	-0.4703226
210	0xbe0f4b12	-0.13993481
211	0xbfdd816a	-1.7305119
212	0xbef78f92	-0.48351723
213	0xbdb1daea	-0.08684333
214	0xbe562d1b	-0.20915644
215	0xbe9acf8d	-0.30236474
216	0xbe1da38a	-0.15394416
217	0xbebb22ed	-0.36550084
218	0xbd616b93	-0.05503423
219	0xbe5492b7	-0.20759092
220	0xbdb6648e	-0.08905898
221	0xbea73610	-0.32658434
222	0xbef1bb48	-0.47213197
223	0xbea20d9d	-0.3165101
224	0x3cdd5c73	0.027021622
225	0xbe8b71d0	-0.2723527
226	0xbec317a7	-0.38103983
227	0x3c9619e7	0.018322898
228	0xbf0f7e05	-0.56051666
229	0xbe930044	-0.2871114
230	0xbe5fffd7	-0.21874939
231	0xbe8ec7d0	-0.2788682
232	0xbdfd0834	-0.1235508
233	0xbee5d9a6	-0.44892615
234	0xbe8a4973	-0.27009162
235	0xbe332863	-0.17495875
236	0xbe00addb	-0.1256632
237	0xbec2c42d	-0.38040295
238	0xbe8e0bca	-0.2774337
239	0xbec4d50d	-0.38443795
240	0xbeb4c999	-0.35310057
241	0xbecef3a9	-0.40420273
242	0xbe40a29e	-0.18812034
243	0xbec5cb7f	-0.38631818
244	0xbd8d7b22	-0.06908251
245	0xbf04e30b	-0.5190894
246	0xbe57993b	-0.21054547
247	0xbeab8b55	-0.3350474
248	0xbe8f1ece	-0.2795319
249	0xbe4fd618	-0.20296514
250	0xbeb49250	-0.35267878
251	0x3e3f5c25	0.18687494
252	0x3e2e7e9b	0.17040484
253	0xbd66ff75	-0.056395967
254	0xbdf1c55f	-0.11805224
255	0xbd929c85	-0.0715876

final.linears.1.bias f4 [84]
0	0x3d284900	0.041085243
1	0xbd86de95	-0.06585423
2	0xbecdb8ba	-0.40179998
3	0xbcebc627	-0.02878101
4	0xbeaaff97	-0.33398125
5	0xbe6ecf35	-0.2332123
6	0xbc43b6db	-0.011945452
7	0x3e3df328	0.18549788
8	0xbdc7cade	-0.09755491
9	0xbd27d67e	-0.04097604
10	0xbbcf6765	-0.0063294643
11	0x3dd4d2b3	0.1039175
12	0xbcd8a335	-0.02644501
13	0x3e7c3daf	0.24632905
14	0xbdcbf419	-0.09958667
15	0x3e9c09e4	0.30476296
16	0xbd9b6734	-0.07588044
17	0xbec65010	-0.38732958
18	0xbdc4e1ba	-0.096133664
19	0xbdde2f18	-0.10848826
20	0xbde06e74	-0.10958567
21	0xbe7be36f	-0.24598478
22	0xbb847c5a	-0.004043144
23	0xbe32b816	-0.17453036
24	0xbe93c48f	-0.288609
25	0x3ef3e37f	0.47634503
26	0xbd76d620	-0.0602628
27	0xbe4c52b3	-0.19953422
28	0xbe5887b3	-0.21145515
29	0xbea2fa58	-0.31831622
30	0xbed02b7c	-0.40658176
31	0xbc9d3287	-0.019189132
32	0x3d438826	0.047737263
33	0xbd473c38	-0.048641413
34	0xbe1d95f4	-0.15389234
35	0xbe11d1d1	-0.14240195
36	0x3cde4fe4	0.027137704
37	0xbedb1c18	-0.4279487
38	0x3dac1461	0.084023245
39	0xbd00e641	-0.031469587
40	0xbe004f82	-0.1253033
41	0xbef905ef	-0.4863734
42	0xbed5c7ca	-0.4175399
43	0xbd8fc265	-0.070195
44	0xbea45e61	-0.32103255
45	0x3e3bf923	0.18356757
46	0xbc2fc4b9	-0.010728055
47	0xbde27311	-0.110571034
48	0x3e2754ff	0.16341017
49	0xbf0ce06a	-0.5502993
50	0xbe95120d	-0.29115334
51	0x3e1a1078	0.15045345
52	0xbdadf307	-0.084936194
53	0xbe7b4e4d	-0.24541588
54	0x3dac9ab9	0.084279485
55	0xbdf6e919	-0.120561786
56	0xbe547c67	-0.2075058
57	0xbe7df928	-0.24802077
58	0xbea23848	-0.31683564
59	0xbe19b958	-0.1501211
60	0xbeb5cc4d	-0.35507432
61	0xbd8ad18e	-0.06778251
62	0xbe5dc99a	-0.21658936
63	0xbe545751	-0.20736434
64	0x3eb01233	0.34388885
65	0xbdee56af	-0.11637627
66	0xbe4abf8e	-0.19799635
67	0xbed2d649	-0.41179112
68	0xbea4220e	-0.32057232
69	0xbe428453	-0.1899579
70	0xbe420951	-0.18948866
71	0xbe732623	-0.23745017
72	0xbe96649c	-0.29373634
73	0x3e91a8df	0.2844915
74	0xbe2f60c3	-0.17126755
75	0xbe98d704	-0.29851544
76	0xbdb04a76	-0.08607952
77	0xbe78bb2a	-0.24290147
78	0xbe5c1896	-0.21493754
79	0xbe751e74	-0.23937398
80	0x3d4c05ea	0.049810328
81	0xbe8bfc84	-0.27341092
82	0x3de78042	0.1130376
83	0x3f403202	0.75076306

final.linears.2.weight f4 [10, 84]
0	0x3df14fbb	0.117827855
1	0xbcea12b0	-0.028573364
2	0xbe9ddbdb	-0.308318
3	0x3e1656e8	0.1468159
4	0x3b218f07	0.0024651901
5	0xbcee023f	-0.029053805
6	0x3cb46358	0.022020027
7	0x3ca11f0f	0.01966813
8	0x3ec5f368	0.38662267
9	0xbcc2673d	-0.023730868
10	0xbe5bf676	-0.21480736
11	0xbc11f90c	-0.008909475
12	0x3d8ed963	0.06975057
13	0x3caadeba	0.020858157
14	0xbce3fe0e	-0.027831104
15	0x3d0746fe	0.033026688
16	0x3e47b29a	0.19501725
17	0xbe8738c0	-0.26410484
18	0x3e0eafb9	0.1393422
19	0x3ab3f538	0.0013729697
20	0xbeaddf19	-0.33959273
21	0x3c4afcf1	0.0123894075
22	0x37d5ecf0	2.5501911e-05
23	0x3d728744	0.05921103
24	0x3f047dfa	0.51754725
25	0xbc1a912b	-0.009434025
26	0x3d5be944	0.053689256
27	0x3f028ea6	0.50998914
28	0x39ff5f40	0.00048708357
29	0xbbc55a6f	-0.0060227434
30	0xbe5a7cb5	-0.21336634
31	0xbd0b28ed	-0.033974577
32	0xbe424093	-0.18969946
33	0xbd1adfec	-0.037811205
34	0x3ebc9d12	0.36838585
35	0x3e522931	0.20523526
36	0xbcc4904c	-0.023994587
37	0x3c33b3da	0.010968173
38	0x3d60d4b5	0.054890353
39	0xbd3ddbc4	-0.046352163
40	0xbdbb981a	-0.091598704
41	0xbdef2792	-0.11677469
42	0xbf218a32	-0.63101494
43	0xbd85c4fe	-0.06531714
44	0x3c1baa59	0.009501063
45	0x3dec7961	0.11546589
46	0xbcfe7008	-0.03105928
47	0xbd9b8f84	-0.07595733
48	0x3b6e14aa	0.0036328235
49	0x3df44a36	0.11928217
50	0x38a6e527	7.95818e-05
51	0xbce126b4	-0.027484275
52	0x3cdbd607	0.026835455
53	0x3eed6a9e	0.46370405
54	0x3dfa8334	0.12232056
55	0xbb31323d	-0.0027038
56	0xbbc085bb	-0.005875317
57	0xbeb854a8	-0.36002088
58	0x3f119f46	0.56883657
59	0x3e0bca75	0.1365145
60	0xbc94c732	-0.01816139
61	0xbe2755a0	-0.16341257
62	0x3ce3d015	0.027809182
63	0xbd212fc8	-0.03935221
64	0xbd24cad9	-0.040232513
65	0xbe1d46bc	-0.15359014
66	0x3c980724	0.018558092
67	0x3d69c3ec	0.05707161
68	0x3b9297cc	0.004473662
69	0xbd02fa3c	-0.031976923
70	0xbf19d1bc	-0.60085654
71	0xbd4b0ab6	-0.04957076
72	0xbf18d8cd	-0.5970581
73	0x3bfef59a	0.007780743
74	0x3d6b98aa	0.05751864
75	0xbe8d2a87	-0.27571508
76	0x3da3328b	0.07968625
77	0x3aee174a	0.00181649
78	0x3df2fa9c	0.11864206
79	0xbdf69241	-0.120396145
80	0x3d1e3478	0.038624257
81	0x3ea4de18	0.32200694
82	0x3d84b661	0.064800985
83	0x3b80c597	0.0039298045
84	0x3d047c77	0.03234526
85	0x3ddb3d12	0.107050076
86	0x3ef07010	0.46960497
87	0x3d843086	0.064545676
88	0x3bb4bac5	0.0055154287
89	0xbd8fb983	-0.070178054
90	0x3cd3c6c8	0.025851622
91	0x3c889b1d	0.016675526
92	0x3ef545d1	0.47904828
93	0x3d13dabe	0.03609728
94	0xbdc2ce8e	-0.095120534
95	0xbb66e42f	-0.0035231223
96	0x3ecc8c0b	0.39950594
97	0xbd84d5dd	-0.06486104
98	0xbdaf55f6	-0.085613176
99	0x3ce3beb9	0.027800905
100	0xbe591890	-0.21200776
101	0xbdfedfcf	-0.12445032
102	0x3d39317b	0.045213204
103	0xbc1dadd2	-0.0096239615
104	0x3e501869	0.20321812
105	0x3bb69472	0.0055718953
106	0x391b491c	0.00014809187
107	0x3ea7c79e	0.32769483
108	0xbed77059	-0.42077902
109	0xbd18a681	-0.037268165
110	0xbb3320b5	-0.0027332727
111	0xbe826889	-0.2547038
112	0x3c67bb6a	0.014143804
113	0x3cddec50	0.027090222
114	0x3f29baee	0.6630086
115	0x3e4d7dc9	0.20067514
116	0x3e351728	0.17684615
117	0xbe1375c3	-0.14400391
118	0xbd3daf9d	-0.046310056
119	0x3dc2add0	0.09505808
120	0xbbb2d82c	-0.0054578986
121	0x3e6d9152	0.23199967
122	0xbe4b8ca8	-0.19877875
123	0xbde3aab9	-0.11116547
124	0xbd7d37d6	-0.061820827
125	0xbe13a281	-0.14417459
126	0xbf027913	-0.50965995
127	0xbc9ebff1	-0.019378634
128	0x3c947ebc	0.018126838
129	0x3e68f332	0.22749022
130	0xbca1b93e	-0.01974165
131	0x3c8990b1	0.016792627
132	0xbc922e8b	-0.017844459
133	0x3e360805	0.17776497
134	0xbc0ed907	-0.008718736
135	0xbd2599e3	-0.04042996
136	0xbcee94b9	-0.02912365
137	0x3ec91e2f	0.3928084
138	0xbcb42af9	-0.021993147
139	0xbd2a3342	-0.04155279
140	0x3bff4627	0.0077903452
141	0x3f1d8e22	0.61545
142	0xbeb21bfb	-0.34786972
143	0xbdf29e6d	-0.118466236
144	0xbda85721	-0.082197435
145	0xbd6c6723	-0.057715546
146	0x3d8304be	0.06397389
147	0x3d3a3d9d	0.045468915
148	0xbdcce06d	-0.10003743
149	0xbd337c5c	-0.04381977
150	0x3cba77a4	0.022762127
151	0xbb9c85c1	-0.004776687
152	0x3c8dfa92	0.017331395
153	0x3d9f0fba	0.077666715
154	0xbeed9955	-0.46406046
155	0xbcbc11dc	-0.022957735
156	0xbed842b2	-0.42238384
157	0x3a41b6a1	0.00073895796
158	0xbd8699d8	-0.06572312
159	0xbe7fee86	-0.24993333
160	0xbe0d8f6c	-0.13824242
161	0x3b8774d7	0.0041338014
162	0xbdcaf9f2	-0.099109545
163	0xbe61a631	-0.22036053
164	0x3c30f152	0.010799723
165	0xbed7c58f	-0.42142913
166	0xbc16015b	-0.009155597
167	0xbcc6dd80	-0.024275541
168	0xbd2c0ae3	-0.04200257
169	0x3db6b3da	0.08921023
170	0x3dade3a6	0.08490686
171	0x3bea82cc	0.0071567055
172	0x3e040837	0.12893759
173	0x3d7146c1	0.058905367
174	0x3d8459bf	0.0646243
175	0xbbadd691	-0.0053051193
176	0x3db9e3a8	0.09076625
177	0x3d90076b	0.07032665
178	0xbc9fcb69	-0.019506173
179	0x3da1ecfe	0.07906531
180	0xbecc202f	-0.39868304
181	0xbdc5585a	-0.09635992
182	0x3b77e02e	0.003782283
183	0xbe2ecfcf	-0.1707146
184	0x3cabab4c	0.020955704
185	0x3ed28c5a	0.41122705
186	0x3bb53486	0.005529943
187	0x3f0e4680	0.55576324
188	0xbd8cb087	-0.068696074
189	0xbdb74cda	-0.08950205
190	0xbe0016c6	-0.12508687
191	0x3e33f977	0.17575632
192	0xbcabd2eb	-0.020974597
193	0xbe4ec004	-0.20190436
194	0xbc359720	-0.011083394
195	0xbd75b839	-0.05999014
196	0xbe762696	-0.24038157
197	0x3e34a317	0.17640339
198	0xbe146606	-0.14492044
199	0x3d5030b0	0.050827682
200	0xbc69af19	-0.014262938
201	0x3dfa1e18	0.12212771
202	0x3cd9fb82	0.026609186
203	0x3d18bd12	0.037289687
204	0xbf5c7fc7	-0.8613247
205	0x3f076d82	0.5290147
206	0xbd18c3aa	-0.037295975
207	0xbefb5658	-0.49089313
208	0x3d6f0392	0.058353014
209	0x3ea50d9c	0.32236946
210	0xbc6f5623	-0.014607939
211	0x3d85e4ad	0.06537757
212	0x3d7e2085	0.06204273
213	0xbce423d1	-0.02784911
214	0xbe5dce7b	-0.21660797
215	0x3d13377a	0.03594158
216	0x3e9bdf80	0.30443954
217	0x3f16509b	0.58716744
218	0x3f9a077b	1.2033533
219	0xbddc0ead	-0.10744987
220	0xbe776cc0	-0.24162579
221	0xbe1856a3	-0.148768
222	0xbf94464f	-1.1583956
223	0x3cd80e45	0.026373992
224	0x3efeef28	0.49791837
225	0xbe086061	-0.13318016
226	0x3e8f3137	0.27967235
227	0x3c92e2b6	0.01793037
228	0x3d7d80c1	0.061890367
229	0xbc334d29	-0.010943689
230	0x3e069bcc	0.1314537
231	0x3e0abcf1	0.13548638
232	0xbea9f391	-0.3319364
233	0x3b603111	0.0034208933
234	0x3f37e72d	0.7183712
235	0x3d32942a	0.04359833
236	0x3dae1535	0.08500139
237	0x3cc4d1e8	0.024025872
238	0xbd8c3972	-0.06846894
239	0xbea7ea1e	-0.32795805
240	0xbd0308d5	-0.031990845
241	0xbf3984bb	-0.72468156
242	0x3d17193a	0.036889292
243	0x3eafe952	0.34357697
244	0x3cd312fd	0.02576589
245	0xbd38e4b0	-0.04513997
246	0x3cbd444f	0.023103861
247	0x3d2b2383	0.041781913
248	0xbf3142b9	-0.69242436
249	0xbdab99ea	-0.08378966
250	0xbcc89d4f	-0.024489073
251	0xbe10f4f3	-0.1415594
252	0xbd96ea80	-0.07368946
253	0xbd8a1cda	-0.06743784
254	0x3ecd160a	0.40055877
255	0x3a3d745d	0.00072271173

final.linears.2.bias f4 [10]
0	0xbd0d6c6c	-0.034527227
1	0xbd5e1609	-0.054220233
2	0xbe5e7a4b	-0.21726339
3	0xbdd255b0	-0.1027025
4	0xbecc675a	-0.399226
5	0x3c462c09	0.01209546
6	0x3dd18eb6	0.10232298
7	0xbca8786b	-0.020565232
8	0x3d2c0cc9	0.04200438
9	0x3b3c60cf	0.0028744226

layers.0.attn.0.gnn_q.weight f4 [10, 16]
0	0xbc5674da	-0.013089383
1	0xaff071ef	-4.37367e-10
2	0x3b487ef8	0.0030593257
3	0x3c055314	0.008137483
4	0x340a66b8	1.288962e-07
5	0xa87c7b2e	-1.40155204e-14
6	0xa71e5f74	-2.197865e-15
7	0x3ba040e9	0.0048905504
8	0x363c3318	2.8043924e-06
9	0xbc22a631	-0.009927318
10	0x2d636594	1.2926011e-11
11	0x2f816651	2.3537663e-10
12	0x35618554	8.401305e-07
13	0x29c6a476	8.821496e-14
14	0x349624f6	2.796657e-07
15	0xac2d19cd	-2.45991e-12
16	0xbb5bc579	-0.003353445
17	0xafae20fc	-3.1673852e-10
18	0x395565d4	0.00020351197
19	0x3bbb1f31	0.0057105054
20	0x33801a31	5.965229e-08
21	0xa883301a	-1.4564782e-14
22	0xa7c8840b	-5.5654313e-15
23	0xbc0b904a	-0.008518288
24	0x3540914e	7.173702e-07
25	0xbab5c3c6	-0.0013867549
26	0xade636ea	-2.617236e-11
27	0x30473891	7.2476164e-10
28	0x35000559	4.76915e-07
29	0xa919a17e	-3.4112897e-14
30	0x346b7ebc	2.1932186e-07
31	0xac8127bf	-3.6708132e-12
32	0x3e774f3c	0.2415132
33	0xb10359f0	-1.9114132e-09
34	0x3b14923e	0.0022670175
35	0xbe53c69e	-0.20681235
36	0x34ee2857	4.4360306e-07
37	0x29e88be5	1.03271375e-13
38	0xa9307d12	-3.918833e-14
39	0xbe0d0e37	-0.13774954
40	0x3745d590	1.1791839e-05
41	0x3e57bac4	0.21067339
42	0xae0f9f07	-3.265568e-11
43	0x30027ade	4.746833e-10
44	0x362bb92f	2.5588777e-06
45	0x2ab0cf72	3.1407824e-13
46	0x353d9732	7.0628005e-07
47	0x2ced91a3	6.752114e-12
48	0xbd36be59	-0.044615123
49	0xaff52ecf	-4.45985e-10
50	0xbb163ef8	-0.0022925716
51	0x3d0f5aff	0.03499889
52	0x341d7b19	1.4666547e-07
53	0xa9f9ff43	-1.1102102e-13
54	0x29467556	4.4066604e-14
55	0x3d157303	0.036486637
56	0x368e48cf	4.240406e-06
57	0xbd216493	-0.039402556
58	0x2ea2814f	7.389877e-11
59	0x2f948eb3	2.7022437e-10
60	0x33b8de9a	8.608659e-08
61	0xaaaa50be	-3.0254092e-13
62	0x34135352	1.3720754e-07
63	0xac7258d7	-3.4439584e-12
64	0xbb9b5af8	-0.004741069
65	0xb04d82f3	-7.4764656e-10
66	0xbb218290	-0.0024644472
67	0xba92f483	-0.0011211786
68	0x33c8e769	9.355319e-08
69	0xa9256cbd	-3.6731675e-14
70	0x28365da4	1.0123335e-14
71	0x3a79c1d8	0.0009527481
72	0x363148bc	2.6417392e-06
73	0x3aa6d12c	0.0012727133
74	0x2f01d478	1.1807966e-10
75	0x3004ec1b	4.8356846e-10
76	0x34b40fad	3.3539018e-07
77	0x2a5166d0	1.8598599e-13
78	0x342658eb	1.5492303e-07
79	0x2c9a23a7	4.3809015e-12
80	0xbcc73bf0	-0.024320573
81	0xb07a2ce6	-9.1013275e-10
82	0x3b00923f	0.001961842
83	0x3cca6977	0.024708493
84	0x33a20426	7.5444675e-08
85	0x27b48cc0	5.0112638e-15
86	0xa8812f95	-1.4342512e-14
87	0x3cf7460f	0.030184774
88	0x362e5a14	2.5980453e-06
89	0xbce280ad	-0.027649248
90	0x2e7619d5	5.5956868e-11
91	0x2ff7edad	4.5097917e-10
92	0xb4b74dce	-3.4143017e-07
93	0x2a4481d6	1.7453343e-13
94	0xb24ed583	-1.2039325e-08
95	0x2c9c06d6	4.4345456e-12
96	0xbc93766b	-0.018000802
97	0x2fbf6126	3.4811726e-10
98	0xbaed3934	-0.0018098713
99	0x3c641f9d	0.013923553
100	0x31ff30bc	7.4270172e-09
101	0x29239bdd	3.632846e-14
102	0xa83964f2	-1.0291452e-14
103	0x3c949530	0.018137544
104	0xb4f20cfe	-4.5085466e-07
105	0xbc77f6dd	-0.01513454
106	0xae10a062	-3.2884258e-11
107	0x2ecdfe41	9.367485e-11
108	0x3504f49c	4.9529785e-07
109	0x298a333e	6.13732e-14
110	0x34291709	1.5747732e-07
111	0x2c2140d0	2.2915454e-12
112	0x3c2b6b18	0.010462545
113	0x3089764c	1.0001684e-09
114	0xbbcfd3da	-0.0063423933
115	0xbc6b9e2e	-0.014380975
116	0xb28d494a	-1.6447888e-08
117	0xa916535c	-3.3378993e-14
118	0x2915154c	3.3103118e-14
119	0xbc0e56df	-0.008687704
120	0xb408d02c	-1.274172e-07
121	0x3c6f606f	0.014610394
122	0xad77bde2	-1.4082487e-11
123	0xb00d32e8	-5.1367843e-10
124	0x35122a04	5.445038e-07
125	0xaa01e799	-1.1537853e-13
126	0x33af649c	8.167373e-08
127	0xab6f71b2	-8.506764e-13
128	0x3d750559	0.059819553
129	0xb00981d2	-5.0024795e-10
130	0x3b899468	0.0041985996
131	0xbd49640d	-0.04916768
132	0x33e9c7e8	1.0886271e-07
133	0x289ca471	1.7390794e-14
134	0xa8b43a20	-2.0009222e-14
135	0xbd213987	-0.039361503
136	0x3631c553	2.6489913e-06
137	0x3d5437ba	0.051810957
138	0x2dce1172	2.3427236e-11
139	0x2fa401e1	2.983276e-10
140	0x3513359c	5.483978e-07
141	0x2a8c1f92	2.4890902e-13
142	0x345a74e2	2.0345354e-07
143	0x2c1fd1e5	2.2711774e-12
144	0xbc8fc41a	-0.017549563
145	0xb0d18d3d	-1.5246894e-09
146	0x3c6065e1	0.013696165
147	0x3ca871b7	0.020562036
148	0x3485a32d	2.4891906e-07
149	0x27dccdae	6.1285265e-15
150	0xa8abd139	-1.907555e-14
151	0x3cbf0281	0.023316624
152	0x36edbcf4	7.0851474e-06
153	0xbcbbe51d	-0.022936398
154	0x2eb4bd07	8.21903e-11
155	0x30906d0f	1.0508375e-09
156	0x34c2aaa9	3.6259488e-07
157	0x2847dee3	1.109505e-14
158	0x34806cc7	2.3921004e-07
159	0x2acb5d94	3.6124977e-13

layers.0.attn.0.gnn_q.bias f4 [16]
0	0x3d8d1402	0.06888582
1	0x309a109d	1.1209697e-09
2	0x3ac09abb	0.0014694551
3	0xbdbc8000	-0.092041016
4	0xb4ac5895	-3.2101948e-07
5	0xa93f5313	-4.2482575e-14
6	0x28a04a66	1.7795834e-14
7	0xbd18186f	-0.037132677
8	0xb702874e	-7.780107e-06
9	0x3da1ae25	0.078945436
10	0x2e2b541a	3.8955596e-11
11	0xb02be3c2	-6.25331e-10
12	0xb621c426	-2.4105043e-06
13	0xa9843a2e	-5.87207e-14
14	0xb53121a7	-6.598661e-07
15	0xac53df07	-3.0108708e-12

layers.0.attn.0.gnn_k.weight f4 [10, 16]
0	0xbc30396d	-0.010755879
1	0x2fbd445a	3.4427466e-10
2	0xbb59905d	-0.003319762
3	0x3c4b7317	0.012417576
4	0xb3741fc8	-5.6839582e-08
5	0x26f5edb0	1.7064715e-15
6	0x27aa057e	4.7190433e-15
7	0x3b8b8c87	0.0042586955
8	0xb5e10afb	-1.6767002e-06
9	0xbc42430e	-0.011856807
10	0x2d725147	1.37741546e-11
11	0x2f6f3da4	2.1758823e-10
12	0xb48b7ea9	-2.5982925e-07
13	0x29e9c49e	1.0381386e-13
14	0xb3b0a5c2	-8.22579e-08
15	0xac034ac2	-1.8657719e-12
16	0xbb9ffadd	-0.0048822
17	0xb0ccbaa6	-1.4896002e-09
18	0x3a1cd798	0.00059830537
19	0x3b413e64	0.002948665
20	0x348e4f10	2.6507087e-07
21	0xa7a32140	-4.527764e-15
22	0xa80a6354	-7.682077e-15
23	0xbc0b6ecc	-0.008510303
24	0x36bfb70d	5.7135535e-06
25	0xba0d8e6c	-0.00053999457
26	0xae0ef07f	-3.2500665e-11
27	0x304d7e8b	7.4758394e-10
28	0x360e169e	2.1172814e-06
29	0xa892c3a3	-1.62941e-14
30	0x3525e9cc	6.180751e-07
31	0xac98f7ad	-4.3475974e-12
32	0x3e6e66b9	0.23281373
33	0xaf8c6e09	-2.5544036e-10
34	0xbb031467	-0.0020001174
35	0xbe630808	-0.22171032
36	0xb32d6f35	-4.0380844e-08
37	0x29d00f7d	9.2397424e-14
38	0xa93f4b08	-4.24756e-14
39	0xbe0b2125	-0.13586862
40	0xb5da02e8	-1.6243112e-06
41	0x3e5e527b	0.21711151
42	0x2d9b77b6	1.7674622e-11
43	0x2fecc9ab	4.3071444e-10
44	0x347c6f3a	2.3509793e-07
45	0x2a9fa225	2.8356584e-13
46	0x33b10890	8.243762e-08
47	0x2d005893	7.295625e-12
48	0xbd22c6a0	-0.039740205
49	0xaf952c91	-2.7134608e-10
50	0x3aca38d8	0.0015428318
51	0x3d2fe6d8	0.04294476
52	0xb2b896be	-2.1488969e-08
53	0xa9bb44d3	-8.316407e-14
54	0x29120543	3.2423076e-14
55	0x3d12ba0e	0.035821967
56	0x346757e3	2.1545524e-07
57	0xbd2f1b48	-0.042750627
58	0x2eba81ee	8.481381e-11
59	0x2f91fbef	2.6554356e-10
60	0xb570acfe	-8.9658704e-07
61	0xaaefabe4	-4.2574202e-13
62	0xb445062f	-1.8349304e-07
63	0xacc292d6	-5.5301137e-12
64	0xb8a883e4	-8.035431e-05
65	0xaff5d863	-4.4718992e-10
66	0x3b29f295	0.0025931944
67	0x3bcda721	0.006276027
68	0x3407fe8b	1.2665457e-07
69	0x294c2d71	4.5336514e-14
70	0xa8d7f59b	-2.397631e-14
71	0x390c0d04	0.00013356289
72	0x3636d801	2.7245844e-06
73	0xbb004931	-0.0019574875
74	0xae0acc13	-3.155882e-11
75	0x300130c7	4.6999243e-10
76	0x3567076a	8.6064995e-07
77	0x2988fb56	6.083213e-14
78	0x34a45fe0	3.061714e-07
79	0x2bd2d73c	1.4981137e-12
80	0xbccc7616	-0.024958652
81	0xaf8b92ef	-2.5388355e-10
82	0xbb1f37a2	-0.0024294634
83	0x3cc5ba2b	0.024136623
84	0x334adbf8	4.723185e-08
85	0x29be5922	8.453157e-14
86	0xa89a6935	-1.7143061e-14
87	0x3cf98595	0.030459205
88	0x362dcca1	2.5898119e-06
89	0xbcdccca5	-0.02695305
90	0xad6659d5	-1.3093933e-11
91	0x2fe8f1ae	4.2372278e-10
92	0xb55c3f89	-8.204884e-07
93	0x2a23d054	1.4549587e-13
94	0xb4583c10	-2.0138418e-07
95	0x2b88cd99	9.720446e-13
96	0xbc7a06a9	-0.015260377
97	0xb07a3e82	-9.10383e-10
98	0x3acf2d0e	0.0015806274
99	0x3c984b5a	0.018590618
100	0x32e9a2ce	2.7198805e-08
101	0x2961405a	5.0015852e-14
102	0xa88bee2e	-1.5535394e-14
103	0x3c8e79f2	0.017392132
104	0x35b296f8	1.3305971e-06
105	0xbc8e42d9	-0.01736586
106	0xae2b5396	-3.8955138e-11
107	0x2f0f2286	1.301804e-10
108	0xb58c5206	-1.0454685e-06
109	0x298e953c	6.331955e-14
110	0xb4458b33	-1.8397695e-07
111	0x2b0b4a5c	4.9485914e-13
112	0x3c62e10b	0.0138476
113	0x303905d3	6.7310885e-10
114	0x3bc6bfc2	0.00606534
115	0xbc0db253	-0.008648473
116	0xb441e408	-1.8057483e-07
117	0x2928a2f4	3.7444833e-14
118	0x27c6dbfa	5.519454e-15
119	0xbc175711	-0.009237067
120	0xb6623a6c	-3.371063e-06
121	0x3c41446c	0.011796098
122	0xae4f70b9	-4.716647e-11
123	0xb00e7310	-5.182281e-10
124	0xb5f15515	-1.7980661e-06
125	0xaa30fec9	-1.5720337e-13
126	0xb50c84d6	-5.2347366e-07
127	0xacbf6077	-5.4392563e-12
128	0x3d64d3d3	0.055866074
129	0x2f9da287	2.8673616e-10
130	0xbb8a80fb	-0.0042268015
131	0xbd63eb37	-0.05564424
132	0x319c6032	4.5511337e-09
133	0xa66a1cd4	-8.122413e-16
134	0xa7bc492d	-5.225982e-15
135	0xbd1f70e3	-0.038926017
136	0xb5afc153	-1.3094781e-06
137	0x3d5ed395	0.054401
138	0x2cee3544	6.7702805e-12
139	0x2f937713	2.6823752e-10
140	0x35361637	6.783261e-07
141	0x2aaadeae	3.035258e-13
142	0x344c58b3	1.9031249e-07
143	0x2c851d61	3.783349e-12
144	0xbc9885ae	-0.018618431
145	0xafce785f	-3.755671e-10
146	0xbc6d718f	-0.0144924065
147	0x3c947a0e	0.018124606
148	0x341a7435	1.4384644e-07
149	0xa840b701	-1.0697824e-14
150	0x28c95f54	2.2356825e-14
151	0x3cc319d3	0.023816025
152	0x3639a50a	2.7663214e-06
153	0xbcb0a200	-0.021561623
154	0x2e436a9e	4.4432562e-11
155	0x308b5191	1.0136764e-09
156	0x35726f99	9.031442e-07
157	0x2a5909f6	1.9276928e-13
158	0x34b7d184	3.423885e-07
159	0xaa353eda	-1.6097835e-13

layers.0.attn.0.gnn_k.bias f4 [16]
0	0x3dbfc7af	0.093642585
1	0x30531836	7.679576e-10
2	0xbac983ec	-0.0015374399
3	0xbd53ad62	-0.051679023
4	0xb40f8955	-1.3367874e-07
5	0xa890f81c	-1.6094812e-14
6	0x2820c3f0	8.924271e-15
7	0xbd2b5916	-0.041833006
8	0xb67ae638	-3.7386908e-06
9	0x3d776e51	0.06040794
10	0xad9958ba	-1.7433489e-11
11	0xb02b6c20	-6.236309e-10
12	0xb4a67522	-3.1005135e-07
13	0xa9d9bf13	-9.669882e-14
14	0xb43813bf	-1.7143519e-07
15	0xac88657f	-3.876621e-12
