checkpoints/ames_33_train1_neg/Aug22-13:52:35.pth (torch, 376215 bytes, 294 tensors)

layers.0.weight f4 [10, 16]
0.27052534 1.2954104 -0.5233807 0.87251216 -0.0032122836 0.9028085 -0.14418979 0.7061822
1.2742317 -1.070046 -0.19232358 0.015368191 -0.1464057 0.8042191 -0.5479875 -0.31898794
0.5222566 -0.32992995 -0.6245806 1.0583546 -0.15274851 -0.2367015 -0.14320298 0.8716583
-1.4720109 -0.2784778 -0.7148039 -0.15632199 0.056828663 0.15863271 1.6387002 -0.48820868
0.69572186 -0.32545468 -0.44138283 0.23738894 0.37160715 0.41756046 0.28595936 -0.392683
0.3751516 -0.12533787 0.42031172 2.203774 0.6333629 -0.3336877 0.6645062 0.47388223
0.26090613 -0.3972907 -0.48973724 -0.100129604 -0.48730397 0.24619715 0.63934904 -0.026328657
0.07245228 -0.8432972 1.2137724 -0.65886253 -0.020905118 -0.3466044 0.479951 -0.122167416
0.41076836 -0.32026544 0.6234777 0.1398132 0.3505861 0.19067839 1.2618812 0.061155632
0.33328623 -0.92343044 -0.70593065 -0.6361742 -0.05150284 -0.1325048 0.4715542 1.2949383
0.17896383 -1.3655387 -0.23885626 -0.08744358 0.510592 0.89053386 0.21450974 -0.8056515
-1.4178426 -0.2435449 -0.061459273 -0.012972686 0.37677696 0.8394971 -1.252082 -0.3151643
0.5931459 0.8264421 -0.36096892 -1.1367319 -0.13212678 0.7523066 -0.48267642 -1.4356505
-0.47951984 -0.5057611 -0.39796713 -0.050631236 -0.92285866 0.023669152 1.2249439 -0.17973824
0.247869 -1.1081333 -0.7518968 -0.055928048 0.079058915 -1.1767572 -0.7702824 -0.29669538
0.502198 -0.8329725 -0.46913067 -0.15505123 0.08836755 -0.4686268 -0.59819263 -0.06671451
0.45458898 -0.3737452 1.3308172 0.2909585 -0.2729165 0.5737742 -0.49156275 -0.23585638
-0.48161423 -0.55738294 -0.24945585 -0.2686208 0.40653408 -0.88166267 0.09469194 -0.36384028
-0.5118427 1.1001561 0.45817795 1.3024663 0.30972755 -1.3224374 0.17222153 -1.2562903
-0.37432712 -0.6209195 0.5143143 -0.1534898 0.35396555 -0.038449947 -0.0424499 0.02768845
00000000: 4c82 8a3e 02d0 a53f 47fc 05bf f55c 5f3f
00000010: 2d85 52bb 751e 673f 7da6 13be 5bc8 343f
00000020: 061a a33f 44f7 88bf 79f0 44be ddca 7b3c
00000030: 60eb 15be 4ee1 4d3f e948 0cbf 6352 a3be
00000040: 9cb2 053f 94ec a8be 84e4 1fbf 2a78 873f
00000050: 1b6a 1cbe e161 72be cda3 12be 0025 5f3f
00000060: da6a bcbf a494 8ebe 63fd 36bf df12 20be
00000070: 2cc5 683d 9d70 223e eec0 d13f 7df6 f9be
00000080: d41a 323f ffa1 a6be eefc e1be 1616 733e
00000090: 4b43 be3e 7cca d53e 4469 923e bf0d c9be
000000a0: df13 c03e 9258 00be 1933 d73e a20a 0d40
000000b0: 1224 223f 1dd9 aabe 141d 2a3f b1a0 f23e
000000c0: 7d95 853e b069 cbbe d7be fabe c010 cdbd
000000d0: e87f f9be 1b1b 7c3e 61ac 233f 32af d7bc
000000e0: dc61 943d 53e2 57bf e55c 9b3f 37ab 28bf
000000f0: 3641 abbc 2276 b1be 23bc f53e e932 fabd
00000100: 3b50 d23e d5f9 a3be 3c9c 1f3f 312b 0f3e
00000110: 0580 b33e 3241 433e 5385 a13f 547e 7a3d
00000120: 7ea4 aa3e f065 6cbf dfb7 34bf 50dc 22bf
00000130: a4f4 52bd 57af 07be 8d6f f13e 8ac0 a53f
00000140: 4b42 373e f9c9 aebf bc96 74be 9f15 b3bd
00000150: 28b6 023f 07fa 633f 71a8 5b3e 2d3f 4ebf
00000160: de7b b5bf d663 79be b8bc 7bbd 648b 54bc
00000170: e9e8 c03e 48e9 563f 3944 a0bf 375d a1be
00000180: 69d8 173f b691 533f ebd0 b8be 6e80 91bf
00000190: 3e4c 07be 2a97 403f 5d21 f7be 65c3 b7bf
000001a0: a083 f5be 8f79 01bf 59c2 cbbe b362 4fbd
000001b0: 7740 6cbf cfe5 c13c f6ca 9c3f 4d0d 38be
000001c0: 5fd1 7d3e 50d7 8dbf 4f7c 40bf cf14 65bd
000001d0: a4e9 a13d fb9f 96bf 3a31 45bf 75e8 97be
000001e0: 0c90 003f b03d 55bf e531 f0be c0c5 1ebe
000001f0: 0cfa b43d daef efbe 2723 19bf 9ea1 88bd
00000200: e3bf e83e 885b bfbe 3858 aa3f 83f8 943e
00000210: b6bb 8bbe dee2 123f 1dae fbbe 5684 71be
00000220: 2496 f6be a6b0 0ebf 5b71 7fbe aa88 89be
00000230: 3c25 d03e a5b4 61bf d9ed c13d 4649 babe
00000240: 2008 03bf ead1 8c3f 4d96 ea3e 37b7 a63f
00000250: 9c94 9e3e a145 a9bf d75a 303e 1fce a0bf
00000260: cea7 bfbe 95f4 1ebf 1aaa 033f 6e2c 1dbe
00000270: f93a b53e b17d 1dbd f2df 2dbd e3d2 e23c

layers.0.bias f4 [16]
-0.7536207 -0.2125261 -0.12687288 0.4534111 0.4201983 0.33792773 -0.05652682 -0.11168069
0.29508063 0.37047425 -0.2448092 -0.4805724 -0.6585119 -0.36626685 0.004476436 -0.8071476
00000000: 49ed 40bf 71a0 59be f7ea 01be 8025 e83e
00000010: 3b24 d73e dd04 ad3e ab88 67bd d8b8 e4bd
00000020: cf14 973e cdae bd3e 43af 7abe 960d f6be
00000030: 3c94 28bf 5487 bbbe 11af 923b 3aa1 4ebf

layers.1.weight f4 [16, 16]
0.47520804 0.40487498 -0.030724514 -0.4250673 0.5614344 -0.6197423 -0.87450695 0.65627086
0.40289614 -0.712414 -0.43413126 -0.22949515 -0.09179997 -0.034686275 0.102219924 -0.25662154
-0.15388523 0.5233404 0.58123475 -0.6199702 0.06420981 0.6918497 0.47962886 -0.7634696
0.6210027 0.7577916 0.087437905 0.1634163 0.20562193 -0.36843878 0.12161112 0.17132556
0.32061082 0.0018866163 -0.12193113 0.19605432 0.13640037 0.29149488 0.094016455 -0.1873471
-0.6263014 -0.24699518 0.84384364 0.061048564 0.8532212 -0.317397 0.27137598 -0.8086559
0.084505625 0.046244886 1.4187027 0.17206211 -0.19091022 -0.5288436 -0.11181614 0.51887465
0.0831465 -0.032032255 0.053489197 -0.15580794 -0.48104095 0.27809107 -0.29219052 -0.39676052
-0.2174637 0.5523907 0.55965465 0.83758557 -0.8777991 -0.57493716 -0.058474857 0.42365888
0.08746528 0.5056726 0.6301128 -0.24207099 0.24314632 -0.41380364 -0.57201654 -0.03377089
0.1912389 -0.2698594 -0.28254393 -0.8935365 -0.21414335 -0.52851295 -0.2777788 0.37564707
-0.51593816 0.17655143 -0.3458866 -0.190506 -0.5405487 0.12509574 -0.3101132 -0.51440316
0.44109806 -0.6039161 0.15573058 0.7452972 -0.04059504 -0.6699323 -0.21295244 -0.35008106
-0.3961851 0.91376346 -0.16526695 -0.07050632 0.20551254 -0.3573268 0.098090105 -0.45647517
0.24415654 0.04482071 0.08624959 -0.6793156 0.045621954 0.46885395 0.25646773 -1.1137674
0.25782102 -0.46011063 0.21533227 0.12725757 0.22362237 -0.24526954 0.15429257 0.4442422
0.053922374 -0.23165874 0.84700125 -0.99497133 -0.0277408 -0.71671283 -0.317548 -0.69365686
-1.0775683 0.039001487 -0.18133655 -0.21220559 -0.021385733 -0.12787145 -0.2226348 -0.0069858357
-0.6390229 0.3760414 -0.34808633 0.105060525 -0.10847656 0.45848444 0.7822015 -0.5034627
-0.7308538 0.3693561 0.5124435 0.10931146 0.0060126428 0.42408252 -0.37947348 0.5292448
-0.5438434 -0.21684013 0.69568753 0.7898632 0.041125063 -0.051134977 -0.5136203 -0.6621695
-0.5737399 0.11342269 -0.7855493 -0.12348615 -1.4430587 -0.1864145 0.0012510918 -0.5498581
-0.20568262 0.909805 -0.16047975 0.0026655637 0.10087212 -0.879477 -0.57864386 -0.54310644
-0.117949136 -0.012543247 0.7273639 -0.055697404 -1.2176404 -0.27339864 -0.20964621 -0.5355067
0.14250879 0.4465223 0.41447213 0.5122872 0.50405276 -0.40132782 -0.8762931 0.7051225
-0.10574633 -0.49747965 -0.30039048 -0.24009834 -0.58576447 0.14339407 0.032136757 -0.42199036
-0.09875701 -0.10970075 0.43714702 0.24216463 0.2753448 0.2914799 -0.12699609 0.0024156612
-0.07756083 0.90110534 0.6240678 0.08441651 0.5831384 -0.5429114 0.48901522 0.8214302
0.3524778 0.14912017 -0.5384322 -0.8762882 0.004260529 -0.73582286 -0.60830545 0.13320515
1.3383707 0.3120961 -0.42820287 -0.26647818 -0.3279356 0.26971728 -0.2042333 -0.5901986
0.21374363 0.1231676 -0.19173042 0.1319715 0.4505768 -1.0402685 -1.4501982 -0.5652866
-0.46472842 0.1646928 -0.16864353 -0.32412308 0.59047455 -0.18096565 0.46163815 -0.3359818
00000000: 784e f33e c64b cf3e fab1 fbbc 6ca2 d9be
00000010: 2aba 0f3f 6ea7 1ebf b0df 5fbf 5e01 283f
00000020: 6748 ce3e c460 36bf 7446 debe c700 6bbe
00000030: 9f01 bcbd 3213 0ebd ae58 d13d e663 83be
00000040: 1794 1dbe a3f9 053f cdcb 143f 5eb6 1ebf
00000050: 6f80 833d 101d 313f ea91 f53e be72 43bf
00000060: 08fa 1e3f a1fe 413f a512 b33d 9a56 273e
00000070: 8e8e 523e 02a4 bcbe 400f f93d f86f 2f3e
00000080: 1a27 a43e 5748 f73a 07b7 f9bd 77c2 483e
00000090: 8aac 0b3e d13e 953e b38b c03d ebd7 3fbe
000000a0: 4a55 20bf 4eec 7cbe 2306 583f 0f0e 7a3d
000000b0: b46c 5a3f dc81 a2be cbf1 8a3e 1304 4fbf
000000c0: 4911 ad3d 476b 3d3d 0d98 b53f 0d31 303e
000000d0: f87d 43be 4b62 07bf dcff e4bd f8d4 043f
000000e0: b648 aa3d 4134 03bd 7d17 5b3d 1e8c 1fbe
000000f0: 004b f6be f461 8e3e ff99 95be 3224 cbbe
00000100: ceae 5ebe 7a69 0d3f 8745 0f3f 026c 563f
00000110: 71b7 60bf 152f 13bf 5583 6fbd d1e9 d83e
00000120: ff20 b33d c273 013f 134f 213f 75e1 77be
00000130: 59fb 783e 12de d3be ad6f 12bf 5853 0abd
00000140: 21d4 433e 032b 8abe 99a9 90be cfbe 64bf
00000150: 6548 5bbe a04c 07bf 0639 8ebe d054 c03e
00000160: 8614 04bf e6c9 343e 0c18 b1be 0114 43be
00000170: 6661 0abf 1919 003e 28c7 9ebe edaf 03bf
00000180: 9bd7 e13e 3f9a 1abf d677 1f3e cccb 3e3f
00000190: fc46 26bd af80 2bbf 3410 5abe d33d b3be
000001a0: c6d8 cabe 67ec 693f bd3b 29be 9e65 90bd
000001b0: e171 523e 8af3 b6be 77e3 c83d 1db7 e9be
000001c0: 2c04 7a3e ec95 373d a0a3 b03d a1e7 2dbf
000001d0: 16de 3a3d a00d f03e bd4f 833e ee8f 8ebf
000001e0: 1e01 843e 9f93 ebbe 1080 5c3e cf4f 023e
000001f0: 43fd 643e f027 7bbe dffe 1d3e b773 e33e
00000200: b5dd 5c3d f337 6dbe 13d5 583f 71b6 7ebf
00000210: ad40 e3bc 7e7a 37bf a795 a2be 7f93 31bf
00000220: c2ed 89bf 06c0 1f3d 4ab0 39be 6c4c 59be
00000230: 2231 afbc bcf0 02be 61fa 63be 70e9 e4bb
00000240: 0197 23bf 8088 c03e 5f38 b2be f929 d73d
00000250: f528 debd 79be ea3e 5c3e 483f eee2 00bf
00000260: 3c19 3bbf 3e1c bd3e 7f2f 033f b0de df3d
00000270: b405 c53b 5821 d93e 594a c2be 967c 073f
00000280: 5239 0bbf 570b 5ebe 9418 323f 7a34 4a3f
00000290: c172 283d e972 51bd 9f7c 03bf f183 29bf
000002a0: 9ee0 12bf 284a e83d c219 49bf 4ee6 fcbd
000002b0: 26b6 b8bf 71e3 3ebe adfb a33a 80c3 0cbf
000002c0: 779e 52be fbe8 683f ce54 24be bdb0 2e3b
000002d0: 0b96 ce3d 6825 61bf 0122 14bf 0609 0bbf
000002e0: 518f f1bd 3182 4dbc 8534 3a3f f622 64bd
000002f0: a4db 9bbf e8fa 8bbe 7fad 56be f816 09bf
00000300: d3ed 113e 929e e43e b135 d43e 4125 033f
00000310: 9a09 013f d77a cdbe bf54 60bf e882 343f
00000320: 8891 d8bd a7b5 febe c8cc 99be 57dc 75be
00000330: a9f4 15bf e5d5 123e d5a1 033d 1f0f d8be
00000340: 1e41 cabd c9aa e0bd bcd1 df3e 01fa 773e
00000350: fef9 8c3e da3c 953e 430b 02be 1250 1e3b
00000360: 36d8 9ebd d7ae 663f e8c2 1f3f 90e2 ac3d
00000370: 8f48 153f 3efc 0abf 3460 fa3e 4049 523f
00000380: f877 b43e f5b2 183e b1d6 09bf 6c54 60bf
00000390: e89b 8b3b e35e 3cbf e8b9 1bbf ee66 083e
000003a0: bb4f ab3f 0fcb 9f3e 683d dbbe d46f 88be
000003b0: 2de7 a7be 6218 8a3e 8922 51be 4117 17bf
000003c0: 9cdf 5a3e 4b3f fc3d fb54 44be 8923 073e
000003d0: 01b2 e63e 8527 85bf 18a0 b9bf 9fb6 10bf
000003e0: e2f0 edbe 3ba5 283e e4b0 2cbe 76f3 a5be
000003f0: 5729 173f 0f4f 39be d65b ec3e ce05 acbe

layers.1.bias f4 [16]
0.34408826 0.4792784 -0.2403772 0.23712097 0.6674034 -0.2287101 -1.0395601 -0.2761232
0.30578393 -0.3511697 -0.16470255 0.05497794 -0.20585193 -0.5158485 -0.23214842 -0.48304692
00000000: 562c b03e fa63 f53e 7125 76be d7cf 723e
00000010: f3da 2a3f fb32 6abe 4e10 85bf 0560 8dbe
00000020: b68f 9c3e 84cc b3be c9a7 28be 8c30 613d
00000030: d9ca 52be a60e 04bf 51b8 6dbe ed51 f7be

final.linears.0.weight f4 [84, 42]
-0.05961497 0.58871794 -0.66036266 -0.6231726 -0.55496144 -1.3901397 -1.6356027 0.45848852
0.039885767 0.44303387 -0.022926716 -0.24583273 0.09874519 -0.08413762 0.08264584 -0.021175882
0.034045476 -0.17740935 -0.05765328 -0.02707279 0.21205491 0.045831144 0.109637596 0.16610162
-0.14636862 0.067091756 0.10175704 0.042205766 0.14608826 -0.054216217 -0.09204184 0.04718748
-0.24671009 -0.25082275 0.07923911 -0.12787971 -0.040038496 0.047039084 0.05230371 -0.04247367
-0.05727987 0.04757436 -0.107329026 -0.20951046 -0.44929022 0.5691738 0.5693672 -0.5079507
0.849837 0.049426183 -0.34974614 -1.0215503 -0.06552727 0.06869016 0.2940799 0.7532045
0.7440669 -0.17066665 -0.056947976 -0.19411461 -0.17573655 -0.2649778 0.26875344 0.4757745
0.89108145 0.11715881 -0.30940422 -0.14578289 -0.015106053 -0.15977298 -0.25910813 -0.20471561
0.0068031233 0.019499697 0.17840719 -0.13571613 0.1129847 0.014268509 0.044481274 0.41780934
0.009439931 0.21885316 0.009160976 0.111032605 -0.8606234 -0.28882632 0.28934252 0.5095373
0.30302042 0.5295796 -0.5569052 -0.12576614 0.48097876 0.6259102 0.04794079 -0.124014415
0.117169194 -0.13724695 -0.1738936 0.0077819675 0.074985035 -0.015229085 0.0142392395 -0.049460288
0.032805037 -0.012434186 0.054046433 0.055964857 -0.056719057 0.079818256 -0.05018295 0.07927066
0.023736637 0.0128572965 0.007175345 0.107078046 0.03519994 0.0470874 -0.04461742 -0.04408114
0.014449478 0.067920364 0.016025677 -0.011249454 -0.03393757 0.067502774 -0.6692053 -0.17197873
0.039581858 -0.22012891 -0.23505642 0.246047 0.56403476 -0.41445124 -1.7836893 0.16801308
-0.12995337 0.24942774 -0.27569845 -0.35065788 0.104116894 -0.39917552 0.37602937 0.14525282
-0.38576233 0.58026564 0.13081807 0.09655149 -0.13943794 0.071308136 0.54281014 0.4019263
-0.048373118 0.09539244 -0.4328689 -0.16228662 0.07799155 -0.13452695 0.09798696 -0.29606405
0.2553754 0.22078982 -0.13149606 0.16991974 0.036905944 0.23164016 0.04152594 0.047657408
-0.0023872585 0.0053461916 -3.7963252 0.8003676 0.9905502 0.06940453 0.049739026 0.35481334
0.3359118 0.08195662 -0.44439667 -0.11309232 0.102357924 0.1111954 0.1193489 0.028483976
0.0653613 0.10865527 0.011882825 -0.02935989 -0.2637736 0.1237856 -0.4560782 -0.13491039
-0.0653261 -0.39862484 -0.0042040837 0.004263027 -0.07083231 -0.023544066 -0.085506044 -0.5312757
0.2997908 -0.02449786 0.040442728 0.08628742 0.1310907 0.29658294 -0.31218332 -0.054817647
-0.010282769 -0.07868317 0.5032256 0.006961901 -0.56757516 0.41973063 -0.73836434 -0.23629764
0.4960317 0.80316454 0.042085726 0.021078732 -0.19390519 -0.0066472036 -0.114951685 0.13254134
0.15286522 -0.024464536 0.008238201 -0.063865 -0.15611689 0.08541796 -0.112545535 -0.11662605
-0.0689475 -0.077415474 0.1653301 -0.2840114 0.14892021 -0.021145776 0.047011606 0.04994088
-0.093184136 -0.093138166 -0.2946812 -0.011724091 -0.11355066 0.089300476 -0.024382496 0.3996118
0.14936195 -0.028908595 0.09918896 -0.09310829 0.0441224 0.015580713 -3.5971906 0.97578365
00000000: d42e 74bd 38b6 163f 870d 29bf 3d88 1fbf
00000010: f411 0ebf 19f0 b1bf 6e5b d1bf 02bf ea3e
00000020: 425f 233d 56d5 e23e cfd0 bbbc 93bb 7bbe
00000030: eb3a ca3d 5850 acbd 3942 a93d 0b79 adbc
00000040: 4573 0b3d ccaa 35be d925 6cbd c1c7 ddbc
00000050: ec24 593e 70b9 3b3d ad89 e03d 8b16 2a3e
00000060: a8e1 15be 6767 893d ff65 d03d f4df 2c3d
00000070: 2998 153e d311 5ebd 6f80 bcbd a947 413d
00000080: 92a1 7cbe d76b 80be 1d48 a23d e6f2 02be
00000090: 68ff 23bd 0eac 403d 6a3c 563d dff8 2dbd
000000a0: 4c9e 6abd 55dd 423d 52cf dbbd e989 56be
000000b0: 5e09 e6be 60b5 113f 0cc2 113f 0f09 02bf
000000c0: eb8e 593f 1c73 4a3d ed11 b3be 29c2 82bf
000000d0: 2933 86bd 6dad 8c3d a491 963e 03d2 403f
000000e0: 2b7b 3e3f 3dc3 2ebe 4842 69bd fbc5 46be
000000f0: 48f4 33be 2cab 87be 0d9a 893e b798 f33e
00000100: ea1d 643f f5f0 ef3d 3b6a 9ebe 1c48 15be
00000110: 617f 77bc 879b 23be d2a9 84be f8a0 51be
00000120: bcec de3b d4bd 9f3c 60b0 363e 2bf9 0abe
00000130: 8664 e73d 77c6 693c ff31 363d 1beb d53e
00000140: f1a9 1a3c 0b1b 603e eb17 163c 1065 e33d
00000150: d151 5cbf 0be1 93be b424 943e 0971 023f
00000160: 7e25 9b3e 8792 073f 5791 0ebf d7c8 00be
00000170: d942 f63e a73b 203f 905d 443d 45fb fdbd
00000180: 67f6 ef3d 778a 0cbe 2a11 32be e0ff fe3b
00000190: c191 993d 6a83 79bc b34b 693c df96 4abd
000001a0: 935e 063d c2b8 4bbc cb5f 5d3d 683b 653d
000001b0: 3e52 68bd c177 a33d a38c 4dbd a858 a23d
000001c0: 5673 c23c 69a7 523c 281f eb3b bc4b db3d
000001d0: d02d 103d b8de 403d c1c0 36bd 6d8e 34bd
000001e0: 81bd 6c3c d519 8b3d 4848 833c a14f 38bc
000001f0: 1f02 0bbd e53e 8a3d 0a51 2bbf 311b 30be
00000200: 9620 223d 7969 61be a1b2 70be bff3 7b3e
00000210: 9564 103f f432 d4be ee4f e4bf 9f0b 2c3e
00000220: 7f12 05be fc69 7f3e 5928 8dbe 6e89 b3be
00000230: 3d3b d53d bc60 ccbe ec86 c03e 28bd 143e
00000240: a482 c5be 4a8c 143f 2cf5 053e cabc c53d
00000250: d2c8 0ebe 000a 923d 9bf5 0a3f 49c9 cd3e
00000260: e422 46bd 1d5d c33d fea0 ddbe 772e 26be
00000270: 09ba 9f3d 6fc1 09be 63ad c83d b595 97be
00000280: 90c0 823e ba16 623e e7a6 06be 71ff 2d3e
00000290: b02a 173d 1433 6d3e 1b17 2a3d 6a34 433d
000002a0: 8d73 1cbb 1b2f af3b fef6 72c0 e4e4 4c3f
000002b0: b394 7d3f f623 8e3d 26bb 4b3d 18aa b53e
000002c0: a2fc ab3e dfd8 a73d f687 e3be f29c e7bd
000002d0: 08a1 d13d 6aba e33d 326d f43d 3a57 e93c
000002e0: 25dc 853d a786 de3d 2eb0 423c 2784 f0bc
000002f0: 550d 87be 4e83 fd3d 1583 e9be f325 0abe
00000300: b1c9 85bd 8e18 ccbe 69c2 89bb ddb0 8b3b
00000310: 8810 91bd 7cdf c0bc cb1d afbd af01 08bf
00000320: 2e7e 993e bcaf c8bc 46a7 253d 75b7 b03d
00000330: a43c 063e b8d9 973e 7ed6 9fbe 7888 60bd
00000340: 0f79 28bc a424 a1bd 65d3 003f a920 e43b
00000350: 9b4c 11bf efe6 d63e 7205 3dbf 02f8 71be
00000360: def7 fd3e 319c 4d3f 1562 2c3d 4ead ac3c
00000370: 158f 46be c9d0 d9bb ca6b ebbd ebb8 073e
00000380: b388 1c3e da69 c8bc 85f9 063c a7cb 82bd
00000390: 1bdd 1fbe 9def ae3d 467e e6bd a3d9 eebd
000003a0: 5934 8dbd 018c 9ebd 4b4c 293e f169 91be
000003b0: 8a7e 183e e839 adbc 3e8f 403d cf8e 4c3d
000003c0: 53d7 bebd 39bf bebd 74e0 96be 6716 40bc
000003d0: 408d e8bd 2be3 b63d cdbd c7bc eb99 cc3e
000003e0: 57f2 183e b8d1 ecbc 9523 cb3d 8faf bebd
000003f0: b1b9 343d 3f46 7f3c 5f38 66c0 f5cc 793f

final.linears.0.bias f4 [84]
0.27686313 0.061086673 0.1152775 0.31209445 0.2327772 0.19458234 -0.23781347 0.035158407
0.30916998 0.12245486 0.12716083 0.0885411 0.12954672 0.4097339 0.05752939 0.32064077
0.13960452 0.04437166 0.27937093 0.13779522 0.038349126 0.2910351 0.04809462 0.27955598
0.084986895 0.16404809 0.03916181 -0.017449534 0.30160266 0.09205127 0.03654261 0.062213402
0.07725007 0.26148736 0.3149146 0.22707398 0.10319332 0.08660131 0.11523256 0.29700637
-0.3286297 0.35607454 -0.08803305 0.1635264 0.19524223 0.11354751 0.25220987 0.52458245
0.1852046 0.31608674 -0.043827616 0.27525818 -0.041501496 -0.033735305 0.26258498 0.1958988
0.07735535 0.14266984 0.040729176 -0.10084362 0.23556718 0.14048594 0.27955067 0.039564278
0.24145249 0.18419817 0.18379265 0.091637254 -0.2103854 0.2643581 0.17034504 0.18156426
0.052592248 0.33296424 -0.07840979 0.16540068 0.06737946 0.18720514 -0.054346494 0.12156895
0.10969358 0.15114138 0.30197695 -0.01431779
00000000: 01c1 8d3e 0536 7a3d 9c16 ec3d d8ca 9f3e
00000010: 255d 6e3e 9840 473e 6085 73be 4302 103d
00000020: 874b 9e3e 9dc9 fa3d 7336 023e 0955 b53d
00000030: e5a7 043e a4c8 d13e f0a3 6b3d 072b a43e
00000040: 7df4 0e3e 0fbf 353d b509 8f3e 311a 0d3e
00000050: f913 1d3d 8d02 953e ddfe 443d f621 8f3e
00000060: 9c0d ae3d 39fc 273e 2268 203d 53f2 8ebc
00000070: aa6b 9a3e 6085 bc3d b4ad 153d 7bd3 7e3d
00000080: 4935 9e3d ace1 853e 7d3c a13e 1586 683e
00000090: 0557 d33d 075c b13d 0cff eb3d 3811 983e
000000a0: 2742 a8be 674f b63e ac4a b4bd 7773 273e
000000b0: 94ed 473e 998b e83d a721 813e 094b 063f
000000c0: 46a6 3d3e 1fd6 a13e 9684 33bd a4ee 8c3e
000000d0: 79fd 29bd 082e 0abd 8a71 863e b299 483e
000000e0: 7b6c 9e3d 0b18 123e a3d3 263d 1a87 cebd
000000f0: 8638 713e 8cdb 0f3e 4421 8f3e 270e 223d
00000100: 523f 773e 729e 3c3e 2434 3c3e 50ac bb3d
00000110: 456f 57be f259 873e ee6e 2e3e fbeb 393e
00000120: f86a 573d 4a7a aa3e 5095 a0bd cc5e 293e
00000130: 3efe 893d b4b2 3f3e 6e9a 5ebd 24f9 f83d
00000140: 07a7 e03d cec4 1a3e b99c 9a3e 2a95 6abc

final.linears.1.weight f4 [84, 84]
-0.09975002 -0.097668104 -0.24550274 0.04813625 0.08652112 0.148241 -0.08782416 -0.014961968
-0.08406198 -0.032401066 -0.0134850005 -0.16528337 -0.033709217 -0.16439217 -0.14375989 -0.13096122
-0.045366492 -0.0015311688 -0.04853844 -0.13062368 -0.06603702 0.033682734 -0.14163844 -0.13056703
-0.073213734 0.10999547 -0.095728636 -0.08539605 0.011940108 0.04123629 -0.18041077 0.11307617
-0.048708003 0.1515593 -0.116894 -0.079696365 0.09487215 -0.045067005 -0.20003694 -0.034737524
0.07483442 -0.075899325 -0.017567985 -0.004367728 -0.09766755 -0.14797199 -0.057080146 -0.04833065
-0.07360282 -0.1795807 -0.16050442 0.06922651 -0.14695446 0.10645524 -0.04711109 -0.12767357
-0.060714442 -0.15448016 -0.12022068 -0.046916973 -0.034445398 -0.12536435 0.05649765 -0.024296507
-0.23994155 -0.0464255 -0.068978675 -0.15824251 0.13730851 0.051132903 0.25682214 0.12902272
0.06368889 -0.016680121 -0.23505874 -0.026668578 -0.01000114 -0.08601775 -0.076189764 -0.08915536
-0.09623656 -0.22189313 -0.06316831 0.06115788 -0.07440243 -0.040753145 -0.17611566 -0.064677104
0.20100062 -0.058764864 -0.23629232 0.10477756 -0.17391466 -0.10517167 0.07291607 -0.14319462
-0.16562434 -0.019234218 -0.15804563 -0.18130104 -0.059511982 -0.14473239 -0.09050177 -0.19777906
-0.12262207 -0.024036255 -0.13384627 -0.03615838 -0.36994103 -0.078766815 -0.08439976 0.18578705
0.06810946 -0.08581118 -0.27913767 -0.25740543 -0.05619578 -0.20711073 -0.2044757 -0.13009976
-0.18926896 -0.09046671 -0.15811205 -0.15561767 0.11271929 -0.15528344 -0.10085212 -0.25871947
-0.26578784 -0.2879185 -0.09353906 -0.07086596 -0.0887567 -0.08273422 -0.19416025 -0.27680257
0.04010503 -0.07775181 -0.29545978 -0.14532866 -0.0675298 0.08928338 -0.1462704 -0.02777006
-0.13627847 -0.12720382 0.039768077 -0.11112346 -0.24625087 -0.057801507 -0.18657845 -0.052504856
0.13125288 -0.010258002 -0.1068886 -0.10510667 -0.1395251 -0.111377165 -0.2656805 -0.1571325
-0.04377493 0.0012509981 0.0043670093 -0.15471566 -0.13294342 -0.25581345 -0.15409562 0.06856934
-0.2852326 -0.081561625 -0.11656049 -0.39556 0.13717122 -0.21167508 0.14566644 0.3643498
-0.22243682 -0.16674353 -0.18818155 -0.26761296 -0.47977987 -0.22666672 -0.18118651 -0.37329757
-0.32018596 0.030651629 -0.366205 -0.17161037 -0.47631294 -0.44791198 -0.32578474 -0.23487712
-0.45206 -0.5022786 -0.19235985 -0.22068031 0.036353108 -0.28603774 -0.18593602 -0.23780291
-0.43381244 -0.78573376 -0.17330828 -0.5077674 -0.4368192 -0.18052843 -0.13138162 -0.4754855
0.21165387 -0.5023995 -0.14868554 -1.8220801 -0.43401968 -0.08338745 -0.25683653 -0.33088702
-0.124921076 -0.37910798 -0.010392991 -0.19087978 -0.109800436 -0.29055876 -0.5210384 -0.3030178
0.0023510351 -0.28553456 -0.3378566 0.0064224494 -0.54000735 -0.28033838 -0.23243389 -0.26085028
-0.081247635 -0.41800407 -0.24906434 -0.18837582 -0.12079912 -0.4274322 -0.221486 -0.42159557
-0.31176567 -0.33287132 -0.15475383 -0.30971256 0.007732533 -0.5256315 -0.1288696 -0.36091274
-0.30472922 -0.19847314 -0.38721144 0.27166942 0.20177518 -0.07017236 -0.106900156 -0.06268718
00000000: bd49 ccbd 3706 c8bd 1265 7bbe 842a 453d
00000010: fc31 b13d 7dcc 173e 27dd b3bd 0b23 75bc
00000020: b028 acbd fbb6 04bd 31f0 5cbc 0b40 29be
00000030: ad12 0abd 6c56 28be cb35 13be b31a 06be
00000040: 37d2 39bd 80b1 c8ba 3ed0 46bd 37c2 05be
00000050: 6b3e 87bd e8f6 093d ab09 11be 5db3 05be
00000060: 15f1 95bd 4e45 e13d 600d c4bd 20e4 aebd
00000070: 71a0 433c 62e7 283d 9abd 38be 7b94 e73d
00000080: 0b82 47bd 5c32 1b3e 1f66 efbd d937 a3bd
00000090: 544c c23d 2e98 38bd 7cd6 4cbe ef48 0ebd
000000a0: ca42 993d 1b71 9bbd bcea 8fbc 281f 8fbb
000000b0: ed05 c8bd f885 17be dfcc 69bd 5cf6 45bd
000000c0: 13bd 96bd 01e4 37be 455b 24be a1c6 8d3d
000000d0: 3b7b 16be 3405 da3d 8ff7 40bd dcbc 02be
000000e0: b5af 78bd 0c30 1ebe 4336 f6bd 032c 40bd
000000f0: 9e16 0dbd 835f 00be 146a 673d 7809 c7bc
00000100: 3db3 75be aa28 3ebd b144 8dbd 530a 22be
00000110: 9a9a 0c3e bc70 513d 317e 833e 881e 043e
00000120: 526f 823d c0a4 88bc 3db3 70be 1078 dabc
00000130: d2db 23bc 132a b0bd 6109 9cbd 1697 b6bd
00000140: ac17 c5bd f437 63be 635e 81bd af80 7a3d
00000150: 4d60 98bd c5ec 26bd aa57 34be 6e75 84bd
00000160: 1bd3 4d3e 6db3 70bd 9df6 71be 9e95 d63d
00000170: af16 32be 3f64 d7bd 0555 953d 9ca1 12be
00000180: 6d99 29be 1491 9dbc b7d6 21be fba6 39be
00000190: d6c2 73bd ba34 14be fe58 b9bd 9886 4abe
000001a0: 4821 fbbd aee7 c4bc ff0e 09be cf1a 14bd
000001b0: e968 bdbe 7f50 a1bd c8d9 acbd f63e 3e3e
000001c0: f97c 8b3d c6bd afbd 22eb 8ebe a5ca 83be
000001d0: 8c2d 66bd d614 54be 1462 51be df38 05be
000001e0: b9cf 41be 9c46 b9bd 20e8 21be 3d5a 1fbe
000001f0: 5fd9 e63d 9f02 1fbe 8e8b cebd e176 84be
00000200: 5815 88be 0e6a 93be 6891 bfbd 2c22 91bd
00000210: 13c6 b5bd 8f70 a9bd f2d1 46be 11b9 8dbe
00000220: 2c45 243d 573c 9fbd 8146 97be 09d1 14be
00000230: 104d 8abd 34da b63d e8c7 15be 097e e3bc
00000240: 958c 0bbe b841 02be dae3 223d b294 e3bd
00000250: 3029 7cbe 46c1 6cbd 6c0e 3fbe 550f 57bd
00000260: 2867 063e 2e11 28bc 69e8 dabd 2a42 d7bd
00000270: abdf 0ebe b619 e4bd 4607 88be 58e7 20be
00000280: 574d 33bd 88f8 a33a 2119 8f3b c86d 1ebe
00000290: 5222 08be fbf9 82be 3ecb 1dbe 156e 8c3d
000002a0: 020a 92be c809 a7bd 44b7 eebd d786 cabe
000002b0: 9d76 0c3e 5ac1 58be 9529 153e 0f8c ba3e
000002c0: 7ac6 63be d1be 2abe aab2 40be 9104 89be
000002d0: b5a5 f5be 521b 68be f588 39be dc20 bfbe
000002e0: 6aef a3be 2019 fb3c 397f bbbe a1ba 2fbe
000002f0: 4adf f3be b854 e5be 42cd a6be a183 70be
00000300: 6974 e7be 5595 00bf fbf9 44be 05fa 61be
00000310: ffe6 143d 8a73 92be 0366 3ebe 9b82 73be
00000320: aa1c debe d925 49bf ba77 31be 0bfd 01bf
00000330: c4a6 dfbe 72dc 38be e788 06be d672 f3be
00000340: cbbb 583e 419d 00bf 0641 18be ec39 e9bf
00000350: d437 debe 0ac7 aabd 1480 83be 066a a9be
00000360: 9fd6 ffbd 711a c2be 5d47 2abc fd75 43be
00000370: 0ddf e0bd 1ec4 94be c662 05bf 2625 9bbe
00000380: d313 1a3b 9631 92be 8afb acbe 6973 d23b
00000390: ec3d 0abf 8388 8fbe 2603 6ebe 2b8e 85be
000003a0: 2965 a6bd a104 d6be b90a 7fbe 97e5 40be
000003b0: 8765 f7bd 65d8 dabe 3acd 62be 60db d7be
000003c0: c09f 9fbe 1c6e aabe ca77 1ebe a592 9ebe
000003d0: 3061 fd3b c98f 06bf 64f6 03be 8ec9 b8be
000003e0: 7805 9cbe 8b3c 4bbe 9440 c6be 4118 8b3e
000003f0: 279e 4e3e 87b6 8fbd 78ee dabd 2362 80bd

final.linears.1.bias f4 [84]
0.046014696 -0.007411732 -0.40833917 -0.0874153 -0.37737548 -0.23740388 -0.05375431 0.20535271
-0.06795266 -0.053209346 -0.06897619 0.10622452 -0.05429166 0.26440772 -0.09841902 0.27882987
-0.09558835 -0.3354591 -0.13215178 -0.13955311 -0.12893462 -0.34849018 -0.04343451 -0.15888666
-0.303727 0.48646918 -0.07553462 -0.20382594 -0.23482098 -0.3384543 -0.43831787 -0.036560114
-0.010406841 -0.05136563 -0.13616817 -0.15261061 0.018847717 -0.4374925 0.09032678 -0.055104133
-0.11977252 -0.50146174 -0.43154216 -0.11275531 -0.3064051 0.17661257 -0.080750495 -0.05779847
0.18208198 -0.57218546 -0.31471062 0.17246555 -0.06537789 -0.26195943 0.09244783 -0.22515664
-0.23001245 -0.24760316 -0.31905264 -0.16278158 -0.30902603 -0.073461205 -0.26115948 -0.24619007
0.3527738 -0.14192893 -0.2019808 -0.42476037 -0.34364966 -0.21450745 -0.1887245 -0.23320225
-0.31067455 0.3328529 -0.14450112 -0.3043431 -0.118915446 -0.2442315 -0.27343512 -0.27498767
0.034347635 -0.29138157 0.13066022 0.7921766
00000000: e879 3c3d 1dde f2bb d511 d1be cb06 b3bd
00000010: 5c37 c1be 011a 73be 7b2d 5cbd fb47 523e
00000020: c42a 8bbd 0bf2 59bd 6443 8dbd 3e8c d93d
00000030: ef60 5ebd 7360 873e e98f c9bd cac2 8e3e
00000040: d3c3 c3bd 4cc1 abbe cc52 07be 03e7 0ebe
00000050: 7007 04be 4e6d b2be 62e8 31bd 2fb3 22be
00000060: 1b82 9bbe 7d12 f93e e5b1 9abd bfb7 50be
00000070: e974 70be e249 adbe 336b e0be 0fc0 15bd
00000080: 7481 2abc c464 52bd ab6f 0bbe f545 1cbe
00000090: 8766 9a3c 04ff dfbe 3ffd b83d dfb4 61bd
000000a0: 4c4b f5bd cc5f 00bf 18f3 dcbe 42ec e6bd
000000b0: 21e1 9cbe edd9 343e 8460 a5bd 17be 6cbd
000000c0: b373 3a3e bf7a 12bf c021 a1be cf9a 303e
000000d0: d8e4 85bd 8c1f 86be 4a55 bd3d 768f 66be
000000e0: 6288 6bbe af8b 7dbe de5a a3be 37b0 26be
000000f0: a938 9ebe d472 96bd b2b6 85be 4019 7cbe
00000100: c49e b43e d155 11be 0ed4 4ebe 317a d9be
00000110: d9f2 afbe d7a7 5bbe ff40 41be 92cc 6ebe
00000120: bc10 9fbe b26b aa3e 1af8 13be dcd2 9bbe
00000130: f189 f3bd d317 7abe b0ff 8bbe 2fcb 8cbe
00000140: 1bb0 0c3d f72f 95be cbcb 053e 16cc 4a3f

final.linears.2.weight f4 [10, 84]
0.14393388 -0.036758572 -0.3010191 0.14965236 0.0031268613 -0.01655361 0.017788341 0.019827278
0.44017312 -0.024218993 -0.24329138 -0.003843112 0.05882474 0.023428468 -0.04386226 0.039876767
0.19641842 -0.28121224 0.15869394 0.0030198288 -0.38618496 0.01408035 -0.0039616693 0.0585591
0.5302743 -0.006901649 0.04339698 0.55232155 0.0035635328 0.00061966886 -0.22640352 -0.035131324
-0.19104537 -0.043208476 0.40132126 0.23092036 -0.02654507 0.026186317 0.006659519 -0.03115904
-0.090382665 -0.08909065 -0.6830897 -0.076574996 0.021313822 0.11338328 -0.035826065 -0.05351651
0.0016911916 0.12282545 -0.005872551 -0.042868387 0.033654686 0.50607747 0.12187486 0.003597701
-0.0045865066 -0.36169717 0.57810014 0.10849789 -0.027174722 -0.17336999 0.037349477 -0.019033527
-0.026306951 -0.16344787 0.024675684 0.051060036 0.0074363914 -0.036411617 -0.6388205 -0.02489463
-0.65201473 -0.0011638898 0.054105792 -0.30674976 0.11489631 -0.00875875 0.12692314 -0.13375323
0.037431445 0.3717253 0.047841527 -0.0014273959 0.026056172 0.11594437 0.49123946 0.06053697
0.0026634645 -0.04279823 0.034854416 -0.0015557222 0.5093161 0.037084017 -0.08255576 0.0016330997
0.45161098 -0.08114664 -0.10975233 0.029384336 -0.23755755 -0.11780933 0.054491706 -0.0065317075
0.23609802 -1.6111173e-05 0.0033568158 0.34234506 -0.45094022 -0.034753677 0.0014392615 -0.26260492
0.019583547 0.03814314 0.7241518 0.2025934 0.18226516 -0.18149985 -0.041920744 0.07510186
-0.029603003 0.25779387 -0.26760748 -0.1082093 -0.11594084 -0.13919556 -0.5431179 -0.011690167
0.014581305 0.21210778 -0.030733436 0.03249513 -0.022223113 0.14949365 -0.0069207493 -0.058982145
-0.023703484 0.4329694 -0.0053325347 0.0046711983 0.003859155 0.6512203 -0.36550143 -0.14639035
-0.04705696 -0.05440719 0.08601029 0.038237534 -0.12922467 -0.048563726 0.033526152 -0.024248457
0.023116395 0.07804471 -0.51630515 -0.01525535 -0.44131014 0.006050908 -0.04480811 -0.27405873
-0.14945512 -0.0054963767 -0.104640655 -0.21972737 0.01971665 -0.4613757 -0.031036537 -0.02451328
-0.04173266 0.07264432 0.09218157 -0.0029295117 0.14033927 0.075131156 0.0716662 -0.029103363
0.079029866 0.07223048 -0.017575415 0.08354009 -0.40716386 -0.10459462 0.013942253 -0.1954569
0.008525827 0.42296892 0.004219506 0.6068061 -0.07212503 -0.10868541 -0.12601645 0.1662567
-0.054966066 -0.1974447 -0.009738992 -0.064224765 -0.27180603 0.1887855 -0.15665837 0.04785266
-0.009021035 0.099130265 0.019652983 0.04121157 -0.96399444 0.612763 -0.018843047 -0.54189473
0.05461624 0.35142386 -0.023463562 0.070714764 0.06778014 -0.036517296 -0.26817113 0.029703366
0.31690252 0.6105343 1.4511076 -0.10759497 -0.2296604 -0.16314852 -1.2444577 0.073339924
0.48820707 -0.13068666 0.28454393 0.0063343155 0.03164215 -0.002018505 0.12867448 0.15329133
-0.3242882 0.00021006163 0.7771634 0.045240443 0.088442974 0.021055752 -0.083781324 -0.27365822
-0.047082674 -0.822872 0.034104038 0.32902732 0.03582671 -0.041110314 0.020126164 0.042764135
-0.734682 -0.1060114 -0.028826633 -0.14182898 -0.058478676 -0.043149244 0.40865746 -0.0041056545
00000000: 6763 133e 2890 16bd 2d1f 9abe 783e 193e
00000010: 07ec 4c3b 709b 87bc dbb8 913c d16c a23c
00000020: 5f5e e13e e966 c6bc 6021 79be b8dc 7bbb
00000030: 36f2 703d 0fed bf3c eaa8 33bd d255 233d
00000040: e921 493e 0dfb 8fbe aa80 223e 52e8 453b
00000050: 09ba c5be 45b1 663c e4d0 81bb abdb 6f3d
00000060: 0ec0 073f 3a27 e2bb 08c1 313d f264 0d3f
00000070: 298a 693b 4671 223a 53d6 67be dde5 0fbd
00000080: 66a1 43be 5ffb 30bd fb79 cd3e 6376 6c3e
00000090: 0c75 d9bc b084 d63c 1838 da3b 3e41 ffbc
000000a0: 8c1a b9bd 2975 b6bd f7de 2ebf 5ad3 9cbd
000000b0: 539a ae3c 7e35 e83d 5abe 12bd 2134 5bbd
000000c0: f9aa dd3a e98b fb3d 876e c0bb c396 2fbd
000000d0: 7fd9 093d 4b8e 013f 8799 f93d 68c7 6b3b
000000e0: 684a 96bb 5f30 b9be 5ffe 133f 2434 de3d
000000f0: 869d debc e787 31be c4fb 183d 33ec 9bbc
00000100: ad81 d7bc e15e 27be a924 ca3c 5424 513d
00000110: f9ac f33b 5924 15bd be89 23bf d3ef cbbc
00000120: 70ea 26bf a98d 98ba 099e 5d3d 4e0e 9dbe
00000130: c24e eb3d dc80 0fbc 24f8 013e 9bf6 08be
00000140: b751 193d c752 be3e 7af5 433d 7517 bbba
00000150: c173 d53c 3e74 ed3d bd83 fb3e 9df5 773d
00000160: 858d 2e3b 324d 2fbd 81c3 0e3d 60e9 cbba
00000170: 8a62 023f 69e5 173d ff12 a9bd bc0d d63a
00000180: 8e39 e73e 3630 a6bd d4c5 e0bd 6bb7 f03c
00000190: 4942 73be 0546 f1bd b232 5f3d ef07 d6bb
000001a0: aec3 713e 7b26 87b7 06fe 5b3b da47 af3e
000001b0: a3e1 e6be df59 0ebd 9aa5 bc3a 2774 86be
000001c0: ad6d a03c fb3b 1c3d 0362 393f a574 4f3e
000001d0: b8a3 3a3e 19db 39be 16b5 2bbd 01cf 993d
000001e0: ff81 f2bc 8ffd 833e d903 89be d69c ddbd
000001f0: 6472 edbd 4889 0ebe c609 0bbf 1d88 3fbc
00000200: 6de6 6e3c c832 593e b0c4 fbbc 9d19 053d
00000210: 3f0d b6bc dd14 193e 74c7 e2bb 4397 71bd
00000220: cf2d c2bc 2aae dd3e 8bbc aebb da10 993b
00000230: e1e9 7c3b 60b6 263f 0123 bbbe 5ae7 15be
00000240: cdbe 40bd 13da 5ebd 2a26 b03d f69e 1c3d
00000250: 7953 04be c2ea 46bd b852 093d b3a4 c6bc
00000260: 985e bd3c e8d5 9f3d 932c 04bf 93f1 79bc
00000270: 67f3 e1be b246 c63b b588 37bd 6d51 8cbe
00000280: c30a 19be f31a b4bb d74d d6bd 3600 61be
00000290: d084 a13c 7039 ecbe 5640 febc 13d0 c8bc
000002a0: deef 2abd 8cc6 943d b1c9 bc3d 0dfd 3fbb
000002b0: 19b5 0f3e 5dde 993d bbc5 923d 2d6a eebc
000002c0: 69da a13d 93ed 933d 51fa 8fbc 1117 ab3d
000002d0: c877 d0be b435 d6bd 0c6e 643c db25 48be
000002e0: e9af 0b3c 628f d83e c843 8a3b a557 1b3f
000002f0: 4ab6 93bd 7596 debd 750a 01be 323f 2a3e
00000300: 1924 61bd f22e 4abe 4b90 1fbc 4688 83bd
00000310: 292a 8bbe fc50 413e 0d6b 20be 2701 443d
00000320: f7cc 13bc cf04 cb3d 4bff a03c 77cd 283d
00000330: 57c8 76bf 09de 1c3f bc5c 9abc 9db9 0abf
00000340: 47b5 5f3d d4ed b33e a836 c0bc e7d2 903d
00000350: 50d0 8a3d 2993 15bd ba4d 89be 7954 f33c
00000360: 0c41 a23e fa4b 1c3f e5bd b93f c05a dcbd
00000370: 192c 6bbe 6810 27be 644a 9fbf 3e33 963d
00000380: 47f6 f93e b9d2 05be beaf 913e 1790 cf3b
00000390: 339b 013d e548 04bb 3ec3 033e 67f8 1c3e
000003a0: 1a09 a6be fd43 5c39 2ef4 463f 0b4e 393d
000003b0: 9721 b53d 1d7d ac3c 8b95 abbd ee1c 8cbe
000003c0: c3d9 40bd bda7 52bf adb0 0b3d 4576 a83e
000003d0: 07bf 123d 4a63 28bd a0df a43c 7229 2f3d
000003e0: 1f14 3cbf 811c d9bd d525 ecbc 9e3b 11be
000003f0: 5687 6fbd 43bd 30bd 8d3b d13e ba88 86bb

final.linears.2.bias f4 [10]
-0.014773708 -0.058875717 -0.21079825 -0.115129225 -0.4167804 0.029064808 0.11991507 -0.038184147
0.061003868 0.038662218
00000000: 6c0d 72bc aa27 71bd 7fdb 57be dfc8 ebbd
00000010: 3e64 d5be 5219 ee3c 0896 f53d fb66 1cbd
00000020: 31df 793d 465c 1e3d

layers.0.attn.0.gnn_q.weight f4 [10, 16]
-0.014530858 0.005742331 -3.1718137e-05 0.0137900775 1.222566e-13 -2.6692527e-05 2.3391193e-07 0.008769155
2.58582e-11 -0.014266508 0.00023049442 -7.529295e-14 7.909962e-14 3.6386089e-06 4.2917825e-16 7.934303e-06
0.016365651 -0.00095985865 1.0441596e-05 -0.016296962 -2.650316e-13 1.5945483e-05 1.3650775e-06 -0.013923205
-4.8072744e-12 0.016648546 -0.00043532735 1.5996251e-15 -1.09289815e-13 2.2494393e-07 -8.3882935e-15 -3.4834068e-06
0.22922522 -0.0069200387 0.00020113868 -0.19855005 -1.1599078e-12 2.1869522e-05 5.1452375e-06 -0.11023088
-7.3059545e-11 0.19630545 -0.0014439867 -2.521947e-13 -1.4826748e-13 1.3084625e-06 4.8535026e-15 6.828544e-06
-0.06105175 -0.0025950845 3.964248e-05 0.04840885 -1.5534432e-12 4.5084984e-05 -9.73399e-07 0.034673717
-1.2008619e-10 -0.04897164 -0.0036680738 6.4927955e-16 -2.1550525e-13 -4.010578e-06 -1.6206308e-14 -1.6003141e-05
-0.086150296 -0.0073043643 6.243088e-05 0.07544079 9.0446764e-13 1.8980494e-05 -5.1176576e-06 0.055914387
3.648712e-11 -0.07443831 6.4772525e-05 -9.8340105e-14 1.0678457e-13 -7.887111e-06 -1.13324496e-14 -1.9242452e-05
0.037840817 0.0012636986 -7.412046e-06 -0.032480784 -6.842683e-13 1.637611e-05 2.34959e-06 -0.02551877
-2.3232099e-11 0.031197172 -0.0015922117 -2.727947e-13 -6.465557e-14 6.404361e-07 -4.474284e-15 1.5948557e-06
0.026283318 0.0008752163 9.166679e-06 -0.02409802 -3.5702935e-13 -2.5289892e-06 8.201548e-07 -0.011286629
-6.6727695e-12 0.022336638 0.00019352158 -3.643471e-14 -6.595776e-14 1.510318e-06 -2.782724e-15 -3.2210926e-06
-0.027113704 -0.007563516 1.4891275e-05 0.018256271 -1.3541978e-13 1.0440808e-05 2.8212794e-06 0.008895119
-2.8208377e-12 -0.019381618 0.00078248733 7.2272585e-14 -1.11658756e-13 9.00734e-08 4.8205064e-15 4.7287544e-06
0.14216559 0.0023470058 -0.00011763977 -0.11314845 -1.05294e-12 2.4185505e-05 1.2152582e-06 -0.061085787
-5.5708e-11 0.11238089 -0.0043268297 -1.5278222e-13 -1.03614586e-13 2.585275e-07 -2.0512638e-14 -4.369672e-06
0.0041388343 0.0026911048 2.6748503e-06 -0.0004190443 4.6900754e-13 -6.7625983e-06 -4.3069026e-06 0.0033481522
2.070197e-11 0.0009085108 0.0008387269 -1.3717175e-13 1.1802531e-13 -2.6000894e-06 -2.356398e-16 -8.421293e-06
00000000: d612 6ebc 2a2a bc3b 1709 05b8 c7ef 613c
00000010: 11a6 092a c4e9 dfb7 3929 7b34 80ac 0f3c
00000020: 7d73 e32d 12be 69bc e0b0 7139 6e8b a9a9
00000030: d41d b229 d32e 7436 8867 f725 921d 0537
00000040: 4211 863c 069f 7bba 502e 2f37 3581 85bc
00000050: 1433 95aa aac2 8537 b537 b735 281e 64bc
00000060: 1424 a9ac 8862 883c a63c e4b9 c087 e626
00000070: 4a19 f6a9 1e88 7134 2d1c 17a8 79c4 69b6
00000080: 04ba 6a3e 7ec1 e2bb c1e8 5239 b450 4bbe
00000090: 153e a3ab 7174 b737 41a5 ac36 bac0 e1bd
000000a0: dea8 a0ae 4c04 493e 2744 bdba 16f9 8daa
000000b0: 31ef 26aa 6e9e af35 a9dd ae27 bf20 e536
000000c0: 6611 7abd 4b12 2abb ca45 2638 5c48 463d
000000d0: b1a0 daab a219 3d38 bca5 82b5 0706 0e3d
000000e0: 4209 04af 7d96 48bd 1164 70bb 6024 3b26
000000f0: 29a3 72aa 9a92 86b6 34f9 91a8 7c3e 86b7
00000100: 916f b0bd 7359 efbb 53ed 8238 b380 9a3d
00000110: c395 7e2b 4d38 9f37 58b8 abb6 7c06 653d
00000120: d878 202e 1d73 98bd 7cd6 8738 3671 dda9
00000130: 1d75 f029 e252 04b7 b325 4ca8 da6a a1b7
00000140: f9fe 1a3d b0a2 a53a feb4 f8b6 920a 05bd
00000150: ba9a 40ab 6e5f 8937 a6ad 1d36 bd0c d1bc
00000160: 095a ccad 3691 ff3c c2b1 d0ba dc91 99aa
00000170: 6697 91a9 6fea 2b35 fc33 a1a7 d30e d635
00000180: 1d50 d73c c66e 653a 96ca 1937 3669 c5bc
00000190: 5afd c8aa b4b7 29b6 9c28 5c35 8eeb 38bc
000001a0: f7c6 eaac 53fb b63c 0eec 4a39 5c16 24a9
000001b0: 0f86 94a9 22b6 ca35 3384 48a7 f329 58b6
000001c0: 8f1d debc 5fd7 f7bb 8ad5 7937 2d8e 953c
000001d0: 1878 18aa ee2a 2f37 3655 3d36 d5bc 113c
000001e0: b27f 46ac 33c6 9ebc d61f 4d3a 4fbe a229
000001f0: e46e fba9 606e c133 53ad ad27 b1ab 9e36
00000200: db93 113e 39d0 193b 5fb5 f6b8 60ba e7bd
00000210: 2930 94ab fae1 ca37 f41b a335 1735 7abd
00000220: a201 75ae f427 e63d 14c8 8dbb 7a04 2caa
00000230: be51 e9a9 c0cb 8a34 ecc2 b8a8 329f 92b6
00000240: 0f9f 873b 3f5d 303b 9481 3336 2db3 dbb9
00000250: 8e03 042b 47ea e2b6 0384 90b6 ac6c 5b3b
00000260: b118 b62d 2129 6e3a 02de 5b3a 1171 1aaa
00000270: 7be2 042a 327d 2eb6 4cd6 87a5 2e49 0db7

layers.0.attn.0.gnn_q.bias f4 [16]
0.09445887 0.005264773 -0.00019413908 -0.11170495 3.0538405e-13 -3.0066867e-05 -4.4878784e-06 -0.050140962
3.1953024e-11 0.0995008 0.0014302729 -1.9471672e-13 1.5846345e-13 -3.065955e-07 -2.1207848e-15 -4.99311e-06
00000000: a773 c13d 1e84 ac3b d091 4bb9 91c5 e4bd
00000010: 7bea ab2a 1b38 fcb7 9596 96b6 9c60 4dbd
00000020: e887 0c2e 13c7 cb3d ff77 bb3a 463b 5baa
00000030: fb69 322a 2a9a a4b4 93d1 18a7 7d8a a7b6

layers.0.attn.0.gnn_k.weight f4 [10, 16]
-0.014427067 -0.0014369914 -3.1217212e-05 0.014354615 5.323209e-13 -2.221908e-05 1.933438e-06 0.008471217
5.1267466e-11 -0.014538164 0.00067233277 5.1277985e-14 -9.293481e-15 4.573859e-06 2.2753842e-15 9.06736e-06
0.016423061 0.0005790007 1.0095893e-05 -0.016225504 -2.0039317e-13 1.0652891e-05 -1.8703879e-06 -0.013924157
-1.7967858e-11 0.016569028 -0.00019492058 -9.23499e-15 4.63028e-14 1.48114e-07 -7.8416786e-15 -5.992608e-06
0.22463158 0.0062000975 0.0001971055 -0.20595779 1.3005533e-12 -1.105883e-05 -1.6145954e-06 -0.10937608
7.023311e-11 0.19976127 0.0016736821 2.5027815e-13 1.7076949e-13 2.043457e-06 8.912225e-15 3.2594457e-06
-0.055034872 -0.0012406104 4.0047325e-05 0.05810314 6.965758e-13 2.6307722e-05 -3.84746e-06 0.0337654
4.3429677e-11 -0.053417288 -0.00060109614 1.8472257e-14 2.9037302e-14 -3.8084881e-06 -1.1767273e-14 -1.6510026e-05
-0.0813456 8.9475085e-05 6.0571e-05 0.08332031 -1.1418096e-12 5.213117e-05 -1.1235733e-06 0.054965068
-6.780143e-11 -0.078122996 -0.0016872736 1.5400355e-13 -3.0620203e-13 -6.131916e-06 -1.3319668e-14 -1.9590887e-05
0.034923192 0.0054317075 -5.2999985e-06 -0.037424427 -6.6373724e-13 2.7613127e-05 -1.6913331e-06 -0.024778884
-7.1895045e-11 0.03366583 -0.0023852102 2.843144e-13 5.6668307e-14 3.3258965e-07 -3.962865e-15 -1.0820819e-06
0.02658531 -0.0047346274 9.91114e-06 -0.02388763 2.9490326e-13 1.2029243e-05 -7.5027305e-07 -0.011088175
8.528154e-12 0.022378763 -0.0007360486 2.3738034e-14 2.251753e-14 4.783774e-07 -2.3261066e-15 -1.2210717e-06
-0.022938473 0.00322707 1.3722465e-05 0.025169356 4.282854e-13 -3.687034e-05 -2.4639157e-06 0.0081196735
1.26058105e-11 -0.022633571 0.0009024972 -7.7154944e-14 1.266277e-13 1.1986367e-07 5.9255554e-15 3.051253e-07
0.13205525 2.2834749e-05 -0.000118446434 -0.12946577 -6.767607e-13 2.2307542e-05 -1.7755008e-06 -0.05935445
-2.973012e-11 0.11998419 -0.004086333 1.7466893e-13 1.1212297e-14 1.7446352e-07 -1.9019588e-14 -6.290381e-06
0.002441047 -0.005080781 2.7203607e-06 -0.003396398 -1.2011072e-12 3.285645e-05 1.9089673e-06 0.0037529701
-9.0006835e-11 0.0022543473 -0.0023884936 1.6946346e-13 -1.7423641e-13 -1.9684087e-06 -5.085812e-15 -2.8835575e-06
00000000: 815f 6cbc 6e59 bcba 3aef 02b8 9e2f 6b3c
00000010: c3d5 152b 1c63 bab7 36c0 0136 dcca 0a3c
00000020: 097a 612e 7b31 6ebc 7d3f 303a 7eef 6629
00000030: 9e6a 27a8 2679 9936 6ef5 2327 0420 1837
00000040: a889 863c 14c8 173a 8861 2937 59eb 84bc
00000050: 669f 61aa d2b9 3237 0a0a fbb5 2622 64bc
00000060: 050c 9ead c5bb 873c 9863 4cb9 e05c 26a8
00000070: 7e87 5029 4409 1f34 5c43 0da8 1c14 c9b6
00000080: d205 663e 302a cb3b 1bae 4e39 99e6 52be
00000090: 5f09 b72b 5089 39b7 13b5 d8b5 9100 e0bd
000000a0: ba71 9a2e 388e 4c3e 745f db3a e2e4 8c2a
000000b0: f444 402a 5322 0936 628c 2028 dabc 5a36
000000c0: 3f6c 61bd fa9b a2ba 7df8 2738 8ffd 6d3d
000000d0: 9411 442b 67af dc37 6e19 81b6 974d 0a3d
000000e0: 7801 3f2e 16cc 5abd e192 1dba 2062 a628
000000f0: bbc5 0229 5495 7fb6 f8fa 53a8 037f 8ab7
00000100: 8698 a6bd 92a4 bb38 9e0d 7e38 d7a3 aa3d
00000110: 07b2 a0ab 6ba7 5a38 afcd 96b5 0d23 613d
00000120: d018 95ae f3fe 9fbd 8227 ddba 8064 2d2a
00000130: 5d60 acaa c2c0 cdb6 20f2 6fa8 1c57 a4b7
00000140: 9f0b 0f3d 77fc b13b a4d6 b1b6 5b4a 19bd
00000150: 4fd3 3aab bda2 e737 c301 e3b5 16fd cabc
00000160: 5019 9eae 2ee5 093d 3051 1cbb 060e a02a
00000170: 1c36 7f29 c68e b234 fac6 8ea7 0d3c 91b5
00000180: 70c9 d93c ef24 9bbb 0648 2637 feaf c3bc
00000190: 0a04 a62a 35d1 4937 5f66 49b5 2dab 35bc
000001a0: 6407 162d ab53 b73c 63f3 40ba 2ed0 d528
000001b0: e4d1 ca28 d869 0035 189d 27a7 b4e3 a3b5
000001c0: 77e9 bbbc 407d 533b 8a39 6637 f72f ce3c
000001d0: 6e1a f12a 3aa5 1ab8 c059 25b6 6108 053c
000001e0: 86c3 5d2d 0a6a b9bc 9095 6c3a ccbc ada9
000001f0: f391 0e2a e0b3 0034 9a7d d527 1ad0 a334
00000200: 7e39 073e 408d bf37 7266 f8b8 ad92 04be
00000210: bf7d 3eab 1521 bb37 be4d eeb5 a71d 73bd
00000220: 24c1 02ae 45ba f53d a5e6 85bb e4a8 442a
00000230: 98fb 4928 2b54 3b34 2f50 aba8 f611 d3b6
00000240: f9f9 1f3b ae7c a6bb 718f 3636 1a96 5ebb
00000250: 730a a9ab 58cf 0938 cf1b 0036 64f4 753b
00000260: 58ed c5ae acbd 133b 4688 1cbb 84cc 3e2a
00000270: 3a2c 44aa 0119 04b6 563c b7a7 2483 41b6

layers.0.attn.0.gnn_k.bias f4 [16]
0.1159908 -0.00470801 -0.00019166758 -0.07713083 -6.175023e-14 1.3240288e-05 2.2708464e-06 -0.05370714
-1.9320575e-11 0.083673544 -0.0006152115 2.0138218e-13 -1.5677295e-13 -8.178521e-07 -3.598385e-15 -7.377748e-07
00000000: 968c ed3d a645 9abb 60fa 48b9 c5f6 9dbd
00000010: 960c 8ba9 9b22 5e37 d864 1836 05fc 5bbd
00000020: 11f2 a9ad 095d ab3d 2546 21ba 76bc 622a
00000030: ba82 30aa 5e8a 5bb5 3ea5 81a7 800b 46b5

layers.0.attn.0.gnn_v.weight f4 [10, 16]
0.79207176 -0.0115275355 0.9834814 0.16639867 0.17666543 -0.33956033 -0.5005603 0.035202563
0.17975423 0.57839584 0.5276922 -1.0657705 -0.61516815 -0.41857108 0.39934584 0.9130558
-0.1923813 -0.2632574 0.13446282 0.2675656 0.13216484 0.1857636 0.0149634 -0.6269643
-0.1735969 -0.23811035 0.41716164 0.032607935 -0.0891143 -0.10277734 0.35634062 -0.13512214
0.11040985 0.23980458 0.079655774 0.4321809 -0.18533652 -0.318366 -0.26443043 0.4111652
-0.2823052 -0.028952274 -0.21631955 0.14201625 -0.22024573 -0.20943947 -0.007834262 -0.31566656
0.17749673 0.17458256 -0.05873336 -0.112821914 -0.08868203 0.02072604 0.17692117 0.35120624
-0.17740431 -0.083584115 -0.0050414647 -0.014828466 -0.3168158 -0.32522008 -0.09185586 -0.07228471
0.14216642 0.13808945 -0.63356286 -0.49149817 -0.05891247 0.11964949 0.10765915 0.13793181
0.05616823 0.29058027 0.22897246 -0.16654421 0.14191216 0.36816654 -0.02621165 0.54303825
0.18293487 0.2527337 0.02665245 -0.2095027 -0.23366107 0.14126635 0.12190082 0.3103766
-0.08986447 0.040164415 -0.0026094613 -0.08628366 -0.16263914 -0.07355696 -0.23337527 0.093793385
-0.017308261 -0.06418645 -0.024011869 -0.5830586 -0.18365735 0.6245102 -0.7052558 -0.1734365
-0.16205563 -0.25039414 -1.3106376 0.56903094 -0.73723805 -0.16133323 0.7267134 0.73598504
0.5341579 0.56633365 -0.10831124 -0.51698124 -0.4864335 0.15647778 0.3288054 0.78244555
-0.21628787 -0.098127715 0.052848853 -0.09807348 -0.30051866 -0.4972105 -0.71218526 -0.0474199
0.07035062 -0.008195716 0.09014085 -0.16774979 -0.052627753 0.13248259 0.06145965 -0.11846758
-0.10261887 -0.06641264 0.19999339 0.09014476 -0.012654081 -0.06781798 -0.18098412 0.10354306
0.75187814 -0.52819306 -0.7087954 -0.7796859 0.30590174 -0.87486666 -0.76747286 -0.22978249
-0.019254323 -0.5140776 0.32538337 0.2892525 0.54068536 -1.0298109 0.12182942 -0.18569572
00000000: 37c5 4a3f fddd 3cbc 70c5 7b3f 6a64 2a3e
00000010: c8e7 343e dada adbe b824 00bf 9030 103d
00000020: 7e11 383e c011 143f d616 073f 2b6b 88bf
00000030: a97b 1dbf f34e d6be 0f77 cc3e 06be 693f
00000040: 9aff 44be adc9 86be 9fb0 093e 5cfe 883e
00000050: 3856 073e d038 3e3e 0c29 753c bb80 20bf
00000060: 63c3 31be 33d3 73be 3696 d53e e68f 053d
00000070: 8f81 b6bd ed7c d2bd 4772 b63e 755d 0abe
00000080: 8f1e e23d 558f 753e 9122 a33d d146 dd3e
00000090: dbc8 3dbe de00 a3be 6d63 87be 3f84 d23e
000000a0: 4f8a 90be 522d edbc df82 5dbe b56c 113e
000000b0: 1988 61be 4d77 56be 475b 00bc 0c9f a1be
000000c0: b4c1 353e c5c5 323e 6492 70bd 2d0f e7bd
000000d0: ed9e b5bd a8c9 a93c d32a 353e 4ed1 b33e
000000e0: 7aa9 35be 262e abbd df32 a5bb 18f3 72bc
000000f0: ae35 a2be 3f83 a6be ed1e bcbd 020a 94bd
00000100: 1394 113e 5267 0d3e 2d31 22bf a6a5 fbbe
00000110: 344e 71bd cb0a f53d 677c dc3d ff3d 0d3e
00000120: a810 663d f0c6 943e c277 6a3e 918a 2abe
00000130: 6c51 113e 5380 bc3e d0b9 d6bc 8e04 0b3f
00000140: 4753 3b3e 5066 813e 3d56 da3c e087 56be
00000150: d944 6fbe 20a8 103e 23a7 f93d afe9 9e3e
00000160: dd0a b8bd 7183 243d 7f03 2bbb 7db5 b0bd
00000170: e08a 26be 08a5 96bd edf9 6ebe bf16 c03d
00000180: 0eca 8dbc 2f74 83bd 8ab4 c4bc 5443 15bf
00000190: ac10 3cbe e7df 1f3f a58b 34bf 5699 31be
000001a0: e9f1 25be a933 80be f9c2 a7bf 03ac 113f
000001b0: a2bb 3cbf 8a34 25be e409 3a3f 8469 3c3f
000001c0: 92be 083f 3efb 103f 49d2 ddbd e258 04bf
000001d0: d00d f9be b63b 203e 2e59 a83e 5a4e 483f
000001e0: 917a 5dbe 2ff7 c8bd 0a78 583d c0da c8bd
000001f0: 95dd 99be 6092 febe c651 36bf 5e3b 42bd
00000200: fc13 903d 5347 06bc c49b b83d 9ac6 2bbe
00000210: 3390 57bd 84a9 073e 1dbd 7b3d 219f f2bd
00000220: d829 d2bd 5a03 88bd 11cb 4c3e d19d b83d
00000230: 1053 4fbc 27e4 8abd e753 39be 620e d43d
00000240: 167b 403f a937 07bf 9e73 35bf 7f99 47bf
00000250: 279f 9c3e 43f7 5fbf 1a79 44bf 1a4c 6bbe
00000260: 3ebb 9dbc 979a 03bf a698 a63e e718 943e
00000270: 5b6a 0a3f d8d0 83bf b481 f93d 0527 3ebe

layers.0.attn.0.gnn_v.bias f4 [16]
-0.110324025 -0.20220912 0.00096617645 -0.2327855 0.14701502 0.20693187 0.15030287 -0.33314353
0.14393142 -0.0065570395 0.12398234 -0.07253896 0.16102484 0.13814314 0.029880565 0.16809997
00000000: 90f1 e1bd e80f 4fbe 0147 7d3a 525f 6ebe
00000010: 1b8b 163e f3e5 533e ffe8 193e ca91 aabe
00000020: c262 133e 6fdc d6bb 74ea fd3d 4e8f 94bd
00000030: b2e3 243e 6575 0d3e 16c8 f43c 6622 2c3e
