checkpoints/ames_33_train1_neg/Aug22-13:52:35_900.pth (torch, 377407 bytes, 294 tensors)

layers.0.weight f4 [10, 16]
0.28772524 1.2662283 -0.508182 0.861687 0.021969274 0.8755988 -0.13434316 0.7195259
1.2707305 -1.0604547 -0.18755244 0.010542464 -0.14858274 0.7924973 -0.5501919 -0.35312033
0.5117972 -0.29632628 -0.6400877 1.0516062 -0.18011023 -0.2288081 -0.16021028 0.8746086
-1.4496555 -0.2828226 -0.7616186 -0.14992784 0.06003668 0.17444788 1.611788 -0.47599426
0.6953261 -0.31540513 -0.43521473 0.23930003 0.37114176 0.4317693 0.26972604 -0.39368805
0.37484586 -0.12631638 0.42273325 2.2136364 0.64578825 -0.3324745 0.65737367 0.4952519
0.24968235 -0.4195295 -0.5295709 -0.10601775 -0.5608526 0.25600824 0.6435886 -0.013786611
0.07400121 -0.85935444 1.1812489 -0.6712503 -0.021785604 -0.35672146 0.4876546 -0.11664576
0.4101231 -0.32541493 0.6268225 0.1255521 0.35625222 0.19521122 1.2517059 0.07817323
0.33077818 -0.9156211 -0.71349955 -0.65197176 -0.05660756 -0.11961911 0.4728418 1.2942809
0.17921151 -1.3430182 -0.23926598 -0.11808117 0.53336155 0.87010837 0.26299575 -0.80396485
-1.3948365 -0.222214 -0.064269006 -0.030584428 0.38251314 0.87488884 -1.2393473 -0.3466895
0.59538114 0.8207729 -0.36221233 -1.1518316 -0.15496963 0.75517094 -0.48618177 -1.4113019
-0.44436312 -0.4976256 -0.42223236 -0.050689537 -0.9038159 -0.0030375144 1.2425865 -0.19729684
0.26320425 -1.0843523 -0.75481486 -0.05098671 0.11887793 -1.197515 -0.80182683 -0.2986843
0.47887674 -0.83993965 -0.4602995 -0.1875839 0.09288566 -0.49070272 -0.61138576 -0.06170805
0.47670147 -0.35700762 1.330296 0.2860346 -0.28127223 0.5832992 -0.4774262 -0.26688343
-0.48871425 -0.5671059 -0.27962163 -0.25574687 0.39534816 -0.91250557 0.08929575 -0.37878877
-0.5004094 1.0941584 0.45627806 1.2749938 0.3390421 -1.3383054 0.20295916 -1.2241354
-0.391288 -0.6195306 0.53975165 -0.17828394 0.3575011 -0.04148674 -0.028112821 0.026719792
00000000: b950 933e c513 a23f 3718 02bf 8597 5c3f
00000010: e8f8 b33c 3e27 603f 4191 09be d932 383f
00000020: 4ca7 a23f fbbc 87bf bf0d 40be 4dba 2c3c
00000030: 1326 18be 1ae1 4a3f 60d9 0cbf 30cc b4be
00000040: 2405 033f 14b8 97be cadc 23bf 089b 863f
00000050: d16e 38be ac4c 6abe 2a0e 24be 59e6 5f3f
00000060: 508e b9bf 20ce 90be 70f9 42bf af86 19be
00000070: 06e9 753d 77a2 323e 124f ce3f 85b5 f3be
00000080: e400 323f c87c a1be 77d4 debe 110b 753e
00000090: 4b06 be3e de10 dd3e 8819 8a3e 7b91 c9be
000000a0: cceb bf3e 1559 01be 7e70 d83e 38ac 0d40
000000b0: 6152 253f 193a aabe a449 283f a891 fd3e
000000c0: bbac 7f3e 92cc d6be f591 07bf d61f d9bd
000000d0: 0994 0fbf 8313 833e 39c2 243f 3de1 61bc
000000e0: f28d 973d a7fe 5bbf 2a33 973f 0fd7 2bbf
000000f0: b977 b2bc 32a4 b6be ddad f93e f9e3 eebd
00000100: a8fb d13e c99c a6be 7077 203f bb90 003e
00000110: b166 b63e 73e5 473e e637 a03f 4919 a03d
00000120: c25b a93e 2566 6abf e8a7 36bf 9fe7 26bf
00000130: 54dd 67bd ddfa f4bd 5218 f23e ffaa a53f
00000140: 3983 373e 05e8 abbf 2402 75be 8ad4 f1bd
00000150: 628a 083f 6cbf 5e3f 61a7 863e a4d0 4dbf
00000160: 018a b2bf 118c 63be 789f 83bd 328c fabc
00000170: c3d8 c33e b7f8 5f3f efa2 9ebf 4981 b1be
00000180: e66a 183f 2c1e 523f e573 b9be 386f 93bf
00000190: 5cb0 1ebe e252 413f d1ec f8be 8aa5 b4bf
000001a0: 9083 e3be c8c8 febe d72e d8be d59f 4fbd
000001b0: 7b60 67bf 0911 47bb 130d 9f3f 2f08 4abe
000001c0: b5c2 863e 0ecc 8abf 8c3b 41bf 71d7 50bd
000001d0: 4676 f33d 2c48 99bf 8644 4dbf 26ed 98be
000001e0: 552f f53e 4906 57bf 60ac ebbe fe15 40be
000001f0: d63a be3d 633d fbbe c783 1cbf 95c1 7cbd
00000200: 3712 f43e b4c9 b6be 2447 aa3f 2173 923e
00000210: ea02 90be 1953 153f 3571 f4be f2a4 88be
00000220: c138 fabe da2d 11bf 912a 8fbe 41f1 82be
00000230: 136b ca3e f799 69bf b1e0 b63d 9af0 c1be
00000240: d51a 00bf 620d 8c3f 479d e93e ff32 a33f
00000250: ed96 ad3e 974d abbf 87d4 4f3e 78b0 9cbf
00000260: e756 c8be 8f99 1ebf 2a2d 0a3f 1190 36be
00000270: 620a b73e 00ee 29bd dc4c e6bc 77e3 da3c

layers.0.bias f4 [16]
-0.74393344 -0.21706876 -0.124872506 0.45406416 0.40546766 0.32977593 -0.055117007 -0.109060064
0.29682314 0.36166337 -0.25115448 -0.46683395 -0.64853746 -0.36147636 0.0035256536 -0.80459976
00000000: 6c72 3ebf 4647 5ebe 28bd ffbd 197b e83e
00000010: 7599 cf3e 64d8 a83e 5fc2 61bd e25a dfbd
00000020: 34f9 973e f12b b93e 5297 80be dc04 efbe
00000030: 8d06 26bf 6e13 b9be a70e 673b 40fa 4dbf

layers.1.weight f4 [16, 16]
0.4773381 0.41148064 -0.021933394 -0.45742702 0.57502604 -0.63013595 -0.88558567 0.66435826
0.3974558 -0.7043051 -0.42535585 -0.23632662 -0.101523414 -0.030565105 0.10392835 -0.24509212
-0.18680888 0.523531 0.57894725 -0.6501098 0.055431113 0.69462615 0.47065347 -0.7326696
0.5917926 0.75547487 0.10330911 0.1564556 0.19538733 -0.35604125 0.1354492 0.15524334
0.33741704 0.02095373 -0.12527741 0.16990457 0.12123276 0.27894577 0.09907732 -0.17354825
-0.6265881 -0.24840538 0.84666026 0.07571937 0.8631814 -0.32161832 0.27950513 -0.7786703
0.088358805 0.07828074 1.3924454 0.17401335 -0.1915718 -0.5284464 -0.10131255 0.51663584
0.06348476 -0.042356055 0.053128917 -0.15127091 -0.49377728 0.27255735 -0.30893636 -0.3889707
-0.24127074 0.54464084 0.58460903 0.8276733 -0.8603676 -0.58361053 -0.06740523 0.4454648
0.08203954 0.5176881 0.6248731 -0.2397051 0.23467235 -0.4088666 -0.5579075 -0.04611874
0.20294265 -0.27871946 -0.27884188 -0.89202994 -0.21094303 -0.5382195 -0.27527922 0.36828345
-0.52867836 0.18503062 -0.34944764 -0.19431435 -0.53464943 0.10830112 -0.31964007 -0.50618124
0.46484962 -0.64237314 0.15117465 0.7620936 -0.016533107 -0.6585412 -0.18751803 -0.33898926
-0.34770098 0.930677 -0.19566719 -0.06623224 0.24618147 -0.3741193 0.08925855 -0.46435463
0.2585568 0.038564723 0.07690221 -0.64232427 0.042505827 0.46018034 0.24176468 -1.1102794
0.23012938 -0.4430876 0.2140394 0.12577061 0.23010269 -0.23145936 0.1583368 0.45968664
0.055537026 -0.24160005 0.845584 -0.98217946 -0.047173917 -0.717229 -0.31212938 -0.66066575
-1.0802076 0.035226416 -0.19439234 -0.21916458 -0.014346177 -0.14330359 -0.2222436 -0.024340315
-0.645843 0.3743668 -0.34762943 0.115442425 -0.12874594 0.45495626 0.7767199 -0.49049193
-0.75961226 0.363673 0.52047414 0.10812369 0.032944947 0.43578163 -0.3555919 0.52184767
-0.5356935 -0.21901013 0.71422523 0.8006142 0.054774467 -0.04586269 -0.52251583 -0.6408081
-0.5867595 0.09581001 -0.7422651 -0.11874455 -1.4310963 -0.19449602 -0.010728235 -0.5825867
-0.20508002 0.9000234 -0.18798423 -0.013054417 0.084644265 -0.85553116 -0.53631914 -0.5456868
-0.14945504 -0.018944548 0.7274376 -0.04559679 -1.2097286 -0.27073506 -0.17112821 -0.5118231
0.13053274 0.44407973 0.41106412 0.48972428 0.48459917 -0.40164077 -0.881103 0.72321606
-0.11722829 -0.49984607 -0.29058263 -0.24384058 -0.6008634 0.15408085 0.034962386 -0.4253927
-0.108799845 -0.13874237 0.43224138 0.2563384 0.22168879 0.2945924 -0.12830715 -0.012643551
-0.077272214 0.8939662 0.6319179 0.08190114 0.58507943 -0.56847113 0.5033453 0.8265062
0.35433498 0.21522386 -0.5117001 -0.8498702 0.023309417 -0.73155403 -0.61078787 0.10528674
1.3085467 0.3256706 -0.4250108 -0.2615439 -0.33144113 0.26306334 -0.21979818 -0.5871095
0.18556388 0.13244584 -0.1891366 0.11355115 0.43564123 -1.0442922 -1.4525872 -0.57721657
-0.48149002 0.17212619 -0.1718534 -0.3279013 0.59106815 -0.17298736 0.46619067 -0.34248215
00000000: a965 f43e 97ad d23e a9ad b3bc e033 eabe
00000010: e834 133f 9750 21bf beb5 62bf 6213 2a3f
00000020: 547f cb3e 574d 34bf 3ec8 d9be 9bff 71be
00000030: 82eb cfbd ac63 fabc 63d8 d43d 6ef9 7abe
00000040: d44a 3fbe 2106 063f e335 143f 996d 26bf
00000050: bc0b 633d 05d3 313f 7ef9 f03e 3c90 3bbf
00000060: b87f 173f cd66 413f ba93 d33d e635 203e
00000070: 9e13 483e 0a4b b6be 32b3 0a3e 1cf8 1e3e
00000080: edc1 ac3e 28a7 ab3c b948 00be 77fb 2d3e
00000090: e248 f83d fbd1 8e3e 0de9 ca3d a2b6 31be
000000a0: 1468 20bf fb5d 7ebe babe 583f c212 9b3d
000000b0: 75f9 5c3f 28ab a4be 4c1b 8f3e f056 47bf
000000c0: 76f5 b43d a751 a03d a73b b23f 8e30 323e
000000d0: 662b 44be 4348 07bf f47c cfbd 3f42 043f
000000e0: 4c04 823d 8b7d 2dbd b59d 593d c3e6 1abe
000000f0: 60d0 fcbe a38c 8b3e e82c 9ebe 2b27 c7be
00000100: ad0f 77be 956d 0b3f f0a8 153f 66e2 533f
00000110: 0d41 5cbf 8067 15bf c10b 8abd f613 e43e
00000120: 5904 a83d 3587 043f aff7 1f3f 4175 75be
00000130: f34d 703e f756 d1be 07d3 0ebf 01e7 3cbd
00000140: 33d0 4f3e 51b4 8ebe 5dc4 8ebe 135c 64bf
00000150: 7301 58be c1c8 09bf 66f1 8cbe a68f bc3e
00000160: 7757 07bf ab78 3d3e cdea b2be 57fa 46be
00000170: c9de 08bf facc dd3d dda7 a3be 1895 01bf
00000180: c500 ee3e 9172 24bf 87cd 1a3e 9118 433f
00000190: 7070 87bc 2896 28bf ba04 40be 0090 adbe
000001a0: dd05 b2be d940 6e3f fb5c 48be c5a4 87bd
000001b0: ff16 7c3e 918c bfbe 30cd b63d e4bf edbe
000001c0: 8f61 843e 0bf6 1d3d e87e 9d3d 5d6f 24bf
000001d0: 971a 2e3d c29c eb3e 2991 773e a31d 8ebf
000001e0: 09a7 6b3e 61dc e2be 252d 5b3e 03ca 003e
000001f0: 0aa0 6b3e af03 6dbe 0b23 223e 0c5c eb3e
00000200: cb7a 633d 0166 77be 3178 583f 1d70 7bbf
00000210: 7039 41bd 529c 37bf 6ccf 9fbe 6421 29bf
00000220: 3e44 8abf 9349 103d c90e 47be ae6c 60be
00000230: 3a0c 6bbc 2dbe 12be d493 63be 5765 c7bc
00000240: f855 25bf 01ad bf3e 7cfc b1be 146d ec3d
00000250: fad5 03be 07f0 e83e 1ed7 463f c221 fbbe
00000260: f375 42bf 5933 ba3e cb3d 053f f46f dd3d
00000270: 48f1 063d c51e df3e 2410 b6be cf97 053f
00000280: 3623 09bf 3144 60be 77d7 363f 0df5 4c3f
00000290: 315b 603d 84da 3bbd 99c3 05bf 000c 24bf
000002a0: df35 16bf 0a38 c43d 1605 3ebf 5830 f3bd
000002b0: 2a2e b7bf f729 47be 7bc5 2fbc 6724 15bf
000002c0: 7f00 52be ef67 663f f07e 40be 32e2 55bc
000002d0: f959 ad3d 1704 5bbf 364c 09bf 21b2 0bbf
000002e0: be0a 19be 9931 9bbc 5a39 3a3f b3c3 3abd
000002f0: 63d8 9abf c99d 8abe 3c3c 2fbe d706 03bf
00000300: 60aa 053e 6b5e e33e ff76 d23e 24bd fa3e
00000310: 621d f83e dca3 cdbe f78f 61bf b024 393f
00000320: 6315 f0bd d3eb ffbe 3fc7 94be 58b1 79be
00000330: 2fd2 19bf 5fc7 1d3e b834 0f3d 12cd d9be
00000340: 74d2 debd 7b12 0ebe be4e dd3e c93e 833e
00000350: 6302 633e d1d4 963e f362 03be e626 4fbc
00000360: e540 9ebd f8da 643f 5fc5 213f c9bb a73d
00000370: c4c7 153f 5387 11bf 3ddb 003f e995 533f
00000380: 656b b53e a563 5c3e c7fe 02bf 1891 59bf
00000390: 64f3 be3c 2047 3bbf 985c 1cbf 93a0 d73d
000003a0: 757e a73f 4cbe a63e 049b d9be 15e9 85be
000003b0: a7b2 a9be 3db0 863e c612 61be cf4c 16bf
000003c0: 7504 3e3e e29f 073e 06ad 41be 818d e83d
000003d0: 5e0c df3e 5eab 85bf 61ee b9bf 77c4 13bf
000003e0: dc85 f6be d941 303e 56fa 2fbe aee2 a7be
000003f0: 3e50 173f 9923 31be 8bb0 ee3e d259 afbe

layers.1.bias f4 [16]
0.32838485 0.45872334 -0.24419858 0.23316604 0.62172806 -0.22059366 -1.0179657 -0.27238038
0.2994362 -0.33334115 -0.15340263 0.05308738 -0.20353307 -0.49459183 -0.22122554 -0.48203164
00000000: 0f22 a83e c9dd ea3e 310f 7abe 14c3 6e3e
00000010: 9229 1f3f 4ee3 61be b34c 82bf 7175 8bbe
00000020: b44f 993e b1ab aabe 9415 1dbe 2772 593d
00000030: f96a 50be 243b fdbe f388 62be dacc f6be

final.linears.0.weight f4 [84, 42]
-0.079829 0.6510342 -0.6465145 -0.61068577 -0.5343479 -1.4134189 -1.6309404 0.45251718
0.08879044 0.4069156 -0.024871027 -0.25804275 0.10158023 -0.09203132 0.09125917 -0.020163374
0.03205516 -0.18748552 -0.06431398 -0.008266679 0.2112745 0.04979536 0.11154502 0.17007618
-0.15208024 0.07498246 0.09446312 0.054762427 0.14240709 -0.055834524 -0.08944099 0.052395884
-0.23395222 -0.26575163 0.07391177 -0.13671295 -0.028163863 0.03782451 0.049186606 -0.053744603
-0.06265155 0.048669152 -0.099990666 -0.21178526 -0.43217242 0.56323516 0.576972 -0.50609773
0.84712493 0.022428334 -0.34160548 -1.0092639 -0.056557316 0.06474303 0.2941283 0.7402701
0.73237723 -0.16593823 -0.04570297 -0.18699998 -0.1791409 -0.26627257 0.27481234 0.46666875
0.87169236 0.10968317 -0.30108035 -0.14530542 -0.0138528375 -0.16141634 -0.2582994 -0.19366516
0.015607207 0.029715193 0.17992726 -0.13239741 0.11753739 0.012546437 0.033062957 0.415691
0.0070542665 0.2100252 0.010216552 0.1176791 -0.846955 -0.2918954 0.2735086 0.55923307
0.30955818 0.55935556 -0.5410351 -0.1347427 0.48029888 0.6504345 0.042812478 -0.1318468
0.13161276 -0.14892852 -0.16816992 -0.0023801103 0.091886394 -0.027342835 0.010763775 -0.03575909
0.031110222 -0.004477785 0.052528445 0.05787653 -0.07164593 0.07643673 -0.053766128 0.07879461
0.02842925 0.0062089995 0.010680672 0.10227818 0.0316788 0.05103612 -0.045744292 -0.047774117
0.009782865 0.076413065 0.020527331 -0.0005101318 -0.027463492 0.063844845 -0.67415345 -0.124242045
0.049413648 -0.22722021 -0.25060138 0.29427996 0.5662463 -0.45605 -1.8116065 0.1468027
-0.13062066 0.2514543 -0.2752675 -0.34969142 0.10896469 -0.38075396 0.34651577 0.14822693
-0.38479468 0.58160853 0.121633306 0.104285695 -0.13904858 0.07247546 0.5222128 0.3957883
-0.04054855 0.11116503 -0.41902414 -0.16371167 0.09290546 -0.13293308 0.1026091 -0.27561384
0.27161437 0.207948 -0.13195276 0.17296535 0.031671945 0.24566562 0.034577504 0.038000673
-0.032377 -0.0013268458 -3.7846904 0.8087308 1.0181983 0.07413049 0.03562968 0.34286827
0.32381085 0.105387114 -0.44605535 -0.116866775 0.09093535 0.11622672 0.122902006 0.02310544
0.05811292 0.11708145 0.017467033 -0.02157907 -0.27171764 0.14673154 -0.45973262 -0.13361743
-0.07435478 -0.40152973 -0.00013842931 0.0036136105 -0.06951459 -0.014736015 -0.08634106 -0.5472166
0.29354456 -0.024777388 0.039479952 0.083643176 0.1313738 0.30758998 -0.31564674 -0.05151283
-0.016536977 -0.08564543 0.5116965 0.00095135916 -0.57131857 0.44097823 -0.7271817 -0.2590412
0.5296953 0.83245295 0.020332024 -0.00859415 -0.1938837 -0.010521487 -0.10798866 0.12883678
0.15052466 -0.023615114 0.012859674 -0.05993467 -0.16989997 0.098603934 -0.114058696 -0.11127142
-0.066312686 -0.07424591 0.1764913 -0.28485474 0.15188175 -0.016983114 0.030565865 0.048613284
-0.09630705 -0.098339915 -0.29650128 -0.013606112 -0.10512854 0.08833514 -0.024502791 0.40373802
0.13776486 -0.031943288 0.09166398 -0.10009012 0.059823267 0.010021637 -3.5607982 0.9473961
00000000: 637d a3bd 2daa 263f f981 25bf e755 1cbf
00000010: 06cb 08bf e9ea b4bf a8c2 d0bf 55b0 e73e
00000020: c3d7 b53d 3e57 d03e 53be cbbc 2e1e 84be
00000030: 4c09 d03d eb7a bcbd 16e6 ba3d a92d a5bc
00000040: 454c 033d 34fc 3fbe 0cb7 83bd f770 07bc
00000050: 5858 583e 38f6 4b3d b771 e43d 7328 2e3e
00000060: ecba 1bbe 6790 993d e175 c13d 914e 603d
00000070: 2ad3 113e beb2 64bd d62c b7bd 119d 563d
00000080: 2c91 6fbe 9910 88be 0e5f 973d 7bfe 0bbe
00000090: e7b7 e6bc e0ed 1a3d e577 493d 4d23 5cbd
000000a0: 754f 80bd 4e59 473d e8c7 ccbd 3cde 58be
000000b0: b445 ddbe 2e30 103f 70b4 133f 9f8f 01bf
000000c0: 2edd 583f a0bb b73c eae6 aebe 8f2f 81bf
000000d0: a5a8 67bd fe97 843d fc97 963e 5782 3d3f
000000e0: 137d 3b3f b6eb 29be 0a33 3bbd ec7c 3fbe
000000f0: b670 37be e154 88be 34b4 8c3e 35ef ee3e
00000100: 3b27 5f3f 92a1 e03d 3427 9abe f2ca 14be
00000110: 03f7 62bc 534a 25be d23f 84be 2950 46be
00000120: 5fb5 7f3c 476d f33c da3e 383e 3093 07be
00000130: 71b7 f03d 928f 4d3c 066d 073d 73d5 d43e
00000140: 7a27 e73b d910 573e 5363 273c bd01 f13d
00000150: 0bd2 58bf 5073 95be 5209 8c3e e629 0f3f
00000160: 697e 9e3e ed31 0f3f 4781 0abf fef9 09be
00000170: bce9 f53e e082 263f 235c 2f3d d902 07be
00000180: 7fc5 063e b880 18be bc34 2cbe a0fb 1bbb
00000190: ef2e bc3d 15fe dfbc 8b5a 303c 2078 12bd
000001a0: ddda fe3c 62ba 92bb 1128 573d f10f 6d3d
000001b0: 1abb 92bd dc8a 9c3d df39 5cbd 125f a13d
000001c0: 75e4 e83c dd74 cb3b fcfd 2e3c 3977 d13d
000001d0: a1c1 013d 400b 513d 5e5e 3bbd cbae 43bd
000001e0: 4f48 203c 747e 9c3d ef28 a83c 5eba 05ba
000001f0: 1efb e0bc 16c1 823d 5295 2cbf 9d72 febd
00000200: f765 4a3d 6aac 68be d34e 80be ddab 963e
00000210: 84f5 103f 637f e9be b9e2 e7bf 7253 163e
00000220: 6cc1 05be 9ebe 803e ddef 8cbe c10a b3be
00000230: e128 df3d 2ff2 c2be 846a b13e cdc8 173e
00000240: cf03 c5be 4ce4 143f e21a f93d bd93 d53d
00000250: c062 0ebe 046e 943d bdaf 053f c4a4 ca3e
00000260: 3d16 26bd 7eaa e33d 558a d6be 08a4 27be
00000270: 3845 be3d 9c1f 08be b824 d23d 421d 8dbe
00000280: 0a11 8b3e 52f0 543e a01e 07be d41d 313e
00000290: 71ba 013d c58f 7b3e 24a1 0d3d 98a6 1b3d
000002a0: bf9d 04bd 8fe9 adba 5e38 72c0 fb08 4f3f
000002b0: 5254 823f bad1 973d 6df0 113d 6e8c af3e
000002c0: 89ca a53e 33d5 d73d 5e61 e4be d957 efbd
000002d0: 503c ba3d 4608 ee3d 0cb4 fb3d 9f47 bd3c
000002e0: d007 6e3d 66c8 ef3d 0617 8f3c 97c6 b0bc
000002f0: 931e 8bbe cb40 163e 1362 ebbe 02d3 08be
00000300: 5247 98bd 4e95 cdbe 5627 11b9 53d2 6c3b
00000310: aa5d 8ebd 546f 71bc 95d3 b0bd 6316 0cbf
00000320: 794b 963e f3f9 cabc bbb5 213d 1d4d ab3d
00000330: da86 063e 6f7c 9d3e 739c a1be 1eff 52bd
00000340: 8e78 87bc df66 afbd 8bfe 023f a264 793a
00000350: ef41 12bf e6c7 e13e 9428 3abf 0ca1 84be
00000360: 1c9a 073f a31b 553f 588f a63c 7ace 0cbc
00000370: 7389 46be 5162 2cbc 2929 ddbd caed 033e
00000380: 2323 1a3e 7c74 c1bc 62b1 523c 0e7e 75bd
00000390: 42fa 2dbe dcf0 c93d 9b97 e9bd 45e2 e3bd
000003a0: f2ce 87bd 3d0e 98bd 23ba 343e 7bd8 91be
000003b0: e486 1b3e 2c20 8bbc 4465 fa3c b91e 473d
000003c0: a13c c5bd 7066 c9bd 04cf 97be 2cec 5ebc
000003d0: a24d d7bd 0ee9 b43d 14ba c8bc c0b6 ce3e
000003e0: 3b12 0d3e f7d6 02bd 53ba bb3d 0dfc ccbd
000003f0: 3e09 753d cb31 243c 1ee4 63c0 8d88 723f

final.linears.0.bias f4 [84]
0.26838154 0.06483176 0.12205318 0.3063748 0.23848775 0.18949606 -0.24132368 0.018119413
0.30311215 0.12207257 0.13544099 0.08498843 0.12104525 0.40130907 0.03373875 0.3135022
0.13907413 0.04351857 0.27475655 0.13684455 0.031430498 0.28500324 0.04578055 0.26111698
0.077306144 0.15892409 0.027835146 -0.01999655 0.29852563 0.0958377 0.039188217 0.070355676
0.07841579 0.25521767 0.3061615 0.22132003 0.1071961 0.087533176 0.10765984 0.2884264
-0.31680843 0.35031122 -0.08444217 0.15218723 0.19121142 0.11239611 0.24197479 0.5085721
0.18429114 0.30158833 -0.033785913 0.27485153 -0.046870917 -0.034812454 0.25739974 0.18311493
0.08072404 0.13509579 0.037496805 -0.09249891 0.22586061 0.1271984 0.2741692 0.035725694
0.22905414 0.18684997 0.17278235 0.08729529 -0.20207188 0.25327736 0.16887836 0.17593578
0.052455448 0.3240416 -0.07121093 0.16377416 0.076514155 0.18619044 -0.051365767 0.11745419
0.09755383 0.15522434 0.2891096 -0.015745895
00000000: 4e69 893e 84c6 843d 05f7 f93d 28dd 9c3e
00000010: 2236 743e 410b 423e 8e1d 77be 2a6f 943c
00000020: 8431 9b3e 2f01 fa3d 0bb1 0a3e 6a0e ae3d
00000030: 92e6 f73d 6278 cd3e a531 0a3d 5c83 a03e
00000040: 7369 0e3e 8740 323d e4ac 8c3e fa20 0c3e
00000050: 44bd 003d f2eb 913e 6384 3b3d 20b1 853e
00000060: af52 9e3d ffbc 223e 8806 e43c cecf a3bc
00000070: 5ad8 983e 8e46 c43d d383 203d a316 903d
00000080: 7598 a03d e4ab 823e 33c1 9c3e b8a1 623e
00000090: a189 db3d 9844 b33d c37c dc3d a0ac 933e
000000a0: b734 a2be fe5b b33e 04f0 acbd f8d6 1b3e
000000b0: edcc 433e ef2f e63d 3dc8 773e c831 023f
000000c0: d1b6 3c3e c969 9a3e 1963 0abd 57b9 8c3e
000000d0: b8fb 3fbd 8197 0ebd e6c9 833e 7b82 3b3e
000000e0: a552 a53d 8d56 0a3e 4096 193d 1270 bdbd
000000f0: 0148 673e 4c40 023e e85f 8c3e 1b55 123d
00000100: 2b8d 6a3e 9955 3f3e dbed 303e dfc7 b23d
00000110: eeeb 4ebe 92ad 813e 73ee 2c3e 8228 343e
00000120: 86db 563d c8e8 a53e 09d7 91bd 6ab4 273e
00000130: 74b3 9c3d b5a8 3e3e e964 52bd d38b f03d
00000140: 4dca c73d 21f3 1e3e 2c06 943e 89fd 80bc

final.linears.1.weight f4 [84, 84]
-0.10184799 -0.10158884 -0.25495046 0.058609854 0.08343008 0.14805152 -0.07997877 -0.024504302
-0.074946016 -0.052307755 -0.0044107526 -0.17544763 -0.0132871345 -0.1648827 -0.15208836 -0.12772119
-0.051200837 -0.00344882 -0.04615823 -0.13692199 -0.0786728 0.02851091 -0.1374429 -0.13297455
-0.079718925 0.10172774 -0.09686345 -0.0726345 0.0026836866 0.03724323 -0.19261882 0.11886906
-0.044486083 0.14637733 -0.11501252 -0.08527955 0.09976245 -0.050024055 -0.18466125 -0.037403997
0.07125088 -0.08077227 -0.0042133513 -0.010891983 -0.09862283 -0.15618552 -0.057616744 -0.046183426
-0.081758544 -0.18671165 -0.16515653 0.064583585 -0.14881726 0.10636157 -0.039843645 -0.119464196
-0.06789372 -0.14698827 -0.113988385 -0.048326723 -0.03786325 -0.13065115 0.062793754 -0.020609463
-0.23999797 -0.029028356 -0.063670516 -0.17659655 0.13373786 0.05245974 0.24734183 0.13936102
0.065761544 -0.01766027 -0.23288044 -0.026878363 -0.003678041 -0.08969172 -0.08508903 -0.09076417
-0.096812785 -0.22995049 -0.06729024 0.06061732 -0.06647297 -0.033783324 -0.18438767 -0.052647546
0.20069328 -0.06325933 -0.2263661 0.112260155 -0.15976319 -0.113092065 0.047654502 -0.13309464
-0.14532295 -0.009880839 -0.150828 -0.17442876 -0.049517937 -0.14574206 -0.08409158 -0.1689774
-0.12111565 -0.03025019 -0.1163935 -0.05433265 -0.38034704 -0.076817505 -0.09512156 0.1675888
0.061500356 -0.08993347 -0.25679323 -0.2534893 -0.0674222 -0.1983761 -0.20450018 -0.13005564
-0.19117136 -0.09642912 -0.15604554 -0.1514533 0.094130605 -0.16119541 -0.09112994 -0.258577
-0.25739032 -0.29063767 -0.07467813 -0.07839802 -0.096115924 -0.07358618 -0.19061354 -0.26433164
0.039572246 -0.07217039 -0.27452984 -0.1331192 -0.06178915 0.09247591 -0.13774389 -0.05767811
-0.13546343 -0.12493086 0.028509317 -0.10782999 -0.2391337 -0.047550015 -0.18362732 -0.032651454
0.12241211 -0.01136604 -0.094662756 -0.10182285 -0.13514599 -0.11254442 -0.2661931 -0.15153018
-0.04753143 -0.0023606117 0.0137533685 -0.14538848 -0.1257232 -0.24874082 -0.14359774 0.055690218
-0.28181264 -0.079445 -0.117403954 -0.40015772 0.13891059 -0.214358 0.14277034 0.3537247
-0.23036584 -0.15905564 -0.184159 -0.25955784 -0.4691894 -0.22518437 -0.1744634 -0.37256622
-0.3282595 0.021679616 -0.36637667 -0.18928169 -0.46937564 -0.45224088 -0.32545096 -0.23691897
-0.44146925 -0.4999138 -0.19225265 -0.22474733 0.040332273 -0.29607776 -0.18788135 -0.22469014
-0.43862823 -0.79811525 -0.17560963 -0.50645554 -0.44822055 -0.17563424 -0.15081729 -0.4664443
0.20338961 -0.48192206 -0.14639267 -1.7936072 -0.44932625 -0.0783699 -0.2368187 -0.32268167
-0.13011137 -0.37530324 -0.023515195 -0.1994354 -0.097345926 -0.2927816 -0.5122512 -0.31037906
0.0026483077 -0.28414968 -0.35101625 0.008028744 -0.5492513 -0.27519837 -0.22698617 -0.26774615
-0.09515185 -0.41371012 -0.25476965 -0.18304299 -0.12207496 -0.4136072 -0.22476381 -0.4116348
-0.32047546 -0.35416672 -0.16391967 -0.3355782 -0.013703075 -0.5204753 -0.15498058 -0.35497287
-0.29854634 -0.21182597 -0.37151614 0.25107932 0.1968321 -0.06808363 -0.10942926 -0.06226459
00000000: ae95 d0bd cf0d d0bd de88 82be e310 703d
00000010: 64dd aa3d d19a 173e e9cb a3bd 3fbd c8bc
00000020: 4c7d 99bd a840 56bd 1388 90bb 8ba8 33be
00000030: 48b2 59bc 03d7 28be 0dbd 1bbe 58c9 02be
00000040: f8b7 51bd 9905 62bb 6a10 3dbd 4735 0cbe
00000050: 341f a1bd b68f e93c d5bd 0cbe 7b2a 08be
00000060: ad43 a3bd a256 d03d 5860 c6bd 66c1 94bd
00000070: cae0 2f3b 5b8c 183d de3d 45be 9f71 f33d
00000080: 0a37 36bd f0e3 153e af8b ebbd 0ba7 aebd
00000090: 4150 cc3d 06e6 4cbd d717 3dbe ef34 19bd
000000a0: fbeb 913d ef6b a5bd 2710 8abb 4a74 32bc
000000b0: c4fa c9bd 19ef 1fbe 89ff 6bbd d52a 3dbd
000000c0: 0671 a7bd 5731 3fbe cb1e 29be 6644 843d
000000d0: 8d63 18be 18d4 d93d 1733 23bd a5a9 f4bd
000000e0: dd0b 8bbd 1884 16be be72 e9bd 3ef2 45bd
000000f0: 7f16 1bbd 6ac9 05be 039a 803d 2dd5 a8bc
00000100: 07c2 75be e0cc edbc b065 82bd bad5 34be
00000110: 94f2 083e 06e0 563d 2d47 7d3e a8b4 0e3e
00000120: fdad 863d 45ac 90bc 3678 6ebe 0330 dcbc
00000130: 4a0b 71bb 4bb0 b7bd 2843 aebd 91e2 b9bd
00000140: c845 c6bd 2478 6bbe 77cf 89bd de49 783d
00000150: fb22 88bd 6260 0abd 1fd0 3cbe f4a4 57bd
00000160: 8a82 4d3e 1c8e 81bd 84cc 67be a7e8 e53d
00000170: f698 23be d09c e7bd 5e31 433d f649 08be
00000180: 8acf 14be 3ee3 21bc a872 1abe 749d 32be
00000190: 52d3 4abd 683d 15be 3538 acbd 6908 2dbe
000001a0: 7b0b f8bd 3fcf f7bc b75f eebd ea8b 5ebd
000001b0: d9bc c2be 7f52 9dbd 18cf c2bd 669c 2b3e
000001c0: cce7 7b3d 0a2f b8bd 677a 83be 59c9 81be
000001d0: a714 8abd 1b23 4bbe 7f68 51be 4e2d 05be
000001e0: 6dc2 43be a17c c5bd 67ca 1fbe 9316 1bbe
000001f0: 8cc7 c03d 6910 25be 55a2 babd 3464 84be
00000200: aac8 83be 76ce 94be d9f0 98bd 248f a0bd
00000210: 6dd8 c4bd 5ab4 96bd 3230 43be 7a56 87be
00000220: 8216 223d 12ce 93bd 2d8f 8cbe 6650 08be
00000230: 9f16 7dbd 0364 bd3d bc0c 0dbe e23f 6cbd
00000240: edb6 0abe c0db ffbd 5f8c e93c f8d5 dcbd
00000250: 77df 74be cec3 42bd cd08 3cbe 88bd 05bd
00000260: 33b3 fa3d a138 3abc 8cde c1bd 8088 d0bd
00000270: b663 0abe b07d e6bd 764a 88be ba2a 1bbe
00000280: 51b0 42bd 7eb4 1abb cf55 613c b8e0 14be
00000290: 95bd 00be eab5 7ebe 490b 13be 6d1b 643d
000002a0: bf49 90be 0fb4 a2bd 7c71 f0bd 79e1 ccbe
000002b0: 943e 0e3e aa80 5bbe 6332 123e 671b b53e
000002c0: 06e5 6bbe 7bdf 22be 2d94 3cbe c4e4 84be
000002d0: 9839 f0be bb96 66be 89a6 32be 00c1 bebe
000002e0: a111 a8be 7399 b13c b995 bbbe 0fd3 41be
000002f0: 0152 f0be 1e8c e7be 82a1 a6be e39a 72be
00000300: 4208 e2be b4f4 ffbe e1dd 44be 2a24 66be
00000310: 7433 253d 8197 97be f863 40be 2c15 66be
00000320: e193 e0be 4851 4cbf 03d3 33be 12a7 01bf
00000330: 2a7d e5be 76d9 33be d96f 1abe cad1 eebe
00000340: 5e45 503e 7dbe f6be f6e7 15be ec94 e5bf
00000350: 170e e6be 6680 a0bd 9a80 72be 8836 a5be
00000360: ea3b 05be bf27 c0be f0a2 c0bc cb38 4cbe
00000370: 4d5d c7bd 78e7 95be e522 03bf 01ea 9ebe
00000380: 3b8f 2d3b 117c 91be 67b8 b3be fe8a 033c
00000390: bc9b 0cbf cde6 8cbe 106f 68be 0616 89be
000003a0: f9de c2bd d0d1 d3be 2b71 82be 9f6f 3bbe
000003b0: 7002 fabd 53c4 d3be 7c28 66be ccc1 d2be
000003c0: 5c15 a4be 5755 b5be 8fda 27be e8d0 abbe
000003d0: dd82 60bc df3d 05bf 3bb3 1ebe 01bf b5be
000003e0: 11db 98be e8e8 58be 5d37 bebe 788d 803e
000003f0: 5b8e 493e 6e6f 8bbd 731c e0bd 2809 7fbd

final.linears.1.bias f4 [84]
0.045291867 -0.018532287 -0.4057143 -0.07001548 -0.36742654 -0.23562306 -0.04513997 0.19973034
-0.07787998 -0.047880698 -0.0490266 0.106173985 -0.04772315 0.25648147 -0.09980286 0.28376302
-0.08995177 -0.3494784 -0.12297814 -0.13430867 -0.12512338 -0.3218767 -0.03175151 -0.16227174
-0.30165172 0.48620263 -0.07210509 -0.20483893 -0.22912413 -0.33525717 -0.43048579 -0.032539666
0.006745696 -0.046032716 -0.14150162 -0.15114148 0.018030388 -0.4345546 0.08817089 -0.049329113
-0.123834744 -0.49906337 -0.426865 -0.10180602 -0.31483716 0.17689328 -0.059240635 -0.07130079
0.17475453 -0.5663204 -0.31034526 0.16798513 -0.07094624 -0.25671342 0.090370305 -0.2009273
-0.2226925 -0.24892823 -0.31875813 -0.16024646 -0.3281993 -0.07075791 -0.2485645 -0.23813087
0.35361317 -0.13513495 -0.20385806 -0.4200325 -0.3366786 -0.20714965 -0.18965273 -0.2333541
-0.30643493 0.31838197 -0.15856494 -0.30150482 -0.108352885 -0.24220957 -0.25697637 -0.2655933
0.039107278 -0.28696814 0.13060778 0.78207964
00000000: f783 393d 06d1 97bc c9b9 cfbe 4764 8fbd
00000010: 551f bcbe 2c47 71be b0e4 38bd 1c86 4c3e
00000020: 8a7f 9fbd 8d1e 44bd 1ed0 48bd bf71 d93d
00000030: 5a79 43bd 8a51 833e 7165 ccbd 6349 913e
00000040: a238 b8bd d5ee b2be f7db fbbd 3688 09be
00000050: 5820 00be 06cd a4be df0d 02bd 902a 26be
00000060: 1872 9abe 8def f83e d5ab 93bd 4cc1 51be
00000070: 849f 6abe d4a6 abbe a268 dcbe 5048 05bd
00000080: 000b dd3b cd8c 3cbd cde5 10be d5c4 1abe
00000090: 77b4 933c f17d debe f192 b43d 530d 4abd
000000a0: 129d fdbd 3c85 ffbe 0d8e dabe ad7f d0bd
000000b0: 5632 a1be 8323 353e 4fa6 72bd 2606 92bd
000000c0: daf2 323e 60fa 10bf 93e5 9ebe 4b04 2c3e
000000d0: 434c 91bd f16f 83be 1114 b93d e3bf 4dbe
000000e0: 8109 64be 0be7 7ebe 4434 a3be a617 24be
000000f0: bd09 a8be 86e9 90bd b187 7ebe 94d8 73be
00000100: c90c b53e d160 0abe 2bc0 50be 800e d7be
00000110: 2361 acbe 0a1f 54be 5334 42be 61f4 6ebe
00000120: 0ae5 9cbe f602 a33e d95e 22be d75e 9abe
00000130: 1ee8 ddbd c905 78be 6892 83be d8fb 87be
00000140: f42e 203d 7ded 92be 0cbe 053e 5f36 483f

final.linears.2.weight f4 [10, 84]
0.1372384 -0.036624465 -0.3022786 0.15001372 0.0053043193 -0.020008883 0.016737735 0.016950289
0.42378527 -0.024117693 -0.23411095 -0.0053093135 0.0631934 0.025527505 -0.036020707 0.03765829
0.1975407 -0.27578345 0.15148424 0.0035408211 -0.37439275 0.015210037 -0.0043496406 0.05768072
0.5247428 -0.008677631 0.046325978 0.5406385 0.0024870199 0.0002105145 -0.22214507 -0.033007592
-0.1930399 -0.04141084 0.39218715 0.22159944 -0.026305875 0.020454366 0.019809294 -0.035127793
-0.0874046 -0.097033635 -0.6639697 -0.07505594 0.017777462 0.114820965 -0.037683688 -0.060353357
0.00093450054 0.120386936 -0.004864948 -0.03491616 0.0329806 0.49335814 0.12165011 0.00031670253
-0.007056045 -0.36195746 0.576901 0.113512434 -0.025230374 -0.1714071 0.031426985 -0.027774215
-0.032421317 -0.16135754 0.024321442 0.052229017 0.0076055326 -0.035077423 -0.62774247 -0.032621346
-0.63315135 0.00038188297 0.056747705 -0.2960312 0.1048844 -0.008804705 0.12488504 -0.13195916
0.038584832 0.35666725 0.051697776 0.0002762993 0.026311042 0.11154545 0.4832948 0.059537303
0.0023171995 -0.05134212 0.03320065 0.005475727 0.49973056 0.036857907 -0.08469267 -0.00066751393
0.43468967 -0.0813777 -0.10088555 0.02815528 -0.22992249 -0.119031586 0.053383958 -0.00564028
0.22619973 0.0010973321 0.0018187745 0.34030548 -0.44251192 -0.03562809 0.0013032692 -0.2589847
0.015473136 0.033526562 0.7067064 0.2000573 0.1810439 -0.1700298 -0.04248739 0.082135305
-0.021777187 0.25148144 -0.24698995 -0.108297765 -0.09174019 -0.14063455 -0.5328411 -0.013869632
0.01611539 0.21922259 -0.027771078 0.030374631 -0.016803531 0.15628444 -0.006625147 -0.051994514
-0.0268276 0.42148045 -0.00988423 -0.0077716885 0.007876064 0.6409644 -0.35877588 -0.13565166
-0.053523034 -0.055577107 0.07546589 0.038034193 -0.12390424 -0.05141787 0.031914447 -0.019246208
0.021698704 0.0790659 -0.49911934 -0.016967142 -0.43476194 0.0055982717 -0.051094968 -0.2653066
-0.14440164 -0.0026325374 -0.10127516 -0.21910506 0.019407466 -0.44924468 -0.020550098 -0.02449896
-0.041930214 0.08039255 0.090574935 0.0017679015 0.13874768 0.06924813 0.07090369 -0.020000685
0.08306845 0.07241777 -0.020153655 0.08226783 -0.40526906 -0.09892769 0.008527435 -0.18636848
0.010057114 0.4213453 0.0024760193 0.59146523 -0.072323665 -0.1034497 -0.12767789 0.16964868
-0.04570731 -0.1996196 -0.0116857225 -0.06346684 -0.26582563 0.18642525 -0.1556565 0.043702964
-0.012368619 0.105560325 0.021194274 0.03785802 -0.9339067 0.5859825 -0.023170058 -0.5273374
0.058167268 0.34203845 -0.021425497 0.06709229 0.06703821 -0.037093133 -0.25034717 0.03231657
0.30855307 0.60187775 1.3844501 -0.11134356 -0.23505083 -0.16054633 -1.2183347 0.059395302
0.4907248 -0.13154979 0.2822715 0.010788197 0.039837614 -0.0071041235 0.12647507 0.146215
-0.32657245 0.00016383379 0.76033926 0.04360534 0.0885322 0.024718612 -0.07961488 -0.28896594
-0.044251814 -0.79754376 0.035582777 0.33351365 0.032359306 -0.038475018 0.020545542 0.043386303
-0.7218338 -0.10022713 -0.024385627 -0.14153805 -0.06512304 -0.049080726 0.40687045 0.000482856
00000000: 3988 0c3e 8903 16bd 43c4 9abe 329d 193e
00000010: dbcf ad3b abe9 a3bc 931d 893c 55db 8a3c
00000020: 62fa d83e 7892 c5bc c8ba 6fbe c0f9 adbb
00000030: 8b6b 813d 0f1f d13c 738a 13bd 943f 1a3d
00000040: 1c48 4a3e 7d33 8dbe af1e 1b3e 1f0d 683b
00000050: 68b0 bfbe 8533 793c 6e87 8ebb 9e42 6c3d
00000060: 8b55 063f 9f2c 0ebc 4fc0 3d3d 4967 0a3f
00000070: 45fd 223b 8ebd 5c39 ff79 63be f832 07bd
00000080: 40ac 45be 6a9e 29bd c1cc c83e f7ea 623e
00000090: 6b7f d7bc ea8f a73c 1a47 a23c 29e2 0fbd
000000a0: 2f01 b3bd 92b9 c6bd ebf9 29bf eeb6 99bd
000000b0: 0aa2 913c 4127 eb3d 365a 1abd 1535 77bd
000000c0: 45f9 743a 6d8d f63d 246a 9fbb 3f04 0fbd
000000d0: aa16 073d 7099 fc3e b123 f93d 180b a639
000000e0: 6536 e7bb 7d52 b9be c9af 133f 3579 e83d
000000f0: eeaf cebc 5885 2fbe 95b9 003d c086 e3bc
00000100: 37cc 04bd e93a 25be c33d c73c 18ee 553d
00000110: d537 f93b 58ad 0fbd bbb3 20bf f69d 05bd
00000120: 3516 22bf 7737 c839 4870 683d 6791 97be
00000130: a2cd d63d 9c41 10bc bac3 ff3d 4d20 07be
00000140: 210b 1e3d 179d b63e 0cc1 533d 44dc 9039
00000150: 418a d73c f171 e43d 6b72 f73e 63dd 733d
00000160: 28dc 173b 1d4c 52bd 68fd 073d ba6d b33b
00000170: afdc ff3e 51f8 163d 5a73 adbd 1afc 2eba
00000180: a58f de3e 5aa9 a6bd 159d cebd e7a5 e63c
00000190: cd70 6bbe d5c6 f3bd 23a9 5a3d 19d2 b8bb
000001a0: e7a0 673e 5bd4 8f3a f263 ee3a 853c ae3e
000001b0: ec90 e2be c3ee 11bd 75d2 aa3a a599 84be
000001c0: 0983 7d3c 2653 093d b6ea 343f d2db 4c3e
000001d0: 9263 393e 4b1c 2ebe 4207 2ebd 8e36 a83d
000001e0: 1266 b2bc 2dc2 803e efea 7cbe 38cb ddbd
000001f0: 48e2 bbbd 8102 10be 4668 08bf 743d 63bc
00000200: 6c04 843c e37b 603e 2c80 e3bc 38d4 f83c
00000210: 8fa7 89bc 0709 203e c317 d9bb 33f8 54bd
00000220: 8ec5 dbbc 49cc d73e 77f1 21bc a6a9 febb
00000230: 9b0a 013c 3e16 243f 79b1 b7be 45e8 0abe
00000240: f83a 5bbd d2a4 63bd dc8d 9a3d bec9 1b3d
00000250: 82c1 fdbd 8b9b 52bd b9b8 023d 39aa 9dbc
00000260: 7bc1 b13c 4ded a13d 928c ffbe adfe 8abc
00000270: 1e99 debe b571 b73b f548 51bd 44d6 87be
00000280: 06de 13be a686 2cbb 5a69 cfbd 145d 60be
00000290: 68fc 9e3c 6603 e6be ae58 a8bc 0bb2 c8bc
000002a0: 04bf 2bbd d9a4 a43d 5a7f b93d eeb8 e73a
000002b0: df13 0e3e f7d1 8d3d f435 913d 7ad8 a3bc
000002c0: cb1f aa3d c54f 943d 4719 a5bc 097c a83d
000002d0: 6d7f cfbe 9a9a cabd a8b6 0b3c 61d7 3ebe
000002e0: 98c6 243c 92ba d73e b644 223b 446a 173f
000002f0: 6e1e 94bd 70dd d3bd febd 02be 62b8 2d3e
00000300: 9737 3bbd 1569 4cbe 7975 3fbc e7fa 81bd
00000310: 4c1a 88be 43e6 3e3e 6b64 1fbe e101 333d
00000320: c0a5 4abc 0330 d83d 9d9f ad3c 0311 1b3d
00000330: 8214 6fbf f302 163f 22cf bdbc 95ff 06bf
00000340: cd40 6e3d aa1f af3e 8684 afbc af67 893d
00000350: 544b 893d f8ee 17bd 812d 80be 615e 043d
00000360: abfa 9d3e a914 1a3f a935 b13f 1808 e4bd
00000370: 2ab1 70be 4266 24be 64f2 9bbf 7d48 733d
00000380: 4840 fb3e fdb4 06be e485 903e fac0 303c
00000390: c42c 233d b5c9 e8bb ae82 013e 63b9 153e
000003a0: 8134 a7be ccca 2b39 98a5 423f 839b 323d
000003b0: 5f50 b53d b07e ca3c 200d a3bd 58f3 93be
000003c0: 6441 35bd d42b 4cbf 3fbf 113d 4dc2 aa3e
000003d0: 318b 043d fb97 1dbd 204f a83c d6b5 313d
000003e0: 1aca 38bf e243 cdbd 5ec4 c7bc 5aef 10be
000003f0: 3a5f 85bd df08 49bd 5351 d03e d627 fd39

final.linears.2.bias f4 [10]
-0.021362344 -0.05866264 -0.2130727 -0.111548275 -0.41402772 0.022837771 0.112840556 -0.030014655
0.054539382 0.02790942
00000000: 1500 afbc 3d48 70bd bb2f 5abe 6c73 e4bd
00000010: 71fb d3be 4716 bb3c f318 e73d 4be1 f5bc
00000020: b064 5f3d 4ca2 e43c

layers.0.attn.0.gnn_q.weight f4 [10, 16]
0.004428208 2.266659e-11 -0.0014208277 0.0017922581 -1.5435503e-13 0.00057025894 -0.00048468134 0.00911788
-3.6757936e-12 -0.0014039755 0.000108068314 -4.657799e-17 -1.3204472e-11 -0.0011447445 -2.0190452e-13 -0.00062930404
-0.01118716 9.615076e-12 -0.0020218191 0.006653767 2.8117125e-13 0.00016653091 0.00081876083 0.00078006496
1.0838946e-11 -0.006823743 0.00029164087 -2.9176037e-18 4.032242e-14 -0.0007152574 2.7189164e-13 -0.0003824543
0.24434082 -6.427711e-12 0.008471723 -0.2134737 1.7372352e-12 -0.0022284656 -0.0019176254 -0.13024503
4.9903803e-11 0.21313949 -5.3597534e-05 -8.564684e-17 6.8556265e-11 0.005052307 2.1719087e-12 -0.0012085865
-0.044981077 1.0493121e-12 -0.0022359123 0.034146376 3.9957355e-13 0.0005993747 0.0012875147 0.02413917
7.253707e-12 -0.034628622 -0.00018271807 -4.1887582e-17 -2.9238658e-12 -0.0014313997 3.775525e-13 -0.0006993321
-0.031609446 -7.156666e-11 0.009577302 0.020642862 1.2020642e-12 -0.0027239672 -0.00060475816 0.012050693
2.8881241e-11 -0.021962188 -0.0008134801 -3.581581e-17 8.367672e-11 0.0071839597 1.7304281e-12 0.0008874136
-0.0011986617 -2.0227714e-11 -0.0017724137 0.0047018686 1.008339e-13 0.00014836293 0.00017089493 0.0031741878
2.9933404e-12 -0.0036257578 -0.00019599742 -1.1120507e-17 -8.178774e-12 -0.0007226854 6.614779e-14 0.0003024696
-0.011036731 -1.0067622e-11 -0.0036955911 0.008535514 -5.1060377e-13 0.0014397005 0.00032824307 0.009955795
-1.2519109e-11 -0.009359634 0.0004272414 -3.6480945e-17 -4.6009415e-11 -0.0038240224 -8.1173853e-13 0.0001918215
-0.025064742 3.0934436e-11 -0.0033705384 0.020090174 -4.5446942e-13 0.0009045969 -0.000625041 0.017822117
-1.17069444e-11 -0.021419795 0.0005951472 -1.7932378e-18 -3.2309613e-11 -0.0030033588 -7.7521637e-13 -0.0003879551
0.16054673 9.840108e-12 0.0010133551 -0.1345342 6.7083566e-14 -4.8053513e-05 -0.00034545155 -0.085784785
-5.3164114e-12 0.13615997 -0.00050687377 3.437885e-18 9.278494e-13 8.4872634e-05 6.118555e-14 -0.00069758896
0.009815339 2.249982e-12 0.0020638157 -0.0071878354 1.0374819e-13 -0.00029376466 -0.00022241558 -0.003983015
2.1417195e-12 0.0069395923 -0.00029753096 -6.8287545e-17 9.90142e-12 0.0012015826 2.1433002e-13 -0.0006180343
00000000: 801a 913b a060 c72d 113b baba 34ea ea3a
00000010: cfc9 2daa 6e7d 153a d41c feb9 2963 153c
00000020: 9b54 81ac 9a05 b8ba bca2 e238 96cd 56a4
00000030: a84b 68ad 400b 96ba 0453 63aa e1f7 24ba
00000040: 5a4a 37bc 7426 292d 7f80 04bb d807 da3b
00000050: 0c49 9e2a cd9e 2e39 1ca2 563a 467d 4c3a
00000060: 46ae 3e2d b599 dfbb 60e7 9839 fa47 57a2
00000070: 9698 3529 1d80 3bba b70f 992a 2684 c8b9
00000080: 7b34 7a3e ac27 e2ac fbcc 0a3c da98 5abe
00000090: 7f7e f42b 730b 12bb d558 fbba f45e 05be
000000a0: b07a 5b2e 3d41 5a3e eacd 60b8 f97c c5a4
000000b0: bfc1 962e d38d a53b a1d5 182c 6f69 9eba
000000c0: 143e 38bd 74ad 932b 6288 12bb 12dd 0b3d
000000d0: 9ef0 e02a 5b1f 1d3a d3c1 a83a 82bf c53c
000000e0: 9637 ff2c bed6 0dbd 0298 3fb9 212c 41a4
000000f0: afbf 4dac ce9d bbba 0d8b d42a 6253 37ba
00000100: e878 01bd 7360 9dae 1eea 1c3c 381b a93c
00000110: ed2c a92b 9684 32bb a288 1eba 4570 453c
00000120: c60a fe2d 0cea b3bc ba3f 55ba d82b 25a4
00000130: ce01 b82e 6c67 eb3b 3e89 f32b 52a1 683a
00000140: 6a1c 9dba c3ec b1ad 5650 e8ba 2212 9a3b
00000150: c90e e329 df91 1b39 4232 3339 0906 503b
00000160: 3aa3 522c 1f9e 6dbb a884 4db9 1c23 4da3
00000170: ece1 0fad 9972 3dba 9bf3 9429 c894 9e39
00000180: 68d3 34bc 8a1c 31ad bb31 72bb 8ad8 0b3c
00000190: e1b8 0fab 55b4 bc3a 0a18 ac39 a11d 233c
000001a0: 0e3d 5cad 2659 19bc 5fff df39 193d 28a4
000001b0: ff59 4aae 739c 7abb ed7b 64ab b123 4939
000001c0: 9354 cdbc 140d 082e 40e4 5cbb 2694 a43c
000001d0: f2d7 ffaa 7822 6d3a cbd9 23ba b0ff 913c
000001e0: 64f3 4dad 9178 afbc a703 1c3a 4e51 04a2
000001f0: 6419 0eae 00d4 44bb 3a34 5aab 7466 cbb9
00000200: 5d66 243e e81b 2d2d 8ed2 843a 55c3 09be
00000210: 0b0f 9729 118d 49b8 b91d b5b9 efaf afbd
00000220: fa0d bbac 856d 0b3e b9df 04ba d0ab 7d22
00000230: 4c95 822b a6fd b138 11c7 8929 67de 36ba
00000240: 84d0 203c 1354 1e2c 1541 073b ef87 ebbb
00000250: c29e e929 6d04 9ab9 3a38 69b9 f483 82bb
00000260: cab5 162c 8565 e33b eefd 9bb9 da75 9da4
00000270: 0830 2e2d 6c7e 9d3a 6c50 712a 9403 22ba

layers.0.attn.0.gnn_q.bias f4 [16]
0.08917694 9.870138e-12 9.7644515e-06 -0.10834722 -9.983678e-13 0.001377906 -4.7274872e-05 -0.050014038
-2.933826e-11 0.09589613 9.7264e-05 -1.6430173e-17 -3.79573e-11 -0.0014247755 -1.2664213e-12 -0.0006518633
00000000: 66a2 b63d 26a3 2d2d 00d2 2337 26e5 ddbd
00000010: fe81 8cab da9a b43a 0249 46b8 85db 4cbd
00000020: f207 01ae 3165 c43d 36fa cb38 a68a 97a3
00000030: 1ff0 26ae 88bf baba a33b b2ab cee1 2aba

layers.0.attn.0.gnn_k.weight f4 [10, 16]
0.0018878233 1.575609e-12 -0.0014015954 -0.0025051932 1.9005788e-13 9.677296e-05 0.00075226376 0.009540331
6.8128016e-12 0.00048294163 -0.0001882755 -3.1466056e-17 -1.0883278e-11 -0.0012595805 -2.8192936e-14 -0.0007966384
-0.0091334 2.0001925e-11 -0.0020334201 0.01018751 1.4101445e-13 3.1872958e-05 -0.00050723634 0.00026591215
2.6525752e-12 -0.008486834 -0.0005054665 1.7394874e-17 1.3049938e-12 -0.0007845275 2.238924e-13 -0.00037702997
0.23928115 1.5888653e-11 0.00850125 -0.2216766 1.2420332e-12 -0.0017723298 -0.00041986105 -0.1293582
3.788893e-11 0.21682392 -0.0006235298 -1.0193695e-16 6.382918e-11 0.005503637 1.8287993e-12 -0.0009646966
-0.03964864 2.640773e-11 -0.0022411502 0.042629465 2.925573e-13 5.7462014e-05 -0.00034263905 0.023370735
1.0703888e-11 -0.038480386 9.17339e-05 -2.808145e-17 -2.5000954e-12 -0.0015462921 3.90906e-13 -0.0006511555
-0.025453774 -3.6988128e-11 0.009585977 0.030956902 7.9789793e-13 -0.0020570257 -0.0033901646 0.01058879
2.2518432e-11 -0.0266562 0.0005210927 -9.50256e-17 7.897207e-11 0.007467659 1.5143475e-12 0.0010791712
-0.0035211982 4.6727487e-12 -0.001766459 0.0011848799 1.8269292e-13 4.570804e-06 3.0970223e-06 0.0034254566
7.671075e-12 -0.00205053 -2.8148725e-07 -3.199615e-17 -6.414421e-12 -0.00077885104 8.74255e-14 0.0003653555
-0.009226356 -1.0421378e-11 -0.003719447 0.0113772685 -3.6518786e-13 0.00094597274 0.0027376185 0.009629756
-1.393799e-11 -0.010655787 -0.00044372774 -3.9100192e-17 -4.245454e-11 -0.004075599 -6.7277726e-13 0.00021673391
-0.022285163 2.3001382e-11 -0.0033839443 0.024521163 -7.433405e-13 0.0012695498 0.0018815639 0.017272541
-2.391176e-11 -0.023486543 -0.0003985124 4.7669955e-17 -3.4808895e-11 -0.0029675676 -9.223958e-13 -0.00047872955
0.15215637 1.471722e-11 0.0010200281 -0.14810778 1.8311325e-13 -5.9235732e-05 -0.000802982 -0.08435503
3.8509083e-12 0.14227252 0.00032126304 -5.868017e-18 1.0568862e-12 0.00018576918 1.0105216e-13 -0.0007322442
0.008629208 -1.4609772e-11 0.0020670092 -0.009354318 4.8730947e-13 -0.0005429603 -0.00023370737 -0.0036325704
1.05622455e-11 0.007961389 5.0337978e-05 -8.051989e-17 1.2047444e-11 0.0010078171 4.048561e-13 -0.00076854206
00000000: d770 f73a 4cbf dd2b bdb5 b7ba 2b2e 24bb
00000010: 74fc 552a 96f2 ca38 9133 453a 0c4f 1c3c
00000020: 43b4 ef2c 5433 fd39 d26b 45b9 901c 11a4
00000030: ed75 3fad 8218 a5ba 7cf0 fda8 7fd5 50ba
00000040: 42a4 15bc 55f0 af2d 2143 05bb 84e9 263c
00000050: a6c4 1e2a 54af 0538 0ef8 04ba 206a 8b39
00000060: 8ca8 3a2c 5d0c 0bbc 4881 04ba 7c70 a023
00000070: 5ba9 b72b c0a8 4dba 9714 7c2a 1bac c5b9
00000080: 1e06 753e 11c2 8b2d d448 0b3c 31ff 62be
00000090: f6cc ae2b 854d e8ba cc20 dcb9 7a76 04be
000000a0: 25a3 262e 1707 5e3e 6074 23ba f40c eba4
000000b0: a25c 8c2e da57 b43b b8b0 002c b1e3 7cba
000000c0: 9d66 22bd ec48 e82d 43e0 12bb 3c9c 2e3d
000000d0: f3b1 a42a 5e03 7138 3ca4 b3b9 fc73 bf3c
000000e0: 074e 3c2d 9c9d 1dbd 4361 c038 b980 01a4
000000f0: b7ed 2fac f4ac caba 7e0f dc2a 4eb2 2aba
00000100: 6f84 d0bc eeac 22ae 800e 1d3c 5499 fd3c
00000110: 9b96 602b 2acf 06bb 862d 5ebb 9b7c 2d3c
00000120: 0013 c62d 1a5e dabc f099 083a 371d dba4
00000130: 53a9 ad2e 44b3 f43b 1e20 d52b fa72 8d3a
00000140: e7c3 66bb 6168 a42c 8788 e7ba f94d 9b3a
00000150: a6b1 4d2a e85e 9936 70d6 4f36 a07d 603b
00000160: 73f3 062d 2f62 06bb 501f 97b4 638e 13a4
00000170: f8af e1ac cf2b 4cba 5fdd c429 2f8d bf39
00000180: 242a 17bc b755 37ad f7c1 73bb b967 3a3c
00000190: 1e95 cdaa 28fb 773a 9e69 333b 20c6 1d3c
000001a0: 2033 75ad 9c95 2ebc 21a4 e8b9 5c51 34a4
000001b0: 90b7 3aae 9a8c 85bb b65e 3dab 1143 6339
000001c0: 608f b6bc 8252 ca2d 2ac5 5dbb 9be0 c83c
000001d0: 543b 51ab 0667 a63a cf9e f63a 257f 8d3c
000001e0: 7f54 d2ad da66 c0bc 6eef d0b9 c0d6 5b24
000001f0: 5517 19ae 867b 42bb d0d0 81ab fefd fab9
00000200: e1ce 1b3e 3c74 812d 77b2 853a 91a9 17be
00000210: cd2a 4e2a e273 78b8 367f 52ba 54c2 acbd
00000220: e67d 872c e3af 113e 326f a839 db7d d8a2
00000230: 57be 942b 09cb 4239 9b8c e329 14f4 3fba
00000240: 8661 0d3c 4882 80ad a976 073b da42 19bc
00000250: 592a 092b 7355 0eba 580f 75b9 6b10 6ebb
00000260: 20d0 392d 7c70 023c fe21 5338 8eaa b9a4
00000270: ddf0 532d bb18 843a eae9 e32a fc77 49ba

layers.0.attn.0.gnn_k.bias f4 [16]
0.11163961 1.5289918e-12 -1.8376137e-05 -0.07206969 -5.4908015e-13 0.0005981173 0.001177111 -0.053960014
-1.8717097e-11 0.079275385 3.9515107e-05 -4.1026765e-18 -3.2155566e-11 -0.0019552966 -9.6036e-13 -0.00061176775
00000000: 4fa3 e43d bc2f d72b 7426 9ab7 4699 93bd
00000010: 658d 1aab f9ca 1c3a 4a49 9a3a 2d05 5dbd
00000020: 28a3 a4ad 225b a23d 06bd 2538 af5c 97a2
00000030: f36b 0dae 6f24 00bb 9e28 87ab 0a5f 20ba

layers.0.attn.0.gnn_v.weight f4 [10, 16]
0.79213613 -0.046935014 1.0102931 0.21858157 0.2229826 -0.3639524 -0.50420064 -0.0092349
0.21015652 0.6048149 0.5657109 -1.0924902 -0.6168272 -0.40930954 0.4273735 0.92095923
-0.2188763 -0.32106102 0.14123021 0.27964625 0.18739435 0.15006955 -0.021191826 -0.677288
-0.14465764 -0.24862848 0.41581306 0.03707734 -0.02511764 -0.079852246 0.3787162 -0.15218428
0.09816016 0.23759983 0.0928123 0.42625815 -0.18748298 -0.29995558 -0.2483421 0.39876205
-0.28178877 -0.031784292 -0.2137355 0.13369617 -0.22326818 -0.20501463 -0.010696434 -0.30993703
0.19765104 0.19714352 -0.04768878 -0.12271639 -0.10236887 0.01623378 0.20894548 0.37360123
-0.16975573 -0.04589784 0.039262574 -0.046853427 -0.27921456 -0.30378842 -0.17001326 -0.06745941
0.14483713 0.13570118 -0.5849838 -0.4891918 -0.06623732 0.14288439 0.12862451 0.13621336
0.051997904 0.28278926 0.22319062 -0.18486105 0.1237755 0.34918043 -0.05149339 0.5354673
0.18085387 0.22861159 0.021037987 -0.22995023 -0.23540956 0.16160998 0.1088842 0.2943201
-0.10130466 0.0074398485 -0.01510816 -0.07340968 -0.1758072 -0.09463919 -0.18938373 0.09990091
8.942555e-05 -0.010811978 -0.009712017 -0.58217156 -0.21766128 0.6294382 -0.7023096 -0.112037614
-0.17961302 -0.23972265 -1.3228012 0.5653545 -0.75795364 -0.16887742 0.71182555 0.73823065
0.5014012 0.56511235 -0.069457546 -0.44584104 -0.4961568 0.12926444 0.3011834 0.78958535
-0.25074774 -0.071149826 0.0389804 -0.11650631 -0.315225 -0.4617422 -0.6803417 -0.060547378
-0.03288004 -0.09071732 0.09726198 -0.10128053 0.051269587 0.14778548 0.05333795 -0.21288943
-0.11303175 -0.046101227 0.174009 0.09848583 -0.013774338 -0.00091456674 -0.052603953 0.10839299
0.77022123 -0.52931935 -0.74687994 -0.8023879 0.3019265 -0.895754 -0.7726733 -0.20258026
-0.042326532 -0.5462145 0.3406212 0.32318467 0.5703019 -1.0547068 0.050075427 -0.2345713
00000000: 6fc9 4a3f ee3e 40bd 4951 813f d9d3 5f3e
00000010: 8d55 643e f857 babe 4b13 01bf fa4d 17bc
00000020: 4533 573e 26d5 1a3f 6ed2 103f b8d6 8bbf
00000030: 63e8 1dbf 0591 d1be b3d0 da3e fcc3 6b3f
00000040: 1c21 60be 1c62 a4be a79e 103e cb2d 8f3e
00000050: 4ee4 3f3e d5ab 193e 7b9a adbc bf62 2dbf
00000060: 2221 14be 7798 7ebe 73e5 d43e 69de 173d
00000070: 82c3 cdbc 9389 a3bd 17e7 c13e 32d6 1bbe
00000080: 3208 c93d 5f4d 733e 6014 be3d 823e da3e
00000090: 8afb 3fbe c793 99be 644d 7ebe 8a2a cc3e
000000a0: 9e46 90be 3f30 02bd 7bdd 5abe a6e7 083e
000000b0: 6aa0 64be 5bef 51be 1940 2fbc 11b0 9ebe
000000c0: 0965 4a3e fedf 493e 4f55 43bd bb52 fbbd
000000d0: c5a6 d1bd b4fc 843c cef5 553e a948 bf3e
000000e0: 72d4 2dbe 60ff 3bbd cbd1 203d 61e9 3fbd
000000f0: 36f5 8ebe 288a 9bbe f517 2ebe 2928 8abd
00000100: 2f50 143e 40f5 0a3e 80c1 15bf 5977 fabe
00000110: 6fa7 87bd 4950 123e 25b6 033e 847b 0b3e
00000120: c1fb 543d c1c9 903e 158c 643e 374c 3dbe
00000130: 027e fd3d c7c7 b23e bcea 52bd 6314 093f
00000140: c231 393e 2819 6a3e db57 ac3c 1378 6bbe
00000150: 340f 71be 167d 253e aefe de3d 20b1 963e
00000160: d178 cfbd f9c9 f33b 3788 77bc d057 96bd
00000170: cd06 34be 31d2 c1bd cfed 41be d998 cc3d
00000180: fa89 bb38 b924 31bc 271f 1fbc 3209 15bf
00000190: 99e2 5ebe dd22 213f 90ca 33bf fa73 e5bd
000001a0: 7aec 37be db79 75be 8d51 a9bf 13bb 103f
000001b0: 4009 42bf 34ee 2cbe 333a 363f affc 3c3f
000001c0: d45b 003f 34ab 103f c23f 8ebd 4745 e4be
000001d0: 4408 febe e65d 043e b634 9a3e 4422 4a3f
000001e0: 0262 80be 00b7 91bd e9a9 1f3d dc9a eebd
000001f0: 2c65 a1be 7969 ecbe e02a 2ebf 8700 78bd
00000200: 39ad 06bd 01ca b9bd 4a31 c73d 2b6c cfbd
00000210: 0f00 523d 1455 173e e578 5a3d b0ff 59be
00000220: 317d e7bd a4d4 3cbd 6a2f 323e f0b2 c93d
00000230: c3ad 61bc 89bf 6fba 3e77 57bd 25fd dd3d
00000240: 382d 453f 7981 07bf 8633 3fbf 4b69 4dbf
00000250: 1c96 9a3e 2250 65bf ebcd 45bf 3371 4fbe
00000260: 965e 2dbd b7d4 0bbf e765 ae3e 7678 a53e
00000270: 4eff 113f a200 87bf e41b 4d3d 7533 70be

layers.0.attn.0.gnn_v.bias f4 [16]
-0.11105671 -0.1977361 -0.008829793 -0.22982983 0.14336865 0.20008847 0.14224248 -0.32942957
0.13813224 0.0025822802 0.119430296 -0.07135556 0.1622584 0.14669058 0.039419945 0.17277142
00000000: b371 e3bd 557b 4abe d6aa 10bc 8358 6bbe
00000010: 3bcf 123e fee3 4c3e 03a8 113e feaa a8be
00000020: 8a72 0d3e 793b 293b df97 f43d dd22 92bd
00000030: 1127 263e 0e36 163e cf76 213d feea 303e
