checkpoints/bbb_martins_25_train1_pos/Aug28-12:07:52_10.pth (torch, 389013 bytes, 294 tensors)

layers.0.weight f4 [12, 16]
0	0x3e86a715	0.26299348
1	0x3eb2abfe	0.34896845
2	0xbe100762	-0.14065316
3	0x3ed0f423	0.40811262
4	0xbd995af9	-0.07488055
5	0x3dff6630	0.124706626
6	0xbe4047c3	-0.18777375
7	0x3e64f23b	0.22358029
8	0x3ea312ee	0.3185038
9	0xbebd242f	-0.36941668
10	0x3ec59fb6	0.38598412
11	0x3d47982d	0.04872911
12	0x3eafa7c6	0.34307688
13	0xbd94bd31	-0.07262648
14	0x3e7aea34	0.24503404
15	0xbe1e6484	-0.15468031
16	0x3ed58e87	0.41710302
17	0x3d839ed0	0.064267755
18	0xbe0b6ced	-0.1361577
19	0x3d262afa	0.04056833
20	0xbe080bd7	-0.13285767
21	0xbda368d1	-0.079789765
22	0xbe6b550f	-0.22981666
23	0x3e7e728d	0.24848385
24	0xbea09fbb	-0.31371865
25	0xbea63871	-0.32464936
26	0xbd8cc03c	-0.06872603
27	0xbe8933a0	-0.267972
28	0x3d62e457	0.055393543
29	0xbeaa6c90	-0.33285952
30	0x3ebf7d4f	0.3740029
31	0xbe936fa6	-0.28796118
32	0x3e9b1298	0.30287623
33	0x3d6294f7	0.055317845
34	0xbe52bbe2	-0.20579484
35	0x3e32637c	0.17420763
36	0x3d44fe74	0.048094228
37	0x3ea89793	0.32928142
38	0xbcc31844	-0.023815282
39	0xbd6e2131	-0.058137123
40	0x3e0f9b95	0.14024194
41	0xbe54dbcc	-0.20786971
42	0x3e68a1fa	0.22718039
43	0x3ebacdb7	0.36485073
44	0x3e204921	0.15652896
45	0xbe54aacc	-0.20768279
46	0x3e4716a7	0.19442235
47	0x3dd66419	0.10468311
48	0x3e76f1ed	0.24115725
49	0xbe3db7cb	-0.18527143
50	0xbeaebc0e	-0.3412785
51	0xbe032d4c	-0.12810248
52	0xbe9de167	-0.3083603
53	0x3ea665c8	0.32499528
54	0x3d50831f	0.050906297
55	0x3e84ea4d	0.25960007
56	0x3e097d07	0.134266
57	0xbd3d3ac1	-0.04619861
58	0x3e754ecb	0.23955838
59	0xbe0e6785	-0.13906677
60	0x3da895f6	0.08231728
61	0xbe6f277e	-0.23354909
62	0x3e1f3e19	0.15551032
63	0xbdc4391d	-0.09581206
64	0x3df62841	0.120193966
65	0xbd6d9c48	-0.05801037
66	0x3eb7f600	0.3592987
67	0xbe87a9d7	-0.26496765
68	0xbe72caca	-0.2371017
69	0xbdeafb42	-0.11473705
70	0x3e8cbc76	0.27487534
71	0x3e025a7b	0.12729828
72	0x3ecc5ba7	0.39913675
73	0xbe9881df	-0.29786584
74	0xbeccf225	-0.40028492
75	0xbea398ba	-0.3195246
76	0xbe52891a	-0.20560113
77	0x3dbad5d1	0.091228135
78	0x3e5e1983	0.2168942
79	0x3e9e2878	0.3089025
80	0xbe782b9e	-0.24235389
81	0xbea04b13	-0.31307277
82	0x3e667b4f	0.22507976
83	0xbe07c601	-0.13259126
84	0x3e91dea5	0.28490177
85	0xbdab6a4c	-0.08369884
86	0x3e4682e5	0.1938587
87	0xbe8f77d7	-0.28021118
88	0xbe4b3133	-0.19842987
89	0x3d966621	0.07343698
90	0x3dfd5a2b	0.12370714
91	0xbe001e54	-0.1251157
92	0x3e3728ea	0.17886701
93	0x3e5eeb5b	0.21769468
94	0xbeaa4d90	-0.332623
95	0xbe5b77f6	-0.2143248
96	0x3ec95317	0.39321205
97	0xbe2f7129	-0.17133011
98	0xbe65458b	-0.2238981
99	0xbebdf3bb	-0.37100014
100	0xbe8b0d5e	-0.27158636
101	0x3dce5127	0.10074072
102	0xbe0d2623	-0.13784079
103	0xbe88c4ea	-0.26712734
104	0xbbd137d5	-0.0063848295
105	0xbea01c3f	-0.3127155
106	0xbedf69a9	-0.436353
107	0xbe5f4fda	-0.21807805
108	0xbec1e7af	-0.37872073
109	0xbe8dca71	-0.27693513
110	0x3ed70a8f	0.42000243
111	0x3d25a266	0.04043808
112	0x3e7bd401	0.24592592
113	0xbebb0d27	-0.36533472
114	0xbe48d5d4	-0.19612819
115	0xbe276018	-0.1634525
116	0x3d9c73f6	0.07639305
117	0xbeab0bb7	-0.33407375
118	0xbe3b0cbc	-0.18266577
119	0xbe84fe84	-0.2597543
120	0xbd5d8e1a	-0.054090597
121	0xbe17ef0f	-0.14837287
122	0x3d0b9a16	0.034082495
123	0xbebedfe2	-0.37280184
124	0xbe413d25	-0.18870981
125	0xbe8169e9	-0.25276116
126	0xbbb5eb18	-0.005551707
127	0xbeb34566	-0.35013884
128	0x3eb7bdeb	0.35887083
129	0xbdca2401	-0.098701485
130	0x3e9e225b	0.30885586
131	0x3e11e5ac	0.14247769
132	0xbea7b121	-0.32752326
133	0x3e7dc31f	0.24781464
134	0xbddfbc3a	-0.10924573
135	0xbe4d9dda	-0.20079747
136	0xbea05855	-0.31317392
137	0xbeae76b3	-0.34074935
138	0x3e481949	0.19540896
139	0xbe05ac39	-0.13053979
140	0x3dbec9b3	0.09315815
141	0xbe7d246a	-0.24720922
142	0x3e8959f8	0.26826453
143	0xbe97e476	-0.2966649
144	0xbdad3413	-0.08457198
145	0x3d4db4bc	0.05022119
146	0x3e7a807e	0.24463078
147	0x3ed762d1	0.42067578
148	0x3eaa29e9	0.332351
149	0xbee4bf5c	-0.44677246
150	0x3db26e79	0.08712477
151	0xbe1b3d0d	-0.15160008
152	0xbc9416af	-0.018077223
153	0xbe70fb8a	-0.23533455
154	0x3eb9c547	0.36283323
155	0xbe8e3bd6	-0.27780026
156	0x3e8c9963	0.27460775
157	0x3e59b705	0.21261223
158	0x3d9472e7	0.072484784
159	0xbe81fd07	-0.25388357
160	0x3eb27715	0.34856477
161	0xbc914b4a	-0.017736096
162	0x3ca56ab7	0.020192487
163	0xbeabcf39	-0.33556536
164	0x3dfa3149	0.12216432
165	0xbdf747c2	-0.120742336
166	0xbdfd6a73	-0.12373819
167	0x3eab72de	0.33486074
168	0xbced6ad8	-0.028981611
169	0xbe60ff6d	-0.21972437
170	0xbe136428	-0.14393675
171	0xbd72c487	-0.059269454
172	0x3e6c3bbc	0.23069662
173	0xbdb4d3a3	-0.08829429
174	0xbe5adbd0	-0.21372914
175	0xbd9ad79c	-0.075606555
176	0xbeb28607	-0.3486788
177	0x3e0d4145	0.1379443
178	0x3e964060	0.2934599
179	0xbebc121d	-0.3673257
180	0x3d89c170	0.067263484
181	0x3e89d782	0.26922232
182	0x3dc91e45	0.098202266
183	0xbdbd4411	-0.09241498
184	0x3df989cd	0.121844865
185	0x3e67f6a6	0.22652683
186	0x3e1f5803	0.15560918
187	0x3c7d45b6	0.015458515
188	0xbdf235e5	-0.11826686
189	0x3da5814e	0.080813035
190	0xbdc3401d	-0.09533713
191	0xbd9f11ce	-0.07767068

layers.0.bias f4 [16]
0	0xbd91cdb0	-0.0711931
1	0x3d923bcd	0.07140312
2	0xbcaf52a2	-0.021401707
3	0xbbc5bc7f	-0.0060344334
4	0x3c510198	0.012756728
5	0xbcf4e3fd	-0.02989387
6	0xbccc43fb	-0.02493476
7	0x3d1e9445	0.03871562
8	0xbdc197f6	-0.094528124
9	0xbc7f6198	-0.015587233
10	0x3d1e8f57	0.03871092
11	0x3d2c0123	0.04199327
12	0xbe12ccf3	-0.14335994
13	0x3a674cd2	0.0008823398
14	0x3c128a55	0.008944114
15	0xbd743228	-0.059618145

layers.1.weight f4 [16, 16]
0	0x3e409d38	0.18809974
1	0x3ea0dbea	0.3141778
2	0xbd80d883	-0.06291296
3	0xbdc21668	-0.0947693
4	0x3dac9b43	0.08428051
5	0xbd0483e9	-0.03235236
6	0x3df4d059	0.11953802
7	0x3e2f4304	0.17115408
8	0xbeae8fea	-0.34094173
9	0xbe077380	-0.13227654
10	0x3eb62090	0.35571718
11	0x3e2ee73f	0.17080401
12	0xbbf6d815	-0.007533083
13	0xbe4e1db4	-0.20128518
14	0xbe276261	-0.16346122
15	0xbea0683a	-0.3132952
16	0xbe07c350	-0.132581
17	0x3d6f108e	0.058365397
18	0x3e8671d2	0.26258713
19	0x3deb9054	0.11502138
20	0xbeb61397	-0.3556182
21	0xbe849e68	-0.25902104
22	0xbd495e1e	-0.049162023
23	0x3ee97c26	0.4560253
24	0xbbd76cde	-0.0065742573
25	0xbd9eb23f	-0.077488415
26	0x3d9c906e	0.07644735
27	0xbe0aabc7	-0.1354209
28	0xbe8e7d56	-0.2783
29	0x3e867c6e	0.26266807
30	0xbe388750	-0.18020368
31	0x3b9419d8	0.0045196824
32	0xbea3784c	-0.31927717
33	0x3e5a8f63	0.2134376
34	0x3ea78e44	0.32725728
35	0x3e281d8c	0.16417521
36	0xbe911023	-0.28332624
37	0xbeb43f7c	-0.35204685
38	0xbec6f3d1	-0.38857892
39	0x3e95e599	0.29276732
40	0x3df3ac3d	0.11898086
41	0x3ea2b7d1	0.31780866
42	0x3e155a6d	0.14585276
43	0xb9f2ebec	-0.00046333612
44	0xbbdc186d	-0.006716779
45	0xbecf3e9e	-0.4047746
46	0xbea006b7	-0.31255123
47	0xbe9b8e9d	-0.30382243
48	0x3e095f74	0.13415319
49	0xbe76e9c5	-0.24112613
50	0xbd488cee	-0.048962526
51	0xbe336050	-0.17517209
52	0xbd5682f4	-0.05237098
53	0xbeae9605	-0.3409883
54	0xbe936ab5	-0.28792349
55	0x3db2b053	0.087250374
56	0xbe0b263e	-0.13588807
57	0x3e6ee2b1	0.23328663
58	0xbdf95af5	-0.12175552
59	0xbe07b78b	-0.1325361
60	0xbdcd63fc	-0.10028836
61	0xbe62f7f6	-0.22164902
62	0xbd948a76	-0.07252972
63	0xbef753f8	-0.4830625
64	0x3e6cfe93	0.23143987
65	0xbeb31545	-0.34977165
66	0x3e22321f	0.15839432
67	0x3e17df72	0.14831331
68	0x3e44019a	0.19141236
69	0xbe630ddb	-0.22173254
70	0x3e9c256d	0.30497304
71	0xbe74c655	-0.23903783
72	0x3d7937ee	0.060844354
73	0x3ed1467a	0.40874082
74	0xbdbdbf3a	-0.09264989
75	0x3d20bebd	0.039244402
76	0xbc92d551	-0.017923983
77	0xbea346a5	-0.31889835
78	0x3e059a68	0.13047183
79	0xbef741fe	-0.48292536
80	0x3e4bf4c3	0.19917588
81	0x3e65b49f	0.22432183
82	0x3ed4d05d	0.4156522
83	0xbd927b01	-0.071523674
84	0xbebfd9ae	-0.37470764
85	0x3df186a4	0.11793259
86	0x3e6de4df	0.23231839
87	0xbebc89c2	-0.3682385
88	0xbe071baf	-0.13194154
89	0xbe24752f	-0.16060327
90	0x3c42a943	0.011881175
91	0xbe05e580	-0.13075829
92	0xbd9d09ce	-0.07667886
93	0xbd020157	-0.03173956
94	0xbeb7f655	-0.35930124
95	0x3eec5e96	0.46165913
96	0x3e995e0c	0.29954565
97	0xbda5841b	-0.08081838
98	0xbcb43a07	-0.022000326
99	0xbde55586	-0.11197953
100	0xbedf864d	-0.4365715
101	0xbe9ec9c1	-0.310133
102	0x3e155676	0.14583763
103	0xbe800878	-0.2500646
104	0xbea7c228	-0.32765317
105	0xbcce0e77	-0.025153382
106	0xbe096e0b	-0.13420884
107	0xbe61a53f	-0.22035693
108	0x3d764b22	0.060130246
109	0xbd9b59e1	-0.075855024
110	0xbdcd1518	-0.10013789
111	0xbe1a0fd6	-0.15045103
112	0xbea4bce1	-0.32175353
113	0x3ed66040	0.41870308
114	0xbe416a76	-0.18888268
115	0x3d64d651	0.05586845
116	0xbe1aa229	-0.15100922
117	0x3a8e9d4f	0.0010880622
118	0x3ec030b8	0.3753717
119	0x3e8ab7a9	0.27093247
120	0xbe72da7e	-0.2371616
121	0x3e2f3604	0.17110449
122	0x3eb1d3f7	0.3473203
123	0x3e031517	0.12801014
124	0x3e7cae38	0.24675834
125	0x3ea708eb	0.3262399
126	0xbd07aeb3	-0.03312559
127	0x3e006a0a	0.1254045
128	0xbeacf608	-0.33781457
129	0xbdac7b92	-0.08422007
130	0x3eb5f4c5	0.35538307
131	0x3e042060	0.12902975
132	0xbe627e2b	-0.22118442
133	0xbeae5164	-0.3404647
134	0xbe726e99	-0.23675002
135	0xbed49cc7	-0.41525862
136	0xbe711112	-0.23541668
137	0xbdb91b2f	-0.09038388
138	0x3e7c1c6d	0.24620219
139	0xba4ec4d3	-0.00078876055
140	0xbebf6a60	-0.37385845
141	0xbe8119b8	-0.25214934
142	0x3e52124a	0.20514789
143	0xbe4ce21c	-0.20008129
144	0xbcc55733	-0.024089431
145	0x3e8c2476	0.27371567
146	0xbe2e44f4	-0.17018491
147	0xbd266051	-0.0406192
148	0xbe0626d8	-0.13100755
149	0xbe085220	-0.13312578
150	0xbe40d192	-0.18829945
151	0xbeb87790	-0.3602872
152	0xbea77f18	-0.32714152
153	0xbe46bfa6	-0.19409046
154	0x3ed8da15	0.42353883
155	0xbe29f222	-0.16596273
156	0xbe832c4f	-0.25619742
157	0x3d47c02b	0.04876725
158	0x3d8a4f87	0.0675345
159	0x3e19e597	0.15028988
160	0x3e4c297d	0.19937702
161	0x3e173a8f	0.14768432
162	0xbed024d8	-0.4065311
163	0x3db8e5d8	0.09028214
164	0x3e8815a5	0.26579013
165	0xbda94318	-0.0826475
166	0xbe7e9bcc	-0.2486412
167	0x3ecef0fb	0.40418229
168	0xbe61bb23	-0.22044043
169	0xbe29b226	-0.16571864
170	0xbebc5d57	-0.36789963
171	0x3d8e2332	0.06940307
172	0x3e389802	0.18026736
173	0x3e222ab3	0.15836601
174	0x3d80eb8d	0.06294928
175	0xbea4663f	-0.32109258
176	0xbebf7a90	-0.37398195
177	0xbd73b56c	-0.05949919
178	0x3eca0d68	0.39463353
179	0x3e422a5c	0.18961471
180	0xbe9efa91	-0.31050542
181	0xbc9a4f18	-0.018836543
182	0xbea5db5f	-0.3239393
183	0xbe57ed03	-0.21086507
184	0x3d330a1e	0.04371082
185	0x3e318688	0.17336476
186	0x3eb5243d	0.3537921
187	0xbe4514a4	-0.19246155
188	0x3e9d5283	0.30727014
189	0xbe8850b2	-0.26624066
190	0x3e07f7b0	0.13278079
191	0x3ed2a5de	0.41142172
192	0xbdd9c5f1	-0.106334575
193	0x3ea2440b	0.31692538
194	0xbec6dbad	-0.38839474
195	0xbe163de4	-0.14672047
196	0x3e536f02	0.20647815
197	0xbccc864d	-0.024966383
198	0xbdc8132d	-0.097692825
199	0xbe42d596	-0.19026789
200	0x3e749831	0.23886181
201	0x3e67cd34	0.22636873
202	0x3dbbb834	0.09165993
203	0xbe09ff39	-0.13476266
204	0xbea0d65a	-0.31413537
205	0x3cc68559	0.024233507
206	0x3e22962d	0.158776
207	0xbe9831d2	-0.2972551
208	0xbdb926b1	-0.09040583
209	0x3e74b698	0.23897779
210	0x3d50299e	0.05082094
211	0xbc1bd2cd	-0.009510708
212	0xbe197dab	-0.14989345
213	0xbe91a09a	-0.28442842
214	0xbec962dc	-0.39333236
215	0xbe8f61ea	-0.2800439
216	0xbe914706	-0.283745
217	0x3db2df7d	0.08734033
218	0xbe2c18cb	-0.16806333
219	0xbe6070d7	-0.21918045
220	0x3ea269f6	0.31721467
221	0x3d8d71a0	0.06906438
222	0x3e9246a8	0.2856953
223	0xbe5432d7	-0.20722519
224	0xbe5c8c3d	-0.21537872
225	0x3dcc8d16	0.099878475
226	0xbe7fcb33	-0.24979858
227	0xbe504a15	-0.2034076
228	0x3d59ef9e	0.053207032
229	0xbe338f56	-0.17535147
230	0xbe97059f	-0.29496476
231	0x3ea4b02e	0.32165664
232	0x3e9e1d74	0.30881846
233	0x3d95c56c	0.07313046
234	0xbd23b8a9	-0.039971028
235	0xbec8eef5	-0.3924481
236	0xbe3b0fca	-0.18267742
237	0x3e15b71e	0.14620635
238	0x3e8c7a3a	0.27437
239	0x3bdd999e	0.0067626974
240	0xbe4a1e07	-0.19738017
241	0x3e4e5399	0.20149077
242	0xbe91b176	-0.28455704
243	0x3e5fbf31	0.21850277
244	0xbe107d73	-0.14110355
245	0x3d958e5f	0.07302546
246	0xbda1ec5f	-0.07906412
247	0x3c5dda9f	0.013540893
248	0xbd9189e8	-0.07106382
249	0x3e7226ce	0.23647615
250	0xbca23803	-0.0198021
251	0x3ea6f835	0.32611242
252	0x3e91629b	0.28395543
253	0xbe1e2b01	-0.15446092
254	0xbe8cff9a	-0.2753876
255	0x3ef60bf3	0.48055992

layers.1.bias f4 [16]
0	0x3a12f06b	0.0005605283
1	0xbe0dfc1c	-0.13865703
2	0xbda14ddc	-0.078761786
3	0x3d3c92a1	0.046038274
4	0xbd74c256	-0.059755646
5	0xbd1db586	-0.038503192
6	0x3b573891	0.0032840113
7	0x3e01ae5b	0.12664168
8	0xbdc1636f	-0.094427936
9	0xbc82b2b0	-0.015954345
10	0x3d059210	0.03261
11	0xbd37fdd0	-0.04491979
12	0x3dd29cc2	0.102838054
13	0x3d3c1230	0.045915782
14	0xbcd41330	-0.025888056
15	0x3dab97bd	0.08378551

final.linears.0.weight f4 [88, 44]
0	0x3e488d62	0.19585183
1	0xbe762733	-0.24038391
2	0xbb8d6ca2	-0.0043159286
3	0xbea607fc	-0.32427967
4	0xbea1dfd8	-0.31616092
5	0xbd0c63b7	-0.034274783
6	0x3d8f6fb2	0.07003726
7	0xba1832f9	-0.00058059354
8	0xbe468fe2	-0.19390824
9	0x3e744e02	0.23857883
10	0x3e49b4b4	0.19697839
11	0x3ca543e3	0.020173972
12	0x3d73e9fa	0.05954931
13	0x3d874417	0.06604784
14	0x3ccc86c5	0.024966607
15	0xbdf95b14	-0.12175575
16	0x3d838ec5	0.064237155
17	0xbd2686d8	-0.04065594
18	0xbe0193fb	-0.12654106
19	0xbd14920e	-0.0362721
20	0x3e1e6915	0.15469773
21	0x3d9025b0	0.07038438
22	0x3e1ee654	0.1551755
23	0x3d9f4df5	0.07778541
24	0x3e3b2a02	0.18277743
25	0xbd8da6c1	-0.069165714
26	0xbd216e6a	-0.03941194
27	0x3d35ff00	0.04443264
28	0xbd3b4268	-0.045717627
29	0xbd8650a5	-0.065583505
30	0xbcfa3099	-0.030540751
31	0x3d1a4e11	0.037672106
32	0x3cb7e294	0.022446908
33	0xbd60f68d	-0.05492263
34	0xbd174150	-0.03692752
35	0x3c094bd8	0.008379899
36	0xbdf9f86b	-0.12205585
37	0xbda84b25	-0.08217458
38	0x3e068f0e	0.13140509
39	0xbc31c2b5	-0.010849644
40	0x3da41307	0.08011442
41	0x3e06b379	0.13154401
42	0x3d56dbf9	0.052455876
43	0x3d59d3fa	0.053180672
44	0x3e344e11	0.17607905
45	0x3e083edf	0.13305233
46	0xbd294785	-0.041327972
47	0x3cb292c5	0.0217985
48	0x3e3a6466	0.18202361
49	0x3e99e741	0.30059245
50	0xbe575da0	-0.21031809
51	0xbe2106c5	-0.15725239
52	0x3de2d1eb	0.11075195
53	0x3cf97b7a	0.030454386
54	0x3e3831ed	0.17987795
55	0x3e937702	0.28801733
56	0x3e18242a	0.14857545
57	0x3d8b23da	0.067939475
58	0xbd9621eb	-0.07330688
59	0xbd8a1ae6	-0.06743412
60	0xbd24434a	-0.040103234
61	0xbd1f57db	-0.038902145
62	0x3adf076e	0.0017015764
63	0xbddabd97	-0.10680693
64	0x3d2fb9f4	0.042901948
65	0xbe0d678e	-0.13809034
66	0xbd204919	-0.03913221
67	0xbe20da0c	-0.15708178
68	0x3e02dc7a	0.12779418
69	0xbdf42416	-0.11920945
70	0x3e0516b0	0.12996936
71	0xbc44cef3	-0.012012231
72	0xbc300029	-0.010742226
73	0x3d9832d8	0.07431573
74	0xbd5c65c7	-0.053808
75	0x3d753ed4	0.05987437
76	0x3e0be34b	0.13660924
77	0xbdfef05d	-0.124481894
78	0x3d690be0	0.05689609
79	0x3dcc2a5c	0.09969017
80	0x3db19f87	0.086730056
81	0xbd1f4e71	-0.038893167
82	0x3d7681aa	0.06018225
83	0xbd33cbb0	-0.043895423
84	0xbdb006cd	-0.08595047
85	0x3e298720	0.16555452
86	0x3de00542	0.10938503
87	0xbd9fcc31	-0.07802618
88	0xbe01c1a8	-0.1267153
89	0xbe043580	-0.12911034
90	0xbdf079f1	-0.117420085
91	0x3e626339	0.22108163
92	0xbc9bf3c5	-0.019037137
93	0x3dd9bb43	0.106314205
94	0xbe21930d	-0.15778752
95	0xbdb49169	-0.08816797
96	0x3e872557	0.26395676
97	0x3dfd2deb	0.12362274
98	0x3e077ca5	0.13231142
99	0x3e2655b9	0.16243638
100	0x3e4400c0	0.19140911
101	0xbd9ff076	-0.07809536
102	0xbd1101c8	-0.03540209
103	0x3d3a954f	0.045552548
104	0xbd6b5e02	-0.0574627
105	0x3d2ddab0	0.042444885
106	0x39f8082c	0.00047308335
107	0xbdd13ba6	-0.10216455
108	0x3de12eec	0.10995278
109	0xbd439de7	-0.04775801
110	0x3da0401a	0.078247264
111	0x3ddeed00	0.10885048
112	0x3da99688	0.08280665
113	0x3e342e3c	0.17595762
114	0x3c8bcb46	0.017064702
115	0xbd4f2c5e	-0.05057942
116	0xbe1a6771	-0.15078522
117	0xbdc64e69	-0.09682924
118	0xbe02cfc4	-0.12774569
119	0xbd934a31	-0.07191885
120	0xbe2ac47a	-0.16676512
121	0xbe2ef9ca	-0.17087474
122	0xbe009c8f	-0.12559722
123	0xbdf19680	-0.11796284
124	0xbdc1e486	-0.094674155
125	0x3c644bde	0.013934104
126	0x3dc1ae0c	0.09457025
127	0xbcdd7157	-0.027031584
128	0xbdd6e32e	-0.1049255
129	0x3d612010	0.054962218
130	0xbd9c90aa	-0.0764478
131	0xbde8adec	-0.11361298
132	0x3c2fce6c	0.010730367
133	0xbe21fd2e	-0.15819237
134	0x3c0cdf71	0.008598194
135	0x3e3c7628	0.18404448
136	0x3dc9aa71	0.09846962
137	0x3e5a8b9b	0.21342318
138	0xbe873d72	-0.26414067
139	0xbdd89d52	-0.105768815
140	0x3e0aaf59	0.13543452
141	0xbe056f88	-0.13030827
142	0x3e4c4d9b	0.19951479
143	0x3e943092	0.28943306
144	0xbdb02d49	-0.086023875
145	0x3d0a5ac1	0.033777956
146	0xbd901560	-0.07035327
147	0xbdcac63e	-0.09901093
148	0x3bd5c428	0.006523628
149	0xbe07daa9	-0.13267006
150	0x3d479e97	0.048735227
151	0x3d8387ed	0.0642241
152	0xbdcc674b	-0.09980639
153	0x3db8b68f	0.09019195
154	0xbe160d6f	-0.14653562
155	0x39abd0a7	0.0003277112
156	0xbb61bf00	-0.003444612
157	0xbdc6e3ec	-0.097114414
158	0xbe0d47a1	-0.13796856
159	0x3d83779d	0.06419299
160	0x3d4ce3d0	0.050021946
161	0x3e113e9d	0.14184041
162	0x3df14cf7	0.11782258
163	0xbdc36cc5	-0.095422305
164	0xbe14c801	-0.1452942
165	0x3e36aee6	0.17840156
166	0x3d8b5744	0.06803754
167	0xbbf5e8ce	-0.007504559
168	0x3d72925f	0.05922162
169	0xbe2b170a	-0.16708007
170	0x3d0ff26d	0.035143305
171	0x3e33c591	0.17555834
172	0xbc3f9397	-0.011692903
173	0x3c348cfe	0.011019943
174	0xbe11b976	-0.14230904
175	0xbd1d3161	-0.03837717
176	0xbe3dd07b	-0.1853656
177	0xbe855231	-0.2603927
178	0xbd40b64b	-0.047048848
179	0x3e1b9507	0.15193568
180	0xbe05ed64	-0.13078839
181	0x3e4b5460	0.19856405
182	0xbe944cb4	-0.2896477
183	0xbdb54ea4	-0.0885289
184	0xbdae85f6	-0.08521645
185	0x3e8eec8b	0.27914843
186	0xbe5a0e62	-0.21294549
187	0xbe5bb594	-0.21455985
188	0xbdee0914	-0.11622825
189	0xbda6943e	-0.08133744
190	0xbdef3f73	-0.11682024
191	0xbc59687e	-0.013269542
192	0x3d662036	0.056183062
193	0xbddf2ce0	-0.10897231
194	0x3e1a7ebb	0.15087406
195	0x3d30b207	0.04313853
196	0xbddd2817	-0.10798662
197	0xbd87d5d6	-0.06632583
198	0x3d30f934	0.04320641
199	0x3d8bbfcf	0.06823694
200	0xbcea5a60	-0.028607547
201	0xbd7cb74d	-0.061698247
202	0x3dada36d	0.084784366
203	0xbca1eafe	-0.019765373
204	0x3dcd7574	0.10032168
205	0xbcd08f7a	-0.02545904
206	0x3d52c913	0.05146129
207	0x3dd1f451	0.10251678
208	0xbd88aed7	-0.06673973
209	0xbe172225	-0.14759119
210	0xbd5a38d6	-0.05327686
211	0x3df83983	0.121203445
212	0xbe3fb713	-0.18722181
213	0x3d8896d0	0.0666939
214	0xbe3a4d59	-0.18193568
215	0x3e04a139	0.12952127
216	0x3d579e41	0.052641157
217	0xbd98c66d	-0.07459722
218	0x3d56c87f	0.0524373
219	0x3d344633	0.04401226
220	0x3e3aa22e	0.18225929
221	0xbe5c412b	-0.21509235
222	0xbe114f06	-0.14190301
223	0x3e747bd4	0.23875362
224	0x3d94984b	0.0725561
225	0x3e1629f5	0.14664443
226	0xbe89d616	-0.26921147
227	0x3e86b838	0.26312423
228	0x3cdc45f1	0.02688882
229	0xbe37dd39	-0.17955483
230	0xbe96a78b	-0.294247
231	0xbddd0591	-0.10792077
232	0x3d86568c	0.06559476
233	0xbcf733e7	-0.030176116
234	0xbd9b5b66	-0.07585792
235	0x3db7a3c4	0.08966783
236	0xbd23c379	-0.03998134
237	0x3da1d379	0.07901663
238	0xbdef2ffe	-0.11679076
239	0xbd87d468	-0.0663231
240	0xbda62186	-0.08111863
241	0xbd4f675e	-0.050635688
242	0x3c33c556	0.0109723415
243	0x3e0ed231	0.13947369
244	0xbc8c1f60	-0.017104805
245	0x3e262bed	0.16227694
246	0x3b0a64f8	0.002111731
247	0x3e1e6319	0.1546749
248	0x3db6d8de	0.08928083
249	0x3d78d098	0.060745806
250	0xbdc936a0	-0.09824872
251	0x3d84c154	0.06482187
252	0x3e019626	0.12654933
253	0xbd8a7e96	-0.067624256
254	0xbd355784	-0.044272915
255	0xbd022b8a	-0.031779803

final.linears.0.bias f4 [88]
0	0x3d868f05	0.065702476
1	0xb9dfcd96	-0.00042687048
2	0x3dffe663	0.12495115
3	0x3de0d03e	0.10977219
4	0xbc95e481	-0.018297436
5	0x3e01810a	0.12646881
6	0xbd442044	-0.047882333
7	0x3d93faa0	0.07225537
8	0x3dae121d	0.084995486
9	0x3d009033	0.03138752
10	0x3d3ba42d	0.045810867
11	0xbc796a80	-0.0152231455
12	0x3c74552e	0.014912887
13	0x3e5bdda3	0.21471266
14	0x3d793178	0.060838193
15	0xbd76b9aa	-0.060235657
16	0xbd2da148	-0.042390138
17	0x39d7f8ea	0.0004119345
18	0xbd27fd18	-0.041012853
19	0xbd18b0c2	-0.037277944
20	0x3e23a703	0.15981679
21	0x3d921b85	0.07134155
22	0x3dc50d8d	0.09621725
23	0x3cc583b2	0.024110649
24	0xbcdb3c99	-0.026762294
25	0x3d2558cd	0.04036789
26	0xbe0fdb77	-0.14048563
27	0xbd284558	-0.041081756
28	0xbe381c27	-0.1797949
29	0x3d166e13	0.03672607
30	0xbce05a57	-0.027386827
31	0xbd0e3dee	-0.03472703
32	0x3e28ab56	0.1647161
33	0xbc563af1	-0.013075576
34	0x3db617a5	0.088912286
35	0xbd5edfa4	-0.0544125
36	0x3dcd7af2	0.100332156
37	0x3d09c718	0.033637136
38	0xbe1100e6	-0.14160499
39	0xbd76c57e	-0.060246937
40	0xbdd1d41d	-0.102455355
41	0xbdf02fa4	-0.11727837
42	0x3dd49a92	0.103810444
43	0x3e07300f	0.13201927
44	0xbdd750dc	-0.105134696
45	0xbd4a9f06	-0.049468063
46	0x3e579d1b	0.21056025
47	0x396730a8	0.00022048003
48	0xbe277285	-0.1635228
49	0xbdd2d33a	-0.102941945
50	0xbd2193e3	-0.039447676
51	0xbdd8680d	-0.10566721
52	0xbdddb8ce	-0.10826264
53	0xbdd780e3	-0.1052263
54	0xbded88ac	-0.11598334
55	0x3d48a384	0.048984066
56	0x3e73a56d	0.23793574
57	0xbdc31eac	-0.095273346
58	0xbde0f108	-0.10983473
59	0xbe81a6cf	-0.25322577
60	0xbd219046	-0.03944423
61	0x3dd415bd	0.10355709
62	0xbe042c2d	-0.12907477
63	0x3d8e6348	0.0695253
64	0xbc88bfe5	-0.016693065
65	0xbe4e6abc	-0.20157903
66	0xbcc796cf	-0.024363903
67	0xbdadf0b2	-0.084931746
68	0xbdb5dad7	-0.08879631
69	0x3d8d5e8b	0.06902798
70	0x3dc134a2	0.09433867
71	0x3d40dd28	0.04708591
72	0x3e918d0c	0.28427923
73	0xbd418139	-0.047242377
74	0x3d1ab134	0.03776665
75	0xbdc72439	-0.09723706
76	0x3e74d20c	0.23908252
77	0x3e286d7c	0.16448015
78	0x3b250415	0.0025179435
79	0x3da87135	0.082247175
80	0xbdee93d5	-0.116492905
81	0xbd8910bc	-0.06692645
82	0xbe14e6f6	-0.1454123
83	0x3dac5280	0.08414173
84	0xbdc30888	-0.095231116
85	0xbdad38ec	-0.084581226
86	0x3e093348	0.13398468
87	0x3d834302	0.06409265

final.linears.1.weight f4 [88, 88]
0	0xbdddc291	-0.10828126
1	0x3db7fea2	0.08984114
2	0xbd6f2267	-0.058382418
3	0x3b947a53	0.0045311837
4	0xbdecc0ee	-0.11560236
5	0xbd3a6076	-0.04550215
6	0x3e36fe74	0.17870504
7	0xbe32aa11	-0.17447688
8	0x3dd12d37	0.10213702
9	0xbdfba46c	-0.1228722
10	0xbdbb254e	-0.09137975
11	0xbdd7d469	-0.10538561
12	0xbd7a54fd	-0.061116207
13	0xbe180186	-0.14844331
14	0xbd88d5c4	-0.066813976
15	0x3c22bb8d	0.009932411
16	0x3c504b21	0.012713225
17	0x3d8525c8	0.06501347
18	0xbe182752	-0.1485875
19	0xbc0532ee	-0.008129818
20	0xbe6b339e	-0.22968909
21	0x3ce46d56	0.027884167
22	0xbe83ebbd	-0.25765792
23	0x3e305a1f	0.17221878
24	0x3d3a2f80	0.045455456
25	0x3d0ba945	0.034096975
26	0xbd1788c2	-0.036995657
27	0xbd65fdbd	-0.056150187
28	0xbdb4dfc7	-0.08831745
29	0x3c17d9cf	0.009268238
30	0xbd795ff5	-0.060882527
31	0x3d98b2a7	0.0745595
32	0xbd79d7df	-0.060996886
33	0x3d4aad87	0.049481895
34	0xbcf96172	-0.030441973
35	0xbd956469	-0.07294542
36	0x3dbad7b9	0.09123177
37	0xbdb902f5	-0.09033767
38	0x3e74eaa1	0.23917629
39	0x3d7f923e	0.062395327
40	0xbe3ee1aa	-0.18640772
41	0xba53a6f2	-0.0008073888
42	0xbe59ca7d	-0.2126865
43	0xbdcb43fa	-0.09925075
44	0xbda224e5	-0.07917193
45	0xbe64b67d	-0.22335239
46	0xbe3115ba	-0.17293444
47	0xbe1dddaf	-0.15416597
48	0xbcede42c	-0.029039465
49	0x3e657379	0.2240733
50	0x3c87a9cd	0.01656046
51	0x3e588602	0.2114487
52	0x3d9668d1	0.07344211
53	0xbce4fbc1	-0.027952077
54	0x3dc1e30b	0.09467133
55	0x3db82252	0.08990921
56	0xbe32c083	-0.1745625
57	0x3da25faa	0.07928403
58	0xbc798958	-0.015230499
59	0x3e3e7482	0.18599132
60	0x3dfbdd3c	0.122980565
61	0x3d8d390c	0.068956465
62	0x3e8ba880	0.27276993
63	0xbde15556	-0.11002605
64	0xbe151d71	-0.14562012
65	0xbdc6b3c3	-0.097022556
66	0x3dd3bedb	0.10339137
67	0xbc8769b2	-0.016529892
68	0xbdbdd7a0	-0.09269643
69	0xbe637070	-0.2221086
70	0xbdc3f4cd	-0.095681764
71	0x3d48c25d	0.049013484
72	0xbe414c69	-0.18876804
73	0xbe212787	-0.15737735
74	0x3e2f4fd2	0.17120293
75	0x3debe77d	0.11518762
76	0xbd491d85	-0.049100418
77	0xbcd44f51	-0.025916727
78	0x3e125d79	0.1429347
79	0xbd29b25f	-0.041429874
80	0xbc9abb15	-0.018888036
81	0x3e5b210f	0.2139933
82	0x3e5d67b8	0.21621597
83	0x3c8b0c30	0.016973585
84	0xbdafef72	-0.085905924
85	0x3db83dac	0.08996138
86	0x3e09afe6	0.13446006
87	0x3dda0069	0.106446095
88	0xbd9b759a	-0.0759079
89	0xbddb065f	-0.106945746
90	0xbce6bbb3	-0.028165674
91	0x3d624cfe	0.055249207
92	0xbe481989	-0.19540991
93	0xbd721965	-0.05910625
94	0xbc820005	-0.01586915
95	0xbc041aff	-0.008063077
96	0xbe0f4bbd	-0.13993736
97	0xbe21d3e6	-0.15803489
98	0xbcc987b8	-0.024600849
99	0xbd2e0bfe	-0.042491905
100	0xbe3b3c04	-0.18284613
101	0xbddf0099	-0.10888786
102	0xbe25da2e	-0.1619651
103	0x3b7f1cf0	0.003892716
104	0xbe220de0	-0.15825605
105	0x3d566e29	0.05235115
106	0xbe2c1ca3	-0.16807799
107	0x3afade5f	0.0019139758
108	0xbe471cb2	-0.1944454
109	0xbd8b260f	-0.067943685
110	0xbcbc905b	-0.023018053
111	0x3cb2eb08	0.021840587
112	0xbe491962	-0.19638589
113	0xbe32c103	-0.1745644
114	0xbe2d8bac	-0.16947812
115	0xbd343fa7	-0.044006016
116	0x3de3cc26	0.111229226
117	0xbd4227a0	-0.04740107
118	0x3d83f2d7	0.064428024
119	0x3cc1d687	0.023661865
120	0xbe2cf5db	-0.16890661
121	0xbd6cd499	-0.057819936
122	0xbda42285	-0.080143966
123	0xbc8daa4a	-0.017293114
124	0xbdda0ea4	-0.10647324
125	0x3e41ebe4	0.18937641
126	0x3e2596a5	0.16170748
127	0x3dfabda2	0.12243201
128	0x3df60abe	0.12013768
129	0xbdbba736	-0.09162752
130	0xbdf4ddea	-0.11956389
131	0xbd22a02f	-0.039703544
132	0xbb8d20dc	-0.0043068957
133	0x3e1f2b81	0.15543939
134	0xbe2fd261	-0.17170097
135	0xbe1bd68f	-0.15218566
136	0x3e6b4d54	0.22978717
137	0x3d540ee3	0.05177201
138	0x3da647b6	0.081191465
139	0xbd0b3179	-0.033982728
140	0xbda2c89a	-0.07948418
141	0xbc633809	-0.01386834
142	0xbd9b777d	-0.0759115
143	0xbd83a239	-0.06427426
144	0xbd967145	-0.07345823
145	0x3df4ea1a	0.11958714
146	0x3c6d756c	0.014493328
147	0x3e7a1e65	0.24425657
148	0xbcbd6816	-0.023120921
149	0xbe2becc8	-0.16789544
150	0x3c333cf4	0.010939825
151	0xbe309aad	-0.17246504
152	0xbdda7b19	-0.1066801
153	0x3d089db2	0.033353515
154	0x3e280b11	0.16410471
155	0x3d349eb5	0.044096667
156	0x3d6adc3b	0.057338934
157	0x3d55c068	0.052185446
158	0xbdaa40af	-0.08313119
159	0x3caf341b	0.02138715
160	0x3d97c1d2	0.07410015
161	0xbde0312e	-0.1094688
162	0x3d05cf8b	0.03266863
163	0x3dd967c9	0.106154986
164	0xbdd646ba	-0.10462709
165	0xbd94c76b	-0.072645985
166	0x3dc858d0	0.09782565
167	0xbe402866	-0.18765411
168	0x3d8414d4	0.06449285
169	0xbe02090c	-0.12698764
170	0x3dbdbb14	0.09264198
171	0xbdf4debd	-0.119565465
172	0x3dbcdd27	0.09221869
173	0x3c97ec20	0.01854521
174	0x3dd38a84	0.10329154
175	0xbd964a1e	-0.073383555
176	0x3e1a5ab0	0.15073657
177	0xbdeaf098	-0.11471671
178	0x3d293c2e	0.041317157
179	0x3cee7248	0.029107228
180	0xbd854364	-0.06506994
181	0xbd36571d	-0.04451667
182	0x3e30b5df	0.17256878
183	0x3d061701	0.032736782
184	0xbe13218c	-0.14368266
185	0x3d4f48f5	0.050606687
186	0x3ccd6a42	0.025075082
187	0xbd20a6dc	-0.03922163
188	0x3d6a4bac	0.057201073
189	0x3e401b9a	0.18760529
190	0x3d158c5b	0.036510807
191	0xbd922ae8	-0.0713709
192	0xbde17519	-0.11008663
193	0x3d1e782e	0.03868883
194	0xbe04b330	-0.1295898
195	0x3e091e73	0.13390522
196	0xbe2a0468	-0.16603243
197	0x3db947dc	0.09046909
198	0xbdd4d52a	-0.1039222
199	0x3cc4fc9a	0.024046231
200	0xbd964aa8	-0.07338458
201	0xbc7dad55	-0.01548322
202	0xbd839d9d	-0.06426547
203	0xbe209483	-0.15681653
204	0xbd9db7c0	-0.07701063
205	0x3c6f4fd9	0.0146064395
206	0x3c1c3619	0.009534382
207	0x3db19d7e	0.086726174
208	0x3d05edb3	0.03269739
209	0xbddf0317	-0.10889261
210	0x3b150506	0.002273859
211	0xbe2cf66b	-0.16890876
212	0x3e163add	0.14670892
213	0xbe41d6f3	-0.18929653
214	0x3ce5c7c4	0.028049357
215	0x3d102ef3	0.035201024
216	0xbde03d22	-0.1094916
217	0x3e3cb51a	0.1842846
218	0x3dbe2dc0	0.0928607
219	0xbdfc8d4b	-0.12331637
220	0xbdf94f32	-0.121733084
221	0xbe04690c	-0.12930697
222	0x3d814d4b	0.063135706
223	0xbd492bf9	-0.0491142
224	0xbdd340af	-0.10315072
225	0xbe0b66af	-0.1361339
226	0xbd91afa5	-0.0711358
227	0xbcf6461d	-0.03006273
228	0xbcec2cdc	-0.028829984
229	0xbb762c72	-0.0037563113
230	0x3d2fb005	0.042892475
231	0x3bb73764	0.00559132
232	0x3ccb20c5	0.0247959
233	0x3d6ccb89	0.057811294
234	0xbcce2e69	-0.025168614
235	0x3ceeb005	0.029136667
236	0x3d4d7a16	0.05016526
237	0x3d802590	0.062571645
238	0x3c88ad01	0.016684057
239	0x3d2765fa	0.040868737
240	0x3d824084	0.06359962
241	0xbd0d99e0	-0.034570575
242	0x3de65ef9	0.11248583
243	0xbdd7e81a	-0.10542317
244	0x3d98082d	0.074234344
245	0xbdc3c5fd	-0.09559248
246	0xbd1d7da7	-0.03844991
247	0x3e307a4d	0.17234154
248	0x3d41f15f	0.04734933
249	0xbd9cebf8	-0.07662195
250	0xbcbb618d	-0.022873664
251	0x3dcd387f	0.100205414
252	0x3d3d5fc9	0.046233926
253	0x3d26971e	0.04067146
254	0xbe75a531	-0.23988797
255	0x3c5e600e	0.013572706

final.linears.1.bias f4 [88]
0	0x3caafdfc	0.020873062
1	0xbbbaab78	-0.00569671
2	0x3d07b02c	0.033126995
3	0xbdb9e658	-0.09077138
4	0xbc8ffd00	-0.017576694
5	0x3de873bc	0.113501996
6	0xbcff8a4e	-0.031193879
7	0x3d105e08	0.035245925
8	0xbd53eea2	-0.05174125
9	0xbc80d781	-0.01572776
10	0xbd688724	-0.056769505
11	0xbd496fc9	-0.049178872
12	0x3cfc25cc	0.030779742
13	0xbdbb0f54	-0.09133783
14	0xbd20a96c	-0.039224073
15	0xbda1af0c	-0.07894716
16	0xbd8e9e7d	-0.06963823
17	0xbbcdfe52	-0.006286421
18	0xbdb38a98	-0.08766669
19	0x3d997b2c	0.07494196
20	0x3d6a8bcb	0.057262223
21	0xbdf972af	-0.12180077
22	0xbd88fa5a	-0.06688376
23	0xbe039afa	-0.12852088
24	0xbd26c666	-0.04071655
25	0x3d4bd7ef	0.049766477
26	0x3d67459c	0.05646287
27	0x3df6e4dc	0.1205537
28	0xbdb7cbec	-0.08974442
29	0xbc05f901	-0.008177043
30	0xbc97f1a7	-0.018547846
31	0x3d2854ea	0.041096605
32	0x3d94c65e	0.07264398
33	0xbb93a7da	-0.0045060934
34	0xbcc73846	-0.024318825
35	0x3e0394b7	0.12849699
36	0x3d688c22	0.056774266
37	0x3c96a74e	0.018390324
38	0x3d767275	0.06016775
39	0x3d140863	0.03614081
40	0xbe22e066	-0.15905914
41	0xbd8489bf	-0.064715855
42	0xbdfcb8d4	-0.12339941
43	0xbd8b7a79	-0.06810469
44	0x3d5239d2	0.051324673
45	0x3d997514	0.07493034
46	0x3dbc37c9	0.09190328
47	0x3e14f223	0.14545493
48	0xbe3843ca	-0.1799461
49	0x3c803f0b	0.015655061
50	0xbdb343f7	-0.08753198
51	0x3dc8029e	0.09766124
52	0xbd767875	-0.06017347
53	0xbbf0f472	-0.007353359
54	0xbc23dcd0	-0.010001376
55	0xbd19454e	-0.03741961
56	0xbdbc11e1	-0.09183098
57	0x39c3ffca	0.00037383876
58	0x3ce94f82	0.028480295
59	0x3e2df420	0.16987658
60	0xbe034002	-0.12817386
61	0x3dceeb7d	0.101035096
62	0x3d9e2bf7	0.077232294
63	0x3d60d5be	0.05489134
64	0xbd7d6545	-0.061864156
65	0x3d94c826	0.07264738
66	0x3c916336	0.017747503
67	0xbde1397f	-0.10997295
68	0x3dee68ef	0.11641108
69	0xbdcd43b2	-0.100226775
70	0xbd02dc26	-0.03194823
71	0x3bae8a4f	0.0053265463
72	0xbdc3afaa	-0.0955499
73	0x3dca1903	0.09868052
74	0x3d152088	0.036407977
75	0x3c98242a	0.018571932
76	0xbdba297e	-0.09089945
77	0x3cdc586f	0.026897637
78	0x3daeb59f	0.08530735
79	0xbd03a0a4	-0.03213562
80	0x3d5d4acf	0.05402642
81	0xbdad0172	-0.08447541
82	0xbd2a6804	-0.041603103
83	0x3c6ff035	0.014644672
84	0x3a8b53bc	0.0010629813
85	0x3c7bbd8b	0.015365015
86	0xbd52b4d1	-0.05144197
87	0x3ca93fc2	0.020660285

final.linears.2.weight f4 [12, 88]
0	0x3d56eaed	0.052470136
1	0x3dd5901d	0.10427878
2	0xbd49162c	-0.04909341
3	0xbe1eaee9	-0.1549641
4	0xbe2b8ca9	-0.16752876
5	0xbe1b3313	-0.15156202
6	0x3e1e6d12	0.15471295
7	0xbd51ef44	-0.051253572
8	0xbbaac9a4	-0.0052120257
9	0x3c8773a5	0.016534636
10	0xbba12ae2	-0.004918442
11	0x3d404938	0.046944827
12	0x3d8e4159	0.06946058
13	0xbe113996	-0.14182124
14	0x3da4fe2b	0.08056291
15	0x3d39b466	0.045338057
16	0x3e041769	0.12899555
17	0x3b61e37c	0.0034467867
18	0x3e2e0ff5	0.16998275
19	0x3e1addb8	0.15123641
20	0xbda33a82	-0.07970144
21	0xbdd17cd2	-0.10228886
22	0x3d95f458	0.073219955
23	0x3d696a27	0.056986
24	0xbe2ae1b3	-0.1668766
25	0x3e307a9b	0.1723427
26	0x3e110566	0.14162216
27	0xbde3adb3	-0.11117115
28	0x3dc5f723	0.09666278
29	0x3d109ef7	0.03530785
30	0xbe0baa5a	-0.13639203
31	0xbcd033f6	-0.025415402
32	0xbdb25119	-0.087068744
33	0xbe0a4a16	-0.13504824
34	0x3e164dfc	0.14678186
35	0x3da9fe3c	0.083004445
36	0xbb9cd52f	-0.0047861557
37	0xbd9b3701	-0.075788505
38	0xbcb09988	-0.021557584
39	0xbd580211	-0.052736346
40	0xbdc053cd	-0.09390984
41	0x3db34cea	0.087549046
42	0xbcb12e70	-0.021628588
43	0xbd91ef80	-0.07125759
44	0x3e0b3b60	0.13596869
45	0xbd809dac	-0.062800735
46	0xbd885de0	-0.0665853
47	0xbdde65ef	-0.10859286
48	0xbd310017	-0.043212976
49	0x3e04cbb2	0.12968329
50	0x3cbbfdb0	0.022948116
51	0xbd779f11	-0.060454432
52	0xbda09b32	-0.07842101
53	0xbd3c0501	-0.04590321
54	0x3d8544cd	0.06507263
55	0x3d1f7384	0.038928524
56	0xbe141810	-0.14462304
57	0x3cb7e3ae	0.022447433
58	0xbda968e7	-0.08271962
59	0x3ddabc42	0.106804386
60	0xbc32b7c4	-0.010908071
61	0xbddf9d54	-0.1091868
62	0xbdeca785	-0.11555389
63	0x3da7bf33	0.08190765
64	0x3e321d1d	0.17393918
65	0xbcb61ee2	-0.022231523
66	0xbe180ea3	-0.14849333
67	0xbd551f06	-0.05203154
68	0x3d3e5981	0.046472076
69	0xbdcffc73	-0.10155573
70	0x3d328128	0.043580204
71	0x3e3ad900	0.18246841
72	0x3d3296b0	0.043600738
73	0x3d7aebc4	0.06126
74	0x3c730a6a	0.014834026
75	0x3e22fb76	0.15916237
76	0x3cabbf3f	0.020965217
77	0xbc7a46a4	-0.015275631
78	0xbe17f700	-0.14840317
79	0xbe06032b	-0.13087146
80	0x3dd22459	0.10260839
81	0x3d37911f	0.044816133
82	0xbdb432e1	-0.08798767
83	0xbc8a16b2	-0.016856525
84	0x3e0ca568	0.13734972
85	0x3d18460b	0.037176173
86	0xbd81c75e	-0.063368544
87	0x3b1511c9	0.0022746196
88	0xbdb0e9fd	-0.0863838
89	0x3dab4055	0.0836188
90	0xbe0cac43	-0.13737588
91	0xbcfb536c	-0.030679427
92	0xbdc10c34	-0.09426156
93	0x3a750011	0.0009346018
94	0xbbb3d965	-0.005488562
95	0xbe2f4f34	-0.17120057
96	0xbb73cacc	-0.0037199734
97	0xbcb902f1	-0.02258441
98	0xbd4af33f	-0.049548384
99	0xbd887107	-0.06662183
100	0xbc87f2c0	-0.016595244
101	0x3de05cc8	0.109551966
102	0xbdc780ae	-0.097413406
103	0x3bd0e0de	0.0063744625
104	0x3d461817	0.048362818
105	0x3c1c011a	0.009521747
106	0xbe0d890e	-0.13821813
107	0x3e1bb25e	0.1520476
108	0xbe1d3227	-0.15351163
109	0x3bc2f585	0.0059496784
110	0x3da717a9	0.0815881
111	0xbcdf3cf8	-0.027250752
112	0x3c9d7311	0.019219907
113	0x3dd0e58d	0.10200033
114	0x3be369bf	0.006940096
115	0x3d13f62f	0.03612345
116	0x3d6975e9	0.056997214
117	0x3e02f05c	0.12787002
118	0xbcb84fd4	-0.022499003
119	0xbe0349ea	-0.12821165
120	0x3e074fc2	0.13214019
121	0x3e1cd364	0.15315014
122	0x3da5e87c	0.081009835
123	0x3d8ebafb	0.069692574
124	0x3b968989	0.004594032
125	0xbe278a91	-0.16361453
126	0x3cca71a5	0.024712393
127	0x3db55d8a	0.08855732
128	0xbdbdd19d	-0.09268496
129	0x3cbdb71a	0.023158599
130	0x3d727ae0	0.059199214
131	0xbe3a0396	-0.1816543
132	0x3d053637	0.032522406
133	0x3ca524ab	0.020159086
134	0xbe077af4	-0.13230497
135	0x3e3b747a	0.18306151
136	0x3d20d9ce	0.039270215
137	0x3dc8039d	0.09766314
138	0x3d07fd6d	0.03320067
139	0x3dc83940	0.097765446
140	0x3dd20cd6	0.102563545
141	0x3e13567f	0.14388464
142	0xbc8ac310	-0.016938716
143	0x3dffc1bc	0.12488124
144	0x3d7bf44e	0.061512284
145	0x3e22a715	0.15884049
146	0x3cf6579d	0.030071074
147	0xbc99ed3c	-0.01878988
148	0xbe0b9299	-0.13630141
149	0x3d2cb7f3	0.042167615
150	0x3e2043b4	0.15650827
151	0xbdf1fce1	-0.11815811
152	0xbde2c18b	-0.11072072
153	0x3d75750e	0.059926085
154	0x3d65b96d	0.05608504
155	0x3e0d01e1	0.13770248
156	0x3d8cdf13	0.068784855
157	0xbdb15a27	-0.08659773
158	0xbcbc6bf2	-0.023000691
159	0x3cf70392	0.03015307
160	0xbe0e27a9	-0.13882317
161	0x3bdbec2a	0.0067115026
162	0xbe1aebe8	-0.15129054
163	0x3e051d93	0.12999563
164	0x3de7a701	0.1131115
165	0x3d46cc19	0.048534486
166	0xbd2535ab	-0.040334385
167	0xbdf809e3	-0.12111261
168	0xbdb69ca5	-0.08916596
169	0x3cde6e11	0.027152093
170	0x3e14761a	0.14498177
171	0xbdc9b8b7	-0.09849685
172	0xbdc4ba9a	-0.09605904
173	0x3dcf3e6b	0.10119327
174	0xbdde439f	-0.108527415
175	0x3db73d94	0.08947292
176	0x3db758bd	0.08952472
177	0x3db7cc52	0.08974518
178	0xbd5c6793	-0.053809714
179	0x3e1823af	0.14857362
180	0x3bf891bc	0.0075857323
181	0xbc50b968	-0.012739517
182	0xbaf53267	-0.0018707038
183	0xbd64e485	-0.055881996
184	0x3dc60ba5	0.0967019
185	0xbd26b61a	-0.04070101
186	0x3d3af917	0.045647707
187	0xbcd59dc2	-0.026076201
188	0xbcae2065	-0.021255681
189	0x3e07e809	0.13272108
190	0xbc656d20	-0.014003068
191	0x3c8f723a	0.017510522
192	0xbc4576b0	-0.012052223
193	0xbd81a696	-0.06330602
194	0x3e02d9e3	0.1277843
195	0xbd634860	-0.055488944
196	0xbd76a7eb	-0.060218733
197	0x3e2648c7	0.162387
198	0x3e089681	0.13338663
199	0x3e3f512c	0.18683308
200	0x3d56d19f	0.052446004
201	0x3b11b888	0.0022235233
202	0x3a23c07c	0.0006246639
203	0xbde27005	-0.11056522
204	0x3dac04f9	0.08399386
205	0x3b05ece5	0.002043539
206	0x3c2c0b82	0.010500791
207	0xbdf8bfba	-0.12145944
208	0xbdedb20b	-0.116062246
209	0xbc224150	-0.009903267
210	0x3de15895	0.11003224
211	0xbd8ba1d3	-0.06817975
212	0xbdf0fce1	-0.11766983
213	0x3d1dfbd1	0.03857023
214	0xbd1c1167	-0.038102534
215	0xbe0b1b5f	-0.1358466
216	0x3e8b5eb4	0.2722069
217	0x3e15048f	0.1455252
218	0x3e2871c2	0.16449645
219	0x3e0168d8	0.12637651
220	0xbd7f9926	-0.062401913
221	0xbd9b5550	-0.075846314
222	0xbdaeae7f	-0.08529376
223	0xbe0c5bb5	-0.13706858
224	0x3e4b40d9	0.19848956
225	0xbbbcd737	-0.0057629603
226	0x3cc3ff5d	0.023925478
227	0xbd1e3efe	-0.038634293
228	0x3dd22d88	0.10262591
229	0x3dee7f51	0.116453774
230	0x3de41cc4	0.11138299
231	0x3c889a9e	0.01667529
232	0x3d50dc41	0.0509913
233	0xbc9ea26e	-0.019364562
234	0xbb89a122	-0.0042001167
235	0xbd97c000	-0.07409668
236	0x3e575c3b	0.21031277
237	0xbd8f793d	-0.07005546
238	0x3d67b1f2	0.056566186
239	0xbd96487c	-0.07338044
240	0xb9fec484	-0.0004859307
241	0xbe0dbf3f	-0.13842486
242	0x3cc384ba	0.023867
243	0x3e71255b	0.23549406
244	0xbd896049	-0.06707818
245	0x3d5ad028	0.05342117
246	0x3d09e384	0.03366424
247	0xbda93b46	-0.08263259
248	0x3e02d596	0.12776789
249	0xbdb14e72	-0.086575404
250	0xbd71ffe1	-0.059081916
251	0x3ca76d4b	0.020437857
252	0x3dc6e031	0.0971073
253	0xbe0301f1	-0.1279371
254	0xbdbe9734	-0.093061835
255	0x3d109781	0.035300735

final.linears.2.bias f4 [12]
0	0x3c6a5b5e	0.01430401
1	0xbd0040ee	-0.03131192
2	0x3d162bc2	0.036662824
3	0xbd9f1fc0	-0.07769728
4	0xbd2e7194	-0.042588785
5	0x3ccf3281	0.025292637
6	0x3cdd1149	0.026985781
7	0xbda1ed88	-0.079066336
8	0xbdd3796c	-0.10325894
9	0x3be8c827	0.007103938
10	0xb88bb37e	-6.6614695e-05
11	0x3da73420	0.08164239

layers.0.attn.0.gnn_q.weight f4 [12, 16]
0	0x3d80f3da	0.06296511
1	0x3e9d775d	0.3075513
2	0x3e6167b5	0.22012217
3	0x3dd28e93	0.102811
4	0xbeb3f88e	-0.3515057
5	0x3e2e38d3	0.17013864
6	0xbdca2b32	-0.0987152
7	0xbc9392ff	-0.01801443
8	0xbe67dd65	-0.22643049
9	0xbe7d5066	-0.24737701
10	0x3e62274c	0.22085303
11	0x3e085a0c	0.133156
12	0x3e0dba42	0.13840583
13	0xbeb6fd22	-0.3574
14	0xbe2cd41c	-0.16877788
15	0xbe2348db	-0.15945761
16	0xbe7835fd	-0.24239345
17	0x3dfa5ab7	0.12224334
18	0x3b9ce7a0	0.004788354
19	0xbdda9aad	-0.10674033
20	0x3d45a1c0	0.04824996
21	0xbdd9f8c0	-0.106431484
22	0x3d0c7872	0.034294553
23	0xbe965693	-0.29362926
24	0xbc376c80	-0.011195302
25	0x3e8d81a2	0.27637964
26	0x3e48f0d5	0.1962312
27	0x3e45c55c	0.19313568
28	0xbd876cab	-0.06612524
29	0xbe82c725	-0.2554256
30	0x3e97d45e	0.2965421
31	0x3dd9fa25	0.106434144
32	0x3e687cfc	0.22703928
33	0x3e86a08c	0.26294363
34	0x3d6a1dcb	0.05715732
35	0xbe791045	-0.24322613
36	0x3ea3ce4f	0.31993338
37	0xbe13a86a	-0.14419714
38	0xbe078a87	-0.13236438
39	0x3ea313ba	0.31850988
40	0xbd53eaac	-0.051737472
41	0x3de2d4b2	0.11075725
42	0x3df5c153	0.11999764
43	0x3dbcea43	0.092243694
44	0xbd2f1e69	-0.04275361
45	0x3ed80d53	0.42197666
46	0xbe4bcd2f	-0.1990249
47	0xbdcce478	-0.100045145
48	0xbb6a8768	-0.0035786275
49	0xbe3bb750	-0.18331647
50	0xbdcd3c50	-0.10021269
51	0xbd551770	-0.052024305
52	0xbde86c5f	-0.11348795
53	0x3e74397d	0.23850055
54	0xbd59cac8	-0.053171903
55	0x3edd680f	0.43243453
56	0x3e934c46	0.2876913
57	0x3de47247	0.11154609
58	0x3e70eb1c	0.23527187
59	0xbe87e1e4	-0.26539528
60	0xbd82d8e3	-0.06389024
61	0x3ecade8a	0.3962291
62	0xbc4c0895	-0.012453218
63	0xbe1be371	-0.15223481
64	0xbe1e8429	-0.15480103
65	0xbcd7d402	-0.02634621
66	0xbe001122	-0.12506536
67	0x3e3c1b3e	0.18369767
68	0xbd01ea46	-0.03171756
69	0x3d63031b	0.055422883
70	0xbe92b325	-0.286523
71	0xbdf616c4	-0.12016061
72	0x3e788c45	0.24272259
73	0xbb81c51b	-0.0039602644
74	0x3e8bf3b5	0.2733437
75	0xbe009582	-0.12557033
76	0x3d9c2179	0.07623572
77	0x3d7f05b7	0.06226131
78	0xbdd3296b	-0.10310634
79	0x3e366e77	0.17815576
80	0x3e9ec245	0.3100759
81	0x3e242410	0.16029382
82	0x3d9c5569	0.07633478
83	0x3e88eb0f	0.26741835
84	0x3e9d9248	0.30775666
85	0xbe6f348f	-0.23359893
86	0x3e92467a	0.28569394
87	0x3e95ba9e	0.2924394
88	0x3e28b32a	0.16474596
89	0xbe92c26e	-0.28663963
90	0x3e4503c6	0.1923972
91	0x3e424d6c	0.18974847
92	0x3d5c6d60	0.053815246
93	0xbeade579	-0.33964136
94	0x3ec661eb	0.3874658
95	0xbe73eec3	-0.23821549
96	0x3e14f21b	0.14545481
97	0x3eb4ec8f	0.3533673
98	0x3e8a1074	0.26965678
99	0xbd8980e4	-0.06714037
100	0xbd02e23a	-0.031954028
101	0xbe3b7b7f	-0.18308829
102	0xbe7ceb7f	-0.2469921
103	0xbe4868e5	-0.19571264
104	0x3e8565e8	0.2605431
105	0x3e3a4d51	0.18193556
106	0xbd99bc54	-0.07506624
107	0x3e025f53	0.12731676
108	0x3c89a1ae	0.016800728
109	0xbdf86ad9	-0.121297546
110	0x3e4bc38a	0.19898811
111	0xbe5a6a91	-0.21329714
112	0x3e22b676	0.15889916
113	0x3e18d2d6	0.14924178
114	0xbca44bc8	-0.020055667
115	0xbd281432	-0.041034885
116	0x3e82b4f0	0.2552867
117	0x3dc32ef2	0.095304385
118	0xbd4e3cdd	-0.050351012
119	0x3d2356f7	0.039877858
120	0x3e50fc2e	0.20408699
121	0xbe131c71	-0.14366318
122	0xbe9fcd99	-0.31211546
123	0x3e722b3b	0.23649304
124	0xbbe0a26d	-0.0068553
125	0x3e3a543b	0.18196194
126	0x3d8fa09e	0.07013057
127	0x3d6f4bce	0.058421902
128	0x3e350aa4	0.1767984
129	0x3e89c06d	0.26904622
130	0xbd90c6b8	-0.070691526
131	0x3e009095	0.12555154
132	0xbd83af83	-0.064299606
133	0x3dffa828	0.12483245
134	0xbeb5b61d	-0.35490504
135	0x3ec5aab3	0.38606796
136	0x3e77b11d	0.24188657
137	0x3e7a6625	0.24453028
138	0x3eb05cf5	0.3444592
139	0xbdf7ec52	-0.121056214
140	0xbdc1d34d	-0.094641306
141	0xbe5a0b98	-0.21293485
142	0x3cd51117	0.026009126
143	0x3cdd69f5	0.027028063
144	0xbd41fb43	-0.047358762
145	0xbe3dc29e	-0.18531272
146	0x3e7865f7	0.24257647
147	0x3e25b3ea	0.16181913
148	0xbea7f08d	-0.32800713
149	0xbea633de	-0.32461447
150	0xbe576035	-0.21032794
151	0xbc2265ff	-0.009912013
152	0xbdb12e2e	-0.08651386
153	0x3ea62085	0.32446685
154	0xbc8a16ee	-0.016856637
155	0xbcb1eaf8	-0.021718487
156	0x3e7065b7	0.23476301
157	0xbdb22abf	-0.086995594
158	0x3e836438	0.25662398
159	0xbcff8cea	-0.031195123
160	0xbdcdcc7b	-0.10048767
161	0x3c699a60	0.014257997
162	0xbeaaafb8	-0.33337188
163	0x3e93a25b	0.28834805
164	0x3dab9c2a	0.08379395
165	0x3e77824e	0.24170801
166	0x3e8ed868	0.2789948
167	0x3b84016f	0.004028491
168	0xbdcc66ab	-0.0998052
169	0xbc4b603e	-0.012413083
170	0xbe76c4aa	-0.24098459
171	0x3e1cf25b	0.15326826
172	0xbe1ee4a8	-0.15516913
173	0x3eac4f32	0.3365417
174	0x3d951f60	0.07281375
175	0x3ce7906f	0.028267113
176	0x3e4e3009	0.20135511
177	0x3d911603	0.070842765
178	0x3e81e8dc	0.2537297
179	0xbe710daf	-0.23540376
180	0xbe41c449	-0.18922533
181	0xbdadb716	-0.084821865
182	0x3e29554f	0.16536449
183	0x3e3d9777	0.1851481
184	0xbda535aa	-0.08066876
185	0x3a6a5f94	0.0008940634
186	0x3e431f86	0.19054994
187	0xbea7b7d5	-0.3275744
188	0x3d8365bc	0.06415889
189	0x3c6f5f9c	0.014610197
190	0x3e0c1c1b	0.13682596
191	0xbea8c05d	-0.32959262

layers.0.attn.0.gnn_q.bias f4 [16]
0	0x3d89a994	0.067217976
1	0xbdcf73d4	-0.10129514
2	0xbda65e25	-0.081234254
3	0x3dd7645b	0.10517188
4	0x3dbf4ab1	0.09340418
5	0x3db96efe	0.09054373
6	0xbd91c6cf	-0.07117998
7	0x3d95a402	0.07306673
8	0xbd8d87d3	-0.06910672
9	0x3d7a74a0	0.06114638
10	0x3d584080	0.052795887
11	0xbc9b1116	-0.018929046
12	0xbc14894e	-0.009065939
13	0x3d79ade6	0.060956858
14	0xbc997920	-0.018734515
15	0x3db97545	0.090555705

layers.0.attn.0.gnn_k.weight f4 [12, 16]
0	0x3ce78ef3	0.028266406
1	0x3da15eae	0.07879387
2	0x3e674f67	0.22588883
3	0x3e92abba	0.28646642
4	0xbd3a9dee	-0.04556077
5	0x3e90a66c	0.2825197
6	0xbe951216	-0.2911536
7	0xbce1af7e	-0.027549502
8	0xbcaae122	-0.020859305
9	0xbe8a1e4d	-0.26976243
10	0x3e5f34fb	0.21797554
11	0x3e83d382	0.25747305
12	0xbda0a709	-0.078443594
13	0xbe8cc1a8	-0.27491498
14	0xbd468e9f	-0.048475858
15	0x3e85150f	0.2599263
16	0xbe3a6cc1	-0.18205549
17	0xbe0cccb8	-0.13749969
18	0x3dff206d	0.124573566
19	0x3e89e78a	0.26934463
20	0x3ea41807	0.3204958
21	0x3e8ae426	0.27127188
22	0x3e814b8e	0.25252956
23	0x3e28645a	0.16444531
24	0xbe6b99de	-0.23007914
25	0x3e94c811	0.2905889
26	0xbd8a644a	-0.0675741
27	0xbe77099a	-0.24124756
28	0xbe293722	-0.16524938
29	0xbe5c1abd	-0.21494575
30	0xbe6c24d2	-0.23060921
31	0xbd1b04e6	-0.03784647
32	0x3e4fa54c	0.202779
33	0xbe82e8a7	-0.25568125
34	0xbe9d6f14	-0.30748808
35	0x3e20291a	0.15640679
36	0x3e3cfd33	0.18455963
37	0x3dbc142c	0.09183535
38	0xbe185339	-0.14875497
39	0x3e635b37	0.22202764
40	0xbe625c78	-0.22105587
41	0x3ec5efe3	0.38659582
42	0x3dd40d4f	0.10354101
43	0xbe5c362f	-0.21505044
44	0x3d79e0ef	0.06100553
45	0x3ef0e09e	0.4704637
46	0xbe6a39d9	-0.2287363
47	0x3ba6751b	0.005079878
48	0xbdc57204	-0.096408874
49	0xbe87cd5e	-0.2652387
50	0x3df1f644	0.118145496
51	0x3e302fed	0.17205782
52	0x3e976b48	0.29574037
53	0x3d8da3ab	0.06915983
54	0xbd7a11e8	-0.061052233
55	0x3cb89d13	0.022535836
56	0x3e73ec1c	0.23820537
57	0x3dd4688d	0.10371504
58	0x3deb9aa8	0.11504108
59	0xbdbf5131	-0.09341658
60	0xbdc2558a	-0.094889715
61	0x3e94f517	0.2909324
62	0x3e23af22	0.15984777
63	0x3d072045	0.03298976
64	0xbe248d6f	-0.16069578
65	0x3d783266	0.06059494
66	0x3d76f1eb	0.060289305
67	0x3dd1fc2f	0.10253178
68	0xbe3b94e7	-0.1831852
69	0x3c318223	0.01083425
70	0xbe3754ce	-0.17903444
71	0xbe962004	-0.293213
72	0xbe8e327c	-0.27772892
73	0x3dd5c1ca	0.10437353
74	0xbe719220	-0.23590899
75	0xbe1af69f	-0.15133141
76	0xbc79733b	-0.015225227
77	0xbe82d906	-0.255562
78	0xbe877b70	-0.26461363
79	0x3e4e6479	0.20155515
80	0x3e5a891b	0.21341364
81	0xbcffe914	-0.03123907
82	0xbe8574b4	-0.260656
83	0x3e9fc0c7	0.31201765
84	0x3eacd605	0.33757034
85	0x3e8a4bea	0.27011043
86	0x3e9d388d	0.30707207
87	0x3eb73e19	0.35789564
88	0xbe3710bb	-0.17877476
89	0xbebbbced	-0.36667576
90	0xbe8c6733	-0.27422485
91	0x3ea0c3fe	0.3139953
92	0xbe7b4f49	-0.24541964
93	0xbe1c49cd	-0.15262528
94	0x3ed3ffda	0.41406137
95	0x3e881f0c	0.26586187
96	0x3dcc9edf	0.0999124
97	0x3eb5a3bc	0.35476482
98	0x3d2e61ad	0.04257362
99	0x3e4380ce	0.19092104
100	0xbdb2a771	-0.08723343
101	0x3e82d4e6	0.25553054
102	0xbe5e7366	-0.21723709
103	0x3eae6a45	0.34065452
104	0xbe6ac781	-0.22927667
105	0xbe9cc554	-0.306193
106	0x3e61b159	0.22040309
107	0x3ab0d374	0.0013490752
108	0x3da031f6	0.07822029
109	0xbe1c0d92	-0.15239552
110	0xbde6856b	-0.11255916
111	0x3e5b2fc0	0.21404934
112	0x3e93f91d	0.28900996
113	0x3df6ce31	0.12051047
114	0x3d56b281	0.05241633
115	0xbe0a965a	-0.13533917
116	0x3e917c24	0.28415024
117	0x3cf90512	0.030397926
118	0x3d0b9d4d	0.03408556
119	0xbe229a85	-0.15879257
120	0x3e8fdd2f	0.28098437
121	0x3e015bc0	0.12632656
122	0xbea170f8	-0.315315
123	0x3da2bede	0.07946561
124	0x3ca8de1e	0.020613726
125	0xbe533113	-0.20624189
126	0xbe26b693	-0.16280584
127	0xbdf2a803	-0.11848452
128	0x3e7038a5	0.23459108
129	0xbe0bc9df	-0.13651226
130	0xbe068a77	-0.13138758
131	0xbd95838c	-0.07300481
132	0xbeb3154b	-0.34977183
133	0xbe313d2d	-0.17308493
134	0xbe7048fb	-0.2346534
135	0x3ed68c2d	0.4190382
136	0xbe6ce5a1	-0.23134471
137	0x3e5bd7bc	0.21469015
138	0x3cea6937	0.028614623
139	0x3d826a0a	0.063678816
140	0xbd5c1d1c	-0.0537387
141	0xbcfb77ca	-0.030696768
142	0xbdc5a5b9	-0.0965075
143	0x3e31c386	0.17359743
144	0xbe4f582f	-0.20248483
145	0x3dda4e13	0.10659423
146	0x3eb7dffc	0.35913074
147	0x3e749f62	0.23888925
148	0xbc9f3cc0	-0.019438148
149	0x3db19a58	0.08672017
150	0x3e737a2e	0.23777077
151	0x3e99091f	0.2988977
152	0x3ce33c37	0.027738674
153	0xbd40d93d	-0.047082175
154	0x3e6e031c	0.23243374
155	0xbe7e9f00	-0.24865341
156	0xbdeaf289	-0.11472041
157	0xbb5bd0db	-0.0033541236
158	0xbeaebf23	-0.341302
159	0xbe04a70d	-0.1295435
160	0xbe892735	-0.26787725
161	0xbdb9bcca	-0.09069212
162	0xbeaead37	-0.34116527
163	0x3e35de8f	0.1776068
164	0xbd72987a	-0.059227444
165	0xbd7180dc	-0.05896078
166	0x3e02e13c	0.12781233
167	0xbe6af440	-0.22944736
168	0xbdd46d78	-0.10372442
169	0xbe49c697	-0.19704662
170	0xbdd3f812	-0.1035005
171	0x3e464dd6	0.1936563
172	0x3df72f8e	0.12069617
173	0xbe125fb7	-0.14294325
174	0xbe1471d4	-0.14496547
175	0xbdd0b89f	-0.10191464
176	0x3d106fc4	0.035262838
177	0x3c328f50	0.010898426
178	0x3cd30e8f	0.025763778
179	0xbd80891d	-0.06276152
180	0xbc49d970	-0.012319908
181	0x3dc4cb86	0.096091315
182	0x3ca58101	0.020203115
183	0xbc955d54	-0.018232979
184	0x3d9bda31	0.07609976
185	0x3e3be583	0.1834927
186	0x3e0e92ee	0.13923237
187	0xbe8bf990	-0.2733884
188	0xbd2df5d9	-0.042470787
189	0xbe5ceec4	-0.21575457
190	0x3e4d541a	0.20051613
191	0xbe8cffd1	-0.27538922

layers.0.attn.0.gnn_k.bias f4 [16]
0	0x3dbc3201	0.09189225
1	0x3df730bd	0.12069843
2	0x3d52b460	0.05144155
3	0xbd45cf6e	-0.048293523
4	0x3d7ac505	0.06122305
5	0x3d49bd48	0.04925278
6	0xbcd21bde	-0.025648054
7	0x3df52af1	0.11971081
8	0x3d5c6636	0.053808413
9	0x3c1f9471	0.009739981
10	0x3db61aa6	0.088918015
11	0x3ca53bcf	0.02017012
12	0xbd8f4a09	-0.06996543
13	0x3d9ad656	0.075604126
14	0xbd20c51b	-0.039250474
15	0xbde35728	-0.11100608
