checkpoints/bbb_martins_25_train1_pos/Aug21-13:58:45.pth (torch, 388119 bytes, 294 tensors)

layers.0.weight f4 [12, 16]
000000 a9 19 de bd 08 21 47 3f 96 ae e6 be af 44 18 3f
       -0.10844738 0.77784777 -0.45055073 0.594798
000010 87 c6 01 bf 1a 66 d0 3d 31 13 81 bf 6f 30 b1 3e
       -0.50693554 0.10175724 -1.0083982 0.34607264
000020 2e 9e 15 3f 6a df cc bf 1e 5b 2e 3f 65 a7 44 ba
       0.5844449 -1.600568 0.68107784 -0.00075017504
000030 8e 28 8b 3e e3 f0 ee 3e 66 82 c1 3e 26 da ad 3e
       0.27179378 0.46668157 0.377948 0.33955497
000040 19 af a7 3e cf 2f 34 3f dd 84 18 3e ce 17 99 3e
       0.32750776 0.7038545 0.14894433 0.29900974
000050 0e 8b d3 bd 86 a3 83 bf 82 37 5b 3e d3 ac 23 3f
       -0.10329257 -1.0284278 0.21407893 0.63935584
000060 0e a9 80 be fb 8e e6 be 5b af 92 be ef 1f 83 3c
       -0.25128978 -0.4503096 -0.2864941 0.016006438
000070 87 3b 95 3d 47 64 f8 bf eb 9e 8c 3f f9 de 9e bd
       0.072867446 -1.9405602 1.0985998 -0.077573724
000080 40 c0 ce 3f 3d 49 10 be 3e 9a 4a be 15 63 18 3f
       1.615242 -0.14090438 -0.19785401 0.5952619
000090 3e 72 1d 3f 67 5a 40 3f ed 21 73 3e a3 9f 52 bf
       0.61502445 0.75137943 0.2374341 -0.82274836
0000a0 94 04 a2 3e 77 27 b3 be 61 bc 14 3c 45 34 ac 3f
       0.31644118 -0.34991047 0.009078116 1.3453451
0000b0 20 31 1b 3f 30 ba b0 be 20 d2 5d 3e 37 e1 a1 be
       0.60621834 -0.3451705 0.21662188 -0.31617138
0000c0 4a 89 d2 3e b0 48 d2 be bc 0e 13 bf a8 6d c7 3e
       0.41120368 -0.4107108 -0.5744436 0.3895085
0000d0 3f c2 e5 be de cc 48 3f cf 65 2d 3f 71 e8 09 3f
       -0.4487476 0.784376 0.6773347 0.538703
0000e0 d8 e4 d3 3e a4 e1 b5 be ad c1 b0 3e 3c be 56 be
       0.4138553 -0.35523713 0.34522763 -0.20971006
0000f0 02 5d 38 bf a9 0d 28 be f0 ea 0d 3e a7 50 ac bf
       -0.7201692 -0.16411461 0.13859153 -1.3462113
000100 7e 59 4c 3e 71 b5 ec be 06 e3 65 3f 2b 23 c0 3e
       0.19956014 -0.4623218 0.89799535 0.3752683
000110 02 b4 4e 3d 3c 64 e4 3e b2 4a 2b 3f 76 7d 87 3e
       0.050464638 0.44607723 0.6691085 0.26462907
000120 06 d6 b5 3f 13 21 ad be ba af 02 bf 6c 8f 8c bd
       1.420594 -0.33814296 -0.5104939 -0.06863293
000130 11 b8 06 bf 9c b3 4f be ee dc 33 3d 09 0a 30 3f
       -0.52624613 -0.2028336 0.043911867 0.6876531
000140 fc 40 c2 be 12 9f 3c bf 6b 96 99 3e 02 4d 6a be
       -0.37940204 -0.7368022 0.29997572 -0.22880939
000150 2c 33 01 bf 8d b2 24 bf b0 15 40 3f 76 86 71 bb
       -0.5046871 -0.64334947 0.7503309 -0.0036853827
000160 fc 66 2f 3d e8 74 3b bf 50 4f 06 be c8 a1 45 bd
       0.042822823 -0.7322526 -0.13116193 -0.04824999
000170 6c 4e 38 3f ab 1d d7 3e 8a 8b 55 be e1 8d be be
       0.7199466 0.42014822 -0.20854011 -0.3721762
000180 5a bd db 3d af 89 1a 3f ed fc 03 bf 07 a1 a2 bf
       0.10729475 0.6036634 -0.5155781 -1.2705392
000190 23 1c c9 bd 2a 9b 01 3f 56 ae 13 be 70 9d b9 be
       -0.0981982 0.50627387 -0.14421973 -0.36252928
0001a0 dd 22 bf be ff a0 d1 bf 90 b6 65 bf 39 3a 8e 3c
       -0.37331286 -1.6377257 -0.89731693 0.017361747
0001b0 f3 c3 2e bf 50 d6 af be 4a 90 bf 3e 36 52 7c 3e
       -0.68267745 -0.34343195 0.3741477 0.24640736
0001c0 53 1a 0e 3e f8 ba cd bf 0d 9d 04 bf b4 10 f3 be
       0.1387723 -1.6072683 -0.5180214 -0.4747368
0001d0 57 4b f7 3e ed 8d db bf f2 60 6d bf 10 f2 cc be
       0.48299667 -1.7152687 -0.9272605 -0.4002843
0001e0 59 0a 0d 3e a7 34 12 be 87 79 72 3e f0 a0 86 3c
       0.13773479 -0.14277898 0.23679172 0.016434163
0001f0 61 38 c8 be 60 7f 86 bf a3 b1 fa 3d 44 b0 54 bd
       -0.39105514 -1.0507622 0.12240913 -0.051925912
000200 ab 0e bc 3e ee 65 20 be 87 38 9f 3f fe e3 8f bd
       0.3672994 -0.15663883 1.2439126 -0.07025908
000210 b3 08 56 bf 76 77 f0 3e af 0f 23 bf 03 b4 30 be
       -0.83607024 0.4696614 -0.63695806 -0.17256169
000220 83 6a f5 be 39 f9 cf be d8 a7 21 3f 84 94 1e bd
       -0.47932824 -0.4061983 0.63146734 -0.038715854
000230 91 0c e7 bd e2 09 b3 be 8d d6 f8 3e e1 c8 0f be
       -0.11281694 -0.34968477 0.4860119 -0.14041473
000240 51 e1 8d 3e 99 a6 a2 3e 97 63 39 3f 82 be e1 3e
       0.27710965 0.3176773 0.7241759 0.44090658
000250 90 c4 90 3f 30 8b c8 bf 2f 19 07 3f 49 77 06 be
       1.1309986 -1.5667477 0.527728 -0.13131441
000260 1e 67 23 be af 83 3a bf 0b 7f 0e 3e 4a d8 0d be
       -0.15957305 -0.72857183 0.1391565 -0.13852039
000270 c6 51 c0 be ae c1 0f 3f bb d1 01 3d 34 d7 fd be
       -0.37562388 0.56154907 0.031694155 -0.4957825
000280 b7 3b c6 3e a6 64 c2 bd 28 93 7b bd 28 96 ab bf
       0.38717434 -0.094918534 -0.061419636 -1.3405199
000290 ca 44 b0 3f 9e 97 c5 3e 2d c0 e3 be ae 63 5f 3f
       1.3770993 0.38592237 -0.44482556 0.87261474
0002a0 50 f6 14 bd fc 21 26 bf 58 a1 0b bf 01 6f 90 39
       -0.036367714 -0.64895606 -0.54543066 0.00027548525
0002b0 8b 7d 95 3e 0e fd e8 3b 76 33 1b bf 96 29 69 be
       0.29197344 0.0071102446 -0.606254 -0.2276977
0002c0 07 cd e3 be f4 e9 bd 3e 41 7c 98 3e f5 75 e8 bf
       -0.4449236 0.37092555 0.29782298 -1.8160998
0002d0 45 71 58 3f b8 15 1d 3e 4b 31 5b 3f df 80 19 bf
       0.84547836 0.15340316 0.8562209 -0.59962267
0002e0 36 38 93 3e da f7 d0 3e 47 56 68 3f 41 54 a1 bc
       0.28753823 0.40814096 0.9075665 -0.019693496
0002f0 2c 67 68 be 47 b7 a9 be cd 25 df 3e cf 2d 24 3c
       -0.22695607 -0.33147642 0.43583527 0.010020687

layers.0.bias f4 [16]
000000 53 c6 3e bf dc d3 0f bd 82 75 f4 39 10 b9 10 3e
       -0.7452137 -0.035114154 0.00046626857 0.14133096
000010 8c ed c0 3c c8 e6 97 bb 97 b5 1d 3e 0d 71 95 3e
       0.023550771 -0.0046356656 0.15401302 0.29187813
000020 50 24 08 bf 84 92 86 be b5 9d bc 3e a0 b6 a2 3d
       -0.5318041 -0.26283658 0.3683907 0.07944989
000030 88 44 3f be 03 4b 9d be 4d d4 ea be 1a 5b d5 3e
       -0.18678486 -0.30721292 -0.45865098 0.41671067

layers.1.weight f4 [16, 16]
000000 83 48 6f 3e 8c 28 26 3e ef 8a bd 3f 88 c4 16 be
       0.23367505 0.16226405 1.4808024 -0.14723408
000010 13 34 f0 bd 3e 51 c4 3e de fe 84 3e 88 9e c9 3e
       -0.11728682 0.38343233 0.25975698 0.39378762
000020 05 2c 17 be c1 aa 0f bf 4a d5 49 3d 8c dd 8a be
       -0.14762886 -0.56119925 0.049275674 -0.27122152
000030 2d 2d 84 bf c6 ac 4a bf b9 1d 94 be fb af be be
       -1.0326287 -0.7916988 -0.28928927 -0.37243637
000040 96 b0 2c be 7d 71 3e 3e 00 ac ba be 88 9f 3f bd
       -0.16864237 0.1859798 -0.3645935 -0.046783
000050 f6 50 14 be ea 39 72 bf 78 87 36 3e 84 b0 88 3f
       -0.14484009 -0.9461962 0.17825115 1.0678868
000060 44 9a fa 3d 3c cb 70 3e b7 a5 a0 bd de fc 93 be
       0.12236455 0.23515028 -0.078441076 -0.2890386
000070 6d 39 0f be ad 0a 3e 3f 06 0e 84 be 68 ff 41 3e
       -0.1398675 0.7423504 -0.2579195 0.18945086
000080 56 0d 01 be 5d 9d 9d 3c 66 c9 f7 3e d4 52 b2 3d
       -0.12602744 0.019240076 0.48395842 0.087072045
000090 f4 0a 25 bf 9b 8c 08 be cf cb 09 bf a4 39 0f 3f
       -0.6446984 -0.13334887 -0.5382661 0.5594733
0000a0 ce b7 1e 3f bd d3 95 3f b3 2d 40 3e ee c1 19 3f
       0.61999214 1.1705242 0.18767433 0.6006154
0000b0 bc fb d8 3e 51 03 03 bf 04 72 a1 be e5 95 cf bd
       0.42379558 -0.51176935 -0.315323 -0.10136012
0000c0 a0 12 57 3e c1 5b 55 be b0 b6 68 3e e1 73 ce bd
       0.21003199 -0.20835783 0.2272594 -0.10080696
0000d0 69 1e 9c 3e 17 81 cb be ba 67 1f bf d1 a4 a2 3e
       0.3049195 -0.39746925 -0.6226765 0.3176637
0000e0 15 ae 5b bf 23 c4 c0 bd 12 d0 d4 bd 97 71 9e be
       -0.85812503 -0.0941241 -0.10391249 -0.30946037
0000f0 e9 38 99 be e3 c8 6b bf c4 31 96 39 7b 3b 01 bf
       -0.29926232 -0.92103404 0.00028647308 -0.50481385
000100 dd d1 1a 3e 32 eb ef bd 54 56 c7 3d 13 63 d2 bd
       0.15119119 -0.11714782 0.09733263 -0.10272803
000110 64 43 08 3e 52 6b ab be a8 ba 22 3f 87 2f 1d bf
       0.13306957 -0.33480316 0.63566065 -0.61400646
000120 97 f9 29 3e b9 8a b9 3e 15 f7 dc bd 24 86 d7 be
       0.16599117 0.3623865 -0.10789315 -0.4209453
000130 4a e1 e1 be 0c 04 18 bf 69 b7 1a 3f 4f ee 17 bf
       -0.44117194 -0.59381175 0.6043611 -0.59348005
000140 be a3 21 3e 4d bc 66 be 6f 84 9c 3e 2d 52 f6 bd
       0.15785119 -0.22532769 0.3056979 -0.120273925
000150 5b 2f d5 bd 6d ea 0d bf e4 06 2e 3f 8d 8c 0f bf
       -0.10409423 -0.5543583 0.67979264 -0.5607384
000160 2f 57 b1 be 03 06 2a bf a7 35 09 bd 4a 51 87 be
       -0.34636828 -0.66415423 -0.033498432 -0.26429206
000170 c4 76 c6 be dd 45 45 bf 08 8d 38 bf 05 4e 0d bd
       -0.38762486 -0.7705973 -0.72090197 -0.034498233
000180 a3 c7 ca 3e 60 22 0f be 2a 8f af 3e d5 b1 97 3c
       0.39605436 -0.13977957 0.34288913 0.018517414
000190 c7 e6 75 be f4 10 10 bf c4 9a df 3c c9 45 f3 be
       -0.24013816 -0.5627587 0.027295478 -0.4751418
0001a0 6c 9a 8a 3e 27 89 9d be dd fe 52 3d 04 16 85 3e
       0.2707094 -0.307687 0.051512588 0.2599336
0001b0 f1 d3 80 3c fb 0a 40 bf 29 a0 6b be 24 fd 26 be
       0.015726062 -0.75016755 -0.23010315 -0.16307503
0001c0 1a ea 28 bc 95 ae 8f 3e 1a 7e 38 bf dc e7 86 3e
       -0.01030972 0.28062883 -0.72067416 0.2634877
0001d0 83 42 f2 bd ee 27 c9 be c0 5e 75 3f 3e 21 dc 3e
       -0.11829092 -0.39288276 0.958477 0.42994112
0001e0 a3 f5 25 bf a3 7a a8 bd 7a 92 58 3e 25 7d 84 3f
       -0.64827937 -0.08226516 0.21149626 1.0350691
0001f0 ef 3f 9d 3f 4b 10 13 3f 6d 52 c4 bd 33 0e 03 3f
       1.2285136 0.57446736 -0.09586034 0.5119354
000200 32 30 42 be 49 5c b9 be 06 15 c8 3f c7 71 7d 3d
       -0.18963698 -0.3620322 1.5631416 0.061876085
000210 d5 e7 34 bf 29 da 56 bf cf a0 bd be f2 ac a4 be
       -0.7066625 -0.83926636 -0.3703675 -0.32163197
000220 cb 4b c8 be 10 2d 9d be 17 32 8b 3e 48 72 0f 3f
       -0.39120325 -0.30698442 0.27186653 0.56033754
000230 2a 79 cb bd 39 5e 7e bf d8 50 db 3e 4a 01 23 bd
       -0.099352196 -0.9936252 0.42835116 -0.03979615
000240 3f 6f a9 be 7d 41 11 3e 80 95 7e be 7e 97 7d 3d
       -0.33092687 0.14185138 -0.24861717 0.061912052
000250 99 4d b7 bd 71 91 9c be 53 73 aa be 6a 2c 3a bf
       -0.089503475 -0.30579713 -0.3329111 -0.7272402
000260 cd 2b ac be 8c cb 0f bd 97 b0 9b 3d a0 59 65 3d
       -0.33627167 -0.035106227 0.07602041 0.055993676
000270 6a 52 b4 3d 89 ce 6a 3f 55 27 a2 3e c7 d0 9b 3e
       0.08804782 0.917214 0.31670633 0.30432722
000280 e3 45 d6 3e 41 68 cb 3d 46 bf 14 bf df 20 3a bd
       0.41850194 0.09931994 -0.5810436 -0.045441505
000290 4e b3 11 3f 3e 51 91 bf ae c0 03 bf ab 3a 34 3c
       0.5691422 -1.1352918 -0.5146588 0.011000316
0002a0 6d 08 0a 3e c4 48 0b bf 30 c7 2c be 5a 75 aa bd
       0.13479777 -0.54407907 -0.16872859 -0.08323164
0002b0 a5 7d 1a 3d 4b 29 b6 3d 61 72 42 3e d1 0a 12 be
       0.03771748 0.08894595 0.18988945 -0.14261939
0002c0 5b f4 fb bc 0d e5 9f be 24 6e bf be 71 71 01 3c
       -0.030756166 -0.3122944 -0.37388718 0.007900582
0002d0 9f 8d 25 bf 6a 61 14 3e bf 3b 0a bf a2 6c d9 3d
       -0.6466922 0.14490286 -0.53997415 0.10616423
0002e0 af 54 a5 3e fd 99 55 3f 20 20 19 3f 1a 30 8c bf
       0.3229117 0.8343809 0.59814644 -1.095218
0002f0 5e 3d 08 3e 9a 5a 73 be b7 97 15 3f a3 e6 ca 3f
       0.1330466 -0.2376503 0.58434623 1.5851635
000300 da dd 03 3d 24 dd b0 3d 83 62 33 3e 54 8a 78 be
       0.032193996 0.08635929 0.17518048 -0.24271518
000310 10 f4 a8 3e 66 b4 39 bf 4c e4 1b 3e 88 3f b4 3e
       0.32998705 -0.7254089 0.15223807 0.3520472
000320 28 91 15 3f ea 29 47 3e c7 a8 4b be 1e 46 88 bf
       0.58424616 0.19449583 -0.19888602 -1.0646398
000330 ec 9d 93 bf 37 b1 13 bb 96 d3 9c 3e a2 8e ec be
       -1.1532569 -0.0022536048 0.30630177 -0.4620257
000340 de bf 4c be ff 8f d0 3d 44 34 fd 3d 10 bd 21 3e
       -0.19995067 0.10183715 0.123634845 0.15794778
000350 38 8e a2 bd ef 1a 45 bf c4 a8 4a bf d3 d0 09 bf
       -0.07937282 -0.7699422 -0.79163766 -0.53834265
000360 2e 77 80 be a9 6a 94 3e a3 45 2b 3e f0 5a 81 3e
       -0.25090927 0.28987625 0.16725783 0.25264692
000370 7b 6e 71 3e 9f f7 1e 3f a6 d5 21 3f 4a ac f0 3d
       0.23577301 0.6209659 0.63216627 0.117516115
000380 98 85 34 be 56 6f 04 be 3b db 0d 3f 32 84 b3 3d
       -0.17629087 -0.12933096 0.55412644 0.08765449
000390 c2 71 38 bd db 1a 2d bd 81 fa 99 be d8 72 5d 3f
       -0.045030363 -0.04226194 -0.30073932 0.8650336
0003a0 b8 28 e5 3d e6 2e 8d be 72 82 f3 3d 29 18 03 be
       0.11189407 -0.27574843 0.11890115 -0.12802185
0003b0 50 d5 43 be 3a 7a 83 3d 62 88 95 be 09 b2 78 bd
       -0.19124341 0.06419797 -0.29205614 -0.060716663
0003c0 09 a9 27 be 16 c8 20 3e e5 87 42 bf 30 bd 49 3a
       -0.16373076 0.15701327 -0.7598861 0.00076957326
0003d0 37 a9 de be ff b1 06 be e5 42 10 be 55 f4 8e bc
       -0.43488476 -0.13153838 -0.14088018 -0.017450491
0003e0 b0 92 ee bd 94 00 90 3f e7 58 4f 3d 5d ae e6 3e
       -0.11649072 1.1250176 0.050621893 0.45054904
0003f0 0d 2c 80 3e cb 41 1a 3d 7a 52 91 be cd d1 2c bd
       0.25033608 0.0376604 -0.28383237 -0.04219227

layers.1.bias f4 [16]
000000 63 bd ef 3d 98 54 3b 3e 5c 93 9d 3f 51 b7 84 bd
       0.117060445 0.18293989 1.2310596 -0.06480277
000010 f7 ab 93 be 72 bc 59 3c 29 27 a2 be d8 c6 78 3d
       -0.28842136 0.013289558 -0.31670502 0.060736507
000020 94 fc fa bd d4 57 b0 be 5b d8 21 3d 46 98 9b be
       -0.12255207 -0.34442008 0.039512973 -0.30389613
000030 2d 4a e5 bc f6 ff cb 3d 08 43 59 3e c3 4a 0d be
       -0.027989471 0.0996093 0.21216977 -0.1379805

final.linears.0.weight f4 [88, 44]
000000 5b 65 59 bd e2 01 55 be 7e 9e a9 3f ce d5 01 c0
       -0.053075176 -0.208015 1.3251493 -2.0286746
000010 88 20 89 be a1 d0 df 3d 1d d3 c3 bd 25 f7 22 bd
       -0.26782632 0.10928465 -0.09561751 -0.039786477
000020 33 7f ca 3d 3e f8 27 3e bc 35 b2 bc b9 46 86 3d
       0.098875426 0.1640329 -0.021754138 0.06556458
000030 74 47 60 3d 92 b4 4b 3b 24 01 d7 3d 00 87 c1 bd
       0.054755643 0.003108297 0.104982644 -0.09449577
000040 7d 73 c4 3c 4b 4f 26 be d2 79 d1 bd 1a 03 ed bc
       0.02398085 -0.16241185 -0.102283135 -0.028932143
000050 f9 9d 7b 3d 22 9e 7d 3d 47 6c e9 bd a6 ab c9 bd
       0.06142995 0.061918385 -0.113976054 -0.098471925
000060 07 a0 e5 3d ff ed 53 3e 09 f4 15 3e 58 00 15 bb
       0.112121634 0.20696257 0.14643873 -0.00227358
000070 a7 0e bc 3d f9 7f 6e be 22 23 28 be 7b 70 bd be
       0.09182482 -0.23291005 -0.16419652 -0.36999878
000080 ae d3 85 3c c0 c4 17 3d 67 ce cc 3c 49 c1 3b bc
       0.016336288 0.03705287 0.025000764 -0.011459657
000090 9f 0e 05 bc f8 ce df 3d 15 87 4f 3d 94 f6 3f bd
       -0.008121162 0.10928148 0.050665934 -0.046866015
0000a0 d0 8a 86 3e c9 0a ce 3d 84 c9 02 bd 2a 86 09 3d
       0.2627778 0.10060651 -0.03193046 0.033575214
0000b0 1f aa e7 3f 4d ad e2 3f 70 b8 13 bc 05 49 04 3e
       1.8098792 1.7709137 -0.009016141 0.1291848
0000c0 1d e0 db 3b 76 fc ee 3f 18 e8 56 bf ce 06 3a bf
       0.006710066 1.8670795 -0.83947897 -0.72666633
0000d0 20 31 88 be cf 7b 48 3f d2 aa 95 3f b9 a9 b7 3f
       -0.2659998 0.78313917 1.1692755 1.434867
0000e0 45 60 c6 3d f3 f1 3b be 84 31 a1 bd a7 b1 8a be
       0.09686331 -0.18354015 -0.078707725 -0.27088663
0000f0 3e 30 65 bd 2c f0 5b be d2 4f 09 3d 9d a9 44 3e
       -0.05595421 -0.21478337 0.03352339 0.19205327
000100 6a 15 b2 3e f8 fc 81 be 21 99 0c be 0f a1 c2 bd
       0.34781963 -0.25388312 -0.13730289 -0.09503376
000110 b5 7c b0 3e fe 33 92 be 3e 23 d5 3e 80 ec 2c be
       0.34470144 -0.28555292 0.4162845 -0.16887093
000120 4e 8e f3 3b b3 fa fd 3c eb d1 77 bd 52 f4 16 3e
       0.0074327355 0.031003332 -0.060502928 0.14741638
000130 27 73 aa 3c 7b e3 eb bd 00 85 84 3d e0 e2 8e bc
       0.020806862 -0.11517998 0.0647068 -0.017442167
000140 cd b4 b4 3d 3f 06 02 bd 09 91 6f 3d ff 62 c3 3d
       0.088235475 -0.031744238 0.058487926 0.095403664
000150 73 2e c9 bc bc 82 d4 3d 2e da f2 3e eb f5 fc 3b
       -0.024558282 0.10376498 0.47432083 0.0077197454
000160 a2 8e 96 be a5 2d 8b be 98 a1 6e bf 9d c7 45 40
       -0.29405695 -0.27183262 -0.9321532 3.0903084
000170 ca 7d 3d bf 6c f6 ab 3d d2 62 0b bd 6b 9a b0 3d
       -0.74020064 0.083966106 -0.03402979 0.08623203
000180 1d 96 cf bd 60 b3 d7 3c df 80 68 3e d7 60 44 3e
       -0.10136054 0.02633065 0.2270541 0.19177566
000190 d1 d5 d2 3d 55 9f 67 bc 90 d1 dc bd 6b c7 e3 3d
       0.102946885 -0.014137109 -0.107821584 0.1112202
0001a0 c4 8e 2d 3d 1f 1e da bd 4c c6 0a 3e a4 b6 58 3d
       0.04237248 -0.106502764 0.13552207 0.052908555
0001b0 22 1a 6e bc 45 20 2c be 81 05 87 3c 11 56 29 3e
       -0.014532598 -0.16809185 0.016482117 0.16536738
0001c0 a8 61 21 be 92 ae 1c bb 55 e9 5a bd ea fd ce 3d
       -0.15759909 -0.0023907763 -0.05344518 0.10107024
0001d0 87 f7 3c be 6c e8 52 3e 13 c7 80 3e e1 1e 28 bd
       -0.18453799 0.20596474 0.25151882 -0.041045073
0001e0 dd bf 9d bd 65 2e 15 bd 6c 18 46 bc 53 26 8f bc
       -0.07702611 -0.0364212 -0.012090784 -0.01747433
0001f0 c1 8d 01 bd dc 86 ab bd 3e 51 1a be d5 da d9 3d
       -0.031629328 -0.08375332 -0.15070054 0.10637442
000200 69 c1 3d be 85 a8 6b bd 1b 17 12 bc ee e5 31 bb
       -0.18530811 -0.05753376 -0.008916642 -0.0027145105
000210 52 ef 3f 3d 95 bc 2f 3d 3d a6 88 3d 1b 2b e6 3d
       0.046859093 0.042904455 0.066723324 0.112386905
000220 ab 21 a3 3d 77 b3 f1 3e 13 b4 03 bf eb 09 de 3c
       0.07965406 0.47207233 -0.51446646 0.027104339
000230 2b d0 59 3e 49 47 63 bf 43 b7 9d 3e fa 46 e4 3e
       0.21270816 -0.8878065 0.3080388 0.445854
000240 75 b9 b8 bc 19 75 8b bf 32 f3 34 be da 5c 02 bf
       -0.02254937 -1.089511 -0.17670897 -0.5092293
000250 89 4b 99 bd f9 f0 c1 bb 8d ae 0b be ab 80 c8 3d
       -0.0748511 -0.0059186188 -0.13640805 0.097901665
000260 0c b6 a6 bd ca db 4b 3f db e2 64 bf 14 74 9e be
       -0.081401914 0.79632246 -0.89408654 -0.30947936
000270 00 36 21 3f d8 b7 bc be 93 c1 1f bf f3 aa 43 be
       0.6297302 -0.36859012 -0.62404746 -0.1910818
000280 56 c2 13 3e b5 9c 57 3e e9 c1 4a 3b 71 49 1b be
       0.14429602 0.21055873 0.0030938333 -0.15164734
000290 45 ef 93 be 4a 75 00 3f 83 74 28 3f 36 88 09 bd
       -0.28893486 0.5017897 0.6580278 -0.033577166
0002a0 a9 f5 a9 3e 52 f0 67 be a4 52 d2 bd 57 0e b2 3e
       0.33195236 -0.22650269 -0.10269669 0.34776565
0002b0 09 55 34 be 8b 43 0d 3d e6 71 00 bf 24 6a 10 bd
       -0.17610563 0.034488242 -0.50173795 -0.035257474
0002c0 20 54 c0 be f9 d3 f1 bd 88 c6 ec be 4c 6a a1 be
       -0.37564182 -0.11808009 -0.46245217 -0.3152641
0002d0 15 94 c8 be 3c b5 0f 3e 28 1c f7 be 7b 93 2b 3e
       -0.39175478 0.14033979 -0.4826367 0.16755478
0002e0 c8 3d 38 be af 1e ec 3f d8 6d 6e 3e 55 c3 3e 3e
       -0.17992318 1.8446864 0.2328409 0.18629201
0002f0 f2 9b 05 bd b8 9a d8 bc 7e d2 62 3d 85 ba ef bd
       -0.032619424 -0.026440963 0.055376522 -0.11705498
000300 23 04 5d 3d f1 41 61 bc b4 11 04 3e 7c d8 65 bd
       0.053959023 -0.013748632 0.12897378 -0.05611466
000310 01 e8 34 bd be 76 02 be 75 9f 48 bd ca 41 87 3d
       -0.04416657 -0.12740609 -0.048980195 0.06604345
000320 e7 97 1e be d2 4c 20 3d 09 53 ae 3c 63 16 d7 bd
       -0.15487634 0.03913576 0.021279829 -0.10502317
000330 67 dd 9b 3d c2 f0 03 3e 1d be f8 3d 8f a1 83 3d
       0.076105885 0.1288481 0.12145636 0.06427299
000340 0b c1 9a 3b c0 d0 fb 3c 7b 1c 17 be 32 ed 88 3d
       0.0047227195 0.030739188 -0.14756958 0.066858664
000350 69 db b1 3b c8 4a 83 3d 95 d2 94 bc 43 6a 37 3d
       0.005427767 0.06410748 -0.01816682 0.044779073
000360 c3 7f 88 bd 40 4c 16 be a3 64 14 bd f9 7d a3 3d
       -0.066649936 -0.14677525 -0.036228787 0.07983012
000370 68 26 01 3e 1d 65 9c be cc 84 0c be 50 54 f0 bd
       0.12612307 -0.30545893 -0.13722533 -0.11734831
000380 43 64 0d be b6 52 a2 be 00 6c 23 bf d9 b1 b0 3f
       -0.13807778 -0.31703728 -0.6383667 1.3804275
000390 a1 24 f3 be 79 11 f2 be 34 b7 30 bf a5 80 e9 be
       -0.47488883 -0.47278956 -0.69029546 -0.4560596
0003a0 fc d3 fb 3d dc 90 d0 be cc b7 ee be e3 58 50 3e
       0.12296292 -0.4073552 -0.466246 0.20346408
0003b0 ac a2 cc bd 0d f4 57 be 79 09 b0 be 6c 1e 3d be
       -0.09991965 -0.21089192 -0.34382227 -0.18468636
0003c0 e7 2d 92 3d 55 af d4 3d 3e ce 86 be 71 5d b1 3d
       0.071376614 0.103850044 -0.26329225 0.08660401
0003d0 b2 08 83 be 26 78 25 3e 03 83 27 be 31 09 0a 3e
       -0.25592571 0.16159114 -0.16358571 0.13480069
0003e0 0c 40 80 bc d9 00 b5 3b 21 0d c7 bc bf ad a4 3d
       -0.01565554 0.0055237827 -0.024298253 0.08040952
0003f0 c4 50 83 bc 92 a3 92 3d a6 56 2f be 9c b4 cf bd
       -0.016029723 0.07160105 -0.17122898 -0.101418704

final.linears.0.bias f4 [88]
000000 9e 2c f2 bd 61 c4 0b 3e af 2e 48 3e f2 4f 1a 3e
       -0.11824916 0.13649131 0.19549058 0.15069559
000010 24 b9 52 3d 7a 5f 4c 3e 26 da 45 3c 2b de 49 3d
       0.051446095 0.19958296 0.012075936 0.04928414
000020 f5 27 07 3d 8b 54 83 3d db 10 86 3e 92 d6 c6 3d
       0.03299709 0.0641261 0.26184735 0.09708895
000030 58 e8 94 3d 1b b9 6c 3e 9e 02 51 3e 58 f6 ad bd
       0.072708786 0.23117487 0.20411155 -0.08494252
000040 e7 21 0a 3e d8 65 f4 3d ae e0 2d 3e e8 70 1d 3f
       0.13489495 0.11933488 0.1698024 0.61500406
000050 ba cb 07 3e 4b 5e 2b 3e ae d1 a0 3e 11 e9 1c 3e
       0.1326131 0.16735189 0.31409973 0.15323283
000060 22 c5 8c 3e 12 7f c2 3e 4e dd 29 bd e4 24 3d 3e
       0.2749415 0.37987572 -0.04147082 0.18471104
000070 da 21 0b bd 46 54 1c 3e 09 b4 69 3e 10 06 ce 3c
       -0.03396783 0.15266523 0.22822584 0.025149375
000080 23 88 ad be dd 2c bd 3d e1 ea 57 3e ee d3 49 bc
       -0.33892927 0.092370726 0.21085693 -0.012318594
000090 e6 74 86 3d f4 e4 17 3d 4e d9 57 3d c7 72 e9 3d
       0.06565265 0.03708358 0.052697472 0.11398845
0000a0 9f 81 1a 3e 5c c3 e9 bd c9 3e c4 bc 24 7c a0 3e
       0.15088509 -0.11414215 -0.02395572 0.31344712
0000b0 94 d4 c0 bd 37 6f de 3d 8e 6b 1d 3e 6b 94 6e 3d
       -0.09415546 0.10861056 0.1537306 0.05824701
0000c0 26 e0 ef bc b9 36 01 3d a5 49 b4 3d b5 95 9f 3d
       -0.029281687 0.03154633 0.08803109 0.07792226
0000d0 36 4f 72 3d e3 2f 04 3e 8e 8b b0 3d 66 b9 32 3e
       0.059157573 0.12908892 0.08620368 0.17453536
0000e0 12 a3 ee bd 25 cc 06 3e 14 9c 15 bd 13 a7 e1 bd
       -0.11652197 0.13163812 -0.0365258 -0.11018195
0000f0 42 df 02 3e 71 c7 1d 3e 8a 9d 0a 3e a0 cb c7 3e
       0.12780479 0.15408112 0.13536659 0.3902254
000100 03 df 75 3d 4a 84 b5 bd 24 69 79 bd d0 7f 8b 3d
       0.060027134 -0.08863123 -0.060891286 0.06811488
000110 c5 57 96 3d 24 89 2e 3e 34 57 6f 3a 8c a7 8f 3c
       0.073409595 0.17044502 0.0009130121 0.017535947
000120 bb 2d 28 3c e8 75 c2 3d fc 56 bb 3d 39 c4 0a 3d
       0.010264809 0.09495145 0.0914745 0.03387854
000130 5d 55 84 3e 2f 0c b8 3e b4 6c 7e 3e bb 08 7a 3e
       0.25846377 0.35946795 0.24846154 0.24417393
000140 e5 66 21 3e d7 91 06 3d 47 dd 61 3c c3 d7 3e 3e
       0.15761907 0.032853927 0.013785667 0.18636994
000150 e7 37 47 3e d2 95 27 be 1d bd 47 3e 95 01 bd 3e
       0.19454919 -0.16365746 0.19505735 0.3691527

final.linears.1.weight f4 [88, 88]
000000 dd 0e c9 3e 4b f0 07 bf af 0e ad be ea 71 ac be
       0.39269152 -0.5310103 -0.33800265 -0.3368066
000010 57 61 34 be 12 7e a1 be f6 6f a0 be 82 05 3b be
       -0.17615257 -0.31541497 -0.3133542 -0.1826382
000020 fc 09 29 be 6d ea bb bf 3d a7 8b be a1 a0 f3 3c
       -0.16507715 -1.4680916 -0.2727603 0.02973968
000030 fe 1e f1 be c7 d8 9f be 45 2f 30 be 87 5b 0a be
       -0.47093958 -0.31220075 -0.17205532 -0.13511477
000040 e3 55 1a be f2 1c 16 be 64 b5 08 be 81 b7 10 be
       -0.15071826 -0.1465948 -0.13350445 -0.14132501
000050 c3 47 09 3e 96 94 bf bc 2b 4a 87 be 99 b9 c5 be
       0.13406281 -0.023386281 -0.26423773 -0.38618162
000060 87 a4 9f be 3a 5b 09 be cc d5 30 be c1 7c 3a be
       -0.31180212 -0.13413706 -0.17269057 -0.18211652
000070 37 f4 88 be da bd ba be 56 1d 99 be 08 12 12 be
       -0.2674882 -0.3647297 -0.29905194 -0.14264691
000080 06 5c 67 3e d9 9e 2d be 21 46 48 bc dd 9c e4 ba
       0.22593698 -0.16955127 -0.012223751 -0.0017441768
000090 9d f2 b8 be 03 6e 49 be ed c1 b3 be ea 75 b8 bd
       -0.361226 -0.19670872 -0.3510889 -0.09006865
0000a0 f1 80 40 be 2d b4 69 3b 53 7e 7c be 84 27 16 be
       -0.18799187 0.0035660372 -0.24657564 -0.14663512
0000b0 a0 88 06 be d4 58 8d be 44 78 90 be 2c 5e 95 be
       -0.13138056 -0.27606833 -0.28216755 -0.2917341
0000c0 d9 de bf bd 09 01 9a be 60 da f7 3c eb da e7 be
       -0.09368677 -0.30078915 0.030255497 -0.4528421
0000d0 41 26 98 be 6e fd d7 be 90 26 a3 bd 3a e9 aa be
       -0.29716685 -0.4218554 -0.079663396 -0.33381063
0000e0 87 3a 88 3d 32 9b dd bd 82 a2 1d be ab fe 6c be
       0.06651788 -0.10820617 -0.15394023 -0.23144023
0000f0 7b 3b 52 be c3 bb 08 be c9 93 86 be f7 96 b7 be
       -0.20530502 -0.13352875 -0.26284626 -0.35857365
000100 e2 f8 9a be c2 7f 3f be 7c da 5f bc ad cd 9f 3e
       -0.30268008 -0.1870108 -0.013662931 0.31211606
000110 b4 2b e7 be 02 65 aa be 67 b9 9e be bd fb 7b be
       -0.4515053 -0.33280188 -0.31000826 -0.2460775
000120 80 54 92 bd 6e cd 05 bf 97 1a fe bd d3 94 9e bd
       -0.07145023 -0.52266586 -0.12407415 -0.0774323
000130 81 14 08 be fe 6a 94 be dc 4b 39 be 76 93 b9 bd
       -0.13289072 -0.2898788 -0.18095344 -0.09061329
000140 1f 1a cc be c8 94 45 be 49 89 60 bd 5b e8 e0 be
       -0.3986368 -0.19295037 -0.054818425 -0.43927273
000150 7a 7d c8 be a6 8c e8 3c 43 d7 4a be 1e 39 18 be
       -0.3915823 0.028387379 -0.19808678 -0.14865538
000160 30 47 19 3e 59 3e 0f be 17 dc ab bb a7 c6 f7 bd
       0.14968562 -0.13988627 -0.0052447426 -0.12098437
000170 64 ee 1d be 2e 37 28 be 53 0d d7 bd 28 74 3a bc
       -0.1542297 -0.164273 -0.10500588 -0.011380233
000180 96 f4 28 bd 1b 0d 09 be b5 79 0f be 2a 1a 59 be
       -0.04124888 -0.13383906 -0.14011271 -0.21201387
000190 3f e3 18 be 13 c2 85 bc 3a 07 3f be f5 c9 3f 3d
       -0.14930438 -0.016327893 -0.186551 0.04682346
0001a0 1a af 47 be 58 9c 81 be dc 83 88 bd b6 91 00 3e
       -0.1950039 -0.25314593 -0.06665775 0.12555584
0001b0 ea db bf 3d 65 b2 c6 be 23 73 6d bd f4 59 da bd
       0.09368117 -0.3880798 -0.05797113 -0.106616884
0001c0 ad d6 49 be 9d 03 3c ba 65 60 c8 bd 47 83 6a be
       -0.19710799 -0.0007172169 -0.09784011 -0.22901641
0001d0 d8 04 21 3d 7f d1 05 be 01 ca a8 bd a4 b3 74 3c
       0.03931126 -0.13068198 -0.08241654 0.014935408
0001e0 04 61 1a 3e 44 65 47 bf f6 ff c2 be 22 f6 58 3d
       0.15076071 -0.77888894 -0.38085908 0.052969106
0001f0 f0 27 f7 3a 25 b1 52 3d 25 ed dd bd 6f 0a e8 3c
       0.0018856507 0.05143847 -0.10836247 0.028325288
000200 0a f3 a8 bd fa 3c 17 bc 6a 3c 8c bd ec 09 17 be
       -0.08249481 -0.009230847 -0.068474606 -0.14749879
000210 8f d1 ca bd 92 9f 98 bd 03 33 2a be 13 0b f0 bd
       -0.099032514 -0.074523106 -0.16621022 -0.11720862
000220 8e e5 b1 bd d4 67 1d be 4c 28 41 be 2b 38 2d be
       -0.08686362 -0.15371639 -0.18863028 -0.16915958
000230 06 eb 01 be 94 5c 22 be 0e 9a 58 be ea fc 42 be
       -0.1268731 -0.15855628 -0.21152517 -0.19041792
000240 b0 99 9d 3d 24 e4 48 bd 7b 24 b8 bd 88 8f ba 3c
       0.07695329 -0.049045697 -0.08991333 0.02277352
000250 f0 64 e2 bd 0c 38 d8 3d 67 77 f9 bd dd 72 1d be
       -0.110544086 0.10557565 -0.12180977 -0.15375848
000260 38 ed 59 be 8c 66 85 bd ad e7 83 bd 36 e5 3e 3d
       -0.21281898 -0.065137 -0.06440673 0.04660531
000270 1b 27 2e be 0f ff b2 bd 6a 64 d8 bb f4 e5 a9 3c
       -0.17007105 -0.08740055 -0.006603767 0.020739533
000280 d0 2e 4c 3c a0 ff 71 be 4e a2 84 bb 6f d2 f5 3b
       0.012462333 -0.2363267 -0.0040476685 0.0075018923
000290 e9 b5 56 be 56 c4 c0 bd df 21 9b bd 64 c5 f7 bd
       -0.2096783 -0.09412448 -0.0757482 -0.12098196
0002a0 a5 c9 8d bd 0c 3a 95 bd f6 84 dd bd e8 35 48 bd
       -0.06923226 -0.07286462 -0.10816376 -0.048879534
0002b0 d0 79 c6 bd fd 3c 8e bd fa b1 35 be 9c c8 f8 bc
       -0.09691203 -0.06945226 -0.17743674 -0.030369096
0002c0 ff 04 2a bd 6b 0f cf bc 27 35 8a bd 1b e8 09 3c
       -0.04150867 -0.025275907 -0.06748419 0.008417155
0002d0 a6 68 f1 bb 48 22 54 bd 7a bc 0f 3d 3b d1 75 bc
       -0.0073672114 -0.051790506 0.035091855 -0.015003498
0002e0 eb d7 ac 3d a4 6e 85 bb 7c 93 58 bc ec 5c b3 3d
       0.084396206 -0.0040720273 -0.013218757 0.08757958
0002f0 6d 11 d4 3d 6c f1 06 3d c5 10 ad bc 01 77 ca bb
       0.10354886 0.03294508 -0.02112616 -0.006178737
000300 71 70 a6 3c 5f e3 55 3d a5 12 df 3a 94 96 75 3d
       0.020317288 0.05221879 0.0017019106 0.059958056
000310 d9 42 3a 3c d9 2c a2 bb c5 7c 1a be d1 4c 03 3d
       0.011368477 -0.004949194 -0.15086658 0.03205568
000320 c3 b2 37 bd e3 b0 40 3e 28 2c 89 bd ca 5c 7e bc
       -0.044848215 0.18817477 -0.06697875 -0.015525052
000330 41 bd 9b 3c 12 34 a8 3c be 43 90 bd 47 80 27 3c
       0.019011142 0.020532642 -0.07044171 0.010223455
000340 de 23 af 3d c6 46 de bc d2 e4 4d 3d 9f b5 3c 3d
       0.08551763 -0.027133357 0.05026705 0.046071645
000350 30 a4 94 3d 10 38 ae bd 6b bc 7b bb 15 30 b8 bc
       0.07257879 -0.08506787 -0.0038411866 -0.022483865
000360 6d 08 5d bd 8f 7d 44 3e 2e a0 bf 3b 48 f9 fd bd
       -0.053963114 0.19188522 0.0058479523 -0.12401062
000370 22 d6 25 be c1 6e 18 be 99 aa 81 3d c3 01 23 bf
       -0.16194966 -0.14886 0.06331367 -0.63674563
000380 0c d4 72 bc 47 b7 3c bc f1 6c 0f 3d 6d c1 89 bc
       -0.014821064 -0.011518306 0.035016004 -0.016815865
000390 9e 4c 5d 3c c1 7b 1d 3d 67 52 2a 3f 7a 63 b2 3c
       0.0135070365 0.0384481 0.66531986 0.02177595
0003a0 a0 99 8f 3d b5 55 12 3d aa 00 e6 3c 5c eb c5 3d
       0.070117235 0.035726268 0.028076489 0.09664032
0003b0 9b a5 88 bc c9 07 88 3d 58 16 34 bd 04 65 53 be
       -0.01668053 0.0664211 -0.04396662 -0.20644003
0003c0 5d 5b ea bc a0 2d d0 bd d7 3b 10 3d 04 a5 8d 3d
       -0.028608019 -0.10164952 0.035213318 0.0691624
0003d0 4c bc ed bc ff 78 b8 bd 1b bb 8b bb fe b3 97 bc
       -0.029020451 -0.09007453 -0.004264248 -0.018518444
0003e0 e1 1c 23 3d a0 5c 0a be 64 52 3c 3d 7f 95 1d 3d
       0.039822463 -0.13511896 0.04597701 0.03847265
0003f0 1e 80 01 3c 8d dc 7b 3e ce 9c 07 bc 57 5b f2 3d
       0.007904081 0.24595852 -0.008277131 0.11833828

final.linears.1.bias f4 [88]
000000 51 06 b8 be 8a 64 32 be 16 a9 ef bd 8f ca 87 be
       -0.3594232 -0.17421165 -0.117021725 -0.26521727
000010 3c 76 24 be bd 37 cf bd 77 f5 dd bc 66 3f 96 bc
       -0.16060728 -0.10118053 -0.027094586 -0.018340778
000020 28 85 e5 bb 7c 68 6d 3e b3 18 bc be 73 fd e1 bb
       -0.007004399 0.23184389 -0.36737594 -0.0068966686
000030 e7 d6 a1 be ef b5 d4 bd 2c df 5f be 95 8a f6 3d
       -0.3160927 -0.103862636 -0.21862477 0.12038151
000040 64 fc 42 be 2b 25 2b be 99 87 b5 bd 18 00 d6 be
       -0.19041592 -0.16713397 -0.08863754 -0.41796947
000050 ca 18 c6 be 8e 86 2e bd a7 65 00 be 5c 5d 9f be
       -0.38690788 -0.04260879 -0.12538777 -0.31125915
000060 e9 36 4c be 26 eb 76 be f1 6f cf 3d dd f4 ec bb
       -0.19942822 -0.2411314 0.10128773 -0.0072313384
000070 c6 2b 94 be f0 f5 e3 bd 8e 69 07 bf b8 34 b4 bd
       -0.28939646 -0.11130893 -0.5289544 -0.08799118
000080 ef 06 dc be 83 2c d2 be 02 75 59 be 28 23 eb bd
       -0.4297404 -0.41049585 -0.21236041 -0.11481315
000090 d2 1f 99 be d7 4c c9 bc bb 45 0c bf 8f 85 2f be
       -0.2990709 -0.024572773 -0.547939 -0.17140792
0000a0 26 30 0c be 5d 68 55 be ad 99 55 be 6e 94 8b be
       -0.13690242 -0.20840593 -0.20859404 -0.2726168
0000b0 5b 34 b8 be 1f 88 e1 bd 81 7a 15 3d f1 93 3b be
       -0.35977444 -0.11012291 0.036493782 -0.18318154
0000c0 f6 db 15 be 94 e5 f2 be 71 20 c4 bd 8c 55 a6 bb
       -0.1463469 -0.4744078 -0.095765 -0.005076116
0000d0 fb 78 0a bf 93 6c 1e be 43 17 ba be 52 68 42 be
       -0.5409085 -0.15471105 -0.36345872 -0.18985108
0000e0 c1 d2 60 be 52 c2 8e be 2e e0 1d 3a bd 12 5f bd
       -0.21955396 -0.2788263 0.000602248 -0.05446123
0000f0 c3 1e 02 bf e8 c7 12 3e 08 19 51 be a9 99 97 be
       -0.5082819 0.1433407 -0.20419705 -0.2960942
000100 87 1c cb be 2b b4 cd 3d 6a 9b 0a bf 15 2c 08 bf
       -0.39670202 0.1004413 -0.54143393 -0.53192264
000110 f1 95 8f be 71 04 b5 bd 84 6d ef be 83 9d 6f be
       -0.28044084 -0.08838738 -0.4676324 -0.2339993
000120 1d a6 47 be f5 e3 06 be 2b 55 df be b8 f4 80 be
       -0.19496961 -0.13172896 -0.43619666 -0.25186706
000130 02 ff a6 bd a3 4d 3b be 06 6e 58 be b0 a5 dc be
       -0.08154108 -0.18291335 -0.2113572 -0.4309516
000140 bf 98 1e be 01 94 e2 bc a8 4a 5b be 51 88 12 be
       -0.15487956 -0.027658464 -0.21415198 -0.14309813
000150 98 48 4f be c2 ce 04 bf 09 dd 6c bd f4 2f f2 be
       -0.20242536 -0.5187799 -0.057827983 -0.4730221

final.linears.2.weight f4 [12, 88]
000000 e8 0c 1f 3f b6 96 90 b9 a7 f1 e3 bd f4 53 ed be
       0.6212907 -0.0002757811 -0.11130076 -0.46353114
000010 27 79 4d be 08 51 18 be 35 b3 29 3e 8c 92 59 3c
       -0.20065747 -0.14874661 0.16572268 0.013279568
000020 dd dd 0a be 2d c2 0f 3b ca 84 b2 3d 71 a3 f3 bc
       -0.13561197 0.0021935806 0.08716734 -0.02974102
000030 69 8e 6b 3e c7 d9 23 be 6f e4 49 bd 50 e1 cd 3b
       0.23003544 -0.16001044 -0.049290117 0.006282963
000040 ac 03 31 3e 97 6d 6a 3c 32 c6 23 3e af 89 63 3f
       0.17286557 0.014308355 0.15993574 0.88881963
000050 a8 4a 4a bf 65 81 c4 ba b4 ec a7 3c c8 ef 26 bc
       -0.79020166 -0.0014992176 0.020498611 -0.010189004
000060 ae d9 1f be f8 a3 fb 3d d2 4a c5 3c 32 c2 7a bb
       -0.15610382 0.12287134 0.024083529 -0.0038262722
000070 4f 70 37 bd b6 b4 1d 3b 1a a6 a9 be 29 34 99 b9
       -0.04478484 0.002406401 -0.33134538 -0.00029221296
000080 97 71 e5 3b d0 41 b0 be 5e 96 1a 3e 12 9d 34 3e
       0.0070020664 -0.3442521 0.15096423 0.17638043
000090 a8 00 50 be 7a 05 27 bc 3f 42 f2 3d ee b4 c7 bb
       -0.2031275 -0.010194177 0.11829042 -0.0060945665
0000a0 b8 15 11 3c 28 dd d0 3d 4d 85 b2 bb d0 83 d3 bd
       0.008855276 0.10198432 -0.0054480196 -0.103278756
0000b0 e5 8f 95 3e c8 f1 c4 bb ff 3d 5e 3b 1b f3 a2 3c
       0.29211345 -0.006010268 0.0033911464 0.019891312
0000c0 87 ae 7f 3b 40 c0 a5 3e 32 12 b1 ba b6 54 df bc
       0.0039013939 0.32373238 -0.0013509451 -0.027262073
0000d0 0f e7 aa 3d c2 67 98 ba d9 a1 84 bb 3b 33 12 be
       0.08344852 -0.0011627602 -0.004047614 -0.14277355
0000e0 ea 12 3e be e6 71 0a bb d4 20 8d bc 85 be 23 3d
       -0.18561903 -0.0021125018 -0.017227568 0.039976615
0000f0 a3 7a 8a bb 2a 40 ba 3c c3 27 10 3c c4 3a 07 3f
       -0.004226045 0.022735674 0.008798542 0.52824044
000100 49 61 92 3e 6e 2d f4 3b f1 ae 06 bf fd 53 0f be
       0.28589848 0.0074517047 -0.5261069 -0.13996883
000110 42 9c bb bd a3 68 43 be e7 9b ac be d6 2b a3 3c
       -0.09160663 -0.19082884 -0.33712694 0.019918364
000120 9a 87 f0 3b ad b9 8e 3e d3 8f ec 3e 87 13 3c 3e
       0.0073403837 0.27876034 0.4620348 0.18366824
000130 ed 20 8a bc 55 53 82 bb 51 17 3f be bf a3 f8 be
       -0.016861403 -0.003977219 -0.18661238 -0.48562428
000140 73 5e d0 3e 80 d1 b5 bb 98 44 d5 be fb 97 2b bd
       0.4069706 -0.005548656 -0.41653895 -0.041892987
000150 fb 91 5b 3e a0 34 5a bc 52 06 07 3e 52 59 3f be
       0.21442406 -0.013318211 0.13186005 -0.18686417
000160 e2 e9 19 bf 84 43 13 3d 1f f8 f8 bd 16 aa 0e be
       -0.601225 0.03595306 -0.121567 -0.1393207
000170 52 fe 12 be a8 e4 99 3d 04 70 92 3c 52 45 2a bd
       -0.14354828 0.07514316 0.017875679 -0.041570015
000180 7f ae 04 bd 10 bc 9d bc f7 33 b8 bd 68 fd 23 3c
       -0.032392975 -0.019254714 -0.089942865 0.010009147
000190 2c 4d 76 be 03 09 70 3e 39 99 83 be d0 a9 b8 ba
       -0.24052876 0.23440938 -0.25702837 -0.0014088694
0001a0 0a fa a9 bd c4 51 23 3d 23 86 79 be c8 97 1d 3f
       -0.08299644 0.0398729 -0.24367575 0.61559725
0001b0 57 5b 4d bf 52 3b e1 3c 27 50 72 3d 2d ed cf 3b
       -0.802175 0.027494106 0.05915847 0.006345412
0001c0 49 33 09 3e 29 d9 2c 3d b4 49 07 bc 42 21 79 bb
       0.1339847 0.042199288 -0.008257318 -0.0038014208
0001d0 b5 f2 6d 3e 7f 8a 99 3c 67 44 15 3e 74 14 c6 3c
       0.23237117 0.018742798 0.14576875 0.024179675
0001e0 a7 a6 3a bc 2a 56 0a 3f 43 af 61 3d 58 83 24 3e
       -0.011392272 0.54037726 0.055098783 0.16065729
0001f0 d4 b2 d9 bd bd 0c 18 be 9d 0e e1 be 09 97 92 3c
       -0.10629812 -0.1484861 -0.43956462 0.017894285
000200 2d 6d 3c bc e0 46 e5 3d 9b eb f0 3b 12 6f bb be
       -0.011500639 0.11195159 0.007352305 -0.36608177
000210 dc 03 c6 be f6 a8 88 3a 59 f3 c7 bd d9 c3 94 3e
       -0.3867482 0.0010426331 -0.09763212 0.2905567
000220 d5 60 01 3b 5b d5 6d 3e 8a 13 c1 3b 38 0a f9 bc
       0.0019741554 0.2322592 0.005892222 -0.03040038
000230 80 4b 91 be cd 79 05 3e a9 58 38 bc 92 c4 33 3e
       -0.28377914 0.13034745 -0.011251607 0.17555454
000240 3e 94 83 bc 7a 94 f4 3d 13 23 4f bc 20 a1 c7 bd
       -0.016061898 0.11942382 -0.01264264 -0.09747529
000250 94 53 a9 bb 80 4e 80 3d 62 32 f7 3d d4 9c 82 bd
       -0.005167434 0.06264973 0.12070157 -0.06377569
000260 7f d5 5d 3e e5 d8 ea 3c 3e 57 09 3f 3c 4c a0 3d
       0.21663474 0.028667876 0.53648746 0.078270406
000270 44 11 f4 bd 2b 1e 3a be c0 33 04 3f 94 10 6f 3d
       -0.11917356 -0.1817557 0.51641464 0.05836542
000280 75 63 06 3d 3b fb 4e 3e ac ed 54 be 55 a0 14 3e
       0.032809693 0.20213024 -0.2079379 0.14514287
000290 94 cd 09 3d 94 9d 80 bd 41 0a 6e be 2a 2c df be
       0.03364332 -0.06280056 -0.23246099 -0.43588382
0002a0 a0 da 4c 3d 0c 02 45 bd 79 d5 b3 3e 4a b5 34 bc
       0.050013185 -0.048097655 0.35123804 -0.011029551
0002b0 ca a7 60 be 25 a9 c8 3e 2c 8f 34 be c0 4c b5 3e
       -0.21939006 0.39191547 -0.1763274 0.35410118
0002c0 c8 e7 59 3e d8 4f 01 3e 07 13 15 bd 24 a7 60 3e
       0.21279824 0.12628114 -0.0363951 0.21938759
0002d0 e8 76 36 bd 04 95 f7 bb fc 39 2e bd 4b bf e3 ba
       -0.04454699 -0.007555606 -0.042535767 -0.0017375735
0002e0 48 f9 64 bd 53 5d b0 bf 6c 3a 86 bb 9f c8 56 3c
       -0.055901796 -1.377848 -0.00409632 0.013109355
0002f0 91 11 69 3e 0a ee c1 ba cc a7 9b bd 26 21 bf 3d
       0.22760607 -0.0014795673 -0.07600364 0.093324944
000300 83 17 bf 3c c2 9a 7a 3d 0c 88 66 bb ba 59 9d 3d
       0.023326641 0.061182745 -0.0035176305 0.076831296
000310 5b 94 8f bb ef 99 63 3d 85 9d 3c bd d5 65 f1 bd
       -0.004381699 0.055566724 -0.04604866 -0.11787001
000320 e7 ed 81 3d 69 44 ba ba 15 ee 54 3e bd e8 da bd
       0.063442044 -0.0014211062 0.20793946 -0.106889226
000330 9e 16 79 3d a4 1a f6 be e6 cc fd 3e 37 c4 b4 bd
       0.060812585 -0.480672 0.49570388 -0.088264875
000340 29 77 30 be 4e 4f aa 3d d1 44 a5 3d 05 06 b4 bc
       -0.17232956 0.083159074 0.08069766 -0.021975527
000350 71 8a c6 bd fa 1a b9 3d 1d 6c b7 bc ef 00 ea bd
       -0.09694374 0.090383485 -0.02239042 -0.11425959
000360 30 5f a0 3d a4 30 34 3d 51 cb 43 3e af 9c 39 3e
       0.078306556 0.0439917 0.19120528 0.18126176
000370 99 13 3d 3e b2 44 c7 bd 46 c0 4c bf 8f 16 0e bf
       0.18464507 -0.097298995 -0.79980886 -0.5550317
000380 ed f3 a6 3f 85 43 b1 3e 83 26 da 3f 36 13 1e bd
       1.304319 0.34621826 1.7043003 -0.03859254
000390 76 fd d1 3d ba 29 61 bd 8f 94 bb bd bf 7d 51 3d
       0.10253422 -0.054971434 -0.09159195 0.05114531
0003a0 4b cc 0d 3d c3 67 b5 3c ca f4 41 3d 8e 5c b7 bc
       0.034618657 0.022144204 0.04735259 -0.022383
0003b0 79 64 06 3f 84 06 a0 bd b3 cb 31 3d cd c9 4d bf
       0.5249706 -0.07813743 0.043407153 -0.8038605
0003c0 9a 03 ad 3e b3 e7 0d be 36 af 0b 3e f7 53 74 3e
       0.3379181 -0.13857917 0.13641056 0.23860155
0003d0 f0 94 9a 3d 9e ae 39 3d bd 14 e5 3d d8 0f 53 be
       0.07547939 0.045332544 0.11185596 -0.20611513
0003e0 06 bb 88 3d c8 f5 e4 bd 52 32 4c bd a6 21 47 3d
       0.06676297 -0.111796916 -0.049852677 0.048616074
0003f0 c7 c0 63 3d ea a0 da be 63 f6 18 be f2 b5 42 bc
       0.05560377 -0.42700893 -0.14937739 -0.011884199

final.linears.2.bias f4 [12]
000000 af ef 7f 3d 59 e2 da bd 3d f1 92 3d 87 0d b8 be
       0.06248444 -0.10687704 0.07174919 -0.3594782
000010 db 85 51 bd 06 93 6b bc f4 fe 25 bb 35 ad 0c bc
       -0.051153045 -0.014378315 -0.0025328966 -0.008586218
000020 af 96 04 bd ce 5c 50 3c 60 10 29 bd 24 06 0b 3d
       -0.032370266 0.012717439 -0.041275382 0.033941403

layers.0.attn.0.gnn_q.weight f4 [12, 16]
000000 95 4d 3c 36 9a eb 47 ba 69 52 13 bc 71 b6 9e b6
       2.8059342e-06 -0.0007626355 -0.008991816 -4.730006e-06
000010 c7 d2 ed b9 17 83 de b7 e1 76 66 3b 1c cd 5b ba
       -0.00045361204 -2.6525506e-05 0.0035166072 -0.00083847507
000020 05 4f c8 b5 f9 7f d8 3c 2e f8 00 3a 98 6f 8d 38
       -1.4924159e-06 0.02642821 0.0004919794 6.74419e-05
000030 4f c8 11 ba 57 0b 6f 3b 06 1e ec b8 7c 42 d3 bc
       -0.00055611593 0.0036475265 -0.00011258949 -0.025788538
000040 e4 d5 0f 39 e2 9e 3d ba 8a 42 11 bc 5f b6 28 b6
       0.00013717223 -0.0007233453 -0.008865962 -2.5140105e-06
000050 83 eb c4 b9 bf ec 99 37 dd b0 dd bb 97 23 ca ba
       -0.00037559503 1.8349265e-05 -0.0067654685 -0.0015421984
000060 b9 66 c0 b5 39 1e 51 3c b1 e6 99 3a 9b 78 7d 37
       -1.4335011e-06 0.012763553 0.0011741725 1.5108056e-05
000070 8b 95 f0 b9 62 ad 3c bd 22 c7 cb 38 45 80 5f 3a
       -0.00045887785 -0.04606379 9.716886e-05 0.00085258886
000080 4f 90 ff b8 5a 31 21 bb e5 d7 13 3c f0 aa ac 37
       -0.00012186227 -0.0024596066 0.009023641 2.0583597e-05
000090 4d ad 95 ba c8 1c 97 b8 e5 72 13 bd 5c e7 6f bb
       -0.0011419446 -7.205602e-05 -0.035998244 -0.0036606407
0000a0 a7 4a 81 35 f4 bc c7 3c a3 64 c4 ba ad 9b 98 b6
       9.632976e-07 0.024382092 -0.0014983605 -4.548076e-06
0000b0 ee 3c 43 3a 9f 73 3e 3f 0d 08 3c b9 f2 bf b6 bc
       0.0007447739 0.74395174 -0.00017932076 -0.022308324
0000c0 04 28 d0 b7 bf 4c 97 3a e0 c6 0f 3c 64 9c b0 37
       -2.4814166e-05 0.0011543258 0.008775443 2.105366e-05
0000d0 0e 07 27 3a ff e5 3f 38 dd 6f 20 3c 51 55 ed 3a
       0.00063715957 4.575215e-05 0.009792295 0.0018107091
0000e0 88 11 98 35 a3 40 04 bd ca 05 11 ba 8e 74 90 b8
       1.1329985e-06 -0.032288205 -0.00055321737 -6.888165e-05
0000f0 a9 0e e1 39 09 e3 38 bc 52 b3 21 39 ef 78 10 3d
       0.00042926267 -0.011284598 0.00015420959 0.03527158
000100 ad 3c 43 b9 3e a7 12 ba 99 56 87 3c 38 05 0f b8
       -0.00018619253 -0.0005594379 0.016520785 -3.4098717e-05
000110 55 89 24 b9 cc 85 55 b7 6f 58 12 3c 9c b7 07 39
       -0.00015691419 -1.2726941e-05 0.008932217 0.00012943003
000120 73 5e 07 36 92 48 3f bc c1 19 0a bb 0a 1c 20 b8
       2.0171544e-06 -0.011675017 -0.002107248 -3.8173086e-05
000130 98 a5 b5 3a 12 a7 68 be e5 21 07 b9 6e 94 38 bb
       0.0013858555 -0.22719982 -0.0001288723 -0.0028164643
000140 dc a4 a9 38 97 7d eb 39 e6 dc 36 bc d3 51 00 38
       8.0892554e-05 0.00044916265 -0.011161065 3.0593783e-05
000150 ce 1b e5 37 25 5b cf b6 d2 49 02 bc f5 d4 c5 b9
       2.7311875e-05 -6.1796914e-06 -0.00795217 -0.00037733433
000160 80 2d 92 b5 06 d4 d0 3c 56 5d c0 3a 5b f7 57 38
       -1.089109e-06 0.025491726 0.0014676254 5.1490362e-05
000170 d7 85 0b ba 66 c5 06 be de 45 32 b8 43 15 b4 bc
       -0.0005322373 -0.13161239 -4.2503576e-05 -0.021982795
000180 3e aa 70 b9 89 bb 00 ba da d6 8e 3c 9b a1 e4 b6
       -0.00022951604 -0.00049107574 0.017436434 -6.813743e-06
000190 f9 57 a1 b9 5e 50 87 b8 c7 0a c8 3b fe c9 8f 38
       -0.00030773858 -6.452271e-05 0.0061048004 6.856395e-05
0001a0 4f 28 fa 35 0c 09 7f 3c a4 d2 33 bb bf 5a 2c b8
       1.8638183e-06 0.015566122 -0.0027438784 -4.109251e-05
0001b0 af c9 ae 3a 0a 19 a2 bc 82 18 80 b9 00 81 be bc
       0.0013335253 -0.01978733 -0.00024432322 -0.023254871
0001c0 2b 4f 6f 39 4c eb 83 ba c4 ce d5 bc 0e c4 df 37
       0.00022822309 -0.0010064631 -0.02609957 2.6674967e-05
0001d0 14 98 2b ba cf 06 cf b7 28 70 b5 bc 9d a4 48 bb
       -0.0006545794 -2.4679493e-05 -0.022148207 -0.0030615695
0001e0 25 c4 38 b6 d6 62 f0 3c d5 45 57 3b 27 aa c9 38
       -2.7532308e-06 0.029344004 0.003284802 9.61612e-05
0001f0 e4 29 13 bb bc 99 07 3c b3 92 1d 39 bc cd da 39
       -0.0022455389 0.008276399 0.00015027336 0.00041733484
000200 18 f9 0c 38 60 c6 53 ba bc 95 40 b9 3f c9 e0 37
       3.3610588e-05 -0.00080785714 -0.00018366327 2.6796593e-05
000210 93 92 08 ba 0b 94 f1 b7 46 95 46 bc be fe 11 bb
       -0.00052098295 -2.8798377e-05 -0.0121205505 -0.0022277082
000220 33 21 d6 34 92 4c c1 3c cf be 4f 39 17 a5 cd b7
       3.9884762e-07 0.023596082 0.0001981214 -2.451478e-05
000230 d2 d4 d6 39 1f 8e 95 3c 49 8b 82 37 02 37 e8 bb
       0.00040975824 0.018256245 1.5562067e-05 -0.0070866356
000240 b4 62 43 b9 b4 ca 14 b9 a0 c3 2e 3c 50 b4 24 b8
       -0.00018633419 -0.00014189893 0.010666758 -3.9268576e-05
000250 f5 b5 70 b8 00 41 dd b3 32 dc 8d 3c f8 b4 c3 3a
       -5.738992e-05 -1.0302938e-07 0.017316911 0.0014931252
000260 b5 37 61 35 29 66 fc bb 0b 02 23 bb 80 74 1a b3
       8.3900096e-07 -0.007702608 -0.0024873044 -3.5961875e-08
000270 bc 3a 24 3a 1f 75 13 be ca d0 51 b9 d6 80 17 bc
       0.00062648556 -0.14400147 -0.00020009573 -0.0092470255
000280 64 6c ed 37 10 6d 67 ba 87 a8 41 bb 7c 67 45 37
       2.8303075e-05 -0.0008828202 -0.0029549913 1.1766209e-05
000290 45 e4 cb b9 2f 01 57 b7 a8 23 42 bc 0e bb bd ba
       -0.0003888925 -1.2815274e-05 -0.011849321 -0.0014475302
0002a0 d2 1d 67 b5 45 ad 95 3c 77 14 8b 39 22 ab 8f 37
       -8.60976e-07 0.018271098 0.00026527393 1.7126618e-05
0002b0 10 ad ca b8 d4 80 7a 3c 70 c3 cc b4 16 3a 68 bb
       -9.664346e-05 0.015289504 -3.814016e-07 -0.0035435013
0002c0 f7 d8 c1 36 4e 10 12 bb 02 3e d2 bb 5a 8c 1b b7
       5.7771063e-06 -0.002228755 -0.0064160833 -9.271398e-06
0002d0 33 21 93 ba cd a2 c3 b7 78 be 0a bc 80 8c 54 bb
       -0.0011225104 -2.3321621e-05 -0.008468263 -0.0032432377
0002e0 e0 8d 7b b5 9b b7 05 3d d4 d1 70 39 a5 a1 29 38
       -9.371124e-07 0.032645803 0.0002296635 4.0443283e-05
0002f0 a8 34 95 b9 c6 77 a7 3c 2a 98 f4 b8 88 2b b0 bc
       -0.00028458727 0.020442855 -0.000116631694 -0.021505132

layers.0.attn.0.gnn_q.bias f4 [16]
000000 e9 b1 d5 38 61 6f 0e 3b 66 cf 00 bc 47 22 5e b7
       0.0001018977 0.0021733867 -0.007861948 -1.3240212e-05
000010 4e 03 88 3a 93 b7 32 38 68 f5 69 bb df 41 19 3b
       0.0010376961 4.2609474e-05 -0.0035699252 0.002338521
000020 58 0e 5f b5 0e 03 ac bc 4a 88 a0 3a 6a eb ba 37
       -8.3094847e-07 -0.02099755 0.0012247649 2.2282551e-05
000030 fb 8b 0e ba 37 6b 91 3e 56 b3 fa 38 50 93 7c 3c
       -0.0005437729 0.2840211 0.00011954333 0.015415981
