checkpoints/herg_karim_25_train1_neg/Aug25-02:16:46_100.pth (torch, 401599 bytes, 294 tensors)

layers.0.weight f4 [14, 16]
0	0xbd943e74	-0.072384745
1	0x3fd05015	1.6274439
2	0xbe084f20	-0.13311434
3	0x3edcd270	0.431293
4	0xbf61e5bb	-0.88241166
5	0xbf0c8294	-0.54886746
6	0xbf33c1f4	-0.70217824
7	0x3f2eedca	0.6833159
8	0x3e8552ca	0.26039726
9	0xbf57e6cb	-0.8433654
10	0x3f99664b	1.1984342
11	0xbe04f7d5	-0.12985165
12	0x3e219a7c	0.15781587
13	0x3e835e4f	0.2565789
14	0x3e412cd1	0.18864752
15	0x3eafd5c7	0.34342787
16	0x3fcd1fed	1.6025368
17	0x3e171fa2	0.1475816
18	0xbe3034ca	-0.17207637
19	0x3ef224ca	0.47293693
20	0xbf75b69f	-0.9598178
21	0xbe9ec8ca	-0.31012565
22	0xbdb4df07	-0.088316016
23	0x3f4e2faf	0.8054151
24	0xbf67284e	-0.90295875
25	0x3ea36866	0.31915587
26	0xbf51f20d	-0.82009965
27	0xbc8c17cf	-0.017101197
28	0xbe681774	-0.22665197
29	0xbf42a92e	-0.760394
30	0x3efe3ded	0.4965662
31	0xbf8a9809	-1.0827647
32	0x3f124aa7	0.5714516
33	0xbe89eb82	-0.2693749
34	0xbec22587	-0.37919256
35	0x3f7992f0	0.97489834
36	0x3eb41cdb	0.35178265
37	0x3ed81ef6	0.4221112
38	0xbd46e1cf	-0.04855519
39	0x3d066679	0.03281257
40	0x3f1d4aee	0.6144246
41	0xbd21d025	-0.039505143
42	0x3f3fb741	0.74889
43	0x3ffbb29f	1.9663886
44	0x3f97e1e7	1.1865815
45	0xbf19b952	-0.600484
46	0x3ed9495a	0.42438775
47	0xbe0e2773	-0.13882236
48	0x3ed62b40	0.41829872
49	0xbe461ba5	-0.19346483
50	0xbea89532	-0.32926327
51	0x3d978bbd	0.073997
52	0xbdeacdfb	-0.11465069
53	0x3e6bf78f	0.23043655
54	0x3efbb904	0.49164593
55	0x3d871566	0.06595878
56	0x3ee4e6df	0.4470739
57	0xbeacb01a	-0.33728105
58	0x3f24a5af	0.64315313
59	0xbeb3c48e	-0.35110897
60	0x3eef6523	0.4675685
61	0xbf4a7bd1	-0.7909518
62	0xbde14302	-0.10999109
63	0x3e5aaf07	0.2135583
64	0x3eadf2e4	0.33974373
65	0xbe6427c4	-0.22280794
66	0x3d74aaf7	0.059733357
67	0x3ee5c7bb	0.44878945
68	0x3e19e911	0.15030314
69	0x3d8507d5	0.064956345
70	0x3f67a3e5	0.9048446
71	0x3e33a159	0.17542018
72	0x3f96a48d	1.1768967
73	0xbefd2e65	-0.4944946
74	0xbe76953e	-0.24080369
75	0xbe934c8d	-0.2876934
76	0xbe3bdb96	-0.18345484
77	0xbd2eebcd	-0.042705346
78	0x3ee00854	0.43756354
79	0x3cb051b2	0.02152333
80	0x3db954a5	0.09049348
81	0xbf1bd352	-0.60869324
82	0x3ed52cd9	0.4163578
83	0x3c8ab27f	0.016930817
84	0x3e7832f6	0.2423819
85	0xbd20846a	-0.03918878
86	0x3f4ae683	0.7925798
87	0xbebb2b9f	-0.36556718
88	0xbecc7acb	-0.39937434
89	0xbe903ae6	-0.28169936
90	0x3ee41175	0.4454457
91	0xbe228044	-0.15869242
92	0x3f1f291f	0.6217212
93	0x3e82f38b	0.25576434
94	0xbe096bab	-0.13419978
95	0xbe952967	-0.2913315
96	0x3f7d152e	0.9886044
97	0xbdc6de10	-0.09710324
98	0xbdd6ca92	-0.10487856
99	0xbf80aae3	-1.005215
100	0xbe8dad7e	-0.27671427
101	0x3f5846e1	0.8448315
102	0xbf0aa500	-0.5415802
103	0xbf844fae	-1.0336816
104	0x3d6b500c	0.057449386
105	0xbf01fdd3	-0.5077793
106	0xbcc326c6	-0.0238222
107	0xbd045f40	-0.0323174
108	0xbeedce71	-0.46446565
109	0xbeecd484	-0.46255887
110	0x3f8100af	1.0078334
111	0x3d2c4eae	0.042067222
112	0x3f0a37e3	0.53991526
113	0xbf84eae2	-1.038418
114	0xbf08cb88	-0.53435564
115	0x3dc27456	0.094948456
116	0xbf12baa7	-0.5731606
117	0xbf754696	-0.9581083
118	0xbf1b1a02	-0.6058656
119	0xbfa3c2ba	-1.2793801
120	0x3e81ef4a	0.25377876
121	0x3d971142	0.073763385
122	0x3d758ace	0.059946828
123	0xbdd0e75d	-0.10200379
124	0xbed2c48c	-0.41165578
125	0xbeaf0c2a	-0.34188968
126	0xbed2544d	-0.4107994
127	0xbefb5796	-0.4909026
128	0x3f29dd2b	0.663531
129	0x3e1a572f	0.1507232
130	0x3f904134	1.1269898
131	0x3e360919	0.17776908
132	0xbf46e44b	-0.776921
133	0x3f8b356b	1.0875677
134	0xbeb15339	-0.34633806
135	0xbe4ff333	-0.20307617
136	0xbf150e7a	-0.58225214
137	0xbf2a55ab	-0.6653697
138	0x3e3ec0cf	0.18628238
139	0xbdb5863b	-0.08863493
140	0x3e194514	0.14967757
141	0xbecefcb1	-0.40427163
142	0x3ebc1cd7	0.36740753
143	0xbdb8f3e3	-0.09030893
144	0x3d9a83aa	0.07544644
145	0x3ebccb41	0.3687382
146	0x3f9cb6ec	1.2243323
147	0x3f26d95f	0.6517543
148	0x3f959698	1.1686583
149	0xbf395dc5	-0.72408706
150	0x3da48525	0.08033208
151	0xbece3fe7	-0.4028313
152	0xbeb7a471	-0.35867646
153	0xbf68a0fd	-0.9087065
154	0x3f499cd0	0.787549
155	0xbddba216	-0.10724275
156	0x3e9157c9	0.28387287
157	0x3ee4d80b	0.44696078
158	0x3ebd1f58	0.36937976
159	0xbe128512	-0.14308575
160	0x3f9b6867	1.2141236
161	0x3f03186d	0.51209146
162	0x3e379e2f	0.17931436
163	0xbf89c114	-1.0762048
164	0x3f2d7380	0.67754364
165	0xbf2fbdb0	-0.68648815
166	0xbe4a4d7a	-0.19756117
167	0x3ef7dba4	0.4840976
168	0x3e850f48	0.2598822
169	0xbe9391b2	-0.28822094
170	0xbf385bd6	-0.7201513
171	0x3dee5023	0.116363786
172	0x3f06dbac	0.5267894
173	0xbeb035bf	-0.34416005
174	0xbee97049	-0.4559348
175	0xbec2da44	-0.38057148
176	0xbe04fce7	-0.129871
177	0x3ed182db	0.40920147
178	0x3f33a268	0.7016969
179	0xbf675010	-0.9035654
180	0x3efdd93f	0.49579808
181	0x3f3b6cab	0.7321269
182	0xbd686d27	-0.05674472
183	0x3f163113	0.5866863
184	0x3f2279fd	0.6346739
185	0x3f1bcdb5	0.6086076
186	0x3e7bdee0	0.24596739
187	0x3d9f107c	0.07766816
188	0xbe679643	-0.22615914
189	0xbcd50d4f	-0.026007323
190	0xbe0a91db	-0.13532202
191	0xbe81f4b9	-0.2538202
192	0x3efaa2ac	0.48952234
193	0x3faf494b	1.3694242
194	0xbe05a26f	-0.13050245
195	0xbf25c9d0	-0.64761066
196	0x3f375800	0.7161865
197	0x3eb06dc8	0.34458756
198	0x3f738ecc	0.95139766
199	0x3e802a41	0.25032237
200	0xbf26bd8c	-0.65132976
201	0x3e3161c2	0.17322448
202	0x3f7a9884	0.9788897
203	0xbdcb38f4	-0.09922972
204	0xbe94d3a9	-0.29067734
205	0xbf0e1988	-0.5550771
206	0xbe0bf3aa	-0.13667169
207	0xbf6f2e45	-0.93429977
208	0xbe388f06	-0.18023309
209	0xbe91165f	-0.2833738
210	0x3eef8300	0.46779633
211	0x3f186ab2	0.59537804
212	0xbf083077	-0.5319895
213	0xbf810c74	-1.0081925
214	0xbd9228e6	-0.07136707
215	0x3f2a07fd	0.6641844
216	0x3e849c71	0.25900605
217	0xbd1f20b4	-0.038849548
218	0x3f28d060	0.65942955
219	0xbd2ac1cf	-0.041688737
220	0xbda79113	-0.081819676
221	0x3eef2fe1	0.46716216
222	0x3e22f0be	0.15912148
223	0xbeef5aa7	-0.4674885

layers.0.bias f4 [16]
0	0x3e636897	0.22207867
1	0xbf058260	-0.5215206
2	0xbe91a662	-0.28447253
3	0xbda607c8	-0.08106953
4	0x3ec5ff24	0.3867122
5	0x3ed274f5	0.41104856
6	0xbecc6e8a	-0.39928085
7	0x3f091c60	0.5355892
8	0xbefbdd96	-0.49192494
9	0xbf0fcced	-0.56172067
10	0x3d6096c0	0.054831266
11	0x3db7ec48	0.08980614
12	0xbf647b05	-0.8925021
13	0x3f0eba65	0.55753165
14	0xbefe783a	-0.497011
15	0xbd9b64d5	-0.075875916

layers.1.weight f4 [16, 16]
0	0xbf1978b4	-0.59949803
1	0x3f199aba	0.6000172
2	0x3f3fbd68	0.74898386
3	0x3d41ec6a	0.047344603
4	0xbe83fd8c	-0.25779378
5	0xbf222f43	-0.63353366
6	0xbec35ea8	-0.38158154
7	0x3f5b6ac8	0.8570981
8	0x3e21a029	0.15783753
9	0x3eb4c2b8	0.3530481
10	0x3f29d008	0.66333055
11	0xbefa8c99	-0.48935392
12	0xbdd13f90	-0.10217202
13	0x3ddcc3fc	0.107795686
14	0xbf09ea1b	-0.5387284
15	0xbeecdb24	-0.4626094
16	0x3f0a1ef9	0.5395351
17	0xbea1cf77	-0.31603596
18	0x3e3251cb	0.17414014
19	0x3d5d725c	0.05406414
20	0x3ea0f45a	0.31436425
21	0xbf3be9b2	-0.73403466
22	0xbf6ea53f	-0.93220896
23	0xbe811d88	-0.25217843
24	0x3cf96900	0.030445576
25	0x3ef40235	0.47657934
26	0x3d89ea44	0.06734136
27	0x3ed69d3f	0.41916844
28	0xbe657527	-0.22407971
29	0xbe8dbb5c	-0.27682006
30	0xbe63bb2d	-0.2223937
31	0xbf4427a8	-0.7662301
32	0x3e9b3d21	0.30320075
33	0xbf11707a	-0.5681225
34	0x3e6ac897	0.22928081
35	0x3e834b76	0.2564351
36	0x3eb84486	0.3598978
37	0xbf2e7b15	-0.6815656
38	0x3ef3f374	0.47646677
39	0xbef018ae	-0.4689383
40	0xbc30a334	-0.010781098
41	0x3eaca22e	0.33717483
42	0xbe2aec5f	-0.16691731
43	0x3ea5f428	0.3241284
44	0xbe86744e	-0.26260608
45	0xbe939065	-0.28821102
46	0xbe82c944	-0.25544178
47	0xbf6005eb	-0.8750903
48	0x3ec11c84	0.37717068
49	0x3f50f4d4	0.8162358
50	0x3e8fd805	0.28094497
51	0xbecdcbe4	-0.4019462
52	0xbe1c17eb	-0.15243499
53	0x3ec5e2c0	0.3864956
54	0x3f802e5c	1.0014148
55	0xbeb14c44	-0.346285
56	0x3b1f377e	0.002429455
57	0xbcc43dc0	-0.023955226
58	0x3e97fd4d	0.2968544
59	0xbf5d789d	-0.86512166
60	0xbef09b96	-0.46993703
61	0x3e75befe	0.23998639
62	0xbf0bb361	-0.54570585
63	0x3f0cf0c4	0.5505488
64	0xbe3ef467	-0.1864792
65	0x3ed5dc0e	0.4176945
66	0xbef15841	-0.47137645
67	0xbe94069b	-0.2891129
68	0xbeced4e3	-0.40396795
69	0xbf6f182a	-0.93396246
70	0x3e3731e9	0.17890133
71	0xbf219b68	-0.63127756
72	0xbefbfa56	-0.4921443
73	0x3e390b53	0.18070726
74	0xbed37d45	-0.4130651
75	0xbe9a6019	-0.30151442
76	0x3f014874	0.5050118
77	0x3e8775e8	0.26457143
78	0xbe821932	-0.25409847
79	0xbed09b2e	-0.40743393
80	0xbe400925	-0.18753488
81	0x3f185547	0.5950512
82	0x3cc4ffaf	0.0240477
83	0xbe23dcb4	-0.1600216
84	0xbed78c47	-0.4209921
85	0x3ae6e5ba	0.0017616071
86	0x3eca5b61	0.39522842
87	0x3dd69d9b	0.104792796
88	0xbe301625	-0.17195947
89	0x3eb74b93	0.35799846
90	0x3ed6e120	0.41968632
91	0xbf12c4a3	-0.57331294
92	0x3ec1582e	0.37762588
93	0x3e960266	0.29298705
94	0x3e9f6a06	0.31135577
95	0xbd25e2ae	-0.04049938
96	0xbe3dbdfc	-0.18529505
97	0x3d5d1585	0.0539756
98	0x3e24c1fc	0.16089624
99	0x3e317b34	0.17332155
100	0x3ef98547	0.48734495
101	0xbf493229	-0.78592163
102	0xbe253b80	-0.16135979
103	0xbfa6ae14	-1.3021874
104	0xbf92d6df	-1.1471823
105	0xbe93170b	-0.28728518
106	0x3eb7c0e3	0.35889348
107	0xbe9b28fe	-0.30304712
108	0xbf0094f6	-0.50227296
109	0xbe1ad3be	-0.15119836
110	0x3e96a8bc	0.2942561
111	0xbe65f06e	-0.22454998
112	0xbd5bd9f6	-0.05367466
113	0x3d2baa13	0.041910242
114	0xbcc3e1fa	-0.023911465
115	0x3e022bd3	0.1271203
116	0xbe9bb3e0	-0.3041067
117	0xbf007eb1	-0.50193316
118	0xbf7d3435	-0.98907787
119	0xbdfb17c6	-0.12260394
120	0xbf211c0d	-0.6293343
121	0x3e8849e8	0.26618886
122	0x3eee82ac	0.4658407
123	0x3dd9f6ae	0.106427535
124	0xbe86a088	-0.2629435
125	0x3e42b2ca	0.19013515
126	0xbe1ea857	-0.15493904
127	0x3ef2d2ef	0.47426555
128	0x3f2c8472	0.67389596
129	0x3f2f33b0	0.68438244
130	0xbf868a64	-1.0510983
131	0xbedff07e	-0.43738168
132	0x3e7fe97b	0.2499141
133	0x3d9d262b	0.076732956
134	0xbee76171	-0.4519153
135	0x3f0d2741	0.5513802
136	0xbeaa4f07	-0.33263418
137	0xbee312bc	-0.4435023
138	0xbf6eaf8c	-0.93236613
139	0xbf8b92a0	-1.0904121
140	0x3ed8b86c	0.42328203
141	0x3e1410dd	0.14459558
142	0xbc43ef0c	-0.011958849
143	0x3e53226a	0.20618597
144	0xbf34871f	-0.7051868
145	0xbb394f09	-0.0028275868
146	0x3e8b70c2	0.27234465
147	0xbeec11c7	-0.46107313
148	0x3e53bd99	0.20677795
149	0x3e97e7a9	0.2966893
150	0xbf0c7a63	-0.5487425
151	0xbf2487d6	-0.6426977
152	0xbd86728b	-0.06564816
153	0xbe53479e	-0.20632789
154	0x3e8c80da	0.27442056
155	0xbe337774	-0.17526037
156	0x3f358911	0.7091227
157	0xbe850bec	-0.25985658
158	0x3f3321ad	0.6997326
159	0x3f22aa64	0.63541245
160	0x3e9f59ee	0.31123298
161	0x3f364870	0.7120428
162	0xbf57aecd	-0.842511
163	0xbeb1288d	-0.3460125
164	0xbe69d589	-0.22835363
165	0xbe7d2915	-0.24722703
166	0x3ea36c9a	0.31918794
167	0xbea0a6ca	-0.3137725
168	0x3ee6c42e	0.45071548
169	0x3ef0a6db	0.470023
170	0x3e0ba55b	0.13637297
171	0xbf3f8b92	-0.7482234
172	0xbeaf24ab	-0.34207663
173	0x3e643c78	0.22288692
174	0x3d0f8884	0.0350423
175	0xbe4c3d7e	-0.19945332
176	0xbdd1654e	-0.102244005
177	0x3f779890	0.96717167
178	0x3dd616e5	0.104535855
179	0x3d324af8	0.043528527
180	0xbdee8d90	-0.11648095
181	0x3ddf715a	0.10910292
182	0xbf1100bb	-0.5664174
183	0xbf18c687	-0.5967793
184	0xbe3f7e5b	-0.18700545
185	0xbdcd5011	-0.10025037
186	0xbebc54d1	-0.3678346
187	0xbe6dddb4	-0.23229104
188	0x3f243149	0.64137703
189	0x3e69a955	0.22818501
190	0x3f25a272	0.64700997
191	0xbe96db0d	-0.29463997
192	0xbeab204b	-0.33423075
193	0x3f81ba47	1.0134972
194	0xbec225e1	-0.37919524
195	0xbf58afc7	-0.84643215
196	0x3dedc4c4	0.11609796
197	0xbeb4e709	-0.35332516
198	0xbe458fc0	-0.19293118
199	0x3ca3662e	0.019946184
200	0x3e757452	0.23970154
201	0x3ea19918	0.31562114
202	0xbf098def	-0.537322
203	0xbfd2e8e9	-1.6477329
204	0xbe4ffa2b	-0.20310275
205	0x3e290638	0.16506279
206	0xbdc3a59c	-0.09553072
207	0xbe36ee8b	-0.17864434
208	0x3ece8d0b	0.40341982
209	0xbe9f33f4	-0.31094325
210	0xbf6963a4	-0.91167665
211	0x3f01d473	0.50714797
212	0xbec84272	-0.39113194
213	0x3dd67530	0.104715705
214	0xbc01fd6f	-0.007933958
215	0xbe8f33b6	-0.2796914
216	0xbeaa3156	-0.33240765
217	0x3ea9696f	0.33088252
218	0xbf113339	-0.56718785
219	0x3f5dabe8	0.86590433
220	0x3e8ce5a7	0.2751896
221	0xbd765295	-0.06013735
222	0xbee3b95c	-0.44477355
223	0x3e719afa	0.23594275
224	0x3f20fb84	0.6288378
225	0x3e3752e5	0.17902716
226	0x3ef0feae	0.47069305
227	0xbee13e38	-0.43992782
228	0x3e5e5a55	0.21714146
229	0x3dde4dac	0.108546585
230	0x3f182498	0.5943084
231	0x3f34638b	0.7046439
232	0x3e6e3e31	0.23265912
233	0x3ef5da81	0.48018268
234	0x3ecaa6d0	0.39580393
235	0xbefd6e48	-0.494982
236	0xbeae6a4d	-0.34065476
237	0xbcfeb8ec	-0.031094037
238	0x3cd910b8	0.02649723
239	0xbeac537b	-0.3365744
240	0x3f59c8b8	0.850719
241	0xbe530bcc	-0.20609969
242	0xbf8fe471	-1.124159
243	0x3e471238	0.19440544
244	0x3e249bd9	0.16075076
245	0x3f231f33	0.6371948
246	0x3f13c785	0.5772632
247	0x3f00705e	0.5017146
248	0x3dfa05db	0.12208148
249	0x3ddd8934	0.10817185
250	0xbf86277a	-1.0480797
251	0x3e951122	0.29114634
252	0x3c083de1	0.008315534
253	0xbe64497d	-0.22293659
254	0xbcb9e52f	-0.022692291
255	0x3f207193	0.626733

layers.1.bias f4 [16]
0	0x3e31a223	0.17347006
1	0xbe6780a5	-0.22607668
2	0xbd1e3dfe	-0.03863334
3	0x3eff1ce2	0.49826723
4	0xbc7006a1	-0.014650018
5	0xbe3250ba	-0.17413607
6	0x3d43426d	0.04767077
7	0x3d0d0909	0.034432445
8	0x3e946d16	0.28989476
9	0xbe00683a	-0.1253976
10	0xbda4d434	-0.08048287
11	0xbe246728	-0.16054976
12	0xbeaab5cf	-0.33341834
13	0xbd3f35e2	-0.046682246
14	0x3ef35d01	0.47531894
15	0xbcf479af	-0.02984318

final.linears.0.weight f4 [92, 46]
0	0x3eec8fc4	0.46203434
1	0xbefd57f8	-0.49481177
2	0xbee2e42f	-0.44314715
3	0xbe2b5002	-0.1672974
4	0xbe6b68df	-0.22989224
5	0xbee0c6e8	-0.43901753
6	0x3e45a72a	0.1930205
7	0xbe128cd1	-0.1431153
8	0x3eb9939a	0.36245424
9	0x3ea7b4ea	0.32755214
10	0x3f023781	0.5086594
11	0x3efd7c24	0.49508774
12	0x3ee44762	0.4458571
13	0xbe591f00	-0.21203232
14	0xbc3cbe1d	-0.011519936
15	0xbe68482a	-0.22683778
16	0xbe4ee9a6	-0.20206317
17	0x3f1b8e81	0.6076432
18	0xbdea30cd	-0.11435089
19	0xbd565fdd	-0.052337516
20	0x3c931d1e	0.01795822
21	0xbe536dbc	-0.20647329
22	0x3e8f5fdc	0.28002822
23	0x3efd545b	0.4947842
24	0xbdddf377	-0.10837453
25	0x3f44c46d	0.7686222
26	0xbc2a9e3c	-0.010413703
27	0xbd238740	-0.039923906
28	0x3d480f70	0.048842847
29	0x3e3958c3	0.18100266
30	0xbc5e4b52	-0.013567762
31	0xbe433727	-0.19064008
32	0x3e8026a2	0.25029474
33	0x3c593169	0.013256409
34	0xbcb10d7c	-0.021612875
35	0xbce7af18	-0.028281733
36	0x3e09e9e8	0.13468134
37	0xbe5eaea5	-0.21746309
38	0x3d14de30	0.036344707
39	0x3d6ef981	0.058343414
40	0xbc0eebd0	-0.008723214
41	0x3e577481	0.21040536
42	0x3c8b7546	0.017023694
43	0xbdff33b5	-0.12461034
44	0xbc34fed8	-0.011047088
45	0xbe8cbf3a	-0.27489644
46	0x3dcfca27	0.101459794
47	0x3f01d4d9	0.50715405
48	0x3e5b69bb	0.21427052
49	0x3dcf5144	0.10122922
50	0x3e1d2e9a	0.15349808
51	0x3ca96615	0.02067856
52	0xbf4d2027	-0.80127186
53	0x3f74d2a7	0.9563393
54	0xbde657f0	-0.112472415
55	0xbf1157f4	-0.5677483
56	0xbf029486	-0.5100788
57	0x3c949638	0.018138036
58	0xbf8188bc	-1.0119853
59	0x3f5d6346	0.86479604
60	0xbdb81613	-0.08988585
61	0x3d4a6249	0.04941014
62	0x3db17c50	0.08666289
63	0xbd2c4fa0	-0.042068124
64	0x3dc6988b	0.09697064
65	0x3d933824	0.07188442
66	0xbddc721b	-0.107639514
67	0x3de4abb6	0.11165564
68	0x3e802120	0.25025272
69	0x3dd31493	0.103066586
70	0xbe0f76d5	-0.14010175
71	0x3e1f3c83	0.15550427
72	0x3e09bdba	0.13451281
73	0x3df3ff24	0.119138986
74	0x3c8c96b7	0.01716171
75	0x3e1289d9	0.14310397
76	0xbd96afed	-0.07357774
77	0x3d5f7d86	0.054563068
78	0x3df6a9d3	0.1204411
79	0x3e88a5ce	0.26689
80	0x3c07423e	0.008255539
81	0x3dd0de3d	0.101986386
82	0x3b89ad71	0.004201584
83	0xbe6608d3	-0.22464304
84	0x3e07b880	0.13253975
85	0xbd37a58d	-0.044835616
86	0xbd9c1c96	-0.0762264
87	0x3dcebe94	0.10094944
88	0xbdf0ba85	-0.11754326
89	0xbe35b5bf	-0.17745112
90	0xbd50c665	-0.050970454
91	0xbe01f506	-0.12691125
92	0xbd9a126d	-0.07523046
93	0x3e7da4a2	0.24769834
94	0x3fd756ca	1.6823361
95	0xbf7a827c	-0.97855353
96	0xbf3d49d9	-0.7394081
97	0xbe81a028	-0.25317502
98	0xbdb2affc	-0.087249726
99	0xbe0eb096	-0.1393455
100	0x3d5c1d5f	0.053738948
101	0xbeac94e3	-0.33707342
102	0x3d0c7992	0.034295626
103	0x3d8d10ac	0.068879455
104	0x3d45c85c	0.04828678
105	0x3dd505d5	0.10401503
106	0xbdefce7a	-0.11709304
107	0xbcb9794d	-0.022640849
108	0xbe288aac	-0.16459149
109	0x3da41d4f	0.08013403
110	0x3dea60db	0.11444255
111	0x3d1d7417	0.03844079
112	0x3d17847d	0.036991585
113	0xbe01e6fc	-0.1268577
114	0x3dead2c1	0.11465979
115	0x3d836c51	0.06417144
116	0x3e14a7a1	0.1451707
117	0xbebbb845	-0.36664024
118	0x3e970f52	0.29503876
119	0xbdb4f754	-0.088362366
120	0x3d8f821f	0.070072405
121	0xbd1aabb6	-0.037761413
122	0xbda234ec	-0.0792025
123	0xbe205377	-0.1565684
124	0xbca588c2	-0.020206813
125	0xbebf1704	-0.37322247
126	0xbdebb6ba	-0.11509462
127	0x3cf96737	0.030444724
128	0x3c89807d	0.0167849
129	0x3db7bd28	0.089716256
130	0xbc472233	-0.01215415
131	0x3ca360c8	0.01994361
132	0xbd1376c6	-0.036001943
133	0x3badf4ee	0.005308739
134	0x3ccbc576	0.02487443
135	0x3c947958	0.018124267
136	0xbe22c498	-0.15895307
137	0xbd981719	-0.074262805
138	0xbe87c6c6	-0.2651884
139	0x3f69257b	0.91072816
140	0xbc9614f1	-0.018320533
141	0xbe40daf7	-0.18833528
142	0xbef6a970	-0.48176146
143	0xbf70abbb	-0.9401204
144	0x3f51fdca	0.82027876
145	0x3eed3115	0.4632651
146	0xbdcd21e8	-0.10016233
147	0x3cb72809	0.022357957
148	0xbee1eee8	-0.44127584
149	0x3f23c828	0.6397729
150	0xbd8a60b0	-0.06756723
151	0x3e951940	0.29120827
152	0x3e2eb366	0.17060623
153	0x3d0e6324	0.034762517
154	0x3bf91eac	0.0076025333
155	0xbe549b39	-0.20762338
156	0xbe9b11a9	-0.3028691
157	0xbe2079af	-0.15671419
158	0xbf0983f4	-0.5371697
159	0xbe560d1c	-0.20903438
160	0x3e5b00fd	0.21387096
161	0xbe20a561	-0.15688087
162	0xbd8c2575	-0.06843082
163	0x3e91e8ea	0.28498012
164	0xbed24669	-0.41069344
165	0xbdfd7fea	-0.12377913
166	0x3e5e92ec	0.21735734
167	0xbe110ab1	-0.14164235
168	0x3e3d6501	0.18495561
169	0x3e9d68a1	0.30743888
170	0x3e5de3de	0.21668956
171	0x3df1acab	0.11800512
172	0x3e1d2649	0.15346636
173	0x3e3cbabe	0.18430611
174	0x3c868d3e	0.016424771
175	0x3e91f0ec	0.2850412
176	0x3e8e0acb	0.2774261
177	0x3d98cac1	0.07460547
178	0xbe5c5398	-0.21516263
179	0x3e96e65b	0.29472622
180	0x3c996dab	0.018729052
181	0x3e52bcfd	0.20579906
182	0xbe345946	-0.1761218
183	0xbe688087	-0.2270528
184	0x3eee9563	0.46598348
185	0xbf0042aa	-0.5010172
186	0x3c0b31e6	0.008495783
187	0xbd4c9e31	-0.04995555
188	0x3e23562d	0.15950842
189	0xbeebd4ad	-0.46060696
190	0xbf0e06fb	-0.554794
191	0x3ebdaf4e	0.3704781
192	0x3f5253c2	0.82159054
193	0x3eedc06e	0.46435875
194	0xbf62bed5	-0.88572437
195	0x3f5f4c12	0.8722545
196	0xbf105e24	-0.5639365
197	0xbf37a882	-0.717415
198	0xbe675686	-0.225916
199	0x3d42ed98	0.04758987
200	0x3e8214d2	0.2540651
201	0x3c927f48	0.017882958
202	0xbdcf08a4	-0.1010907
203	0x3dd942d8	0.106084526
204	0xbdb44697	-0.088025264
205	0xbd25f6ce	-0.040518574
206	0x3c731db4	0.014838625
207	0x3de50268	0.111820996
208	0xbdebf288	-0.115208685
209	0x3d8397b3	0.06425419
210	0x3cfab50c	0.030603908
211	0x3db8d02a	0.09024079
212	0x3d22ddd8	0.039762348
213	0x3ea6f300	0.3260727
214	0xbe156d61	-0.14592506
215	0x3db496c6	0.0881782
216	0x3e0c4ab6	0.13700375
217	0x3dd5f048	0.10446221
218	0xbd0944a0	-0.03351271
219	0x3cf69d2a	0.030104239
220	0x3dd5df40	0.10442972
221	0xbe0cde37	-0.13756643
222	0x3d3dc023	0.046325814
223	0x3c66b00f	0.014080062
224	0x3d50c422	0.050968297
225	0xbdfee1f4	-0.12445441
226	0xbcc441f4	-0.02395723
227	0xbba1b64e	-0.0049350625
228	0xbbca3d11	-0.0061718305
229	0xbd942fb0	-0.07235658
230	0x3ee4df68	0.44701695
231	0x3ea1130d	0.31459847
232	0x3cf82cf4	0.030294873
233	0xbf0d249b	-0.5513398
234	0x3e956e2c	0.29185617
235	0x3f15384a	0.58289015
236	0xbe9594e6	-0.29215163
237	0xbf1bf747	-0.6092419
238	0x3dd6085c	0.10450813
239	0xbf5842b1	-0.84476763
240	0xbf06b966	-0.52626646
241	0x3f44e6ab	0.7691447
242	0x3f24f711	0.64439493
243	0x3f9bf75b	1.2184862
244	0xbe87eb92	-0.26546913
245	0x3d8b0377	0.0678777
246	0xbcc85092	-0.024452481
247	0xbe8959f9	-0.26826456
248	0xbe990de2	-0.29893404
249	0xbd1abca8	-0.037777573
250	0x3e11157f	0.14168356
251	0xbd35e71c	-0.044409856
252	0x3d87ad1e	0.06624816
253	0x3eb537a7	0.35394022
254	0x3e62ae17	0.22136723
255	0x3db063b8	0.0861277

final.linears.0.bias f4 [92]
0	0x3d42c581	0.047551636
1	0x3e595172	0.21222475
2	0xbe4576f9	-0.19283666
3	0x3e4f22d8	0.20228136
4	0x3e3b6e63	0.18303828
5	0x3c8ce4d1	0.017198952
6	0x3e3c6798	0.18398893
7	0x3d0a67ac	0.033790275
8	0x3e5fc129	0.21851029
9	0x3e9b007e	0.30273813
10	0xbc9d735f	-0.019220052
11	0x3e8542b9	0.26027468
12	0xbd88887c	-0.06666657
13	0x3e4e7f0d	0.20165654
14	0x3cca14d8	0.024668142
15	0x3c5e0b77	0.013552538
16	0x3e01d28e	0.12677976
17	0x3e3e85fe	0.18605801
18	0x3cd96c2f	0.026540844
19	0x3e476fad	0.19476195
20	0x3dc969b2	0.09834613
21	0x3e56b0ff	0.20965956
22	0xbdae3342	-0.085058704
23	0x3e680315	0.22657426
24	0x3e9d866f	0.30766627
25	0x3e30e1e4	0.1727367
26	0x3e5ee155	0.21765645
27	0x3ddda396	0.10822217
28	0x3e27611c	0.16345638
29	0x3db72f14	0.08944526
30	0x3d9458ee	0.072435245
31	0x3daf0d93	0.08547511
32	0x3e28bd3f	0.16478442
33	0xbd0a9427	-0.033832695
34	0x3d322c45	0.04349925
35	0xbdab2a04	-0.08357623
36	0x3dfd9641	0.12382174
37	0x3da6816b	0.08130153
38	0x3e7824d0	0.24232793
39	0x3eb37b24	0.35054886
40	0x3cafb651	0.02144924
41	0x3dad43f2	0.08460225
42	0x3e6fd515	0.23421128
43	0x3e22d8c3	0.15903
44	0xbe533652	-0.2062619
45	0x3e36055d	0.17775483
46	0xbe0d8e20	-0.13823748
47	0xbd6f8033	-0.05847187
48	0x3d793208	0.06083873
49	0x3dde7e5e	0.108639464
50	0xbe186062	-0.14880517
51	0xbe447f7f	-0.19189261
52	0xbcaa5891	-0.020794185
53	0x3e99732e	0.29970688
54	0x3da9a505	0.08283428
55	0x3cc92e6e	0.024558272
56	0x3e89ef29	0.26940277
57	0x3eb4ec3f	0.3533649
58	0x3e09c6ab	0.13454692
59	0xbd2f9169	-0.042863283
60	0x3d4bc733	0.049750518
61	0x3e7e9cc9	0.24864496
62	0x3e2912ea	0.16511121
63	0xbe27b971	-0.16379334
64	0x3dc73e58	0.09728688
65	0x3e91cbf4	0.28475916
66	0x3e5ad155	0.21368916
67	0x3e66b310	0.22529244
68	0x3d81bdfa	0.06335063
69	0x3e52a86f	0.20572065
70	0x3c7f0739	0.015565687
71	0x3e18e3ae	0.14930603
72	0x3c96bf3f	0.01840174
73	0x3e5d648d	0.21620388
74	0x3e875cfa	0.26438123
75	0x3da38866	0.07985
76	0x3e6a7c3a	0.22898951
77	0xbba27c38	-0.0049586557
78	0x3e7da4c3	0.24769883
79	0x3cd55582	0.02604175
80	0x3e605af0	0.2190969
81	0x3eacc7fc	0.33746326
82	0x3e0c7a29	0.13718475
83	0x3d4e1573	0.050313424
84	0x3da780a0	0.0817883
85	0xbdae43de	-0.085090384
86	0x3e919825	0.2843639
87	0x3d930b47	0.07179885
88	0xbd7c2b93	-0.061564993
89	0x3e659d04	0.22423178
90	0xbd99552d	-0.07486949
91	0x3e18698f	0.14884017

final.linears.1.weight f4 [92, 92]
0	0xbe90c49b	-0.28274998
1	0xbe480ce6	-0.1953617
2	0x3ea3818a	0.31934768
3	0xbce797e1	-0.028270664
4	0xbd741c3d	-0.059597243
5	0x3e67cdbb	0.22637074
6	0xbe80165e	-0.25017065
7	0x3c91854a	0.017763752
8	0x3d2c0738	0.04199907
9	0x3bdc944e	0.0067315465
10	0x3c199b99	0.009375476
11	0xbe1c7a0b	-0.1528093
12	0xbd987020	-0.07443261
13	0xbd879278	-0.066197336
14	0xbddc513a	-0.1075768
15	0xbe193185	-0.14960296
16	0xbd2781ad	-0.040895153
17	0xbe2b9ac0	-0.16758251
18	0xbdd3f006	-0.10348515
19	0xbee22af7	-0.44173405
20	0x3d399022	0.04530347
21	0xbd5b2185	-0.053498764
22	0xbd37e2ac	-0.044893906
23	0xbe863429	-0.2621167
24	0xbdd8edaa	-0.10592206
25	0xbe81fa6e	-0.25386375
26	0x3e025741	0.12728597
27	0xbdf556d9	-0.119794555
28	0xbc293155	-0.010326703
29	0x3b6619ff	0.003511071
30	0xbdeec231	-0.11658133
31	0xbcc6a8ca	-0.024250407
32	0xbce3b60c	-0.027796768
33	0x3d628b85	0.055308837
34	0xbeb96258	-0.36207843
35	0xbf40e3bd	-0.753475
36	0x3dd99ee2	0.106260076
37	0xbe68bc1e	-0.22728011
38	0x3e5cd862	0.21566918
39	0xbe84a1de	-0.25904745
40	0xbe578a33	-0.21048813
41	0xbf040b99	-0.51580197
42	0xbdeb2879	-0.11482329
43	0x3def5794	0.11686626
44	0xbed1401d	-0.40869227
45	0x3d509588	0.050923854
46	0xbc03f462	-0.008053871
47	0xbdf37a4d	-0.118885614
48	0xbe665177	-0.22492014
49	0xbdf4f098	-0.11959952
50	0x3e4d07f4	0.20022565
51	0x3e4a1c9d	0.19737478
52	0xbe0d9462	-0.13826135
53	0xbe00eccd	-0.12590332
54	0xbe0b3712	-0.13595226
55	0xbe29f4f4	-0.16597348
56	0x3b9f6754	0.0048646126
57	0xbd35e338	-0.044406146
58	0x38a5e168	7.909798e-05
59	0x3ce8b7d3	0.028407967
60	0xbd858a9b	-0.065205775
61	0xbde7be84	-0.11315635
62	0xbe4a9570	-0.19783568
63	0x3e956d1b	0.29184803
64	0xbe2d74d7	-0.16939102
65	0xbdf60ecb	-0.1201454
66	0xbe1d0deb	-0.1533734
67	0xbd531744	-0.05153586
68	0xbe13ebaf	-0.14445375
69	0x3d88022e	0.06641041
70	0xbc873de9	-0.016509013
71	0xbe144d01	-0.144825
72	0x3d06f478	0.032947987
73	0xbd58b66a	-0.05290834
74	0xbc741ada	-0.01489898
75	0xbe906ae5	-0.28206554
76	0xbc874133	-0.016510582
77	0xbf7de9e1	-0.99184996
78	0xbe28f003	-0.16497807
79	0xbe9f1399	-0.3106964
80	0xbe22ab90	-0.15885758
81	0xbed3aea2	-0.41344172
82	0xbdbbaea1	-0.09164167
83	0xbd2b471c	-0.041815862
84	0xbe882132	-0.26587826
85	0x3eb7ba52	0.3588434
86	0xbe1d5db2	-0.15367773
87	0xbdd495a8	-0.10380107
88	0xbe2413c2	-0.16023162
89	0x3d596606	0.053075813
90	0xbd97005d	-0.07373116
91	0xbe2d5b83	-0.1692944
92	0xbe5c2cd5	-0.21501477
93	0xbcf6dace	-0.030133631
94	0xbd7efe02	-0.06225396
95	0xbd064394	-0.03277929
96	0xbdeb8068	-0.11499101
97	0xbd206042	-0.0391543
98	0x3be7a59c	0.0070693027
99	0x3e359ece	0.1773636
100	0xbd9b38fc	-0.07579228
101	0xbc6ecb00	-0.014574766
102	0xbd5c4438	-0.053775996
103	0xbbf7ae7e	-0.007558643
104	0x3c37d8b2	0.011221098
105	0xbdcee20c	-0.10101709
106	0x3d5326a9	0.05155054
107	0x3e3bfec5	0.18358906
108	0xbd9f8857	-0.07789677
109	0x3d11531a	0.035479642
110	0xbccfa8f7	-0.025349123
111	0xbe02561a	-0.12728158
112	0xbd9d8262	-0.07690884
113	0xbe233f7b	-0.15942185
114	0x3d14f226	0.036363743
115	0xbd5db1f9	-0.054124806
116	0x3c67f428	0.0141573325
117	0xbe416a66	-0.18888244
118	0xbe6d892d	-0.2319686
119	0xbc9403aa	-0.018068153
120	0xbdec41b4	-0.115359694
121	0x3d45700b	0.048202556
122	0xbdbab73b	-0.0911698
123	0x3d0fb10c	0.035080954
124	0xbd307e94	-0.043089464
125	0xbdd18174	-0.10229769
126	0xbd51fb75	-0.0512652
127	0xbdaa487b	-0.08314606
128	0xbc2cad04	-0.010539297
129	0x3c8cc4a0	0.017183602
130	0xbe291e75	-0.16515525
131	0xbd83a8fe	-0.06428717
132	0x3daf5b7d	0.08562372
133	0xbc952b7f	-0.018209217
134	0xbda5abb6	-0.08089392
135	0x3e1515c7	0.14559089
136	0xbe1238b3	-0.14279442
137	0xbc441e9b	-0.011970188
138	0x3e3ded1a	0.18547478
139	0xbd1769bc	-0.03696607
140	0x3dbc5de9	0.091975994
141	0xbd3eb6c3	-0.046561014
142	0xbdbc18ed	-0.09184442
143	0xbd5ab4ca	-0.05339507
144	0xbdba04de	-0.090829596
145	0xbc9a17d7	-0.018810196
146	0xbe0d1b20	-0.13779879
147	0x3db9b59f	0.090678446
148	0xbd80e402	-0.06293489
149	0xbc2933ce	-0.010327293
150	0xbc0f8b6f	-0.008761271
151	0xbcbedf3d	-0.023299808
152	0x3e60f4b5	0.21968348
153	0xbdcd62ce	-0.10028611
154	0xbdc87154	-0.097872406
155	0xbe1dee4b	-0.15422933
156	0x3e08d695	0.13363107
157	0xbcd84e77	-0.026404602
158	0xbdf8c413	-0.12146773
159	0x3cb63fe9	0.022247272
160	0xbe1d214a	-0.1534473
161	0x3bc4200e	0.0059852665
162	0xbe14d445	-0.145341
163	0xbd386a3e	-0.045023195
164	0xbd4bd720	-0.049765706
165	0xbe2f2cb3	-0.17106895
166	0xbca5fcdc	-0.020262174
167	0xbdbeb170	-0.09311187
168	0xbd824b6a	-0.0636204
169	0xbd0c434a	-0.03424386
170	0xbd59ec18	-0.053203672
171	0x3e7a924f	0.24469875
172	0x3e09897c	0.13431352
173	0x3cb77820	0.022396147
174	0xbe3d6863	-0.18496852
175	0xbc744158	-0.014908157
176	0xbd24e480	-0.040256977
177	0xbe1d3cac	-0.15355176
178	0x3d4375e1	0.04771984
179	0xbd90dd8d	-0.070735075
180	0xbd8e1cc0	-0.069390774
181	0x3cf7608b	0.030197402
182	0xbe235938	-0.15952003
183	0xba820854	-0.0009920695
184	0x3d707502	0.058705337
185	0xbe5aa708	-0.2135278
186	0x3d004f2d	0.031325508
187	0xbbe723b6	-0.0070538176
188	0xbe114285	-0.14185531
189	0xbdc5846f	-0.096444
190	0xbd6948d2	-0.056954212
191	0x3e75d91f	0.24008606
192	0xbe1e8c0e	-0.15483114
193	0x3dff1871	0.12455834
194	0xbe6e48c4	-0.23269945
195	0xbdbae0e7	-0.09124928
196	0x3e2ffbe5	0.17185934
197	0xbe5bbf86	-0.21459779
198	0x3d21e795	0.039527494
199	0x3d63646c	0.05551569
200	0x3e3da8a1	0.18521358
201	0xbddccfb3	-0.10781803
202	0x3d140563	0.03613795
203	0x3e770f34	0.24126893
204	0xbdb9b4cb	-0.09067687
205	0xbb581dcc	-0.0032976745
206	0x3e646a3d	0.22306152
207	0xbe98f23d	-0.29872313
208	0xbc24d964	-0.010061596
209	0x3d29275c	0.0412973
210	0xbe2f4f67	-0.17120133
211	0xbdd07351	-0.10178245
212	0x3d70d3a2	0.05879558
213	0xbddf6dfe	-0.10909651
214	0x3cb0c9fe	0.021580692
215	0x3e396ee8	0.18108714
216	0xbdb92f43	-0.090422176
217	0x3dd8ee27	0.10592299
218	0xbe5f3407	-0.2179719
219	0x3dffb43a	0.12485547
220	0x3e873209	0.2640536
221	0x3b28e06c	0.0025768531
222	0x3b9ad7b2	0.00472542
223	0x3cef240e	0.029191997
224	0xbe471307	-0.19440852
225	0xbd7de612	-0.06198699
226	0xbddbe7e8	-0.10737592
227	0x3d8373ac	0.06418547
228	0x3c2b0d57	0.010440192
229	0x3d36074c	0.044440553
230	0x3db1db29	0.086843796
231	0x3ea06f13	0.31334743
232	0xbe52fd9b	-0.20604555
233	0x3d719caf	0.058987316
234	0x3ce39f1d	0.027785832
235	0xbdc4d3b1	-0.096106894
236	0xbd3d41d8	-0.04620537
237	0x3c051b3e	0.008124171
238	0xbe04eb11	-0.12980296
239	0xbdcfa73f	-0.101393215
240	0x3adefd5a	0.001701276
241	0xbe0ce6d7	-0.13759933
242	0xbcd02fdb	-0.025413444
243	0xbde5b274	-0.11215678
244	0xbd819cb0	-0.06328714
245	0xbdc674eb	-0.09690269
246	0xbd9b510f	-0.0758382
247	0x3da121ee	0.078678
248	0x3e589b88	0.2115308
249	0x3d3531b3	0.04423685
250	0xbe176a73	-0.14786701
251	0xbc05bea9	-0.008163133
252	0xbe7ee10f	-0.2489054
253	0xbcd8df24	-0.02647359
254	0xbda3c96f	-0.07997405
255	0xbdd2f6b2	-0.1030096

final.linears.1.bias f4 [92]
0	0xbe1ad148	-0.15118897
1	0xbcac4cc4	-0.021032698
2	0xbd82fdd2	-0.06396069
3	0xbd0197ea	-0.031639017
4	0x3d0f918e	0.03505092
5	0xbdb8a065	-0.09014968
6	0x3a14a58a	0.0005670419
7	0x3d0f1785	0.03493454
8	0xbe119dad	-0.14220305
9	0xbc768858	-0.015047155
10	0xbe9a81c8	-0.3017714
11	0x3d32adc0	0.043622732
12	0xbe39432b	-0.18092029
13	0xbdb97abb	-0.09056612
14	0xbe831abc	-0.25606334
15	0xbeb8d047	-0.36096403
16	0xbdd2c6f4	-0.102918535
17	0xbdd631be	-0.10458706
18	0x3c871bb3	0.0164927
19	0xbd4d3c1c	-0.050106153
20	0xbe391766	-0.18075332
21	0xbcdc089b	-0.026859572
22	0xbe9bd9dc	-0.3043965
23	0xbe81e6e6	-0.25371474
24	0xbe4ecd88	-0.20195591
25	0xbd2f1970	-0.04274887
26	0xbd93cc22	-0.072166696
27	0xbe49ae96	-0.19695505
28	0xbe6655ef	-0.22493719
29	0xbd1e58af	-0.038658794
30	0xbe52a9c1	-0.20572568
31	0xbe4364f2	-0.19081476
32	0x3beecdbf	0.0072877104
33	0xbe07ae36	-0.1325005
34	0xbe27134f	-0.1631596
35	0x3e060f54	0.13091785
36	0xbea03848	-0.3129294
37	0xbe39c157	-0.1814016
38	0x3dcd35ed	0.10020051
39	0xbd600752	-0.05469448
40	0xbdc6ca8d	-0.09706602
41	0x3d05ac77	0.03263518
42	0x3c83deaf	0.016097395
43	0xbe113f30	-0.1418426
44	0x3d1449d6	0.036203228
45	0x3e40a561	0.18813087
46	0xbc9a9650	-0.018870503
47	0x3df72475	0.120675005
48	0xbd4401dc	-0.047853336
49	0xbe5fb5fa	-0.21846762
50	0x3d1d6fe7	0.038436797
51	0x3d5da719	0.054114435
52	0xbda50e8b	-0.080594145
53	0xbd0f8e39	-0.035047743
54	0x3bf70d8c	0.0075394567
55	0xbe21e61b	-0.15810435
56	0xbe878030	-0.26464987
57	0xbe648e81	-0.22319986
58	0xbe5511a0	-0.20807505
59	0xbe6a1b75	-0.22862037
60	0x3c9e460b	0.019320508
61	0xbcf7d980	-0.03025508
62	0xbe1ebc35	-0.15501483
63	0x3d01b2e2	0.031664737
64	0xbe0328a2	-0.12808469
65	0xbdd8f4ff	-0.10593604
66	0xbe2c2242	-0.16809943
67	0x3d7d2bfa	0.061809517
68	0xbd5475c7	-0.051870134
69	0xbcf8e319	-0.030381726
70	0x3d044221	0.032289628
71	0x3dd7ce59	0.105374046
72	0xbe8ed92b	-0.2790006
73	0xbe0e7537	-0.13911901
74	0xbd1ff5f9	-0.039052937
75	0xbda73d49	-0.08165986
76	0xbe75c35a	-0.24000302
77	0xbd78ae8a	-0.06071333
78	0xbdb69df2	-0.089168444
79	0xbd995083	-0.074860595
80	0xbd94b8ea	-0.07261832
81	0xbeb6353f	-0.355875
82	0x3c641080	0.0139199495
83	0xbe4181d6	-0.18897185
84	0xbe101ca8	-0.14073431
85	0x3e125a14	0.14292175
86	0xbdc8640a	-0.09784706
87	0x3e0f8f77	0.14019571
88	0xbd468cd3	-0.048474144
89	0xbdb323be	-0.08747052
90	0xbc1c72cd	-0.009548855
91	0x3d4b7f47	0.049681928

final.linears.2.weight f4 [14, 92]
0	0x3cc50900	0.024052143
1	0xbd13d248	-0.03608921
2	0x3e50c5d0	0.2038796
3	0x3dbc3431	0.09189642
4	0x3c8e1309	0.017343061
5	0x3d2f4e6f	0.04279941
6	0xbbeb0f97	-0.0071734893
7	0xbd6c33b1	-0.057666484
8	0x3eaf3937	0.3422334
9	0x3dcf7fa4	0.101317674
10	0xbcc0ab12	-0.023519073
11	0x3df84b38	0.12123722
12	0x3e590e92	0.21196964
13	0xbddbb948	-0.10728699
14	0xbeb81061	-0.35949996
15	0x3de04515	0.10950676
16	0xbd8799af	-0.0662111
17	0x3d8d1f5e	0.068907484
18	0x3cb8e49d	0.022569949
19	0xbd0db8e7	-0.034600165
20	0xba91759c	-0.0011097672
21	0xbddc2719	-0.10749645
22	0x3e448404	0.19190985
23	0x3e44e3df	0.19227551
24	0x3bd65caa	0.006541808
25	0xbb3ae00d	-0.0028514892
26	0xbc9990a8	-0.018745735
27	0x3e97326b	0.29530653
28	0x3eac9c25	0.3371288
29	0x3ddcbd44	0.10778287
30	0x3d4ab223	0.04948629
31	0xbe39bacd	-0.18137665
32	0xbd999d94	-0.07500759
33	0x3e1ab22b	0.15107028
34	0xbe2c0423	-0.16798453
35	0xbd2b95e8	-0.04189101
36	0xbdc6ed0c	-0.09713182
37	0x3e854536	0.26029366
38	0xbd4ac73e	-0.04950642
39	0x3d9c7c0b	0.07640847
40	0xbd8c7e33	-0.06860008
41	0xbc70813e	-0.014679251
42	0x3d963692	0.07334627
43	0xbeac266a	-0.33623058
44	0xbda24c76	-0.0792474
45	0xba87fb31	-0.0010374543
46	0x3c8c0124	0.017090388
47	0xbe6213ea	-0.22077909
48	0xbd63a03b	-0.05557273
49	0x3e51c75e	0.20486209
50	0xbbd08ea9	-0.0063646627
51	0xbc034520	-0.008012086
52	0xbd89d3d8	-0.06729859
53	0xbd095232	-0.033525653
54	0x3aebaeb9	0.0017981149
55	0x3e0e3f93	0.13891439
56	0xbe191cc2	-0.14952376
57	0xbe742f99	-0.23846282
58	0xbed4950e	-0.4151997
59	0xbd39762f	-0.045278724
60	0xbe362673	-0.17788105
61	0x3d5b0e3c	0.05348037
62	0xbe3a0a49	-0.18167986
63	0xbce982e9	-0.028504806
64	0xbc9c0268	-0.019044116
65	0x3c647b87	0.013945467
66	0x3da2838c	0.07935247
67	0xbdd015f0	-0.10160434
68	0xbd850bfb	-0.06496426
69	0xbddae8c5	-0.106889285
70	0x3bec6d3b	0.0072151697
71	0x3d0b6dcf	0.03404027
72	0x3eb6b168	0.35682225
73	0xbc417388	-0.01180733
74	0xbd2ab510	-0.04167658
75	0xbda6c4a4	-0.08142975
76	0xbed4bd72	-0.41550785
77	0xbc28cc49	-0.010302612
78	0x3c096d75	0.008387913
79	0xbd9d33ca	-0.076758936
80	0xbd0b92b9	-0.034075473
81	0xbdf59245	-0.11990789
82	0x3bebfd48	0.0072018243
83	0x3ce5fc7b	0.028074494
84	0x3dafff8f	0.08593666
85	0x3c68017e	0.014160512
86	0x3dcb6699	0.09931678
87	0xbd27cdaa	-0.04096762
88	0xbc973f64	-0.018462844
89	0xbd6c938b	-0.057757895
90	0x3e10b9c6	0.14133367
91	0x3d13dbe8	0.03609839
92	0xbc97c3b5	-0.018525938
93	0x3d3b90e2	0.045792468
94	0xbccdacc1	-0.02510679
95	0x3dba2a5e	0.09090112
96	0xbd58814a	-0.052857675
97	0xbd914499	-0.07093162
98	0xbc92a21a	-0.017899562
99	0xbe08f364	-0.13374096
100	0x3e07a057	0.13244759
101	0xbe3d4f16	-0.184872
102	0xbdc3cc27	-0.09560423
103	0x3deb1919	0.114793964
104	0xbc98113d	-0.018562907
105	0x3c8c515e	0.017128643
106	0xbe95f4c8	-0.29288316
107	0x3e28b07e	0.16473576
108	0xbeaa42d6	-0.33254117
109	0xbd9deb4a	-0.077108935
110	0x3bedffd9	0.0072631654
111	0xbd6586c7	-0.056036737
112	0x3c9579c4	0.018246539
113	0x3e45bf00	0.19311142
114	0x3e697958	0.22800195
115	0x3e206d16	0.15666613
116	0x3e9e6902	0.3093949
117	0xbe11b99d	-0.14230962
118	0x3d653359	0.055957172
119	0xbd04829b	-0.032351118
120	0x3d073b22	0.033015378
121	0x3d9a8328	0.07544547
122	0x3e8b7df8	0.27244544
123	0xbdf019cc	-0.1172367
124	0x3d9fdd1b	0.078058444
125	0x3e6331fa	0.22187033
126	0x3e8e20c0	0.2775936
127	0xbcb872b3	-0.02251563
128	0xbd844fbb	-0.0646052
129	0x3d7f6c96	0.062359415
130	0x3d78b98d	0.06072383
131	0x3e175f86	0.14782533
132	0xbd9b051f	-0.07569336
133	0xbd6ad609	-0.057333026
134	0x3d409cb3	0.04702444
135	0xbe419c33	-0.18907242
136	0xbdb7a55a	-0.08967085
137	0xbb059672	-0.0020383862
138	0x3d5a73ad	0.053332973
139	0x3cc5b4c2	0.024134044
140	0x3dd62ef6	0.10458176
141	0xbeaa7b97	-0.33297417
142	0x3d31ebde	0.04343783
143	0x3e01ff20	0.12694979
144	0x3dd0bc86	0.10192208
145	0xbdb6d8a0	-0.08928037
146	0x3c681486	0.014165049
147	0x3da1366f	0.078717105
148	0xbdb5735c	-0.08859894
149	0x3db9f680	0.09080219
150	0xbe800928	-0.25006986
151	0x3e90c104	0.2827226
152	0x3d144032	0.036194034
153	0xbd2c21c4	-0.04202439
154	0x3ddb1347	0.10697036
155	0xbc8eb2f8	-0.017419323
156	0xbcf15418	-0.029459044
157	0xbd68c87d	-0.056831826
158	0xbe0d9ccb	-0.13829343
159	0xbdd37785	-0.10325531
160	0x3db3e34e	0.08783589
161	0x3ad42c6e	0.0016187557
162	0xbad3cd28	-0.0016159164
163	0xbd207660	-0.03917539
164	0xbf0c8fd6	-0.54906976
165	0x3d12eef9	0.035872433
166	0xbd020865	-0.031746287
167	0xbbf6f559	-0.007536572
168	0x3ec1396f	0.3773913
169	0xbdc3f557	-0.09568279
170	0x39eceb22	0.00045188615
171	0xbce17312	-0.02752069
172	0x3d1180d6	0.03552326
173	0xbe584818	-0.21121252
174	0x3dfd627e	0.123723015
175	0xbcb7a4f6	-0.022417527
176	0xbbe15608	-0.006876711
177	0xbb7f7fe8	-0.003898615
178	0xbda64f96	-0.081206486
179	0x3cd6cd7c	0.02622103
180	0x3db33b47	0.08751541
181	0x3d96328f	0.07333862
182	0xbd231626	-0.039816044
183	0x3c0cd2a5	0.008595143
184	0x3ddec580	0.10877514
185	0x3e05584f	0.13021968
186	0xbd5a56e5	-0.053305525
187	0xbd9e1489	-0.077187605
188	0xbd71e6de	-0.059058063
189	0x3dcde2c9	0.100530215
190	0x3b89b7cf	0.00420282
191	0xbc7a93e6	-0.015294051
192	0x3ce1d70e	0.027568366
193	0x3d2cb9b0	0.042169273
194	0x3d7e0376	0.06201502
195	0xbc35f288	-0.011105187
196	0x3e0300e9	0.12793316
197	0x3ca7bb15	0.02047495
198	0x3e0fc3ab	0.14039485
199	0x3e50a879	0.20376767
200	0x3e91a6d3	0.2844759
201	0xbf3446a9	-0.7042032
202	0xbe410e76	-0.18853173
203	0xbcb60bd0	-0.02222243
204	0x3e622ce5	0.22087438
205	0xbd127c33	-0.035762977
206	0x3ea7ece1	0.32797912
207	0xbe50caef	-0.20389913
208	0xbd14574c	-0.036216065
209	0x3d54e69f	0.05197775
210	0x3dda5512	0.10660757
211	0xbde7b11f	-0.1131308
212	0x3e4636fd	0.19356914
213	0x3d85c490	0.06531632
214	0xbd10770c	-0.035269782
215	0x3e06366e	0.13106701
216	0x3c1394bc	0.009007629
217	0xbd9df04a	-0.07711847
218	0x3e638c5a	0.22221509
219	0xbebc8bb1	-0.36825326
220	0x3e15df81	0.14636041
221	0xbca5c06d	-0.020233357
222	0xbd21df34	-0.039519504
223	0x3da6fd32	0.08153762
224	0xbec74e57	-0.38926956
225	0xbc319cb0	-0.01084058
226	0xbe8faa56	-0.28059644
227	0xbeb3c6ce	-0.35112613
228	0xbd1bf4d0	-0.03807527
229	0x3df1019e	0.117678866
230	0x3cab6336	0.02092133
231	0x3d99597f	0.07487773
232	0xbee311a9	-0.4434941
233	0xbd80d7e7	-0.0629118
234	0xbc8bb149	-0.01705231
235	0xbd132844	-0.035927072
236	0x3bd21c43	0.0064120605
237	0x3e00d884	0.12582594
238	0x3f4974a7	0.7869362
239	0x3e8cf420	0.27530003
240	0x3e147236	0.14496693
241	0x3ebea17a	0.37232572
242	0xbc7a8ed0	-0.015292838
243	0x3e30c8c4	0.17264086
244	0x3cc95af7	0.024579508
245	0x3d952bfc	0.0728378
246	0x3d53e330	0.051730335
247	0xbde23a75	-0.11046306
248	0x3e8b4bc2	0.27206236
249	0x3ddbdafe	0.10735129
250	0x3df763c6	0.12079577
251	0x3c2a7522	0.010403903
252	0x3d2d84a7	0.042362835
253	0xbe0ec5e8	-0.13942683
254	0x3dbc0eae	0.091824874
255	0xbdb093db	-0.08621951

final.linears.2.bias f4 [14]
0	0x3d71937b	0.05897854
1	0xbc31bcab	-0.010848205
2	0xbd0e9674	-0.034811452
3	0xbd506163	-0.050874125
4	0xbbe9b8c8	-0.0071326233
5	0xbc86cf21	-0.016456189
6	0xbce8db48	-0.028424874
7	0xbb36b7cf	-0.0027880555
8	0xbd68a2cb	-0.056795876
9	0xbc82fca7	-0.015989615
10	0xbca1172d	-0.019664371
11	0xbd85e17a	-0.06537147
12	0x3ab98282	0.0014153274
13	0x3d7f7960	0.06237161

layers.0.attn.0.gnn_q.weight f4 [14, 16]
0	0x3648363e	2.9833895e-06
1	0x32278f6e	9.7532915e-09
2	0x30cc1e7c	1.4851618e-09
3	0x34d88ba7	4.0334746e-07
4	0xb389ba83	-6.413486e-08
5	0x33d0bb12	9.719783e-08
6	0x3528dbbd	6.290464e-07
7	0x35d2fa52	1.5719072e-06
8	0x33cb1b94	9.4579406e-08
9	0xb3798cdd	-5.8102945e-08
10	0xb6628986	-3.3756673e-06
11	0xb039d81b	-6.760971e-10
12	0x3597ee9a	1.1319819e-06
13	0x39163ff5	0.0001432894
14	0xb7e6c41e	-2.750946e-05
15	0xab02f003	-4.651836e-13
16	0xb62ad8fa	-2.545827e-06
17	0xb288a4c2	-1.5907407e-08
18	0x306bb07a	8.574329e-10
19	0x345b7352	2.0437918e-07
20	0xb28db412	-1.6496447e-08
21	0xb39d52d2	-7.325947e-08
22	0xb43d1785	-1.7610553e-07
23	0xb5b7d7ab	-1.369733e-06
24	0x342f590a	1.6330537e-07
25	0x34c502b8	3.6696088e-07
26	0xb64889d7	-2.9882556e-06
27	0x30213a21	5.8654065e-10
28	0x3644d600	2.933084e-06
29	0xb8a6c2dc	-7.951792e-05
30	0x37922a88	1.7424361e-05
31	0xa8bc279f	-2.0889376e-14
32	0x390029ea	0.00012222645
33	0xb3e08141	-1.0454324e-07
34	0x31efbb0f	6.9770816e-09
35	0xb541042d	-7.190418e-07
36	0x351979c6	5.7174145e-07
37	0xb50ada02	-5.172625e-07
38	0x34bdf9dc	3.538579e-07
39	0x382fdbfc	4.1928128e-05
40	0x35e05b0f	1.6715802e-06
41	0x32208781	9.344036e-09
42	0x37f1d0f7	2.8826746e-05
43	0xb19a5408	-4.491543e-09
44	0xb8b5cd6e	-8.669017e-05
45	0x3b9ad7b3	0.0047254204
46	0x395507f6	0.00020316229
47	0xaa9c359b	-2.7748363e-13
48	0x36b6b1d7	5.444726e-06
49	0x33661635	5.3571245e-08
50	0x3096fa8c	1.0985146e-09
51	0xb583113e	-9.765279e-07
52	0x33ae9cef	8.1310525e-08
53	0x347f947e	2.3802747e-07
54	0x3530e957	6.5904663e-07
55	0x3626534c	2.4784413e-06
56	0xb3f6a665	-1.1485535e-07
57	0xb5ad2c55	-1.2902407e-06
58	0x37517437	1.2484429e-05
59	0xb0927861	-1.0657112e-09
60	0xb73238e2	-1.0622871e-05
61	0x39577040	0.00020545814
62	0xb833100c	-4.269187e-05
63	0x2ba29729	1.1552748e-12
64	0xb40a8a10	-1.2902478e-07
65	0xb0ed61fa	-1.7271866e-09
66	0xaf18a942	-1.3884452e-10
67	0x3470059a	2.235378e-07
68	0xb28a68f1	-1.6113036e-08
69	0xb301fc89	-3.0264832e-08
70	0x328ca50a	1.6373196e-08
71	0x339e83dd	7.381434e-08
72	0x33889c52	6.361428e-08
73	0x34d465f0	3.9562246e-07
74	0xb6679413	-3.4507873e-06
75	0x2f94f690	2.7096236e-10
76	0x36883aa8	4.0599443e-06
77	0xb792f0fc	-1.7516773e-05
78	0x363ebdee	2.842276e-06
79	0x29ea0b3e	1.0393638e-13
80	0xb681ec39	-3.8719995e-06
81	0x32dfa0af	2.6033687e-08
82	0xb11c06a2	-2.2704758e-09
83	0x33b89f99	8.597198e-08
84	0xb3d5e85d	-9.960852e-08
85	0x33a43a1b	7.6474144e-08
86	0xb42284f6	-1.5135797e-07
87	0xb5ecf575	-1.7654808e-06
88	0x340bb05a	1.300954e-07
89	0x3430646b	1.6427809e-07
90	0xb58d7c7f	-1.0541552e-06
91	0xb0ef0942	-1.739217e-09
92	0x35df54ac	1.6639437e-06
93	0xb95c260f	-0.00020995013
94	0x3886100f	6.392609e-05
95	0xaa15be27	-1.3299831e-13
96	0xb54852b8	-7.462618e-07
97	0x32861c66	1.5612567e-08
98	0x30152b26	5.42672e-10
99	0xb41f9d0a	-1.486516e-07
100	0x3328fa9f	3.9343487e-08
101	0x33260ee7	3.866344e-08
102	0xb50eb510	-5.3162603e-07
103	0x353973fc	6.908665e-07
104	0x3403ae66	1.2263772e-07
105	0xb43cf4af	-1.759788e-07
106	0x35d8395d	1.6109949e-06
107	0x30a9ef88	1.2364447e-09
108	0xb60f1753	-2.1322237e-06
109	0xb912acc5	-0.00013988007
110	0x380ebfd9	3.403411e-05
111	0x2a91f7d9	2.5929153e-13
112	0xb56db868	-8.8557726e-07
113	0x31e5528b	6.6741612e-09
114	0xb092edce	-1.0690486e-09
115	0xb3a0ff88	-7.4970615e-08
116	0x326a424e	1.3635669e-08
117	0x330121f3	3.006603e-08
118	0x338d6e16	6.585849e-08
119	0x33ccf57d	9.544144e-08
120	0xb4824405	-2.4263878e-07
121	0xb418400a	-1.41794e-07
122	0xb5f243c8	-1.8050132e-06
123	0xaef6b7a5	-1.1219407e-10
124	0x3627af6a	2.4987044e-06
125	0xb7896d06	-1.638244e-05
126	0xb7bcbf43	-2.250041e-05
127	0x2a4a72af	1.7980993e-13
128	0xb5ce5c48	-1.5375053e-06
129	0xb2c498e4	-2.288693e-08
130	0xb03fee75	-6.9824263e-10
131	0xb301372a	-3.0085324e-08
132	0x32a48807	1.915397e-08
133	0xb2c4a052	-2.2890308e-08
134	0xb50d257e	-5.258115e-07
135	0xb48f1ceb	-2.6656866e-07
136	0x34a2b11d	3.0303718e-07
137	0x34bc7cc5	3.510851e-07
138	0x3560d404	8.3755026e-07
139	0xafcd7e9d	-3.7379247e-10
140	0xb5716712	-8.9929483e-07
141	0xb8fdb1ce	-0.00012097099
142	0x374211da	1.15674575e-05
143	0x2a21079d	1.4302314e-13
144	0xb696c0c4	-4.4927892e-06
145	0xb3219d02	-3.762853e-08
146	0x3102a428	1.9010802e-09
147	0x35261194	6.18654e-07
148	0xb2de970c	-2.591289e-08
149	0xb499b5ad	-2.8630657e-07
150	0xb54b75f9	-7.5795066e-07
151	0xb4dd0f87	-4.1175755e-07
152	0x333a16f3	4.3327372e-08
153	0x357e8122	9.4810287e-07
154	0xb738d16e	-1.1016016e-05
155	0x308f5c10	1.0430785e-09
156	0x37071d16	8.053399e-06
157	0xb8fa09d8	-0.000119227625
158	0x382baf11	4.093262e-05
159	0xabb0a84a	-1.2552262e-12
160	0x3598f3f5	1.1395883e-06
161	0xb1db404e	-6.3810495e-09
162	0x308a6dae	1.0071994e-09
163	0xb48861de	-2.5403182e-07
164	0x328ddc79	1.651482e-08
165	0x338c5b15	6.535826e-08
166	0xb39d9c5c	-7.339324e-08
167	0x3556e034	8.004747e-07
168	0xb4978079	-2.8219418e-07
169	0xb49e1e83	-2.9451994e-07
170	0x358cb226	1.0482661e-06
171	0xb0ec60c0	-1.7198758e-09
172	0xb68b80cf	-4.157518e-06
173	0x38445b82	4.6815265e-05
174	0xb87264dd	-5.7791232e-05
175	0x2a3aaa8d	1.657929e-13
176	0x35d56ee1	1.5902007e-06
177	0x3139f6b7	2.7061284e-09
178	0xaeb7d7ae	-8.360189e-11
179	0x34814b5e	2.408296e-07
180	0xb2655500	-1.3348881e-08
181	0xb0b57890	-1.3203749e-09
182	0x33a6a13d	7.7593064e-08
183	0x33ede4b8	1.1077776e-07
184	0xb3641489	-5.3104063e-08
185	0x3422001e	1.5087468e-07
186	0xb69bad9c	-4.6395708e-06
187	0x2f0c88e5	1.278156e-10
188	0x361c072a	2.3249981e-06
189	0x38463967	4.726034e-05
190	0xb62535ce	-2.4618234e-06
191	0x2ae86ec2	4.1288332e-13
192	0x35b54ef7	1.3508533e-06
193	0xb1b62b33	-5.3018083e-09
194	0x3050df1e	7.598703e-10
195	0xb518b799	-5.689158e-07
196	0x32fbfbff	2.933484e-08
197	0x3415c258	1.3947408e-07
198	0xb2951807	-1.735681e-08
199	0x35269a79	6.2064606e-07
200	0x350b8dbd	5.198779e-07
201	0xb516d518	-5.6189447e-07
202	0x374fe1fc	1.2390778e-05
203	0xb0872228	-9.832251e-10
204	0xb723fb28	-9.774034e-06
205	0x37b9d9f7	2.2155216e-05
206	0x3809e6af	3.2878186e-05
207	0x2abf8080	3.401758e-13
208	0xb6109fb5	-2.1550634e-06
209	0xb1f06786	-6.9966886e-09
210	0x30e5fd72	1.6733976e-09
211	0x352782c2	6.2402626e-07
212	0x312e5944	2.5371074e-09
213	0xb3b5c824	-8.464875e-08
214	0xb3d8a0c5	-1.00875276e-07
215	0xb4e7f1b2	-4.320296e-07
216	0xb4d626e2	-3.9888897e-07
217	0x351bfdde	5.8111425e-07
218	0xb71770ec	-9.026593e-06
219	0xb024fe5c	-6.002432e-10
220	0x371cb578	9.340576e-06
221	0xb91a4b5e	-0.00014714661
222	0xb6758681	-3.6586137e-06
223	0xaaffc1ab	-4.5431484e-13

layers.0.attn.0.gnn_q.bias f4 [16]
0	0xb8b984a5	-8.8461944e-05
1	0xb1964d85	-4.3743875e-09
2	0xafbc627e	-3.4266984e-10
3	0x35e7f2fe	1.7281561e-06
4	0xb5fb2c97	-1.8713935e-06
5	0xb30165b4	-3.012765e-08
6	0xb685ce89	-3.9877527e-06
7	0xb8879268	-6.464572e-05
8	0xb48acd9d	-2.5854106e-07
9	0x36048652	1.9747717e-06
10	0x369ec784	4.7319936e-06
11	0x334e16d5	4.7983878e-08
12	0x365879ad	3.2257333e-06
13	0xba9f8482	-0.0012170228
14	0x39f1a617	0.0004609085
15	0xaba3258c	-1.1592268e-12
