checkpoints/bbb_martins_50_train1_pos/Aug22-00:37:43_400.pth (torch, 389311 bytes, 294 tensors)

layers.0.weight f4 [12, 16]
0.074165046 0.91252387 -0.0046591596 0.63619167 -0.75080764 0.43120474 -0.86622137 0.6842735
0.9390078 -1.2403362 0.63748807 -0.0633799 0.073674805 0.4261765 0.13207725 0.15085487
-0.22191155 0.3897899 0.12396864 0.82364535 -0.30938855 -0.9474445 0.27271053 1.0255388
-0.6429631 -0.8368824 -0.18122989 0.038347796 0.10820357 -1.7514894 0.45268714 -0.05460959
0.69462943 0.24746978 -0.34896314 0.5309642 0.35335508 0.7262758 0.1050097 -0.66255265
0.068105556 0.12877674 0.023603141 2.1341093 0.9469953 -0.42000207 0.83211654 -0.21224089
0.64191526 -0.3509415 -0.52727616 0.34211355 -0.22225767 0.5676127 1.0571573 -0.021733418
0.26938632 -0.1148525 0.62923783 -0.759555 -0.48377544 -0.11679707 0.18948436 -1.3671683
0.55147076 -0.13338703 1.0481666 0.30314752 -0.10832063 0.33425277 0.57875204 -0.25693288
1.4350275 -0.054605216 -1.074975 -0.33532232 -0.5852921 -0.3141229 0.59812206 0.6564306
-0.45016673 -0.76665056 0.36775562 -0.102216326 0.07373381 0.67273057 0.48615423 -0.3222739
-0.33765993 -0.80764496 -0.16109337 -0.115784965 0.4525638 0.2700262 -0.074112825 0.102969326
1.1835086 0.90298384 -0.6212157 -1.3154858 -0.1865461 0.15581714 -0.3010584 -0.581808
-0.51716775 -0.9844869 -0.78637683 -0.065255895 -0.6922282 0.096868664 0.017767204 -0.074936725
0.14657052 -1.2581353 -0.4307223 -0.5267391 0.11743172 -0.94554734 -0.7815795 -0.79711485
0.52273446 -0.15987222 0.31699982 0.005082124 -0.19515072 -1.3289814 0.10140369 -0.34041995
1.0963095 0.2056538 1.262145 -0.045240004 -0.89072216 -0.017373368 -0.4550051 -0.5455113
-0.72261596 -0.13580498 0.6039497 -0.07731698 -0.16014929 -0.36161625 0.36578605 -0.007975363
0.5890782 0.36473596 0.560223 0.30938822 0.99947214 -1.3867294 0.5946314 -0.605624
-0.12463443 -0.5096299 0.23315643 -0.02538846 -0.12752526 0.6564427 0.10902541 -0.34910768
1.2522525 -0.14739618 0.19161396 -1.4788942 1.0805594 0.26146066 -0.11906111 1.381464
0.120969 -0.45132974 -0.23508479 0.044770822 0.35833153 -0.3848122 -0.28203171 -0.22448246
-1.874791 0.7750359 0.6056323 -1.0834891 0.7209698 0.1064244 0.4998963 -0.71021044
0.37366602 0.328333 0.54028606 -0.02144196 -0.098149695 -0.80271125 0.0817921 -0.18045382
00000000: d8e3 973d 2a9b 693f ddab 98bb 75dd 223f
00000010: ee34 40bf dec6 dc3e afc0 5dbf 8c2c 2f3f
00000020: d162 703f 56c3 9ebf 6b32 233f 52cd 81bd
00000030: d1e2 963d ce33 da3e 423f 073e b379 1a3e
00000040: c83c 63be 8b92 c73e 45e3 fd3d 6cda 523f
00000050: 2d68 9ebe b98b 72bf b7a0 8b3e db44 833f
00000060: 3b99 24bf ed3d 56bf 5494 39be 9412 1d3d
00000070: d599 dd3d ce30 e0bf 9cc6 e73e 4eae 5fbd
00000080: 3cd3 313f b868 7d3e 4cab b2be 45ed 073f
00000090: f5ea b43e 36ed 393f 530f d73d 0d9d 29bf
000000a0: ed7a 8b3d 0dde 033e 605b c13c 3f95 0840
000000b0: 496e 723f 830a d7be 9705 553f ad55 59be
000000c0: 8f54 243f 9bae b3be 92fb 06bf 8229 af3e
000000d0: 8497 63be 114f 113f ee50 873f 480a b2bc
000000e0: 01ed 893e ca37 ebbd bb15 213f 3272 42bf
000000f0: 6ab1 f7be 4d33 efbd 3008 423e 5fff aebf
00000100: 302d 0d3f 9c96 08be 532a 863f 2736 9b3e
00000110: 35d7 ddbd 2e23 ab3e 1829 143f b58c 83be
00000120: fbae b73f b8a9 5fbd c898 89bf 5eaf abbe
00000130: b4d5 15bf b7d4 a0be 871e 193f d60b 283f
00000140: 417c e6be 3643 44bf 774a bc3e cb56 d1bd
00000150: c001 973d 1238 2c3f 35e9 f83e 1601 a5be
00000160: c3e1 acbe d2c1 4ebf a9f5 24be ab20 edbd
00000170: 71b6 e73e e040 8a3e 77c8 97bd 95e1 d23d
00000180: 367d 973f f329 673f fe07 1fbf d761 a8bf
00000190: f105 3fbe 878e 1f3e 5424 9abe 5ef1 14bf
000001a0: 1b65 04bf 5507 7cbf fe4f 49bf e2a4 85bd
000001b0: de35 31bf 1463 c63d 878c 913c 6d78 99bd
000001c0: 9516 163e 940a a1bf a287 dcbe 60d8 06bf
000001d0: 0b80 f03d 640f 72bf 9815 48bf b80f 4cbf
000001e0: edd1 053f 8bb5 23be cd4d a23e f287 a63b
000001f0: 97d5 47be 101c aabf bdac cf3d 864b aebe
00000200: df53 8c3f e996 523e f88d a13f 954d 39bd
00000210: 5e06 64bf 9852 8ebc 6ef6 e8be a1a6 0bbf
00000220: 5cfd 38bf 7610 0bbe 739c 1a3f 5d58 9ebd
00000230: 2dfe 23be c425 b9be 4f48 bb3e 19ab 02bc
00000240: d4cd 163f acbe ba3e c66a 0f3f 2268 9e3e
00000250: 68dd 7f3f 5980 b1bf c339 183f 2d0a 1bbf
00000260: 5640 ffbd 1b77 02bf 8fc0 6e3e 76fb cfbc
00000270: fb95 02be a10c 283f b748 df3d 3ebe b2be
00000280: cf49 a03f 06ef 16be 7336 443e 684c bdbf
00000290: c54f 8a3f 2cde 853e 50d6 f3bd d0d3 b03f
000002a0: 98be f73d b114 e7be 11ba 70be 9c61 373d
000002b0: 3b77 b73e 1b06 c5be 7666 90be bbde 65be
000002c0: 27f9 efbf c168 463f b80a 1b3f c5af 8abf
000002d0: 7a91 383f 09f5 d93d 68f2 ff3e 5ad0 35bf
000002e0: 2751 bf3e 431b a83e 3050 0a3f 0da7 afbc
000002f0: b502 c9bd 7c7e 4dbf 9e82 a73d e3c8 38be

layers.0.bias f4 [16]
0.0016194978 0.023912882 0.007841364 0.1645787 0.120915204 0.0050897608 -0.032947686 0.033931214
-0.12474234 -0.06677136 0.20212889 -0.16154633 -0.43391567 -0.18142618 -0.7825089 0.39184085
00000000: 5445 d43a f3e4 c33c 1079 003c 5287 283e
00000010: 64a2 f73d 02c8 a63b 27f4 06bd 75fb 0a3d
00000020: e978 ffbd 6cbf 88bd e0fa 4e3e 676c 25be
00000030: 322a debe c9c7 39be 8152 48bf 5d9f c83e

layers.1.weight f4 [16, 16]
0.70319015 0.54308367 0.10108566 -0.14584254 -0.20437954 0.79345626 0.40392262 -0.05200516
-0.12838022 -0.2545337 -0.038389493 -0.39485794 -0.55147105 -0.988351 -0.6681179 0.13793515
0.07501802 0.07243551 0.9339161 -0.07836456 0.047314238 -0.5557976 0.042564902 1.0801772
-0.07918759 0.27133793 -0.20348053 -0.49666587 -0.06292533 -0.09523599 -0.23141588 0.23378874
-0.85418624 0.48156017 -0.044955645 0.14290127 -0.502549 -0.5338999 -0.5602094 0.34585798
0.21546313 0.6178563 0.13356996 0.6246406 -0.114749454 -0.3382235 -0.13516647 -0.3705982
0.48438022 -0.674789 -1.5009286 -0.14846595 -0.010916337 -0.54746515 -0.02219857 0.5505857
-0.1846713 -0.024345303 -0.1994347 -0.40143198 -0.2056456 -0.82681364 -0.046162613 0.14086722
0.10731652 -0.55210763 0.65193534 -0.17571461 0.4163912 -0.6801708 0.16441764 -0.73074996
-0.13870601 0.28586328 -0.2411389 -0.63010895 -0.03244226 -0.39713934 0.19210476 -0.23053358
0.9295786 0.51147383 0.60704863 -0.16313125 -0.10061138 -0.32446572 0.25472596 -0.3805948
-0.06413487 -0.5405822 -0.0696513 -0.52739424 -0.38367867 -0.7374656 -0.2984133 0.7081467
0.7751724 -0.17399292 -0.067875184 0.010347009 -0.62153554 -0.6683709 -0.007832721 -0.25692177
0.23196226 -0.115121804 0.2917759 0.28357595 -0.4744122 -0.78750426 -0.14140126 -0.43267688
-0.2406659 0.77818435 -0.393259 0.15378813 -0.05594065 -0.32527044 0.3720341 0.3459813
-0.09391856 0.045790527 0.20751944 0.61874604 0.56615216 0.8425201 0.19945501 -0.03857153
-0.14902122 -0.026459388 0.25100985 -0.01899854 -0.81886786 -0.8801125 -0.3306473 -0.22412184
-0.3711995 -0.88509107 0.22262837 0.095895134 -0.6561853 -0.76599824 0.50521326 0.3158384
-0.1627012 -0.2789193 -0.18155141 -0.037548505 -0.04393062 -0.32983705 0.04107376 -0.99304
-0.13523057 -0.056376148 -0.073662475 -0.27011415 0.051254015 0.26939082 0.026857441 0.5416229
0.8464916 -0.014414076 -0.37851268 -0.0647609 0.76669747 -0.9574561 -0.025203219 0.21143198
0.14124383 -0.19738969 -0.020224676 -0.014902557 0.5133695 0.2563803 0.22327971 -0.1896755
0.007970983 0.0378223 0.1432395 -0.081646666 0.03864448 0.17462593 -0.054179627 -0.023172695
0.30372897 1.2045075 0.44302076 -0.32876956 0.108434446 -0.42370567 0.62749755 1.2772342
0.5590215 0.19512306 -0.30549848 -0.20785847 0.6153318 -0.4369204 -0.22275169 -0.046884313
-0.1888448 0.070344836 -0.4125646 -1.1914836 -1.1161029 -0.40917948 0.00014533295 -0.02892141
-0.61049193 0.28373265 0.21769747 0.13092712 0.13082904 -0.33398905 -0.16970927 -0.35654262
-0.07088252 0.39413604 0.17343009 0.37301335 0.1407914 0.7460928 0.5743822 -0.5841087
0.19819824 -0.1479834 -0.2747068 -0.11572521 -0.36446482 -0.04622234 -0.2412299 0.5802112
-0.23735741 -0.5201068 0.124266945 -0.8026137 -1.6009895 -0.3458636 -0.24592842 0.10213038
-0.98856944 0.024619848 -0.025082408 0.00946862 -0.1326606 -0.0017131784 -0.116327286 0.018894497
-0.43369275 0.45916128 -0.05627992 0.29539663 0.81376123 0.0037350515 -0.17742825 0.53692
00000000: 4504 343f 8807 0b3f 0006 cf3d bf57 15be
00000010: df48 51be f31f 4b3f f2ce ce3e 5d03 55bd
00000020: 1b76 03be 3e52 82be 4d3e 1dbd d22a cabe
00000030: 352d 0dbf 9204 7dbf c609 2bbf df3e 0d3e
00000040: 0ca3 993d 1259 943d 2015 6f3f 997d a0bd
00000050: 93cc 413d c048 0ebf 8958 2e3d 3f43 8a3f
00000060: 1a2d a2bd ceec 8a3e 335d 50be fd4a febe
00000070: ffde 80bd 160b c3bd 49f8 6cbe 5166 6f3e
00000080: f3ab 5abf 0e8f f63e 6923 38bd b654 123e
00000090: 0da7 00bf aaad 08bf e269 0fbf 4c14 b13e
000000a0: 5ea2 5c3e d52b 1e3f 90c6 083e 72e8 1f3f
000000b0: c301 ebbd a12b adbe 1469 0abe 0cbf bdbe
000000c0: af00 f83e f9be 2cbf 6e1e c0bf 7507 18be
000000d0: 70da 32bc ad26 0cbf c7d9 b5bc 2ff3 0c3f
000000e0: 791a 3dbe cd6f c7bc 9c38 4cbe 7e88 cdbe
000000f0: c394 52be 0faa 53bf 0215 3dbd 7f3f 103e
00000100: c3c8 db3d ed56 0dbf 3ce5 263f 88ee 33be
00000110: 3a31 d53e ac1f 2ebf 195d 283e 6e12 3bbf
00000120: f308 0ebe ac5c 923e 1eed 76be d24e 21bf
00000130: 2de2 04bd d955 cbbe 1cb7 443e ff10 6cbe
00000140: ddf8 6d3f f3ef 023f 8a67 1b3f e10b 27be
00000150: 570d cebd 5f20 a6be 716b 823e 52dd c2be
00000160: 2559 83bd 9863 0abf 57a5 8ebd 4f03 07bf
00000170: 8871 c4be 8cca 3cbf a1c9 98be 1a49 353f
00000180: b371 463f 332b 32be 2502 8bbd 8086 293c
00000190: f41c 1fbf 5b1a 2bbf d054 00bc 408b 83be
000001a0: 8487 6d3e fbc4 ebbd a763 953e de30 913e
000001b0: 28e6 f2be e199 49bf 7ecb 10be d387 ddbe
000001c0: 1f71 76be 1737 473f 3e59 c9be a37a 1d3e
000001d0: 0622 65bd d989 a6be 417b be3e 7624 b13e
000001e0: 6058 c0bd d98e 3b3d fa7f 543e 2466 1e3f
000001f0: 59ef 103f 66af 573f ef3d 4c3e 2efd 1dbd
00000200: 0599 18be 5cc1 d8bc 5d84 803e d3a2 9bbc
00000210: 53a1 51bf 0e4f 61bf 9a4a a9be 3280 65be
00000220: dc0d bebe 5495 62bf b1f8 633e ab64 c43d
00000230: c3fb 27bf 7618 44bf a855 013f 92b5 a13e
00000240: 259b 26be 83ce 8ebe 9de8 39be 76cc 19bd
00000250: 98f0 33bd 67e0 a8be f53c 283d df37 7ebf
00000260: e279 0abe adea 66bd 5adc 96bd 674c 8abe
00000270: bbef 513d 98ed 893e 2304 dc3c cca7 0a3f
00000280: acb3 583f 0429 6cbc 6acc c1be 5da1 84bd
00000290: 4946 443f d81b 75bf fb76 cebc a081 583e
000002a0: 39a2 103e 8620 4abe 38ae a5bc db29 74bc
000002b0: 2f6c 033f 4744 833e 70a3 643e 4b3a 42be
000002c0: ba98 023c 8eeb 1a3d 60ad 123e 5e36 a7bd
000002d0: ad49 1e3d 24d1 323e 75eb 5dbd aad4 bdbc
000002e0: 5d82 9b3e 4d2d 9a3f 9ed3 e23e 7c54 a8be
000002f0: e112 de3d f3ef d8be aea3 203f 697c a33f
00000300: 081c 0f3f 57ce 473e 4c6a 9cbe dad8 54be
00000310: 6386 1d3f 08b4 dfbe 0519 64be c409 40bd
00000320: 8860 41be f410 903d ab3b d3be 8982 98bf
00000330: 76dc 8ebf f97f d1be 8464 1839 98ec ecbc
00000340: 3349 1cbf 6845 913e 16ec 5e3e c211 063e
00000350: 0cf8 053e 9d00 abbe 44c8 2dbe c18c b6be
00000360: db2a 91bd 33cc c93e a897 313e 9bfb be3e
00000370: 9f2b 103e f0ff 3e3f b60a 133f 2688 15bf
00000380: 7bf4 4a3e f688 17be 5fa6 8cbe 5701 edbd
00000390: 229b babe a353 3dbd f904 77be b988 143f
000003a0: d20d 73be b825 05bf ab7f fe3d 1778 4dbf
000003b0: 39ed ccbf 0915 b1be a9d4 7bbe bc29 d13d
000003c0: e312 7dbf 90af c93c 9f79 cdbc 4522 1b3c
000003d0: 2ed8 07be ba8c e0ba 003d eebd a2c8 9a3c
000003e0: fa0c debe 3017 eb3e c685 66bd 3a3e 973e
000003f0: a852 503f c4c7 743b c0af 35be 9773 093f

layers.1.bias f4 [16]
0.11441546 0.18570742 -0.022359928 -0.0592068 -0.1555077 -0.034037463 -0.29406616 0.1035913
-0.02233099 -0.32928857 0.079241425 0.13823673 -0.7420711 0.091701895 0.15949968 -0.08081459
00000000: a752 ea3d 162a 3e3e 2b2c b7bc d482 72bd
00000010: 693d 1fbe de6a 0bbd d78f 96be ad27 d43d
00000020: 7bef b6bc 8398 a8be 5449 a23d ee8d 0d3e
00000030: 5ff8 3dbf 34ce bb3d e253 233e 1f82 a5bd

final.linears.0.weight f4 [88, 44]
0.014887189 -0.055561293 1.6110659 -2.0142393 -1.3125472 -0.015576262 0.014346697 -0.089459054
0.067663185 0.10539542 0.023007674 -0.03424803 -0.08591415 -0.060367126 0.05692253 -0.08759487
-0.071059324 0.01153999 0.028181246 0.12345093 0.04785451 -0.02575089 -0.06822766 -0.33026505
0.042800244 0.124451615 0.2576003 -0.15883613 -0.00063396065 -0.0777604 0.012620957 -0.67209506
0.013650349 0.0003833354 -0.012873762 0.061301623 0.0010761237 -0.007433477 -0.3281507 0.37226832
0.12507308 0.064152606 -0.06289762 -0.044193354 1.1509428 1.7600139 -0.2618877 -0.22711854
-0.3046555 2.217735 -1.0553008 0.23890868 0.12448004 0.13956593 1.3894598 0.8547187
-0.123010576 -0.22761261 -0.104096495 -0.1142711 -0.16164881 0.01127177 -0.17220196 0.03527068
0.04655812 -0.54346067 -0.09743497 -0.054022856 0.16889766 -0.29150668 0.24989033 -0.08728328
-0.06613134 0.06091736 0.0467614 0.07792593 0.011696357 -0.059630975 -0.058274794 -0.026439678
0.055107694 0.07445422 0.10157042 -0.0117647555 -0.118737094 0.05342833 0.22689871 0.07506083
-0.1176153 -0.080943614 -0.9582166 3.6094375 -0.6552513 -0.11537917 -0.11714995 0.16894451
-0.0026338839 -0.023702413 0.13004987 0.085589744 0.110129446 0.088337705 -0.11580421 0.057752095
0.009763653 0.05349915 0.22617075 -0.06342407 -0.023152867 0.008188947 -0.036651477 0.14617261
-0.09909657 -0.033012737 -0.010579057 -0.048003417 0.042514954 0.08905633 0.002584314 0.17047404
-0.067792796 0.02638098 -0.03136982 -0.059422553 -0.018541787 -0.06822027 -0.19175406 -0.012995255
-0.34847775 -0.0007226542 0.049311 -0.10758022 -0.15566115 -0.07512549 0.4013025 0.11923061
0.10176285 0.13640265 -0.36145172 -0.029183323 0.31594563 -0.70842755 0.30835712 0.5952089
-0.123190686 -1.1761448 -0.30059427 -0.4301022 -0.0049603283 -0.23417918 0.1423958 0.24071524
-0.45822716 1.0015893 -0.8667144 -0.19474715 0.34918985 -0.52208096 0.021236455 -0.16537769
0.20293696 0.18279219 0.14274426 0.0054819486 -0.14720704 0.73602396 0.37883192 -0.22571787
0.21468961 0.01922005 -0.12923682 0.09263781 0.021062525 0.0040777577 -0.4366117 -0.061676748
-0.4548982 -0.24817319 -0.5027819 -0.36339065 -0.3437732 0.016529793 -0.53864825 -0.09035909
0.12720543 1.5563335 0.031904727 -0.39426324 -0.06271292 -0.02442987 -0.14870393 -0.06289743
0.10122676 0.05092874 0.12322705 -0.08781884 0.051610302 -0.21337117 -0.08710648 0.00018298108
-0.18401432 -0.09474805 0.05430215 0.02008077 0.089945495 0.043872 0.01554685 0.03889672
0.054399636 -0.0010564936 -0.025558919 -0.0060835164 0.004996703 -0.0075488156 -0.08368377 0.023489192
-0.05406824 -0.14711677 0.044708077 0.058898214 0.22441874 0.12049898 -0.18538062 -0.055711348
-0.23599564 -0.04512884 -0.5031097 1.0475662 0.39565402 -0.6112726 -1.1082889 -1.1717707
0.15599525 -0.31254497 -0.32537493 0.16508189 -0.24061187 -0.0823169 -0.17010145 -0.113439046
-0.087727815 -0.0037734413 -0.2769913 0.0011216542 -0.09700536 0.21695493 0.057323236 0.04786897
-0.056081045 0.056145 -0.13781908 0.008685404 -0.032927837 0.019815728 -0.036982145 -0.015782667
00000000: 65e9 733c 3d94 63bd 6837 ce3f 4ce9 00c0
00000010: 8c01 a8bf 9433 7fbc 690e 6b3c 4f36 b7bd
00000020: ff92 8a3d 8ed9 d73d 977a bc3c aa47 0cbd
00000030: c2f3 afbd 8543 77bd 9927 693d f064 b3bd
00000040: 8d87 91bd 3a12 3d3c 5bdc e63c d7d3 fc3d
00000050: 1703 443d 88f3 d2bc f2ba 8bbd 8018 a9be
00000060: 4f4f 2f3d 7de0 fe3d 30e4 833e f0a5 22be
00000070: 6130 26ba d840 9fbd 21c8 4e3c 6c0e 2cbf
00000080: b7a5 5f3c 68fa c839 79ec 52bc 6917 7b3d
00000090: b80c 8d3a 8694 f3bb 5e03 a8be f499 be3e
000000a0: 2813 003e 7162 833d 78d0 80bd 1704 35bd
000000b0: 1852 933f 2348 e13f 2516 86be c391 68be
000000c0: cefb 9bbe 5fef 0d40 1914 87bf 7aa4 743e
000000d0: 64ef fe3d 5fea 0e3e d2d9 b13f d8ce 5a3f
000000e0: f8ec fbbd 4813 69be 8b30 d5bd f706 eabd
000000f0: 4487 25be 3bad 383c b655 30be fd77 103d
00000100: bab3 3e3d 3d20 0bbf fc8b c7bd 1247 5dbd
00000110: 82f3 2c3e 5d40 95be 40e3 7f3e 94c1 b2bd
00000120: de6f 87bd 7b84 793d e288 3f3d a197 9f3d
00000130: 14a2 3f3c 9c3f 74bd 8db1 6ebd 0698 d8bc
00000140: 9bb8 613d 747b 983d 2704 d03d f6c0 40bc
00000150: 6f2c f3bd aad7 5a3d 2358 683e 7eb9 993d
00000160: 4ae0 f0bd c4c5 a5bd af4d 75bf 0601 6740
00000170: 8dbe 27bf ea4b ecbd 50ec efbd caff 2c3e
00000180: 3d9d 2cbb 902b c2bc cb2b 053e ad49 af3d
00000190: 8c8b e13d 66ea b43d c22a edbd 768d 6c3d
000001a0: bbf7 1f3c ed21 5b3d 4e99 673e 7be4 81bd
000001b0: 15ab bdbc ef2a 063c dc1f 16bd 46ae 153e
000001c0: 24f3 cabd 5d38 07bd c853 2dbc 3b9f 44bd
000001d0: 2924 2e3d 2a63 b63d 985d 293b bf90 2e3e
000001e0: f3d6 8abd ed1c d83c a47d 00bd 1065 73bd
000001f0: f2e4 97bc 12b7 8bbd 2d5b 44be 0dea 54bc
00000200: ad6b b2be 8170 3dba 55fa 493d 0553 dcbd
00000210: a365 1fbe 65db 99bd 8577 cd3e 2e2f f43d
00000220: 0b69 d03d 23ad 0b3e 3310 b9be dd11 efbc
00000230: a0c3 a13e 825b 35bf fce0 9d3e 9c5f 183f
00000240: 664b fcbd ea8b 96bf 7ee7 99be 5b36 dcbe
00000250: 408a a2bb abcc 6fbe 34d0 113e 0e7e 763e
00000260: c09c eabe 1434 803f ffe0 5dbf cc6b 47be
00000270: 03c9 b23e 19a7 05bf 13f8 ad3c c558 29be
00000280: b5ce 4f3e e02d 3b3e 8d2b 123e eba1 b33b
00000290: 71bd 16be 116c 3c3f 42f6 c13e 9622 67be
000002a0: 98d7 5b3e 5e73 9d3c a856 04be e4b8 bd3d
000002b0: 518b ac3c b69e 853b 928b dfbe c2a0 7cbd
000002c0: 6be8 e8be 1d21 7ebe 51b6 00bf 570e babe
000002d0: 0a03 b0be 7d69 873c dae4 09bf 300e b9bd
000002e0: 2442 023e f035 c73f 88ae 023d dfdc c9be
000002f0: a26f 80bd 2721 c8bc d845 18be 5ed0 80bd
00000300: fa4f cf3d a89a 503d 775e fc3d 5dda b3bd
00000310: 5365 533d f97d 5abe e264 b2bd 9cde 3f39
00000320: 406e 3cbe 440b c2bd ee6b 5e3d 6d80 a43c
00000330: 5835 b83d 20b3 333d 37b8 7e3c 2b52 1f3d
00000340: 27d2 5e3d 0b7a 8aba f060 d1bc 3c58 c7bb
00000350: 62bb a33b 0e5c f7bb 6562 abbd 686c c03c
00000360: a976 5dbd c7a5 16be d11f 373d 413f 713d
00000370: 07ce 653e 2bc8 f63d 6bd4 3dbe 9531 64bd
00000380: d7a8 71be 05d9 38bd cccb 00bf a616 863f
00000390: 2a93 ca3e 5c7c 1cbf 69dc 8dbf 95fc 95bf
000003a0: 38bd 1f3e e505 a0be 8b97 a6be 3a0b 293e
000003b0: f562 76be c395 a8bd 132f 2ebe bb52 e8bd
000003c0: a4aa b3bd d74b 77bb ced1 8dbe 7804 933a
000003d0: bfaa c6bd 6f29 5e3e c5cb 6a3d 4112 443d
000003e0: 3db5 65bd 4df8 653d 7220 0dbe 3a4d 0e3c
000003f0: 57df 06bd 9854 a23c 977a 17bd a74a 81bc

final.linears.0.bias f4 [88]
-0.06663279 0.14081857 0.15065539 0.048190106 0.03680041 0.09769055 -0.054110378 0.07311288
-0.11540423 0.022601927 0.21944727 -0.12999037 0.0063233976 0.24760294 0.09754644 0.031021163
0.029923536 0.02086977 0.08343675 0.5124227 0.06693684 0.034037553 0.10312963 0.28106895
0.16631083 0.058893744 -0.09170992 0.09967717 -0.123881355 0.07126348 0.032315537 0.0009863642
-0.2669859 0.0042111636 0.25927132 0.04338365 0.17921475 0.026998341 0.01655344 0.26575795
0.017936602 -0.066708796 -0.017683052 0.5431909 -0.09874088 0.12225108 0.12036269 0.053307794
-0.05648405 0.007860896 -0.006406549 -0.021738973 0.0076977983 0.085713916 0.009675214 0.067481
-0.15736021 0.1785197 -0.058445122 -0.09922435 0.0061281407 0.108884215 0.030415596 0.5867209
0.03582055 -0.028507087 -0.046075553 0.15350462 0.018629981 0.09668396 -0.08647958 0.13711688
0.0348424 0.10389664 0.19457535 -0.19388148 0.12207137 0.13991418 0.111871794 0.13197885
0.19639167 -0.113978855 -0.16743913 0.19431002 0.10213325 -0.09838103 0.17922007 -0.04709657
00000000: c676 88bd be32 103e 6845 1a3e fd62 453d
00000010: 07bc 163d fc11 c83d d8a2 5dbd 35bc 953d
00000020: 0e59 ecbd ad27 b93c c9b6 603e 321c 05be
00000030: 8134 cf3b a08b 7d3e 6ec6 c73d 1820 fe3c
00000040: 3422 f53c 14f7 aa3c e3e0 aa3d 222e 033f
00000050: 2f16 893d f66a 0b3d a135 d33d 45e8 8f3e
00000060: 634d 2a3e 913a 713d 69d2 bbbd 8b23 cc3d
00000070: 82b5 fdbd 96f2 913d 4c5d 043d e448 813a
00000080: 60b2 88be cdfd 893b 36bf 843e 0eb3 313d
00000090: 1284 373e a02b dd3c 149b 873c 6d11 883e
000000a0: c8ef 923c 9f9e 88bd 0cdc 90bc 8f0e 0b3f
000000b0: a938 cabd c65e fa3d b780 f63d 4659 5a3d
000000c0: d25b 67bd fdca 003c 07ee d1bb ee15 b2bc
000000d0: d03d fc3b c78a af3d ca84 1e3c 7b33 8a3d
000000e0: 0923 21be decd 363e 2764 6fbd 2336 cbbd
000000f0: 92ce c83b b0fe de3d 212a f93c 5733 163f
00000100: 92b8 123d b287 e9bc b8b9 3cbd 5130 1d3e
00000110: e79d 983c 3d02 c63d 351c b1bd 5e68 0c3e
00000120: e8b6 0e3d c3c7 d43d c33e 473e de88 46be
00000130: 8e00 fa3d aa45 0f3e 0a1d e53d 7725 073e
00000140: e61a 493e bf6d e9bd 2a75 2bbe 35f9 463e
00000150: 3d2b d13d fe7b c9bd 7785 373e 55e8 40bd

final.linears.1.weight f4 [88, 88]
0.31555396 -0.39030346 -0.2576372 -0.22195733 -0.14277734 -0.65147525 -0.215918 -0.1035701
-0.13003889 -0.5514529 -0.27833158 -0.03615612 -0.19865654 -0.113831334 -0.3400461 -0.0742674
0.09275699 -0.27169982 -0.4482315 -0.21105522 0.0706561 -0.057782933 -0.31843722 -0.10143781
-0.28328502 -0.045101795 -0.15165922 0.0022823205 -0.19748183 -0.24543893 0.05260167 -0.043790184
0.1504457 -0.2303487 -0.15306754 -0.010651372 -0.47268617 -0.090885796 -0.19395387 0.008245722
-0.16808465 0.062403247 -0.29543966 -0.2790242 -0.32724482 -0.18832688 -0.23364215 -0.3130925
-0.21505524 -0.4529186 -0.06799683 -0.32564852 -0.19921963 -0.30157676 -0.07746795 -0.30839294
-0.11546691 -0.3251774 0.023176262 0.012750178 -0.26273218 -0.15450427 -0.24897063 -0.2162873
-0.32193077 -0.17930487 0.0042042774 -0.07963058 -0.29166353 -0.20989802 -0.20087925 -0.0886001
0.004677174 -0.4419559 -0.15126537 -0.015383226 -0.15229768 -0.055790424 -0.3005889 -0.08995449
-0.35858458 -0.16595542 -0.040522113 -0.04446755 -0.31177986 -0.06807545 -0.16606522 0.010979616
0.47969252 -0.4617662 -0.2622394 -0.5382108 -0.17842293 -0.19116515 -0.5331637 -0.20431612
-0.1905323 -0.40216172 -0.41233218 -0.33426276 -0.34897396 -0.36279735 -0.19015294 -0.20362014
0.26148078 -0.25246152 -0.14237602 -0.19356565 0.06733415 -0.13592121 -0.20225355 -0.2359479
-1.0126044 -0.39843217 -0.14315434 -0.2955819 -0.15842704 -0.5137023 0.02800055 -0.06486562
0.123630084 -1.5067079 -0.25314772 -0.08967313 -0.21498187 -0.07364191 -0.5476297 -0.074261285
-0.35293543 -0.023368074 -0.20976408 -0.71382624 0.0068896827 -0.19152367 -0.3060219 -0.5080432
-0.22809875 -0.33042964 -0.058886517 -0.53134453 -0.2534712 -0.41320887 -0.28537 -0.5662517
-0.05888833 -0.18653357 0.06409756 0.08121387 -0.62431526 -0.3095279 -0.41523337 -0.32932436
-0.44344348 -0.34426117 -0.05030688 -0.10357722 -0.4926117 -0.35405785 -0.017282728 -0.2017842
0.00061806117 -0.43573567 -0.18997037 0.032796536 -0.28141013 -0.16061844 -0.55800027 -0.2173694
-0.23998122 0.001990472 0.10044625 -0.2261329 -0.45943373 -0.041888077 -0.23896182 -0.048854742
0.085442774 -0.2317809 -0.12916757 -0.03955055 -0.17999966 -0.1736637 0.12912826 0.0048606303
-0.07821129 -0.084252305 -0.07792402 0.06180246 0.34894344 -0.012293238 0.071618065 -0.08797587
0.06206706 0.007758013 -0.11770137 0.1377565 0.01253523 -0.10983277 -0.09765456 -0.12413857
-0.095779166 0.03907024 0.03536955 0.08723557 -0.023041604 -0.032407183 -0.0842258 -0.059357632
0.06935667 -0.052495535 -0.1158934 0.027468672 -0.08790729 -0.19607884 -0.057877112 0.036222063
-0.005904798 0.3194385 -0.054870192 -0.07184492 -0.06528683 -0.17986383 -0.03223236 -0.20959428
-0.007217302 -0.25620604 0.27163526 -0.19918112 -0.20758432 -0.09689498 0.45304185 -0.04051061
-0.031638436 -0.08157653 0.1309887 -0.041036468 0.007921203 -0.02098549 0.049886107 -0.34057027
-0.09352143 -0.113952145 0.02781362 0.14237876 -0.006236458 -0.12318796 -0.022009026 0.007910591
-0.100512505 -0.053786434 -0.07894005 -0.046795785 -0.12254973 0.23952374 -0.06949407 0.36662272
00000000: 4a90 a13e dbd5 c7be 06e9 83be c848 63be
00000010: 3934 12be 15c7 26bf 9c19 5dbe 901c d4bd
00000020: ea28 05be 042c 0dbf 7a81 8ebe 7118 14bd
00000030: 9f6c 4bbe 6720 e9bd 861a aebe 8219 98bd
00000040: 60f7 bd3d 3d1c 8bbe 997e e5be dc1e 58be
00000050: 25b4 903d ccad 6cbd 340a a3be a0be cfbd
00000060: bc0a 91be a9bc 38bd 8e4c 1bbe fc92 153b
00000070: ad38 4abe 5854 7bbe d974 573d 565d 33bd
00000080: 700e 1a3e 88e0 6bbe bdbd 1cbe 1883 2ebc
00000090: ec03 f2be 5522 babd d89b 46be 1119 073c
000000a0: 621e 2cbe 8c9a 7f3d de43 97be 43dc 8ebe
000000b0: a28c a7be c3d8 40be e33f 6fbe a94d a0be
000000c0: 7137 5cbe f2e4 e7be ec41 8bbd 67bb a6be
000000d0: 3b00 4cbe 4568 9abe 84a7 9ebd aee5 9dbe
000000e0: ea79 ecbd a77d a6be 25dc bd3c 1fe6 503c
000000f0: d584 86be 5e36 1ebe 28f2 7ebe 6b7a 5dbe
00000100: 1cd4 a4be b29b 37be 09c4 893b 5c15 a3bd
00000110: ec54 95be 82ef 56be 4ab3 4dbe f873 b5bd
00000120: fb42 993b 0b48 e2be 4fe5 1abe ed09 7cbc
00000130: ecf3 1bbe 8084 64bd cae6 99be 0f3a b8bd
00000140: 6698 b7be 38f0 29be 84fa 25bd 9b23 36bd
00000150: 9ca1 9fbe 246b 8bbd 000d 2abe d9e3 333c
00000160: 429a f53e 9f6c ecbe 3e44 86be 2fc8 09bf
00000170: 80b4 36be ccc0 43be 6b7d 08bf 3f38 51be
00000180: e61a 43be 24e8 cdbe 341d d3be 7d24 abbe
00000190: b7ac b2be 93c0 b9be 74b7 42be cc81 50be
000001a0: cfe0 853e a342 81be 05cb 11be 1336 46be
000001b0: 7de6 893d ee2e 0bbe 8e1b 4fbe 549c 71be
000001c0: 059d 81bf 4dff cbbe 0d97 12be 8356 97be
000001d0: b33a 22be fe81 03bf 6961 e53c 44d8 84bd
000001e0: c531 fd3d cedb c0bf 949c 81be 8ca6 b7bd
000001f0: 3524 5cbe 92d1 96bd 7631 0cbf 4d16 98bd
00000200: f4b3 b4be 676e bfbc 65cc 56be 51bd 36bf
00000210: d9c2 e13b c81e 44be e7ae 9cbe 1f0f 02bf
00000220: b892 69be 132e a9be fd32 71bd 3206 08bf
00000230: fac6 81be 1d90 d3be 041c 92be dff5 10bf
00000240: e434 71bd a802 3fbe 9545 833d 7553 a63d
00000250: 20d3 1fbf 717a 9ebe 7899 d4be 349d a8be
00000260: 060b e3be 0043 b0be 960e 4ebd 4b20 d4bd
00000270: 9a37 fcbe 1247 b5be 8294 8dbc 84a0 4ebe
00000280: 6205 223a bf18 dfbe 9887 42be a955 063d
00000290: fd14 90be 2979 24be 1bd9 0ebf 1696 5ebe
000002a0: a3bd 75be 9472 023b c3b6 cd3d 628f 67be
000002b0: e63a ebbe d592 2bbd 68b2 74be e91b 48bd
000002c0: 9ffc ae3d f957 6dbe 8144 04be c2ff 21bd
000002d0: d551 38be e6d4 31be 333a 043e ec45 9f3b
000002e0: 3e2d a0bd 798c acbd a196 9fbd 9424 7d3d
000002f0: b7a8 b23e 9469 49bc 7eac 923d b12c b4bd
00000300: 083a 7e3d ee36 fe3b 6a0d f1bd 0a10 0d3e
00000310: 9160 4d3c 01f0 e0bd 1dff c7bd 5d3c febd
00000320: de27 c4bd 1e08 203d a9df 103d 90a8 b23d
00000330: bfc1 bcbc 65bd 04bd 947e acbd fd20 73bd
00000340: df0a 8e3d 8f05 57bd 8559 edbd fb05 e13c
00000350: bd08 b4bd e4c8 48be 8d10 6dbd 965d 143d
00000360: 097d c1bb 718d a33e 91bf 60bd 6e23 93bd
00000370: 1ab5 85bd 392e 38be 1406 04bd e29f 56be
00000380: 1e7f ecbb 702d 83be c713 8b3e 23f6 4bbe
00000390: fc90 54be e070 c6bd 1af5 e73e 74ee 25bd
000003a0: 4e97 01bd 9911 a7bd e721 063e db15 28bd
000003b0: efc7 013c c3e9 abbc 6055 4c3d 3a5f aebe
000003c0: 2a88 bfbd be5f e9bd 64d9 e33c bdcb 113e
000003d0: 345b ccbb f849 fcbd 464c b4bc 6c9b 013c
000003e0: 80d9 cdbd 2a4f 5cbd 52ab a1bd f0ac 3fbd
000003f0: 5afb fabd b645 753e e852 8ebd f9b5 bb3e

final.linears.1.bias f4 [88]
-0.30022946 -0.64524144 -0.19967066 -0.32143372 -0.24491186 -0.21723329 -0.10470461 -0.16924569
-0.095594995 0.31404206 -0.38810784 -0.16141817 -1.3140718 -0.1403005 -0.15625764 -0.19303559
-0.47502077 0.09533546 -0.10319683 -0.34508535 -0.5031569 -0.09931347 -0.042034335 -0.30273396
-0.2354806 -0.27861807 -0.10399239 0.22355333 -0.17182206 -0.15481076 -0.5261645 -0.063728355
-0.54542625 -0.4528388 -0.12766495 -0.24245727 -0.3343752 -0.13824372 -0.5083284 -0.45675796
0.0950458 -0.3051106 -0.15434906 -0.43564683 -0.39138973 -0.18932031 0.01728735 -0.0864888
-0.16136521 -0.3478149 -0.17526555 -0.16428062 -0.51460326 -0.54084766 -0.31565434 -0.16896184
-0.22358863 -0.31069326 -0.13719432 -0.08258158 -0.55911404 -0.080690295 -0.24617904 -0.10745101
-0.4932474 0.4721494 -0.52566427 -0.13823077 -0.4296897 -0.07899211 -0.4592534 -0.38769263
-0.24858037 -0.32723325 -0.39781383 -0.20558168 -0.28880286 -0.28747723 -0.26816544 -0.31269142
-0.41475 -0.007906103 -0.21585983 -0.20121077 -0.45771936 -0.44463626 -0.036429536 -0.3601725
00000000: adb7 99be 8b2e 25bf 7776 4cbe f692 a4be
00000010: 2dca 7abe 6772 5ebe 5f6f d6bd be4e 2dbe
00000020: 4fc7 c3bd 1fca a03e 12b6 c6be ce4a 25be
00000030: 8133 a8bf efaa 0fbe 0102 20be 1fab 45be
00000040: ec35 f3be 3d3f c33d dc58 d3bd 07af b0be
00000050: e4ce 00bf dc64 cbbd 322c 2cbd f2ff 9abe
00000060: d421 71be 07a7 8ebe f6f9 d4bd 2aeb 643e
00000070: 1ff2 2fbe b686 1ebe b7b2 06bf 0384 82bd
00000080: 0ea1 0bbf 7dda e7be 9aba 02be b846 78be
00000090: 3a33 abbe c38f 0dbe cf21 02bf 2edc e9be
000000a0: 5fa7 c23d 7537 9cbe ae0d 1ebe 1a0d dfbe
000000b0: 3c64 c8be 2fdd 41be 339e 8d3c 0a21 b1bd
000000c0: ec3c 25be cb14 b2be d078 33be 2e39 28be
000000d0: 0abd 03bf fe74 0abf 729d a1be 5504 2dbe
000000e0: 6bf4 64be 3013 9fbe ab7c 0cbe 8820 a9bd
000000f0: 1922 0fbf f440 a5bd 5c16 7cbe 460f dcbd
00000100: ec8a fcbe 91bd f13e ef91 06bf 5e8c 0dbe
00000110: 4a00 dcbe 9ec6 a1bd 4323 ebbe a67f c6be
00000120: da8b 7ebe 1e8b a7be 41ae cbbe 0184 52be
00000130: f8dd 93be 3730 93be fb4c 89be 1719 a0be
00000140: 1d5a d4be 9988 01bc 5c0a 5dbe 320a 4ebe
00000150: 315a eabe 5da7 e3be 2337 15bd 8868 b8be

final.linears.2.weight f4 [12, 88]
0.14739648 0.106140524 0.004579453 0.005118007 -0.07441352 -0.27444384 0.27526155 -0.013240996
0.020716226 0.004582403 0.058802612 0.06366655 0.0015722809 0.016649874 0.010456577 0.009207265
-0.014566202 0.0054427763 0.11201794 0.4552059 -0.5768463 -0.08356389 0.013114503 0.0053409706
-0.13289604 0.09763638 -0.0058395723 -0.006503768 0.026357759 -0.0014655618 -0.5273087 0.021224944
-0.00094148715 -0.22802615 0.13250887 0.1577788 -0.14165245 0.0020602073 -0.106443875 0.007027622
0.0012076286 -0.0072434666 -0.0018138372 0.06311424 0.3503419 0.00023324309 0.034774046 -0.11971893
-0.009071857 0.272155 -0.003451311 0.07829716 -0.3149291 -0.55080676 -0.0002376955 -0.006061475
-0.12962066 -0.07011108 -0.028670086 0.09435118 -0.037173957 -0.007326052 -0.024913356 0.40950876
0.06924049 0.0028961455 -0.43202457 -0.012899869 0.25182417 -0.1643265 -0.08821152 -0.021288114
-0.004954685 0.5071997 -0.035072666 0.07231849 0.14640899 0.0057733776 -0.28144124 -0.09426994
0.7752994 0.020589197 -0.56941175 0.02683366 0.6618075 0.18311517 -0.05876008 -0.39796376
-0.3353923 -0.0013589859 -0.104850255 0.0064116623 0.035713658 0.049692243 -0.045206815 0.0072988304
-0.17286934 0.011532382 -0.31128436 -0.05073813 -0.0028468634 0.045966074 -0.0033286035 0.0061550313
0.01577451 -0.00089994364 -0.11880041 0.17072393 -0.5262281 0.06936002 -0.025604347 -0.003586219
0.12528262 0.016927335 -0.003511864 0.00018855129 0.069863565 0.170426 0.33684492 0.01725439
0.00029304496 0.40130535 -0.12504524 0.09909015 -0.01922543 -0.19772492 -0.31879243 -0.0031677997
-0.002993017 0.1394875 -0.010093735 -0.48816916 -0.48815882 -0.006760152 -0.03959842 0.21512333
0.003367985 0.40607277 -0.014714876 0.08832368 -0.4360057 0.50568134 -0.0022656943 -0.031305876
-0.0845072 0.057464868 -0.057802573 -0.3540386 0.1128967 0.014566164 0.12583083 -0.0036224884
0.33039212 0.0044379905 0.51979965 0.057067607 -0.0665692 -0.11134395 0.42977336 -0.017751254
0.07056265 0.334817 -0.62154025 0.1753984 0.103254676 0.0025433672 -0.23890541 -0.14469439
0.31670794 -0.11277673 0.1406592 -0.104898274 -0.21932344 0.38383192 -0.16491233 -0.06346382
0.31764114 0.55226696 0.004835255 1.106884 0.022228718 0.0034129932 -0.004781071 0.0036871939
0.009829848 -0.04602497 -0.08761288 0.009456539 0.649819 0.04247135 0.11665295 0.051283404
0.38615867 0.08730198 0.01990946 0.0015771374 0.05546657 0.0005277941 0.0013633572 -0.11415517
0.05089007 0.033249404 0.034622084 -0.20877382 -0.007382429 -0.056075178 0.20775393 -0.024404494
-0.15273131 0.021355312 -0.028266363 0.016197678 -0.20250475 0.07067626 0.10471965 -0.0032087937
0.09528235 0.0037393207 0.2049839 0.071043424 0.1092884 -0.14335388 -0.9629834 -0.5838132
0.15868409 0.023254521 1.3981805 0.017942274 -0.010274102 0.15319508 -0.116368175 -0.02913149
0.015493403 0.015840469 0.01890401 -0.5690679 0.32520255 -0.07062823 0.051320557 -0.8101055
0.045146365 -0.6287175 0.053952496 -0.021866186 0.1915631 0.0059567634 0.04883088 -0.21513465
0.0054602474 -0.16182902 -0.096637286 0.06130716 0.0047285 -0.09860755 -0.30676308 0.025132047
00000000: 1aef 163e 3460 d93d 3c0f 963b f4b4 a73b
00000010: 1e66 98bd e783 8cbe 15ef 8c3e c3f0 58bc
00000020: 13b5 a93c fc27 963b 02db 703d 9c63 823d
00000030: fe14 ce3a 5165 883c 1052 2b3c 12da 163c
00000040: 14a7 6ebc 5159 b23b a969 e53d bf10 e93e
00000050: 33ac 13bf 8b23 abbd 36de 563c 4f03 af3b
00000060: e615 08be 95f5 c73d e259 bfbb 8f1d d5bb
00000070: 3aec d73c 1818 c0ba b4fd 06bf efdf ad3c
00000080: 22ce 76ba b07f 69be 68b0 073e c490 213e
00000090: 570d 11be 8b04 073b 3fff d9bd f747 e63b
000000a0: 4b49 9e3a 9a5a edbb 47be edba 0a42 813d
000000b0: 0360 b33e b792 7439 3b6f 0e3d 332f f5bd
000000c0: 20a2 14bc e657 8b3e 642f 62bb 435a a03d
000000d0: 633e a1be ac01 0dbf e63d 79b9 569f c6bb
000000e0: 47bb 04be 6696 8fbd 87dd eabc 313b c13d
000000f0: b843 18bd 610f f0bb 1817 ccbc 22ab d13e
00000100: f5cd 8d3d 42cd 3d3b 5332 ddbe f959 53bc
00000110: 19ef 803e 3545 28be 3ea8 b4bd 6964 aebc
00000120: e95a a2bb d7d7 013f 5ba8 0fbd b71b 943d
00000130: 3dec 153e 9a2e bd3b 1119 90be 9910 c1bd
00000140: 057a 463f adaa a83c f8c4 11bf 44d2 db3c
00000150: 376c 293f 8b82 3b3e 69ae 70bd e8c1 cbbe
00000160: 8ab8 abbe 0020 b2ba bbbb d6bd ec18 d23b
00000170: 7c48 123d 188a 4b3d c82a 39bd 072b ef3b
00000180: a904 31be 51f2 3c3c aa60 9fbe c9d2 4fbd
00000190: 7192 3abb ec46 3c3d b324 5abb 25b0 c93b
000001a0: 8c39 813c 32ea 6bba a14d f3bd 41d2 2e3e
000001b0: e2b6 06bf a00c 8e3d 35c0 d1bc c506 6bbb
000001c0: 164a 003e 32ab 8a3c 4d27 66bb dab5 4539
000001d0: a114 8f3d 2784 2e3e f076 ac3e 1459 8d3c
000001e0: d4a3 9939 e577 cd3e dc0b 00be c7ef ca3d
000001f0: a67e 9dbc 6778 4abe c338 a3be dc9a 4fbb
00000200: 7e26 44bb d0d5 0e3e 3160 25bc 4ff1 f9be
00000210: f4ef f9be 4484 ddbb f431 22bd 4a49 5c3e
00000220: 69b9 5c3b c5e8 cf3e aa16 71bc 0ce3 b43d
00000230: 243c dfbe 5574 013f 0b7c 14bb 973a 00bd
00000240: 1c12 adbd 4860 6b3d 64c2 6cbd 8c44 b5be
00000250: 6336 e73d eca6 6e3c ccd9 003e 4567 6dbb
00000260: 2829 a93e 906c 913b 9711 053f b9bf 693d
00000270: 6f55 88bd 4c08 e4bd 410b dc3e 146b 91bc
00000280: 2783 903d 226d ab3e 431d 1fbf a39b 333e
00000290: 3077 d33d 9fae 263b 9fa3 74be c42a 14be
000002a0: 8b27 a23e 7cf7 e6bd f708 103e e8d4 d6bd
000002b0: 5396 60be 9e85 c43e c7de 28be 52f9 81bd
000002c0: dca1 a23e 5e61 0d3f 0f71 9e3b 60ae 8d3f
000002d0: 0019 b63c 86ac 5f3b 88aa 9cbb d9a4 713b
000002e0: 5f0d 213c ae84 3cbd 626e b3bd 99ef 1a3c
000002f0: 8a5a 263f 70f6 2d3d bee7 ee3d 8c0e 523d
00000300: 97b6 c53e 61cb b23d 2a19 a33c f3b7 ce3a
00000310: ea30 633d aa5b 0a3a adb2 b23a 30ca e9bd
00000320: 1b72 503d 8730 083d e3cf 0d3d cec8 55be
00000330: 4ee8 f1bb 16af 65bd 72bd 543e efeb c7bc
00000340: 9965 1cbe 56f1 ae3c dc8e e7bc feb0 843c
00000350: 685d 4fbe b7be 903d 4177 d63d a04a 52bb
00000360: 6523 c33d 640f 753b 4de7 513e 377f 913d
00000370: 99d2 df3d 5ccb 12be 1586 76bf c874 15bf
00000380: 157e 223e 4480 be3c 94f7 b23f adfb 923c
00000390: b554 28bc 2cdf 1c3e 7052 eebd 2aa5 eebc
000003a0: 0bd8 7d3c dfc3 813c 95dc 9a3c 6fae 11bf
000003b0: f380 a63e 89a5 90bd 8135 523d 1363 4fbf
000003c0: 65eb 383d a1f3 20bf 4bfd 5c3d b720 b3bc
000003d0: 1e29 443e f430 c33b e402 483d 424c 5cbe
000003e0: e0eb b23b 82b6 25be c5e9 c5bd 371d 7b3d
000003f0: 88f1 9a3b c1f2 c9bd 0d10 9dbe b9e1 cd3c

final.linears.2.bias f4 [12]
-0.035435688 -0.0693033 0.05578452 -0.21322858 -0.2940346 -0.11935332 0.015547428 0.01718625
-0.029068867 0.038239382 -0.005119342 -0.031220092
00000000: 0325 11bd e3ee 8dbd 4f7e 643d 9858 5abe
00000010: b48b 96be 836f f4bd a4ba 7e3c 2eca 8c3c
00000020: d521 eebc e6a0 1c3d 27c0 a7bb 47c1 ffbc

layers.0.attn.0.gnn_q.weight f4 [12, 16]
-9.1620785e-35 8.318254e-34 9.87878e-35 -2.0559063e-34 2.382797e-30 -9.92239e-35 -1.5455115e-34 -5.1062346e-32
-4.160569e-34 -1.0027173e-34 4.546047e-34 -1.8484604e-34 5.996771e-34 -2.0139189e-25 -1.834666e-34 -5.46285e-34
1.1339006e-35 -5.1403353e-34 8.8098425e-34 -3.4043145e-34 3.0529243e-30 1.694439e-34 -1.9871291e-34 -5.160946e-32
-2.667436e-35 2.062102e-34 -1.5170673e-34 -5.110691e-34 6.870552e-35 -3.7558706e-25 5.707151e-34 -9.433861e-35
1.3145048e-34 3.7443592e-36 7.1895364e-35 -2.1117758e-34 -1.33184375e-30 1.7281859e-34 2.0315887e-35 5.9656955e-32
-6.622354e-35 4.079625e-34 1.1363934e-34 5.6910746e-34 4.4066303e-34 1.7760359e-23 -5.9373288e-34 5.8649e-35
-7.6883924e-34 8.3470775e-35 -4.0679667e-34 2.686957e-34 6.2361527e-31 -4.3497933e-34 -9.0645423e-35 -2.4879588e-32
-5.1450947e-34 -2.5311116e-34 -2.9061005e-34 7.531593e-34 -6.760397e-34 1.1612198e-25 -4.018521e-34 6.0289732e-34
-4.918869e-34 -2.1026676e-34 2.900352e-34 -1.2124251e-34 3.8722386e-30 4.6525355e-34 9.4408526e-36 -6.454759e-32
4.6863975e-34 -6.9692626e-34 1.6701116e-34 7.788657e-34 5.4102155e-34 -2.8810803e-25 -4.528142e-34 9.417656e-34
1.4144842e-34 -1.931892e-34 2.008132e-34 -1.2964226e-34 -1.5696963e-30 3.3955332e-34 1.2278432e-34 3.1781418e-32
-9.755886e-35 -3.4129312e-34 -1.4255843e-34 1.8696588e-34 -6.463768e-34 3.4666007e-25 -5.7003085e-35 3.7642238e-34
-7.331484e-35 1.0070312e-35 -3.8138046e-34 -6.0175995e-35 -2.5913433e-30 1.3607154e-34 4.0961455e-34 4.987147e-32
1.1192986e-34 -4.913948e-34 3.020773e-34 5.2133707e-34 -4.902185e-34 6.202764e-27 -1.3151656e-34 -1.0980889e-34
-7.0873374e-34 2.448417e-34 5.511791e-34 8.534809e-34 -1.94224e-30 -4.37229e-34 6.3326144e-34 3.6083768e-32
-3.5016978e-35 -8.865933e-34 -1.2573445e-34 3.82557e-34 5.955878e-35 1.9128134e-25 3.4547017e-34 5.396781e-34
-9.224347e-34 -3.2860922e-34 -1.2337668e-37 -1.9560557e-34 -2.3967794e-30 1.0078021e-33 -1.6628217e-34 3.5656864e-32
-1.2199681e-34 4.052607e-34 -1.9852286e-34 -2.4115005e-34 6.0220915e-34 2.0837337e-25 2.7930926e-34 5.2913053e-35
-2.143621e-34 -1.3541997e-34 -3.132344e-34 -5.556752e-34 -2.4263595e-30 5.326098e-34 -4.7040134e-34 3.5676844e-32
3.2703757e-34 -3.3123987e-34 -1.9100721e-34 -5.245011e-34 -2.584e-34 -1.0860662e-25 1.7976658e-34 -5.6979546e-35
1.2480827e-34 -1.9870538e-34 1.9715782e-34 -4.3343723e-34 -1.7913684e-30 1.7999977e-34 1.7892024e-34 3.1337322e-32
1.2992686e-34 2.4325558e-35 -7.634822e-34 6.3300596e-34 8.843974e-35 1.8658212e-26 -2.1320097e-34 5.5385046e-34
1.9062947e-34 3.544809e-35 -1.5290987e-34 1.8955857e-34 -4.8458267e-30 -4.386336e-34 -2.5860876e-34 8.646138e-32
2.2755739e-34 -4.5485418e-35 -6.0647955e-34 -5.2529504e-34 8.098176e-34 6.5359966e-25 -2.3005857e-34 -4.964293e-34
00000000: e091 f386 f135 8a08 bf4f 0307 6fa3 8887
00000010: c250 410e 25e4 0387 086f 4d87 c090 848b
00000020: 3542 0a88 b448 0587 7e11 1708 d9b3 7587
00000030: e346 4708 a34f 7996 73de 7387 ca88 3588
00000040: 6c27 7105 23d1 2a88 ed60 9208 6941 e287
00000050: c2ae 770e c53a 6107 4011 8487 5ffc 858b
00000060: 42d3 0d86 d90c 8907 20a7 4987 f3d4 2988
00000070: 8ea6 b606 257a e896 12a7 3d08 88cb fa86
00000080: 48ba 2e07 7644 9f04 7321 bf06 015a 8c87
00000090: a01a d88d 1eb7 6507 1b09 d805 d9e0 9a0b
000000a0: 680d b086 9c91 0708 770d 1707 4f1e 3d08
000000b0: 776f 1208 85c4 ab19 354d 4588 71ea 9b06
000000c0: 9c7d 7f88 44e7 dd06 6f2e 0788 3494 b207
000000d0: ee5f 4a0d f38b 1088 14fa f086 a52e 018b
000000e0: a0f9 2a88 a238 a887 bd24 c187 b547 7a08
000000f0: 19a7 6088 86c0 0f16 cc89 0588 d558 4808
00000100: 1c75 2388 09bf 8b87 efc2 c007 b028 2187
00000110: a013 9d0e 659b 1a08 e4c8 4805 3b93 a78b
00000120: 76bb 1b08 ee97 6788 f4fe 5d07 4869 8108
00000130: 06c9 3308 8a54 b296 2c79 1688 477a 9c08
00000140: 6704 3c07 7065 8087 9876 8507 fa52 2c87
00000150: a2b2 fe8d 01ac e107 5735 2307 c004 250b
00000160: 8fad 0187 04d4 e287 1f7e 3d87 3185 7807
00000170: a8cb 5688 7b92 d616 4a8a 9786 f32c fa07
00000180: 7fe7 c286 fe2b 5605 8678 fd87 a9f9 9f86
00000190: 183c 528e bfde 3407 271e 0808 4779 810b
000001a0: c2c7 1407 3f4b 2388 cac3 c807 743e 2d08
000001b0: 2ee7 2288 80b7 f513 c4d0 2e87 07f6 1187
000001c0: 6684 6b88 a8b9 a207 2229 3708 10cf 8d08
000001d0: bf92 1d8e 544b 1188 ed6f 5208 8e5b 3b0b
000001e0: a42e 3a86 824f 9388 3721 2787 b340 fe07
000001f0: 9b55 9e06 7acb 6c16 b49a e507 bc56 3308
00000200: 0844 9988 f665 da87 80ee 2782 9000 8287
00000210: 2973 428e 2973 a708 e406 5d87 1a24 390b
00000220: 5d29 2287 c4ab 0608 eaf0 8387 8e45 a087
00000230: 4a1e 4808 14fa 8016 02a2 b907 c2aa 8c06
00000240: d277 8e87 0701 3487 122e d087 9ea7 3888
00000250: 84d9 448e 6efd 3008 5251 1c88 a93e 390b
00000260: 8f5a d907 8b25 dc87 63e4 7d87 9e4b 2e88
00000270: 7bbc ab87 d072 0696 66f3 6e07 457a 9786
00000280: 0ee6 2507 f80f 8487 aa08 8307 c308 1088
00000290: 4455 118e bf42 6f07 67d3 6d07 72b6 220b
000002a0: d2b3 2c07 3c56 0106 e2b5 7d88 315a 5208
000002b0: f81c eb06 30c8 b814 44b2 8d87 630c 3808
000002c0: d963 7d07 7179 3c06 8840 4b87 70f7 7b07
000002d0: f191 c48e d2c2 1188 00e0 ab87 7277 e00b
000002e0: e23c 9707 8bd7 7186 9389 4988 298f 2e88
000002f0: d58d 8608 8047 4a17 70e6 9887 89f7 2488

layers.0.attn.0.gnn_q.bias f4 [16]
-8.698993e-27 7.2880484e-34 6.1847657e-34 -7.5669074e-34 -2.9920949e-31 6.1890783e-34 2.4902917e-34 -2.3694914e-27
6.5592686e-34 -6.1027984e-34 -6.195552e-34 -6.7123446e-34 5.9233514e-34 -2.1889152e-16 1.0891175e-25 4.2322196e-34
00000000: 234d 2c94 dc2f 7208 2b86 4d08 2174 7b88
00000010: b432 c28c dbaa 4d08 1e82 a507 ffba 3b93
00000020: 16f8 5908 decc 4a88 ede1 4d88 500e 5f88
00000030: 4dd6 4408 605d 7ca5 83d3 0616 bea3 0c08

layers.0.attn.0.gnn_k.weight f4 [12, 16]
-3.2408196e-34 -1.2741e-34 -2.9276495e-34 7.92281e-34 4.5226773e-34 -7.752896e-35 -2.0930223e-34 6.336351e-36
8.0321047e-35 -4.241442e-34 -3.6883996e-34 -6.846992e-34 3.7273812e-34 -7.57793e-25 2.3547572e-34 -3.1007982e-34
7.942205e-35 7.1766327e-34 1.5835778e-34 -4.0354115e-34 1.914152e-34 -1.4808876e-35 -2.4085368e-35 3.5043943e-34
-1.391758e-34 -6.250231e-34 -4.6193443e-34 1.6492865e-34 -4.6125797e-34 -1.3010341e-24 8.899396e-34 6.4969825e-34
1.7621188e-34 -2.4530309e-35 1.8726264e-34 1.9514226e-34 -2.2958402e-33 1.7291722e-34 -4.9285246e-34 2.4683416e-34
2.8128035e-34 -3.5706883e-34 -1.1429317e-34 5.523945e-35 2.2570336e-34 9.698749e-24 -2.2873336e-34 -4.4100553e-34
6.177403e-34 9.690263e-35 7.878898e-34 -8.294876e-34 -2.6170887e-34 -4.5311005e-34 1.2090622e-34 -6.9006735e-34
-3.1464225e-34 5.97084e-34 1.06809e-34 1.2090287e-34 3.5977332e-34 4.448246e-25 1.4230728e-35 -1.8349273e-34
-5.6971886e-34 -4.8727235e-34 4.4906203e-34 4.0424783e-35 -9.205862e-35 6.1656165e-35 -9.5643776e-35 -5.3846333e-34
-4.1761027e-35 1.6651268e-34 2.4743862e-34 1.1592808e-34 5.915659e-34 -1.0684533e-24 1.6728693e-33 -2.3423791e-34
-1.2260073e-34 -8.490744e-34 -2.141406e-34 6.718508e-34 3.9916087e-34 -1.6114603e-34 -5.2374904e-34 6.295734e-35
-4.2062136e-34 8.5695185e-35 -4.572393e-34 1.2809601e-34 5.5667234e-34 1.2170388e-24 -2.3524142e-34 6.620529e-34
2.2852669e-34 3.793409e-34 8.453619e-34 -5.7431633e-34 4.7164566e-34 -1.4311203e-34 2.4254014e-34 2.4614202e-34
2.4885982e-35 -2.1820963e-34 -4.3200534e-35 2.0429435e-34 8.32848e-34 6.455314e-26 -4.620189e-34 3.3602183e-34
1.0589643e-35 -4.068224e-34 3.1293834e-34 1.3678037e-34 5.3718163e-34 2.8750838e-34 5.530989e-35 -7.018588e-34
5.008089e-34 4.957261e-34 -8.969062e-35 -2.253591e-34 1.7952565e-34 7.7199876e-25 -9.320445e-34 7.180879e-35
-1.1427978e-34 2.5596447e-34 5.864995e-36 4.266152e-34 1.8938696e-34 -4.246916e-34 -5.877472e-34 -9.68609e-34
-3.2982486e-35 -6.1361214e-34 6.2382117e-34 -2.3546339e-34 1.5367686e-34 7.458026e-25 -8.523958e-34 5.7782504e-35
-1.4814787e-36 6.493109e-34 -1.2451848e-34 1.3254979e-34 -3.21051e-34 -5.155246e-34 -7.0344346e-34 -3.7052105e-34
-4.98139e-34 1.680203e-34 -2.7453345e-34 2.5423394e-36 -1.8566225e-34 -3.3028164e-25 -6.1791073e-34 -6.412047e-34
1.8533992e-34 -1.2741754e-34 8.72745e-34 -5.4187525e-34 6.505038e-34 6.6787916e-34 5.1086663e-34 1.4859682e-35
4.7220587e-35 5.295262e-34 -1.2813514e-35 6.062104e-36 8.858855e-35 1.0290321e-25 -1.5484927e-34 -1.8593182e-34
-6.1260636e-34 1.7950207e-34 -2.3851042e-34 3.1223088e-34 -1.6827539e-34 4.0489765e-34 -7.4140697e-34 2.9090321e-34
-3.6995588e-34 -7.5208363e-34 -2.6512726e-34 6.671817e-35 -6.65002e-34 2.2920695e-24 -1.4102193e-33 3.3337112e-35
00000000: b063 d787 605b 2987 6093 c287 e8a3 8308
00000010: af4a 1608 7a1b ce86 ee1a 8b87 60c2 0605
00000020: ac87 d506 33f2 0c88 de22 f587 c487 6388
00000030: 1bba f707 8c86 6a97 1e80 9c07 5915 ce87
00000040: d923 d306 0a7c 6e08 5c7e 5207 7c19 0688
00000050: 386f 7e07 9879 9d85 4e0f 0086 2ee8 e807
00000060: 12ff 3887 16b3 4f88 0981 1988 503a 5b07
00000070: 7d47 1988 4553 c997 d8dd 9308 37e6 5708
00000080: cc39 6a07 ed6c 0286 2dea 7807 bcb1 8107
00000090: 1fbb 3e89 aed8 6507 40c7 2388 a80c a407
000000a0: 5ff1 ba07 1d50 ed87 f3eb 1787 06da 9206
000000b0: 7001 9607 e199 3b19 f704 9887 9a8c 1288
000000c0: 8847 4d08 42ce 0007 20e9 8208 80d2 8988
000000d0: 75ef ad87 5792 1688 41b6 2007 7050 6588
000000e0: 9b1d d187 4a6a 4608 38f9 0d07 1db5 2007
000000f0: 421c ef07 a3aa 0917 ba53 9705 57e7 7387
00000100: 5252 3d88 8cec 2188 f939 1508 5def 5606
00000110: dabb f486 03e9 a306 c843 fe86 65ef 3288
00000120: 2a0a 5e86 5455 5d07 8073 a407 4818 1a07
00000130: dc94 4408 cc55 a597 fff9 0a09 84ad 9b87
00000140: def6 2287 a113 8d88 2352 8e87 bf42 5f08
00000150: daa4 0408 2733 5687 a40b 2e88 8c5e a706
00000160: 82c6 0b88 1fd1 e306 9ef1 1788 d044 2a07
00000170: 72fc 3808 e053 bc17 4158 9c87 3b01 5c08
00000180: cde1 9707 821d fc07 b875 8c08 6ed9 3e88
00000190: 2dbb 1c08 803a 3e87 1132 a107 e596 a307
000001a0: 0b51 0406 7206 9187 85b1 6586 e2c6 8707
000001b0: 7061 8a08 6ad3 9f15 3988 1988 2753 df07
000001c0: 8037 6105 9f30 0788 b3fb cf07 f3cf 3507
000001d0: 5c82 3208 0415 bf07 f609 9306 8b3b 6988
000001e0: 1c6c 2608 b6bb 2408 4670 ee86 ddc6 9587
000001f0: 6aa1 6e07 0bec 6e17 cadc 9a88 88e6 be06
00000200: 65e7 1787 191e aa07 2478 f904 68c4 0d08
00000210: 0bbd 7b07 c420 0d88 0150 4388 12f0 a088
00000220: 6f5d 2f86 59e8 4b88 d64c 4f08 057e 9c87
00000230: 8745 4c07 92d0 6617 e8a0 8d88 bc9c 9906
00000240: 800f fc83 43c5 5708 7183 2587 5b30 3007
00000250: ff5f d587 fc4f 2b88 5ac2 6988 e440 f687
00000260: fb88 2588 5856 5f07 7275 b687 4047 5804
00000270: 97c9 7687 376f cc96 0856 4d88 aa13 5588
00000280: e85b 7607 f15d 2987 7702 9108 a611 3488
00000290: be2a 5808 e0f0 5d08 bac3 2908 e703 9e05
000002a0: 5511 7b06 1bf7 2f08 b441 8885 3ced 0005
000002b0: 3e82 eb06 a8c6 fe15 7ad4 4d87 5225 7787
000002c0: c992 4b88 6499 6e07 7284 9e87 5583 cf07
000002d0: 26ad 5f87 e28c 0608 ee5f 7688 9e56 c107
000002e0: bbe0 f587 33ec 7988 1135 b087 095e b106
000002f0: 1dfc 5c88 1d57 3118 1850 ea88 2040 3106

layers.0.attn.0.gnn_k.bias f4 [16]
-3.400451e-27 5.910239e-34 1.4847987e-34 -5.890533e-34 4.389253e-22 6.5566485e-34 2.3587033e-28 -7.4550195e-24
3.666225e-34 -4.1764745e-34 -6.16642e-34 -4.5409473e-35 3.5920981e-34 -6.156017e-17 8.6885666e-35 6.3514494e-34
00000000: acb4 8693 c166 4408 155d 4507 1dbf 4388
00000010: 33a8 041c cce1 5908 2680 9511 7833 1099
00000020: 96a9 f307 84c9 0a88 1aea 4c88 2c70 7186
00000030: 62bc ee07 b6f2 8da4 52fb e606 2810 5308
