checkpoints/cyp2c19_veith_33_train1_pos/Aug23-14:49:54_600.pth (torch, 421311 bytes, 294 tensors)

layers.0.weight f4 [17, 16]
0	0x3ee63b0b	0.4496692
1	0x3ec1f7ca	0.3788436
2	0x3e1d191e	0.15341613
3	0x3ea86588	0.32889962
4	0xbf3904cd	-0.7227295
5	0xbe50bc68	-0.20384371
6	0xbde3a8fa	-0.11116214
7	0x3ebc1ba9	0.36739853
8	0x3eb6e6aa	0.35722858
9	0x3e84e8eb	0.25958952
10	0x3e851a10	0.25996447
11	0x3b182490	0.0023215152
12	0xbe069501	-0.13142778
13	0x3f7dd67b	0.99155396
14	0x3f388b5c	0.72087646
15	0xbf398e95	-0.7248319
16	0xbe958ea1	-0.2921038
17	0x3e98d889	0.29852703
18	0xbe4e9e14	-0.2017749
19	0x3e56742a	0.2094275
20	0x3e1b34ba	0.15156832
21	0x3d3b5a55	0.045740444
22	0xbeb8d6d6	-0.36101407
23	0x3ec7de78	0.39036918
24	0xbf035cd6	-0.5131353
25	0xbeaf54a1	-0.34244254
26	0xbfa2812f	-1.2695674
27	0x3b9ece00	0.0048463345
28	0x3e7777db	0.24166815
29	0xbf36e99d	-0.71450216
30	0x3fca8719	1.5822479
31	0xbf9f1a06	-1.2429817
32	0x3f17dbc8	0.59319735
33	0x3e87d738	0.26531386
34	0x3e093a0f	0.13401054
35	0x3f757ba2	0.95891774
36	0x3e299743	0.16561608
37	0x3f36a817	0.71350235
38	0xbd20e46d	-0.039280344
39	0xbf47601e	-0.7788104
40	0x3f1535ec	0.58285403
41	0xbee5f480	-0.449131
42	0x3f24e03d	0.6440466
43	0x3ff23d8a	1.892503
44	0x3eef239a	0.4670685
45	0xbe628997	-0.22122799
46	0x3edcb9c8	0.4311049
47	0x3e6de4b4	0.23231775
48	0x3ebcb8be	0.36859697
49	0x3da3e6e7	0.080030255
50	0x3c3202ba	0.010864908
51	0x3c32c3aa	0.010910908
52	0x3d447430	0.047962368
53	0x3df8b5b6	0.121440336
54	0x3f67680d	0.90393144
55	0x3dc2fa43	0.0952039
56	0x3e4c216e	0.19934627
57	0xbf266f46	-0.6501354
58	0x3ee53a8e	0.44771236
59	0xbedd7d96	-0.43259877
60	0x3ed2baaf	0.41158053
61	0xbdcdb7b8	-0.10044807
62	0x3e813beb	0.25241026
63	0x3db1ae08	0.08675772
64	0x3e90decd	0.28294984
65	0x3e857f31	0.26073602
66	0x3e37cbba	0.1794881
67	0xbea67734	-0.3251282
68	0xbdb43ea9	-0.08801014
69	0xbf06ae6c	-0.52609897
70	0x3f1cfd98	0.61324453
71	0xbf322ba9	-0.6959787
72	0x3ec0c9e9	0.37654045
73	0xbfaa4fa6	-1.3305557
74	0x3edb035a	0.42775995
75	0xbeaef3c8	-0.34170365
76	0xbd38c041	-0.045105223
77	0xbde908a7	-0.113786034
78	0x3e8af79c	0.27142036
79	0x3e632733	0.22182922
80	0x3e0c1f00	0.136837
81	0xbe6cb1c1	-0.23114683
82	0x3dd8641a	0.10565968
83	0xbda71cd9	-0.08159799
84	0x3e600a15	0.21878846
85	0xbe271929	-0.16318192
86	0x3f01db82	0.5072557
87	0xbe69a3e4	-0.22816426
88	0xbe3a0aff	-0.18168257
89	0x3e3ed710	0.18636727
90	0x3f0847b3	0.53234404
91	0xbdfeb9e1	-0.12437797
92	0x3f0c5165	0.548117
93	0x3e502e53	0.20330171
94	0x3e78eb9a	0.24308625
95	0xbd4be38e	-0.04977756
96	0x3f97fb85	1.1873633
97	0x3d140484	0.03613712
98	0xbdcab509	-0.09897811
99	0xbc790eb8	-0.015201263
100	0xbe960382	-0.2929955
101	0xbcc8abbd	-0.024495954
102	0xbefb447f	-0.49075696
103	0x3e3199f5	0.17343886
104	0xbf4bcc1f	-0.7960834
105	0xbea57548	-0.3231604
106	0xbf949afc	-1.1609797
107	0xbd026eff	-0.031844135
108	0x3c546d14	0.012965459
109	0xbcb816d4	-0.022471823
110	0x3f9bea2c	1.2180839
111	0xbf18a688	-0.59629107
112	0x3fabcfbb	1.3422769
113	0xbf1b606c	-0.60694003
114	0x3d80eed3	0.06295552
115	0x3d078fa0	0.033095956
116	0x3e4a9424	0.19783074
117	0xbe87d640	-0.26530647
118	0xbe8740a3	-0.264165
119	0x3d3359b1	0.04378671
120	0x3db75006	0.0895081
121	0xbf067c20	-0.5253315
122	0xbe9725db	-0.2952107
123	0xbbbdbb89	-0.005790178
124	0xbdcedca6	-0.10100679
125	0xbf1bc8ab	-0.6085307
126	0xbf775b6a	-0.9662386
127	0xbec90906	-0.39264697
128	0xbe4a6279	-0.19764127
129	0xbf3cb084	-0.7370684
130	0x3ee2accc	0.4427246
131	0xbd1117bf	-0.035423037
132	0xbf225e95	-0.6342557
133	0x3e9046ae	0.28178924
134	0xbefa95b3	-0.48942336
135	0x3e0c90df	0.13727139
136	0xbf5e982b	-0.8695094
137	0xbe63150f	-0.22176002
138	0x3eff018e	0.49805874
139	0xbc23d018	-0.009998344
140	0xbce081ba	-0.027405608
141	0xbf57b0d9	-0.84254223
142	0x3f2c24c4	0.672436
143	0xbe59ccbb	-0.21269505
144	0x3b4d8de5	0.0031365093
145	0xbecc67cd	-0.39922944
146	0xbdfa8d62	-0.12233998
147	0x3ed4250d	0.41434518
148	0x3f5862b2	0.845256
149	0xbea44194	-0.32081282
150	0x3ed7be40	0.42137337
151	0x3e0de1f9	0.13855733
152	0xbe5478e6	-0.20749244
153	0xbd5da924	-0.054116383
154	0x3f535e18	0.8256545
155	0xbdc134e3	-0.094339155
156	0x3ea40706	0.32036608
157	0x3d07c456	0.033146225
158	0x3e762126	0.24036083
159	0xbe97e0d5	-0.2966372
160	0x3f56518e	0.8371819
161	0x3ea93f64	0.33056176
162	0xbe68d1aa	-0.2273623
163	0xbcfefd7b	-0.031126728
164	0x3dfca0d0	0.1233536
165	0xbe6758c5	-0.22592457
166	0x3e144e5e	0.1448302
167	0x3e2dbe65	0.16967161
168	0x3ea23de7	0.31687853
169	0xbec74783	-0.38921747
170	0xbdb16f37	-0.08663791
171	0xbde3a9c4	-0.111163646
172	0x3f172848	0.5904584
173	0x3ef2b458	0.47403216
174	0xbee0dbab	-0.43917593
175	0xbdc2bfff	-0.095092766
176	0xbf86cdc4	-1.0531545
177	0xbe6e4697	-0.23269115
178	0x3eb850a8	0.35999036
179	0xbed4c9cd	-0.41560212
180	0x3ef1d141	0.4722996
181	0x3eadf4a8	0.3397572
182	0x3e9fc486	0.31204623
183	0xbe6da5cb	-0.23207776
184	0x3f8a2a31	1.0794126
185	0x3f101f08	0.5629735
186	0x3f8eb016	1.1147487
187	0x3c6d9264	0.014500234
188	0x3d81eec1	0.06344367
189	0x3ed746bc	0.42046154
190	0x3e1667a7	0.14687978
191	0xbf9e9442	-1.2388995
192	0x3f2f164e	0.6839341
193	0x3f749d63	0.95552653
194	0xbec8ed49	-0.39243534
195	0xba5eb315	-0.0008495313
196	0x3d43d44e	0.04780989
197	0x3c342e1e	0.010997323
198	0x3ebbadc6	0.36656016
199	0x3e22d0a7	0.15899907
200	0xbf2b15ce	-0.66830146
201	0x3e276c33	0.16349868
202	0x3f99ec62	1.2025263
203	0x3b6a94f4	0.003579435
204	0xbebc1416	-0.36734074
205	0xbf6fec16	-0.93719614
206	0xbfaec06c	-1.3652472
207	0xbf893e27	-1.0722092
208	0x3ec2e6a0	0.38066578
209	0xbe0550eb	-0.13019149
210	0x3e5c6a09	0.21524824
211	0x3ef3ac86	0.47592562
212	0xbee55a8e	-0.4479565
213	0xbe944f50	-0.2896676
214	0xbe36a535	-0.17836459
215	0x3eb39569	0.35074928
216	0x3eed7e1a	0.4638527
217	0xbe874b03	-0.26424417
218	0x3e0238a5	0.1271692
219	0x3c8241f3	0.015900588
220	0xbee75c53	-0.45187625
221	0x3f3d15ec	0.73861575
222	0xbde34134	-0.11096421
223	0x3eccb5b8	0.3998239
224	0xbf8fac07	-1.1224374
225	0xbda99aac	-0.082814544
226	0x3da5b5cb	0.08091315
227	0x3c2cd8b6	0.010549715
228	0xbf33b598	-0.70198965
229	0xbe5cb398	-0.21552885
230	0xbd56924a	-0.052385606
231	0xbd74827d	-0.059694756
232	0x3f74c4d6	0.9561285
233	0x3e9221e0	0.2854147
234	0x3f5a6110	0.85304356
235	0x3c9434fd	0.018091673
236	0x3efe6739	0.49688128
237	0xbf8db09c	-1.1069522
238	0xbf5cefdf	-0.86303514
239	0xbeb077f3	-0.34466514
240	0x3f8ffef3	1.1249679
241	0xbd2f5639	-0.042806838
242	0xbd5e7753	-0.054313015
243	0xbe6dc71e	-0.23220488
244	0xbe6c79db	-0.23093359
245	0x3e105ef6	0.14098725
246	0xbdc3f2ac	-0.0956777
247	0xbd891439	-0.0669331
248	0xbed731d2	-0.42030197
249	0x3ca4a426	0.020097803
250	0x3d9e802f	0.07739293
251	0xbd5b427e	-0.05353021
252	0xbe06815e	-0.13135287
253	0xbeb915a2	-0.36149317
254	0xbe858924	-0.26081192
255	0xbecaf96d	-0.39643422

layers.0.bias f4 [16]
0	0x3e3fcc34	0.18730241
1	0x3ebd383f	0.36956975
2	0x3f1f5a34	0.62247014
3	0xbf1ebbaf	-0.6200513
4	0x3f091aad	0.5355633
5	0xbed749fa	-0.42048627
6	0xbee62c4c	-0.4495567
7	0x3f2bb850	0.67078114
8	0x3d95989f	0.07304501
9	0x3f12d59d	0.573572
10	0x3da9916c	0.0827969
11	0xbe101cc2	-0.1407347
12	0xbde85b6a	-0.11345561
13	0xbf0c31b4	-0.5476334
14	0x3e8dca0f	0.2769322
15	0x3efebc6a	0.49753124

layers.1.weight f4 [16, 16]
0	0x3dcc1714	0.09965339
1	0x3e92cd95	0.28672472
2	0x3f7d2751	0.9888812
3	0xbec1c088	-0.37842202
4	0xbf1d4e79	-0.61447865
5	0x3f092540	0.53572464
6	0x3e3991b9	0.18121995
7	0xbe9f4708	-0.3110888
8	0xbe9ae874	-0.30255473
9	0xbcdbc277	-0.026826127
10	0xbe8acd96	-0.27109975
11	0xbf9e5c34	-1.2371888
12	0xbe78878a	-0.24270454
13	0xbf15f26b	-0.58573025
14	0x3e425019	0.18975867
15	0x3e1e331e	0.15449187
16	0x3d64b375	0.055835206
17	0x3d458ff4	0.048232988
18	0xbe96be5f	-0.29442117
19	0xbe8062d5	-0.25075403
20	0xbebcf47a	-0.3690527
21	0xbae3f5af	-0.0017391945
22	0x3dd00158	0.10156506
23	0xbe99f425	-0.3006908
24	0xbeb0d427	-0.3453686
25	0xbd5e04a0	-0.05420363
26	0xbe4ad1a0	-0.19806528
27	0x3e6a2061	0.22863914
28	0xbdbb2a75	-0.091389574
29	0xbd82fea5	-0.06396226
30	0x3ed4dc70	0.4157443
31	0xbec22e35	-0.37925878
32	0xbe8c2870	-0.273746
33	0xbd2f08d9	-0.042733047
34	0xbed9c098	-0.4252975
35	0xbd8d822c	-0.06909594
36	0x3d842e32	0.064541236
37	0xbdebabc9	-0.11507375
38	0x3ebf3e4d	0.3735222
39	0x3ed6bf4b	0.4194282
40	0xbf02313f	-0.50856394
41	0xbd1afc90	-0.03783852
42	0x3ee67fe7	0.45019457
43	0x3f41e614	0.75741696
44	0x3dd4555f	0.10367846
45	0x3f0a9e96	0.5414823
46	0x3f15e90a	0.58558714
47	0xbe3f7407	-0.18696605
48	0x3d8570fb	0.0651569
49	0x3f04ea95	0.51920444
50	0x3ec33a7b	0.38130555
51	0x3b531a1b	0.0032211605
52	0xbf35de38	-0.71042204
53	0xbef8c424	-0.48587143
54	0xbd96bcff	-0.07360267
55	0xbeb3c845	-0.3511373
56	0xbec6d595	-0.38834825
57	0xbed97871	-0.42474702
58	0xbd6d03b8	-0.057864875
59	0xbe13b27c	-0.14423555
60	0xbef8f37e	-0.4862327
61	0xbf8e1471	-1.1099988
62	0x3dfe9861	0.12431408
63	0xbdeee1f2	-0.116641894
64	0x3c2da09a	0.010597372
65	0x3d8e6aca	0.06953962
66	0x3dd6cf01	0.104887016
67	0xbe2ead65	-0.17058332
68	0xbe3e5f61	-0.18591072
69	0xbed9308f	-0.4241986
70	0xbd2d823b	-0.042360526
71	0xbe9837a8	-0.29729962
72	0xbe9b20aa	-0.30298358
73	0xbe36f504	-0.17866904
74	0x3e94baaf	0.29048678
75	0xbe8cee9f	-0.27525803
76	0xbe6587a3	-0.22415023
77	0x3ccb25d7	0.024798317
78	0x3ed426ab	0.4143575
79	0x3e842759	0.2581127
80	0x3f163d66	0.58687437
81	0x3eba5e21	0.3639994
82	0xbee97903	-0.45600137
83	0xbe3df8d6	-0.18551955
84	0xbf34830f	-0.7051248
85	0xbc9bf946	-0.019039761
86	0xbdf49982	-0.11943342
87	0x3ec2b376	0.38027543
88	0xbe897547	-0.26847288
89	0xbe26153d	-0.1621904
90	0xbf14505f	-0.57935137
91	0x3eca22f3	0.3947979
92	0xbd9b21b8	-0.07574791
93	0xbf57da17	-0.84317154
94	0x3d1718bc	0.036888823
95	0x3e579c59	0.21055736
96	0xbf0be0e8	-0.54640055
97	0x3e1a25a3	0.1505342
98	0x3f1ee6ee	0.6207112
99	0x3e0e7814	0.13912994
100	0xbdfb8388	-0.12280947
101	0xbe72a017	-0.23693882
102	0xbdbf8b6e	-0.09352766
103	0xbe38c1b9	-0.1804265
104	0x3d078c4c	0.033092782
105	0x3f176efc	0.59153724
106	0x3f026f81	0.5095139
107	0xbec4ceac	-0.38438928
108	0x3eb01c59	0.34396628
109	0xbf4181d0	-0.75588703
110	0xbf03dc85	-0.5150836
111	0x3e31c765	0.17361219
112	0x3d015201	0.031572346
113	0xbf0519e0	-0.5199261
114	0xbdb0bddb	-0.08629962
115	0x3dbcf20f	0.092258565
116	0x3f3f2648	0.7466779
117	0x3deea25e	0.11652063
118	0xbd8f1fa4	-0.06988457
119	0xbd75a6a7	-0.059973385
120	0x3e85adc0	0.26109123
121	0x3e813b63	0.2524062
122	0x3f00ba0a	0.50283873
123	0xbd5f1e05	-0.05447199
124	0xbdf1ae39	-0.118008085
125	0x3f80bf88	1.0058451
126	0x3d878a87	0.06618219
127	0xbeae835b	-0.3408459
128	0x3d905b41	0.07048655
129	0x3ed37a2c	0.41304147
130	0xbe6ec37b	-0.23316757
131	0xbecd1466	-0.40054625
132	0xbf32d62f	-0.6985807
133	0xbf33c6f3	-0.7022545
134	0xbe4d65fa	-0.20058432
135	0xbf28b0b0	-0.65894604
136	0xbe8017e6	-0.25018233
137	0xbce55ed7	-0.027999325
138	0xbc541581	-0.01294458
139	0xbdf63d00	-0.120233536
140	0x3f1a18d5	0.6019414
141	0xbf0f5f63	-0.56004924
142	0x3e130ab2	0.14359549
143	0xbea7cdef	-0.32774302
144	0x3dca59d0	0.098804116
145	0xbe82bde0	-0.25535488
146	0x3c943e02	0.018095974
147	0x3dfd0837	0.123550825
148	0x3f39bde3	0.7255537
149	0xbe8c844c	-0.27444685
150	0xbeec21db	-0.4611958
151	0xbe238f3a	-0.15972605
152	0x3e11e23e	0.14246461
153	0xbe6b6cb2	-0.22990683
154	0x3da08593	0.07837977
155	0xbe2ffca0	-0.17186213
156	0x3e7cec9f	0.24699639
157	0x3f8f9dd9	1.1220046
158	0x3ec28b9c	0.37997139
159	0xbda977b2	-0.08274783
160	0xbd919fdc	-0.07110569
161	0x3ea80cba	0.3282221
162	0xbf7b040e	-0.9805306
163	0xbecc10d7	-0.39856598
164	0xbf43a159	-0.7641807
165	0x3eb2a2e8	0.34889913
166	0xbe1acb1c	-0.15116543
167	0xbf1c3ee8	-0.6103349
168	0xbe4a4047	-0.19751082
169	0x3d256b01	0.04038525
170	0x3cd6c7c9	0.026218312
171	0x3f4d4b2b	0.8019282
172	0x3e2f91bb	0.17145436
173	0xbf489ff1	-0.7836905
174	0x3d8471d3	0.06467023
175	0x3f2eec6e	0.68329513
176	0x3f43504c	0.762944
177	0xbe9c10fa	-0.30481702
178	0x3eb0943e	0.344881
179	0xbfad22b2	-1.3526213
180	0xbf0e5b9b	-0.5560853
181	0x3e11bfbf	0.14233302
182	0x3daeef83	0.08541777
183	0x3ea580fa	0.32324964
184	0x3e942fa2	0.2894259
185	0x3ef2f63f	0.47453496
186	0x3f2573d4	0.64629865
187	0xbdc3d392	-0.09561838
188	0x3e8b000f	0.27148482
189	0xbe241d8a	-0.16026893
190	0xbd6646a7	-0.056219723
191	0xbe8dc1ca	-0.27686912
192	0xbc105a97	-0.008810661
193	0x3e514bca	0.20439067
194	0xbf130769	-0.5743318
195	0xbe8b312b	-0.2718595
196	0xbece6d67	-0.40317842
197	0x3e5fd8ee	0.21860096
198	0x3e58a795	0.21157677
199	0x3e3c4c6f	0.18388532
200	0xbe2a46c5	-0.16628559
201	0x3d0fd78d	0.035117675
202	0xbe23c817	-0.15994297
203	0x3f4f327e	0.8093642
204	0xbe262893	-0.16226415
205	0xbf01e2d8	-0.5073676
206	0x3ddb4de5	0.107082166
207	0x3e537bec	0.20652741
208	0xbdd8853b	-0.10572287
209	0xbdad3e46	-0.08459143
210	0xbe418247	-0.18897353
211	0x3ea339c1	0.3188
212	0x3eff197e	0.49824136
213	0xbee2af95	-0.44274583
214	0x3c404e20	0.011737376
215	0x3ebb6ef0	0.36608076
216	0x3e806fb5	0.25085226
217	0xbd1c2375	-0.038119752
218	0x3e65a7bd	0.22427268
219	0x3f0557a2	0.5208684
220	0x3ea0f880	0.3143959
221	0x3e9eaadf	0.3098974
222	0xbe865d6a	-0.26243144
223	0xbe1dbdf9	-0.154045
224	0x3db9f0c2	0.09079124
225	0x3e8426be	0.25810808
226	0x3e601769	0.2188393
227	0xbee1af3c	-0.44079006
228	0xbf3a78e6	-0.72840726
229	0xbeb3379d	-0.35003367
230	0xbdd986f9	-0.10621447
231	0x3f92749b	1.1441835
232	0xbe6508f6	-0.223667
233	0x3d47b3f8	0.048755616
234	0xbea56cfe	-0.32309717
235	0xbf361bcb	-0.7113616
236	0xbe5dc9bf	-0.21658991
237	0xbf31e43e	-0.69488895
238	0x3d8376fe	0.0641918
239	0xbef18f11	-0.47179464
240	0x3e626bae	0.22111389
241	0xbdb52a20	-0.08845925
242	0xbed95248	-0.42445588
243	0xbe86a253	-0.2629572
244	0xbeb9bab3	-0.36275253
245	0xbf381704	-0.7191012
246	0x3a92237a	0.0011149489
247	0xbede8b35	-0.43465582
248	0xbe1d95c8	-0.15389168
249	0x3ced5dfd	0.028975481
250	0xbeab2557	-0.33426926
251	0x3e0c1a16	0.13681826
252	0xbe1c34ec	-0.15254563
253	0xbe57df9e	-0.21081397
254	0x3e84f5d9	0.25968817
255	0x3e1418bb	0.14462559

layers.1.bias f4 [16]
0	0xbec46455	-0.38357797
1	0xbea49c8d	-0.3215069
2	0x3ec9b441	0.39395335
3	0x3ce09e9a	0.027419377
4	0xbca55d60	-0.020186126
5	0x3e38e2f6	0.18055329
6	0xbdaa1d25	-0.0830634
7	0x3e99f6a5	0.30070987
8	0x3e15ef7f	0.14642142
9	0x3d659ce4	0.056057826
10	0xbe0186d7	-0.12649094
11	0x3d89368f	0.06699859
12	0x3e2f9a9b	0.17148821
13	0xbf005400	-0.50128174
14	0xbe30068d	-0.17189999
15	0x3e890be8	0.26766896

final.linears.0.weight f4 [98, 49]
0	0x3dd57d32	0.1042427
1	0xbef60cdb	-0.48056683
2	0xbe831152	-0.25599152
3	0xbe9d06e7	-0.3066933
4	0xbea233f0	-0.3168025
5	0xbd811130	-0.063021064
6	0x3f828b2e	1.0198724
7	0x3e4c3892	0.19943455
8	0xbeb09404	-0.34487927
9	0xbe919d0e	-0.28440136
10	0xbfa250dd	-1.2680928
11	0x3fdf8458	1.7462263
12	0xbfd4cc09	-1.6624767
13	0x3e98938c	0.2980007
14	0xbfd4d6d7	-1.6628064
15	0x3fb32eb3	1.3998626
16	0x3fa2d057	1.271983
17	0x3dbb7a55	0.09154192
18	0xbe9d5dc4	-0.307356
19	0xbe3043be	-0.17213342
20	0xbe97c456	-0.2964198
21	0xbbc1bd1a	-0.0059124352
22	0x3e85985b	0.260928
23	0x3d979ac9	0.0740257
24	0xbe855248	-0.26039338
25	0x3df6ab6a	0.120444134
26	0x3e2a14a2	0.16609433
27	0x3e0c3447	0.13691817
28	0xbbcf4f90	-0.0063266233
29	0xbde04a3c	-0.10951659
30	0x3e40dd2f	0.18834375
31	0x3e77b25f	0.24189137
32	0xbd6c949f	-0.057758924
33	0x3cbcbc58	0.023039028
34	0x3cd87c17	0.026426358
35	0x3c40a9d4	0.01175924
36	0x3d8f65e4	0.07001856
37	0xbd0ecfe8	-0.034866244
38	0xbddad685	-0.106854476
39	0x3c197d08	0.009368189
40	0x3e3f544d	0.18684502
41	0x3c63ae7a	0.013896579
42	0xbd3e7944	-0.046502367
43	0xbd95b9d4	-0.073108345
44	0xbe7074d7	-0.23482071
45	0x3e763811	0.24044825
46	0xbabf44c3	-0.0014592636
47	0x3cd96306	0.026536476
48	0x3e3c1db0	0.183707
49	0x3eebfaa1	0.46089652
50	0xbeff4e6d	-0.49864522
51	0xbea0fadf	-0.314414
52	0x3f45037a	0.7695843
53	0xbdf1ef35	-0.11813203
54	0xbd191deb	-0.037382048
55	0x3dce1a3d	0.10063598
56	0x3ea02ced	0.31284276
57	0x3daba8b2	0.083817855
58	0xbf8d951a	-1.1061127
59	0xbdbb5b5c	-0.09148285
60	0x3e93e300	0.28884125
61	0xbe3fbc31	-0.18724133
62	0xbf6a4b3a	-0.91521037
63	0x3f0c9283	0.5491106
64	0xbe5a39d4	-0.21311122
65	0xbeca1ec1	-0.39476588
66	0x3cafd8e4	0.021465726
67	0x3babb832	0.0052404637
68	0x3ce7cb2c	0.028295122
69	0xbdae6ba7	-0.08516627
70	0x3c33ab14	0.010966081
71	0x3c229ff3	0.00992583
72	0x3d2cdc79	0.042202447
73	0xbd9b5564	-0.07584646
74	0xbd5146e1	-0.051092986
75	0xbd75d9b9	-0.06002209
76	0x3bafcbc2	0.005364866
77	0x3d1195e0	0.035543323
78	0x3c688746	0.014192408
79	0xbd5cfe5a	-0.053953506
80	0x3d599264	0.053118125
81	0xbc971833	-0.018444156
82	0x3c7f9b92	0.015601056
83	0xbd9a0850	-0.07521117
84	0x3da21c09	0.079155035
85	0x3d9b7a5a	0.07591696
86	0x3cd62fe8	0.02614589
87	0xbd125423	-0.03572477
88	0x3b9282d7	0.0044711637
89	0xb93fd4ac	-0.00018294406
90	0x3c550457	0.013001523
91	0xbd93efce	-0.072234735
92	0x3d3e795c	0.046502456
93	0x3d7e230a	0.062045135
94	0x3d28cfc6	0.041213773
95	0xbe5fa8f7	-0.21841799
96	0x3d441fa1	0.047881726
97	0x3c827d7b	0.015928974
98	0x3bbf5e6f	0.005840115
99	0x3d44286c	0.04789011
100	0xbda6bdc9	-0.081416674
101	0x3e3974ee	0.18111011
102	0xbf3c6a44	-0.7359965
103	0xbee5a630	-0.44853354
104	0xbdd1ffce	-0.10253869
105	0x3d38afd4	0.045089558
106	0x3d1aa1af	0.03775185
107	0xbe0734c8	-0.13203728
108	0xbd8ae31b	-0.06781598
109	0xbce5004f	-0.027954249
110	0xbe61fd59	-0.220693
111	0x3de03db3	0.10949268
112	0xbd7e1c05	-0.06203844
113	0xbd8384dc	-0.06421825
114	0x3d41aa7a	0.04728172
115	0x3d0bd1eb	0.03413574
116	0xbd82eb9b	-0.063925944
117	0xbccef58a	-0.025263567
118	0x3ce1f8ea	0.027584512
119	0xbc4cb416	-0.012494108
120	0x3da314a9	0.07962925
121	0x3db9791f	0.09056305
122	0x3e025668	0.12728274
123	0xbba51bf6	-0.0050387336
124	0xbcd3d683	-0.025859123
125	0xbd4c6397	-0.049899664
126	0xbd99c63b	-0.075085126
127	0x3c48fbc4	0.012267057
128	0xbce78337	-0.02826081
129	0x3b1fabf7	0.0024363974
130	0x3d23eac6	0.04001882
131	0xbd751613	-0.059835505
132	0xbcc5a03f	-0.024124263
133	0x3d57c93b	0.052682143
134	0x3d809cf3	0.06279936
135	0xbd9d6133	-0.07684555
136	0x3c8e4267	0.017365647
137	0x3bf999bb	0.007617203
138	0x3d3721a7	0.044709828
139	0xbd7b505c	-0.061355934
140	0xbcf5c465	-0.030000875
141	0xbccfdd9f	-0.025374232
142	0x3d8bd4bc	0.06827685
143	0x3d3df7d8	0.04637894
144	0xbd95c1ce	-0.07312356
145	0x3e19d981	0.15024377
146	0x3d1ae9bc	0.037820563
147	0x3e55c140	0.208745
148	0x3f3df524	0.7420218
149	0xbcd0de6d	-0.025496686
150	0xbdf180b6	-0.11792128
151	0xbdd6fa3e	-0.10496949
152	0x3dc65e3a	0.09685941
153	0x3f332bab	0.6998851
154	0xbe884896	-0.2661788
155	0x3ecb8b47	0.39754698
156	0xbc7f7aa5	-0.015593206
157	0x3d1da2ea	0.038485445
158	0xbe6db39a	-0.23213044
159	0xbefb78e5	-0.49115673
160	0xbe359e69	-0.1773621
161	0xbed7808d	-0.42090264
162	0x3e1f8b97	0.15580593
163	0x3f34fd2e	0.7069882
164	0x3d99ef9a	0.075164035
165	0xbd76820c	-0.060182616
166	0xbe43245f	-0.19056843
167	0x3e4dfcef	0.20116018
168	0xbda5fa0d	-0.08104334
169	0x3db63263	0.08896329
170	0x3e0c6194	0.13709098
171	0x3d7713b8	0.06032154
172	0x3d0ff222	0.035143025
173	0xbdce58f7	-0.100755624
174	0xbe543eda	-0.20727101
175	0xbdafb4e1	-0.08579422
176	0xbe3a2db5	-0.18181498
177	0xbd099718	-0.03359136
178	0x3e1558c8	0.14584649
179	0xbddfa225	-0.109195985
180	0xbd9e4679	-0.07728285
181	0xbd84e92f	-0.06489789
182	0xbe230ae2	-0.1592212
183	0x3cfb4949	0.030674594
184	0x3de69d65	0.112604894
185	0xbd8195ed	-0.06327424
186	0x3cfbd2a5	0.030740092
187	0xbdecb9d3	-0.11558881
188	0xbd8d375d	-0.06895325
189	0xbd3004ab	-0.0429732
190	0xbcef1b06	-0.02918769
191	0x3d177ea1	0.036985997
192	0x3dbc2f74	0.091887385
193	0xbdc51f5f	-0.09625124
194	0x3e22ac4d	0.1588604
195	0x3deee003	0.116638206
196	0x3df6a3af	0.12042939
197	0x3e16bd43	0.14720635
198	0xbee9d8e5	-0.4567329
199	0xbee9d77f	-0.45672223
200	0xbf0888d6	-0.53333795
201	0xbeaf8c7c	-0.3428687
202	0x3e2ffa67	0.17185365
203	0xbf702aa2	-0.9381505
204	0xbf69ef13	-0.91380423
205	0xbf13f322	-0.57792866
206	0xbd75ae98	-0.05998096
207	0x3f1ac0bc	0.6045034
208	0xbed0cf0c	-0.40782964
209	0xbf053b2a	-0.520434
210	0xbebdab0a	-0.37044555
211	0xbe0ef4ed	-0.1396062
212	0x3f1afd71	0.6054297
213	0xbdbd619b	-0.092471324
214	0xbdea1d01	-0.11431313
215	0x3e9750b8	0.2955377
216	0x3e417eaf	0.18895982
217	0xbe5c363a	-0.21505061
218	0xbdf79c11	-0.12090314
219	0xbe3ff329	-0.18745102
220	0x3dc5e67c	0.09663102
221	0xbe252c33	-0.16130142
222	0xbe3d68d0	-0.18497014
223	0x3ec67ed3	0.38768634
224	0x3d6d6982	0.05796195
225	0xbca74130	-0.020416826
226	0x3bad7646	0.0052936403
227	0xbe729739	-0.236905
228	0x3dd178d6	0.10228126
229	0xbd21c867	-0.03949776
230	0x3cfe5304	0.031045444
231	0x3e1fa8ea	0.1559178
232	0x3d765799	0.060142133
233	0x3ddefa80	0.10887623
234	0x3df89c34	0.121391684
235	0xbc80230e	-0.015641715
236	0xbe08f348	-0.13374054
237	0x3cd37eca	0.025817294
238	0x3cebf400	0.028802872
239	0x3d94b7a2	0.07261588
240	0xbd4bc0bf	-0.049744364
241	0xbe6c215e	-0.23059604
242	0xbe5efeef	-0.21776937
243	0xbbcefde3	-0.0063168867
244	0x3cdb7116	0.026787322
245	0x3c3b2a01	0.011423589
246	0xbc51eefe	-0.012813328
247	0x3e7c4263	0.246347
248	0xbf93e4e0	-1.1554222
249	0xbf657269	-0.896277
250	0x3de1a4cb	0.1101776
251	0x3cbb01a4	0.02282793
252	0xbd2f7543	-0.04283644
253	0xbcc768b7	-0.024341924
254	0x3e5e6c5c	0.21721023
255	0x3d576214	0.05258377

final.linears.0.bias f4 [98]
0	0x3c387fec	0.011260968
1	0x3e0f416f	0.13989805
2	0x3cdbf32a	0.026849348
3	0x3e185589	0.14876379
4	0x3e3f2df0	0.18669868
5	0x3c94ada0	0.018149197
6	0xbd8c8a04	-0.06862262
7	0x3e644ec3	0.2229567
8	0x3acc98c5	0.0015609494
9	0xbd02503c	-0.0318148
10	0xbdcd983d	-0.10038803
11	0x3d821cbd	0.06353138
12	0x3e1da64e	0.15395471
13	0x3e5313e4	0.20613056
14	0x3e4d6132	0.20056608
15	0x3f506037	0.8139681
16	0x3e3192ec	0.17341202
17	0xbd3c3a06	-0.045953773
18	0x3e35c003	0.17749028
19	0x3e13dcc8	0.1443969
20	0x3e52e2e7	0.20594369
21	0xbe4891be	-0.19586846
22	0xbda70e27	-0.08156996
23	0x3e2be858	0.16787851
24	0x3f1ea66d	0.61972696
25	0x3ece8e8f	0.4034314
26	0x3e0a6302	0.13514331
27	0xbe188e72	-0.14898089
28	0x3e2c2bba	0.16813555
29	0x3e32862a	0.17433992
30	0x3e94eff7	0.2908933
31	0x3e465b76	0.19370827
32	0x3ebf0691	0.37309697
33	0x3c3901c0	0.011291921
34	0x3e30949c	0.1724419
35	0x3f08a5c7	0.53377956
36	0x3e4d495e	0.20047519
37	0x3e970b5e	0.2950086
38	0x3de94459	0.113899894
39	0xbebdf225	-0.37098804
40	0x3ed611bc	0.41810405
41	0xbdf7caa1	-0.12099195
42	0x3dd83874	0.105576426
43	0x3ec212e3	0.37905034
44	0x3edf3254	0.43593085
45	0x3e006de2	0.12541917
46	0x3e19326e	0.14960644
47	0x3e32ae49	0.17449297
48	0x3ddcadbf	0.10775327
49	0x3e9a5f9e	0.30151075
50	0xbd7a3a84	-0.06109096
51	0x3e36aadd	0.17838617
52	0x3e57063c	0.20998472
53	0x3e84b27c	0.25917423
54	0x3e44b0fa	0.19208136
55	0x3e165dc7	0.1468421
56	0x3e61f387	0.22065555
57	0x3e1f350a	0.15547577
58	0x3e6f1289	0.23346914
59	0x3da9491c	0.08265898
60	0x3e7871a6	0.24262103
61	0x3e2d77eb	0.16940276
62	0x3e5ae46c	0.21376199
63	0x3e3fd84c	0.18734854
64	0x3e80bc7a	0.25143796
65	0x3e0b9a78	0.13633144
66	0xbb6e844e	-0.0036394778
67	0x3e59c14b	0.21265142
68	0x3d8856de	0.066571936
69	0x3def0810	0.1167146
70	0x3df82759	0.1211688
71	0x3dfc89b1	0.1233095
72	0x3e9058db	0.2819279
73	0x3dd45105	0.10367016
74	0x3ea34c0d	0.3189396
75	0xbe1f015d	-0.15527864
76	0x3e2cb498	0.16865766
77	0x3f16af86	0.5886158
78	0xbc881cca	-0.01661529
79	0x3ef01568	0.46891332
80	0x3e44fddd	0.19237466
81	0x3e35629f	0.17713402
82	0x3df0a0dd	0.11749432
83	0x3ea6754c	0.32511365
84	0xbda9f262	-0.08298184
85	0x3e661bfd	0.22471614
86	0x3e13e2b3	0.14441948
87	0x3de36e6a	0.11105044
88	0x3e199536	0.14998326
89	0x3e00b3d9	0.12568606
90	0x3ea18b3b	0.31551537
91	0xbe41c5e1	-0.18923141
92	0xbde9c149	-0.11413819
93	0xbd829c23	-0.06377437
94	0x3e24d403	0.16096501
95	0x3e2feb30	0.1717956
96	0x3dfdb3a9	0.12387783
97	0x3e87f4ab	0.26553854

final.linears.1.weight f4 [98, 98]
0	0xbea6db32	-0.32589108
1	0x3d83fc74	0.06444636
2	0x3b69576b	0.0035605084
3	0x3cfdc882	0.030979399
4	0xbe1e1120	-0.1543622
5	0x3d37b11e	0.044846646
6	0xbd385b71	-0.04500908
7	0xbdfc42c4	-0.12317422
8	0xbd818e60	-0.06325984
9	0x3e4ca336	0.19984135
10	0xbe330ab1	-0.17484547
11	0xbdbd9f2e	-0.09258877
12	0xbe9de22d	-0.3083662
13	0xbe91ec7f	-0.28500745
14	0xbebfccd5	-0.37460962
15	0xbe27cc1e	-0.16386458
16	0xbea52e9b	-0.3226212
17	0xbd3f35cc	-0.046682164
18	0x3bd180e8	0.0063935407
19	0xbede2408	-0.43386865
20	0xbd2535ee	-0.040334634
21	0xbda79692	-0.08183016
22	0xbe71f77c	-0.23629564
23	0xbe0db381	-0.13838007
24	0xbe82bdc3	-0.25535402
25	0x3d473615	0.04863556
26	0xbec6d817	-0.38836738
27	0x3d087ded	0.033323217
28	0xbe666b52	-0.22501877
29	0xbe7d1612	-0.2471545
30	0xbe88cba0	-0.26717854
31	0xbeb4f9d7	-0.35346863
32	0xbe6f92aa	-0.23395792
33	0xbe427ad6	-0.1899217
34	0xbd1ecfc8	-0.038772374
35	0xbe34c9e0	-0.17655134
36	0xbd6de689	-0.058081184
37	0xbe7305e0	-0.2373271
38	0xbeebc537	-0.460489
39	0xbe0a9a52	-0.13535431
40	0x3b8c5211	0.004282244
41	0x3cb8fd35	0.022581676
42	0xbd1366d0	-0.03598672
43	0xbd1f6031	-0.038910095
44	0xbe4e7be9	-0.20164455
45	0xbca00d80	-0.019537687
46	0xbe602555	-0.21889241
47	0xbe663d1e	-0.22484252
48	0xbeac00f9	-0.33594492
49	0x3df98acc	0.121846765
50	0xbdeb94dc	-0.11503002
51	0xbe4a7047	-0.19769393
52	0xbc2e2403	-0.010628703
53	0xbe79ff1e	-0.24413726
54	0xbd910307	-0.070806555
55	0xbeb8aa8a	-0.3606761
56	0xbe15f1ba	-0.14642993
57	0xbe343dcc	-0.17601699
58	0xbdbf007b	-0.093262635
59	0xbe9addbe	-0.302473
60	0xbe6be3a1	-0.23036052
61	0xbd84d24e	-0.06485425
62	0x3d944df8	0.07241434
63	0xbeb77b89	-0.35836437
64	0xbd8fd436	-0.07022898
65	0xbe92d819	-0.28680494
66	0xbe29e8ab	-0.16592662
67	0xbe1e0459	-0.15431346
68	0xbee290c7	-0.4425108
69	0xbe8f0d0b	-0.27939638
70	0xbdb3a0fa	-0.08770938
71	0xbd6c711c	-0.057725057
72	0xbe21f94e	-0.15817758
73	0xba5e92c3	-0.0008490497
74	0xbd66f2a1	-0.056383733
75	0xbe30b72a	-0.17257372
76	0xbe4abbcc	-0.19798201
77	0xbe2664cd	-0.1624939
78	0xbec23d5c	-0.37937438
79	0xbd071284	-0.032976642
80	0xbe2d66ff	-0.16933821
81	0xbf7803d5	-0.9688085
82	0xbe32fcc9	-0.17479242
83	0xbdaa49c1	-0.08314849
84	0xbdae8ed8	-0.08523339
85	0xbdc3d12f	-0.09561383
86	0xbe01ed09	-0.12688078
87	0xbe8e1fae	-0.27758545
88	0x3ce9c70d	0.028537298
89	0xbe77a70b	-0.24184816
90	0xbe15930d	-0.14606877
91	0xbe1c008d	-0.15234585
92	0x3d863639	0.06553311
93	0xbd23e8af	-0.040016826
94	0xbeb241f2	-0.34815937
95	0xbdc32a86	-0.09529595
96	0xbc8d2df8	-0.017233834
97	0x3da3761b	0.07981511
98	0xbc7356ee	-0.014852269
99	0xbe1ba9a9	-0.15201439
100	0xbae70871	-0.0017626417
101	0xbc9af24d	-0.018914366
102	0xbce321ae	-0.02772602
103	0xbd548074	-0.051880315
104	0x3cf92c9c	0.03041678
105	0xbdb37aba	-0.087636426
106	0xb9d6b2c3	-0.0004095045
107	0x3d68375f	0.05669343
108	0xbc57fa40	-0.013182223
109	0xbdc9bdcd	-0.09850655
110	0xbcc418c5	-0.023937592
111	0xbd72ee84	-0.059309497
112	0xbd0399ca	-0.032129087
113	0x3ca57a5f	0.020199953
114	0xbc21f7bc	-0.009885725
115	0x3ea41062	0.3204375
116	0x3d92981c	0.07157919
117	0xbdd2c79c	-0.10291979
118	0xbe3f7ea4	-0.18700653
119	0xbb8ff494	-0.0043931697
120	0x3e34db8e	0.17661878
121	0x3ced22a3	0.02894718
122	0xbbb2455d	-0.0054403977
123	0x3d2c398a	0.04204706
124	0x3e163d43	0.14671807
125	0xbd04ad2d	-0.032391716
126	0x3d2820f6	0.04104706
127	0xbc7c28dd	-0.015390602
128	0x3c464f09	0.012103804
129	0xbd8c12d2	-0.06839527
130	0xbd01ca07	-0.03168681
131	0x3c95e9b2	0.018299911
132	0x3e435cf2	0.19078425
133	0xbd4c2ef4	-0.049849465
134	0x3e080498	0.13283002
135	0xbda4eea6	-0.08053331
136	0xbc987846	-0.018612038
137	0x3d77dd70	0.060513914
138	0x3b29a1ca	0.0025883787
139	0xbd240d58	-0.040051788
140	0x3c73ed81	0.014888168
141	0x3c6f32ca	0.014599511
142	0xbe084b57	-0.1330999
143	0xbe541054	-0.20709354
144	0x3dfbdef7	0.122983865
145	0xbe2f8e1e	-0.17144057
146	0x3da803a3	0.08203819
147	0xbe41a78c	-0.1891157
148	0xbce259a6	-0.027630638
149	0xbd40f5b8	-0.047109336
150	0xbd68b58a	-0.056813754
151	0xbcfca4d8	-0.030840322
152	0x3cd23d9a	0.02566414
153	0xbd4f5531	-0.050618354
154	0xbbb8f6a7	-0.0056446376
155	0xbd04462c	-0.032293484
156	0xbd325bb3	-0.043544482
157	0xbea7ee5f	-0.3279905
158	0xbd0b6a1f	-0.03403675
159	0xbe686370	-0.22694182
160	0xbd33c739	-0.043891165
161	0x3dde0c22	0.10842158
162	0x3d1baa8d	0.038004447
163	0xbcdcd1d3	-0.02695552
164	0x3d7686c2	0.06018711
165	0xbdd25d45	-0.10271696
166	0xbb743f37	-0.0037269124
167	0xbd25b826	-0.04045882
168	0x3c54c914	0.012987394
169	0xbc90260f	-0.017596273
170	0xbd7a7879	-0.061150048
171	0x3d2a6313	0.04159839
172	0xbd50824b	-0.050905507
173	0xbc9df24e	-0.019280579
174	0x3b3184d7	0.0027087235
175	0x3d0f9634	0.035055354
176	0xbd68d7ac	-0.056846306
177	0x3e819005	0.2530519
178	0xbdb2d44f	-0.08731901
179	0xbd457dd8	-0.048215717
180	0x3d253430	0.040332973
181	0x3d3a53e1	0.04549015
182	0x3d4713f5	0.048603017
183	0xbc8cdaef	-0.01719424
184	0xbe2758fd	-0.1634254
185	0xbd7f4c4a	-0.062328614
186	0xbc9cb51c	-0.019129328
187	0x3d08772a	0.03331677
188	0x3be7f772	0.0070790583
189	0xbd08c6d1	-0.03339273
190	0x3d03e845	0.03220393
191	0xbd7a2e8b	-0.061079543
192	0x3c83106b	0.01599904
193	0xbd0a3aca	-0.033747472
194	0x3ee2138b	0.44155535
195	0xbbea9983	-0.0071594133
196	0xbebb6ef0	-0.36608076
197	0xbc918067	-0.017761422
198	0x3cc246cc	0.0237154
199	0xbe2fee7f	-0.17180823
200	0xbe48b8a7	-0.1960169
201	0x3d314c69	0.04328576
202	0xbcf41d18	-0.02979903
203	0xbdd41264	-0.1035507
204	0x3d313610	0.04326445
205	0x3e8f8609	0.28031948
206	0x3c447340	0.011990368
207	0x3d4ad748	0.049521714
208	0xbed508a1	-0.41608146
209	0xbea18c6b	-0.31552443
210	0xbeb999a7	-0.3625004
211	0xbe506c82	-0.20353892
212	0xbe9b9813	-0.3038946
213	0xbd834a58	-0.06410664
214	0xbdc78fb5	-0.09744207
215	0xbfda0d00	-1.7035217
216	0xbde50f72	-0.111845866
217	0xbdae70c2	-0.085176006
218	0xbe9b8fad	-0.30383053
219	0xbdab42e1	-0.083623655
220	0xbee1553b	-0.44010338
221	0x3d24959c	0.04018174
222	0xbee627e5	-0.44952312
223	0x3dd0dd36	0.10198443
224	0xbd8539b8	-0.065051496
225	0xbee4413b	-0.44581017
226	0xbe7df29f	-0.24799584
227	0xbf18a4a2	-0.5962621
228	0xbe443a73	-0.19162922
229	0xbe1cdb04	-0.15317923
230	0xbdec4a60	-0.115376234
231	0xbe62cadb	-0.22147696
232	0xbc397647	-0.011319703
233	0xbe820a40	-0.25398445
234	0xbedf3df9	-0.4360197
235	0x3e40af2d	0.18816824
236	0xbe16c895	-0.14724953
237	0x3d148e20	0.036268353
238	0xbdd31c6b	-0.10308155
239	0x3a70f6f4	0.00091920723
240	0xbea32a04	-0.31867993
241	0xbdcdd9cc	-0.10051307
242	0xbe6fca12	-0.23416927
243	0xbd47648b	-0.04867987
244	0xbea2f789	-0.3182948
245	0xbdfe0dcd	-0.12404976
246	0xbdc95c12	-0.09832014
247	0xbe286fc2	-0.16448882
248	0xbe7ddf64	-0.24792248
249	0xbe705b09	-0.23472227
250	0xbedba11f	-0.42896363
251	0xbe6ed274	-0.23322469
252	0xbeb6f3f5	-0.35733
253	0xbe6b2244	-0.2296229
254	0xbe35bd39	-0.17747964
255	0x3d55c02b	0.05218522

final.linears.1.bias f4 [98]
0	0xbe77c9f7	-0.24198137
1	0xbd154f72	-0.036452718
2	0xbe9b16b2	-0.30290753
3	0xbdfc7179	-0.12326331
4	0x3e5e5ab0	0.21714282
5	0xbe8f8de8	-0.28037953
6	0xbe8eee16	-0.2791602
7	0xbd089d07	-0.033352878
8	0x3bd9ea12	0.006650218
9	0xbe6451c2	-0.22296813
10	0xbe69cf51	-0.22832991
11	0xbe31d4bb	-0.17366306
12	0xbe557394	-0.20844871
13	0xbdb5b30e	-0.088720426
14	0x3ec5a4d5	0.3860232
15	0xbe9b6e29	-0.30357483
16	0xbe7c735b	-0.2465338
17	0xbd7d6671	-0.061865274
18	0xbca3a3fc	-0.019975655
19	0xbe070f80	-0.13189507
20	0xbe013524	-0.12617928
21	0xbdbdf89c	-0.09275934
22	0xbe94a1e9	-0.29029778
23	0xbe3a7c22	-0.18211415
24	0xbd462962	-0.04837931
25	0xbd6dbe09	-0.05804256
26	0xbe1eede4	-0.15520436
27	0xbd9ab8eb	-0.075548016
28	0xbde93bde	-0.11388372
29	0xbdcfc10b	-0.10144242
30	0xbd60aba0	-0.054851174
31	0x3e64c26a	0.22339788
32	0xbdc49280	-0.09598255
33	0xbe1893d9	-0.1490015
34	0xbe840b7e	-0.25790018
35	0xbe1445f4	-0.1447981
36	0xbe9a5992	-0.30146462
37	0xbe04458d	-0.12917157
38	0xbcf1bc59	-0.029508756
39	0xbe5c37c8	-0.21505654
40	0xbe750fed	-0.23931856
41	0xbdd4d3da	-0.1039197
42	0xbe1867af	-0.14883302
43	0xbdcf236e	-0.101141796
44	0xbdc11ec1	-0.09429694
45	0xbea95046	-0.33069056
46	0xbc91b76c	-0.017787658
47	0x3cded45b	0.027200868
48	0xbe8a8e92	-0.27061898
49	0xbe5368f2	-0.20645502
50	0xbeaad71a	-0.33367234
51	0xbe5a1bd4	-0.21299678
52	0xbe706194	-0.23474723
53	0xbdb648af	-0.08900582
54	0x3e08298a	0.13297096
55	0x3e1e2cc3	0.15446763
56	0xbe8e0d04	-0.27744305
57	0xbe59e320	-0.21278048
58	0xbe01d934	-0.12680513
59	0xbe2b7c8f	-0.16746734
60	0x3dc39cf1	0.095514186
61	0xbe4554d7	-0.19270645
62	0xbe0e7860	-0.13913107
63	0xbe6825a6	-0.22670612
64	0x3bef6bcc	0.0073065516
65	0xbe94b274	-0.290424
66	0xbe95ad10	-0.292336
67	0xbe494e50	-0.1965878
68	0xbed0128d	-0.40639153
69	0xbe8a0061	-0.26953414
70	0xbe6fdaee	-0.23423359
71	0xbc8be70b	-0.017077943
72	0xbf18e949	-0.59730965
73	0xbd37809f	-0.044800397
74	0xbdb8f25b	-0.09030601
75	0xbd9990c4	-0.07498315
76	0xbc850365	-0.01623697
77	0xbe571d99	-0.21007384
78	0xbd289fff	-0.04116821
79	0xbeb8f2ff	-0.3612289
80	0xbdb28f2f	-0.08718716
81	0xbe836170	-0.25660276
82	0xbdf3813e	-0.11889885
83	0xbe05942a	-0.13044801
84	0xbe839c1e	-0.25705045
85	0xbe8fe26f	-0.28102443
86	0xbe33d0dd	-0.17560144
87	0x3c421622	0.011846097
88	0xbe9cdc46	-0.30636805
89	0xbe7ba641	-0.2457514
90	0xbe5a102b	-0.2129523
91	0xbe37bb39	-0.17942514
92	0xbe1ca6e0	-0.15298033
93	0xbe7c68d1	-0.2464936
94	0xbeaabec6	-0.33348674
95	0xbe271f61	-0.16320564
96	0xbdc841f9	-0.09778208
97	0x3eeb7a07	0.45991537

final.linears.2.weight f4 [17, 98]
0	0x3ef54485	0.4790384
1	0x3e36dd96	0.17857966
2	0xbe6a5a63	-0.22886042
3	0xbd9722b6	-0.073796675
4	0xbc67b167	-0.014141417
5	0xbc7c60fa	-0.01540398
6	0x3d053ac5	0.03252675
7	0xbac77f0d	-0.0015220359
8	0x3e865910	0.26239824
9	0x3dcb4826	0.099258706
10	0x3df47e26	0.119381234
11	0x3c934a7a	0.01797985
12	0xbe862b74	-0.26205027
13	0xbbb85aa5	-0.00562604
14	0x3b8ea27f	0.004352867
15	0x3e5c72f0	0.2152822
16	0xbf149892	-0.58045304
17	0xbbfdc86c	-0.0077448394
18	0xbacf2276	-0.0015803117
19	0x3e19742f	0.14985727
20	0xbd64d751	-0.055869404
21	0xbbde1b60	-0.0067781657
22	0x3f0e6a74	0.55631185
23	0xbe457ae6	-0.19285163
24	0xbb99319d	-0.004675104
25	0x3ebee38b	0.37282977
26	0xbd9148d3	-0.07093968
27	0xb94c6c7a	-0.00019495367
28	0xbe421f94	-0.18957359
29	0x3ddd61c1	0.10809661
30	0x3e045b94	0.1292556
31	0x3ca6e5b6	0.020373207
32	0x3da37dae	0.07982956
33	0xbc1338c3	-0.008985701
34	0x3c15ee2e	0.009151025
35	0xbecd9731	-0.40154412
36	0xbe64e56c	-0.22353142
37	0x3ea10b63	0.31454
38	0x3ce6606f	0.028122155
39	0x3ea93e45	0.3305532
40	0x3ef4bb1f	0.47799012
41	0xbdd1d847	-0.1024633
42	0xbe2c442c	-0.1682288
43	0x3c2ef4fe	0.010678528
44	0xbe8863a9	-0.26638535
45	0xbe99dd02	-0.30051428
46	0xbe6fd3b7	-0.23420607
47	0x3e65ac97	0.22429119
48	0x3f669869	0.9007631
49	0x3defa5aa	0.1170152
50	0xbdb62975	-0.08894626
51	0xbd8dc8cb	-0.06923064
52	0x3e7a824e	0.2446377
53	0x3c565f6d	0.013084275
54	0xbbb09473	-0.0053887903
55	0x3d759429	0.05995575
56	0xbd12d175	-0.035844285
57	0x3e215289	0.15754141
58	0x3d952250	0.07281935
59	0xbe2c8dae	-0.16850922
60	0xbc9bbe86	-0.019011747
61	0xbc18da7c	-0.0093294345
62	0xbce9a951	-0.02852312
63	0x3f664abd	0.8995779
64	0xbcf29449	-0.029611723
65	0xbe8d0ca2	-0.275487
66	0x3de4817e	0.11157511
67	0xbd3afd7c	-0.045651898
68	0x3dcc5960	0.099779844
69	0x3ec52c2d	0.38510266
70	0xbf24a5cc	-0.64315486
71	0x3c661ee4	0.014045451
72	0xba73242b	-0.0009275104
73	0xbd0d716d	-0.034532
74	0xbb9d81ce	-0.0048067337
75	0x3e14d9aa	0.14536157
76	0xbcca551e	-0.02469879
77	0xbdad7e90	-0.084714055
78	0x3d826df2	0.06368627
79	0xbdc2911d	-0.095003344
80	0x3c94960c	0.018137954
81	0x3e29765c	0.16549057
82	0xbeb68631	-0.35649255
83	0xbe1f8466	-0.1557785
84	0xbec5f7ea	-0.38665706
85	0xbee681dc	-0.4502095
86	0xbe247366	-0.16059646
87	0x3d916bcf	0.07100641
88	0xbc117146	-0.008877104
89	0xbf02cf27	-0.5109734
90	0xbd294b4e	-0.04133158
91	0x3da57f5b	0.08080932
92	0xbdada965	-0.08479575
93	0xbf171445	-0.59015304
94	0x3e0bbf1a	0.13647118
95	0xbd60c857	-0.05487856
96	0xbdd7bd45	-0.10534147
97	0x3c240022	0.010009797
98	0x3e238448	0.1596843
99	0xbe853c4e	-0.2602257
100	0x3ebc6061	0.3679228
101	0xbe61cee8	-0.22051585
102	0x3c284440	0.010270178
103	0x3f2925b7	0.66073173
104	0x3e26116a	0.1621758
105	0x3b8003bc	0.003906695
106	0x3e273838	0.1633004
107	0x3edb0852	0.42779785
108	0xbeb74c1a	-0.35800248
109	0xbed2e0ff	-0.41187283
110	0xbe7e000e	-0.24804708
111	0xbc20ade3	-0.009807083
112	0xbc519305	-0.0127914
113	0xbb6c9c10	-0.0036103763
114	0x3e2a21e9	0.16614498
115	0xbca88d0e	-0.020575073
116	0x3cdb69d4	0.026783861
117	0x3e2ac924	0.16678292
118	0x3d09d9e4	0.033655062
119	0xbe2337ca	-0.1593925
120	0x3e8fe060	0.28100872
121	0xbd964dc4	-0.07339051
122	0x3c162c87	0.00916589
123	0xbc5f5a67	-0.013632393
124	0x3e25c46b	0.16188209
125	0xbc7391d9	-0.014866316
126	0x3e8da460	0.2766447
127	0x3e536802	0.20645145
128	0xbe5f841d	-0.21827741
129	0xbb81fbd3	-0.0039667874
130	0xbe40b944	-0.18820673
131	0x3d4ca4d6	0.049961887
132	0x3c4c842f	0.012482687
133	0x3ec91f1e	0.39281553
134	0xbdc87bf0	-0.09789264
135	0x3dd94669	0.10609133
136	0x3e0d205a	0.13781872
137	0xbe40f166	-0.18842086
138	0x3f2b43f1	0.66900545
139	0x3e5c6e32	0.21526411
140	0xbd139758	-0.036033005
141	0xbcdda1d7	-0.02705471
142	0xbe1b1dbf	-0.15148066
143	0x3ed3bed8	0.4135654
144	0xbb81074c	-0.0039376374
145	0x3dd56038	0.10418743
146	0x3e6eb4cd	0.23311158
147	0xbd870c53	-0.065941475
148	0x3c84f01f	0.01622778
149	0xbdba4738	-0.09095615
150	0xbf69bad6	-0.91300714
151	0x3ba5f16a	0.005064179
152	0x3c61765e	0.013761131
153	0xbd14fef3	-0.03637595
154	0xbed0b755	-0.4076487
155	0xbe86eadb	-0.26351056
156	0xbe26252d	-0.16225119
157	0xbdf1fbfc	-0.1181564
158	0x3c9cb8fa	0.019131172
159	0x3b9f87bc	0.0048684757
160	0xbd2eeea0	-0.04270804
161	0xbeb2cd04	-0.3492204
162	0x3ca1b898	0.019741341
163	0x3e402a25	0.18766077
164	0xbe88fc89	-0.2675517
165	0xbe31d02b	-0.17364566
166	0x3c95d3ef	0.018289534
167	0xbf0eb6a3	-0.5574743
168	0xbe8b4d1d	-0.2720727
169	0xbc3a8c9c	-0.011386063
170	0xbc32a626	-0.010903871
171	0xbdf572ac	-0.119847625
172	0x3e06815c	0.13135284
173	0x3ded4083	0.1158457
174	0x3c933f32	0.01797447
175	0x3dc060b0	0.09393442
176	0x3e3e3e6a	0.18578497
177	0x3e3817ea	0.17977872
178	0x3c4decb8	0.012568645
179	0x3ebe6da8	0.37193036
180	0x3c043a82	0.00807059
181	0xbd04c60e	-0.032415442
182	0xbe1aa0dc	-0.15100425
183	0xbf26609f	-0.6499118
184	0x3e655123	0.22394232
185	0xbe4e9a64	-0.20176083
186	0x3b266398	0.0025388952
187	0xbeb4d4d1	-0.35318616
188	0x3e8417ac	0.2579931
189	0xbd866c44	-0.06563619
190	0x3e6f30cd	0.2335846
191	0x3f39bd50	0.7255449
192	0x3a111dc3	0.0005535746
193	0xbd863c75	-0.065545
194	0xbe63c82e	-0.22244331
195	0xbcab1cf2	-0.020887826
196	0xbd6e1894	-0.05812891
197	0x3c75098f	0.014955892
198	0x3e0ccd21	0.13750125
199	0x3c9048a9	0.017612772
200	0xbef5528c	-0.4791454
201	0xbe959a97	-0.29219505
202	0x3e2aed61	0.16692115
203	0x3e3ebbef	0.18626378
204	0x3d0ed073	0.03486676
205	0xbe3c32bc	-0.18378729
206	0x3e3ad0eb	0.18243758
207	0xbf5f87b6	-0.87316453
208	0x3d7f92b1	0.062395755
209	0x3c8b6471	0.017015668
210	0xbe309281	-0.17243387
211	0x3e977764	0.29583275
212	0x3e007962	0.12546304
213	0x3dad7672	0.08469857
214	0xbea64598	-0.3247497
215	0xbcd219a7	-0.025646998
216	0x3d97beba	0.07409425
217	0x3ccfb0bc	0.025352828
218	0xbe47a508	-0.19496548
219	0xbf59d806	-0.8509525
220	0x3e0e3a4b	0.13889425
221	0xbd9cbb20	-0.07652879
222	0xbc5868d3	-0.013208586
223	0x3db30b75	0.0874242
224	0xbc7ccd14	-0.015429754
225	0x3d49a5da	0.049230434
226	0x3c0b2a28	0.008493938
227	0xbf2650cd	-0.6496704
228	0x3d3a5193	0.04548795
229	0x3f78e796	0.9722837
230	0xbf158741	-0.58409506
231	0xbdc271fb	-0.09494396
232	0x3e39fb5f	0.18162297
233	0x3dcd0210	0.10010159
234	0x3c195c59	0.009360396
235	0xbf168086	-0.5878986
236	0xbe9ab1ed	-0.30213872
237	0xbc101c3e	-0.008795796
238	0x3ce43347	0.027856482
239	0x3f81ab94	1.0130486
240	0x3cdb75df	0.026789604
241	0xbe87795a	-0.2645977
242	0xbe35cb88	-0.17753422
243	0xbde93990	-0.11387932
244	0x3ea7a816	0.32745427
245	0x3e8f2cb8	0.27963805
246	0x3ea0976d	0.3136553
247	0xbe4a68ec	-0.19766587
248	0xbd9da8f3	-0.0769824
249	0x3ff9cd00	1.9515686
250	0x3dcfd763	0.10148504
251	0xbf20fdb1	-0.628871
252	0x3e2e422b	0.17017429
253	0x3d01c80a	0.031684913
254	0x3d8d14ce	0.06888734
255	0xbbc6ceb7	-0.006067123

final.linears.2.bias f4 [17]
0	0x3d63525b	0.055498462
1	0xbc6818a4	-0.014166031
2	0x3e4a7b12	0.1977351
3	0xbe0404d0	-0.12892461
4	0xbea12bad	-0.31478634
5	0x3d8e613b	0.06952139
6	0x3d9a032e	0.07520138
7	0x3d4f7aeb	0.050654333
8	0x3d64e712	0.05588443
9	0xbe17f7ac	-0.14840573
10	0x3c3ed763	0.011648032
11	0xbcf71cf4	-0.030165173
12	0xbca90203	-0.020630842
13	0xbaf471ee	-0.0018649676
14	0xbcbc501d	-0.02298742
15	0x3d025b0e	0.031825118
16	0x3d8a6c46	0.06758933

layers.0.attn.0.gnn_q.weight f4 [17, 16]
0	0x8812af46	-4.414131e-34
1	0x086d38e6	7.1386477e-34
2	0x88489964	-6.036562e-34
3	0x082a7e31	5.130585e-34
4	0x8730e97c	-1.3309383e-34
5	0x86c51430	-7.4132827e-35
6	0x07794e49	1.8755684e-34
7	0x08c2df9b	1.172852e-33
8	0x87307be0	-1.3277172e-34
9	0x08690fc2	7.013441e-34
10	0x87f483da	-3.6790535e-34
11	0x88049999	-3.990286e-34
12	0x080b398e	4.1896446e-34
13	0x08297807	5.099768e-34
14	0x88c108be	-1.161782e-33
15	0x88a068cb	-9.654286e-34
16	0x078f92f8	2.160263e-34
17	0x880665a9	-4.044366e-34
18	0x87def8e1	-3.3549125e-34
19	0x8740a9ba	-1.4494353e-34
20	0x88ab1595	-1.0296762e-33
21	0x07d8ed69	3.2639605e-34
22	0x088c5654	8.446239e-34
23	0x87f480a5	-3.678865e-34
24	0x0837b583	5.5282925e-34
25	0x88526bc5	-6.332126e-34
26	0x08badd8f	1.1246556e-33
27	0x0881112e	7.767944e-34
28	0x875b3e17	-1.6493975e-34
29	0x08bc7022	1.1341201e-33
30	0x881fc067	-4.807349e-34
31	0x86b9a1d4	-6.982705e-35
32	0x0891b2d0	8.768909e-34
33	0x07d53383	3.2078954e-34
34	0x88789b9d	-7.481271e-34
35	0x881a2bf4	-4.6394356e-34
36	0x0635a061	3.4160144e-35
37	0x864d7f79	-3.8649867e-35
38	0x868b015d	-5.228799e-35
39	0x881d33f9	-4.7306563e-34
40	0x08978b77	9.12077e-34
41	0x868dd9ce	-5.335834e-35
42	0x87b56277	-2.7291726e-34
43	0x060e8baa	2.680984e-35
44	0x0740b35a	1.4497181e-34
45	0x871d50c6	-1.1835104e-34
46	0x86da63d1	-8.2149153e-35
47	0x079ff01c	2.4064785e-34
48	0x07cd7414	3.0913196e-34
49	0x0721afe0	1.2163979e-34
50	0x8827930c	-5.0427587e-34
51	0x884fd3c0	-6.2540708e-34
52	0x885a6410	-6.571961e-34
53	0x86b9e621	-6.992741e-35
54	0x87d98b9b	-3.2732584e-34
55	0x0741cf89	1.4580695e-34
56	0x085b24b8	6.594608e-34
57	0x072d60f3	1.3043564e-34
58	0x87e47762	-3.4375794e-34
59	0x07e9581f	3.5109736e-34
60	0x87a5fe88	-2.497604e-34
61	0x08a45c4c	9.89209e-34
62	0x0604ad5d	2.4953808e-35
63	0x088f5656	8.626797e-34
64	0x8852592d	-6.32994e-34
65	0x87ed4472	-3.5700025e-34
66	0x080b72ea	4.196387e-34
67	0x88aab31e	-1.0273613e-33
68	0x04ab7d9e	4.0317268e-36
69	0x08473882	5.995081e-34
70	0x87193296	-1.1525307e-34
71	0x87852445	-2.0032933e-34
72	0x08a77a06	1.00796345e-33
73	0x0825ec55	4.993069e-34
74	0x88567e57	-6.4546794e-34
75	0x07217270	1.2145924e-34
76	0x07ceadf5	3.1097678e-34
77	0x88a30f5d	-9.813818e-34
78	0x88b88178	-1.1104535e-33
79	0x08a68f38	1.0024432e-33
80	0x08723609	7.2887744e-34
81	0x078093f1	1.9346252e-34
82	0x081df044	4.75279e-34
83	0x06fb1204	9.444218e-35
84	0x085b441d	6.598298e-34
85	0x0855268c	6.4142668e-34
86	0x889d01de	-9.449533e-34
87	0x08ac416b	1.0367253e-33
88	0x06cecebe	7.779237e-35
89	0x889d2287	-9.457211e-34
90	0x8855bafc	-6.4317155e-34
91	0x87864616	-2.0203272e-34
92	0x87b1bf24	-2.6744342e-34
93	0x07904fec	2.1713686e-34
94	0x08219e97	4.8635597e-34
95	0x8884a1a9	-7.982467e-34
96	0x88c2b12c	-1.1717603e-33
97	0x088e7516	8.573841e-34
98	0x87b8e38c	-2.7818983e-34
99	0x07810a03	1.9415647e-34
100	0x0880718f	7.730417e-34
101	0x081b66ca	4.6764444e-34
102	0x87ef59db	-3.6013535e-34
103	0x86a7a9c4	-6.3067866e-35
104	0x0804fa55	4.001657e-34
105	0x08431bd0	5.871337e-34
106	0x0635914d	3.4149067e-35
107	0x86b0dac6	-6.65253e-35
108	0x07abd347	2.5853398e-34
109	0x079c61f1	2.3529836e-34
110	0x07a8927b	2.5363924e-34
111	0x88886e40	-8.211122e-34
112	0x87d1d058	-3.1569278e-34
113	0x8722f781	-1.226026e-34
114	0x87a76e2b	-2.5192118e-34
115	0x05614cda	1.05935646e-35
116	0x07dba079	3.3045775e-34
117	0x882efd55	-5.265901e-34
118	0x081f81ab	4.7999746e-34
119	0x879737bf	-2.275272e-34
120	0x07f8e33f	3.7448456e-34
121	0x081433ad	4.4597875e-34
122	0x86a23254	-6.101158e-35
123	0x083b50ac	5.6368095e-34
124	0x0786ff31	2.0312067e-34
125	0x88a99c3e	-1.020805e-33
126	0x06743182	4.5927672e-35
127	0x0863c033	6.8536257e-34
128	0x886f4c7e	-7.2011362e-34
129	0x061fab34	3.0030356e-35
130	0x87bf5b5b	-2.879218e-34
131	0x07aa2f1e	2.560645e-34
132	0x087b6cbd	7.5660386e-34
133	0x08104c67	4.3423234e-34
134	0x07709dbb	1.8101946e-34
135	0x070f30e9	1.0772498e-34
136	0x8816dc0b	-4.5397642e-34
137	0x88a1b378	-9.732028e-34
138	0x87f62f4f	-3.7041772e-34
139	0x086862ee	6.993125e-34
140	0x0899aa35	9.248368e-34
141	0x073d4ed6	1.4241947e-34
142	0x863985b5	-3.4892865e-35
143	0x088a37c6	8.318685e-34
144	0x08157f06	4.498737e-34
145	0x084d8484	6.1845715e-34
146	0x08a61700	9.996169e-34
147	0x87e8d960	-3.5035242e-34
148	0x07bc9ab3	2.837802e-34
149	0x086fe2d6	7.218809e-34
150	0x0602af58	2.4579105e-35
151	0x88179833	-4.561882e-34
152	0x88962d21	-9.038406e-34
153	0x88953d25	-8.981986e-34
154	0x880faa9e	-4.3233057e-34
155	0x08024601	3.920274e-34
156	0x07bb55cd	2.8187062e-34
157	0x884a6bbe	-6.0913814e-34
158	0x06a03376	6.0260926e-35
159	0x0709334a	1.0321807e-34
160	0x08c1e139	1.1668715e-33
161	0x07bb8a1c	2.8217806e-34
162	0x88ad6f47	-1.043822e-33
163	0x872f6904	-1.3196398e-34
164	0x88abe199	-1.0344726e-33
165	0x88290411	-5.0861368e-34
166	0x882406e5	-4.936006e-34
167	0x8812ddbc	-4.4195924e-34
168	0x88976d8f	-9.113739e-34
169	0x07a08828	2.415415e-34
170	0x88b52b9b	-1.0903793e-33
171	0x073a5842	1.4019021e-34
172	0x07ee8306	3.5887269e-34
173	0x878b8791	-2.0994074e-34
174	0x08c15b67	1.1637254e-33
175	0x87e3ad72	-3.4257106e-34
176	0x0866b23f	6.9422635e-34
177	0x06e4a2fb	8.6003546e-35
178	0x087ab707	7.5446786e-34
179	0x884913a8	-6.0509343e-34
180	0x87af3b92	-2.6366086e-34
181	0x06afa20a	6.606578e-35
182	0x0771aea4	1.8182147e-34
183	0x861a395a	-2.9006316e-35
184	0x08805d40	7.725643e-34
185	0x88087af2	-4.1070533e-34
186	0x8825e570	-4.9922584e-34
187	0x87fe083a	-3.8222507e-34
188	0x88138874	-4.4396603e-34
189	0x0806a461	4.0517385e-34
190	0x06897ec1	5.171992e-35
191	0x074c6ad1	1.5378645e-34
192	0x887ea0cf	-7.6624374e-34
193	0x079e6ac1	2.3835942e-34
194	0x87bbb340	-2.8241986e-34
195	0x066bbe9d	4.4338628e-35
196	0x08669242	6.9385033e-34
197	0x8752b210	-1.5850972e-34
198	0x07e8bbf0	3.501794e-34
199	0x081c0c88	4.6959273e-34
200	0x0841ccee	5.831972e-34
201	0x88656ef4	-6.9042606e-34
202	0x07c561dc	2.9698782e-34
203	0x87cdf6c5	-3.099001e-34
204	0x08690f14	7.013361e-34
205	0x87fe78dc	-3.8288707e-34
206	0x86c3d0ca	-7.3657635e-35
207	0x089530c9	8.979081e-34
208	0x0829034f	5.0860477e-34
209	0x07ede64d	3.5795155e-34
210	0x86df77c9	-8.4059285e-35
211	0x87986917	-2.2932184e-34
212	0x07e41405	3.4317394e-34
213	0x878861c9	-2.0520479e-34
214	0x0797f8ee	2.2866263e-34
215	0x08750d05	7.374231e-34
216	0x07812344	1.943049e-34
217	0x0806b541	4.053722e-34
218	0x085f6eea	6.7237e-34
219	0x8641ab66	-3.642519e-35
220	0x85e0f937	-2.1156406e-35
221	0x07de1584	3.3415493e-34
222	0x88a03e51	-9.6443e-34
223	0x88bf0a53	-1.1497822e-33
224	0x0881fa61	7.822769e-34
225	0x873d1045	-1.4223561e-34
226	0x08639077	6.8480145e-34
227	0x87316ca1	-1.3347923e-34
228	0x076e0149	1.7905508e-34
229	0x05bd4aaa	1.7800902e-35
230	0x88bd5f49	-1.1397425e-33
231	0x8804c78f	-3.9956885e-34
232	0x87c69f88	-2.9885493e-34
233	0x069d6f99	5.9220814e-35
234	0x88805316	-7.723253e-34
235	0x8785bf4a	-2.0124045e-34
236	0x88ae3223	-1.0484031e-33
237	0x8769fabe	-1.7602658e-34
238	0x07c5c2e8	2.9755821e-34
239	0x07666c49	1.7335099e-34
240	0x88c1f30c	-1.1672905e-33
241	0x087c46ec	7.591686e-34
242	0x084a834f	6.0941516e-34
243	0x0761818f	1.6965193e-34
244	0x88b2969a	-1.0748392e-33
245	0x0850c5de	6.2825315e-34
246	0x075e0155	1.6701815e-34
247	0x872c6f21	-1.29725e-34
248	0x07e8a852	3.500641e-34
249	0x8829753e	-5.0994405e-34
250	0x8719f090	-1.1581136e-34
251	0x07bf7c2e	2.8811472e-34
252	0x082e7acc	5.2505567e-34
253	0x07c529e4	2.9665887e-34
254	0x8713c039	-1.111554e-34
255	0x88bcd544	-1.1364977e-33

layers.0.attn.0.gnn_q.bias f4 [16]
0	0x088ca936	8.465725e-34
1	0x08a11992	9.695847e-34
2	0x07cd12a1	3.085592e-34
3	0x885cb093	-6.6411404e-34
4	0x07891842	2.0627726e-34
5	0x87833cb5	-1.974637e-34
6	0x866047b3	-4.2182394e-35
7	0x884f9390	-6.2465256e-34
8	0x08676dfa	6.964331e-34
9	0x082b77cc	5.159926e-34
10	0x882a463a	-5.1240065e-34
11	0x083d5638	5.697647e-34
12	0x881bb469	-4.6855687e-34
13	0x0693c9b2	5.559162e-35
14	0x06a44d42	6.1803464e-35
15	0x06e406d6	8.577411e-35
