checkpoints/ames_33_train1_pos/Aug22-11:13:18_300.pth (torch, 377407 bytes, 294 tensors)

layers.0.weight f4 [10, 16]
00000000: 162f 6b3f afd8 a63f 33d8 d5bd 02b0 343f
00000010: eca8 17be 1dff ed3e e73e 74be c444 203f
00000020: ef94 853f e1a2 0dbf fa19 833e 0d1e 50bc
00000030: fd84 f2bc dcbc 6b3f 02dd 06bf eb7e 0ebf
00000040: ccd6 593f 5235 b53e d26d 37bf 6612 763f
00000050: 90b9 22be 8bc8 07bf 1c17 42be 9de4 293f
00000060: 0d7e babf ec40 cabd 2f93 78bf 9e70 0abd
00000070: 788d af3e 2adf ae3d afd1 c63f 19a4 dabe
00000080: 3b78 143f 063b 3bbe dd57 0cbf 994e 903e
00000090: 9ece 173f 2758 203f f1b9 673e 4772 e3be
000000a0: 3d82 c83e e69b c9be feb7 043f 150e ce3f
000000b0: 5b01 193f 07e5 3abe 92e3 0a3f 7ca9 113f
000000c0: 379d 313e 3b23 e6be 66c5 81bf 1b22 37bd
000000d0: 0a99 b4bf 3dd1 573f de10 e53e 264f fd3d
000000e0: a01b 6c3e e6f7 57bf ff44 683f 3cdb 01bf
000000f0: 0257 743e 6ca5 a0be f970 d43e 1812 e8bd
00000100: 6573 4a3f 954a 8fbe 344c 373f 34ab 67bd
00000110: fb7a 7a3e ebfc eb3d 5ab3 a23f 4b27 473e
00000120: 47ba 1a3f df40 7cbf cee7 57bf 40b8 41bf
00000130: 3d7a 04be 5f6c ab3e fcd9 c13e c9ea ab3f
00000140: 9ca0 60bd 69e2 89bf ad2c 043e f590 4fbe
00000150: dc49 c23e 80f5 033f b01e 593f ab8b 8dbf
00000160: 1157 8abf 114e 793d c19c b03d a6ff edbd
00000170: 62b7 933e d204 933f 8b7a 84bf 7bd0 31bf
00000180: f918 073f e855 693f beec 89be d9a0 abbf
00000190: 8894 69be c145 883e b6c8 96be e04d b0bf
000001a0: 9524 25be 75a2 f6be a013 9ebe 6d99 99bd
000001b0: 6ea5 75bf ccf1 abbe 818e 913f ee3a 9dbe
000001c0: e42f 653f 1db7 80bf 6fb8 2abf 006b 33bd
000001d0: 5cc5 8c3e adce bdbf 8235 2dbf 0ffd e5be
000001e0: 010a 853e f323 edbe 0e56 7dbe 1a71 82be
000001f0: 764f 163e 6754 5dbf 2918 69bf 5a0f a1be
00000200: dda3 6d3f 641a 91bd 9bb1 b23f 6af8 f73e
00000210: 78cd f6be f490 5e3f 006e 2cbf e816 f4be
00000220: df41 41bf 0106 a4be 8c24 a9be ee64 80bd
00000230: 7732 2c3f 9cf0 8cbf e56b 323e 5865 bbbe
00000240: fca5 84bf e13e fd3e 4e57 213f 6fd9 6a3f
00000250: 1931 023f d4b0 96bf 2495 773f 4f0f d9be
00000260: 4166 ccbe 3b7b 46bf 32f4 983f 47a8 aabe
00000270: d0d8 ae3d 4fb4 81be 0350 bc3e 9910 16be
0.9186872 1.3034877 -0.10441627 0.70581067 -0.14810532 0.46483698 -0.2385212 0.6260493
1.0436076 -0.5532666 0.25605756 -0.012702477 -0.02960443 0.9208505 -0.5268098 -0.5566241
0.8509338 0.35392243 -0.7165195 0.96121824 -0.15891099 -0.5304038 -0.18954128 0.6636446
-1.4569718 -0.09875664 -0.97099584 -0.033798806 0.3428762 0.08538659 1.553274 -0.42703322
0.5799596 -0.18284234 -0.5482157 0.28184965 0.5929965 0.6263451 0.22629525 -0.44423124
0.39161864 -0.39376754 0.5184325 1.6098047 0.59767693 -0.1825143 0.54253495 0.5689924
0.17345129 -0.44948754 -1.0138366 -0.04471026 -1.4109204 0.8430365 0.4473943 0.12368612
0.23057413 -0.8436264 0.9073028 -0.5072515 0.23861316 -0.31376207 0.4149244 -0.11331576
0.7908233 -0.2798659 0.7160065 -0.056559756 0.24460976 0.1152285 1.2710984 0.19448583
0.60440487 -0.98536485 -0.8433808 -0.7567177 -0.12937255 0.33481118 0.3786162 1.3431026
-0.05484067 -1.077222 0.12907667 -0.2027014 0.37946975 0.5154648 0.8481245 -1.1058248
-1.080782 0.060865466 0.086236484 -0.11621027 0.28850847 1.1485846 -1.0349897 -0.6945874
0.5277248 0.9114671 -0.26938432 -1.3408462 -0.22810566 0.26615718 -0.29450005 -1.3773766
-0.16127236 -0.4817082 -0.30874348 -0.07499967 -0.9595555 -0.33582914 1.1371614 -0.30709022
0.895262 -1.0055882 -0.66687673 -0.043803215 0.27494323 -1.4828697 -0.6765977 -0.4491963
0.25984195 -0.4631649 -0.24739859 -0.25476915 0.1467875 -0.8645691 -0.9105249 -0.31457025
0.9282816 -0.07085112 1.3960451 0.48431712 -0.48203635 0.8693993 -0.67355347 -0.47673726
-0.75491136 -0.3203583 -0.33035696 -0.06269251 0.67264503 -1.1010928 0.17423971 -0.36600757
-1.0363154 0.49462035 0.6302384 0.9173803 0.5085617 -1.1772714 0.96711946 -0.42394492
-0.39921764 -0.77531785 1.1949522 -0.3333151 0.085374475 -0.25332877 0.36779794 -0.14654769

layers.0.bias f4 [16]
00000000: b2ce e7bd b056 39be 4121 803d b5b4 d03e
00000010: 57b8 693e b2cd 5e3e 6be7 3d3d f96e 9a3c
00000020: 84d4 8f3e 207b 283f 71d9 27be 1ed7 08bf
00000030: 6d89 e6be 5a3f 6fbe 86d2 eb3d 4a1e 1dbf
-0.11318721 -0.18099475 0.06256343 0.4076287 0.22824226 0.21758154 0.046363275 0.018851744
0.28091824 0.65812874 -0.16391541 -0.5345324 -0.45026723 -0.2336401 0.115147635 -0.6137434

layers.1.weight f4 [16, 16]
00000000: b158 c03d 99f9 11bb c88b 82bd 585f 38bf
00000010: 6201 eabc c775 3dbf f0b1 5cbf 535f 643f
00000020: f9dc 043f 0a57 20bf 87a1 b9be 4e07 8dbe
00000030: 74e6 413c 66f7 d7bd 57f8 c2be 14f3 253e
00000040: 3b67 b0be ba2d 733e aef1 0d3f e433 56bf
00000050: a771 b93d bbb3 fd3e e114 233f 9259 12bf
00000060: 26ea 5b3f 9c11 d33e cd75 ba3e ee82 7e3e
00000070: 2c12 f8bd ed42 bcbe a702 44bd 9702 6fbe
00000080: f72b 143f 7e4c 213f 1bf7 34be b29e ed3b
00000090: abd3 063e ae18 e43e 1611 033f 2c88 4abd
000000a0: 24fc 02bf f9c9 42bf 9e55 593f 183d 423e
000000b0: cd23 533f c242 10bf 2011 5a3e 1d51 6cbf
000000c0: 1e86 aabe 03ce 3c3f fe61 5c3f 47a0 363e
000000d0: 9d16 fcbe 7a5c febe d5eb 10bc cdbb 103f
000000e0: b35d 9c3d 8e5c aebd 1a55 7a3d d9a1 50be
000000f0: 89b0 1dbf 63f1 2ebe 5949 bbbd 2b86 08be
00000100: ed8b a5bf 0a7a 7d3e 36bb 103f 9112 1c3f
00000110: 8b69 03bf ae7e 17bf b05e 3a3d c0a7 e03e
00000120: 2d8d 983e aa18 013f a08f 493f e34c 8cbe
00000130: 36ad c63e 56d9 d7be ff20 cdbd e3f1 6bbe
00000140: c970 b1bd 1ef2 f1bc 03b5 e2be f748 15bf
00000150: 10d8 9bbe 1a9d 18bf 8932 9bbe 0430 ba3d
00000160: 9206 0bbf 7bdb 253e eb78 aabe e10d a2be
00000170: b423 5dbf 95bb 2cbd 5138 81be b25e 85be
00000180: 5460 413f 9bb3 11bf 0640 373c 3043 483f
00000190: 9743 023e fcfb 23bf 7bc6 d0be 175b 94be
000001a0: e695 1abe 8f9d 453f b9a4 d6be 1660 c3be
000001b0: 90e6 f43e 52cc edbe 57c3 a63e 05d6 f6bd
000001c0: 8aea 0e3f 4b94 433f 7bbc 4b3e 9512 4fbe
000001d0: 1177 683e 5fa5 0e3f 8a97 a33e 9924 51bf
000001e0: b250 dbbe 9ec8 88be 9192 2cbe f915 0c3e
000001f0: dac9 233d 0606 92bd e250 b0be e1d9 253f
00000200: c183 cd3c ceaa 44be 8fac 173f a22a 46bf
00000210: 2b29 69be 1914 0dbf c26c 67be 8365 fabe
00000220: 2a70 71bf b1d6 a33c a393 04be e17a 9dbe
00000230: e873 d33e e28a c5be 1579 3ebe ca53 d3bd
00000240: c8a2 1dbf b218 083f 21fd 00bf 5f7b 643e
00000250: 8bc5 04bf b90c f93e df48 a93f ab07 99be
00000260: 74ef 34bf 6575 c03e 255f 283f d0f5 1a3e
00000270: 6b47 933c 83ca 303f 5095 dcbd eec2 1a3f
00000280: f960 d3be 62eb 98be 8313 8d3f 058e 043f
00000290: 6ce0 3ebe 071a d4be e3fc 1cbf 16e3 dbbe
000002a0: c15d 30bf c7d6 4e3e 179c 05be 124b 643c
000002b0: 37b0 86bf 022c b6be 9dec 1e3d 050a 42bf
000002c0: 9eca 6fbf f1d9 2b3f 07dc 9abe 2ec2 d5bd
000002d0: 4f6a 76bd a97c 3cbf 7029 57bf 35cc bcbe
000002e0: c626 bcbe 0614 2ebe f137 e13e f85c ccbd
000002f0: 3ac1 37bf bb62 dc3c e8c8 82bc 5499 c23e
00000300: 8ec6 88bb 6751 103f 1b72 f53c 1cd1 1a3f
00000310: 7676 af3e c937 f4be 87cf 57bf e22d 593f
00000320: 330a 77be bb63 e7be 4b2c 86be 8ad1 0abe
00000330: 6396 f6be 4d4b ddbd cb1f 2dbe c816 a8be
00000340: a27a 013e 8ee3 c0be 80a3 8b3e 8c23 8d3e
00000350: af34 393e ef87 433e 98d7 6abe 0410 4dbe
00000360: 4eaa 13bd 392e 1f3f 2f15 183f 2f8c fb3d
00000370: ab71 e43e 6483 33bf 67ac a73e 4d8e 3e3f
00000380: 9ecf f93d 2e74 223f 62b4 e6be 605e 0ebf
00000390: 4772 63be 60a5 2abf bb60 17bf 7036 0bbe
000003a0: 41be 743f af5f 253f 4f9d b4be 7a9e 89be
000003b0: 3795 d3be 4e69 113e 0353 083d e286 ffbe
000003c0: 4a12 b0bd bbbd c73e 9e4b c0be 5c83 7f3c
000003d0: 8e84 b33e e841 5abf b1ea b7bf d1ef 24bf
000003e0: 1306 28bf 418e b83e e323 52be e1c3 28be
000003f0: 9232 363f 2a34 7dbc b002 a63e d4f5 4ebe
0.093919165 -0.0022274016 -0.063743174 -0.72020483 -0.028565113 -0.7400784 -0.8620901 0.89207953
0.5189968 -0.6263281 -0.36256048 -0.27544636 0.011834729 -0.105452344 -0.38080093 0.16206008
-0.3445376 0.23747912 0.554469 -0.8367293 0.090548806 0.49551186 0.63703734 -0.57167923
0.8590416 0.41224372 0.36418 0.24854633 -0.12112841 -0.3676981 -0.047854092 -0.23340832
0.57879585 0.6300734 -0.17672388 0.007251584 0.13166682 0.4455008 0.51197946 -0.04944627
-0.51165986 -0.76089436 0.84896266 0.18968618 0.824765 -0.56351864 0.21295595 -0.9231127
-0.33305448 0.7375185 0.86087024 0.17834578 -0.49236003 -0.4967993 -0.008845289 0.5653656
0.07635059 -0.08513747 0.061116315 -0.2037424 -0.61597496 -0.17084269 -0.09144849 -0.13332431
-1.2933327 0.24753585 0.5653566 0.6096583 -0.5133292 -0.5917767 0.045500457 0.43877983
0.2979521 0.5042826 0.7873478 -0.2740241 0.38804024 -0.42158002 -0.10016059 -0.23041491
-0.0866409 -0.029534396 -0.44278726 -0.5831446 -0.3043828 -0.5961472 -0.30311993 0.090911895
-0.543069 0.16197006 -0.33295378 -0.31651214 -0.86382604 -0.04217108 -0.25238279 -0.2604881
0.7553761 -0.5691468 0.011184698 0.7822752 0.12721096 -0.6405637 -0.4077643 -0.28975746
-0.15096244 0.7719354 -0.41922548 -0.38159245 0.47832155 -0.46444947 0.32570907 -0.1205254
0.5582663 0.7639815 0.19896118 -0.20221932 0.2270167 0.55721086 0.31951553 -0.8169647
-0.42835003 -0.2671556 -0.16852786 0.13680257 0.039987423 -0.07130055 -0.3443671 0.6478558
0.02508724 -0.19205782 0.5924768 -0.774088 -0.2276961 -0.5510879 -0.22600082 -0.48905572
-0.94311774 0.019999834 -0.12946944 -0.30757812 0.41299367 -0.38582522 -0.18600877 -0.10318716
-0.6157651 0.5316268 -0.50386244 0.22312687 -0.51863927 0.4864252 1.3225363 -0.29888663
-0.70677876 0.37589565 0.6577018 0.15132833 0.01797839 0.6905901 -0.107706666 0.6045369
-0.41284922 -0.29867083 1.102158 0.51779205 -0.18640298 -0.41426107 -0.61323375 -0.4294669
-0.6889306 0.20199119 -0.13047825 0.013933914 -1.0522527 -0.3558045 0.03879987 -0.7579654
-0.93668544 0.6712943 -0.30245993 -0.104374275 -0.060159978 -0.73627716 -0.84047604 -0.36874548
-0.36748332 -0.16999826 0.43987992 -0.0997867 -0.71779215 0.026902547 -0.01596494 0.38007605
-0.00417406 0.5637421 0.029961636 0.60475326 0.34270066 -0.4769881 -0.84301037 0.84835637
-0.24124984 -0.45193276 -0.26205668 -0.13556495 -0.4816161 -0.10805378 -0.1690666 -0.3282988
0.12644437 -0.3767361 0.27273178 0.27566183 0.18086503 0.19094823 -0.22933805 -0.2002564
-0.036051087 0.62179905 0.59407324 0.12282597 0.44617972 -0.7012236 0.3274872 0.74435884
0.12197803 0.63458526 -0.45059496 -0.55612755 -0.22211562 -0.6665859 -0.59131974 -0.13594985
0.95602804 0.64599127 -0.35276267 -0.2687872 -0.4132478 0.14200327 0.03328229 -0.49907595
-0.08597238 0.3901194 -0.3755769 0.015595283 0.3506207 -0.85256815 -1.4368497 -0.6442843
-0.6563427 0.3604603 -0.20521502 -0.16480972 0.71170914 -0.015454331 0.32423925 -0.20210963

layers.1.bias f4 [16]
00000000: 1c66 94bc fb8c 81bd 20d6 3ebe 0014 d23d
00000010: 9216 5fbe 9866 883d e5a8 bfbe dee4 80be
00000020: 855d 7d3d 55af 45be 7e70 05be ef96 85bd
00000030: 83b4 aebd 76c8 28be bea7 173e 4680 08bd
-0.018115096 -0.06325718 -0.1863637 0.10257721 -0.21785954 0.06660193 -0.37433544 -0.25174612
0.061856765 -0.19305165 -0.13031194 -0.06522929 -0.08530524 -0.1648272 0.14810082 -0.033325456

final.linears.0.weight f4 [84, 42]
00000000: 7d41 053e 2f11 5b3f 3681 e5be eab1 e9be
00000010: 3840 97bd 6854 9dbf 149a 61bf 91c9 ad3e
00000020: 4025 fc3e 4e29 113e a0eb 96be fe81 0ebf
00000030: b069 e7bd 2f51 87be 26b0 633e a7a0 65bd
00000040: 6637 cd3e bca8 08bf 3903 44bd 4a03 163e
00000050: 32bf 583e d68d 953d f9d9 f9bc 29ec b43e
00000060: 31fd 5fbe 40ce 883e c1f5 523d a541 0f3e
00000070: 7ed1 653e 9889 83be d0a3 55be 7cb1 7d3d
00000080: 7ec3 593e 705a 69be 240c 083e 44f5 2cbe
00000090: c771 75bd de9f e23c 312f 11be 1a73 46bd
000000a0: b9d0 f5bd 568c 013e 3100 ae3d dffb a6be
000000b0: a13e 16bf fed3 d03e 2a49 223f 0c6e 19bf
000000c0: f5dd 423f 8f59 a4be c0a5 3ebf 8636 1abf
000000d0: 169e e33d 98ed 88bd bbff 973e f329 313f
000000e0: 1a31 313f 1023 9a3c 767e a6bc 495f 5fbe
000000f0: 359b 69be f9ec 7fbd ac34 a23e 5b97 bf3e
00000100: 9d95 4a3f 8959 09be 2eeb 0cbd 9b3c 47be
00000110: 3bbc 18bd 08d7 3bbe 6746 dbbd 6299 b7bd
00000120: 7bf8 5f3e 02a8 043e 17da f03d 4797 0ebd
00000130: 97c9 74bb c550 873d aadc d6bd 3c06 7c3e
00000140: 504e d93d b693 0f3e 331f 61bd 53ac 973d
00000150: bea1 18bf f36e 88be 5d8c 3d3d 1fdb 983f
00000160: da4f 913e 0c4f 0f3f 73bd eabe c11f 14bd
00000170: d42c e93e 0a3d d43e 7642 1b3d 209e 88be
00000180: 7ed8 d03c aa53 6dbe 2c4a a7bd b5a9 2dbd
00000190: fe4d df3d ac48 1cbe 468b 85bc 54c7 fbbd
000001a0: 0438 4b3d 5dbc e23d 0c65 973d 6299 b53c
000001b0: e230 cbbd 766a 51bd 3419 45bd dc66 733d
000001c0: 54b9 d63d 3c33 69bc 0731 3c3c 9dce 383d
000001d0: 6dbe 903d 9c2b 193d bf76 833d 2f65 8ebd
000001e0: a4d4 0dbd 70e3 173e 7e4c 1a3d 860b 933c
000001f0: b052 143d d4cb c63d a315 24bf de75 b43e
00000200: b745 c43e 3227 b4ba 9a58 d93c 38b5 353f
00000210: 2428 d43e bcad 20bf 0f34 dabf fa3b c4be
00000220: 3d11 84be fa62 d13d bf35 c7be e4aa 8abe
00000230: e7ea 013d 7dcc 0cbd b844 6a3e 7247 303e
00000240: fbe4 c4be 8849 ca3e 8537 11be f6d0 1d3e
00000250: 192a 733d b249 853e 3de3 733d b9ba 913e
00000260: e7e0 dcbc e179 cbbc 4207 63be 0da1 9b3c
00000270: d668 273e ffcf 9fbd 020a 723e 7230 9eba
00000280: 9d6a 9f3c c8ff fd3d 3095 32be b655 d03c
00000290: 8a1f 243d b765 3b3e 762d ae3d a0d7 573d
000002a0: 82a7 9e3d 7857 4b3e e472 00c0 ab47 a5bd
000002b0: d0a6 403f c918 2ebd eb84 233e 1721 893e
000002c0: 0beb 123d c1d8 103e 262e c8bd abb3 1bbd
000002d0: 6dc2 923d b232 a93c a8e6 123e dfe7 453d
000002e0: 21f2 20bd 36c5 2b3e 83c9 e4bc 817a 623d
000002f0: c193 1dbe c8c2 62be 608c 5cbe fd51 25bd
00000300: 39bd bd3d e2af 39be ee1f 07bd 5a97 c9bd
00000310: a02d 1fbd 3ab7 463d d6d9 d7bd f8ac f4be
00000320: 47dd 353e a1e8 62bd c8ca 343b 0c0f 7cbc
00000330: f27f 50bc c7ef 9bbd ae52 4ebc 2255 223b
00000340: 00e6 c0bd b2a8 86bb 5bea 453f 1346 cf3d
00000350: 341d ddbe 8310 6f3f 3f61 26bf 225d 28bf
00000360: 7556 1b3f 42ea 373f 4e88 92bd 6a66 33be
00000370: 8b67 0ebe e3a1 32bd 5c5d ac3d 1b07 233e
00000380: c8e3 d43d 6225 03be 5999 653e 6131 46bb
00000390: a19f 53be 7f9e 753e 3eba 3cbe cf4a b2bd
000003a0: 337d f0bc c2da 2dbd 00e7 433e 3f89 66be
000003b0: d3cb 3e3e c9b0 90bc 9abb 2fbd cf80 943d
000003c0: ee8b bbbd f2e8 09be 8a09 dbbe 21c7 e83c
000003d0: 6d02 5fbe c047 063d b2b1 8ebd 5d35 923e
000003e0: 6847 0b3d 642c 1f3d 0434 743b e572 45bd
000003f0: e677 99bc 5dfb 05be 8d41 44c0 ca1e 903f
0.13013263 0.85573095 -0.44825143 -0.4564355 -0.07385296 -1.2291384 -0.8812573 0.33942845
0.4924717 0.14175913 -0.29476643 -0.556671 -0.11299455 -0.26429126 0.22235164 -0.056061413
0.40081328 -0.5338247 -0.047854636 0.14649692 0.21166685 0.07302444 -0.030499445 0.35336426
-0.21873929 0.26719856 0.0515039 0.13989885 0.22443196 -0.25690913 -0.20863271 0.06193684
0.2126598 -0.22788405 0.13285881 -0.16890436 -0.05992296 0.027664121 -0.14178158 -0.048449613
-0.12002701 0.1265119 0.0849613 -0.32614037 -0.58689314 0.40786737 0.6339289 -0.59933543
0.7611993 -0.32099578 -0.74471664 -0.60239446 0.11114137 -0.066859424 0.29687294 0.69204634
0.6921555 0.018815547 -0.020323973 -0.21813692 -0.22813113 -0.062481854 0.3168081 0.37420163
0.7913454 -0.13413061 -0.034403972 -0.19456713 -0.037288886 -0.18343747 -0.107067876 -0.08964802
0.21872132 0.12954715 0.11760347 -0.034812238 -0.0037351602 0.066072024 -0.10491307 0.24611753
0.1061064 0.14021191 -0.054961395 0.07405915 -0.596218 -0.26647148 0.04627644 1.194187
0.28381234 0.5597999 -0.45847663 -0.036163095 0.45542014 0.4145282 0.03790518 -0.2668314
0.025493857 -0.23176447 -0.08168444 -0.042398173 0.10903548 -0.15262097 -0.016301762 -0.12293878
0.049613968 0.11071084 0.0739232 0.022167865 -0.09921433 -0.05112692 -0.04811974 0.059424266
0.10484567 -0.014233407 0.011486298 0.045118917 0.07067571 0.037395105 0.064191334 -0.06952893
-0.034626618 0.14832854 0.037670605 0.01794983 0.03621167 0.09706846 -0.64095515 0.35246176
0.38334438 -0.0013744591 0.026531506 0.7097964 0.41436875 -0.627651 -1.7047137 -0.38327008
-0.25794402 0.102239564 -0.38908193 -0.27083504 0.03171816 -0.034374703 0.22877777 0.17214754
-0.38455948 0.39509225 -0.14181335 0.15411744 0.05936632 0.26032788 0.059542883 0.2846277
-0.02696271 -0.02483839 -0.22170737 0.018997693 0.16348585 -0.07803344 0.2363663 -0.0012068881
0.019460017 0.12402302 -0.17439723 0.025431495 0.04006914 0.1830052 0.08504765 0.05269587
0.07746793 0.19857585 -2.0070124 -0.0807031 0.75254536 -0.042504106 0.15968673 0.26783058
0.035868686 0.14145185 -0.09774427 -0.03801314 0.0716599 0.020654056 0.14345801 0.048316833
-0.039293412 0.16774449 -0.02792812 0.05529261 -0.15388395 -0.22144616 -0.21537924 -0.040361393
0.09264607 -0.181335 -0.032989435 -0.09843321 -0.03886187 0.048514582 -0.10539596 -0.47788215
0.17760192 -0.055397633 0.0027586687 -0.015384447 -0.012725817 -0.07614093 -0.012592955 0.0024769981
-0.09418869 -0.0041094655 0.77310723 0.101207875 -0.43186343 0.9338457 -0.64992136 -0.6576711
0.606788 0.71841824 -0.07154904 -0.17519537 -0.13906686 -0.04361142 0.084162444 0.1592068
0.10395008 -0.12807229 0.22421779 -0.0030241834 -0.20666362 0.23986243 -0.18430421 -0.08705675
-0.029356575 -0.04244495 0.19131088 -0.22513293 0.1863244 -0.017662423 -0.04290352 0.07251131
-0.09157549 -0.13467768 -0.42780715 0.028415265 -0.21778269 0.03278327 -0.069674864 0.28556338
0.034003645 0.038860694 0.003726245 -0.048205275 -0.01873393 -0.13084169 -3.066501 1.1259396

final.linears.0.bias f4 [84]
00000000: cce7 463e 8745 b6bc 5847 533e 27dc 6c3e
00000010: f677 923e 6a2e a13d 31e6 b7bd 0146 84bb
00000020: 7ace 393e 6647 f33d 6886 4b3e 1589 953d
00000030: 5963 ab3d 83d7 9c3e b818 59bd 2757 383e
00000040: 79b9 7f3e fce7 2bbd 1f39 3c3e 4679 fb3d
00000050: ec49 1f3d 7ee9 4c3e 5a21 a03b dcb2 043e
00000060: 11e9 a73d d5b5 7f3d beef eebd 972a 0ebd
00000070: 2db2 8e3e a3bd 103e 0c0d 043e c3f8 453e
00000080: 77d4 973d 27c9 1b3e cc58 323e 5b60 1e3e
00000090: e3b9 b43d 9578 553d c6a4 003c 9a3b 623e
000000a0: 4160 6ebe 0ae0 783e 596c 9bbd ea33 513d
000000b0: 674f 393e 6183 c53d 3f59 003e aad1 6e3e
000000c0: 2a89 473e 3174 4c3d a5ee a3bd 40a8 913e
000000d0: 5c96 0ebe d9dd 13bd 6afd 463e 5b5d acbd
000000e0: 8c4b ac3d d132 fa3c 4c24 8b3d 6703 883d
000000f0: 27c2 513e 03ec b63d b39b a23d 705f e03c
00000100: 2c3b 483e ec31 383e 1557 b63d 16c7 963d
00000110: 3ec3 1bbe a403 4e3e 1337 633e 15f7 243e
00000120: 6a4c 13bc 9b35 383e 9269 b5bb 58c2 363e
00000130: a132 ad3d 2ef6 af3c 1cdf 1dbe c129 e63d
00000140: 6f57 2fbd ad07 5f3e dda2 813e 96e0 663d
0.19424361 -0.02224995 0.20632684 0.23130856 0.28607148 0.07870181 -0.089794524 -0.0040366654
0.18145171 0.118788525 0.1987549 0.07301537 0.083685584 0.30633172 -0.05300209 0.18001996
0.24973096 -0.041969284 0.18381165 0.122789904 0.038888857 0.20010945 0.0048867883 0.12958854
0.08198751 0.062429268 -0.11666821 -0.034708586 0.27870312 0.1413484 0.12895602 0.19333176
0.07413571 0.15213452 0.17416686 0.15466444 0.088245176 0.05211695 0.007851785 0.22093049
-0.23278905 0.24304214 -0.07589025 0.0510749 0.18096696 0.09644199 0.12534045 0.23322168
0.19485918 0.049915496 -0.08004502 0.28448677 -0.13924545 -0.036100242 0.19432607 -0.08416244
0.08412847 0.03054181 0.067940325 0.06641274 0.2048422 0.089317344 0.079398535 0.027389258
0.19553822 0.17987794 0.08903328 0.073621914 -0.15211198 0.20118576 0.22188978 0.1610988
-0.0089903865 0.17989199 -0.0055362666 0.17847574 0.08456922 0.021479692 -0.1541714 0.11238433
-0.042807993 0.21780272 0.25319567 0.056366526

final.linears.1.weight f4 [84, 84]
00000000: 7441 f1bd 6659 c03d f5e7 b0be 0a35 3c3e
00000010: 2f39 d13d 98c1 fa3d 75ab b2bd 6dd0 e8bd
00000020: cc31 39bc 14bc 84bc e8e4 6abd acb0 8bbd
00000030: e5c6 de3d bb5d aabd 05e4 15bd 6915 6cbe
00000040: 1e76 16bd 4a56 a83d a84e 85bd a42c 423d
00000050: a595 5bbe 094b 9fbd 6497 82bd a9e0 8b3d
00000060: 5824 f6bd 47fa c23d 4aad a0be 46b7 1fbc
00000070: 16c2 b5bd fb02 09bd 6c3e dcbd ba3a abbd
00000080: 91ac adbc 4089 803e d8f7 1ebe 88b5 73bd
00000090: 716b 9a3d 021a 3ebe ebb2 833d 29d1 ddbd
000000a0: cb4a 1a3e a6f7 f4bc 708a c83d 3dee 2dbe
000000b0: fe85 22be 63ce 663d 60dd b5bd 74b4 b13d
000000c0: da53 9dbc 7d4b 96be ef70 57be e547 82bc
000000d0: ad4d 69be f96e a63d 8a07 04be 1537 c9bc
000000e0: d94d 4f3d a657 80bd 888e 55bd 71f9 d5bd
000000f0: 8d6c 91be d88b bbbd cc4b c03e 511f 4d3e
00000100: 6e74 4abe 6512 88bb 6422 b3bd 602a 673d
00000110: c1b4 fc3d 97d2 263e 94fe 3f3e 37ec 733d
00000120: 121c 7a3d fc5f c63c bcdd 04bf 4d19 99bd
00000130: dc89 b53d 9103 1fbd b9ed 2bbe 3ca4 a5bd
00000140: bb5f acbd dcfc b1be 8c42 ecbd 8e3f c1bd
00000150: ff45 e3bd f907 65be 5e44 41be 3a47 ffbd
00000160: c256 94be 8cca db3d 6888 41bd e515 83be
00000170: 8b68 f5bc 57c4 69be 942c a0be 8645 3ebb
00000180: c045 a7bd b23e 14be de35 743d 6b4c 50bf
00000190: 36fd 02bc 5d19 c5be acc7 0abe 4350 57be
000001a0: 4370 18be 2d8e e5bc 663d 6abe 1165 e83d
000001b0: 9400 01be 8ddd f0bd d3f3 d6bd 8ea2 95be
000001c0: a584 1abe ef7d 9bbd 8df1 6ebe 7cc9 dabd
000001d0: f62b dbbb bac5 0fbe c107 afbe 4ab9 32be
000001e0: fedd 63be 8683 b5bd c209 50be 4e1f 9cbc
000001f0: 54d6 9ebe 64ae 53bf 0fdb 6abe 291f 10be
00000200: 4944 3abe 107b 06bd 0a80 a2bd aaab ee3d
00000210: 6a1b 873d b7da dcbd 7bb8 7dbe ba95 dcbc
00000220: f09b 333e 2cd2 18be d858 2ebe eb81 2fbe
00000230: 6a90 b93d 0f89 ac3d b91a 2ebe 4c97 aabd
00000240: 5830 2abe 80ce 24be c832 3abd 6e3c dfbd
00000250: a452 89bd 676e 783d 7cea cdbd 1885 3e3e
00000260: 5355 e93c fb7a 9e3d ef22 ebbd de87 15be
00000270: e89a a0be 0314 d8bd dfd9 d6bd 2b48 95bd
00000280: 5173 2fbe 156e 033d 4f77 29bc 0630 19be
00000290: 0b12 70bd e3c4 903d 7a67 23bd a749 ce3d
000002a0: 2241 c0be 9dd3 49bd db5e 0bbe 8b20 57be
000002b0: 50ea a0bd 85cd 97be 27fe 383e c5f3 d5be
000002c0: 644d 8dbe 3dcf 96be 2472 94be 003d 85be
000002d0: d989 b9be 2df6 0dbe c8bb f0bd c19d a0be
000002e0: d55f c4be a3ce 993b 87f5 a9be 499d 4bbe
000002f0: be41 babe 9431 84be d182 72be c477 6dbe
00000300: 0fda b2be 10b0 d7be 5136 b6bc 819b 5abe
00000310: 4d6f 8dbe 8054 93be d8d3 c1be 68ec 92be
00000320: da69 8ebe e926 56bf f3de 9cbe 65a5 90be
00000330: 08b9 b4be 5477 5dbd 1e33 aabd f8d9 a1be
00000340: 8108 ed3d 8a7d b3be d123 9fbd 07e3 c3bf
00000350: 400b b6be c914 56be 76a4 8fbe 1c85 21be
00000360: 3592 aebe 80f2 8cbe 0a69 0bbc 6d07 93be
00000370: 5aa9 30be fcc9 f8be b1ef d1be fb67 95be
00000380: f0d0 25be 08c4 d3bd 2afd 37be 5ed1 0ebe
00000390: acc4 e6be c3ec 98be 8d7c 6cbe 7de0 8ebe
000003a0: e3ea b1be 4c31 d9be 359b f8be 9b77 30be
000003b0: 756f 91bd 84cc b5be 94e2 9fbe 1c63 9bbe
000003c0: 1f29 acbe e787 acbe ff81 20be 9734 c1be
000003d0: c825 a0be d566 aebe 8a53 24be 6ec3 6ebe
000003e0: 7705 20be 3fdd 09be b22f c4be 6806 f3bd
000003f0: ca64 123e 4459 20bd 5e88 29be ef8c 07be
-0.11780062 0.093920514 -0.3455197 0.18379608 0.10215985 0.12243956 -0.08724109 -0.11367879
-0.011303376 -0.016202964 -0.05734721 -0.06820807 0.1087778 -0.08318659 -0.03659441 -0.23055042
-0.03673374 0.08219583 -0.06509143 0.047405854 -0.21443804 -0.07777984 -0.06376532 0.0682996
-0.12018651 0.09520393 -0.3138221 -0.009748286 -0.088749096 -0.033450108 -0.107540935 -0.083608106
-0.02120045 0.25104713 -0.15524232 -0.059499294 0.07540024 -0.18564609 0.0643061 -0.1083091
0.15067594 -0.029903244 0.0979203 -0.16985412 -0.15871426 0.05634917 -0.088801146 0.08676997
-0.019205023 -0.29354468 -0.21039174 -0.015903423 -0.22783537 0.08126635 -0.12893501 -0.024562398
0.05061135 -0.062667176 -0.05213788 -0.10447968 -0.2840313 -0.091575325 0.37557828 0.20031478
-0.19770977 -0.0041525834 -0.08746794 0.056436896 0.123391636 0.16291271 0.18749458 0.059551444
0.061061926 0.02421569 -0.5190084 -0.07475529 0.08864185 -0.03882176 -0.16789903 -0.08087966
-0.08416697 -0.3476323 -0.1153613 -0.0943595 -0.11097335 -0.22366323 -0.18873736 -0.12464757
-0.2897244 0.10731992 -0.047249228 -0.25602642 -0.029957077 -0.22828804 -0.3128401 -0.0029033138
-0.08167601 -0.14477041 0.059621684 -0.81366605 -0.0079949405 -0.38495913 -0.13552731 -0.21026711
-0.14886574 -0.028021896 -0.22874984 0.11347402 -0.12597877 -0.117610075 -0.104957245 -0.29225582
-0.15089662 -0.07592379 -0.23334332 -0.10682961 -0.00668859 -0.1404027 -0.34185603 -0.17453495
-0.22252652 -0.08862977 -0.20316222 -0.019057896 -0.31022894 -0.82687974 -0.22935127 -0.14074387
-0.18190111 -0.032832205 -0.07934578 0.11653836 0.06597026 -0.10783904 -0.24777405 -0.026926864
0.17539954 -0.14923924 -0.17026079 -0.17139404 0.09060748 0.08424579 -0.17002381 -0.08329639
-0.16620004 -0.16094398 -0.045458585 -0.10900198 -0.067052156 0.060652163 -0.1005449 0.18605459
0.028483069 0.077383004 -0.114812724 -0.1460261 -0.31368184 -0.10550692 -0.10490774 -0.072891556
-0.17133833 0.032087404 -0.010343387 -0.14959726 -0.058610957 0.07068803 -0.039893605 0.10072642
-0.37549692 -0.049274076 -0.13610403 -0.21008508 -0.078571916 -0.29648986 0.18065701 -0.41787544
-0.27598107 -0.29454985 -0.28993332 -0.26023102 -0.36237982 -0.1386344 -0.117545664 -0.31370357
-0.38354364 0.0046938225 -0.33195135 -0.19884218 -0.36378282 -0.25819075 -0.23682715 -0.23190218
-0.3493199 -0.42126513 -0.022242697 -0.21348383 -0.27623978 -0.28775406 -0.37856936 -0.2869599
-0.27815133 -0.8365312 -0.30638847 -0.28251186 -0.35297418 -0.05406888 -0.08310531 -0.3161161
0.115738876 -0.35056716 -0.07770503 -1.5303658 -0.35555458 -0.20906366 -0.2805516 -0.15773433
-0.34095922 -0.27528763 -0.00850893 -0.28716603 -0.17252102 -0.48591602 -0.41003183 -0.29180893
-0.16192985 -0.10340124 -0.17967668 -0.13947055 -0.45071924 -0.29868135 -0.23094387 -0.27905646
-0.34749517 -0.42420423 -0.48555914 -0.17233126 -0.07101337 -0.35507596 -0.31227553 -0.30349052
-0.33625123 -0.33697435 -0.1567459 -0.37735435 -0.31278825 -0.3406283 -0.16047493 -0.23316738
-0.15627085 -0.13463305 -0.3831764 -0.11866456 0.1429626 -0.03914763 -0.16555926 -0.13237356

final.linears.1.bias f4 [84]
00000000: f230 b43d 28f4 2dbe 5300 e9be 3f00 093c
00000010: bfdc 57be 6c6a 92be ac49 1f3c 3dc8 a13d
00000020: ea87 1ebe 6ee8 fbbe 7ee8 e13d db71 ab3d
00000030: 3d8b 4cbd 8cf0 203e 60ee 03be bf3c 47bb
00000040: ca6d 9f3c 7636 0abf 030c 9a3c e464 9bbe
00000050: 5f6b 8e3c 4014 11be 7bb2 a8bd e770 91be
00000060: f81a 9ebe be09 f5bd cf53 2a3d 65f2 72be
00000070: 33b7 34be a0c6 92be 3110 8dbe 55e7 fa3c
00000080: bbc1 ba3d f7e9 38be 7b00 d6bd f28b 8fbd
00000090: 4495 84bd 52bf bdbe e3d7 bbbd 1bc7 d6bc
000000a0: 129f bcbe 75b3 9abe 8145 d3be 5768 d9bd
000000b0: ce1d 47be 7f11 2d3e abdd 09be cd87 9fbd
000000c0: 81bd babb 6349 f9be f0ee 09be 3033 873d
000000d0: 2004 9bbe ffb7 9cbe 785e 3bba a619 47bd
000000e0: 2dbb 20be dee4 6bbe 7022 adbe ec40 3d3b
000000f0: 49cd 66be 1261 91bd 07df e6bd 243a e6bd
00000100: aa7e af3e 189f 98bd 16b0 14be 575d d9be
00000110: 73ff 16bc bfb8 e5bd 6e55 71be 01c8 f43c
00000120: ea0e 35be d27e 973d 6866 4bbe bb6d 57be
00000130: a14f c1bd 8296 b63a 18dd 98be 794f 05be
00000140: 66ee 6abd b498 58be 9726 233d 6ced 473e
0.08798398 -0.1698767 -0.4550806 0.008361875 -0.21080302 -0.28596818 0.009722155 0.078995205
-0.15481535 -0.49200767 0.110306725 0.083713256 -0.049937475 0.15716761 -0.12883902 -0.0030401198
0.019461531 -0.5398935 0.018804556 -0.3035041 0.017385183 -0.14167881 -0.082371674 -0.2840645
-0.3087995 -0.11964749 0.041583832 -0.23725279 -0.1764801 -0.28667164 -0.27551416 0.030627886
0.091189824 -0.18058 -0.104493104 -0.07009114 -0.06473783 -0.37060028 -0.091720365 -0.026217988
-0.3684011 -0.3021504 -0.41263965 -0.10615604 -0.19444963 0.16901205 -0.13463466 -0.07789574
-0.00569886 -0.48688802 -0.13470054 0.0660156 -0.30276585 -0.30609128 -0.0007147561 -0.048608445
-0.15696402 -0.23036525 -0.33815336 0.0028877808 -0.22539248 -0.07098593 -0.11273008 -0.11241558
0.34276325 -0.0745222 -0.14520296 -0.42454025 -0.009216177 -0.11216878 -0.23567745 0.029880526
-0.1768147 0.07397236 -0.19863284 -0.21037953 -0.09439016 0.0013930353 -0.2985618 -0.13018598
-0.05735626 -0.21152002 0.039831724 0.19524163

final.linears.2.weight f4 [10, 84]
00000000: 9a52 5a3c eb45 8abb fdc0 07bf 713e df3d
00000010: 7f1c 98bc bdb6 17bd b259 c5bb a548 a03d
00000020: 709b 783e c449 dbba 7617 30be b7f4 293b
00000030: 3049 903e 706c a9bc 8bf5 173d fd54 0dbc
00000040: 169e d63d d727 04bf 5df4 323e c1f5 483d
00000050: e1c8 10be aeb3 f83b 3c82 babb a583 e53d
00000060: f3d3 9f3e d789 56bb f457 c03d 5c39 0d3f
00000070: 76a5 b3ba e887 93bb 41eb ccbe ca05 d3bc
00000080: e132 1dbe bfcd 43bc eab6 853d 32bf 1b3e
00000090: 1773 54bd 2f5a 773e 1dfe 48bc 3bd3 30bd
000000a0: 103d 90bd 253b d8bd 7367 f5be f74e 3d3c
000000b0: 933e 8f3d 3a8f b83d ae52 133c 603f adbd
000000c0: 7bfb c6b9 bc95 3c3d 4a1d 773b 9e3b 9e3b
000000d0: 0336 683c 2240 563e 3298 2bbd e5e4 af3d
000000e0: 2813 c8bb 711b a3be 72ef d73e 2978 763e
000000f0: 659c 3fbd 1618 d8bd c506 59bd b94a 05bc
00000100: 05d2 25bd 4b24 41be 9693 05bc 5700 3f3d
00000110: 6012 b53b 066f 70bd 2135 03bf 708f 9ebd
00000120: fe82 debd d96c a63c 8fe6 9bba bf7b 2a3c
00000130: 2c58 873c be9f 1bbd 2fb8 ff3d 6d35 9bbd
00000140: 226b 853c 9845 4b3e df83 163e 21dc a33b
00000150: 779e 4d3c 598e 2f3c 4d9b aa3e 1944 343d
00000160: 1b30 e03c e041 34be 809a edbb b2cb 18be
00000170: 865d a33e 921f 30bc bfe3 84bd 5957 4f3c
00000180: ee92 ac3e a55d 07bc 4a4b 05be 6b58 0e3c
00000190: 0c2f 08be a6dd 7cbe 5c7c 1c3d 2739 d0bb
000001a0: ca1f b33c 26db 3cbc 6959 92bc f1ca 473e
000001b0: 8fd5 91be db1c 763c 3ad2 31bc b4e2 72be
000001c0: f164 35bc 1be0 ec3c c497 db3e daa8 c73d
000001d0: 4bd2 2a3e 301c 8ebc cf77 aebd ed6a 7b3d
000001e0: 48c9 2c3d b528 483e 0246 65bb 7d0a 7fbc
000001f0: c6b0 743e 306e f53b e70d cebe 7c87 24bb
00000200: 9d58 d93d 197a 6b3e 7476 e1bc 66a4 56bd
00000210: 259e cdbc 3244 023e b84e 4f3b 7681 01bc
00000220: 68d2 1fbc b25b a33e 2652 c5bd 3de8 b7bd
00000230: 2e17 a93c df0a 083f 72b3 48be ccb7 e3bd
00000240: e600 8bbc 6191 54bd 9699 173e b044 aab9
00000250: cf38 333d d10a 46bd bac1 5c3c b4f5 a6bd
00000260: cbd2 923b f455 093e b288 fabe a386 313d
00000270: 0601 d4bd 9b4c 913b b646 4d3b a3de e0bb
00000280: c990 91bd 4d5f a43c 21f6 f6be 7d25 5fbe
00000290: a1cf 75bc 9777 adbe 35ea a2bc b9b0 183b
000002a0: f495 26bc 201d 6a3d d7e6 1a3d c8c8 b139
000002b0: 17ba 813d c4db 283e 1270 a6bd 90e2 2bbc
000002c0: 2f24 853d 66f3 e53e 1a7d 4cbc f6b9 093e
000002d0: cb78 10bf cf31 c9bd d0b2 b5bc 4b9c a2be
000002e0: 66ec 2c3d 46ea 6a3e 8aa5 f6bb 37f8 c53e
000002f0: b37e be3c 5cee edbd c2ca 28be 725d db3d
00000300: 1d46 08be 6bf8 28be 8114 7f3c 6331 dcbd
00000310: 79da 04be 4130 283e f097 d6bd f565 c73b
00000320: e120 d4bc 8fa7 c13d cfd4 9b39 ae76 303d
00000330: 6c59 30be 6f0a b33e 9353 c8bd 0e00 aebd
00000340: be05 5b3e 6b05 673d ebc4 863c b7d0 0d3d
00000350: 4390 97bd 59a7 e63b a887 d8bd 1555 0e3d
00000360: bbc9 7c3f 77c0 c03e 0a6f 823f c677 c6bd
00000370: 3ed0 69be 21cb bfbd e00b 3abf d1f2 0b3d
00000380: dfa7 9c3d f507 17be 3b86 633e a70e c8bd
00000390: 0b1b 673d 996a 793c 4a03 5b3d 02b4 3b3e
000003a0: 7055 2cbe d15a 973c 121e 5c3e 1792 823d
000003b0: 4653 f53d 84f1 d73c f9bc f3bd 90f6 9dbe
000003c0: 05de d83c bdaa 18be 08c1 d0bc 3ebd 5fbd
000003d0: cac9 f83c 2d70 9b3d 871d 4fbc 4640 ed3c
000003e0: 53e5 27bf 6c94 693b 1c93 e3ba 16e1 dabe
000003f0: 03d3 48bd c3cc 073d 49b0 c33e 111a 46bc
0.013325358 -0.0042197607 -0.5302885 0.10900582 -0.018568275 -0.037039507 -0.0060226554 0.07826356
0.24278045 -0.0016730358 -0.1719645 0.0025933215 0.28180838 -0.02068159 0.037099402 -0.00862622
0.10479371 -0.5162329 0.1747603 0.049062494 -0.14139129 0.007589779 -0.0056917947 0.1120675
0.31216392 -0.0032735968 0.09391776 0.5516565 -0.0013705927 -0.0045022853 -0.40023234 -0.025759596
-0.1535144 -0.011950909 0.06529029 0.15209654 -0.05186757 0.24155496 -0.012267617 -0.043170195
-0.07042897 -0.10558156 -0.47930488 0.011554471 0.06994357 0.09011693 0.00899188 -0.084593534
-0.0003795287 0.046041235 0.0037706667 0.0048288843 0.014173034 0.20922902 -0.04189319 0.0858858
-0.006105799 -0.31856874 0.4217487 0.24069275 -0.04678001 -0.10551469 -0.05298497 -0.008135491
-0.040483493 -0.18861501 -0.008152863 0.046631183 0.005525872 -0.05869963 -0.51252943 -0.07742202
-0.108648285 0.020315574 -0.0011894273 0.01040548 0.016521536 -0.03799414 0.12486302 -0.075785495
0.016286436 0.19850767 0.14698742 0.0050006066 0.012549988 0.010715091 0.3332161 0.044010255
0.027366688 -0.17603254 -0.007251084 -0.14921454 0.3190729 -0.010749714 -0.064887516 0.012655103
0.33705848 -0.008262073 -0.13017002 0.008688073 -0.13299197 -0.24693927 0.038204536 -0.0063544693
0.021865744 -0.011526858 -0.0178649 0.1951101 -0.28483245 0.015021528 -0.010853345 -0.23719293
-0.01107143 0.028915456 0.42889225 0.09749003 0.16681783 -0.017347425 -0.085189454 0.06138127
0.042184144 0.19546779 -0.0034984355 -0.015566465 0.23895559 0.007489942 -0.40244982 -0.002510517
0.10612605 0.22995795 -0.027522303 -0.052402876 -0.025099823 0.12721327 0.0031632613 -0.007904401
-0.009754755 0.31905895 -0.09634809 -0.08979843 0.020640936 0.5314159 -0.19599703 -0.11119041
-0.016968202 -0.051896457 0.14804682 -0.00032476103 0.04375535 -0.04835016 0.013473922 -0.08152333
0.004480695 0.13411695 -0.48932415 0.04334129 -0.10351758 0.004434181 0.0031322665 -0.006862478
-0.07107694 0.020064974 -0.48234656 -0.21791644 -0.015003116 -0.33880302 -0.01988707 0.0023298694
-0.010167588 0.057156682 0.037817802 0.00033909664 0.06334322 0.16490084 -0.081268445 -0.010491028
0.06501042 0.4491226 -0.012480998 0.13449845 -0.56434315 -0.09823953 -0.022179991 -0.31759867
0.042217635 0.2294093 -0.007527058 0.38665935 0.023253774 -0.11617729 -0.16483596 0.10711183
-0.13307996 -0.16501014 0.015568853 -0.10751607 -0.12973966 0.16424657 -0.104781985 0.0060851523
-0.025894584 0.094557874 0.0002972246 0.04308193 -0.17221612 0.34968898 -0.097815655 -0.08496104
0.21388909 0.05640165 0.01645132 0.034622874 -0.074005626 0.0070389924 -0.105727494 0.03474911
0.98745316 0.3764684 1.0190136 -0.09690814 -0.22833344 -0.09364916 -0.7267437 0.034167115
0.07649206 -0.14749129 0.22219174 -0.0976842 0.056422275 0.015223169 0.053469934 0.18330386
-0.16829467 0.018475922 0.21495846 0.06375521 0.11978774 0.02636028 -0.11901278 -0.30852175
0.026473055 -0.14908881 -0.02548267 -0.054623835 0.030369658 0.07589755 -0.012641317 0.028961312
-0.65584296 0.0035641445 -0.0017362568 -0.42749852 -0.04902936 0.03315426 0.38220432 -0.012091176

final.linears.2.bias f4 [10]
00000000: fe8f 86bc 5d00 8abc 0afd efbd 62d4 0bbe
00000010: 9317 c7bd 5655 21bd b7d1 4c3b d765 2dbd
00000020: a89a 2bbd d43b 87bd
-0.016426083 -0.016845876 -0.11718185 -0.13655236 -0.09721293 -0.039388023 0.003125293 -0.04233345
-0.04189554 -0.06603208

layers.0.attn.0.gnn_q.weight f4 [10, 16]
00000000: 2e93 d73a 790f 933d 6938 02bc d44a d5bb
00000010: 1226 bebd 1b47 5a3d 15fa 08bc 4e4f be39
00000020: 29bd 9f3b 0cbf 2e3b c836 78b8 20fa 8f3d
00000030: cf29 d6bd 878e 0b39 0bc4 d3bd 5881 d0bc
00000040: 4f9e d8ba 3b50 54bc 7b82 1a3c 6157 0c3c
00000050: a41a f33c d60c 5ebc 66df dcb9 1a45 28b9
00000060: d533 a5bc 5392 5abb 7189 7a38 de87 72bc
00000070: a211 173d fa98 f237 a17c 093d 7a5d ab3b
00000080: 89ad 623b 1093 0e3e 6acb b9bc 7418 85bc
00000090: d638 b1be cf37 ce3d d97e 03bc 0d0c 8a3a
000000a0: f808 223d e107 db3b f78e 44b9 5042 233e
000000b0: 9bf5 f1be 5040 bf39 726c d4be 78d2 0dbd
000000c0: bc86 2bbb f457 2bbd 49d7 b23b d289 d53b
000000d0: 636f 013d b0e2 0abd acc7 1d3c 50c4 a5ba
000000e0: 22ff 743b 0bfb 79bb 87b9 9a39 8073 13bd
000000f0: 5c77 9f3c 2317 0bba 8978 8f3c 8f3c b23c
00000100: b30a 02bb 2560 1fbd 5923 5b3c 1073 fe3b
00000110: c061 963d dd93 38bd ea29 40ba fce5 23ba
00000120: 43a3 16bd 41a7 34bb d2b1 1b39 616d 88bd
00000130: a8a7 203d 9658 6bb9 b7b4 753d 6d7e 113b
00000140: ea79 23bb 6ac8 d5bc e39c 303c e1ec 233c
00000150: 38c6 6d3d f6ec 8ebc 43d7 21bb 2a5f 1bba
00000160: 5b75 bbbc 9b9c 8abb fe2e c838 0a06 dfbc
00000170: 4bd6 9a3d 0453 2cb9 7ae7 8d3d d0ab 7c38
00000180: 16a4 17ba 6610 763b 932b 513b 4431 443b
00000190: 1ab8 0bbb f694 963b ac3f 86bb 4806 aeb8
000001a0: e962 47bc a436 9eba d880 1538 f463 863b
000001b0: 212a 093c 4699 0a37 09fc 563b 8626 c0bb
000001c0: 1380 08bb d576 18bd 36ee e53b c5c3 fa3b
000001d0: 8400 623d eb01 bebc 3afb d039 e756 c3b9
000001e0: bdcb 34bc 17b1 79bb d715 0938 fa82 0fbd
000001f0: be51 423d 266b f9b8 6cbc 3f3d 0145 973b
00000200: e1a0 a6bb dd54 cabc b73b 9b3c a269 843c
00000210: 2215 523d 87b2 eebc 56eb 61bb 2329 d4ba
00000220: cf36 2cbd b761 ffbb 1ec4 8339 4eaf 35bd
00000230: 4686 4d3d 5842 17ba 8e96 713d aeee 15bb
00000240: 8aa3 efb8 cf6c 54bb 859a e3ba 0f67 86ba
00000250: d1e7 983c f084 903a 6c55 423b a6b9 dd37
00000260: ccc4 0a3c e0fe c6b9 b686 f8b7 ef46 32ba
00000270: 54fe 003d 0967 b6b7 de8c d43c 49cd 8a3b
0.0016447061 0.071806855 -0.00794802 -0.0065091643 -0.09284605 0.053290468 -0.008360405 0.0003629871
0.0048748446 0.0026664166 -5.9178827e-05 0.070301294 -0.10457193 0.00013309169 -0.103401266 -0.0254523
-0.0016526672 -0.012958582 0.009430523 0.008565755 0.02967579 -0.013552865 -0.00042128115 -0.00016047471
-0.020166317 -0.0033351376 5.9732647e-05 -0.014802901 0.03688205 2.8919883e-05 0.03356612 0.005229649
0.0034588298 0.13923287 -0.022680003 -0.016247012 -0.34613675 0.100692384 -0.008025848 0.0010532156
0.039559335 0.006684289 -0.00018745275 0.15943265 -0.47257695 0.00036478275 -0.41488987 -0.034624547
-0.0026172837 -0.041831926 0.005457793 0.0065166736 0.031600367 -0.033907592 0.009630125 -0.0012647007
0.0037383516 -0.0038144018 0.00029511398 -0.03599882 0.019466095 -0.0005305877 0.01751353 0.021757392
-0.0019842803 -0.03891005 0.013375127 0.0077651814 0.07342863 -0.04506289 -0.00073304644 -0.0006252227
-0.036776792 -0.0027565511 0.00014848195 -0.06661487 0.03922239 -0.00022444347 0.059986796 0.00222006
-0.0024944493 -0.026096541 0.010779592 0.010005207 0.058050364 -0.017446976 -0.0024694956 -0.00059269613
-0.022883108 -0.0042300946 9.545496e-05 -0.02722456 0.075604044 -0.00016434124 0.06928916 6.0241495e-05
-0.00057846436 0.0037546395 0.0031916841 0.002993659 -0.002131945 0.0045953942 -0.0040969457 -8.2981365e-05
-0.012169578 -0.0012070728 3.5644363e-05 0.004101271 0.008371861 8.261128e-06 0.0032804033 -0.0058639674
-0.0020828291 -0.037222702 0.0070169223 0.007652732 0.055176273 -0.023194274 0.0003986003 -0.00037258046
-0.011034903 -0.0038099939 3.2683685e-05 -0.03503702 0.047441237 -0.00011893203 0.046810552 0.00461638
-0.005085096 -0.02469867 0.018949373 0.01616365 0.051289685 -0.029137863 -0.0034472547 -0.0016186576
-0.042044457 -0.007793631 0.00025132386 -0.044356637 0.05017688 -0.0005770079 0.05898147 -0.002287786
-0.000114268696 -0.0032413488 -0.0017364776 -0.0010254103 0.018665226 0.0011025947 0.0029652966 2.6431702e-05
0.008469772 -0.000379554 -2.9626633e-05 -0.0006800731 0.031492546 -2.174407e-05 0.025946077 0.0042358977

layers.0.attn.0.gnn_q.bias f4 [16]
00000000: 08ee 84bb 64a7 1c3e 2fc4 883c 9040 7e3c
00000010: 1622 25be 6abe 303d 2f92 39bc 33c9 56ba
00000020: 500a 57bd ff40 d7bb d197 4138 f9b5 a53d
00000030: bdc6 69be 3afb 9bb9 9242 47be 4ee1 07bd
-0.004056696 0.1529823 0.01669511 0.015518323 -0.16126284 0.043150343 -0.011326357 -0.0008193433
-0.05250007 -0.0065690274 4.6156176e-05 0.08091349 -0.22829719 -0.00029751082 -0.19458988 -0.03317385

layers.0.attn.0.gnn_k.weight f4 [10, 16]
00000000: 6f79 c23a 57c9 9bbd 647b c0bb 251a debb
00000010: a296 b53d c1a3 42bd 2c28 433c 7807 023a
00000020: e4c7 a53c 1a83 363b 9165 81b8 c003 82bd
00000030: e315 d73d 8e98 2b39 a258 cc3d c16d fe3c
00000040: 72c2 cdba 881b 6b3c a8eb 263c 3722 023c
00000050: 2e7e dabc 7507 003c 2fbb 66bb 839a 90b9
00000060: b434 79bc e46f 5abb e0c0 6438 19dd 0b3c
00000070: 7896 15bd 161a f2b7 835d 08bd 4048 28bc
00000080: 3448 743b 10f5 38be 056b a2bc e398 94bc
00000090: cd67 a63e efac 8bbd 1033 a13c cd67 763a
000000a0: ab57 6c3d 2cfd da3b 5357 4fb9 bfe8 e2bd
000000b0: fea7 f43e e269 8e39 4f53 c83e bec2 623d
000000c0: b119 1bbb 1150 1a3d d3ce 4a3b 2dce cc3b
000000d0: 5f4c 38bd 1edc 233d 0993 34bc c451 b0ba
000000e0: 5da7 1dbc 83c5 87bb a33f 9839 3823 413d
000000f0: c987 afbc 17fb 10ba efbd dfbc f843 b1bc
00000100: 935e e8ba c90e 7f3d b08a 503c 0f9e de3b
00000110: 69bb c1bc c401 0a3c dd04 f6bb 7231 4bba
00000120: b462 2ebd e971 42bb 6504 1a39 3254 813c
00000130: 72ee 1fbd 4d33 93b9 9511 00bd 770c b6bc
00000140: 52ec 1dbb 8c93 eb3c e119 3a3c b879 163c
00000150: 4711 50bd d1c8 c13b a8da 38bb 88f2 2fba
00000160: 4689 a4bc 463a 8dbb 197d a838 3654 7f3c
00000170: 570f 9bbd d85b 4bb9 98da 89bd f843 16bc
00000180: 8f12 15ba dc85 93bb 9cd7 923b a251 5b3b
00000190: d83a e8b9 9c5f f9bb 4266 ee3a 2ed8 8db9
000001a0: 4dfb 76bb b02b a6ba c6fe 5238 fa41 a5bb
000001b0: 7265 06bc 84fd cab8 5635 c1bb c9c6 133b
000001c0: e99d 0abb 6def 233d 7359 e53b e322 033c
000001d0: 60ff 57bd 8e42 963c 23ba 60bb b739 a0b9
000001e0: beee 75bc 6dad 7cbb 4a5c 0e38 7e55 e73c
000001f0: 7bc1 45bd 1dca 9cb8 583a 3ebd 62d7 20bc
00000200: a509 a3bb 703c 333d f808 a23c ba5b 8a3c
00000210: 2d8a cfbc 2842 af39 de01 e4bb ae77 c8ba
00000220: 444a 2bbd 9831 04bc e1ea 7839 1399 ec3b
00000230: 9668 50bd 8ec0 0aba acaa 2cbd e16a 8ebc
00000240: 8971 e5b8 44bc 303a d14a 06bb 7f39 fcb9
00000250: ead9 59bc 3c43 d23a 7606 c9ba 86f4 9cb8
00000260: 242e e13b 0a5d 22ba ba9c 81b7 d467 013b
00000270: cf3d fdbc 417d 47b8 10f1 b9bc 3613 f2ba
0.0014837215 -0.07606762 -0.0058740843 -0.006778019 0.088666216 -0.04751945 0.011911433 0.00049602194
0.020236917 0.0027849139 -6.1701176e-05 -0.063483715 0.105022214 0.00016364662 0.09977843 0.031058194
-0.0015698208 0.014349826 0.010188021 0.007942728 -0.026671495 0.007814278 -0.0035206785 -0.0002758094
-0.015210319 -0.0033330852 5.4539065e-05 0.0085366005 -0.03652045 -2.8860795e-05 -0.033292305 -0.010271132
0.0037274482 -0.18062234 -0.019826422 -0.018139308 0.3250107 -0.06820094 0.019677669 0.0009399623
0.057700794 0.0066830125 -0.00019773589 -0.11079549 0.47784418 0.0002716324 0.3912606 0.055361502
-0.0023666436 0.037674014 0.003094603 0.006250164 -0.04499471 0.040004842 -0.011021384 -0.0013452102
-0.009622422 -0.0041434183 0.00029039112 0.047152728 -0.021427052 -0.00055305794 -0.027312247 -0.021638855
-0.0017728381 0.06226996 0.012728378 0.0067937444 -0.023648934 0.0084232725 -0.007507904 -0.00077512034
-0.0425746 -0.0029669947 0.00014688222 0.015787218 -0.03904576 -0.00028076247 -0.031266768 -0.02222274
-0.0024097157 0.02875688 0.011358709 0.009184293 -0.050797727 0.0059138318 -0.00282065 -0.000671186
-0.020084988 -0.0043099253 8.0341655e-05 0.015584042 -0.07571285 -0.00019393803 -0.067311466 -0.009171478
-0.00056866644 -0.0045020413 0.004481269 0.0033465405 -0.0004429433 -0.0076102745 0.0018188434 -0.00027054682
-0.0037686408 -0.0012677815 5.0305178e-05 -0.0050432654 -0.008202897 -9.6793316e-05 -0.0058962507 0.0022548905
-0.002115125 0.040023256 0.0069991886 0.008003923 -0.05273378 0.018342283 -0.0034290634 -0.0003056058
-0.015010534 -0.0038555518 3.394139e-05 0.028239008 -0.04828022 -7.476306e-05 -0.04644236 -0.009816976
-0.004975515 0.04375881 0.019779667 0.016889442 -0.025334442 0.0003342789 -0.0069582304 -0.0015294456
-0.041818872 -0.008068465 0.00023738622 0.0072203963 -0.05088099 -0.0005292975 -0.042154953 -0.017384948
-0.000109407185 0.0006741921 -0.0020491371 -0.00048108023 -0.013296584 0.0016041766 -0.0015337009 -7.484206e-05
0.0068719555 -0.00061936735 -1.545098e-05 0.0019745724 -0.030913262 -4.756195e-05 -0.022697955 -0.001846886

layers.0.attn.0.gnn_k.bias f4 [16]
00000000: 429d 87bb 5cdf f9bd cd5d 973c a99d 833c
00000010: 7c85 5d3e 6d0f a6bd a58b 6e3a 6294 4dba
00000020: d7aa 04bd fe35 d8bb f30e 3138 c11d 0ebe
00000030: 2d7c 663e 8067 8fb9 b106 6f3e 549b 283c
-0.0041386196 -0.122008055 0.018477345 0.01606639 0.21632951 -0.08108411 0.0009099788 -0.000784224
-0.032389488 -0.0065982332 4.221401e-05 -0.13878538 0.22508307 -0.000273522 0.23342396 0.010290939

layers.0.attn.0.gnn_v.weight f4 [10, 16]
00000000: 06e2 353f ac7b 603d 88bc c63e dbf4 e33d
00000010: 691c f23e bee0 d3be 4e2e 40bf 61b5 00bf
00000020: a6bd a83b 43fc cb3e 5e15 503f 1217 3dbf
00000030: 1bcc 39bf 7c68 32bf 9cf9 773f 7c8c 8f3f
00000040: e422 933d c808 873c c2bf 5bbe c730 febd
00000050: e2a8 3abd 047d 3dbd c2a8 9cbc 69a4 2cbd
00000060: a099 a3bd c467 61be 4a41 af3c 1406 253e
00000070: d835 0e3e 2cc3 4bbd 1818 353d 18b8 29be
00000080: ad9c d9bd f0d0 153e b553 7e3d 16db 5e3c
00000090: 61db 02be 3c59 8e3d c4cf a9bd 1f80 973e
000000a0: 8d61 a6be 3a2d 1dbe edd8 73be eb48 283e
000000b0: 7380 fcbd 6e08 34be 864f d0bd cc1c 44be
000000c0: 9369 603d 2a05 663e 0f67 49bc 1168 88be
000000d0: dc9e 79be 39d7 3b3e dec0 543e 7235 cf3d
000000e0: 7c83 b5be 2e81 8dbe 7726 9dbd 39eb 013e
000000f0: f5fd 2abe e809 8ebd a4f1 13be e4db 673c
00000100: 8799 a6bc d219 aebd e6d0 35bf 7d8e 28be
00000110: 2537 96be e7bf 463e 6b8d 183e 7885 69be
00000120: fab3 e2bd 1603 733d 30ef 453e b0ff 623e
00000130: 1788 1f3e 0c80 d43e 0661 563d 7dbc 563e
00000140: 203e 6fbe e41a 873e 719d b9bd f579 a0be
00000150: 6364 8bbe b62f eb3e d3d2 b53e ceca 723d
00000160: ef95 c7bd deff 18be 11ed 41be 4c92 273e
00000170: 1b8f debd 0640 863e 5d2b 83be 8496 22bc
00000180: cc67 a6be 3096 493f dd77 dabc e11f 5fbf
00000190: 754f cabe 8277 803f 2606 97be 4626 0e3f
000001a0: a7d2 36be a219 f03d 1b35 63bf b969 d2be
000001b0: d848 88bf a1da e63e 5182 f03e 6928 8d3f
000001c0: 3086 a3bd 479f e03e d94c 6ebe a906 04bf
000001d0: 6e5e 2cbe 3977 9b3e dd5d 5f3d c516 923e
000001e0: 88ae b1be 4d17 bdbe 4e01 66bd c35b a43e
000001f0: 338f b93c e239 a9be 67a0 bbbe 1fed 4bbe
00000200: 7e38 16bd df93 583e 5bd5 e7be 90c7 c6be
00000210: 46b2 7ebe 28c3 873e 3f5d a03d bed8 7c3d
00000220: dc71 f3bd 8e67 89be 0f6a 5ebd c609 9a3e
00000230: 73f4 fa3d 1f6a 083d fa45 69be 89fe e73c
00000240: 57f9 5e3f d28b 063f 804f 93bf df78 5cbf
00000250: 5c38 b33a b42a f6be 9f85 69bf 90b3 0e3e
00000260: e902 9fbe fd8f 4abf eb66 a43d 6ebc 283f
00000270: aaaa d73e f54a 89bf d382 f13e bf97 b33d
0.7104801 0.054805443 0.38815713 0.11130687 0.472873 -0.41382402 -0.75070655 -0.5027676
0.005149561 0.39840898 0.81282604 -0.7386333 -0.72577065 -0.6969068 0.9686525 1.1214747
0.07184389 0.01648368 -0.21459869 -0.12411647 -0.045571215 -0.046261802 -0.019123439 -0.04214898
-0.07988286 -0.2201224 0.021393437 0.161156 0.13887727 -0.049746677 0.04421243 -0.16574132
-0.10625587 0.14630485 0.062091548 0.013602039 -0.12778999 0.06950614 -0.08291581 0.29589936
-0.324963 -0.15349284 -0.2381322 0.16434066 -0.12329187 -0.1758134 -0.10171418 -0.1915161
0.054788183 0.22462907 -0.0122926375 -0.26641896 -0.24377006 0.1834382 0.20776698 0.10117616
-0.35451877 -0.2763762 -0.07673352 0.12687387 -0.1669844 -0.06935483 -0.14447647 0.014151547
-0.02033688 -0.085010186 -0.7102188 -0.16460605 -0.29338947 0.19409142 0.14897697 -0.2280482
-0.11069484 0.059329115 0.19329524 0.2216785 0.15579258 0.41503942 0.052338623 0.2097034
-0.23363543 0.26387703 -0.09063233 -0.31343046 -0.27225026 0.45934838 0.3551241 0.05927544
-0.097453944 -0.14941356 -0.1893809 0.16364402 -0.10867139 0.2622072 -0.2561902 -0.009923581
-0.32501066 0.7874479 -0.026668483 -0.8715802 -0.39513746 1.0036471 -0.29496878 0.5552715
-0.17853795 0.11723639 -0.8875291 -0.41096285 -1.064723 0.45088676 0.46974424 1.1027957
-0.079845786 0.4387152 -0.23271503 -0.5157266 -0.16832897 0.30364397 0.054532874 0.28532997
-0.3470347 -0.3693184 -0.056153588 0.3210126 0.02265129 -0.33051974 -0.36645815 -0.19914673
-0.03667497 0.21150158 -0.45279965 -0.3882413 -0.24872693 0.2651608 0.07830285 0.06173014
-0.11886951 -0.26836818 -0.054300364 0.30085582 0.12253656 0.03330433 -0.227806 0.028319614
0.8709921 0.525571 -1.1508636 -0.86121935 0.0013673413 -0.48079455 -0.91219515 0.13935685
-0.31056908 -0.7912596 0.080274425 0.6591252 0.42122394 -1.0726 0.47170123 0.08769178

layers.0.attn.0.gnn_v.bias f4 [16]
00000000: fedd 483d b441 0ebe 39f6 963d d373 583d
00000010: d1a3 143e 0f11 93bd 1bb3 4c3d a145 56be
00000020: 8bfa 043e ba7d 203e b78a 1f3e fbff 44be
00000030: 0e83 7b3d eecf cd3d d2af 9d3d b4a7 013e
0.049039833 -0.13892251 0.07371182 0.052844834 0.14515616 -0.07180988 0.049975496 -0.20924999
0.129862 0.15672961 0.1558026 -0.19238274 0.06140428 0.10049425 0.07699551 0.1266163
