checkpoints/ames_50_train1_pos/Aug22-21:35:09_90.pth (torch, 377109 bytes, 294 tensors)

layers.0.weight f4 [10, 16]
0.31962022 1.010599 0.0015585364 0.55283076 -0.28664652 0.29277405 -0.37830603 0.9426086
1.2152925 -1.1151907 0.12221434 0.12279038 0.076695204 1.1614321 -0.35135236 -0.5114357
0.9335985 0.2664506 -0.8079152 1.0091246 -0.18778604 -0.37399113 0.020755287 0.7360806
-1.3862889 -0.30455977 -0.8808116 -0.2571645 0.22645293 0.06644743 1.4575145 -0.42046636
0.5909745 0.08010901 -0.5025521 0.20250352 0.5100519 0.6741477 0.19630073 -0.37101513
0.52825624 -0.43725133 0.5108649 1.3275825 0.5744989 -0.4338319 0.64771366 0.74215806
0.30532125 -0.3559802 -0.9132966 -0.08203554 -1.1016717 0.78321356 0.86409366 -0.0021782678
0.33889633 -0.4390493 1.0432392 -0.6008012 -0.0136203775 -0.666382 0.43864596 -0.7914472
0.66628045 -0.20351171 0.82406265 -0.100730486 -0.07779798 0.0150285 1.3169897 0.24871214
0.65375215 -0.7199551 -0.6742917 -0.8030742 -0.07084565 -0.020209746 0.20079297 1.0869163
0.080415584 -1.1400696 0.13496143 -0.021094201 0.8337064 0.6140702 0.5131074 -0.9802013
-0.6499828 -0.12986769 -0.13120104 -0.11311396 0.4274693 1.1461085 -0.82517016 -0.54910856
0.27296203 0.5504269 -0.075462714 -1.1929119 -0.25705186 0.34540886 -0.48037165 -1.1637453
-0.13502066 -0.6275559 -0.46497664 -0.0070899767 -0.9731701 -0.08703478 1.211231 -0.35386804
0.8395257 -0.76832277 -0.6933234 -0.30763137 0.14969213 -1.7394253 -0.4350168 -0.48197475
0.27280453 -0.80787104 -0.12970285 -0.2602476 0.25209838 -0.77038664 -0.6098343 -0.33064607
0.66672057 -0.2453994 1.3021054 0.6103559 -0.5049463 0.60144925 -0.83036673 -0.35199776
-0.83331025 -0.49833393 -0.45055267 -0.1319675 0.6027091 -1.0811521 0.2314903 -0.5332165
-0.9595627 0.54953104 0.39961278 1.1552358 0.77129215 -0.87146175 0.37905836 -0.5353074
-0.35430083 -1.0454699 0.799206 -0.53396124 0.043627426 -0.063082784 0.02180474 -0.04720316
00000000: 43a5 a33e 4f5b 813f ce47 cc3a 5186 0d3f
00000010: 55c3 92be 7be6 953e 54b1 c1be cc4e 713f
00000020: b48e 9b3f 92be 8ebf 834b fa3d 8679 fb3d
00000030: 6012 9d3d cfa9 943f 75e4 b3be 73ed 02bf
00000040: 5000 6f3f 376c 883e 88d3 4ebf ff2a 813f
00000050: fc4a 40be c47b bfbe fe06 aa3c c76f 3c3f
00000060: ea71 b1bf 42ef 9bbe de7c 61bf 11ab 83be
00000070: 47e3 673e 9715 883d d68f ba3f 5e47 d7be
00000080: 1b4a 173f 3110 a43d 41a7 00bf 155d 4f3e
00000090: c392 023f f294 2c3f 0f03 493e b2f5 bdbe
000000a0: cd3b 073f 68df dfbe 0bc8 023f 39ee a93f
000000b0: 5c12 133f 371f debe 90d0 253f 12fe 3d3f
000000c0: 1153 9c3e 0943 b6be cecd 69bf 4002 a8bd
000000d0: 9403 8dbf af80 483f 3e35 5d3f 45c1 0ebb
000000e0: d283 ad3e 12cb e0be dd88 853f 1cce 19bf
000000f0: 0128 5fbc 0398 2abf 3496 e03e 499c 4abf
00000100: 5b91 2a3f 6065 50be c5f5 523f c94b cebd
00000110: 8c54 9fbd 193a 763c 1e93 a83f 65ae 7e3e
00000120: 4d5c 273f fa4e 38bf 619e 2cbf 4596 4dbf
00000130: 8617 91bd e98e a5bc ac9c 4d3e 1320 8b3f
00000140: edb0 a43d cded 91bf 5433 0a3e bfcd acbc
00000150: c86d 553f b433 1d3f 025b 033f 79ee 7abf
00000160: 4665 26bf 09fc 04be 9159 06be 4ba8 e7bd
00000170: 42dd da3e afb3 923f 5a3e 53bf 6192 0cbf
00000180: aec1 8b3e c7e8 0c3f 328c 9abd 56b1 98bf
00000190: 4d9c 83be 6ed9 b03e 46f3 f5be 9bf5 94bf
000001a0: db42 0abe 81a7 20bf 6b11 eebe 0953 e8bb
000001b0: ad21 79bf 4a3f b2bd 9e09 9b3f 312e b5be
000001c0: 28eb 563f cdb0 44bf a47d 31bf dc81 9dbe
000001d0: e548 193e 7da5 debf 86ba debe 65c5 f6be
000001e0: 09ad 8b3e a3d0 4ebf d3d0 04be 2c3f 85be
000001f0: 0a13 813e 0f38 45bf 1a1e 1cbf 714a a9be
00000200: 33ae 2a3f fb49 7bbe 64ab a63f 4940 1c3f
00000210: 2944 01bf 94f8 193f ea92 54bf 0d39 b4be
00000220: d253 55bf a025 ffbe d7ae e6be 7d22 07be
00000230: 254b 1a3f 3163 8abf cb0b 6d3e e080 08bf
00000240: e7a5 75bf 11ae 0c3f 0c9a cc3e c4de 933f
00000250: 6773 453f 1e18 5fbf f013 c23e e809 09bf
00000260: eb66 b5be f5d1 85bf c498 4c3f afb1 08bf
00000270: acb2 323d 8c31 81bd db9f b23c 1a58 41bd

layers.0.bias f4 [16]
-0.3378874 -0.40302143 -0.14053011 0.49219465 0.24297081 0.15807296 -0.508686 0.12740539
0.25885016 0.24663755 -0.36377642 -0.38220033 -0.55541396 -0.045765754 -0.17219158 -0.2245088
00000000: 94ff acbe d358 cebe 20e7 0fbe f000 fc3e
00000010: 57cd 783e e1dd 213e 3f39 02bf 8f76 023e
00000020: 0288 843e 8e8e 7c3e e740 babe c3af c3be
00000030: 9c2f 0ebf df74 3bbd fd52 30be a3e5 65be

layers.1.weight f4 [16, 16]
0.50132877 0.30701956 0.0721225 -0.985373 0.15856461 -0.73051494 -0.27448422 0.81685036
0.4534175 -0.63360894 -0.25949916 -0.081330046 0.16874976 0.116146624 -0.36968577 -1.1217304
-0.5044245 0.50363356 0.54316115 -0.36621854 0.2236953 0.444429 -0.16938502 -0.778408
0.61086255 0.41555777 0.3443964 0.013146353 -0.49696633 -0.32687643 0.099137135 0.15230483
0.6822366 0.6789751 -0.15608664 0.12986046 0.2019399 0.24135445 0.51892745 0.29503775
-0.81024736 -0.47113892 0.6255968 0.13239513 0.33514196 -0.5593129 0.07332201 -0.13737138
-0.13147572 0.69504726 0.9787407 0.16572319 -0.4328054 -0.52990085 -0.2490056 0.59040976
0.14158246 -0.05909719 0.15242694 -0.08690188 -0.7450906 -0.06022278 -0.25093377 0.1504103
-0.8604289 0.52966714 0.51740634 0.63398844 -0.4715086 -0.43137956 -0.5997022 0.5536888
0.34950128 0.60920036 0.3098578 -0.14772432 0.41310427 -0.6502509 -0.25019518 0.11531195
0.11190247 -0.43912736 -0.38650426 -0.51281774 -0.17929481 -0.7676825 -0.25074667 0.19289227
-0.63174695 0.3724617 -0.055849396 -0.093927644 -0.72783285 -0.11443206 -0.37906224 -0.4152861
0.8452174 -0.8519533 -0.078173414 0.29649207 0.47591087 -0.8465689 0.31826034 -0.25463715
-0.21324946 0.7987987 -0.3250606 0.103994355 0.38516548 -0.5022296 0.11003605 -1.6356325
0.47556487 0.5387097 0.53332496 -0.228743 0.05991679 0.4567508 0.4997494 -1.1105806
-0.28354436 -0.3528092 -0.0392105 0.1329014 -0.1965442 0.18999402 -0.047462575 0.39642346
0.386543 -0.23763062 0.7072352 -0.6804077 -0.17677611 -0.7790744 -0.017811019 -0.46307874
-1.0092367 0.047244623 -0.14306825 -0.082862265 0.43483844 -0.21439554 -0.34650284 -0.493433
-0.7788071 0.3903877 -0.8250353 0.55680704 -0.20360962 0.5696735 0.18538958 -0.62566596
-0.6896895 0.063677154 0.49863404 0.052699845 0.17440002 0.37853166 0.15891974 0.9038828
-0.56057024 -0.5952176 0.98354805 0.5453725 -0.104653224 -0.41036162 -0.5336419 -0.5119422
-0.7052089 -0.042339195 0.12188602 -0.12136835 -0.94987583 -0.40787145 0.14864969 -0.95723647
-0.6172547 0.5971936 -0.27763936 -0.39694396 -0.085913815 -0.50062317 -1.2811943 -0.38863698
-0.47403577 -0.3115721 0.41111237 -0.21363422 -0.26383787 -0.022612227 -0.013637491 -0.48960018
-0.040897205 0.40599567 0.17078504 0.061866153 0.30143848 -0.38074428 -0.64334226 0.7707527
-0.29083583 -0.73549944 0.003065938 -0.19092411 -0.32156247 -0.1468903 0.19708797 -1.1151317
-0.11859886 -0.046467453 0.51942956 0.19856411 -0.05465918 0.5214485 0.026865562 -0.3159596
0.20398787 0.681902 0.42868796 0.007625286 0.81466115 -0.6660235 0.34417304 0.5590286
0.3108911 0.3492203 -0.49518245 -0.5331102 -0.026675215 -0.6174613 -0.35290933 -0.06893446
0.8999678 0.78568983 -0.07555662 -0.16031341 -0.6999572 0.20318124 -0.20307757 -0.6767416
-0.00466201 0.67230695 -0.26003858 -0.11208308 -0.021743532 -0.83523893 -0.5604735 -0.63655806
-0.5074758 0.3051047 -0.06918309 -0.1663822 0.78453785 -0.017262252 -0.06943697 -0.8033689
00000000: 1557 003f ab31 9d3e f6b4 933d 6841 7cbf
00000010: c35e 223e 0703 3bbf 3289 8cbe 1b1d 513f
00000020: 5726 e83e 3234 22bf 13dd 84be 5e90 a6bd
00000030: bdcc 2c3e 48de ed3d 7447 bdbe dd94 8fbf
00000040: f721 01bf 21ee 003f 9c0c 0b3f ff80 bbbe
00000050: 6110 653e 338c e33e 4473 2dbe bf45 47bf
00000060: 7d61 1c3f fdc3 d43e ba54 b03e cd63 573c
00000070: 5f72 febe 595c a7be 6908 cb3d ccf5 1b3e
00000080: 0fa7 2e3f 50d1 2d3f 2dd5 1fbe 24fa 043e
00000090: 55c9 4e3e 9f25 773e 6ed8 043f 300f 973e
000000a0: 5f6c 4fbf 1f39 f1be 1d27 203f 9792 073e
000000b0: ba97 ab3e 212f 0fbf da29 963d 15ab 0cbe
000000c0: 92a1 06be 9eee 313f c08e 7a3f 57b3 293e
000000d0: ab98 ddbe 95a7 07bf 53fb 7ebe 1825 173f
000000e0: fefa 103e e50f 72bd cf15 1c3e 9df9 b1bd
000000f0: 42be 3ebf 29ac 76bd 647a 80be 2805 1a3e
00000100: 1245 5cbf 4498 073f be74 043f 114d 223f
00000110: 9369 f1be c8dd dcbe 1586 19bf 8dbe 0d3f
00000120: d5f1 b23e 8ef4 1b3f aea5 9e3e 0b45 17be
00000130: 6782 d33e d876 26bf 9519 80be ac28 ec3d
00000140: 1f2d e53d 4dd5 e0be e3e3 c5be 0648 03bf
00000150: 0f99 37be d786 44bf de61 80be 8d85 453e
00000160: 2bba 21bf 4db3 be3e 56c2 64bd 235d c0bd
00000170: 4153 3abf 5b5b eabd 7214 c2be 61a0 d4be
00000180: 2b60 583f 9d19 5abf 6219 a0bd cfcd 973e
00000190: 97aa f33e bdb8 58bf 05f3 a23e cd5f 82be
000001a0: 115e 5abe 127e 4c3f 586e a6be fefa d43d
000001b0: 6934 c53e 1e92 00bf 955a e13d 685c d1bf
000001c0: 3d7d f33e e1e8 093f fc87 083f 9b3b 6abe
000001d0: 4f6b 753d 3edb e93e 27df ff3e 8127 8ebf
000001e0: ba2c 91be 68a3 b4be 309b 20bd 4e17 083e
000001f0: e242 49be cb8d 423e 1e68 42bd 04f8 ca3e
00000200: f7e8 c53e 7155 73be 5e0d 353f 332f 2ebf
00000210: cc04 35be 6b71 47bf 6ae8 91bc a818 edbe
00000220: ab2e 81bf 9483 413d 7c80 12be b1b3 a9bd
00000230: 25a3 de3e 818a 5bbe d268 b1be 40a3 fcbe
00000240: e75f 47bf e6e0 c73e 8335 53bf e88a 0e3f
00000250: 0a7f 50be 1fd6 113f c4d6 3d3e a52b 20bf
00000260: 7e8f 30bf 2b69 823d f64c ff3e cbdb 573d
00000270: eb95 323e e7ce c13e dbbb 223e dd64 673f
00000280: 8881 0fbf 2e60 18bf cec9 7b3f 889d 0b3f
00000290: 6e54 d6bd eb1a d2be c19c 08bf a50e 03bf
000002a0: 9288 34bf dd6b 2dbd 619f f93d f88f f8bd
000002b0: 102b 73bf 87d4 d0be a037 183e 730d 75bf
000002c0: 6704 1ebf aee1 183f bf26 8ebe 3d3c cbbe
000002d0: 95f3 afbd d728 00bf 2dfe a3bf 6dfb c6be
000002e0: d1b4 f2be 6186 9fbe 527d d23e eec2 5abe
000002f0: c215 87be 473d b9bc c86f 5fbc e0ac fabe
00000300: d483 27bd aade cf3e 46e2 2e3e 5d67 7d3d
00000310: 2556 9a3e eaf0 c2be 14b2 24bf 0d50 453f
00000320: 6fe8 94be b149 3cbf e7ed 483b 9c81 43be
00000330: d6a3 a4be 696a 16be 6ed1 493e a3bc 8ebf
00000340: f6e3 f2bd a854 3ebd 56f9 043f 6454 4b3e
00000350: 4ee2 5fbd a67d 053f 2b15 dc3c 75c5 a1be
00000360: 32e2 503e 2191 2e3f fd7c db3e 89dd f93b
00000370: a28d 503f 8480 2abf 7337 b03e 801c 0f3f
00000380: 1e2d 9f3e 01cd b23e 8e88 fdbe e979 08bf
00000390: fb85 dabc f211 1ebf 88b0 b4be 832d 8dbd
000003a0: 4a64 663f f822 493f 6ebd 9abd 3329 24be
000003b0: 6530 33bf be0e 503e 91f3 4fbe f03e 2dbf
000003c0: c6c3 98bb 4f1c 2c3f c723 85be d08b e5bd
000003d0: 7e1f b2bc 38d2 55bf 317b 0fbf 78f5 22bf
000003e0: efe9 01bf af36 9c3e ddaf 8dbd 1860 2abe
000003f0: 79d7 483f 9169 8dbc f834 8ebd 96a9 4dbf

layers.1.bias f4 [16]
0.26519594 -0.07542439 -0.15871307 -0.24124603 -0.07225389 -0.19456136 -0.13193998 -0.10675243
-0.004357512 0.021578306 -0.023478327 0.07342028 -0.058931973 -0.24455953 -0.15134011 -0.5444015
00000000: c3c7 873e 1a78 9abd ae85 22be 3309 77be
00000010: d9f9 93bd 183b 47be 461b 07be 05a1 dabd
00000020: 76c9 8ebb fdc4 b03c 9f55 c0bc 5f5d 963d
00000030: a762 71bd d06d 7abe e7f8 1abe e65d 0bbf

final.linears.0.weight f4 [84, 42]
0.092888795 0.83370876 -0.41797233 -0.5287767 -0.21610615 -1.3729496 -0.99980605 0.2939874
0.48610047 0.20981106 -0.18275368 -0.31751606 -0.07105617 -0.16805935 0.17619993 -0.037997905
0.3528176 -0.31033126 -0.102175616 0.16271406 0.25585064 0.07207174 0.10022808 0.2701266
-0.31143102 0.05572843 0.08067097 0.20017178 0.29205874 -0.12603402 -0.13133156 0.15563038
-0.072162665 -0.2699881 0.028236454 -0.20514977 0.039242014 0.05706165 -0.13503638 -0.008807332
-0.070944965 -0.044571184 -0.043558627 -0.3854656 -0.44694692 0.5028752 0.41374367 -0.6211365
0.8002418 -0.26765528 -0.6281978 -0.6730925 0.074653514 0.13491777 0.19460262 0.7897753
0.77532905 -0.0007195519 -0.22431229 -0.107505664 -0.18912698 -0.2303065 0.2405665 0.40942487
0.81666636 0.08093391 -0.1599655 -0.016807653 0.027724465 -0.15213348 -0.14410752 -0.024497543
0.21715584 0.15328968 0.1164714 -0.026654996 0.050943594 0.041743577 -0.11142247 0.19319563
0.13720553 0.30488274 0.009830034 0.09437155 -0.48847258 -0.32805136 0.15934281 0.9957525
0.35621497 0.5565518 -0.44481462 -0.17514487 0.5668514 0.6988549 -0.0022947488 -0.118801944
0.04682342 -0.19983639 -0.12535585 -0.027592503 0.097958766 -0.18658574 -0.027669566 0.07656965
0.11337279 0.16650812 0.0855791 0.03844872 -0.017753063 -0.046610694 0.038381655 0.15236093
0.080663584 0.073381886 0.033150386 0.045648083 -0.010360059 0.02206061 0.12268447 -0.05037761
-0.033978026 0.07668831 -0.09312357 0.04332149 -0.020589082 0.12798925 -0.6537746 0.36502752
0.38006762 -0.035892222 0.0068378625 0.5939249 0.41310832 -0.5979087 -1.4981344 -0.30823553
-0.18677874 0.31731153 -0.2908004 -0.30587736 0.16948573 0.038272087 0.49345607 0.039210178
-0.45047224 0.6706119 -0.06883394 0.11246954 -0.0741812 0.21309075 0.29248127 0.23006386
-0.06111884 0.0073769153 -0.3031764 -0.10530319 0.23112877 -0.085103564 -0.058931876 -0.014821148
0.15404187 0.24032062 -0.08649327 0.05493562 -0.026842885 0.13751613 0.059725557 0.27831486
0.031425383 0.1514954 -2.6869102 0.5578425 0.90862423 -0.08470375 0.120830454 0.1675948
0.23213781 0.03395061 -0.4366168 -0.23187874 0.058651548 0.11742794 0.22276103 0.0014401417
-0.22337048 0.2512464 -0.018615074 0.08868068 -0.21974072 -0.19960272 -0.299636 0.07705821
-0.22162406 -0.13692936 0.043079615 -0.086828105 0.003087339 -0.060792025 -0.18712772 -0.6253815
-0.2991365 -0.02253773 0.035985947 0.038167242 0.022625418 0.33768868 0.0023772554 0.115628466
-0.23237711 0.2914349 0.45618328 -0.08717545 -0.5054635 0.7970778 -0.5151309 -0.41828692
0.6122825 0.7755383 -0.041122284 -0.18846129 -0.16263309 -0.101487644 -0.16607639 0.16268153
0.176978 -0.18664257 -0.0028111974 0.059722975 -0.2719279 0.17446217 -0.1481344 -0.12664405
-0.08713291 -0.03818287 0.11057763 -0.24264465 0.11199436 0.060740896 -0.029686613 0.00281705
-0.12253887 -0.20545168 -0.18648657 0.039720226 -0.18253607 0.05232326 -0.013534259 0.36397138
0.019490654 -0.029122017 0.16171256 -0.2573524 0.10587515 -0.11533321 -2.836232 0.9425241
00000000: 7b3c be3d f06d 553f 7800 d6be e95d 07bf
00000010: ee4a 5dbe d0bc afbf 4af3 7fbf 8485 963e
00000020: 29e2 f83e b6d8 563e c823 3bbe 7791 a2be
00000030: e685 91bd c017 2cbe c16d 343e b1a3 1bbd
00000040: 82a4 b43e bde3 9ebe 7341 d1bd 849e 263e
00000050: dbfe 823e 599a 933d 6144 cd3d 094e 8a3e
00000060: e373 9fbe 7f43 643d d236 a53d d5f9 4c3e
00000070: b988 953e 100f 01be c87b 06be 925d 1f3e
00000080: 05ca 93bd e13b 8abe 2350 e73c c812 52be
00000090: 3cbc 203d 7ab9 693d fa46 0abe a14c 10bc
000000a0: 984b 91bd 4690 36bd 886a 32bd bf5b c5be
000000b0: 3ad6 e4be 6ebc 003f 36d6 d33e cd02 1fbf
000000c0: a6dc 4c3f 1d0a 89be 92d1 20bf ca4f 2cbf
000000d0: f1e3 983d e227 0a3e e945 473e b72e 4a3f
000000e0: f77b 463f 50a0 3cba 1fb2 65be ee2b dcbd
000000f0: 81aa 41be 78d5 6bbe 1157 763e 23a0 d13e
00000100: 0c11 513f aec0 a53d ffcd 23be 34b0 89bc
00000110: 6b1e e33c e1c8 1bbe ec90 13be 12af c8bc
00000120: 1a5e 5e3e f8f7 1c3e 8f88 ee3d 945b dabc
00000130: 3baa 503d 50fb 2a3d 7731 e4bd 13d5 453e
00000140: 9b7f 0c3e 9719 9c3e 270e 213c df45 c13d
00000150: 1419 fabe 59f6 a7be c32a 233e a3e9 7e3f
00000160: cf61 b63e 2e7a 0e3f bebe e3be 2d59 33be
00000170: 2c1d 113f 28e8 323f 7f63 16bb 6f4e f3bd
00000180: eac9 3f3d e9a1 4cbe 495d 00be ac09 e2bc
00000190: 9b9e c83d 5510 3fbe 49ab e2bc 8cd0 9c3d
000001a0: fe2f e83d 1b81 2a3e 1844 af3d 687c 1d3d
000001b0: df6e 91bc dbea 3ebd 1536 1d3d 8104 1c3e
000001c0: f332 a53d 3e49 963d b3c8 073d 7cf9 3a3d
000001d0: 3dbd 29bc 74b8 b43c ff41 fb3d c158 4ebd
000001e0: 8b2c 0bbd c30e 9d3d 92b7 bebd e071 313d
000001f0: 6faa a8bc 9d0f 033e c65d 27bf e3e4 ba3e
00000200: 3998 c23e b903 13bd 2610 e03b 760b 183f
00000210: ef82 d33e 8b10 19bf dec2 bfbf 0cd1 9dbe
00000220: ed42 3fbe a876 a23e cae3 94be f59b 9cbe
00000230: ab8d 2d3e 31c3 1c3d 46a6 fc3e da9a 203d
00000240: 4ca4 e6be 39ad 2b3f cff8 8cbd 6e56 e63d
00000250: 50ec 97bd 7634 5a3e 1bc0 953e dc95 6b3e
00000260: c057 7abd 0dba f13b f039 9bbe 33a9 d7bd
00000270: 05ad 6c3e c74a aebd 8d62 71bd 66d4 72bc
00000280: 27bd 1d3e 9c16 763e 6223 b1bd 2c04 613d
00000290: 9ce5 dbbc 07d1 0c3e c9a2 743d 497f 8e3e
000002a0: e7b7 003d 9c21 1b3e 56f6 2bc0 c4ce 0e3f
000002b0: 999b 683f 2979 adbd f575 f73d f99d 2b3e
000002c0: 89b5 6d3e cb0f 0b3d 3d8c dfbe 9f71 6dbe
000002d0: 9b3c 703d 0f7e f03d 781b 643e 23c3 bc3a
000002e0: 3bbb 64be 5ea3 803e a47e 98bc 379e b53d
000002f0: b603 61be a864 4cbe e469 99be b2d0 9d3d
00000300: 6bf1 62be 3637 0cbe 4074 303d efd2 b1bd
00000310: f454 4a3b 0f01 79bd 699e 3fbe 0119 20bf
00000320: 6b28 99be 0ca1 b8bc 0066 133d 4155 1c3d
00000330: f158 b93c 88e5 ac3e bacb 1b3b 9ece ec3d
00000340: 44f4 6dbe f536 953e db90 e93e 0b89 b2bd
00000350: 0e66 01bf 4a0d 4c3f 9edf 03bf b429 d6be
00000360: 8cbe 1c3f ae89 463f d76f 28bd fffb 40be
00000370: 4a89 26be c1d8 cfbd ee0f 2abe fd95 263e
00000380: b939 353e 3b1f 3fbe 113c 38bb 14a0 743d
00000390: 223a 8bbe 36a6 323e 8bb0 17be faae 01be
000003a0: bd72 b2bd a465 1cbd 8676 e23d d777 78be
000003b0: 4d5d e53d 72cb 783d 5731 f3bc 429e 383b
000003c0: a9f5 fabd ed61 52be 56f6 3ebe adb1 223d
000003d0: bcea 3abe ea50 563d ccbe 5dbc 755a ba3e
000003e0: ddaa 9f3c 4c91 eebc fa97 253e b2c3 83be
000003f0: 12d5 d83d d133 ecbd d384 35c0 4249 713f

final.linears.0.bias f4 [84]
0.17629525 0.025969742 0.14362009 0.23096831 0.20590776 0.13253018 -0.20105454 0.05231391
0.15065916 0.113300815 0.16404673 -0.018870957 -0.0053019463 0.24021697 -0.21064256 0.1464148
0.16313805 -0.039286442 0.20408526 0.076159894 0.050334398 0.14980203 0.063790806 0.27500248
0.018511983 0.086158186 -0.02173922 0.008653754 0.25668004 0.14593235 0.1521051 0.09908391
0.08458893 0.21507548 0.12212431 0.14420667 0.086483374 0.016267823 0.08776988 0.19467998
-0.17511082 0.24834396 0.02264467 0.05173599 0.1952238 0.116778 0.086023666 0.22799806
0.2215351 0.06479309 0.005165148 0.29242778 -0.07730206 -0.069643445 0.1897284 -0.04618938
0.11245407 0.026625052 0.087941736 0.08353754 0.1627766 0.021386666 0.08457978 0.02275525
0.19485395 0.1049716 0.015544072 0.013972703 -0.115649186 0.15635428 0.16863112 0.12125336
0.019581323 0.14580569 -0.0216809 0.15997404 0.058636576 0.17219575 -0.08480367 0.00064435473
0.035892326 0.1028421 0.20165168 0.067218505
00000000: be86 343e 7fbe d43c 2511 133e f582 6c3e
00000010: 7cd9 523e feb5 073e 3ee1 4dbe 1c47 563d
00000020: 6546 1a3e 420a e83d defb 273e 4497 9abc
00000030: f3bb adbb 70fb 753e afb2 57be c3ed 153e
00000040: a90d 273e d2ea 20bd bafb 503e b8f9 9b3d
00000050: 712b 4e3d b465 193e c1a4 823d 20cd 8c3e
00000060: 71a6 973c b473 b03d 7316 b2bc 7ac8 0d3c
00000070: 916b 833e 4a6f 153e 70c1 1b3e 81ec ca3d
00000080: f63c ad3d bf3c 5c3e 4f1c fa3d eaaa 133e
00000090: 321e b13d 1944 853c b2c0 b33d 305a 473e
000000a0: 4050 33be e14d 7e3e 5181 b93c 1ee9 533d
000000b0: bfe8 473e 4e29 ef3d 2d2d b03d 5378 693e
000000c0: 19da 623e 3db2 843d 6740 a93b 18b9 953e
000000d0: 8b50 9ebd 39a1 8ebd 2948 423e 1331 3dbd
000000e0: 524e e63d c81c da3c cc1a b43d bb15 ab3d
000000f0: e9ae 263e 1733 af3c 2a38 ad3d 3869 ba3c
00000100: cb87 473e 5afb d63d 90ac 7e3c c4ed 643c
00000110: 7bd9 ecbd 561b 203e a3ad 2c3e ae53 f83d
00000120: 0369 a03c 164e 153e 259c b1bc 3cd0 233e
00000130: e82c 703d 1554 303e 8cad adbd eae9 283a
00000140: d503 133d e19e d23d c77d 4e3e dba9 893d

final.linears.1.weight f4 [84, 84]
-0.09724928 -0.0056016287 -0.49532813 0.06843036 0.1250542 -0.028786741 -0.18123253 -0.19721413
-0.054982208 0.008298804 0.057556335 -0.18153913 0.065327056 -0.17070179 -0.04890912 -0.16345975
-0.020674156 -0.0070380056 -0.07288292 0.00093817996 -0.20547816 0.08521043 -0.16132386 0.011030879
-0.20430738 0.0017215181 -0.31551647 -0.040133733 -0.009507938 -0.21059255 -0.1490145 0.029374914
-0.019771494 0.16934441 -0.09031574 -0.1699956 0.023784082 -0.09437188 0.024535732 -0.116279215
0.119506925 -0.058329437 0.07659473 -0.19466121 -0.101563856 -0.20773742 -0.12300475 0.14045385
-0.112902194 -0.23997584 -0.2468769 -0.12329953 -0.13505007 0.0366164 -0.014153049 0.018227465
-0.048163336 -0.14273942 -0.012614354 -0.2166599 -0.26644507 -0.10785403 0.15452966 0.13665913
-0.17550868 -0.06731089 -0.01512719 -0.009815227 0.027005965 0.109639294 0.17408384 0.12838423
-0.045062605 0.02643434 -0.33889174 -0.06711398 0.12747605 -0.06729091 -0.29220656 -0.07857113
-0.09296637 -0.21875502 -0.27267468 0.039153773 -0.21254466 -0.0876084 -0.098453954 -0.1580922
-0.022789236 -0.15862727 -0.04172941 -0.35895973 -0.14243256 -0.14764825 -0.5993698 -0.016548654
-0.13223484 -0.0743089 -0.22314353 -0.75765103 0.0135049075 -0.34146035 -0.14190158 -0.16495295
-0.32169572 -0.159503 -0.29489803 -0.18037684 -0.3519182 -0.15821657 -0.071053244 -0.13160838
-0.2012863 -0.18830971 -0.2623828 -0.05274174 -0.17755249 -0.22494516 -0.28482068 -0.15271907
-0.16013305 -0.10689394 -0.06297087 -0.14783597 -0.28645837 -0.7965615 -0.1619222 -0.3025552
-0.32314992 -0.14387779 -0.18950702 -0.048452433 -0.1740848 -0.26879317 -0.15764777 -0.14810242
-0.01875946 0.0065026297 -0.1521548 -0.05270379 0.010533541 0.07384762 -0.16741621 -0.21937083
-0.3521402 -0.14479616 -0.0708046 -0.07589843 -0.14221983 -0.14420104 -0.12061138 0.11793222
0.04255951 -0.1875282 -0.10462498 -0.20450376 -0.18953565 -0.15556447 0.03464978 -0.1306608
-0.18941379 -0.3243197 -0.13194078 -0.13047019 -0.07151025 -0.06760709 -0.05017214 -0.122788206
-0.42038646 -0.06813975 -0.1685805 -0.29407275 -0.045522753 -0.28416055 0.076456636 -0.3431859
-0.32811925 -0.307771 -0.32531673 -0.2183172 -0.39188045 -0.22339894 -0.14718343 -0.29308254
-0.29159504 0.056878105 -0.3276421 -0.2381855 -0.44906121 -0.20644285 -0.30034786 -0.36664718
-0.40077427 -0.6169656 -0.03810446 -0.15622084 -0.31129745 -0.13348378 -0.38529053 -0.19558206
-0.3923617 -1.0654714 -0.33970374 -0.26620126 -0.45443174 -0.15967743 -0.17959645 -0.38695586
0.058773845 -0.35710353 -0.105083585 -1.4216423 -0.3587408 -0.31509566 -0.40162426 -0.33497345
-0.2424164 -0.29043102 -0.2801073 -0.12675261 -0.25955796 -0.42492104 -0.38833982 -0.20964824
-0.0856104 -0.042916995 -0.36641264 -0.082511835 -0.46155113 -0.2423687 -0.31003448 -0.2303319
-0.26625037 -0.4423181 -0.31299537 -0.16266423 -0.1714597 -0.31350583 -0.30514538 -0.16253394
-0.3185895 -0.5273232 -0.17484115 -0.41466296 -0.3753653 -0.33929238 -0.22428276 -0.31339592
-0.21252204 -0.07935715 -0.42891106 -0.18053181 0.045178063 -0.07077717 -0.22667322 -0.18750244
00000000: a12a c7bd de8d b7bb a69b fdbe 3725 8c3d
00000010: 350e 003e 2cd2 ebbc 0595 39be 80f2 49be
00000020: 0635 61bd b5f7 073c 31c0 6b3d 65e5 39be
00000030: 31ca 853d 73cc 2ebe ee54 48bd fe61 27be
00000040: d95c a9bc 129f e6bb a443 95bd 31f0 753a
00000050: de68 52be ce82 ae3d 1532 25be dcba 343c
00000060: f435 51be 90a4 e13a 608b a1be 4563 24bd
00000070: 2fc7 1bbc 93a5 57be 4297 18be a9a3 f03c
00000080: d4f7 a1bc 9f68 2d3e 75f7 b8bd 5413 2ebe
00000090: d6d6 c23c 0b46 c1bd 29ff c83c cc23 eebd
000000a0: 0cc0 f43d d9ea 6ebd b3dd 9c3d 4555 47be
000000b0: b600 d0bd 1eb9 54be eae9 fbbd 22d3 0f3e
000000c0: 4439 e7bd 3abc 75be 4ccd 7cbe 7784 fcbd
000000d0: 914a 0abe 14fb 153d 31e2 67bc c451 953c
000000e0: eb46 45bd 482a 12be 6fac 4ebc 18dc 5dbe
000000f0: 7d6b 88be 93e2 dcbd 063d 1e3e 5ff0 0b3e
00000100: 8cb8 33be 4bda 89bd 09d8 77bc 0cd0 20bc
00000110: 9d3b dd3c 918a e03d 0943 323e 2877 033e
00000120: 9193 38bd d48c d83c 3883 adbe 0e73 89bd
00000130: 1589 023e d1cf 89bd 199c 95be e7e9 a0bd
00000140: 2765 bebd 5101 60be 049c 8bbe b55f 203d
00000150: 4fa5 59be 086c b3bd 3aa2 c9bd ece2 21be
00000160: 7eb0 babc 306f 22be 75ec 2abd 92c9 b7be
00000170: d7d9 11be 1a31 17be 4d70 19bf 0b91 87bc
00000180: 9268 07be 442f 98bd bd7f 64be 6bf5 41bf
00000190: b043 5d3c e4d3 aebe a64e 11be 6de9 28be
000001a0: 4db5 a4be c154 23be e0fc 96be b5b4 38be
000001b0: 9f2e b4be 8603 22be 5d84 91bd 59c4 06be
000001c0: ff1d 4ebe 43d4 40be 0a57 86be b907 58bd
000001d0: 52d0 35be 0658 66be 04d4 91be 6362 1cbe
000001e0: ebf9 23be 36eb dabd dff6 80bd 5062 17be
000001f0: acaa 92be 74eb 4bbf efce 25be 84e8 9abe
00000200: e873 a5be b354 13be 210e 42be 0f76 46bd
00000210: 4943 32be 429f 89be 6b6e 21be 29a8 17be
00000220: 70ad 99bc 0314 d53b 78ce 1bbe eedf 57bd
00000230: e094 2c3c 6c3d 973d 286f 2bbe bfa2 60be
00000240: b84b b4be 7245 14be 0102 91bd a370 9bbd
00000250: 13a2 11be 70a9 13be 1903 f7bd 7386 f13d
00000260: e152 2e3d 6407 40be 9f45 d6bd 6f69 51be
00000270: a215 42be 4b4c 1fbe edec 0d3d f2cb 05be
00000280: b0f5 41be 3b0d a6be 7c1b 07be fa99 05be
00000290: f773 92bd 9675 8abd 4d81 4dbd 6278 fbbd
000002a0: e53c d7be da8c 8bbd 5ea0 2cbe b490 96be
000002b0: 1176 3abd 7e7d 91be 4c95 9c3d 10b6 afbe
000002c0: 3fff a7be 2994 9dbe ea8f a6be 8b8e 5fbe
000002d0: 8ea4 c8be b1c2 64be 41b7 16be ea0e 96be
000002e0: f24b 95be 04f9 683d b5c0 a7be e6e6 73be
000002f0: 5aeb e5be c165 53be 32c7 99be 2eb9 bbbe
00000300: 4932 cdbe 75f1 1dbf 6c13 1cbd 5bf8 1fbe
00000310: 6162 9fbe f9af 08be cd44 c5be aa46 48be
00000320: a2e3 c8be 5e61 88bf a6ed adbe 884b 88be
00000330: 47ab e8be 7b82 23be 22e8 37be 141f c6be
00000340: d8bc 703d 46d6 b6be 1036 d7bd 60f8 b5bf
00000350: e0ac b7be 3854 a1be b2a1 cdbe a481 abbe
00000360: 013c 78be 60b3 94be 396a 8fbe 70cb 01be
00000370: c8e4 84be 408f d9be 7ad4 c6be 07ae 56be
00000380: 8154 afbd bbc9 2fbd 709a bbbe f7fb a8bd
00000390: 6e50 ecbe 802f 78be d7bc 9ebe 20dc 6bbe
000003a0: f851 88be 8577 e2be ee40 a0be 7491 26be
000003b0: 2293 2fbe d683 a0be 043c 9cbe 4c6f 26be
000003c0: 2a1e a3be a7fe 06bf 8f09 33be b44e d4be
000003d0: e12f c0be bbb7 adbe 61aa 65be 6e75 a0be
000003e0: 619f 59be 0086 a2bd 3b9a dbbe 55dd 38be
000003f0: a20c 393d 9ff3 90bd 061d 68be a400 40be

final.linears.1.bias f4 [84]
-0.011867496 -0.26746553 -0.38943413 0.021728788 -0.22240372 -0.25081867 0.08032444 0.2544567
-0.007112477 -0.073221646 0.06511069 0.090188354 0.04190066 0.13395867 -0.12497428 0.2910607
0.009915511 -0.5075804 -0.10162243 -0.119985454 0.009494393 -0.118005335 0.0060979947 -0.21644858
-0.24492608 -0.12505624 -0.0075479527 -0.18645658 -0.13110691 -0.25897586 -0.29689884 -0.0036680065
0.10381721 0.028888578 -0.06725966 -0.05738426 -0.011885087 -0.2776895 -0.015766127 -0.041222785
-0.10320934 -0.47003973 -0.41419283 -0.085368566 -0.29030788 0.10822412 -0.034757696 -0.108630694
-0.0009283906 -0.4159921 -0.19151565 0.037762307 -0.23447561 -0.2522807 0.062178273 -0.012172796
0.005538864 -0.1464287 -0.3677147 0.027868664 -0.21362638 -0.034928117 -0.12691487 -0.23624891
0.27492955 -0.0027372092 -0.1663649 -0.37231803 -0.1751146 -0.10367341 -0.108344086 -0.066523395
-0.11606998 0.016973004 -0.42531472 -0.3577319 -0.020769212 -0.2214872 -0.2134639 -0.058064315
0.10577633 -0.06596825 0.09685172 0.07713118
00000000: e36f 42bc 3ef1 88be e963 c7be 9200 b23c
00000010: cdbd 63be 4e6b 80be 2481 a43d 2648 823e
00000020: c80f e9bb 3bf5 95bd c158 853d acb4 b83d
00000030: 07a0 2b3d 762c 093e 84f2 ffbd e805 953e
00000040: ab74 223c caf0 01bf 6c1f d0bd efba f5bd
00000050: 5f8e 1b3c c8ac f1bd b0d1 c73b b2a4 5dbe
00000060: e7cd 7abe be0e 00be d154 f7bb 79ee 3ebe
00000070: e440 06be 7c98 84be 2003 98be f062 70bb
00000080: 1e9e d43d bda7 ec3c 6fbf 89bd c20b 6bbd
00000090: abb9 42bc 512d 8ebe f727 81bc 39d9 28bd
000000a0: 6b5f d3bd 0ca9 f0be 1511 d4be b7d5 aebd
000000b0: 3ca3 94be 9ca4 dd3d 165e 0ebd c579 debd
000000c0: 3d5f 73ba ebfc d4be ae1c 44be a6ac 1a3d
000000d0: 601a 70be f02a 81be a5ae 7e3d 6870 47bc
000000e0: 5c7f b53b 68f1 15be 1a45 bcbe d34c e43c
000000f0: e0c0 5abe c910 0fbd f9f5 01be 3ceb 71be
00000100: 91c3 8c3e c062 33bb 8f5b 2abe 78a0 bebe
00000110: 3e51 33be ba52 d4bd 81e3 ddbd 6b3d 88bd
00000120: 19b6 edbd f80a 8b3c dac2 d9be a328 b7be
00000130: 3224 aabc 8acd 62be 4896 5abe d9d4 6dbd
00000140: 43a1 d83d 5d1a 87bd 325a c63d f4f6 9d3d

final.linears.2.weight f4 [10, 84]
0.014267766 -0.059379898 -0.35613775 0.09450044 -0.019270448 -0.10950885 -0.035987817 -0.00031856698
0.035723455 -0.005080996 -0.16530523 -0.0051052095 0.19760509 -0.00083618873 0.034461282 0.0076627587
0.102030896 -0.34745243 0.16189803 0.041553292 -0.06916948 0.012144237 -0.0029472155 -0.0298453
0.23092368 0.006729193 0.07543694 0.4888736 -0.005429234 0.0046445997 -0.36053956 -0.0009788729
-0.09725898 -0.018241003 0.07053952 0.13721953 -0.03332438 0.15955545 0.11538665 -0.12750949
-0.050987143 0.052890275 -0.4665046 0.0048859 0.33953935 0.03595161 0.00032644082 -0.13654712
0.021492314 0.14118809 0.0009293625 0.00435717 0.017611435 0.4113114 0.04991009 0.03798904
0.008746367 -0.29634887 0.47066233 0.17234051 0.017850222 -0.10202921 -0.040436193 -0.017021738
-0.010837173 -0.20424631 0.003567707 0.081089415 0.003428888 -0.0032881415 -0.46230182 -0.12495619
-0.09937065 -0.030336194 -0.008406743 -0.41365263 -0.012219177 -0.009695113 0.26972926 -0.024617046
0.017922381 0.00454441 0.13975872 0.011744058 0.025686324 0.057255775 0.37708685 0.064078666
0.024605045 -0.25240868 -0.056436818 -0.016347967 0.15235117 0.021241155 -0.07592837 0.0044907415
0.29760957 0.00700131 -0.1350992 -0.0061151003 -0.14125219 -0.22836284 -0.009453368 0.03176345
0.068422005 -0.000506129 -0.004534281 0.16915317 -0.40999705 0.0044015115 -0.018901011 -0.25506306
-0.0040360605 -0.0048740893 0.51845324 0.07492357 0.13485867 -0.01706404 -0.06992493 0.076852284
0.017586045 0.17921169 -0.07602484 -0.005582228 0.0049555884 0.12064182 -0.49318558 -0.021674884
0.13537869 0.19563705 -0.011777502 -0.037718825 -0.027821638 0.2192595 -0.0028621801 -0.023875901
-0.013933865 0.40650567 -0.07192146 -0.08612357 -0.009985062 0.56078804 -0.34563276 -0.047937576
-0.08262303 -0.072683744 0.18141523 0.010023722 -0.0018613159 0.0106478045 0.026113277 -0.10803314
0.011620602 0.092182234 -0.3568026 -0.07119557 -0.10853818 0.03744798 0.026080722 -0.19635952
-0.061896212 0.048293408 -0.3605108 -0.18983722 0.04891236 -0.033180244 0.033110365 -0.017821416
0.005438529 0.09351732 0.044826493 -0.007956913 0.04162712 0.059519503 -0.0022981148 0.28482243
0.07303468 0.09684631 -0.0006537997 0.102605455 -0.43957707 -0.09943064 -0.030910093 -0.63318586
0.011109603 0.24949545 -0.0063933623 0.0065386025 -0.013710612 -0.102768734 -0.13135295 0.12561455
-0.062492847 0.0152776 -0.006797932 -0.08029044 -0.12677515 -0.01602965 -0.014797744 0.014866764
-0.018056137 0.11708517 0.022465205 0.024367088 -0.015400182 0.34380776 0.0394104 -0.34936804
0.03523062 0.41741067 0.080070496 0.025809543 0.048463568 0.008482558 -0.20069818 0.035731703
0.64872384 0.45500153 0.9223456 -0.10740859 -0.31508213 -0.1261532 -0.7890784 0.03810289
0.1996322 -0.20837872 0.2329129 -0.11958711 0.09240868 0.017640624 0.07562149 0.43351653
-0.18612614 0.008153175 0.15243566 0.08152291 0.07627692 0.023145959 -0.1005688 -0.4769509
0.052225377 -0.04305038 0.3322118 0.1881245 0.008996211 0.023808653 -0.06552186 0.0032658316
-0.3660089 0.061090823 -0.0052827704 -0.06552836 -0.053282246 0.010503724 0.3426582 -0.0089458
00000000: 59c3 693c 5638 73bd b057 b6be 7289 c13d
00000010: 0fdd 9dbc 2d46 e0bd f667 13bd 5605 a7b9
00000020: c252 123d 7c7e a6bb c645 29be 9a49 a7bb
00000030: fd58 4a3e ad33 5bba 4627 0d3d e117 fb3b
00000040: 93f5 d03d 49e5 b1be 99c8 253e c933 2a3d
00000050: baa8 8dbd 9ff8 463c 1226 41bb 217e f4bc
00000060: 4277 6c3e 9080 dc3b af7e 9a3d a44d fa3e
00000070: b7e7 b1bb ba31 983b a498 b8be 864d 80ba
00000080: b72f c7bd 286e 95bc 0677 903d 4783 0c3e
00000090: 257f 08bd 8162 233e d64f ec3d d991 02be
000000a0: e5d7 50bd 79a3 583d b1d9 eebe e619 a03b
000000b0: 1ad8 ad3e ff41 133d 2526 ab39 02d3 0bbe
000000c0: a610 b03c 9c93 103e 76a0 733a 97c6 8e3b
000000d0: db45 903c 6897 d23e 866e 4c3d 659a 1b3d
000000e0: ec4c 0f3c 0abb 97be a7fa f03e 087a 303e
000000f0: a13a 923c b1f4 d0bd 6ca0 25bd 2c71 8bbc
00000100: 668e 31bc f225 51be 31d0 693b 3512 a63d
00000110: 32b7 603b dc7d 57bb d3b2 ecbe 08e9 ffbd
00000120: d782 cbbd 9c83 f8bc 70bc 09bc 47ca d3be
00000130: f132 48bc 40d8 1ebc f419 8a3e b0a9 c9bc
00000140: f5d1 923c 46e9 943b e91c 0f3e 266a 403c
00000150: 206c d23c 0885 6a3d 8711 c13e ad3b 833d
00000160: 8590 c93c b63b 81be 4b2a 67bd 2cec 85bc
00000170: f201 1c3e ee01 ae3c 5580 9bbd 1227 933b
00000180: 4860 983e 3f6b e53b 7257 0abe 2e61 c8bb
00000190: 6aa4 10be f3d7 69be 4de2 1abc 641a 023d
000001a0: d620 8c3d bead 04ba 4e94 94bb 7d36 2d3e
000001b0: 22eb d1be 8e3a 903b 4bd6 9abc a097 82be
000001c0: ee40 84bb d3b6 9fbb 5ab9 043f 8771 993d
000001d0: 6418 0a3e e3c9 8bbc cd34 8fbd bb64 9d3d
000001e0: 9c10 903c 4583 373e e9b2 9bbd 1feb b6bb
000001f0: 7d62 a23b 0f13 f73d d282 fcbe 878f b1bc
00000200: b6a0 0a3e 1455 483e 6cf6 40bc 0e7f 1abd
00000210: 34ea e3bc 9085 603e 6a93 3bbb 6597 c3bc
00000220: de4a 64bc 8321 d03e 8f4b 93bd 8e61 b0bd
00000230: 6398 23bc ce8f 0f3f c7f6 b0be 315a 44bd
00000240: 4336 a9bd 37db 94bd eac4 393e 8a3a 243c
00000250: 66f7 f3ba 2174 2e3c 83eb d53c 7b40 ddbd
00000260: 5664 3e3c 0aca bc3d d5ae b6be fcce 91bd
00000270: 4449 debd 0e63 193d 3da7 d53c 7812 49be
00000280: e286 7dbd 4fcf 453d df94 b8be b064 42be
00000290: 5458 483d 02e8 07bd bc9e 073d 38fe 91bc
000002a0: b035 b23b 0286 bf3d fc9b 373d b65d 02bc
000002b0: 3381 2a3d b9ca 733d f89b 16bb 3fd4 913e
000002c0: 3593 953d 5c57 c63d c163 2bba cf22 d23d
000002d0: 3f10 e1be 4ba2 cbbd 2a37 fdbc 7818 22bf
000002e0: 0d05 363c bc7b 7f3e 697f d1bb c641 d63b
000002f0: 7aa2 60bc 6a78 d2bd 6381 06be 1aa1 003e
00000300: 80f8 7fbd e64e 7a3c 30c1 debb 506f a4bd
00000310: 58d1 01be 9d50 83bc 3d72 72bc ba93 733c
00000320: 77ea 93bc 59ca ef3d f308 b83c 7d9d c73c
00000330: 0c51 7cbc 9207 b03e cd6c 213d 5ee0 b2be
00000340: fc4d 103d dab6 d53e 00fc a33d 896e d33c
00000350: bc81 463d 6dfa 0a3c d383 4dbe 685b 123d
00000360: c412 263f f6f5 e83e d71e 6c3f 09f9 dbbd
00000370: 7252 a1be 4e2e 01be 0b01 4abf c711 1c3d
00000380: 626c 4c3e 3b61 55be b880 6e3e 16ea f4bd
00000390: c340 bd3d 1283 903c 71df 9a3d e1f5 dd3e
000003a0: da97 3ebe e594 053c 1818 1c3e 7cf5 a63d
000003b0: 1337 9c3d 989c bd3c 04f7 cdbd e932 f4be
000003c0: 47ea 553d 9855 30bd aa17 aa3e b5a3 403e
000003d0: d864 133c 5d0a c33c 5330 86bd 9007 563b
000003e0: 8565 bbbe 5f3a 7a3d 171b adbb bc33 86bd
000003f0: 7c3e 5abd d017 2c3c e570 af3e 6891 12bc

final.linears.2.bias f4 [10]
-0.0015223776 -0.0020106535 -0.19093286 -0.1534881 -0.12391296 -0.031813372 0.02021048 0.009944062
-0.010604321 -0.06277488
00000000: 848a c7ba 2bc5 03bb e783 43be fc2b 1dbe
00000010: 14c6 fdbd bd4e 02bd 7390 a53c 6bec 223c
00000020: bfbd 2dbc 1e90 80bd

layers.0.attn.0.gnn_q.weight f4 [10, 16]
0.031161638 -0.014003555 -0.0009227558 -0.04014948 0.024286143 0.008886753 -0.0051683295 0.011489244
0.013536899 0.034043655 0.010795404 -0.015067432 0.022388019 0.005754051 0.021002984 -0.008414442
0.023658575 -0.0073175263 -0.001240041 -0.027467957 0.014084823 -0.006112306 0.012347935 0.013708139
0.011925761 0.02434504 -0.006203074 -0.00877759 0.020646412 0.00638641 0.020707205 0.013274222
0.08759813 0.18281645 -0.0014217375 -0.13459024 -0.35452512 0.1576189 -0.025287878 0.027187122
0.02875732 0.09808526 0.052602973 0.2201743 -0.44560853 0.015383662 -0.39127395 -0.08309178
0.02825288 0.031720564 -0.0006149891 -0.03755816 -0.056421157 0.02767816 -0.0033879175 0.013260491
0.015260644 0.030890811 0.009946617 0.038659357 -0.07921209 0.008522095 -0.07529619 -0.015135213
-0.05781251 -0.06677843 0.0009234628 0.08230084 0.12580317 -0.08655345 0.011439196 -0.026781468
-0.023814088 -0.05970005 -0.031818196 -0.09168164 0.09213834 -0.014320624 0.10635781 0.036060512
-0.01557107 -0.003072902 0.001439264 0.010722578 -0.0056656944 0.0049504107 0.00089491846 -0.014185965
-0.013492697 -0.01338774 -0.0036772843 0.000880148 -0.009354063 -0.007898664 -0.0085560335 0.0003926222
-0.049889483 -0.029675597 0.0022413826 0.060276873 0.047016654 -0.044510417 0.010018376 -0.024155019
-0.02661913 -0.05143437 -0.020463856 -0.036910195 0.05596464 -0.014007382 0.05267234 0.032034233
0.010306544 0.010000176 -0.00027256133 -0.011236735 -0.017986879 0.009563642 0.0004826143 0.0053982707
0.0061398223 0.010720225 0.0009845777 0.0137206 -0.021650756 0.0028625196 -0.022026824 -0.0051365583
0.017121416 -0.023085006 -0.00075747597 -0.021171419 0.059295185 -0.0071391542 0.00010094103 0.009583691
0.0075276145 0.017220227 0.0030769142 -0.028529162 0.07804047 0.004598703 0.07224841 0.0019229061
-0.033171616 -0.011901529 0.00063246157 0.042890064 0.01123646 -0.021212397 -0.0006857879 -0.013349481
-0.0126827 -0.035638712 -0.010032719 -0.014005708 0.006642651 -0.008151333 0.007442301 0.0045149755
00000000: b146 ff3c 2b6f 65bc 18e5 71ba c873 24bd
00000010: bcf3 c63c be99 113c 175b a9bb 623d 3c3c
00000020: dfc9 5d3c 5c71 0b3d 35df 303c 64dd 76bc
00000030: 1467 b73c 7a8c bc3b 730e ac3c badc 09bc
00000040: a1cf c13c dcc7 efbb df88 a2ba 7b04 e1bc
00000050: 08c4 663c bd49 c8bb fe4e 4a3c 1a98 603c
00000060: 4464 433c 406f c73c 2843 cbbb e1cf 0fbc
00000070: aa22 a93c 1745 d13b 28a2 a93c 1f7c 593c
00000080: a666 b33d 3c34 3b3e 9859 baba 06d2 09be
00000090: 5184 b5be d966 213e 8628 cfbc 87b7 de3c
000000a0: 7994 eb3c ede0 c83d 3776 573d 5f75 613e
000000b0: cd26 e4be c10b 7c3c 0f55 c8be 062c aabd
000000c0: 9572 e73c 6ced 013d 3837 21ba 96d6 19bd
000000d0: df19 67bd 4fbd e23c d307 5ebb 8842 593c
000000e0: c807 7a3c ba0e fd3c 23f7 223c 4659 1e3d
000000f0: f339 a2bd 42a0 0b3c e434 9abd aff9 77bc
00000100: cfcc 6cbd 21c3 88bd 8a14 723a 588d a83d
00000110: 8cd2 003e ef42 b1bd 776b 3b3c cf64 dbbc
00000120: c315 c3bc 0a88 74bd cc53 02bd 95c3 bbbd
00000130: 07b3 bc3d 0da1 6abc 20d2 d93d 30b4 133d
00000140: cd1d 7fbc be62 49bb b0a5 bc3a c0ad 2f3c
00000150: 4aa7 b9bb 0e37 a23b f698 6a3a 406c 68bc
00000160: 7910 5dbc 4058 5bbc 98fe 70bb bcb9 663a
00000170: c941 19bc 6669 01bc 9b2e 0cbc dcd8 cd39
00000180: ea58 4cbd 3d1a f3bc 29e4 123b e2e4 763d
00000190: 8994 403d 8e50 36bd 1d24 243c bfe0 c5bc
000001a0: 5d10 dabc d9ac 52bd d1a3 a7bc 252f 17bd
000001b0: 2e3b 653d 387f 65bc f4be 573d 5436 033d
000001c0: c7dc 283c c7d7 233c 90e6 8eb9 481a 38bc
000001d0: 3859 93bc d2b0 1c3c 6507 fd39 fae3 b03b
000001e0: 9030 c93b e2a3 2f3c f20c 813a 5ecc 603c
000001f0: ed5c b1bc 1c99 3b3b 9971 b4bc 9350 a8bb
00000200: 3642 8c3c c41c bdbc 5a91 46ba af6f adbc
00000210: 82df 723d 91ef e9bb 4eb0 d338 ea04 1d3c
00000220: 35aa f63b 6f11 8d3c 0ea6 493b fdb5 e9bc
00000230: afd3 9f3d b7b0 963b f9f6 933d 060a fc3a
00000240: f6de 07bd a1fe 42bc c7cb 253a 7ead 2f3d
00000250: 2119 383c 9fc5 adbc 72c6 33ba c8b7 5abc
00000260: 19cb 4fbc e6f9 11bd 4660 24bc 3278 65bc
00000270: 98aa d93b 2b8d 05bc 8cde f33b 5cf2 933b

layers.0.attn.0.gnn_q.bias f4 [16]
-0.07988968 0.14984731 0.0019278337 0.12001336 -0.15090725 0.009606635 -0.0234543 -0.030902952
-0.029026965 -0.08621829 0.016788153 0.12331238 -0.24209903 -0.016916385 -0.1960483 -0.042736292
00000000: 339d a3bd 9371 193e 5daf fc3a 91c9 f53d
00000010: 6e87 1abe 2665 1d3c 3b23 c0bc 3028 fdbc
00000020: f5c9 edbc 3793 b0bd 4f87 893c 338b fc3d
00000030: cfe8 77be 3b94 8abc e3c0 48be 400c 2fbd

layers.0.attn.0.gnn_k.weight f4 [10, 16]
0.031175556 0.013388141 -0.00078152 -0.04009006 -0.018368075 0.0057378025 0.010192582 0.01193136
0.011902082 0.03279989 -0.0039123837 0.015296066 -0.021870978 0.0056822943 -0.017992254 0.007585322
0.023827307 0.006518103 -0.00087359897 -0.026365284 -0.00410537 0.016033465 -0.008545661 0.012462672
0.01272858 0.025357168 0.010750874 0.005573361 -0.019194933 0.0060222563 -0.016221624 -0.013859739
0.08728814 -0.19746079 -0.0015091007 -0.13642433 0.31662932 -0.054710556 0.04123927 0.029218473
0.026955264 0.0958851 -0.026562015 -0.17777014 0.44839364 0.015658949 0.36623493 0.079132445
0.02822264 -0.030774489 -0.0006176081 -0.038005635 0.0335278 -0.00030758383 0.008167564 0.015092289
0.01301643 0.030122874 -0.0039371075 -0.024609428 0.077299 0.008539752 0.06529215 0.01411272
-0.058407538 0.056405004 0.0008957878 0.07908826 -0.020642264 -0.013854921 -0.019732099 -0.025289806
-0.025831219 -0.06575995 0.012069784 0.03539692 -0.08582605 -0.014645487 -0.06442039 -0.030238664
-0.015759612 0.0059259655 0.0018367704 0.008572627 -0.009498271 0.00929989 -0.0037256298 -0.012921977
-0.014018035 -0.017251534 0.003823089 0.009215547 0.007970873 -0.007842527 0.0029994517 -0.0016420076
-0.050636068 0.029845038 0.00265456 0.05845836 -0.037137903 0.013525866 -0.017937908 -0.026227301
-0.02566565 -0.052756708 0.009714719 0.02654486 -0.055945948 -0.014019765 -0.049495157 -0.030758327
0.01014931 -0.009011937 -0.0003718679 -0.010990533 0.0070276 -0.00054532767 0.00038436532 0.004800119
0.0062223505 0.01043161 0.0019476723 -0.007063411 0.020480875 0.0033239836 0.016089186 0.004265506
0.017376957 0.019471249 -0.00043891685 -0.01898336 -0.030678717 0.005171142 0.0027723466 0.0075946064
0.010004103 0.019553324 0.00068149966 0.019044403 -0.07470025 0.0041983835 -0.058761317 -0.0013786277
-0.03324646 0.0115694115 0.0003901507 0.04235205 -0.0023550312 -0.009992608 -0.0045269444 -0.014470905
-0.013168084 -0.03688989 0.0012231923 0.006098672 -0.0068327514 -0.008362694 -0.0050053555 -0.0025544767
00000000: e163 ff3c ef59 5b3c ebde 4cba 7a35 24bd
00000010: a578 96bc 2d04 bc3b cafe 263c c07b 433c
00000020: f300 433c 2d59 063d 7433 80bb 5a9c 7a3c
00000030: c42a b3bc 8a32 ba3b 7e64 93bc 4b8e f83b
00000040: 7c31 c33c d095 d53b 3c02 65ba 02fc d7bc
00000050: 5786 86bb 9d58 833c 1a03 0cbc 3c30 4c3c
00000060: 898b 503c d6b9 cf3c 6f24 303c bea0 b63b
00000070: b13e 9dbc 5956 c53b 36e3 84bc f513 63bc
00000080: 20c4 b23d 2933 4abe 04cd c5ba d2b2 0bbe
00000090: 3d1d a23e 2d18 60bd 82ea 283d 945b ef3c
000000a0: 49d1 dc3c 685f c43d 9598 d9bc 6009 36be
000000b0: da93 e53e 3247 803c 2583 bb3e 3110 a23d
000000c0: 2a33 e73c c81a fcbc fae6 21ba ccab 1bbd
000000d0: 7254 093d 3443 a1b9 3fd1 053c a645 773c
000000e0: dd42 553c 3fc4 f63c da02 81bb b699 c9bc
000000f0: f04e 9e3d 51ea 0b3c e4b7 853d 0a39 673c
00000100: be3c 6fbd ef08 673d 4dd3 6a3a 07f9 a13d
00000110: f719 a9bc c0ff 62bc 36a5 a1bc 912c cfbc
00000120: fe9b d3bc 27ad 86bd 58c0 453c 5cfc 103d
00000130: 91c5 afbd a0f3 6fbc d6ee 83bd 13b7 f7bc
00000140: 4d1a 81bc 9a2e c23b cabf f03a 3474 0c3c
00000150: a39e 1bbc 915e 183c b229 74bb b3b6 53bc
00000160: e6ab 65bc 1753 8dbc ca8c 7a3b cefc 163c
00000170: 4498 023c f17d 00bc 7392 443b a238 d7ba
00000180: c467 4fbd 957d f43c 20f8 2d3b 0972 6f3d
00000190: ea1d 18bd 989b 5d3c 85f2 92bc a3da d6bc
000001a0: c540 d2bc 6b17 58bd 7c2a 1f3c 9b74 d93c
000001b0: 9427 65bd 28b3 65bc 6fbb 4abd e3f8 fbbc
000001c0: 4b49 263c cea6 13bc 44f7 c2b9 a311 34bc
000001d0: c847 e63b 52f4 0eba a484 c939 514a 9d3b
000001e0: dce4 cb3b 58e9 2a3c 0a49 ff3a 3074 e7bb
000001f0: 82c7 a73c 31d7 593b 78cd 833c a8c5 8b3b
00000200: 1f5a 8e3c 2b82 9f3c 6c1e e6b9 fe82 9bbc
00000210: ef51 fbbc af72 a93b 42b0 353b 2ddc f83b
00000220: 40e8 233c 4b2e a03c aba6 323a 0203 9c3c
00000230: 72fc 98bd 9892 893b b5af 70bd 12b3 b4ba
00000240: 712d 08bd a18d 3d3c 248d cc39 5879 2d3d
00000250: de56 1abb 09b8 23bc c356 94bb 6017 6dbc
00000260: f3be 57bc da19 17bd 8653 a03a 5ed7 c73b
00000270: 46e5 dfbb ae03 09bc f703 a4bb 0269 27bb

layers.0.attn.0.gnn_k.bias f4 [16]
-0.08005318 -0.15302971 0.0017889102 0.11752929 0.2621044 -0.13847934 0.008895651 -0.029864548
-0.03036599 -0.08844569 -0.04226631 -0.19232541 0.24539201 -0.017061178 0.24809156 0.048940174
00000000: ecf2 a3bd d2b3 1cbe de79 ea3a 32b3 f03d
00000010: 8c32 863e 87cd 0dbe 11bf 113c 7fa6 f4bc
00000020: 19c2 f8bc 0423 b5bd 701f 2dbd f4f0 44be
00000030: 0b48 7b3e e2c3 8bbc b70b 7e3e 7e75 483d

layers.0.attn.0.gnn_v.weight f4 [10, 16]
0.25692502 -0.6589743 0.31945208 0.97661686 0.60350883 -0.5759406 -0.49336925 -0.51141804
0.295604 0.4962683 0.97424835 -0.9377997 -0.16029866 -0.34839818 0.5982972 -0.62103885
-0.124965385 -0.1496657 0.033989023 0.31063086 0.082610555 -0.035786793 0.06788674 -0.2040425
-0.05083846 -0.029269658 0.32711744 -0.24903636 0.050925136 0.12596154 0.057469588 -0.118242584
-0.08128057 0.12580691 0.09908517 0.0972676 -0.16357821 0.09272031 -0.09740721 0.22166619
-0.36478114 -0.14373016 -0.15446164 0.18642767 -0.2183825 -0.14480314 -0.010416666 -0.11561365
0.1521594 0.021843959 0.039607592 -0.22565648 -0.13555558 -0.11260941 0.1337757 0.1382764
-0.31857735 -0.05485943 0.049970504 0.011236373 -0.026030606 -0.15239757 -0.034890164 -0.07334372
0.05632762 -0.0995491 -0.44895402 -0.20861042 -0.2277066 0.0046884376 0.066516265 -0.08636606
-0.13376676 0.106719 0.027217317 -0.032258485 0.2950406 0.37276354 0.0215906 0.17255624
-0.18753514 0.09006944 0.07172869 0.044943146 -0.17245932 0.23482715 0.23101944 0.13632725
-0.103287466 -0.12638709 -0.08642564 0.025410922 -0.050305836 0.27344707 -0.14722455 -0.021713331
-0.41161904 0.5328782 0.08284305 -0.77970773 -0.36928937 0.8311253 0.6111618 0.19524309
-0.20109831 -0.21431707 -0.44760367 0.48471397 -0.17972198 0.4458855 -0.23705405 0.43572325
-0.069464125 0.1725158 0.0036036908 -0.35622263 -0.1395933 0.13414139 0.12147838 0.11690786
-0.2671871 -0.18814284 -0.040725067 0.24105415 -0.024017086 -0.12535007 -0.14780335 0.09532887
0.10565262 -0.13098127 -0.063081175 -0.12795943 -0.08206057 0.0041167834 -0.0060820095 -0.024770075
-0.08199391 -0.04868955 -0.053725295 0.17709357 0.059190083 -0.015379887 0.05846629 -0.039613143
1.1950372 -0.20709413 -0.74362504 -0.44576952 0.10319108 -1.1706042 -1.2020551 0.2164095
-0.25663272 -0.7138328 -0.8558447 0.7483435 0.6493222 -1.3158312 -0.11576282 0.3287709
00000000: ad8b 833e 8ab2 28bf 398f a33e 9003 7a3f
00000010: 8e7f 1a3f d870 13bf e59a fcbe 4bec 02bf
00000020: 6859 973e e116 fe3e 5768 793f a413 70bf
00000030: 5525 24be 3f61 b2be 012a 193f 67fc 1ebf
00000040: daed ffbd f741 19be 1338 0b3d 020b 9f3e
00000050: b92f a93d 2c95 12bd 3408 8b3d 84f0 50be
00000060: fd3b 50bd ecc6 efbc f07b a73e 6303 7fbe
00000070: e096 503d 10fc 003e 3b65 6b3d 2b29 f2bd
00000080: 6d76 a6bd 87d3 003e 2aed ca3d 3c34 c73d
00000090: 0c81 27be 25e4 bd3d 6e7d c7bd 76fc 623e
000000a0: 98c4 babe 002e 13be 312b 1ebe e5e6 3e3e
000000b0: a99f 5fbe 4647 14be aaaa 2abc d9c6 ecbd
000000c0: accf 1b3e 1af2 b23c 923b 223d 7e12 67be
000000d0: 15cf 0abe c39f e6bd 7ffc 083e 5498 0d3e
000000e0: 921c a3be 48b4 60bd dfad 4c3d c418 383c
000000f0: 233e d5bc 1c0e 1cbe fde8 0ebd 3b35 96bd
00000100: cab7 663d 66e0 cbbd 4ddd e5be f89d 55be
00000110: eb2b 69be 77a1 993b ae39 883d b0e0 b0bd
00000120: 27fa 08be 7e8f da3d daf6 de3c 7921 04bd
00000130: 900f 973e ddda be3e c5de b03c 95b2 303e
00000140: 3609 40be 5476 b83d 7ee6 923d 4e16 383d
00000150: 2d99 30be 8776 703e 5c90 6c3e 5f99 0b3e
00000160: 6188 d3bd 9e6b 01be edff b0bd 912a d03c
00000170: 7e0d 4ebd 4101 8c3e 08c2 16be 28e0 b1bc
00000180: bbbf d2be b56a 083f 9ea9 a93d ed9a 47bf
00000190: 7f13 bdbe a1c4 543f 1a75 1c3f ceed 473e
000001a0: b7ec 4dbe ef75 5bbe 4f2c e5be 6e2c f83e
000001b0: 0a09 38be 1b4b e43e 4cbe 72be 1e17 df3e
000001c0: 3543 8ebd fba7 303e e62b 6c3b d062 b6be
000001d0: 8cf1 0ebe 5c5c 093e a8c9 f83d 636d ef3d
000001e0: bfcc 88be 84a8 40be 54cf 26bd e6d6 763e
000001f0: 7bbf c4bc c55b 00be c359 17be c83b c33d
00000200: 6760 d83d f41f 06be b430 81bd cc07 03be
00000210: 5f0f a8bd 15e6 863b 984b c7bb 9dea cabc
00000220: 6cec a7bd b26e 47bd 0e0f 5cbd 0458 353e
00000230: 4d71 723d ecfb 7bbc 597a 6f3d 6441 22bd
00000240: fbf6 983f 7c10 54be 365e 3ebf e73b e4be
00000250: d855 d33d 5cd6 95bf f1dc 99bf 749a 5d3e
00000260: 5d65 83be bfbd 36bf a318 5bbf 7193 3f3f
00000270: fb39 263f 286d a8bf 0f15 edbd a954 a83e

layers.0.attn.0.gnn_v.bias f4 [16]
0.05460807 -0.09115889 -0.04627363 -0.041673023 0.12103513 -0.07716494 0.040311035 -0.14859264
0.08018494 0.07681029 0.08612178 -0.12084915 0.14692792 0.068000995 0.0036510588 0.08008817
00000000: b6ac 5f3d 83b1 babd 6b89 3dbd 55b1 2abd
00000010: 44e1 f73d a708 9ebd 2f1d 253d ab28 18be
00000020: 0038 a43d b74e 9d3d 9e60 b03d c27f f7bd
00000030: 4674 163e 1b44 8b3d 9a46 6f3b 4405 a43d
