checkpoints/ames_50_train1_pos/Aug22-21:35:09_770.pth (torch, 377407 bytes, 294 tensors)

layers.0.weight f4 [10, 16]
000000 3e 5f c3 3e 31 10 90 3f ef db e3 bd fd 0d d5 3e
       0.38158602 1.1254941 -0.111259334 0.41612235
000010 86 11 0a 3e 65 04 51 3e f5 54 06 be 72 9a 97 3f
       0.13483247 0.20411833 -0.13118346 1.1844008
000020 4f 36 5e 3f 40 76 b9 bf f9 cb 9e be d5 d1 07 3d
       0.8680162 -1.4489212 -0.31014994 0.033159096
000030 9f 5d 8b bd 2c 5b 9f 3f 7d cc 32 bc 8e 75 f0 be
       -0.06804966 1.2449698 -0.010913012 -0.46964687
000040 21 63 93 3f 01 c2 36 bc e1 26 d8 be 29 d5 49 3f
       1.1514627 -0.011154653 -0.42217162 0.7884088
000050 44 ab 56 be ad 6d b0 be a1 6c 68 be 3c 34 33 3e
       -0.2096377 -0.34458676 -0.22697689 0.17500395
000060 88 cc c1 bf aa a6 f5 bd d8 28 4b bf 84 10 1b bc
       -1.5140543 -0.11994679 -0.793592 -0.009464387
000070 22 2e a0 3e 01 1e 63 3e 3e 53 b3 3f e4 89 6f be
       0.31285197 0.22179414 1.4009778 -0.23392445
000080 0c d6 c9 3e 2e db 60 3d c4 39 82 be 3d 45 92 3d
       0.39421117 0.054896526 -0.25434697 0.071421124
000090 b8 03 8d 3e 0b 83 c3 3e c0 d3 bd 3b 16 14 cc 3c
       0.275419 0.38185915 0.005793065 0.024911921
0000a0 34 03 97 3e ae fe 8c be 35 b0 16 3f 8f 1f fe 3f
       0.2949463 -0.27538055 0.5886262 1.9853381
0000b0 be df 05 3f 3b 28 d9 be 4a 94 ca 3e 52 9a e6 3e
       0.5229453 -0.42413506 0.3956626 0.45039612
0000c0 6c 55 ae 3e 7f bd 13 bd 69 02 0b bf 81 84 aa 3d
       0.34049547 -0.03606939 -0.5430055 0.08326054
0000d0 d5 28 c2 bf fa a0 b2 3e 78 f3 83 3f 2a ab c8 bb
       -1.5168711 0.3488844 1.0308676 -0.00612392
0000e0 12 80 b6 3e 07 e2 9d be a4 4c 8d 3f f6 43 a9 be
       0.35644585 -0.30836508 1.1039014 -0.33059663
0000f0 c6 1b 4e 3e ac d1 cd be 30 90 b4 3e 14 ea 47 bf
       0.20127782 -0.4019903 0.35266256 -0.7809155
000100 0f 14 c9 3e f5 57 da bd 74 d9 6a 3f f1 ea 17 3e
       0.39273116 -0.10661308 0.9173806 0.14835717
000110 97 25 63 3e 55 df 88 3e 07 b9 ca 3f ef d7 34 bd
       0.22182308 0.2673289 1.5837716 -0.044151243
000120 ef 39 b5 3e fc 29 20 bf 37 60 1d bf 58 f8 26 bf
       0.35395762 -0.62564063 -0.6147494 -0.6522269
000130 d8 e8 96 3e b2 43 3d be f0 d7 90 3e d9 d8 96 3f
       0.2947452 -0.18482855 0.28289747 1.1784927
000140 48 88 62 3f b5 93 32 bf 16 a4 ab 3c 45 09 95 bd
       0.884892 -0.69756633 0.020952266 -0.07277159
000150 55 b3 14 3f 74 8c 53 3f 91 4a 84 3e 42 73 93 bf
       0.5808614 0.8263619 0.2583814 -1.1519549
000160 10 03 a5 be c8 b0 19 bf aa 8e 0a 3e 2c 9d 0c 3d
       -0.322289 -0.6003537 0.13530985 0.03432958
000170 09 0f d0 3e c2 cb 7e 3f 08 5a 86 bf 6b 1f 4a bf
       0.4063647 0.9952966 -1.0496225 -0.7895419
000180 e7 f6 e6 3c f8 23 19 3f 4c d1 3f bc 4e 07 5c bf
       0.028193904 0.5982051 -0.011707615 -0.85948646
000190 0b b8 39 3e 70 b3 8f bc cf 29 11 be 43 02 bf bf
       0.18136613 -0.017541617 -0.14176105 -1.4922565
0001a0 82 b6 cb bd bf c3 43 bf 51 16 6d be 2f e6 83 3d
       -0.0994692 -0.7647056 -0.23153044 0.064403884
0001b0 ec 91 4b bf 4d 91 08 3d 55 70 bd 3f 76 f0 cd be
       -0.79519534 0.033341695 1.4799906 -0.4022252
0001c0 e3 f9 5c 3f 81 1b 27 bf 82 57 bb be 1d 42 92 be
       0.86318797 -0.6527634 -0.365902 -0.28566065
0001d0 cd b9 a9 3d 75 46 b7 bf 3e ad cf bd 9f 9a 42 bd
       0.08287392 -1.4318377 -0.10140465 -0.04751074
0001e0 29 68 08 3f b3 9d 2f bf 16 2b 97 be 30 20 b5 bd
       0.53283936 -0.68600005 -0.2952506 -0.0884403
0001f0 e2 ce 9f 3e 62 f9 08 bf bc 2d a2 be 21 60 da be
       0.31212527 -0.5350553 -0.31675518 -0.42651466
000200 63 d9 40 3f 86 83 57 3e 3b 98 b8 3f 4c 8b 2b 3e
       0.75331706 0.21046266 1.4421457 0.16752356
000210 42 ce 06 bf e7 7f dc 3e 57 63 58 bf 56 8a 06 be
       -0.52658474 0.43066332 -0.8452658 -0.13138708
000220 8d a2 d3 3d 09 32 10 be 84 53 d8 be a4 b9 99 bd
       0.103337385 -0.14081587 -0.42251217 -0.07506111
000230 02 12 da 3e ae d2 9a bf 24 38 9f bd 42 4a 04 bf
       0.42591864 -1.2095544 -0.0777438 -0.5167581
000240 c3 d4 af bf 09 45 90 3e a5 3e 6e 3e ec dc 85 3f
       -1.3736805 0.2817767 0.23266084 1.0458045
000250 77 97 19 3f 72 cf 5d bf 9c 35 ee 3d e7 3c 5a bf
       0.5999674 -0.8664466 0.11631319 -0.8524918
000260 49 73 84 be 13 b3 8d bf fa d8 4f 3f cd 74 88 bd
       -0.25869206 -1.1070274 0.81190455 -0.06662903
000270 2d 4e c8 3d c3 11 b7 be ca 0a 3a be 51 69 43 be
       0.09780536 -0.3575574 -0.18168178 -0.19083144

layers.0.bias f4 [16]
000000 79 b5 88 bd 9a a3 17 bf c7 b1 54 be 10 a7 18 3f
       -0.06675238 -0.5923401 -0.20770942 0.5962992
000010 9e 5f 95 3e a2 25 8f 3e d6 f4 0b bf ca 4a ea 3b
       0.29174513 0.279584 -0.54670465 0.007150029
000020 7d 8d bc 3e 08 8f b5 3d 8f fa 95 be a8 75 49 bf
       0.36826697 0.08865172 -0.29292724 -0.78695154
000030 91 9a 58 bf 99 0b e3 bd 3a e9 b2 3c 36 83 4c be
       -0.8461085 -0.110861965 0.021839727 -0.19971928

layers.1.weight f4 [16, 16]
000000 45 f3 92 3d ce 79 ec 3d 6a e3 d2 3c 0b d1 ae bf
       0.07175306 0.1154667 0.025743205 -1.3657545
000010 6a 00 96 bd 2f 50 3c bf be 25 91 bb 25 77 61 3e
       -0.07324298 -0.7355985 -0.004429548 0.22018106
000020 ea 01 03 3e f6 4a 82 bf 39 2e 39 be ce 24 ae bd
       0.12793699 -1.0179126 -0.18084039 -0.08503114
000030 b8 22 e4 bd 43 87 6f 3d 67 c8 8a be cc af 2f bf
       -0.111394346 0.058478605 -0.2710602 -0.6862762
000040 bb ef 68 3d aa 92 03 3e ca 12 42 3f aa 58 08 3e
       0.05686925 0.12848917 0.7580992 0.13315073
000050 92 c3 a9 3e 2e 75 e4 3e 25 4f 6f bd a3 e1 4b bf
       0.3315702 0.4462065 -0.058425087 -0.7964117
000060 8f 0f 32 3f e0 a2 8a 3e 9e 07 a1 39 19 7b 3b be
       0.6955499 0.2707739 0.00030713988 -0.18308677
000070 08 4d 1c be d6 c2 b7 be 9e 06 b6 3e ec 64 f2 3b
       -0.1526376 -0.35890836 0.35551924 0.0073972847
000080 56 fe 4f 3e 8a ce b9 3e 77 5c 3f bd f9 f5 4c 3e
       0.20311865 0.3629039 -0.04671904 0.20015706
000090 72 41 93 3e da 4f 1e be 17 a6 bf 3e 2e 5d a1 3d
       0.28760868 -0.15460148 0.37431404 0.07879101
0000a0 dd ea 53 bc 6a 9e 6a bf 87 2f 0c 3e 56 b9 be 3d
       -0.012934414 -0.9164797 0.13690005 0.09312694
0000b0 16 96 37 3f ca b7 87 be 22 f1 00 3e 70 b8 b5 be
       0.7171339 -0.26507407 0.12591985 -0.35492277
0000c0 ef c3 8e bd cc 0e 1a 3e 5b 1d 5b 3f de f1 b0 3e
       -0.06970965 0.15044707 0.8559167 0.3455953
0000d0 b1 30 d2 be be d4 e0 be d9 52 f7 3c 60 48 2e bd
       -0.41052774 -0.4391231 0.030190872 -0.04254949
0000e0 0d e4 99 3c 16 50 f3 bd ba c2 e8 3d 54 1e 1f 3e
       0.0187855 -0.118805096 0.11365266 0.15538913
0000f0 b7 0a 51 bd b2 87 4f 3e f6 cd c0 be 38 23 27 3d
       -0.05103561 0.20266607 -0.37657136 0.04080507
000100 4a f9 d6 be fc 5e 6f 3f cc fc cf 3e 0d cc a3 3e
       -0.41987067 0.9350431 0.40622556 0.31991616
000110 ef 9a bc be cc 1a 9f 3b 91 74 00 bf 26 3f 1b 3f
       -0.36836955 0.0048554894 -0.50177866 0.6064323
000120 2a c8 87 be 82 12 0c 3f 5b 07 86 bb 3b 70 58 be
       -0.265199 0.5471574 -0.0040902323 -0.21136563
000130 ed 05 68 3f 5b 81 38 be 26 5b e1 bd 9f fc a2 3e
       0.9063404 -0.18018095 -0.11003713 0.3183336
000140 32 3b c1 3d 8b 70 70 3c 2c 1b c5 bd d9 0c 88 be
       0.09435119 0.01467527 -0.09624323 -0.26572302
000150 d3 40 8b be 76 26 2f bf d4 06 38 be 8e 60 99 3c
       -0.27197894 -0.6841806 -0.17971355 0.018722799
000160 12 93 0d bf 9d 59 0f 3e 0d ae 04 be e6 fb 84 bd
       -0.55302536 0.13999029 -0.1295702 -0.06493358
000170 c1 ff 9f be 43 0d 92 3e 14 27 bb be f3 7b 99 be
       -0.31249812 0.28525743 -0.36553252 -0.29977378
000180 19 a5 e7 3e 94 2d 5b bf d1 c7 f0 bd 57 ff d0 3d
       0.45243147 -0.8561642 -0.11756862 0.10204952
000190 cc 3e ee 3e 4c c0 86 bf 83 bf 0f 3f 46 15 06 3e
       0.46532285 -1.0527434 0.561516 0.13094053
0001a0 b0 75 c4 be 4b 4d 11 3f cb 63 3a be c6 4f cd 3d
       -0.38371038 0.56758565 -0.1820213 0.10024981
0001b0 11 ae 85 3d 7f 8a 49 be 26 00 ea bd a1 ee bf bf
       0.06527341 -0.19681738 -0.114258096 -1.4994699
0001c0 a7 60 2d bd a4 ff 57 3e f6 ab f5 3e 92 1e c1 be
       -0.042328503 0.21093613 0.47982758 -0.37718636
0001d0 f7 42 67 bd c9 e9 0a 3c 9a a4 57 3c c6 d8 02 c0
       -0.056460347 0.00847859 0.013161803 -2.0444808
0001e0 43 fa e9 be c6 93 80 be 69 fb 26 3d 11 ee 96 bc
       -0.45698747 -0.25112742 0.040767107 -0.018424066
0001f0 f7 37 2d be 4a 10 8c 3d c0 1b 2d 3d b7 14 d7 3c
       -0.1691588 0.068390444 0.042262793 0.026254995
000200 18 77 9f bd bf 17 90 be a5 6e 00 3f ec 6a ff 3d
       -0.07786387 -0.28143117 0.5016883 0.124715656
000210 8f 47 85 be 06 32 24 bf 31 5a df bd ee f6 52 bf
       -0.26031157 -0.6413883 -0.109058745 -0.82408035
000220 b0 a6 4f bf 65 f2 b0 3e 05 c8 a9 bd 97 b2 04 bc
       -0.8111372 0.34559932 -0.08290104 -0.00809922
000230 92 b2 30 3d 64 6b 0a 3e 8e 2b bf be f4 2f ae be
       0.043139048 0.13517529 -0.37337917 -0.3402096
000240 e4 30 1b be 6d 72 a3 3e d8 cd d5 bf d5 fe 94 bb
       -0.15155369 0.31923237 -1.6703444 -0.00454698
000250 7e 63 91 bd 4b db 3a 3f ee 50 44 bd 59 f6 0a bf
       -0.07099055 0.72990865 -0.047928743 -0.54282147
000260 61 ec c9 be 9c 11 68 be 31 1b a3 3e 55 88 ce 3c
       -0.39438155 -0.22662967 0.31856683 0.025211493
000270 ae 0a 28 be 35 c3 9b 3d 53 38 76 3e be f8 28 3f
       -0.16410324 0.07605592 0.24044923 0.6600455
000280 01 3c 67 bd 64 d4 42 bf 3c c8 aa 3d 4e 04 4a 3f
       -0.05645371 -0.7610533 0.08338973 0.7891282
000290 b9 e1 10 be 77 09 f2 be 9c e0 2e be ae 9d a8 3e
       -0.14148606 -0.47272846 -0.17077869 0.329328
0002a0 45 38 22 bf 35 eb ac 3e ba d4 65 be 7f 43 92 be
       -0.6336711 0.337732 -0.2244443 -0.2856712
0002b0 3f 57 81 bf 5e ac 82 3c e1 d5 c8 bd 35 13 1e bf
       -1.010475 0.015951332 -0.09806419 -0.6174806
0002c0 fd a6 82 be 2e 0f 09 3e eb 59 50 bd d3 41 20 bd
       -0.25518027 0.13384697 -0.050867002 -0.039125275
0002d0 d7 a6 88 be 97 06 9c bf 81 94 e0 bf 90 a0 62 bd
       -0.2668979 -1.2189511 -1.754532 -0.055328906
0002e0 e3 79 96 3c 49 bf 16 be 13 11 56 3e a4 9a 57 be
       0.018368667 -0.14721407 0.20904951 -0.21055084
0002f0 6e 06 eb be 2a 56 bd be ff 09 61 be b5 f3 ab bf
       -0.45903343 -0.369798 -0.2197647 -1.3433748
000300 eb 53 48 3e 8d 15 be 3c d9 a0 dc 3d 54 2b 8d be
       0.19563262 0.023203636 0.10772867 -0.2757212
000310 6e 56 ce 3e 49 d2 a3 be be 6c ac be 22 4a 07 3e
       0.40300316 -0.31996372 -0.33676714 0.13211873
000320 cf 91 90 be cd 77 20 bf 9f cf a6 be a2 2b e6 be
       -0.28236243 -0.626828 -0.32580277 -0.44955164
000330 83 ae 0c be ea 2a cd be cf b9 3d 3e 32 b1 43 bf
       -0.13738446 -0.40071803 0.18527912 -0.76442254
000340 89 3c 41 3d 15 58 72 3d 73 23 82 3f aa a3 ec be
       0.04717687 0.059166033 1.0167068 -0.46218616
000350 fe 43 30 3e 04 91 3b 3f 24 78 47 3e f9 f2 4a be
       0.17213437 0.7326815 0.19479424 -0.19819249
000360 f4 31 04 be 31 e6 98 3f d6 7b 42 3e c4 ee 86 3d
       -0.1290968 1.1945249 0.18992552 0.0658851
000370 cf d2 5e 3e 36 1e 8e be 19 f2 90 3e 3c 4d 13 3f
       0.21760105 -0.27757424 0.28309706 0.57539725
000380 51 c4 44 3e 0a 7f d9 3d 6d 5a 88 be 75 ff 84 be
       0.19215514 0.10619934 -0.2663149 -0.25976148
000390 88 8b 0d be 64 ef 10 bf 4d ab 8e bd a1 07 6d be
       -0.13822758 -0.5661528 -0.06966267 -0.23147441
0003a0 8c 7b ea 3f 83 ea 1b 3f f1 aa 81 be 5f dc 1b be
       1.8318954 0.6090471 -0.2532573 -0.15220784
0003b0 b8 57 a2 be c9 30 2a 3e 92 18 7a be 90 0c ff be
       -0.3170755 0.16620173 -0.24423435 -0.49814272
0003c0 d6 d7 08 3e 90 ef 2e 3f 79 1e 2c bf 94 68 45 3e
       0.13363585 0.68334293 -0.67234 0.19278175
0003d0 03 f9 b3 3d 5a 76 4a bf eb 56 23 be c7 27 fb be
       0.087877296 -0.7908684 -0.15951125 -0.49053785
0003e0 a3 ef 90 be 7a ad c0 3e 4e 71 a9 bd 7b b6 71 be
       -0.28307828 0.37632352 -0.08273564 -0.23604767
0003f0 6c 02 4e 3f 83 c0 d2 be 54 4f 8b be ff f3 11 bf
       0.80472445 -0.411625 -0.2720896 -0.57012933

layers.1.bias f4 [16]
000000 5d 42 d7 3e d2 73 ae be c0 3e 26 be 9b 51 0f be
       0.4204282 -0.3407274 -0.16234875 -0.13995974
000010 70 1e 1d be cf 95 d2 be ee 5b 2d bf 60 ce af bd
       -0.15343642 -0.4112992 -0.677184 -0.08584285
000020 f6 b1 73 3e 22 13 4c be 8a 6a 8b 3a 97 2e d1 3e
       0.23798355 -0.19929174 0.001063661 0.40855858
000030 7e b7 ab be c3 13 71 bf 6c 26 fa 3d f0 74 6c bf
       -0.3353843 -0.9417078 0.1221436 -0.9236593

final.linears.0.weight f4 [84, 42]
000000 04 09 77 bd ed 7d 70 be b8 c7 11 bf c2 a5 29 bf
       -0.060311332 -0.23485537 -0.5694537 -0.6626855
000010 15 14 17 bf cc 58 b3 bf 12 56 6b bf cb 58 ca be
       -0.5901502 -1.4011474 -0.9192821 -0.3952087
000020 a1 d5 09 bf 2d 2d 84 3e 42 45 99 be f2 40 3a be
       -0.53841597 0.25815716 -0.29935652 -0.18188837
000030 59 1f 2d 3d b9 e0 ce bd 8a d5 b2 3d 96 44 3c bd
       0.042266224 -0.10101456 0.087321356 -0.045963846
000040 3c 93 3b 3e d1 fd 80 bd a7 e5 11 be 96 ec 62 3e
       0.18317884 -0.06298412 -0.14247762 0.22160563
000050 42 60 21 3e 11 6a 50 3e 89 97 2d 3e 96 c8 24 3e
       0.15759376 0.20352961 0.16952337 0.16092142
000060 01 98 6f be ca b0 b7 3d 3b b5 57 3c 3b ab b3 3d
       -0.23397829 0.08969267 0.013165767 0.08772894
000070 d9 14 6e 3e 3e 75 5e be 3c 06 8c 3c 33 ab 22 3e
       0.2325014 -0.21724412 0.017092817 0.1588562
000080 ac 03 79 bd 0a e8 ba bd d4 6e 18 3e f3 c2 24 bd
       -0.060794517 -0.09126289 0.14886028 -0.04022498
000090 6b 1a 0f be 55 cb 9d 3e b0 d1 4b bd 05 d8 b7 3d
       -0.13974921 0.30819193 -0.04976052 0.08976749
0000a0 a2 dc ea bd 85 84 88 be ed 80 a5 bd 53 b0 1e bf
       -0.114678636 -0.26663604 -0.08081231 -0.619878
0000b0 6f 7e 78 bf ee f6 89 3f f1 bb 6f be 19 d0 e4 be
       -0.9706792 1.0778482 -0.23411538 -0.44690016
0000c0 d9 a7 0c 3f 20 17 70 3c 6c f9 a6 be 98 9d 48 bf
       0.54943615 0.014653951 -0.3261217 -0.7836547
0000d0 09 c4 58 bd 3c de c6 bd 2b 68 5e 3e a9 40 7e 3f
       -0.05292133 -0.097103566 0.21719424 0.99317414
0000e0 59 1b ba 3f 0f 66 0c 3e ce 12 28 bf 6c c8 09 be
       1.4539596 0.13710807 -0.65653694 -0.13455361
0000f0 ba 4e 28 bd 78 4f 58 be 76 af d7 bc f5 dd 84 3f
       -0.041090705 -0.21124065 -0.026328783 1.0380236
000100 d2 12 3f 3f 06 91 02 bd 0c 09 8c bb 3f af 42 3f
       0.7463809 -0.031876586 -0.0042735394 0.76048654
000110 fb d0 84 3e 8e 6d f7 bd 96 14 ac bd 10 0d 1b be
       0.2594069 -0.12081443 -0.08402364 -0.15141702
000120 f3 22 c7 3e 34 0e 82 3e c6 1c ec 3e 4a 91 4e bd
       0.38893852 0.2540146 0.46115702 -0.050431527
000130 a7 c1 0f bd 8f 84 bc 3c 1c 42 f0 be 93 b2 98 3e
       -0.03509679 0.023012428 -0.46925437 0.2982374
000140 5a 26 33 be 16 dc 5b 3f 93 9e 49 3e c8 23 c2 bd
       -0.17495099 0.858827 0.19689398 -0.09479481
000150 81 2a e2 be 42 d7 11 bc df 75 53 3e 8c 55 ce 3e
       -0.44173053 -0.008901419 0.20650433 0.40299642
000160 14 bd 87 3e 6e 39 c5 3e 5b 1a 7e bf 03 95 62 be
       0.26511443 0.38520378 -0.99258965 -0.22127156
000170 92 67 ab 3e 47 f4 31 3f 4a d3 00 bc 1f 77 78 3d
       0.33477455 0.6951336 -0.007862875 0.060660478
000180 51 cb d8 3c 84 38 c4 bd 92 db 8d bd c1 69 30 bc
       0.026464136 -0.09581092 -0.06926645 -0.010767401
000190 8c 6e 5b 3d fd 58 83 bd 66 eb 86 bd e5 59 9e 3d
       0.053572223 -0.064134575 -0.065878674 0.0773199
0001a0 6e 7e 25 3d de 93 8d 3c f2 5f b1 3d 7f 63 57 3d
       0.040403776 0.017282423 0.08660878 0.05258512
0001b0 d0 bf 3f 3d 5e 26 69 3c 90 0b a5 bd 51 b3 3d 3c
       0.046813786 0.014230339 -0.08058846 0.011578397
0001c0 13 f5 97 3d b8 87 88 bc 54 22 0c bc ba 49 da 3d
       0.07419791 -0.016666278 -0.008553106 0.106585935
0001d0 a6 10 98 bc fc 1e 2c bd 12 e4 ce bb 87 9d fb 3c
       -0.018562626 -0.042021737 -0.006313809 0.030714763
0001e0 33 0e 93 3c 7d e3 4d 3d 31 e9 11 3c 77 bf 0c bd
       0.017951107 0.050265778 0.008905695 -0.034362283
0001f0 73 83 07 bd cf 12 13 3d 4c cc 68 3e f8 fa b6 3d
       -0.033084344 0.03590661 0.22734183 0.08934587
000200 04 7c 14 3f cf 03 89 3e cb 9c d0 3e 9c ee 7e 3c
       0.5800173 0.26760718 0.40744624 0.015559819
000210 6f 39 81 3d 55 69 91 be 9d 7b fc be c3 90 03 3e
       0.06309783 -0.28400674 -0.4931306 0.12848191
000220 ed 59 5b be 11 12 96 3e b7 ba 04 bf 68 89 d3 be
       -0.21421023 0.2931066 -0.51847404 -0.4131577
000230 4e 7f e9 bd 33 e9 f9 bd de 82 dd 3e 46 17 6d 3e
       -0.114012346 -0.12202682 0.43263906 0.2315341
000240 7e be 3b bf 6e 24 89 3f e4 68 8e 3b ec 1d 16 3e
       -0.73337543 1.0714242 0.004346 0.14659852
000250 7b a1 1b 3d 4b 6f 9d 3e 62 96 42 3f 65 7c 16 3f
       0.037995797 0.30748972 0.76010716 0.5878356
000260 5d 9f b3 ba d8 34 2c 3d 40 fc 2b bf 38 fe 0e bf
       -0.001370411 0.042042583 -0.6718178 -0.5585666
000270 5f 39 b0 3d 07 9c 04 be f8 63 d5 3c 6e ea 09 be
       0.08604693 -0.12950145 0.026048645 -0.13468334
000280 e4 76 4f 3e 46 6b c9 3e 32 54 83 bd 73 1f 41 3d
       0.20260197 0.39339656 -0.06412543 0.047149133
000290 8a 44 14 3d c2 e6 55 3e d5 1a e5 3b e5 fd ae 3e
       0.036198176 0.20888808 0.006991724 0.3417808
0002a0 7f 19 ab 3c 8a 18 91 3d ac 3b 2f c0 37 d8 17 3f
       0.02088618 0.070847586 -2.738017 0.5931429
0002b0 57 3c 12 3f f0 46 5e 3d 88 87 0f bc 33 5e 0e 3e
       0.5712332 0.05426687 -0.0087603405 0.13903122
0002c0 00 11 ab 3e c2 07 0f bc c6 d9 bd bd 4e f0 c1 bd
       0.33411407 -0.008729877 -0.092700526 -0.094696626
0002d0 68 9b 02 bd b2 8c 18 3e b9 fb a1 3d a6 ed 70 bb
       -0.03188649 0.14897421 0.079093404 -0.0036762743
0002e0 89 01 12 be 1f 8b 78 3d 94 69 8c bc c3 10 85 3d
       -0.14258398 0.06067955 -0.017140187 0.06497338
0002f0 bc f7 0c be 6d e4 8d be d6 4d 80 be b7 f8 9c 3c
       -0.13766378 -0.27713338 -0.25059384 0.019161565
000300 c5 72 d7 bd 81 bd cb bd a8 df df 3d f5 33 ba bb
       -0.105199374 -0.099482544 0.10931331 -0.0056824633
000310 41 0e aa bc 5a be e3 3c 1b 3f ee 3d 41 8b a5 be
       -0.02075875 0.027800728 0.1163313 -0.32332805
000320 3b 86 eb be aa 5d 1b bc 98 9d 7e bc 85 72 ac 3c
       -0.46000847 -0.0094827805 -0.015540503 0.0210507
000330 dc 83 89 be 4a 3a bd 3e 7b da a4 bc e7 de 4b 3d
       -0.26858413 0.36958534 -0.02012371 0.049773123
000340 d9 31 b8 bd d0 e9 02 3f 89 06 2f bb dc 79 0f 3d
       -0.08993883 0.5113802 -0.0026706776 0.035028324
000350 37 7b 73 be df a5 68 3e 58 d9 39 be eb c2 a6 3d
       -0.23777471 0.22719525 -0.18149316 0.081426464
000360 37 77 3a bd d4 0c 2c 3e 79 c3 37 3d 73 a5 eb 3d
       -0.04552385 0.16801769 0.04486415 0.11506166
000370 1f 69 84 be fd 26 dd 3d 56 9c 41 bf 06 7e 2f be
       -0.2586145 0.10798452 -0.75629175 -0.17137918
000380 0a 31 d9 be 44 90 21 bd 00 a7 a5 be 1a ca a1 bc
       -0.42420226 -0.039444223 -0.32353973 -0.01974969
000390 b0 87 e1 bd cd 4a c2 3e f2 a1 3a 3f 69 9b a0 3d
       -0.110122085 0.37947693 0.7290336 0.07842142
0003a0 d3 12 87 bc ce 9d 05 bc 8c 70 af 3c d9 a1 62 bf
       -0.016488468 -0.008155299 0.021415971 -0.8852821
0003b0 46 25 2c 3e ab 16 98 3e 5c 1d d9 3d 01 d9 67 bd
       0.16811094 0.29704794 0.10601303 -0.056603435
0003c0 1c ba 55 3e fb 26 be 3c c3 ac 9d bc e7 1b 1b bd
       0.20871776 0.023211947 -0.019247418 -0.037868407
0003d0 27 63 4a bd 96 da c4 bc 00 a0 16 be 87 47 13 bd
       -0.049410965 -0.024030011 -0.14709473 -0.035956886
0003e0 81 e4 0d 3e 7e 08 1c be 3e ce 71 bd 4a b3 c5 3d
       0.13856699 -0.15237615 -0.05903458 0.09653337
0003f0 f7 b3 c4 bc 3f d6 14 3d 4b 10 5b c0 73 86 a5 3f
       -0.024011595 0.036337133 -3.4228694 1.2931656

final.linears.0.bias f4 [84]
000000 73 11 83 3e f4 15 06 be f4 78 92 3d 20 4f 9f 3e
       0.2559925 -0.13094312 0.07151976 0.31115055
000010 30 48 92 3e 3e ed 19 3d 99 a3 9b be 67 2e d2 3d
       0.285707 0.037579767 -0.30398253 0.10262757
000020 f4 50 10 3e 4b 10 4b 3e 1f c1 37 3e 1f 17 a3 bd
       0.14093381 0.19830434 0.17944764 -0.079633944
000030 ff d8 2d 3e c5 49 c4 3e 08 12 95 be 6b a8 48 3e
       0.16977309 0.38337532 -0.2911532 0.19595496
000040 82 fc 47 3d 50 9b 10 bd cd 1e 24 3e 3f d9 00 3e
       0.048824795 -0.035304368 0.16027375 0.12582873
000050 11 97 67 3e bc cf 16 3e 58 55 93 bb 75 ac 34 3f
       0.22616221 0.14727682 -0.0044962578 0.7057565
000060 f0 c7 1d 3e c5 1e 6d 3e 14 e5 83 bd 95 3d b0 3c
       0.15408301 0.23156269 -0.064401776 0.02151374
000070 dc d2 d4 3e 24 97 8c 3e 54 db 34 3e 79 52 95 3d
       0.41567123 0.2745906 0.17661792 0.07291121
000080 eb a4 e8 3d 5c 57 b5 3e 80 4b 9e 3d 99 59 88 3e
       0.113595806 0.35418212 0.07729244 0.26630858
000090 d9 4a 9e 3d 23 f7 52 3b 8b af 82 bd 17 82 93 3e
       0.0772912 0.0032190762 -0.063811384 0.28810188
0000a0 77 0b d5 be 59 d8 d0 3e ab 9e a7 3e 88 18 9b 3e
       -0.4161031 0.4079006 0.32738242 0.30292153
0000b0 4b 1e 20 3e 3e 44 af 3b fb 34 2f 3e 4e a1 08 3f
       0.15636556 0.0053487113 0.17110054 0.5337113
0000c0 67 77 54 3e 95 7e a1 3d a1 d8 66 bd 6e 0a bc 3e
       0.20748673 0.07885472 -0.056358937 0.36726707
0000d0 58 89 a7 bd ff 46 d2 bb 5f 1c ad 3e 16 ab 2a be
       -0.08180493 -0.006417155 0.33810708 -0.16666827
0000e0 7b 3b 95 bc 2d e9 5d 3d ab d0 9e 3e 96 90 b3 be
       -0.018216839 0.054177452 0.31018576 -0.35071248
0000f0 5a 6e b8 3e 37 4e 27 3e 63 bc 2d 3e 0d 26 37 3e
       0.36021692 0.1633843 0.16966395 0.17885609
000100 01 47 8a 3e 68 9d 6b 3e cf d8 3d 3e 7e 1a 33 3d
       0.27007297 0.23009264 0.18539737 0.043726437
000110 2e df 74 bd 73 e4 fe 3e f8 1a 04 3e 84 c5 0d 3e
       -0.059783153 0.49783668 0.12900913 0.13844877
000120 0c 0b 0a 3d 92 b6 19 3e e2 2f d2 bd c6 89 5f 3e
       0.03370194 0.15011051 -0.10263039 0.218299
000130 ce f0 9e bd 3a af 12 3f 06 5a 1e be 5c d2 67 3d
       -0.077607736 0.57298625 -0.15464029 0.0565971
000140 20 2b 2e 3e f4 ee 57 3e 28 f2 b5 3e c6 71 28 bc
       0.17008638 0.21087247 0.35536313 -0.010281032

final.linears.1.weight f4 [84, 84]
000000 94 59 58 be a8 63 d2 3d 3a 13 c5 be 9d 42 17 bd
       -0.21127921 0.10272914 -0.3849123 -0.03692876
000010 2e c4 b1 3d 3a 5d 5a be f9 50 d2 bd cd 1a 91 be
       0.086799964 -0.21324626 -0.102693506 -0.2834076
000020 5a 71 04 be 35 7f 68 bd 62 e7 30 3d 08 32 ca bd
       -0.12933865 -0.05676194 0.043189414 -0.09872824
000030 e8 01 56 bc e6 be 88 bd 54 80 f7 bb 61 fe dc bd
       -0.013061978 -0.06677036 -0.0075531397 -0.107907064
000040 71 24 3a bd 54 28 80 3e af be 29 3b 62 65 9c bd
       -0.04544491 0.25030768 0.002590101 -0.07636525
000050 d8 07 cf bd 45 5e fd bd 5a 85 09 bc ae a7 f3 bd
       -0.10108918 -0.12371496 -0.00839361 -0.11897217
000060 ff 2c 8c bd e8 f1 04 3c 72 30 f6 3c 28 ba 6f bd
       -0.0684452 0.008114316 0.030052397 -0.05852714
000070 29 9b 3b be e1 05 9c bd a5 62 3b be e1 92 0a 3e
       -0.18320908 -0.07618309 -0.18299349 0.13532592
000080 54 4e c2 bc 52 3e ed 3d 19 0a 1d be 84 80 f0 bd
       -0.02371899 0.11584152 -0.15335883 -0.117432624
000090 ea 5a d7 3c c4 1f 12 be d6 b9 3d 3b a1 29 0e be
       0.026288468 -0.1426993 0.0028949878 -0.13883068
0000a0 18 7b 03 3e dd f8 d4 bd 6f 13 ea 3c f4 00 54 bc
       0.12839925 -0.103990294 0.02857372 -0.01293968
0000b0 f1 2a 77 3c b2 9a 5d 3c 78 1b 08 bc 16 05 21 bd
       0.015085922 0.013525652 -0.00830733 -0.03931149
0000c0 4f df 5f bd 3f cb f7 bd 6e 3a 42 be f8 71 c3 ba
       -0.054656323 -0.12099313 -0.18967602 -0.0014911285
0000d0 f1 6a 00 bd b1 4a 8c 3d 53 c1 26 bd 4d 86 11 be
       -0.031351987 0.06850184 -0.040711712 -0.14211388
0000e0 90 8d 1b 3d 1e bd 2a bb 33 94 d7 bd 5d 51 8d bd
       0.0379768 -0.0026052664 -0.10526314 -0.069002844
0000f0 d0 90 9b bd e9 d8 31 bd 5c 37 e9 3d 4f 24 4f 3e
       -0.0759598 -0.043419752 0.11387512 0.20228694
000100 8f e2 00 be 81 d4 22 bd db 85 13 be 32 2a c5 bd
       -0.12586425 -0.03975344 -0.1440653 -0.09627189
000110 c9 be 59 bd 79 5f c4 bc 81 49 be 3e a3 d4 51 3a
       -0.053160463 -0.023971306 0.37165454 0.00080044026
000120 d3 26 8a 3c b7 96 28 be d5 b6 3b bd 39 c0 7a 3c
       0.016864216 -0.16463743 -0.04582866 0.0153046185
000130 77 cd bf 3b 8c bf 7b bd 07 79 31 bd 96 a3 8f bd
       0.0058533507 -0.06146197 -0.04332831 -0.070136234
000140 4b 61 ea bd 9f 57 31 be 68 bb 09 be a5 38 e6 bc
       -0.114443384 -0.17318581 -0.13450396 -0.028103182
000150 cb 75 47 be cf 0a a1 3d 8f 32 a7 bd 7a a2 9c bd
       -0.19478528 0.0786339 -0.0816394 -0.076481774
000160 11 da b1 3d 3f ff 18 be c0 91 1b 3d cd 00 2f be
       0.08684171 -0.14941119 0.037980795 -0.17090149
000170 7c a4 4d be 9b 57 13 be 94 69 4a be 1f f8 00 be
       -0.20082277 -0.14388888 -0.19766837 -0.1259465
000180 30 fb 1c be cb cf 2a 3c b2 13 ed bc 89 c1 ef be
       -0.15330195 0.010425518 -0.028940056 -0.46827343
000190 8c 5b 91 bd 0c dc 42 be 63 27 9a 3c 2a e5 1b be
       -0.07097539 -0.19029254 0.01881761 -0.15224138
0001a0 63 ee 23 be c5 85 b3 bd 86 21 87 3c f4 de 82 be
       -0.16008906 -0.08765749 0.016495477 -0.25560725
0001b0 92 df f4 bd f8 76 9c bd 3a e3 d5 bc ff 06 5b bd
       -0.11956705 -0.07639879 -0.026109327 -0.05347347
0001c0 3d cc a7 bd e6 40 9c be 80 a6 c1 be 1e cc 43 be
       -0.08193252 -0.30518264 -0.37822342 -0.19120833
0001d0 05 1f 63 bc fe 7f 8e be 03 14 c3 be f8 f6 84 be
       -0.013862376 -0.27832025 -0.38101205 -0.25969672
0001e0 b9 36 d9 bb 02 8a 0a be 5c 07 c6 bd af a3 1b be
       -0.006628838 -0.13529208 -0.096693724 -0.15199159
0001f0 cb b0 3a 3e e4 42 77 bf cd 75 f9 3d 7a 5a 0e be
       0.18231504 -0.9658644 0.12180672 -0.13901702
000200 cc a6 55 be 64 7a 61 bd 58 f6 01 bd cf 50 07 be
       -0.20864409 -0.05504836 -0.031729072 -0.1321442
000210 bb fa fc bd e6 d1 93 bd 1d 2b 31 be 5f 3d 94 3d
       -0.123525105 -0.07217769 -0.17301603 0.07238268
000220 ae ea 7b bd 34 64 b0 bd 36 7d 4e be a4 51 83 bd
       -0.061503105 -0.08612862 -0.20164952 -0.06412056
000230 b9 1a 65 3d 94 9d db bc 4b e4 08 be 9f c1 07 bc
       0.055933688 -0.026808538 -0.13368337 -0.008285909
000240 59 14 3a be 85 8d 06 bd 7f b3 30 bd 28 e4 70 bd
       -0.18171825 -0.032849807 -0.04313993 -0.058811337
000250 69 08 49 be ca e3 9b bd e2 aa a0 be aa bd 78 be
       -0.19632114 -0.07611807 -0.31380373 -0.24291101
000260 85 21 4b be 52 58 c4 bd 51 dd ed bd bb 1b c4 bb
       -0.19837005 -0.09587158 -0.116144784 -0.005984751
000270 d4 76 81 bd ca ee 4a be 55 ef 4b be c7 0e 16 3c
       -0.06321493 -0.19817653 -0.19915517 0.009158797
000280 14 ce 92 bd 70 c6 42 be 35 e3 e4 3d d5 e5 9a be
       -0.071682125 -0.1902101 0.11176149 -0.30253473
000290 cd 50 50 be 1a 31 99 bd bb b4 60 be 8f 57 83 3e
       -0.20343323 -0.074800685 -0.21943943 0.2565274
0002a0 05 73 33 be 82 d0 b9 3d f5 b9 0a bc f5 8f e8 be
       -0.17524345 0.09072973 -0.008467187 -0.4542233
0002b0 83 ba 92 3c f3 d7 b7 bb 03 37 63 3e 71 84 ec bb
       0.017911201 -0.00561046 0.22188954 -0.0072179367
0002c0 80 af 7f be 6f 5d ed bd 0a 26 2b be 7b 25 39 bd
       -0.24969292 -0.11590087 -0.1671373 -0.04520176
0002d0 9c d2 14 bf 99 e1 b0 be 4b 80 a1 be bf b0 0d be
       -0.58133864 -0.34547117 -0.31543192 -0.13836955
0002e0 9d 36 95 bd 24 fe 06 bc ed 41 d7 be a5 66 22 be
       -0.07285807 -0.008239303 -0.42042485 -0.15859468
0002f0 fd 92 14 bf d5 22 d6 bd 06 36 ba be 66 e1 bc be
       -0.58036786 -0.104558624 -0.36369342 -0.36890715
000300 1f 49 12 bf f4 93 00 bf 6c 27 40 bd 3d 69 ca bd
       -0.57142824 -0.5022576 -0.046912596 -0.09883354
000310 b8 46 8c be b0 cb f3 bd f4 97 96 be c8 a5 d8 bd
       -0.27397704 -0.11904085 -0.29412806 -0.10578495
000320 36 9a ae be a2 34 f2 be f3 27 7a be ca 47 35 be
       -0.3410203 -0.4730578 -0.24429302 -0.17703167
000330 7b 28 c6 be 78 a2 a3 bd e7 32 ae 3e 69 2e e0 be
       -0.3870276 -0.07989973 0.3402321 -0.43785408
000340 08 08 4a 3e 6f ec 28 bf 0a 42 bf 3d d5 78 02 c0
       0.19729626 -0.6598577 0.09338768 -2.038625
000350 c6 e3 cd bd 19 12 ae bd 38 63 d4 be ab 1c 0b bf
       -0.1005321 -0.084995456 -0.41481948 -0.5434062
000360 b0 8e eb 3b c7 9d 92 be 4f 58 06 3e 4f 72 7c bd
       0.0071886405 -0.28636 0.13119625 -0.06163245
000370 7f cb 38 be 6e 91 b0 be 17 d0 17 bf 86 9d 08 be
       -0.18046378 -0.34485954 -0.59301895 -0.1334134
000380 99 e5 c4 bd ac 2b 64 bd f7 4a d3 bd 4f 00 d0 3d
       -0.09614105 -0.05570571 -0.10317033 0.10156309
000390 31 27 d6 be 99 86 d5 be d9 34 5f be 50 7c e3 bc
       -0.41826776 -0.41704252 -0.21797504 -0.027769238
0003a0 a3 f8 08 bd 03 ac ba be bb b0 cd be 41 d7 da bd
       -0.033440243 -0.3645936 -0.40173897 -0.10685588
0003b0 0d 87 7f bd 0b e4 23 bf a2 5f 1d bd ba 11 cc be
       -0.062384654 -0.6401984 -0.03842128 -0.39857274
0003c0 b5 50 d1 be 6d 7b 95 be 24 e3 20 be fe 5b e4 be
       -0.40881887 -0.2919573 -0.15711647 -0.44601434
0003d0 5c e5 0e bd e8 b3 aa be 4e f3 d8 bc 20 15 9a be
       -0.034886703 -0.33340383 -0.026483204 -0.30094242
0003e0 31 cb 15 be de dc 8d bd 8b e1 12 bf 55 1d 85 3e
       -0.14628293 -0.06926893 -0.573754 0.2599894
0003f0 4e 96 d1 3d 1b 6d 2e 3d a2 a3 38 3e 0e d5 d0 bd
       0.102337465 0.04258452 0.18031171 -0.10196887

final.linears.1.bias f4 [84]
000000 05 34 03 3d b9 e2 b3 be 66 dc e2 be da 4e b7 bd
       0.03203203 -0.35133913 -0.44308776 -0.089505866
000010 b8 39 93 be de 3a da bd 0c 2c 61 bd 74 b1 d6 3e
       -0.28754973 -0.10655759 -0.054973647 0.4193226
000020 a2 13 86 bd d2 d5 81 bd 03 39 87 bc 08 f7 be 3d
       -0.065467134 -0.06339611 -0.016506677 0.09324461
000030 00 de f6 bd c3 b0 c6 3d 46 24 14 be 84 f9 97 3e
       -0.12054062 0.09701683 -0.14466962 0.29682553
000040 ee 88 eb bd 66 43 00 bf ff 15 fa bd 0c 72 3a be
       -0.11500727 -0.5010284 -0.12211227 -0.18207568
000050 3d ee 7c be ce 8b 07 bf 75 2d 2e bc 00 43 64 be
       -0.24700256 -0.529477 -0.010630955 -0.22291183
000060 4a a1 86 be e2 b4 09 bd 86 9d dd bd 58 33 95 be
       -0.2629493 -0.03361977 -0.10821061 -0.29140735
000070 e7 29 06 bf 2b 53 c1 be 6c 49 eb be e7 cb fc bb
       -0.5240769 -0.37758765 -0.45954454 -0.0077147367
000080 a4 4f fd 3a 02 c1 d9 3d 4b 37 6f be 28 09 a7 bd
       0.0019326103 0.106325164 -0.23360936 -0.08156043
000090 bc 30 53 bd 30 56 dd be 1b 4b 8c be 71 a7 75 bc
       -0.05156015 -0.43229818 -0.2740105 -0.014993534
0000a0 66 0b f6 bd 49 d6 31 bf 4b d8 c3 be d9 4c 41 be
       -0.12013893 -0.694676 -0.38250956 -0.18876971
0000b0 b5 ca 19 be 77 6a db 3c 1c c1 5e be f9 cd 5e bd
       -0.15018733 0.026784165 -0.21753353 -0.05439565
0000c0 62 61 8a 3c 6d d4 21 bf cc 01 ff be 21 a5 4f be
       0.016892139 -0.6321476 -0.49806058 -0.20277835
0000d0 ed 80 7c bd bb 6e ce be 35 3f a6 bd e2 e8 19 be
       -0.06164639 -0.40318856 -0.081175245 -0.15030244
0000e0 f5 30 37 3e c8 b9 9b be 8c e0 e2 be 7d 63 3e be
       0.1788977 -0.30415177 -0.4431194 -0.1859264
0000f0 7f c8 7e be 9f da 5a bd f1 f4 79 be 4e 68 c1 be
       -0.2488117 -0.05343115 -0.24409844 -0.3777489
000100 71 6a bb 3e e7 d6 dc bd 7a d6 99 be d9 b6 f1 be
       0.36604646 -0.10783177 -0.30046445 -0.47209814
000110 b3 68 04 bf f9 f7 96 be 04 f2 3d be b0 48 10 bd
       -0.5172226 -0.29486063 -0.18549353 -0.03522557
000120 73 c9 4d be 26 76 4e be c3 30 89 be 7f 5a ea be
       -0.20096378 -0.20162258 -0.26795015 -0.45772168
000130 67 c3 d2 3d ea a0 94 bd 94 8d b8 be 4d 9f 24 be
       0.10291176 -0.072572544 -0.36045516 -0.16076393
000140 af 77 81 ba e0 9c ae bd 92 5f b5 bd 6f cf 27 3f
       -0.0009877587 -0.08526015 -0.08856119 0.65550894

final.linears.2.weight f4 [10, 84]
000000 26 87 78 3d c3 93 10 3c f4 3c 8b be 21 88 b8 3d
       0.060675763 0.008824292 -0.2719494 0.090103395
000010 be 38 ff ba 13 cc 1e be 46 8b 91 be 9c 95 84 bc
       -0.0019471867 -0.15507536 -0.2842657 -0.01618462
000020 e8 2c ff 3e dd 8c 01 3c c6 27 9e be 15 92 29 3b
       0.49838948 0.00790712 -0.3088972 0.0025874425
000030 6b 44 f8 3e 83 71 80 bd 14 b9 62 3c f7 6d 68 bc
       0.484897 -0.06271651 0.013838071 -0.014186374
000040 4d da 09 3e d5 34 15 bf d8 7f 26 3e 15 6c e3 3d
       0.13462181 -0.5828374 0.16259706 0.111045994
000050 3b 2b 7e bd b1 66 98 3b d9 15 63 3d 03 21 2b 3d
       -0.062052947 0.0046509136 0.055440757 0.04177953
000060 9d a4 90 3e 98 09 f9 b9 31 c5 d7 3c 96 6c 4c 3f
       0.2825059 -0.0004750013 0.026339145 0.7985319
000070 fd 69 7a b8 58 13 d9 ba 8f 10 d5 be a3 11 04 3a
       -5.9703354e-05 -0.0016561551 -0.41614196 0.00050380285
000080 0a d8 29 be 4b da bc 3c fc a2 69 3e 3c be 94 3e
       -0.16586319 0.023053309 0.2281608 0.29051387
000090 53 c8 08 be ce 5e 4e 3e 2f b7 2d 3e 9f 0a 6f be
       -0.13357668 0.20153353 0.1696441 -0.23343895
0000a0 78 50 cb bd 4f bb e3 3d cf c1 33 bf c3 ac 95 bc
       -0.099274576 0.11119711 -0.70217603 -0.018270856
0000b0 ba 6a cf 3e 79 d7 60 3d 0e 70 a4 bb 41 a0 8a bd
       0.40511113 0.05489299 -0.005018241 -0.06768847
0000c0 5f 4e 9a 3c 56 ac 4b 3d ec 96 03 3c ad 0b 6c 3c
       0.018836198 0.0497249 0.008031588 0.014407081
0000d0 9b 1e 1f bc 1d 37 e4 3e 5a 7d ef 3d c7 fd 79 3c
       -0.009711887 0.44573298 0.11693831 0.015258259
0000e0 64 8f 22 b9 4e 1e c1 be f1 73 51 3f 34 30 d5 3d
       -0.00015502941 -0.37718433 0.8181754 0.10409585
0000f0 dd 52 d4 3a 95 b4 d7 bd ed 22 2c 3d eb 12 6e bc
       0.0016199012 -0.1053249 0.042025495 -0.014530878
000100 b1 c0 50 bb 7f 5d 63 be 3e 98 a7 3b ed 65 08 3d
       -0.0031853134 -0.22203635 0.005114584 0.03330033
000110 03 4c 8a bb 77 15 72 bd 51 50 55 bf 5e a6 34 bc
       -0.004220487 -0.0591025 -0.8332568 -0.011025993
000120 a1 f5 03 be 7d 1f 31 be 4e b2 68 3a c9 bd 36 bf
       -0.12886669 -0.17297168 0.0008876667 -0.7138334
000130 12 5a 8f bb 76 13 48 3c 32 09 2d 3f 8e 3d 2c bd
       -0.004374751 0.012211671 0.67592156 -0.04205089
000140 c5 d7 2f bc 7d de a3 be 1d 32 d4 3d a8 35 a6 3b
       -0.010732596 -0.32005683 0.10361121 0.0050723143
000150 61 4b 3e bd 3b 74 b5 bc c0 13 3f 3f 64 6a 1c bb
       -0.046458606 -0.02215015 0.7463951 -0.0023867125
000160 c3 e4 8f 3b ab 71 21 be c0 fb 4e be 64 17 b2 bb
       0.004391284 -0.15766017 -0.20213223 -0.0054349173
000170 59 92 d6 3e fe a8 6a ba 48 cc 92 bd 7e 85 3f 3c
       0.4190853 -0.00089515734 -0.0716787 0.011689542
000180 0d 45 5a 3e eb 0c 31 bd 36 ea c0 bd d2 78 2e 3c
       0.21315403 -0.04322521 -0.09419672 0.010648923
000190 9e 85 50 be 49 ee 94 be 56 d8 05 3d 7b fc e2 3c
       -0.20363471 -0.29088047 0.032677017 0.027708283
0001a0 bc 85 03 3e c7 96 5f bc 9d f7 c7 bc b7 17 c8 3e
       0.12843984 -0.013646788 -0.024410063 0.39080593
0001b0 dc 39 24 bf ea 83 05 3d 30 2b 4c bb e1 c6 2a be
       -0.64150786 0.032596506 -0.0031153671 -0.16677429
0001c0 af 80 61 3c 43 37 cc ba a2 b2 62 3f 48 e4 df 3c
       0.013763591 -0.0015580434 0.8855382 0.027330533
0001d0 64 39 74 3e 51 e2 d3 3c b7 ff 83 be 10 3d a4 3d
       0.23850018 0.025864752 -0.25781032 0.08019459
0001e0 e4 01 1f 3e 26 f7 49 3e be c0 0e be ea 22 9c 3d
       0.15528065 0.19723186 -0.13940713 0.07623847
0001f0 f7 d0 1b be 21 94 4c 3d 2d f7 47 bf 13 97 0b 3d
       -0.15216433 0.049945954 -0.78111535 0.034079622
000200 f6 66 ce 3d e1 d3 b6 3e 81 6b 14 3d c9 da 51 bd
       0.10078232 0.35708526 0.036235336 -0.05123404
000210 cf 2d 4e 3c 74 b7 54 3d b0 6c 1f 3c fb 0f ba bd
       0.012584164 0.051932767 0.009730503 -0.09085079
000220 6d 51 94 bc 95 bd 3e 3f 06 c7 1e be 45 6a fc be
       -0.018105233 0.7450803 -0.15505609 -0.49299827
000230 6e d1 7b bc bd 5a 64 3f fe 88 23 bf e5 f2 cb be
       -0.015369756 0.89200956 -0.6388091 -0.3983375
000240 0c d5 90 38 2f c8 7a 3c c2 21 78 3d 83 c9 49 bc
       6.906138e-05 0.015306517 0.06057907 -0.012316111
000250 97 ea 2d bc da 7e 20 bd 5c 20 da bc c3 59 30 bd
       -0.010615013 -0.039183475 -0.026626758 -0.043054353
000260 cf 66 7c 3c 27 51 f0 3d 1d 19 0e bf 84 6f 08 3d
       0.015405371 0.117342286 -0.5550707 0.033309475
000270 fa 9c 42 bd 9f 90 91 3e fe ff e2 3c 51 ac 97 be
       -0.047512986 0.2843065 0.027709957 -0.29623654
000280 7c 64 6e bd 53 56 1e 3d 49 c0 ae be a9 38 9f be
       -0.058201298 0.038656544 -0.34131077 -0.31097916
000290 2b 0d 72 3d 18 81 73 3e 95 10 46 3d 4a 2b 8d bc
       0.05909459 0.23779714 0.048355658 -0.017232556
0002a0 ac 05 bd bc 48 03 d5 bc 71 4b ed 3d bb 07 82 3b
       -0.023073994 -0.026002541 0.11586655 0.0039682067
0002b0 ab c5 09 3e 67 2f dc bd cb bf 16 3c 9a 97 f2 3e
       0.1345431 -0.10751229 0.009201 0.47381288
0002c0 49 ef a6 39 a7 53 9c 3d aa 46 81 3c 0a 98 18 3e
       0.0003184027 0.07633143 0.015780766 0.14901748
0002d0 b8 d8 0f bf 43 56 cf bd 14 de c6 bc 04 26 ca bf
       -0.5619006 -0.10123875 -0.024275817 -1.5792851
0002e0 16 8d 42 3c c7 15 80 3e 53 4a 06 bd 25 67 b9 bb
       0.011874458 0.25016615 -0.032785725 -0.0056580477
0002f0 2c 05 00 3c 6b 33 b2 bd dc 17 5d be 23 ab 32 3d
       0.007813733 -0.087012134 -0.21591133 0.04362024
000300 b3 4c 09 be 9c 92 0d 3d 18 2d 39 bc 53 5a 71 be
       -0.13408165 0.034563646 -0.011302255 -0.23569612
000310 31 55 00 bf 17 cd 9d bd cc af c0 bd 50 0a 25 bd
       -0.5012999 -0.077051334 -0.094085306 -0.040293038
000320 fd 9e bf bc 3e 77 3b 3e aa cf 10 bd 14 be 15 bc
       -0.023391241 0.18307206 -0.035354294 -0.009139556
000330 81 50 bf bc 7c 43 18 3f 02 0d 59 3d 44 ef 07 bf
       -0.023353817 0.59477973 0.05299092 -0.53099465
000340 b5 15 5e 3b 30 f9 49 3f d1 7b d0 bd 44 9b 16 3d
       0.003388745 0.78895855 -0.10179866 0.036769167
000350 b2 e8 5a bd 01 20 20 bc 51 2c 0d 3d e0 7e a3 bc
       -0.05344457 -0.009773255 0.03446609 -0.01995796
000360 3a ab 93 3f 35 ee 68 3f 68 87 11 40 e2 bb d3 bd
       1.1536629 0.90988475 2.2738895 -0.1033857
000370 e5 85 85 be c3 df f4 bd a8 4f ac bf ee ca 4b 3b
       -0.26078716 -0.11956742 -1.3461809 0.0031096297
000380 58 f8 d9 3e b8 eb 7b be f8 e3 67 3e c1 d3 e0 bd
       0.42572284 -0.24601638 0.22645557 -0.10977889
000390 ad fe ae 3d 99 d7 30 bb 69 c3 00 3e 07 ad eb 3e
       0.08544669 -0.0026983975 0.12574543 0.46030447
0003a0 2b 24 d3 be bd 91 1f 3d 7b 4a df bc 63 21 2e bd
       -0.4123853 0.038957346 -0.027257195 -0.04251231
0003b0 e8 93 22 3e 97 87 38 3d 8e e8 ec bd 43 11 1d bf
       0.15876734 0.045051184 -0.11567794 -0.61354464
0003c0 68 1b 2b 3d 84 8e c6 bd f0 cf e9 3e 82 7f e8 3c
       0.041774184 -0.096951514 0.45666456 0.028381113
0003d0 c8 1c 29 bc 7e e6 ca 3d 2c af 08 be a7 23 1f 3c
       -0.010321803 0.09907244 -0.13348073 0.00971309
0003e0 f7 6f d0 be b6 dd 01 3c 36 f0 cc 3c 2f a8 23 be
       -0.40710422 0.007926395 0.025016885 -0.15982126
0003f0 25 ae 14 bd e7 45 04 3e c1 29 a5 3e a5 d0 57 3a
       -0.03629889 0.1291729 0.32258418 0.00082326896

final.linears.2.bias f4 [10]
000000 ca 4d b7 3d bf c2 03 be 4d fd 04 3d c4 30 73 be
       0.08950384 -0.12867258 0.03246813 -0.23749071
000010 fb 50 07 be 39 65 7c 3d 10 a7 00 3d 4b 24 eb 3d
       -0.13214485 0.06161997 0.031409323 0.11481532
000020 d4 9f 8d bd d2 97 1d bd
       -0.069152504 -0.038474865

layers.0.attn.0.gnn_q.weight f4 [10, 16]
000000 4d 98 5d bb 1c 27 b6 3a a8 53 bb b3 6d 3a db bb
       -0.0033812702 0.0013897154 -8.723083e-08 -0.0066903145
000010 2d fa 6f ba 1f ce b3 3a c2 4b 74 bc e2 20 07 38
       -0.00091544056 0.0013718045 -0.01491064 3.2217133e-05
000020 37 11 c4 3a 11 d9 6b 39 2c 6e b6 bb 22 ce 82 35
       0.0014958744 0.0002249221 -0.0055673327 9.745747e-07
000030 e6 53 16 3c ee 41 14 bb ea fe f0 3b 00 3a 8e b5
       0.009175276 -0.0022622305 0.007354607 -1.0596705e-06
000040 42 bf f2 bb 32 7f 04 ba f8 30 8c b4 68 67 89 bb
       -0.0074080536 -0.0005054354 -2.6112662e-07 -0.004193235
000050 23 1a 4f bc ea cd ed b9 6a c1 b3 bb 33 d3 f5 36
       -0.012640509 -0.0004535758 -0.0054857032 7.326156e-06
000060 e4 7c be b9 b3 9c 90 39 d4 90 5d bb ba 96 5f b4
       -0.00036332675 0.0002758257 -0.0033808248 -2.0823327e-07
000070 33 48 37 bc 40 21 f9 3b 95 d7 43 bc 42 bf dc b5
       -0.011186647 0.0076028407 -0.011953254 -1.6446941e-06
000080 c7 1a f0 bc 9c f7 21 3b 60 55 52 35 10 0e 7e 38
       -0.029309643 0.0024714237 7.8355333e-07 6.0571416e-05
000090 e7 2b f6 bc d3 d5 e6 3a ac 72 73 3c dd 95 17 37
       -0.030050231 0.0017611332 0.014858883 9.035194e-06
0000a0 54 8d 42 3b e6 13 34 b9 73 ff a2 bc b4 70 f5 35
       0.002968629 -0.0001717355 -0.019897198 1.8286723e-06
0000b0 c4 c7 d2 be 6c 9c df 3c b0 88 a7 be 33 49 ad 36
       -0.41168034 0.027296267 -0.32721472 5.1643233e-06
0000c0 7e 4e 69 bb 6b a5 f6 3a 7b b6 52 35 4a 25 48 3c
       -0.0035599764 0.0018817609 7.849664e-07 0.012215922
0000d0 55 f3 0e 3c 77 bc 8f 3a 8a 78 b6 3c ca 4b 60 b8
       0.008725007 0.0010966201 0.022274274 -5.3476346e-05
0000e0 3c 0a 07 3b 41 d0 06 ba 4c cc 64 bc 18 fe bc 35
       0.0020605465 -0.00051427266 -0.013964724 1.4081043e-06
0000f0 f7 43 e7 3d 88 c6 d6 38 27 3c d0 3d aa 09 84 36
       0.1129226 0.000102412945 0.10167723 3.9350316e-06
000100 f4 b8 61 3d 94 04 06 3b f5 89 ed b4 cf 9a 5f bc
       0.055108026 0.0020449506 -4.4245067e-07 -0.013647749
000110 28 c3 8f 3d 3f fd d0 3a 43 79 82 bc a5 50 36 38
       0.07019645 0.0015944614 -0.015926963 4.3467287e-05
000120 f1 34 f5 ba b2 52 fd 39 2f 8d 84 3c 77 40 90 b5
       -0.0018707794 0.00048317533 0.016180603 -1.0747598e-06
000130 37 4b 5d 3d 39 cc 4c bd 8a 95 d4 3d 1d e3 21 b6
       0.05402681 -0.04999945 0.10380085 -2.4123067e-06
000140 92 cf 7b bc 92 05 31 ba cf dd 31 35 16 ae 93 3c
       -0.015369313 -0.0006752844 6.626041e-07 0.018027347
000150 22 de 6b bc 87 84 59 ba 88 d7 b5 3c 0c 7d 3b b8
       -0.014396222 -0.0008297641 0.0221975 -4.4700733e-05
000160 78 0f cb 38 fb ef 25 ba e8 e5 48 bb a4 bf 2a 34
       9.6826756e-05 -0.00063300104 -0.0030654613 1.5902202e-07
000170 51 45 8a bc 47 78 60 3c 94 e3 b7 bc fe 6d 44 36
       -0.016878756 0.013700551 -0.022447385 2.92703e-06
000180 71 c7 80 bc 6a 52 b0 39 36 ce ad 34 c7 60 1e 3c
       -0.015720101 0.0003363074 3.23738e-07 0.009666628
000190 37 a6 9e bc 41 62 58 39 1e 98 64 3c 07 10 a9 b7
       -0.019366367 0.00020635968 0.013952283 -2.0153833e-05
0001a0 83 a8 1c 3a fc 08 f3 b9 2c 80 02 bc 2a 8d d5 34
       0.0005976038 -0.00046355266 -0.007965129 3.9777052e-07
0001b0 09 da 60 3b 6d cc 7d 3c 9d 75 80 bc 0f 7b 24 36
       0.0034309647 0.015490633 -0.015681082 2.4509534e-06
0001c0 51 88 bc 3c ff 25 b4 ba 9d 87 83 b4 f7 ec 3b 3b
       0.02301422 -0.0013744234 -2.4499323e-07 0.0028675178
0001d0 3c 06 9b 3c 65 f3 c0 ba 3d fa bb bb 28 0a 89 b7
       0.018923871 -0.0014720975 -0.005736618 -1.6336402e-05
0001e0 e4 73 41 ba 6b 3d 45 39 e4 bd a4 3b 45 59 d6 b4
       -0.0007379635 0.00018810264 0.0050275195 -3.9925558e-07
0001f0 26 b8 0c 3e 38 b9 6a bc 29 5c e8 3d 86 2e 47 b5
       0.13742122 -0.014326386 0.11345703 -7.420098e-07
000200 e9 e1 c0 bb 80 e9 a3 b7 58 4d be 34 f7 c4 e6 3b
       -0.0058863056 -1.9539846e-05 3.5446533e-07 0.007042523
000210 bf 7c 65 3b 8a df 5c b8 4d 67 44 3c e4 37 ae b7
       0.0035016981 -5.2660274e-05 0.011987519 -2.0768442e-05
000220 00 23 44 b6 96 72 81 b9 ec d8 08 3b 98 7c 46 b2
       -2.9226649e-06 -0.0002469017 0.0020881249 -1.1553446e-08
000230 a2 aa e7 bd 6d d0 df 3a b4 15 bb bd 98 23 15 36
       -0.113118425 0.0017075666 -0.09134999 2.2223448e-06
000240 5a 66 d6 ba 38 c2 ff 39 d8 b2 ee 30 d6 69 30 bc
       -0.0016357407 0.00048782094 1.736761e-09 -0.010767421
000250 db 00 c6 bb bb dd 17 3a ef d1 3a bb 0c 79 0b 38
       -0.0060425824 0.0005793233 -0.0028506478 3.3252916e-05
000260 46 b6 84 39 62 7d 2e 39 1d ae e6 ba b3 e2 94 34
       0.00025312806 0.00016640642 -0.0017599497 2.7732094e-07
000270 7e bd 65 3a 81 82 fb 3b 1e 7f 48 b9 ae 4d 50 35
       0.0008763893 0.0076754694 -0.00019120841 7.7599077e-07

layers.0.attn.0.gnn_q.bias f4 [16]
000000 ea 7c 1f 3c 5e a7 3e ba 73 49 5e b4 7a 54 b7 bb
       0.009734372 -0.00072728645 -2.0702082e-07 -0.005594787
000010 b8 20 9f 3c 74 1c 13 ba 12 bb 76 3a 4c c6 54 37
       0.019424781 -0.0005611845 0.0009412031 1.2682354e-05
000020 1e 94 c2 b9 fd 7e 55 39 53 e3 32 3b 5d 12 6b b4
       -0.0003711292 0.0002036057 0.002729614 -2.1892761e-07
000030 d4 de ed bd eb 39 4e bc 36 9a 2f bd 68 82 ea b5
       -0.11614767 -0.012587051 -0.042871676 -1.7472312e-06

layers.0.attn.0.gnn_k.weight f4 [10, 16]
000000 6d 97 5d 3b d1 c4 ae ba e3 82 b4 33 c6 c5 da 3b
       0.003381218 -0.0013333802 8.405711e-08 0.0066764085
000010 58 e5 81 3a f7 d2 9e ba 63 4c 74 3c 9a a1 06 b8
       0.0009910269 -0.0012117316 0.01491079 -3.2098593e-05
000020 70 4c c4 ba a2 04 91 b9 f7 71 b6 3b 84 02 4d b5
       -0.0014976393 -0.00027660007 0.005567785 -7.637211e-07
000030 e7 26 16 bc 29 c9 15 3b 87 77 f2 bb 70 d9 8c 34
       -0.0091645485 0.0022855496 -0.0073995027 2.623524e-07
000040 f7 be f2 3b 8c 0c f2 39 68 21 54 34 77 e7 88 3b
       0.0074080187 0.00046167185 1.9756192e-07 0.0041779834
000050 24 f3 55 3c ae 4e 0d 3a ff c5 b3 3b 40 39 ef b6
       0.0130584575 0.00053904473 0.0054862495 -7.12942e-06
000060 d2 5b be 39 98 bb 7a b9 db 95 5d 3b 98 d2 ad 34
       0.00036308035 -0.00023911742 0.0033811245 3.2376988e-07
000070 bf a2 38 3c 2f e0 f7 bb 34 d0 67 3c 51 b8 d6 35
       0.01126927 -0.0075645666 0.014148761 1.5997886e-06
000080 ef 1a f0 3c 5c 05 1f bb 76 44 3b b5 f0 6c a0 b8
       0.029309718 -0.002426467 -6.976255e-07 -7.649686e-05
000090 8b e2 ea 3c d1 b1 fc ba a4 70 73 bc 74 dd 16 b7
       0.028672477 -0.0019279068 -0.014858399 -8.992258e-06
0000a0 ce 80 42 bb b2 c6 27 39 88 fd a2 3c 2c 77 0a b6
       -0.0029678824 0.00016000381 0.019896284 -2.063297e-06
0000b0 f2 5c d2 3e 58 16 e0 bc 58 5c a2 3e 39 ad 98 b6
       0.41086537 -0.027354404 0.31711078 -4.550119e-06
0000c0 67 4f 69 3b 6e 41 02 bb a8 7f 46 b5 d1 44 47 bc
       0.0035600306 -0.0019875425 -7.394651e-07 -0.012162403
0000d0 4a 39 0b bc d9 30 7f ba d8 7a b6 bc f7 45 5f 38
       -0.0084975455 -0.0009734757 -0.022275373 5.3232503e-05
0000e0 95 03 07 bb 3e 99 f5 39 7a ce 64 3c 28 e7 b5 b5
       -0.00206015 0.00046844216 0.0139652435 -1.3552826e-06
0000f0 df c9 e6 bd 7a 4e b3 b8 60 ed c9 bd c0 1d 86 b6
       -0.112689726 -8.5500025e-05 -0.09859729 -3.9969746e-06
000100 db b8 61 bd 6b 72 fb ba e5 2e 0f 35 e5 62 5f 3c
       -0.055107933 -0.001918388 5.333989e-07 0.013634418
000110 3b 48 91 bd ba 08 ed ba 3a 7a 82 3c 5c 05 36 b8
       -0.07093855 -0.0018084266 0.015927423 -4.3397173e-05
000120 56 5d f5 3a cc 75 ec b9 0e 8e 84 bc 56 2a 76 35
       0.0018719833 -0.00045101193 -0.016181018 9.170375e-07
000130 e9 36 62 bd cb b7 4c 3d 22 0d e7 bd 65 28 44 36
       -0.055228148 0.049979966 -0.11281802 2.9229789e-06
000140 84 cf 7b 3c 6a ca 32 3a a3 95 18 b5 c4 f6 93 bc
       0.0153693 0.0006820323 -5.684216e-07 -0.018062003
000150 88 b1 71 3c 84 6d 57 3a 9f d7 b5 bc bf fc 3b 38
       0.014751799 0.0008217918 -0.022197543 4.4819662e-05
000160 b2 bd cb b8 89 0a 22 3a 20 eb 48 3b e0 eb 0c b4
       -9.715128e-05 0.00061813794 0.0030657724 -1.3124327e-07
000170 cd 41 89 3c d3 35 60 bc db 3f c7 3c bf 81 29 b6
       0.01675501 -0.013684708 0.02432244 -2.5258485e-06
000180 67 c7 80 3c 53 52 d1 b9 6a 79 cb b4 68 2f 1d bc
       0.015720082 -0.00039924923 -3.7900037e-07 -0.009593822
000190 a1 7a a1 3c bc da 6c b8 7b 9a 64 bc e8 1b a7 37
       0.019711794 -5.6470497e-05 -0.013952847 1.9920946e-05
0001a0 e1 f8 1c ba 09 53 ed 39 16 82 02 3c 71 df 80 b4
       -0.00059880136 0.0004526603 0.007965585 -2.4004433e-07
0001b0 b9 3c 5d bb ed 9e 7d bc d6 7f 97 3c 64 30 37 b6
       -0.0033758117 -0.015479785 0.018493574 -2.7297292e-06
0001c0 7c 88 bc bc fb 66 a8 3a e8 f0 68 34 0a 2b 3d bb
       -0.0230143 0.0012848073 2.1694325e-07 -0.0028864765
0001d0 08 88 98 bc c8 c3 c0 3a b4 f9 bb 3b c1 0f 89 37
       -0.018619552 0.0014706785 0.005736554 1.6339009e-05
0001e0 d5 6e 41 3a fd ff 39 b9 53 c0 a4 bb ec 99 c2 34
       0.0007378881 -0.00017738338 -0.0050278096 3.624731e-07
0001f0 85 7f 0c be 78 09 6b 3c 75 20 e5 bd 02 cd 2d 35
       -0.1372052 0.014345519 -0.11187831 6.474585e-07
000200 c8 e2 c0 3b e8 88 0b 38 85 96 d1 b4 e8 3c e5 bb
       0.0058864094 3.3267686e-05 -3.90388e-07 -0.006995786
000210 c7 ca 79 bb 28 3b c6 38 69 68 44 bc f6 1e ad 37
       -0.003811525 9.4523944e-05 -0.011987784 2.0637624e-05
000220 80 4a 14 36 70 5a 70 39 87 ce 08 bb 08 93 d5 33
       2.2097083e-06 0.00022921874 -0.0020875053 9.94533e-08
000230 03 33 e8 3d d7 2a e2 ba 30 b2 ba 3d ca 83 2f b6
       0.11337855 -0.0017255199 0.09116018 -2.6153743e-06
000240 23 66 d6 3a 94 2e 0e ba 54 63 95 b2 3c fb 30 3c
       0.0016357343 -0.0005423811 -1.7391052e-08 0.010802086
000250 99 c8 c9 3b 36 75 fb b9 21 c5 3a 3b 3d 85 0b b8
       0.0061579463 -0.0004796178 0.0028498846 -3.326427e-05
000260 36 a9 84 b9 e1 a7 27 b9 f6 be e6 3a e6 16 0f b4
       -0.00025303074 -0.00015988901 0.0017604518 -1.3326243e-07
000270 7e a4 8f ba 18 bb f6 bb ab 1e f6 39 e7 5f 51 b5
       -0.0010959057 -0.0075296275 0.00046943626 -7.7998124e-07

layers.0.attn.0.gnn_k.bias f4 [16]
000000 72 7d 1f bc 28 bb 31 3a ba 19 24 34 d1 ff b7 3b
       -0.009734498 0.00067799026 1.528305e-07 0.0056152125
000010 89 39 94 bc 19 51 3c 3a 28 cf 76 ba fe fa 55 b7
       -0.018093841 0.00071837154 -0.0009415024 -1.2754228e-05
000020 d3 cf c1 39 4c b6 7f b9 07 df 32 bb 8a 67 dd 34
       0.0003696667 -0.00024386606 -0.002729358 4.1239792e-07
000030 d3 0d f1 3d a7 c8 4e 3c df 4a 7d 3d 9c 79 a0 35
       0.11770215 0.012621081 0.06183898 1.1956322e-06
