checkpoints/ames_50_train1_pos/Aug22-21:35:09_290.pth (torch, 377407 bytes, 294 tensors)

layers.0.weight f4 [10, 16]
000000 5d 3a de 3e c9 da 8a 3f 9b 58 74 be cc b1 d7 3e
       0.43403903 1.0848018 -0.23861925 0.42127836
000010 f0 bf de 3d fc 12 b3 3e 3a b7 9d be 8e aa 8a 3f
       0.10876453 0.3497542 -0.30803853 1.0833299
000020 c6 2a 98 3f fd 78 92 bf dc d3 03 be 3f fa ab 3d
       1.1888053 -1.1443173 -0.12873787 0.0839734
000030 1f 43 9b bc 46 f5 9f 3f e1 eb 99 be 38 db bb be
       -0.018952904 1.2496727 -0.30062774 -0.36690688
000040 07 31 7d 3f 7d 1d ac 3c b5 14 2a bf 5a 39 5c 3f
       0.98902935 0.021010155 -0.66437846 0.8602501
000050 5c 10 1a be 7c de a0 be 64 4e 04 be 6c 10 ce 3e
       -0.15045303 -0.31419742 -0.12920529 0.40246904
000060 f3 25 d4 bf 56 6e c6 be 9a f3 35 bf 3f e7 06 bc
       -1.6574081 -0.38756055 -0.7107483 -0.008233844
000070 ed 87 95 3e 74 fe 91 3e 13 70 bd 3f b3 eb db be
       0.29205266 0.28514445 1.4799827 -0.42953262
000080 41 15 cc 3e 85 fe c3 bc e4 fd cd be b6 39 12 3e
       0.39859965 -0.023925075 -0.40232766 0.14279827
000090 44 7e a7 3e 10 c6 13 3f 2a f7 f0 3d e6 e3 d5 bd
       0.3271352 0.57724094 0.11765893 -0.10443859
0000a0 8a cc e5 3e 07 bf a7 be 40 8b 0f 3f 37 d4 d2 3f
       0.44882613 -0.3276293 0.56071854 1.6471013
0000b0 ad e3 07 3f 73 78 fc be 0a 1d 04 3f c7 d0 00 3f
       0.5308178 -0.49310645 0.5160681 0.5031857
0000c0 95 ae 46 3e 20 4e 14 be 62 99 31 bf 60 2d d7 3d
       0.19402535 -0.14482927 -0.6937467 0.105067015
0000d0 d7 ef b2 bf 80 cb 05 3f 69 17 84 3f a7 31 ba bd
       -1.3979443 0.5226364 1.0319644 -0.09091502
0000e0 6d 0d d2 3e 6e 88 d4 be 82 97 92 3f 68 ba d5 be
       0.41025868 -0.41510338 1.1452487 -0.4174378
0000f0 10 77 f3 3c 3a 8d 03 bf e0 2a e4 3e de bc 6b bf
       0.02971986 -0.5138737 0.4456396 -0.92085063
000100 c3 ac fa 3e ad 1a 2c be a1 40 65 3f ca 46 f8 3d
       0.48959932 -0.16807051 0.8955174 0.12122877
000110 01 31 2c 3c 5b 13 89 3e 19 5a be 3f b3 9a a3 3d
       0.01050973 0.2677258 1.4871246 0.07988491
000120 f9 f8 ff 3e 6a c9 3d bf 7c 49 41 bf 58 e6 29 bf
       0.4999464 -0.7413546 -0.75502753 -0.663671
000130 7a b6 68 3e cb 72 d4 bd 24 9c b6 3e a2 e7 89 3f
       0.2272586 -0.103734575 0.35666 1.0773814
000140 1a 25 d8 3e b2 9c 80 bf 07 f6 9a bc f5 6b e8 ba
       0.42215806 -1.004782 -0.018916143 -0.0017732369
000150 36 b4 6f 3f ad ce 6a 3f 05 dc bb 3e 1c 0d 56 bf
       0.93634355 0.9172161 0.366913 -0.83613753
000160 99 26 0e bf a9 48 e0 be 89 40 a6 3d 87 1e 0e bc
       -0.55527645 -0.43805435 0.08117778 -0.0086742705
000170 9f 2d a8 3e c0 ab 96 3f 55 96 61 bf bc 5e 12 bf
       0.32847306 1.1771164 -0.88120013 -0.57175803
000180 d0 2d 83 3e 85 b1 48 3f 1a 27 84 bc 62 0d 87 bf
       0.2562089 0.78395873 -0.016131926 -1.0550959
000190 50 ae b6 bd 76 7c 19 3e aa 52 95 be b3 95 a8 bf
       -0.08919966 0.14988884 -0.2916463 -1.3170685
0001a0 b6 f4 e2 bd 97 f7 4b bf de 0c b5 be 80 14 13 bc
       -0.11081831 -0.7967467 -0.3536138 -0.008977056
0001b0 02 04 3d bf 21 db e3 bc ed fc ab 3f e3 f6 a4 be
       -0.7383424 -0.02781445 1.3436562 -0.3221961
0001c0 b2 ff 5f 3f 4b 80 4c bf 60 ad e4 be 9c 07 88 be
       0.87499535 -0.7988326 -0.44663525 -0.26568305
0001d0 26 13 5d 3d 49 22 cc bf 34 61 52 be 06 63 2c be
       0.05397334 -1.5947963 -0.20544893 -0.1683465
0001e0 56 4e 0a 3f 25 78 4d bf bb ed 16 be 90 b7 0f be
       0.5402578 -0.8026145 -0.14739124 -0.14034867
0001f0 60 d7 8d 3e d9 37 28 bf bf 2d 10 bf 5a 4d ca be
       0.2770338 -0.65710217 -0.56319803 -0.3951214
000200 f2 c6 2f 3f 75 69 4c bd ec 81 a6 3f b1 ee d2 3e
       0.6866294 -0.04990526 1.3008399 0.41197732
000210 79 05 20 bf e8 5d 1a 3f e1 62 53 bf 36 5e 8d be
       -0.6250835 0.6029954 -0.8257275 -0.2761094
000220 21 2a c6 be 26 35 c2 be 13 d2 e3 be 51 19 f1 bd
       -0.38704017 -0.37931174 -0.4449621 -0.11772407
000230 f7 a4 1e 3f 9c 35 91 bf 71 71 b3 bd d7 61 01 bf
       0.61970466 -1.1344485 -0.087618716 -0.50539917
000240 b6 eb 9b bf 7f 00 0f 3f f4 fd bb 3e 9c 0f 90 3f
       -1.2181308 0.5586013 0.36717188 1.1254764
000250 0f 7b 5f 3f 7c cd a3 bf 72 0e 4a 3e 1f e9 55 bf
       0.8729715 -1.2797084 0.19732073 -0.8355884
000260 40 bf 3b be 90 68 7d bf 2f 89 3e 3f f8 78 90 bd
       -0.18334675 -0.98987675 0.74428076 -0.07054323
000270 9b a0 0e 3e ea 0d 9e be d5 09 09 be 29 a5 19 3c
       0.13928454 -0.3086999 -0.13382657 0.009377756

layers.0.bias f4 [16]
000000 01 0d 71 be 86 21 f3 be ad d7 35 be 6b ad ff 3e
       -0.23540117 -0.47486514 -0.17758055 0.49936995
000010 56 1a 85 3e 65 76 4f 3e 10 ea 1b bf 0f ed 03 3c
       0.25996655 0.20260008 -0.60904026 0.008052125
000020 25 31 87 3e 2e f4 03 3e 60 7e b2 be 34 b6 17 bf
       0.26404682 0.12886116 -0.3486204 -0.59262395
000030 66 eb 3c bf d5 11 ef bd 54 3e 63 ba 49 c1 28 be
       -0.7379669 -0.11673323 -0.00086686504 -0.16479982

layers.1.weight f4 [16, 16]
000000 07 bf b4 3e 8a 77 0d 3e ce 0f 54 be ee b5 57 bf
       0.35301992 0.13815132 -0.20709154 -0.8426198
000010 ce f5 88 3d 06 7d 41 bf 8d 0e 8c bd a7 8e 16 3f
       0.066875085 -0.75581396 -0.06838713 0.5881142
000020 67 e3 33 3f ef 61 5c bf b3 6c 68 be 35 3a b1 bd
       0.70268863 -0.86086935 -0.22697715 -0.0865368
000030 32 b0 33 3e fb d5 3a bd 4a 4f 52 be 21 73 48 bf
       0.17547682 -0.045614224 -0.20538059 -0.7830067
000040 db 9b 0b be 4c 37 b5 3e 34 38 ff 3e 43 97 75 be
       -0.13633673 0.3539375 0.49847567 -0.23983483
000050 5a 58 b0 3e 0f 97 ed 3e 3f fc 5e bc e5 6b 55 bf
       0.34442407 0.4640431 -0.013609945 -0.8336776
000060 d1 ab 2d 3f 60 e9 ba 3e 65 73 b6 3d 0e 56 6d bd
       0.67840296 0.36506176 0.089087285 -0.057943396
000070 ba b8 79 be 3b 3d 9e be 36 29 96 3e 18 6a 65 3d
       -0.24386874 -0.3090609 0.29328316 0.056009382
000080 5d 62 ed 3e fa f3 0f 3f 9f 17 e5 bd 65 ff 97 3d
       0.46364108 0.56231654 -0.11186146 0.074217595
000090 b1 06 9d 3e 19 0a 93 3d 12 bf e0 3e b1 fc 57 3e
       0.30669168 0.0717966 0.43895775 0.21092488
0000a0 0f ec e0 be df 8a 0a bf 45 c6 a1 3e 01 32 1c 3e
       -0.43930098 -0.5411815 0.3159658 0.1525345
0000b0 ea f1 24 3f 8f 5a b3 be f2 99 d0 3d 6e d2 90 be
       0.6443163 -0.35030028 0.10185613 -0.28285545
0000c0 5a 5e 8b bb b8 cd c7 3e 47 ca 8b 3f 93 28 8f 3e
       -0.004253191 0.39024138 1.0921105 0.27960643
0000d0 2c ff dd be 86 34 f9 be e8 6f af 38 cd 2a f5 3e
       -0.43358743 -0.48672885 8.3654944e-05 0.47884217
0000e0 c6 55 33 3d 44 03 0e be 00 4e f1 3d 09 03 a5 3c
       0.04378297 -0.13868433 0.117824554 0.020143049
0000f0 65 3d c6 be ba 09 0c bc e4 c5 ab be 93 df df 3d
       -0.38718715 -0.008547241 -0.33549416 0.10931315
000100 62 18 16 bf 94 84 30 3f ef f9 f0 3e 90 16 12 3f
       -0.58630955 0.689523 0.47065684 0.5706568
000110 5a 66 8a be 47 2f 3c be af 52 f0 be a6 a9 f5 3e
       -0.27031213 -0.1837741 -0.46938083 0.47980994
000120 86 46 df 3c 96 19 12 3f 53 07 61 3d 11 dd 60 be
       0.027255308 0.5707029 0.054938626 -0.2195933
000130 c9 22 46 3f cb f3 dd be 69 28 28 be e4 60 d0 3e
       0.7739683 -0.43350062 -0.16421665 0.40698922
000140 e5 1a 1a 3e 3f ed b7 bd 5a 97 72 be 13 90 cc be
       0.15049322 -0.08980798 -0.23690549 -0.3995367
000150 46 2f 80 be bb 81 47 bf b6 ec 75 be 20 71 1a 3e
       -0.25036067 -0.7793233 -0.2401608 0.15082216
000160 68 e8 19 bf 8a 10 aa 3e 44 7e 4d 3a 1b 63 1f be
       -0.6012025 0.33215743 0.00078389444 -0.1556515
000170 70 04 05 bf fb 27 df 3d ed cd a3 be de cc 96 be
       -0.51959896 0.108962975 -0.31993046 -0.29453176
000180 11 e2 2b 3f 32 00 5a bf 1a af 24 bd 08 5f 92 3e
       0.67141825 -0.8515655 -0.040206052 0.28588128
000190 16 39 01 3f 67 f4 76 bf 27 2c 09 3f 3f 17 da bd
       0.5047773 -0.9646668 0.53582996 -0.10648965
0001a0 cb 8e c2 be 43 c3 37 3f d2 5f 3c be da aa 2d 3e
       -0.37999567 0.7178232 -0.18395928 0.16959706
0001b0 ee 0a 50 3d 54 7b d0 be 47 6e 68 bd 3e 84 c7 bf
       0.050791673 -0.40719092 -0.056745794 -1.5587232
0001c0 a6 52 49 3e f5 5a 04 3f cb d2 0f 3f e6 c2 f1 be
       0.19660434 0.5170129 0.5618102 -0.47219008
0001d0 38 c3 35 3d cf ce 61 3e 95 fa 55 3e 1a 25 a0 bf
       0.04437563 0.22051547 0.2089637 -1.2511322
0001e0 09 1a 65 be 0f 5f fa be cd 42 8f 3b 9b 87 12 3d
       -0.22373213 -0.4890065 0.004371977 0.035773855
0001f0 e7 5d e6 bd 26 df e0 3d 44 6d ca 3d 58 7c 16 3d
       -0.11248379 0.10980062 0.09884122 0.036739677
000200 90 19 ee 3d 95 7c c3 be 53 bb 25 3f 7b 7f 8d be
       0.116259694 -0.38180986 0.6473896 -0.27636322
000210 d9 78 7b be 27 97 3e bf ee c2 51 be 82 97 51 bf
       -0.24557818 -0.7444939 -0.20484516 -0.8187181
000220 86 fe 7b bf 33 1a 46 3e 33 55 d9 bc 2e 5e fb bd
       -0.98435247 0.19345932 -0.026529884 -0.12273823
000230 91 49 75 3e 8e 3f 5d bd 7c d4 9f be 4f c9 96 be
       0.23953845 -0.05401569 -0.312168 -0.2945046
000240 80 34 08 bf 40 32 d3 3e 78 d3 87 bf e5 ca e9 3d
       -0.5320511 0.41249275 -1.061141 0.11415652
000250 98 64 ae bd 0f 68 33 3f d0 73 92 bd 45 36 34 bf
       -0.085152805 0.70080656 -0.07150996 -0.7039531
000260 ce f9 29 bf e0 f9 ae bd e3 71 b1 3e b8 ce a8 3b
       -0.66396797 -0.085437536 0.346572 0.005151596
000270 93 39 0a be a2 a5 13 3e 3c d6 75 3e df ee 2e 3f
       -0.13498525 0.14418653 0.24007505 0.6833324
000280 30 08 c1 be af 6a 5f bf 91 e6 f8 3e d2 29 1f 3f
       -0.3770156 -0.8727216 0.48613408 0.6217319
000290 74 58 b4 bd ec 21 01 bf fc b3 83 be f7 3c e4 bd
       -0.088059336 -0.50442386 -0.25723255 -0.111444406
0002a0 a7 ae 20 bf 84 27 74 3e 45 cd ba 3c 5b 49 81 be
       -0.627665 0.23843199 0.022802958 -0.25251278
0002b0 f2 e9 83 bf ea b2 81 be 21 c1 89 bc 67 99 33 bf
       -1.030577 -0.25331813 -0.016815724 -0.7015595
0002c0 2d 87 c3 be c5 60 b3 3e 6d 32 09 be 42 7a d6 bd
       -0.38189068 0.35034767 -0.13398142 -0.104725376
0002d0 c2 aa 16 be f9 fb 59 bf 36 f7 c9 bf 9c e3 90 be
       -0.14713576 -0.85150105 -1.5778568 -0.28298652
0002e0 29 f3 46 3b 3b e4 85 be bb 4d 84 3e 3d ac 01 bd
       0.0030357337 -0.2615069 0.25840554 -0.0316584
0002f0 f1 cb a3 be 9d 2e a2 be bb 28 b7 bd 7b 75 93 bf
       -0.31991532 -0.31676188 -0.089433156 -1.1520227
000300 10 0e ae 3d 89 ed 6d 3e 19 fe 07 3e 5b bc c6 bd
       0.08498776 0.23235144 0.13280524 -0.09703895
000310 0e dc d7 3e 34 52 d4 be 3a 0f ff be 2f e9 2f 3f
       0.42160076 -0.41468966 -0.49816304 0.68715185
000320 9f 51 2f be 33 e7 32 bf 8f 97 2a be 7a ea ab be
       -0.1712098 -0.6988403 -0.16659378 -0.3357733
000330 8d c1 75 be d7 32 7e be 4e 4a 45 3e f2 3e 76 bf
       -0.23999615 -0.24824081 0.19266626 -0.96189797
000340 e5 f6 f1 3c 0b f1 79 3d 52 e8 47 3f a8 3d 60 be
       0.029536674 0.061020892 0.7808887 -0.2189852
000350 cd c1 4b 3e 2b ae 41 3f bd 14 86 3e 08 65 8a be
       0.19898148 0.75656384 0.26187697 -0.27030206
000360 0f 89 1a 3e 42 fa 58 3f 18 6e 5f 3e 3b e4 d2 3d
       0.15091346 0.84756863 0.21819341 0.10297438
000370 53 93 db 3e a9 cd e7 be 22 66 90 3e e6 22 dd 3e
       0.42885837 -0.45274094 0.2820292 0.43190688
000380 4a c4 b7 3e 4c e3 a3 3d d1 f0 fa be 52 0d dd be
       0.35891944 0.08002338 -0.49011853 -0.43174225
000390 0a 8f 1f be 9c 4d 2b bf 5e 0b 2b be be bf 26 be
       -0.15581909 -0.669153 -0.16703555 -0.16284081
0003a0 4b 8f 9b 3f b1 72 29 3f 0d f8 aa be 43 60 3a be
       1.2153105 0.6619063 -0.33392373 -0.18200783
0003b0 5e 86 a7 be 95 2c 54 3e e2 12 75 be 1a 20 dd be
       -0.32719702 0.20720132 -0.23932984 -0.43188554
0003c0 92 95 19 3e 9d f3 38 3f 14 7c d2 be 86 ad fb 3d
       0.14998463 0.72246724 -0.4111029 0.12288956
0003d0 a2 6f d3 3d ea 45 4f bf 1a 08 db be 31 a9 3f bf
       0.10324027 -0.80966055 -0.42779619 -0.7486754
0003e0 52 af d2 be 34 71 58 3e 89 28 17 bd ae 49 13 be
       -0.41149384 0.21136934 -0.03690389 -0.14383575
0003f0 e0 15 75 3f 57 41 cf be ff bb 6c be e6 c3 0b bf
       0.95736504 -0.40479538 -0.2311859 -0.5459579

layers.1.bias f4 [16]
000000 f0 0a a3 3e 27 96 31 be 31 d6 6c be e8 fb ce bd
       0.31844282 -0.17342435 -0.23128583 -0.10106641
000010 77 93 93 be 61 35 89 be bf d4 dc be ec 44 1e be
       -0.28823444 -0.26798537 -0.43131062 -0.15455979
000020 56 39 41 3e fb 9e 5d be f9 a8 f9 3c 9c ad 92 3e
       0.18869528 -0.21642677 0.03047608 0.28648078
000030 3f 22 3b be e6 2a 1f bf 35 c2 ce ba e8 84 72 bf
       -0.18274783 -0.6217483 -0.0015774431 -0.9473405

final.linears.0.weight f4 [84, 42]
000000 62 97 66 3e 5e f8 c4 3e 60 f9 0d bf 93 45 35 bf
       0.22518685 0.3847074 -0.5545864 -0.70809287
000010 3c 62 0d bf 6c 14 a5 bf 0c 55 b3 bf c3 dc d3 3d
       -0.5522802 -1.2896857 -1.4010329 0.10344841
000020 5a f4 39 be eb ca c8 3e 87 d2 9a be ed d0 9d be
       -0.18159619 0.39217314 -0.30238745 -0.3082346
000030 35 3c 24 3d 20 49 22 be 00 95 43 3e a9 e3 00 3d
       0.04009648 -0.15848207 0.19099808 0.031467114
000040 2c e8 a1 3e 3e 6e bb be 13 86 36 be 9a a4 51 3e
       0.31622446 -0.36607546 -0.17824583 0.20472947
000050 77 f3 82 3e d3 89 33 3e a9 ce 2d 3e e2 b5 6b 3e
       0.25576374 0.17533045 0.16973366 0.23018602
000060 53 99 9b be 0b e8 43 bd b7 00 9e 3d a7 07 8e 3e
       -0.30390415 -0.047828715 0.0771498 0.27740213
000070 20 48 91 3e 23 bc 57 be c8 41 84 bd 3d a1 e7 3d
       0.2837534 -0.21067862 -0.06457859 0.11310051
000080 69 2a d7 bd cf e5 70 be 3c f6 aa 3d b6 1d d4 bd
       -0.10506136 -0.23525165 0.08347747 -0.103572294
000090 56 9c 11 be 28 7d 92 3e 6f 9c 12 be 5a ee 41 3e
       -0.14219794 0.28611112 -0.14317487 0.1893858
0000a0 0c 0c be bd c2 44 43 be 3e 36 56 be 86 c1 04 bf
       -0.092796415 -0.19069198 -0.20919129 -0.51857793
0000b0 43 48 4b bf c1 2b 6c 3f 32 00 65 3e 70 7c 2a bf
       -0.7940714 0.92254263 0.22363356 -0.66596127
0000c0 8e 26 4b 3f d5 db 9b bd a2 54 25 bf 9b 70 7a bf
       0.79355705 -0.07610289 -0.64582264 -0.9782807
0000d0 56 b8 93 bd 95 06 aa 3b c6 4a 6e 3e 5a ff 82 3f
       -0.07212894 0.005188773 0.23270711 1.0234177
0000e0 61 cb 96 3f ed 9e 62 3d d6 70 e3 be 49 d4 0b be
       1.1780816 0.055327345 -0.44422024 -0.13655199
0000f0 49 5d d0 bd a2 04 74 be 58 f8 3c 3e 40 8b 32 3f
       -0.10174043 -0.23829892 0.1845411 0.6974373
000100 b3 cb 70 3f fa 3e 26 3d 0e 1f 48 be 0e 30 b8 3e
       0.9406082 0.040587403 -0.19543096 0.35974163
000110 25 5e 83 3d 46 95 15 be 03 84 2e be b4 ce 64 be
       0.06414441 -0.14607725 -0.17042546 -0.22344476
000120 fe 66 94 3e df 3c f4 3d af 5e 84 3e 94 3d bb bd
       0.28984827 0.11925673 0.25853488 -0.091426045
000130 c3 05 99 bd d3 30 c0 3d 8b 36 94 be 37 a8 5c 3e
       -0.07471802 0.093843125 -0.28947863 0.21548544
000140 c2 74 3a bd 32 ba ff 3e bd 0e 9d 3d c3 a7 4a 3d
       -0.045521505 0.49946743 0.07668827 0.049476396
000150 f8 71 f7 be 4d 09 85 be 27 b5 43 3e 70 52 24 3f
       -0.4832914 -0.25983658 0.19112073 0.6418829
000160 86 65 a6 3e d9 a1 0e 3f 86 31 4b bf 0f ed f1 bd
       0.3249933 0.5571571 -0.7937244 -0.118127935
000170 5b d9 08 3f 15 57 27 3f 2a d3 9f 3b 52 00 0d bd
       0.5345666 0.6536725 0.0048774676 -0.034424134
000180 d2 2c eb 3c 47 c1 1f be 1a e3 fc bd 21 60 62 3c
       0.028707895 -0.15601073 -0.12348004 0.013816864
000190 9f 89 cb 3d 2c 62 8d bd 7e cb 1a bc 86 c9 b4 3d
       0.099383585 -0.069034904 -0.00944793 0.088275
0001a0 67 3c ca 3d b4 18 52 3d 54 7d 4f 3d 0e a1 ad 3d
       0.09874802 0.05129309 0.05065663 0.08477984
0001b0 19 84 6d 3c e3 f9 37 bd c5 36 84 bd 46 a7 c2 3d
       0.014496827 -0.044916045 -0.06455759 0.09504561
0001c0 fb 34 87 3d 42 d0 8c bc 95 85 1e bc 33 5a cf 3d
       0.06601902 -0.017189149 -0.009675403 0.10124626
0001d0 99 84 d6 bc ee 6d 00 bd c7 78 7b 3d 11 a9 8c bc
       -0.026186274 -0.031354837 0.06139448 -0.01717046
0001e0 d9 07 d1 3c 77 eb a0 bb 6b 99 99 3c 5c 3f 83 bc
       0.025516437 -0.004910882 0.018749913 -0.016021423
0001f0 b7 7c be bd 72 2a 50 3d d7 36 e8 bd 01 ed 2b 3e
       -0.09301131 0.05082173 -0.11338585 0.16789629
000200 e8 2c ef 3e ac ba 1d 3e be d8 6e 3e 28 9b f5 3e
       0.46713948 0.15403241 0.23324868 0.47969937
000210 44 03 c5 3c aa 81 f9 be 8c 2c 72 bf cc 5f fb bd
       0.024049409 -0.48731738 -0.94599223 -0.12274131
000220 50 d1 93 be a3 5e 91 3e 96 d0 cd be a8 b8 b5 be
       -0.2887063 0.28392515 -0.401982 -0.35492444
000230 6f 89 db 3d 3e 2a 2e 3c 59 59 0e 3f 97 63 0a 3e
       0.10719573 0.0106301885 0.55605084 0.13514553
000240 b0 8a 0f bf 1b b5 6f 3f dc ba c1 3d c5 98 35 3e
       -0.56070995 0.9363572 0.09459469 0.17734058
000250 73 32 b0 3c d0 a1 a6 3e 36 64 de 3e 62 be cb 3e
       0.021508431 0.32545328 0.4343583 0.39793688
000260 1f 36 c3 3d f8 f2 42 3b 24 98 ff be 37 d3 65 be
       0.09531807 0.0029746871 -0.49920762 -0.22443853
000270 2c 63 04 3e 7e 80 d8 bd bc 7e 5a bd fd 19 18 be
       0.12928456 -0.10571383 -0.05334352 -0.14853664
000280 f6 25 96 3e fc 26 6e 3e 4c 9c bf bd 99 41 86 3c
       0.29325837 0.23257059 -0.09355983 0.016388701
000290 a9 7b a4 bc 24 bd 50 3e 41 11 b4 bb ee d1 ae 3e
       -0.020078497 0.20384651 -0.005495221 0.3414454
0002a0 38 e5 15 bc d3 ac 87 3d 73 68 45 c0 00 78 1f 3f
       -0.009148888 0.066247605 -3.0845 0.6229248
0002b0 96 3a 1c 3f 93 49 03 3c 58 46 50 3c 52 c9 96 3d
       0.61026895 0.008013147 0.012712084 0.073626176
0002c0 07 75 71 3e 65 93 0e 3d ef 0f 89 be d5 74 1e be
       0.23579799 0.034808535 -0.2676997 -0.15474255
0002d0 09 cd 58 bc 9a 09 1f 3e 58 69 f4 3d a2 07 f9 3c
       -0.013232478 0.15531006 0.11934155 0.030399147
0002e0 5a 15 5a be 6a 7c c6 3d 4a 9f 8d 3a 0a ff b2 3d
       -0.21297207 0.09691699 0.0010804918 0.08740051
0002f0 6e 37 87 be ae 78 84 be 67 2d b1 be 5c cd 0a 3d
       -0.26409477 -0.2587332 -0.34604952 0.033887252
000300 5a d7 bd bd b5 64 61 be b3 43 34 3d e9 f6 97 3c
       -0.09269591 -0.22011073 0.044009876 0.018550353
000310 e3 2e 27 3d d2 3d 0a 3d 05 3d ca bd db 99 03 bf
       0.0408162 0.033750363 -0.0987492 -0.5140664
000320 8b 68 eb be fd 72 ac bc a6 91 21 bc f0 cf 8e 3d
       -0.45978197 -0.021050924 -0.009861385 0.06973255
000330 e1 aa 4c bd 4f d9 14 3f 93 a6 ab 3c ec 5d 38 3e
       -0.04996765 0.58144087 0.020953452 0.18004578
000340 14 92 60 be 5a de e6 3e 57 67 bf 3e 3e 44 04 bc
       -0.21930724 0.45091516 0.3738353 -0.008072911
000350 46 ab e5 be 1e 65 e4 3e fb aa 9c be 56 79 48 be
       -0.44857234 0.44608396 -0.30599198 -0.19577536
000360 39 ca c6 3e 71 d4 2f 3f 80 a0 83 3c b5 64 4e bd
       0.3882616 0.68683535 0.016067743 -0.05038901
000370 22 f5 83 bd 88 fb 89 3c a9 6a 8c be 5e fb 40 3d
       -0.0644324 0.016843572 -0.27425125 0.047114722
000380 72 c5 69 bc 11 f9 fb bd e1 92 b6 3b e3 cf 06 bd
       -0.014268266 -0.12303365 0.0055717085 -0.0329131
000390 87 e8 2a be d6 79 43 3c 5d be de 3d c1 7e 3b bd
       -0.16690265 0.011930903 0.10876153 -0.04577518
0003a0 9a 25 1b 3c 7d c5 7a bc 38 7c c1 3d a8 99 ce be
       0.009469414 -0.015305874 0.09447521 -0.40351605
0003b0 3b 0e 81 3c f1 f9 03 3e ff 89 bc bd 8e 9a 2e bd
       0.015753856 0.12888314 -0.09206008 -0.042627864
0003c0 be f7 26 be 33 59 23 be c3 ec fb bd 91 eb 0f bd
       -0.16305444 -0.15951996 -0.12301018 -0.035136763
0003d0 86 46 e7 bd d5 90 16 3d 5a 0a 83 3d 20 81 59 3e
       -0.11292748 0.036759216 0.06398459 0.21240664
0003e0 ea f8 7d 3d 19 5a ae bd b8 6b 05 3e 1d 60 2f be
       0.06200496 -0.085132785 0.13029373 -0.17126508
0003f0 37 aa a0 3d f4 29 ba bb 35 d0 65 c0 ef 4c b7 3f
       0.07844966 -0.0056812707 -3.590833 1.4320353

final.linears.0.bias f4 [84]
000000 98 20 53 3e 1c bf 18 bd c9 82 5e 3d a2 29 9a 3e
       0.20617902 -0.03729163 0.054323945 0.30109888
000010 d7 2b 8f 3e ca ee 12 3e 07 19 a7 be 1d 37 9e 3d
       0.27963135 0.14348903 -0.32636282 0.07725356
000020 9e b6 23 3e a8 6e 27 3e fe 6a 4d 3e 3d 1f 6e bd
       0.15987632 0.16350806 0.20060346 -0.05813526
000030 86 0f a2 3d 0a 6f 98 3e bb 39 a0 be 95 42 3a 3e
       0.07913117 0.29772216 -0.31294045 0.18189462
000040 81 8f 03 3e fe d2 12 bd c6 fb 46 3e 4a f4 06 3e
       0.12847711 -0.03584575 0.19431981 0.13179126
000050 06 9e fd 3d ab 35 30 3e f9 58 71 3c de 61 f3 3e
       0.12383656 0.17207973 0.014730685 0.47535604
000060 7c 8c 9b 3d 6c a6 25 3e 43 35 3a bd 55 4d 08 3d
       0.07595155 0.16176766 -0.04546095 0.033276875
000070 57 68 b0 3e 78 9a 5a 3e f4 30 34 3e 97 4c ed 3d
       0.34454605 0.21347988 0.17596799 0.11586874
000080 68 76 0f 3e 79 20 93 3e 3a 03 04 3e b0 f5 5a 3e
       0.14010012 0.28735712 0.12891856 0.21382785
000090 da 4c b5 3d 7a 11 28 3d fe af 8a 3d a0 41 62 3e
       0.08852549 0.041032292 0.06771849 0.22095346
0000a0 63 a1 8c be 1e a9 9e 3e 30 88 c7 3d 55 63 1b 3e
       -0.27466878 0.309884 0.097427726 0.15174611
0000b0 20 33 39 3e bc 8b f0 3d ab 1c d9 3d b4 14 c7 3e
       0.18085909 0.11745402 0.10601171 0.38882983
0000c0 20 cf 96 3e 8b 8e 75 3d 5a 19 08 bd ee 1b e6 3e
       0.294549 0.059950393 -0.033227302 0.44943184
0000d0 01 fc b4 bd da 4a 4f bc c8 d6 77 3e 5e 6c 35 be
       -0.088371284 -0.012652123 0.24203026 -0.1771712
0000e0 b9 46 94 3d 5b dc f8 3d c4 da 21 3e e4 9d ee bd
       0.07240052 0.121514045 0.15806109 -0.11651209
0000f0 e6 50 83 3e e8 d7 e3 3d 9b 9d 26 3e 0f 3d a6 3d
       0.25647658 0.11125165 0.16271059 0.08117115
000100 45 6e 84 3e 3d 21 56 3e 05 de 01 3e a4 42 80 bb
       0.2586538 0.20911117 0.1268235 -0.003914194
000110 22 60 cc bd 5c d2 9d 3e 87 55 3b 3e cb 4e 18 3e
       -0.099792734 0.30824554 0.18294345 0.14873807
000120 35 80 57 3d a2 a7 26 3e 1e d1 b1 bd 25 e1 40 3e
       0.052612502 0.16274884 -0.08682464 0.18835886
000130 30 80 a2 39 86 b9 c6 3e 79 43 1b be 71 36 d8 3c
       0.00030994555 0.38813418 -0.15162458 0.026393147
000140 29 1d ed 3d 5b 09 4f 3e f7 5b 91 3e 88 32 06 bd
       0.115778275 0.20218413 0.28390476 -0.032763034

final.linears.1.weight f4 [84, 84]
000000 73 43 28 be 63 fd c5 3d 2a 40 ac be c0 1c 2b bb
       -0.1643198 0.0966747 -0.33642703 -0.0026109666
000010 63 1d c8 3d 24 3c 37 3c ea 32 2e bd 60 c9 9a be
       0.0977123 0.011183772 -0.042529024 -0.30231762
000020 cc 46 a5 bd c7 61 fd 3c 55 2c 99 3d d5 e3 ac bd
       -0.08070144 0.030930413 0.07479159 -0.08441893
000030 14 0c 80 3b ff 7d bd bb e2 55 a9 bc 09 81 fb bd
       0.00390769 -0.005782842 -0.020670835 -0.12280471
000040 74 03 32 bd 26 81 99 3d d7 62 22 3d a3 66 3e bd
       -0.043460324 0.07495336 0.039645042 -0.0464846
000050 ea 4a 1d be d5 94 4c bc 2f f6 ef bd 83 b7 69 bd
       -0.15360609 -0.012486656 -0.11716878 -0.057059776
000060 c7 80 aa bd ab da 82 bc 54 10 f8 3c 6e d7 c4 bd
       -0.083253436 -0.01597341 0.030281223 -0.096114025
000070 03 f0 f6 bd 22 96 57 be 35 78 6c be bd d5 cc 3d
       -0.12057497 -0.21053365 -0.2309273 0.10001705
000080 ca e2 8f bb cd b5 5c 3e b2 d7 16 be ca 6c 59 be
       -0.004391049 0.21553726 -0.14730719 -0.21232906
000090 87 39 df 3d 95 9d 15 3e 8a 6c 1b bc 50 b6 2d bd
       0.10899644 0.14610894 -0.009486327 -0.042410195
0000a0 f0 91 fd 3d 2e 62 15 be ec 4f 6b 3d 42 b2 4b bd
       0.12381351 -0.14588234 0.057449266 -0.049730547
0000b0 99 09 7b 3b e4 73 a1 bd 01 8b 5e bc c0 0d 10 3d
       0.0038305281 -0.078834325 -0.013582946 0.035169363
0000c0 3e 3d f2 bd 0b 10 21 be 7f 05 13 be 7a 9e 27 3d
       -0.11828087 -0.15728776 -0.14357565 0.04092262
0000d0 cb 5e ca bd b5 74 57 3d d7 b2 e3 bc d1 75 3d bd
       -0.098813616 0.052601535 -0.027795238 -0.046254937
0000e0 3b e7 90 3d ec eb 90 bd 31 ad 25 bd 41 c2 e9 bd
       0.07075354 -0.070762485 -0.04044837 -0.11414004
0000f0 04 ac 2a be 63 e6 02 be 0a 67 8a 3d 7e 91 e5 3d
       -0.16667181 -0.12783198 0.067579344 0.11209391
000100 cb 02 f9 bd a6 56 c1 bd 23 9f f2 bd 13 5b 1f bd
       -0.12158736 -0.09440355 -0.11846759 -0.038905215
000110 23 f8 81 3d 16 ea 2c bc 7f 7b 09 3e b6 d3 48 3d
       0.063461564 -0.010553857 0.13426016 0.04903003
000120 6a 3f 4c bb 82 ce 6a bd e1 48 66 be 08 50 89 bc
       -0.0031165727 -0.057325847 -0.22488739 -0.016761795
000130 f6 40 49 3c 06 6b de bd 60 b5 9a bd 04 73 a2 bd
       0.012283554 -0.10860257 -0.07554126 -0.07932094
000140 90 2e c7 bd ba f1 28 be 8a 31 32 be 44 1d d2 b9
       -0.09725678 -0.16498461 -0.1740171 -0.00040076126
000150 1e f7 29 be 91 05 60 bc 53 c0 15 be a4 ae f5 bd
       -0.16598174 -0.013673202 -0.14624147 -0.11996201
000160 68 23 3c bd c4 66 c1 bd 2d 4a 08 3e f4 eb 57 be
       -0.045932204 -0.09443429 0.13309546 -0.21086103
000170 22 dd 9b bd 10 24 b7 be e8 c0 fe bd c6 93 5c bd
       -0.07610537 -0.357697 -0.12439138 -0.053851865
000180 59 61 00 be 90 9f 56 bd 79 d2 ed bc b6 1e 36 bf
       -0.12537135 -0.052398264 -0.029031025 -0.7114061
000190 29 3b c2 bd fa 7e 80 be b1 08 40 bd 81 1a 77 be
       -0.0948394 -0.25096875 -0.04688329 -0.24131204
0001a0 75 6d 4f be 61 0f 93 bd 60 cc b7 bd 59 ee 79 be
       -0.20256598 -0.07180668 -0.08974528 -0.24407329
0001b0 45 7b 52 be d1 da 16 be 1f b8 aa bd 76 04 dc bd
       -0.20554836 -0.1473191 -0.083358996 -0.10743038
0001c0 1b 57 20 be 72 fb 44 be d7 63 5a be 84 75 13 be
       -0.15658228 -0.19236544 -0.21327148 -0.14400297
0001d0 a6 b7 bf bd 7c 99 76 be 81 d9 89 be a6 9a 4d be
       -0.093612 -0.24081987 -0.26923755 -0.20078525
0001e0 7e db 0e be 49 1a 57 bd ad 3e 75 bd 92 bb da bd
       -0.13950917 -0.0525153 -0.059874225 -0.106803074
0001f0 2f 83 05 bd 4d 81 82 bf d1 c7 64 3d ac 75 4c be
       -0.03259581 -1.019571 0.055854622 -0.19966763
000200 72 5a 38 be e7 13 16 be b6 f4 94 bd e2 ae b9 bd
       -0.18003252 -0.1465603 -0.072732374 -0.090665594
000210 5d 03 26 be 22 24 a4 bd b4 1b 20 be 40 3e 57 3d
       -0.1621222 -0.08014704 -0.15635568 0.0525496
000220 89 92 d1 bd 33 0d 22 be 57 3d 52 be 31 c6 05 3d
       -0.102330275 -0.15825348 -0.20531212 0.032659713
000230 9e ab 02 3d a3 87 e8 3c 3c 7c 1c be a8 3e 41 bd
       0.03190195 0.02838499 -0.15281767 -0.047178894
000240 ac 1b 5f be 6a 6a c6 bd 9a c7 f2 bc 7d da 36 bd
       -0.217879 -0.096882656 -0.029636193 -0.04464196
000250 5d 89 ad bd 9e 46 ab bd e4 8f 46 be 53 95 00 be
       -0.084734656 -0.083630785 -0.19390827 -0.12556963
000260 58 c7 f8 bd f1 4c 83 bd 65 92 37 be b7 5f 95 bd
       -0.12147397 -0.0641116 -0.17926939 -0.07293647
000270 fb 21 00 be 32 e9 f7 bd 79 bd 22 be 44 2f 1a be
       -0.12512963 -0.12105025 -0.1589259 -0.15057093
000280 ae 76 ec bd 4c af e6 bd 1b 13 ad 3d ec 62 a2 be
       -0.11546074 -0.11263904 0.0845091 -0.31716096
000290 fe 64 12 be d2 23 cb ba ba 12 28 be 47 d5 29 3e
       -0.14296338 -0.0015498346 -0.16413394 0.16585265
0002a0 28 0a 8e be f2 02 ff 3c 1a a6 2f bc 01 9b d8 be
       -0.27742124 0.031129334 -0.010720754 -0.4230576
0002b0 e6 3c 22 3c 1c b1 c9 bd 46 c2 4f 3e 42 6e 09 be
       0.009902215 -0.09848234 0.20288953 -0.13420966
0002c0 99 12 84 be 71 90 10 be 69 c5 70 be 82 16 05 be
       -0.2579544 -0.141176 -0.23512806 -0.12996867
0002d0 49 b5 ef be d1 08 52 be 3a dc 6d be 23 f3 85 be
       -0.46817997 -0.20511176 -0.23228541 -0.2616206
0002e0 24 ad 09 be e5 c6 af 3d ec 39 c3 be b4 df 21 be
       -0.13444954 0.08582858 -0.38130128 -0.15807992
0002f0 77 8b e3 be 9d 97 3d be 7b 9e 97 be 86 89 ae be
       -0.4444234 -0.18514867 -0.29613099 -0.34089297
000300 d7 6b e0 be 73 9c ef be bd 15 2d bd 51 d0 06 be
       -0.43832275 -0.4679905 -0.04225706 -0.13165404
000310 0e ae 13 be bc c4 fd bd 67 59 a6 be 8f 74 48 be
       -0.14421865 -0.1239104 -0.32490084 -0.19575714
000320 5b 9e b3 be 8a 07 38 bf eb 1c a9 be 1b 7d 83 be
       -0.35081753 -0.71886504 -0.33029875 -0.25681385
000330 a8 8e dc be 3f 32 22 be 0b d0 9f 3d b3 d5 cf be
       -0.43077588 -0.1583948 0.07803353 -0.40592727
000340 a5 ef 88 3e ae 9f 04 bf 68 22 64 3e 06 8f dd bf
       0.26745334 -0.5180615 0.2227875 -1.7309272
000350 50 08 87 be f6 37 a9 bd 6b a5 b7 be df eb f0 be
       -0.2637353 -0.08262627 -0.3586839 -0.47054955
000360 f3 30 e9 bd c5 3c b1 be 7e 23 a9 bc 07 b0 fa bd
       -0.113862894 -0.34616676 -0.020646807 -0.12240606
000370 b0 19 a9 be a2 27 d6 be af f1 0c bf f6 96 63 be
       -0.3302741 -0.41827112 -0.5505628 -0.22225556
000380 5a 5d c4 bc a2 da 2a be 13 ca f6 bd e9 c1 41 bd
       -0.023970295 -0.16684964 -0.12050261 -0.047304068
000390 f8 74 b1 be 81 f8 a0 be cf f1 81 be 70 52 d2 bd
       -0.34659553 -0.31439593 -0.25379798 -0.1026963
0003a0 41 8b 2f be b9 95 e1 be 38 88 bf be 27 a0 c3 bd
       -0.17142965 -0.44059542 -0.37408614 -0.09552031
0003b0 4b 02 63 bd 5a 99 01 bf 2b 11 05 be 9f e4 b0 be
       -0.05542211 -0.5062462 -0.1299483 -0.34549424
0003c0 19 ce ac be f9 95 89 be a0 05 9a bd 15 55 a3 be
       -0.3375099 -0.26872233 -0.07520604 -0.3190085
0003d0 ab 02 01 be 68 fa b4 be cb 2c 10 be 0c 71 8d be
       -0.12598674 -0.35347295 -0.14079587 -0.2762531
0003e0 b0 a5 4d be 12 52 8d bd 37 dc e7 be 88 2e 87 3e
       -0.20082736 -0.06900419 -0.45285198 0.26402688
0003f0 a3 c7 25 3d 3c ce bd bc d2 17 10 3e c1 5c f9 bd
       0.04047359 -0.02316963 0.14071587 -0.121758945

final.linears.1.bias f4 [84]
000000 12 fa bd bc 53 6a aa be cc 79 f4 be 5f ea 66 bd
       -0.023190532 -0.33284244 -0.47749174 -0.056375857
000010 b6 5c b0 be 2e 07 3f be 2b d0 02 3d f8 90 d8 3e
       -0.34445733 -0.18655083 0.031936806 0.42298102
000020 b3 82 0a 3c 6f 4a ff bd ce 34 58 3c e1 ad 98 3d
       0.008454013 -0.12465369 0.013196183 0.0745504
000030 a4 a6 93 bd 66 c7 da 3d 7a e1 6b be e9 9f c5 3e
       -0.072095186 0.106825635 -0.23035231 0.38598564
000040 fc 11 a4 bd 11 03 0d bf 4c 79 16 be 5f d1 0d be
       -0.08011243 -0.55082804 -0.14694709 -0.138494
000050 88 0e 88 bd 18 2a e1 be dd 50 1a bb 9b 53 6f be
       -0.066433966 -0.43977427 -0.0023546733 -0.23371737
000060 b0 98 a1 be f1 65 c4 bd 83 7d 27 bd 3f 2b 75 be
       -0.31561804 -0.09589756 -0.04089118 -0.23942278
000070 b6 9e d5 be 70 e7 f5 be 59 b4 de be 1f 20 58 bc
       -0.4172265 -0.48028135 -0.4349697 -0.013191252
000080 1f 8d 99 3d 6f 5c 01 3e b4 13 55 be 93 63 99 bd
       0.0749762 0.12632917 -0.20808297 -0.074896954
000090 f8 96 a5 bd 5b 82 cc be cb 96 56 be ab b1 98 bd
       -0.08085436 -0.39943203 -0.2095596 -0.074557625
0000a0 f1 f2 29 be 76 74 14 bf 9f e6 d9 be 74 7f 42 be
       -0.16596581 -0.57990205 -0.42558762 -0.18993932
0000b0 fc a4 99 be 00 aa 9d 3d 83 83 92 bd 51 18 a1 bd
       -0.30008686 0.076984406 -0.0715399 -0.07865966
0000c0 9a 8b f5 bc 2b 8a 16 bf 97 af d4 be 05 4e 8e bd
       -0.029973794 -0.5880458 -0.41540214 -0.06948475
0000d0 63 bb 27 be b3 27 b5 be 81 7f f8 3b 3c 82 24 bd
       -0.16380076 -0.3538185 0.007583559 -0.040163264
0000e0 d5 e7 77 3d ce 48 8a be 10 a3 fb be 9e 19 01 be
       0.060523827 -0.2700867 -0.49147844 -0.12607428
0000f0 f3 ad 5b be 7e d9 ac bd 22 f1 5a be 7c bb d1 be
       -0.21453075 -0.08439921 -0.21381047 -0.40963352
000100 ea d4 86 3e 91 94 ce bd 98 73 0e be 9b ff f9 be
       0.26334316 -0.100869305 -0.13911283 -0.48827824
000110 4b 15 e6 be d6 b2 5b be af 64 34 be b7 da b3 bd
       -0.4493812 -0.21454939 -0.17616533 -0.08781951
000120 94 03 42 be 63 e2 07 bd 93 17 a8 be 9c a7 de be
       -0.18946677 -0.033174884 -0.32830486 -0.4348725
000130 3e 52 cb 3b b5 3c 0c be 0a 76 a9 be 87 7c 35 be
       0.0062048724 -0.13695033 -0.3309787 -0.17723285
000140 1a 1b 31 3d 8d d3 11 be 08 30 56 bd f5 77 21 3f
       0.043238737 -0.14240856 -0.0522919 0.63073665

final.linears.2.weight f4 [10, 84]
000000 de 95 9e 3d 1b 01 75 bc 60 5d 9f be 00 a7 a6 3d
       0.07743429 -0.014953877 -0.31125927 0.081373215
000010 cd 62 8e bc a5 01 f9 bd 58 88 3a be e8 ab 57 bc
       -0.017381096 -0.12158517 -0.18216074 -0.013163544
000020 67 33 64 3e 6e c3 d9 bb ce 8c 6e be b2 9a 35 3b
       0.22285233 -0.0066456115 -0.232959 0.0027710614
000030 fd 2c b5 3e f3 51 19 3c dc 62 f6 3c bd 6f d2 bb
       0.35385886 0.009357917 0.030076437 -0.0064220116
000040 3e 5f e9 3d df 4b f3 be 29 01 5c 3e 15 29 9a 3d
       0.11395119 -0.47518823 0.21484818 0.07527367
000050 1f 9a 6c bd bb 92 7c 3c b6 aa 9a ba ec db 8f 3c
       -0.05776417 0.015415843 -0.0011800143 0.017560922
000060 0d 7c 3a 3e d4 a8 d6 bb 6e 22 b1 3c 37 23 28 3f
       0.18211384 -0.0065508876 0.021622863 0.65678734
000070 5b ee bc bb fb ba 8c 3c ee d5 dd be 11 e8 e6 bb
       -0.005765719 0.017179003 -0.43327278 -0.0070467074
000080 f2 e7 cd bd 07 89 81 3c 48 a6 26 3e 9a 08 4e 3e
       -0.10054006 0.01581241 0.16274369 0.20120469
000090 10 60 a2 bd 0b 5a 2e 3e bf fe 3a 3e 8e fd 3c be
       -0.07928479 0.17026536 0.1826124 -0.18456098
0000a0 56 48 b0 bd 96 7a d0 3d 3f ec 09 bf a6 af 34 bd
       -0.08607547 0.101796314 -0.5387611 -0.044112824
0000b0 c8 2a c4 3e 5b f1 60 3c 09 85 7a 3b 93 6d 23 be
       0.3831389 0.013729419 0.0038226268 -0.15959768
0000c0 17 99 27 3c 4e e2 dc 3d 9a b5 0b 3c 00 dd 3e b8
       0.010229371 0.10785352 0.008527184 -4.5505352e-05
0000d0 cb de 03 3c be e9 e5 3e 5b 88 bf 3d 4e 9e c2 3a
       0.008048723 0.44904894 0.093521796 0.0014848204
0000e0 ff 33 c1 3b 78 6c a7 be 70 7b 33 3f 11 c4 1f 3e
       0.005896091 -0.32699943 0.70110226 0.15602137
0000f0 d1 7e ba bb c3 a3 bb bd 49 bd 2e bc 8f 32 08 bd
       -0.005691387 -0.091620944 -0.010665246 -0.03325134
000100 22 f7 e3 bb 86 a7 61 be f8 5c 37 3c 08 3d dd 3c
       -0.0069569508 -0.22036561 0.011191599 0.027006641
000110 ec d7 e7 38 7e 66 fa bc 39 5e 3b bf c3 86 2b be
       0.00011055157 -0.03056645 -0.7319065 -0.16750626
000120 78 f2 08 be 33 2f 87 bd 1a 57 b5 bb 25 3f 21 bf
       -0.13373744 -0.066007994 -0.005534065 -0.62986976
000130 a3 72 3f bd 27 ce 9b 3c a8 a2 f4 3e d9 44 b7 bb
       -0.046740185 0.0190192 0.47780347 -0.005592924
000140 31 de 3a 3d 73 b8 b8 bd 1b 41 23 3e 8e 49 16 3c
       0.045622054 -0.09019556 0.15942805 0.00917281
000150 70 70 ca 3b 8a 2c 5d 3c e5 2d 0f 3f 11 53 10 3c
       0.0061779544 0.0134993885 0.55929404 0.008808867
000160 b8 26 d5 3c 97 bd 92 be d0 81 bb bd 81 ed f0 bb
       0.02601944 -0.2866027 -0.09155619 -0.0073525314
000170 b9 b2 77 3e 77 ff a7 3c 0f 81 99 bd 19 25 04 3c
       0.24189271 0.020507557 -0.07495319 0.008065485
000180 08 b7 8f 3e 9e d1 24 bd 82 98 ed bd 3e ca 94 3c
       0.2806933 -0.04023897 -0.11601354 0.018162843
000190 1a e3 60 be c2 1d 9a be ba 60 0e 3d 34 39 ff 3c
       -0.21961632 -0.30100828 0.034760214 0.031155206
0001a0 47 26 e8 3d 2b 46 7b ba 82 b7 b4 bb 74 ca 91 3e
       0.11335426 -0.0009585346 -0.00551504 0.28474772
0001b0 82 13 1a bf 34 42 93 3c e8 e7 a6 bb 75 d5 68 be
       -0.60186017 0.017975904 -0.0050935633 -0.22737677
0001c0 df 52 43 3c d9 6f 33 bc 37 bc 33 3f 58 eb 0d 3d
       0.0119216135 -0.0109519595 0.7020907 0.03464827
0001d0 a4 38 81 3e b8 dc 2a 3c f7 b7 25 be 16 b3 9b 3d
       0.25238526 0.0104286 -0.16183458 0.07602517
0001e0 7c 56 2d 3d 7c b0 5c 3e 36 84 de bd 5c 64 d9 bc
       0.042318806 0.21551698 -0.10865061 -0.026537113
0001f0 5e 87 69 bd 9f f6 0b 3e a3 40 21 bf 61 29 6f bc
       -0.05701386 0.13668297 -0.6298925 -0.014597268
000200 ee 3f cb 3d 83 c3 87 3e 01 f4 5b bc 81 91 27 bd
       0.09924303 0.2651635 -0.013424874 -0.040910248
000210 e8 19 33 bc 53 41 2f 3e a0 4e dd bb e4 83 40 bd
       -0.0109314695 0.17114763 -0.0067537576 -0.04700078
000220 e3 1e 69 bc 87 df 08 3f ff 7c 91 bd cc 1f 4c bd
       -0.014228555 0.53466076 -0.07103919 -0.04983501
000230 f0 27 96 ba b0 69 52 3f c4 3c fc be d6 62 f3 bd
       -0.0011455994 0.82192516 -0.4926511 -0.11884086
000240 d7 35 f5 bc 2f a3 2c bc 79 7f b1 3d f3 55 3e 3c
       -0.0299329 -0.010536953 0.086668916 0.011617172
000250 60 23 a9 3b 63 5f 20 bd 49 eb 02 bb 80 28 1f bd
       0.0051616877 -0.039153468 -0.0019976667 -0.038856983
000260 52 c0 81 3c 61 97 ab 3d de c1 01 bf 3f 1d b7 bc
       0.015838776 0.083784826 -0.5068644 -0.022352813
000270 77 2e b9 bd ed eb 0a 3e 09 4b 81 3c 29 98 90 be
       -0.090420656 0.13566561 0.01578285 -0.2824109
000280 95 68 3a bd d9 98 3f 3d 1d cb b6 be 07 7f 8a be
       -0.045509893 0.046776626 -0.35701838 -0.2705004
000290 d9 f2 5b 3c 0d 7f 85 3d d7 4b 05 3d c6 c5 bd bc
       0.013424599 0.06518374 0.03254303 -0.023165595
0002a0 6b cf b1 bc a0 d2 22 bd 9d 7e bf 3d 65 70 28 3a
       -0.02170535 -0.03975165 0.093503214 0.00064254395
0002b0 7d b5 35 3d 4e 19 fe bc 58 b8 cb 3c 39 c6 c8 3e
       0.044362534 -0.031017926 0.024868175 0.39213732
0002c0 6b 5b 98 3d b6 3a b8 3d 86 97 1f bc 7e ec d4 3d
       0.074393116 0.08995573 -0.009740716 0.1039667
0002d0 06 30 04 bf ba 97 7d bd 97 4e d6 bc 08 0a 9f bf
       -0.5163578 -0.061912276 -0.026160521 -1.2424936
0002e0 1c 06 05 3c 83 5a 95 3e 07 d1 69 bc 7d 6d 4e bc
       0.008119132 0.29170617 -0.014271027 -0.012599346
0002f0 56 f4 85 3b 4f b7 2b bd cf 70 14 be ba 23 ce 3d
       0.004087965 -0.041922864 -0.14496158 0.10065408
000300 04 49 80 bd 4e a0 4d bb d8 32 81 bc f7 1d 0c be
       -0.062639266 -0.0031376067 -0.015771315 -0.13683306
000310 6c f5 60 be 8a c3 f1 bc d2 5f ff bc d6 e0 80 3b
       -0.21968621 -0.029512186 -0.03117362 0.0039330525
000320 60 b1 7d bc 06 94 ab 3d ba bb b2 bc 2c d5 63 3c
       -0.015484184 0.083778426 -0.02181803 0.013905805
000330 6f 1e 28 bd 42 1d e3 3e e4 60 2e 3d 3c 43 d8 be
       -0.04104465 0.4435826 0.04257287 -0.42238796
000340 d2 9a 99 3b 36 ab 1e 3f 86 8f be 3c e9 70 13 3d
       0.0046876455 0.6198 0.023261797 0.03599635
000350 1d d0 b8 3b 74 8d c6 bc b3 5b 8f be 0c 31 d9 bb
       0.0056400434 -0.024237372 -0.27999648 -0.0066281613
000360 86 d4 61 3f 3c 75 28 3f ce 0b dc 3f 57 f4 15 be
       0.8821491 0.65803885 1.7191103 -0.1464399
000370 e6 3f 9a be 94 c1 f0 bd ba 04 82 bf 15 f2 9b 3d
       -0.30126876 -0.11755672 -1.0157692 0.07614533
000380 b9 ea 39 3e 42 8b 48 be 18 52 84 3e 8d fa 06 bd
       0.18155946 -0.19584373 0.25843883 -0.032953788
000390 fc 44 db 3d 00 4d 61 3c fa 24 ac 3d 86 93 bc 3e
       0.10706517 0.013751268 0.0840549 0.368313
0003a0 73 f6 56 be c4 0a a2 3c 83 68 a1 3d 6f 00 49 bc
       -0.2099245 0.019780524 0.07881262 -0.01226817
0003b0 9b 23 04 3e 04 e7 90 3c 6b 1d b5 bd a7 4e 29 bf
       0.12904207 0.017688282 -0.08843502 -0.6613564
0003c0 85 db 61 3d 7c 7a 83 bd 91 3e bc 3e 4f fd f9 3d
       0.05514099 -0.064198464 0.36766484 0.12206518
0003d0 6a ac 94 bb e4 02 cd 3d e1 9b 8d bd db 4c f3 3c
       -0.004537155 0.10010317 -0.06914497 0.029699733
0003e0 ce 33 f8 be dc bb 2f 3d d0 2f c2 3c 70 42 2a be
       -0.48477024 0.042903766 0.02370444 -0.16626906
0003f0 ba e8 98 bd b1 c1 e7 3d fa 73 bd 3e 68 cd dc bb
       -0.07466264 0.113162406 0.37002546 -0.0067383535

final.linears.2.bias f4 [10]
000000 f9 ed 25 3d ad c3 90 bd d4 9f d8 bd 21 36 34 be
       0.04051015 -0.07068572 -0.1057736 -0.17598774
000010 46 bf 24 be 79 da 7d 3b c9 4b 3f 3c 5f 17 67 3d
       -0.1608859 0.0038734956 0.011675783 0.056418773
000020 2b 47 73 3c c9 52 78 bc
       0.014848511 -0.015156456

layers.0.attn.0.gnn_q.weight f4 [10, 16]
000000 ff 03 7d 30 74 bf 25 3b ac aa 42 39 16 ad 5b b8
       9.204654e-10 0.0025291117 0.00018564862 -5.2374868e-05
000010 05 6a 98 bc 60 67 9e 3a 06 2a 98 b2 5a 84 a6 ba
       -0.018605242 0.0012085252 -1.7714239e-08 -0.0012704239
000020 6f f7 80 3a 36 8e 55 31 bc 07 fd b3 3c 55 1b 3c
       0.0009839366 3.1076417e-09 -1.17826374e-07 0.009480771
000030 68 d2 e0 bb bc 73 68 3b 96 42 15 bc 18 35 1b b6
       -0.00686102 0.0035469374 -0.009110114 -2.3127704e-06
000040 42 1b 9c 30 d0 53 cb bb 9b 84 11 38 de 5d d0 b4
       1.1358241e-09 -0.0062050596 3.4694192e-05 -3.8811316e-07
000050 6a 31 4c 3d f6 da ba 39 36 3e 40 31 39 c8 ea 38
       0.049851812 0.00035639823 2.797504e-09 0.00011195284
000060 98 6f 92 b8 7e d8 08 33 20 c8 2d 30 86 c2 0b bc
       -6.9826085e-05 3.1861866e-08 6.322143e-10 -0.008530265
000070 a3 d6 c2 3d b7 af 5c ba cf a1 b2 3d f7 af af 33
       0.09513595 -0.00084185175 0.08722269 8.18108e-08
000080 83 39 87 b1 5b f8 89 3c 5a 6c d8 39 60 2e 71 b8
       -3.9355554e-09 0.016842058 0.0004127946 -5.7502068e-05
000090 c0 87 4c be 37 ea 53 3b f3 9b bf 30 78 e0 20 39
       -0.1997366 0.0032335648 1.3941402e-09 0.0001534241
0000a0 54 1c 91 3a d7 78 3b b3 14 8d f1 32 35 50 36 3d
       0.0011071065 -4.3649234e-08 2.8120247e-08 0.044510085
0000b0 9a 9a c8 be 7a 74 30 ba 88 43 ad be 48 81 1e b6
       -0.39180452 -0.00067312235 -0.33840585 -2.3619086e-06
0000c0 6e cc 81 30 13 77 c5 bb 3a 6f 21 39 96 e8 08 b6
       9.444088e-10 -0.0060261576 0.00015395592 -2.0400962e-06
0000d0 6f 61 1c 3d b0 3a b9 38 f4 9d ea b1 c1 1d 32 ba
       0.038178857 8.832419e-05 -6.8282535e-09 -0.0006794595
0000e0 c6 ec 1c 39 44 b9 71 31 76 8b 8b b3 df cf 38 bc
       0.00014965524 3.5175427e-09 -6.49806e-08 -0.011280029
0000f0 30 ed 51 3d f8 8c 7f 3a 37 0c 46 3d 60 15 95 b4
       0.05125159 0.0009748484 0.048351493 -2.7768965e-07
000100 98 cd e1 30 86 0f 96 bb 6a af dd b8 3f f3 80 37
       1.6429338e-09 -0.0045794873 -0.000105707746 1.537206e-05
000110 48 e2 54 3d a9 e8 06 ba 5f 06 04 b2 7e c6 2d ba
       0.05197361 -0.00051463634 -7.68486e-09 -0.0006629004
000120 f4 c7 93 b9 d5 07 37 33 06 23 fa b3 3c a2 5a bc
       -0.00028187002 4.261513e-08 -1.1647903e-07 -0.013344344
000130 db 34 a8 3d 5b 40 a2 3a 3e a3 9d 3d 79 41 3b 35
       0.082132064 0.0012378799 0.076971516 6.9758204e-07
000140 b8 0c 6f b0 f0 ac a9 3b ff 18 a5 b8 74 fb 51 37
       -8.696577e-10 0.0051780865 -7.872469e-05 1.2515917e-05
000150 97 74 81 bb e0 fa b4 b8 0c 0c 81 b1 cc 5c b9 b9
       -0.003950666 -8.629798e-05 -3.7557637e-09 -0.0003535509
000160 24 1c d1 b9 41 f6 fd 32 37 d9 0b b4 c1 07 c5 3b
       -0.00039884553 2.956506e-08 -1.3024406e-07 0.006012887
000170 4d d2 1a 3c 54 e1 7d 3a c3 e4 e4 3b ad b2 03 35
       0.009449554 0.00096847606 0.0069852783 4.906131e-07
000180 eb 52 97 2f 86 20 05 bc 3a 10 ab b8 c6 c2 39 37
       2.7525657e-10 -0.00812543 -8.156938e-05 1.10722085e-05
000190 63 34 b8 3c b0 e6 b9 b9 a4 c0 6d 31 3f 65 0d 39
       0.022485917 -0.00035457825 3.4597543e-09 0.00013484525
0001a0 82 ed 5b 38 c6 6e b8 30 0c 17 86 32 c4 3a 2d bc
       5.2434865e-05 1.3419246e-09 1.5610134e-08 -0.010573093
0001b0 a2 2c 89 3c ae fb ac ba 09 35 87 3c 1c d7 ad 34
       0.016744915 -0.0013197565 0.016504781 3.2380274e-07
0001c0 b0 94 a2 b1 29 1c ed 38 c0 52 91 39 aa c0 ba b7
       -4.7317243e-09 0.00011306286 0.0002771821 -2.2262644e-05
0001d0 74 e6 06 bb ff 13 07 3a 29 5f c5 30 40 20 6e b9
       -0.0020584138 0.0005152821 1.4360683e-09 -0.00022709463
0001e0 e9 48 4f 3a 36 22 4b b3 15 99 af 33 f1 9c da 3a
       0.0007907288 -4.7295735e-08 8.176918e-08 0.0016678852
0001f0 3e 82 f4 ba 1e bb a6 b9 6a ba 62 bb 10 c4 91 b5
       -0.0018654538 -0.000318014 -0.0034595975 -1.0860404e-06
000200 95 ef 17 31 41 26 e7 3b 21 e5 50 39 08 07 d6 b7
       2.2109579e-09 0.007054121 0.00019921783 -2.5514062e-05
000210 b3 3b 74 3c c4 aa be 39 b9 c5 1d 32 9b 0c 89 3a
       0.0149068115 0.00036366854 9.18356e-09 0.0010456027
000220 0b de 73 3a 57 f2 7f 31 bb b1 81 34 06 15 6d 3b
       0.00093028013 3.7245138e-09 2.4157438e-07 0.003617586
000230 e6 73 56 3d eb e7 12 bb c0 68 3c 3d 06 e2 cb b5
       0.052356623 -0.0022416066 0.045998335 -1.519046e-06
000240 a3 57 bb b0 5a 8d 57 3b ad 3d 14 b8 66 34 2a 37
       -1.3630949e-09 0.0032890649 -3.534339e-05 1.014499e-05
000250 87 e6 66 bc 86 02 73 b9 85 48 f9 b1 0f 40 28 ba
       -0.014093048 -0.00023175226 -7.2550983e-09 -0.0006418237
000260 f3 38 0a ba 15 c2 3d 32 45 5d 66 b3 92 0c b8 3b
       -0.00052727683 1.1045377e-08 -5.3635876e-08 0.005616733
000270 37 f6 2d bb 28 6e 0c 3b a4 4b 9e bb 1e ec 30 35
       -0.002654446 0.0021427963 -0.0048307944 6.5908705e-07

layers.0.attn.0.gnn_q.bias f4 [16]
000000 95 a2 9d 30 4c 36 94 3c b1 df b5 b9 72 cd 75 38
       1.1469462e-09 0.018092297 -0.00034689673 5.8603888e-05
000010 98 d8 d5 bd 6a 05 28 bb 3c 97 f2 30 16 53 49 39
       -0.104417026 -0.0025637993 1.7650801e-09 0.00019199806
000020 e7 b9 7a ba 28 81 91 32 be 8a 5b 32 1c f4 15 3c
       -0.0009564445 1.6938955e-08 1.2779024e-08 0.0091524385
000030 7e ee 90 be a3 36 c5 b9 37 ef 62 be c9 fc 02 36
       -0.28306955 -0.00037615476 -0.22161566 1.951865e-06

layers.0.attn.0.gnn_k.weight f4 [10, 16]
000000 bc 70 87 30 df 0f 3e bb 1a c7 9a 39 ca bd 4b b8
       9.854584e-10 -0.002900116 0.0002952151 -4.8575726e-05
000010 c6 83 8b 3b 54 f8 2e 3b b0 a7 6c 32 9b b6 81 3a
       0.004257652 0.0026698308 1.3775136e-08 0.000989634
000020 da 6d bc 3a 00 4f 44 b1 3a 08 02 34 4d f3 34 3b
       0.0014376 -2.856666e-09 1.2110186e-07 0.002761084
000030 6d d9 e4 3b 04 04 6e bb 04 8d 7b 3b 94 f6 2b b6
       0.006983927 -0.0036318311 0.0038383612 -2.5624513e-06
000040 e5 95 9f 30 ec 38 c8 3b 5c 39 d4 37 27 10 0a b5
       1.1611375e-09 0.0061103012 2.529908e-05 -5.143251e-07
000050 d9 1c 42 bd 5a e6 85 39 d3 98 b2 b0 d1 fa ba b9
       -0.047390793 0.00025539362 -1.299464e-09 -0.00035663557
000060 19 65 06 b9 be 9c 05 33 c4 38 20 b2 ab f2 20 3c
       -0.00012816898 3.1109032e-08 -9.326133e-09 0.009823482
000070 fe 25 c3 bd 1f df 50 3a be 41 b1 bd d3 1d 1d 34
       -0.09528731 0.0007967818 -0.086551175 1.4632614e-07
000080 fa 42 88 b1 e6 5a 91 bc 38 f5 bf 39 b0 cb 79 b8
       -3.9657353e-09 -0.017743539 0.0003661306 -5.9555925e-05
000090 fd 51 08 3e 27 c2 2d 3b 26 5a 64 b1 24 8c f3 b9
       0.13312526 0.002651343 -3.322961e-09 -0.00046452985
0000a0 15 f7 7f 3a 4b 78 41 b3 7b 40 c0 31 f2 5e 08 bc
       0.0009764296 -4.504572e-08 5.595266e-09 -0.008323418
0000b0 a8 99 c8 3e 03 db 37 3a d3 1b 9f 3e b2 d1 17 b6
       0.3917973 0.0007013531 0.31075916 -2.2622812e-06
0000c0 ea 5d a0 30 68 82 c6 3b f6 ca 15 39 ce e2 ed b5
       1.1668224e-09 0.006058026 0.00014285356 -1.7723885e-06
0000d0 52 96 0b bd 28 4b 96 38 d8 75 a0 31 c8 67 97 39
       -0.034078903 7.166556e-05 4.67001e-09 0.00028878287
0000e0 0f 55 8b 39 68 1d 52 32 ab f7 0b 34 51 e5 b4 3b
       0.0002657552 1.2230295e-08 1.3035485e-07 0.0055205007
0000f0 91 14 54 bd 76 d9 65 ba 26 d7 4d bd c2 36 b6 b4
       -0.051777426 -0.0008768061 -0.05025401 -3.3939983e-07
000100 ca 39 f7 30 01 37 9d 3b 5f a6 f2 b8 85 8e 77 37
       1.798804e-09 0.0047978167 -0.00011570448 1.475553e-05
000110 d5 e6 78 bc 31 c1 56 ba 9a 1c dd 31 5b de 53 3a
       -0.015191753 -0.000819224 6.435198e-09 0.0008082145
000120 97 03 72 b9 aa ed 24 33 e9 08 06 34 01 41 99 b9
       -0.00023080256 3.840038e-08 1.2482964e-07 -0.00029230866
000130 0e f6 9c bd ea 49 9f ba 1f f1 59 bd d2 44 45 35
       -0.07664119 -0.0012152765 -0.053208467 7.3488366e-07
000140 0e 0e 44 b0 4d 5b aa bb c0 e8 a0 b8 e5 5f 6c 37
       -7.132436e-10 -0.005198872 -7.6727476e-05 1.4089023e-05
000150 d2 e4 92 3c 76 7b 66 b8 be 15 8f 31 a8 51 2e 39
       0.017931376 -5.4951255e-05 4.1643196e-09 0.00016624352
000160 1d f2 a9 b9 92 a2 ba 32 b1 03 08 34 ff 87 f8 bb
       -0.0003241458 2.1727178e-08 1.266733e-07 -0.0075845714
000170 1a 9e 0e bc 01 25 80 ba d0 54 7e 38 d4 b8 05 35
       -0.008704687 -0.0009776653 6.0637307e-05 4.981532e-07
000180 9c d5 b3 2f ca a1 06 3c 93 f1 f8 b8 6a a3 22 37
       3.271169e-10 0.008217284 -0.00011870558 9.694e-06
000190 69 19 02 bd a4 3c 7a ba 4b 3f a4 b1 39 44 8d b9
       -0.031762514 -0.00095457793 -4.7802238e-09 -0.00026944446
0001a0 0e 39 2e b8 21 17 1e 32 8c 3b 65 b2 f6 48 39 3c
       -4.153797e-05 9.202069e-09 -1.3343094e-08 0.011308899
0001b0 d8 27 90 bc 7a 54 aa 3a c6 b7 a6 bc 6a b3 b5 34
       -0.017597124 0.0012995147 -0.020351302 3.3844418e-07
0001c0 b7 7d a2 b1 2a 80 4e b9 8e 7e 92 39 2f 68 bf b7
       -4.7291127e-09 -0.00019693436 0.0002794158 -2.2817489e-05
0001d0 15 90 ef bb a5 42 3a 3a a0 e6 af b1 38 8b 9c b9
       -0.007310877 0.0007105268 -5.1193894e-09 -0.00029858365
0001e0 99 ad 58 3a 0c 55 56 b3 94 a8 c9 b3 a6 0a d3 3a
       0.0008265614 -4.9903107e-08 -9.390456e-08 0.0016101196
0001f0 9a c0 b3 3a ff 7c b9 39 76 ef b0 ba 93 14 9c b5
       0.0013714016 0.0003537908 -0.0013499099 -1.1628894e-06
000200 9d da 08 31 b9 a4 e6 bb 0b d6 31 39 c5 e8 e4 b7
       1.9914872e-09 -0.0070386794 0.00016959773 -2.728811e-05
000210 24 17 54 3c 20 0d d9 39 00 6e 5a b2 ad ce 50 ba
       0.01294497 0.00041399244 -1.2714281e-08 -0.00079653674
000220 78 83 6b 3a 31 78 cf 31 01 01 7d b4 0a 23 5f bc
       0.0008984129 6.038157e-09 -2.3562826e-07 -0.013619194
000230 dd 72 4b bd d4 b3 19 3b b5 97 fb bc 2f bd d1 b5
       -0.04967009 0.0023453133 -0.030711988 -1.5626773e-06
000240 7c de af b0 51 c0 5d bb 96 f7 cc 37 58 c7 58 37
       -1.279616e-09 -0.0033836553 2.4433986e-05 1.2921017e-05
000250 01 f9 6b 3c c2 e4 03 3a 91 6e 22 32 53 24 24 3a
       0.014402629 0.0005031341 9.454781e-09 0.0006261516
000260 7e 91 9f b9 66 d5 1e 32 f0 74 7d 33 66 01 72 bb
       -0.00030435243 9.245332e-09 5.9012507e-08 -0.0036927103
000270 ca d4 70 3b 66 a5 11 bb 1d f9 c8 3b 7a 10 1d 35
       0.0036747926 -0.002222383 0.0061332122 5.8511034e-07

layers.0.attn.0.gnn_k.bias f4 [16]
000000 8a a8 a2 30 80 e4 8c bc bb ac ac b9 ee 66 76 38
       1.1834953e-09 -0.017198801 -0.0003293509 5.874683e-05
000010 54 d0 3e 3e b1 bc 1d bb c0 52 8c af d5 87 98 b8
       0.18634158 -0.0024068768 -2.552465e-10 -7.2732255e-05
000020 f0 c4 75 ba 49 85 a1 32 a3 02 4a b3 bf 37 31 bd
       -0.0009375354 1.8803478e-08 -4.7034188e-08 -0.043266054
000030 c9 ea 92 3e d0 f5 ad 39 ab 12 89 3e b5 1a 00 36
       0.28694752 0.00033180276 0.26772055 1.9089032e-06
