checkpoints/ames_50_train1_pos/Aug22-21:35:09_740.pth (torch, 377407 bytes, 294 tensors)

layers.0.weight f4 [10, 16]
000000 ad b0 bf 3e ff a7 8f 3f 77 8b ed bd c1 c1 ce 3e
       0.3743948 1.1223143 -0.115988664 0.40382197
000010 e1 4f 0f 3e 1c db 1c 3e b0 7b 1d be ec 16 98 3f
       0.13995315 0.15317959 -0.15379214 1.1881995
000020 9b 58 65 3f 5f d4 b7 bf 82 da a4 be cc 8c 0a 3d
       0.89588326 -1.4361686 -0.32197958 0.03382568
000030 af 70 79 bd 98 fd a0 3f 83 a0 04 bd 58 d4 f1 be
       -0.06089848 1.2577391 -0.03237964 -0.47232318
000040 6a 7d 92 3f 21 c4 7e bc 15 67 e0 be cf 09 4c 3f
       1.1444523 -0.01554969 -0.43828645 0.79702467
000050 f4 da 55 be c3 f0 a6 be 55 0a 5f be ab 9c 4b 3e
       -0.20884305 -0.32605562 -0.21781285 0.19883983
000060 99 d0 c4 bf 60 01 40 be 8e 3a 46 bf ba 5e 72 bc
       -1.5376159 -0.18750525 -0.774331 -0.014793092
000070 6e ab 9b 3e 8b b4 54 3e 5a c9 b0 3f c0 53 82 be
       0.30404228 0.20771997 1.3811448 -0.2545452
000080 c9 d7 cc 3e 89 29 4f 3d 02 28 84 be 49 c7 96 3d
       0.4000838 0.05057672 -0.25811774 0.073622294
000090 48 fa 8b 3e cb 48 c8 3e 30 fa 93 3c 72 67 e4 3c
       0.27339387 0.39118037 0.018063635 0.027881358
0000a0 87 9b 99 3e b0 dd 8d be 22 1d 13 3f 38 1c fc 3f
       0.3000147 -0.27708197 0.5746633 1.9696112
0000b0 72 74 05 3f 71 05 d7 be a5 73 d0 3e 9a a3 e9 3e
       0.52130806 -0.4199634 0.4071323 0.4563263
0000c0 6f 90 a7 3e d8 18 52 bd 66 06 0c bf 83 d0 8d 3d
       0.32727382 -0.051293224 -0.54697263 0.06924536
0000d0 c5 11 c1 bf 42 e8 bc 3e da 5d 7d 3f bb c4 3b bb
       -1.5083548 0.3689595 0.9897133 -0.0028651196
0000e0 b6 57 b2 3e 56 36 90 be 5d 57 8d 3f 68 a3 9f be
       0.34832543 -0.28166455 1.1042286 -0.31179357
0000f0 ac cb 46 3e 51 ee d4 be 19 54 c0 3e c0 67 52 bf
       0.19413632 -0.4158807 0.3756416 -0.8218956
000100 a4 50 bf 3e 82 9a ff bd 44 96 6d 3f 6b 1e 1b 3e
       0.3736621 -0.12480642 0.9280741 0.15148322
000110 f3 21 5d 3e c4 df 80 3e 58 c3 cc 3f 49 57 01 bd
       0.21594982 0.2517072 1.5997114 -0.031577382
000120 e5 ab b4 3e b3 e5 23 bf 9e 6c 23 bf f7 6c 24 bf
       0.35287395 -0.6402237 -0.6383761 -0.6422877
000130 00 db 9b 3e 94 33 39 be e3 f7 8f 3e 51 0d 95 3f
       0.3044052 -0.18086082 0.2811881 1.1644689
000140 02 bc 58 3f 1f 94 39 bf 8a 33 b4 3c e9 f5 a1 bd
       0.8466188 -0.7249164 0.021997232 -0.07908232
000150 ee 14 15 3f 75 8e 58 3f e9 93 7c 3e e4 e4 8d bf
       0.5823506 0.8459237 0.24665798 -1.1085477
000160 fb 53 ae be 58 5b 14 bf 7f 7f 23 3e dc 67 44 3c
       -0.34048447 -0.5795188 0.15966605 0.011987653
000170 6c c3 cd 3e eb 95 7f 3f 63 01 89 bf f0 ab 45 bf
       0.40188158 0.9983813 -1.0703548 -0.7721548
000180 0c 8e 8e 3d 14 e3 15 3f bc 90 88 bb 55 b3 5e bf
       0.06960687 0.5854962 -0.0041676443 -0.8699239
000190 c5 f6 1a 3e e2 7a 5f bc b6 19 27 be 56 5e be bf
       0.15133198 -0.013640137 -0.16318402 -1.4872539
0001a0 85 f5 cd bd 8d de 41 bf 60 21 6c be 35 3d 96 3d
       -0.10056595 -0.7573021 -0.23059607 0.07335893
0001b0 2c da 47 bf a6 d1 c5 3c 95 08 bf 3f e0 ee ca be
       -0.7806728 0.02414782 1.4924494 -0.39635372
0001c0 fa 74 5e 3f 43 04 27 bf 64 28 c1 be 0f e3 95 be
       0.8689724 -0.6524088 -0.37726128 -0.29274794
0001d0 e0 e2 9b 3d 07 58 b9 bf 26 de e8 bd 72 1f f8 bc
       0.07611632 -1.4479989 -0.113704965 -0.030288432
0001e0 36 f6 0d 3f f5 4a 2f bf 27 f7 91 be fc af 7e bd
       0.55453813 -0.6847375 -0.28508875 -0.06217955
0001f0 a6 6e 9e 3e 97 43 09 bf f3 4b b4 be 1a 36 e0 be
       0.30943793 -0.5361876 -0.35214195 -0.43791276
000200 a8 88 40 3f 6c b8 48 3e 2b c7 b8 3f 82 dd 2a 3e
       0.7520852 0.19601601 1.4435781 0.16686061
000210 90 42 06 bf 42 c9 e2 3e e3 36 59 bf ea 7e 2e be
       -0.52445316 0.44294173 -0.84849375 -0.17040601
000220 27 28 c9 3d fe 8f f3 bd c2 0e c6 be 1a 5a 98 bd
       0.098221116 -0.11892699 -0.38683134 -0.074390605
000230 aa c6 df 3e 1b 3c 9b bf 5e c6 a8 bd b1 54 01 bf
       0.43706256 -1.2127718 -0.082409605 -0.50519854
000240 6a 11 b4 bf 29 1b 8a 3e 20 74 75 3e 45 f9 86 3f
       -1.4067814 0.26973847 0.2397008 1.0544821
000250 b4 44 20 3f 81 78 64 bf eb ee 01 3e 41 73 5e bf
       0.6260483 -0.89246374 0.12688796 -0.86894614
000260 9f 9f 83 be 41 8d 91 bf 76 4e 51 3f 14 24 84 bd
       -0.2570772 -1.1371232 0.81760347 -0.06452194
000270 1c c3 ca 3d 49 e2 ac be ad d7 30 be e5 60 4a be
       0.099004954 -0.33766392 -0.17269774 -0.19763525

layers.0.bias f4 [16]
000000 7a 5d 92 bd ee 6b 16 bf 82 c3 55 be 56 81 17 3f
       -0.071467355 -0.5875844 -0.20875362 0.59181726
000010 c3 1d 95 3e 66 74 8d 3e a3 8f 0c bf 03 e2 09 3c
       0.2912427 0.27627867 -0.5490667 0.008415702
000020 f4 87 ba 3e 60 ab c9 3d 87 f7 97 be 33 47 48 bf
       0.3643185 0.0984714 -0.29681036 -0.7823364
000030 c9 15 58 bf c1 1f ea bd 53 b2 be 3c 46 57 49 be
       -0.8440824 -0.11431838 0.023278391 -0.19662198

layers.1.weight f4 [16, 16]
000000 09 c0 a5 3d f0 c9 d0 3d e0 41 4f 3d 21 c7 a8 bf
       0.080932684 0.101947665 0.050599933 -1.3185769
000010 e2 da 85 bd 65 ea 3e bf 80 e9 22 bb 85 65 6b 3e
       -0.06535889 -0.7457641 -0.0024858415 0.22987945
000020 d6 87 10 3e d9 86 83 bf 97 fe 42 be 6b 06 b1 bd
       0.14114317 -1.0275527 -0.19042431 -0.08643802
000030 79 75 c4 bd f7 68 86 3d 51 df 87 be be f0 33 bf
       -0.09592719 0.06562989 -0.26537564 -0.7028922
000040 f8 99 68 3d 8e 7a 0f 3e 2f 6b 3f 3f ee 0b d9 3d
       0.05678746 0.14011595 0.74772924 0.105979785
000050 a4 9b ab 3e 0a de e5 3e 87 87 70 bd 15 34 4c bf
       0.33517182 0.44895965 -0.058723 -0.7976697
000060 95 94 37 3f 06 50 8b 3e e5 03 24 3b 19 5e 33 be
       0.71711093 0.2720949 0.0025026735 -0.17516364
000070 1a db 1e be 02 c8 b8 be b4 cc b3 3e 2e ab 21 bb
       -0.15513268 -0.36090094 0.35117114 -0.0024668681
000080 7e fe 4e 3e 18 03 c2 3e fa c5 59 bd dc 89 5d 3e
       0.20214269 0.37892985 -0.05316732 0.2163462
000090 37 4e 8c 3e 68 f7 0f be 29 4e c7 3e 8a e3 c9 3d
       0.27403423 -0.14059222 0.3892682 0.09857853
0000a0 ee e1 4c bc f9 a3 69 bf a8 6f 10 3e 5e f2 b6 3d
       -0.012505038 -0.9126583 0.14105093 0.089329466
0000b0 71 1d 3a 3f 79 f8 8d be e8 5e 02 3e c8 27 b0 be
       0.72701174 -0.27728632 0.12731516 -0.3440535
0000c0 92 1f 40 bd 12 b3 23 3e b2 d0 5d 3f 8a 15 bb 3e
       -0.046905108 0.15986279 0.8664657 0.3653987
0000d0 dd 00 d1 be ad 76 e0 be ea b8 fa 3c 2b af 6b bc
       -0.4082097 -0.43840542 0.030605752 -0.014385025
0000e0 fc d7 35 3c 66 c2 f0 bd d5 24 ea 3d 81 94 11 3e
       0.011098858 -0.117558286 0.114328064 0.14216806
0000f0 be a0 62 bd 38 a7 49 3e a9 5b c0 be e7 53 4a 3d
       -0.055329077 0.19692695 -0.3756993 0.04939642
000100 41 68 dd be 3f 96 6d 3f aa c9 d2 3e ec b0 a5 3e
       -0.43243602 0.9280738 0.41169482 0.32361543
000110 65 7c b9 be 39 6e aa bb 75 01 00 bf ce 0b 18 3f
       -0.36227718 -0.005201128 -0.50002223 0.5939301
000120 6a 26 87 be 17 2b 0b 3f 43 e1 a9 bb a2 bc 5f be
       -0.26396495 0.54362625 -0.005184324 -0.21849301
000130 4c 71 6a 3f 77 52 3c be 5e 14 e7 bd 91 6a 9d 3e
       0.9157913 -0.18390833 -0.112831816 0.30745366
000140 b2 c6 c7 3d 60 2f 2d 3c ad 9b eb bd 3c 57 86 be
       0.09754695 0.010570377 -0.11504302 -0.2623843
000150 87 b9 87 be 01 f6 31 bf 5f af 30 be 6e 06 7f 3c
       -0.26508734 -0.69516 -0.17254399 0.015565498
000160 6f d7 0c bf e5 13 fe 3d 05 c0 fc bd 47 76 90 bd
       -0.55016226 0.12406138 -0.12341312 -0.070538096
000170 74 61 a1 be 8d 2d 8e 3e c9 51 b5 be 26 a0 97 be
       -0.31519663 0.27769127 -0.3541396 -0.2961437
000180 e7 96 ea 3e ed 7d 5b bf 06 b7 ec bd 0a 42 fe 3d
       0.45818254 -0.8573902 -0.115583465 0.1241494
000190 7f 72 ed 3e 4c 91 86 bf 72 b4 0e 3f 15 57 f8 3d
       0.46376416 -1.0513091 0.5574409 0.121259846
0001a0 95 98 c9 be 05 9b 11 3f 3c a5 34 be 80 6e df 3d
       -0.39374223 0.56877166 -0.17641157 0.10909748
0001b0 1c 35 82 3d 23 ef 4b be 09 3b df bd d3 13 be bf
       0.06357786 -0.19915442 -0.10899932 -1.48498
0001c0 7a c7 16 bd 1a e4 52 3e 84 8f 02 3f 0b 14 dd be
       -0.03681133 0.20594826 0.5100024 -0.43179354
0001d0 38 d4 4c bd ca 7a 93 3c ff 3a af 3b a3 00 03 c0
       -0.050007075 0.018002886 0.005347609 -2.0469139
0001e0 d1 0d f1 be 76 c2 8a be ad 5d e8 3c 2e 78 ab bc
       -0.47080854 -0.27101487 0.02836498 -0.02093133
0001f0 42 c6 0e be 91 a7 6e 3d 2c dc 3c 3d 5c 27 c9 3c
       -0.13942817 0.058265273 0.04610841 0.0245549
000200 99 04 a2 bd 26 71 93 be 9c 21 f7 3e 55 4c 9d 3d
       -0.07911033 -0.28797263 0.4826783 0.07680575
000210 77 c2 86 be 4e 06 25 bf aa 89 e3 bd d1 07 5a bf
       -0.2632024 -0.64462745 -0.11110242 -0.85168177
000220 03 11 4d bf df b5 a9 3e 57 8a a5 bd 8e 30 85 bc
       -0.8010408 0.3314657 -0.08083027 -0.016258504
000230 52 1b 5f 3d 45 89 f3 3d 7a f4 bf be 7e 76 a7 be
       0.054469414 0.118914165 -0.37491208 -0.3270759
000240 30 31 21 be 9e 8b a8 3e 8e a9 d4 bf 33 3a 32 bc
       -0.1574142 0.3291902 -1.6614244 -0.010878134
000250 7c 74 8f bd 22 b8 39 3f 32 a9 5d bd 23 fa 0e bf
       -0.070046395 0.7254659 -0.054116435 -0.5585043
000260 56 aa dc be 25 fb 57 be 98 96 a2 3e ed e3 95 3c
       -0.43098706 -0.21091898 0.3175552 0.01829716
000270 c2 dc 33 be 73 74 9f 3d 8f 81 7e 3e 6a bb 29 3f
       -0.17564681 0.07785883 0.2485411 0.66301596
000280 4b a1 6f bd 42 9f 42 bf 1c 87 7e 3d f5 a2 43 3f
       -0.05850343 -0.7602426 0.06214057 0.7642053
000290 7f 38 13 be e9 4c f1 be af 59 30 be 51 dc 9c 3e
       -0.1437702 -0.4712899 -0.17221712 0.30636838
0002a0 58 a0 1c bf a6 1f b4 3e db a4 59 be 00 84 90 be
       -0.61182165 0.35180396 -0.21254294 -0.28225708
0002b0 4f 90 82 bf 34 f7 6b bb f4 d8 b8 bd 98 18 1f bf
       -1.020029 -0.00360055 -0.090257555 -0.621469
0002c0 fa f2 8a be b1 2a 18 3e fb 70 39 bd cf f9 45 bd
       -0.271385 0.14860035 -0.045273762 -0.04833394
0002d0 f3 0f 83 be 2a 41 9a bf 51 e6 df bf 39 e6 84 bd
       -0.25598106 -1.2051136 -1.7492162 -0.06489224
0002e0 14 a3 c9 3c 65 c3 16 be 81 c9 59 3e aa 11 4d be
       0.024613895 -0.14722975 0.21268274 -0.2002627
0002f0 b9 c5 e4 be 0c 09 be be ce c9 57 be 39 e1 ab bf
       -0.446821 -0.37116277 -0.21073076 -1.3428108
000300 d7 2a 44 3e 34 ae e3 3c b9 fb ef 3d 60 29 89 be
       0.19156967 0.027793027 0.11717934 -0.2678938
000310 ec 27 d0 3e 4d 47 a5 be 5b 99 af be f5 2f 1f 3e
       0.40655458 -0.3228096 -0.34296688 0.15545638
000320 4d a0 8b be f1 ee 1c bf b4 c8 a3 be 6e 27 e5 be
       -0.27270737 -0.61302096 -0.31989062 -0.44756645
000330 50 45 0e be 96 cc c9 be 89 45 40 3e 74 b0 49 bf
       -0.13893628 -0.394139 0.18776526 -0.7878487
000340 33 6c 17 3d fe 9b 3c 3d f8 a3 84 3f 53 2a ea be
       0.03696842 0.046047203 1.0362539 -0.45735416
000350 d3 49 36 3e 44 c9 39 3f e5 df 48 3e c0 68 67 be
       0.17801599 0.7257273 0.19616659 -0.22598553
000360 6a 1e 07 be c3 d2 94 3f 45 e3 3f 3e c0 69 91 3d
       -0.13195196 1.1626819 0.1873904 0.07100248
000370 0b f6 6d 3e a7 69 89 be c2 26 94 3e 68 9d 0c 3f
       0.23238389 -0.2683842 0.2893582 0.5492768
000380 1e 9c 65 3e d7 2c 00 3e 36 ff 8e be 0c e6 81 be
       0.22422835 0.12517105 -0.27929085 -0.25370824
000390 28 b0 0f be c0 d1 14 bf f3 32 8d bd 3a 0b 40 be
       -0.14032042 -0.58132553 -0.068944834 -0.18754283
0003a0 8a 5c ea 3f 30 cd 1d 3f 5f 62 82 be ad 1d 1c be
       1.8309491 0.61641216 -0.25465676 -0.15245695
0003b0 60 e6 9f be 34 36 30 3e 5c d3 75 be 1d d2 fd be
       -0.3123045 0.17208177 -0.24006408 -0.49574366
0003c0 2b 29 04 3e 9b 01 32 3f e3 56 29 bf 5d e3 35 3e
       0.1290633 0.695337 -0.66148204 0.17762513
0003d0 4a 2e c0 3d 5b 86 4a bf 2a 38 35 be 6b 8f f9 be
       0.09383829 -0.7911126 -0.17697206 -0.48742232
0003e0 4e 2c 8d be 32 89 b9 3e d7 56 8e bd 33 85 67 be
       -0.27572864 0.36237484 -0.06950157 -0.22609405
0003f0 1b d5 51 3f 77 09 d8 be 4a 75 8c be 16 b4 13 bf
       0.819658 -0.4219472 -0.27433234 -0.57696664

layers.1.bias f4 [16]
000000 91 56 d2 3e bb 2c ab be fe 5f 29 be 77 c9 1a be
       0.4108167 -0.33432564 -0.16540524 -0.15115915
000010 3a 32 23 be 45 35 d1 be d7 c3 2b bf 63 50 ba bd
       -0.15937129 -0.40860954 -0.670957 -0.09097364
000020 76 27 74 3e c3 f6 57 be 28 36 13 3b ba c3 ce 3e
       0.23843178 -0.21090226 0.00224627 0.40383703
000030 05 1b a8 be 76 3f 6d bf e5 92 ee 3d 84 a5 69 bf
       -0.32833114 -0.9267496 0.11649112 -0.9126818

final.linears.0.weight f4 [84, 42]
000000 8f 08 08 bd 1a a9 36 be 2f 51 10 bf 5a 0a 2a bf
       -0.033211287 -0.17837945 -0.56373876 -0.66422045
000010 8b 92 17 bf 56 65 b2 bf d2 d0 70 bf f4 48 c6 be
       -0.5920798 -1.3937175 -0.94068635 -0.38727534
000020 45 42 06 bf 34 c5 8c 3e 2d 79 9e be d7 e0 43 be
       -0.5244487 0.27494204 -0.30951825 -0.19128738
000030 c2 77 46 3d 28 ac d1 bd 7c a4 cd 3d ac 46 25 bd
       0.048454054 -0.10237914 0.100411385 -0.0403506
000040 25 a9 3e 3e 20 19 83 bd 83 f7 13 be f2 9b 69 3e
       0.18619211 -0.064012766 -0.14449887 0.22813395
000050 d5 c3 22 3e 81 a1 4d 3e 33 66 2c 3e 49 85 29 3e
       0.15895016 0.2008114 0.16835861 0.1655475
000060 0c 68 7d be 13 8d a9 3d 6c 55 23 3c e2 a6 e0 3d
       -0.24746722 0.08278861 0.009969097 0.1096933
000070 01 17 6f 3e 83 43 52 be 78 a5 75 3c d7 67 1f 3e
       0.23348619 -0.20533566 0.014993064 0.15566956
000080 9d 93 82 bd c9 c1 c6 bd 1a f8 18 3e 44 ab 40 bd
       -0.06375811 -0.0970493 0.14938393 -0.04703833
000090 11 04 13 be cc 3b a0 3e 1e e1 57 bd 15 2d cb 3d
       -0.1435702 0.3129562 -0.052704923 0.09920708
0000a0 60 60 ee bd 29 0f 88 be 00 57 c7 bd c8 f1 20 bf
       -0.11639476 -0.26574066 -0.09733391 -0.6286893
0000b0 e7 52 78 bf e3 9a 88 3f e2 ca 68 be 73 03 f0 be
       -0.970015 1.0672268 -0.22733644 -0.46877632
0000c0 76 8f 0d 3f b5 e3 dd 3a 7a 3a b0 be 58 f3 4a bf
       0.5529703 0.0016928824 -0.34419614 -0.79277563
0000d0 0c 45 6b bd df fc c2 bd 2e 5b 61 3e 99 3c 80 3f
       -0.057438895 -0.095208876 0.22007439 1.0018493
0000e0 7d 75 b9 3f d8 de 07 3e 2b ea 24 bf 38 ed 08 be
       1.448898 0.13268602 -0.6441981 -0.13371742
0000f0 b0 48 2a bd a5 64 5d be b4 e4 19 bc 8a e1 82 3f
       -0.041573226 -0.21620424 -0.009392906 1.0225079
000100 8f 73 42 3f d2 6f fd bc ab f5 77 bc 5c 0b 43 3f
       0.7595758 -0.03093711 -0.015134255 0.7618921
000110 60 4d 77 3e e4 dd f2 bd 82 80 b9 bd a3 bf 23 be
       0.2415061 -0.118587285 -0.09057714 -0.15991072
000120 0f e8 c4 3e 3b 79 7d 3e 1d 6e ea 3e ea fe 5a bd
       0.38458297 0.24753277 0.45787135 -0.05346576
000130 5a 66 16 bd 03 a0 06 3d 0a f2 ee be 93 cb 95 3e
       -0.036718704 0.032867443 -0.46669036 0.29256877
000140 69 f1 32 be 6b 16 57 3f 1e 43 42 3e 5d 89 b5 bd
       -0.17474903 0.8401858 0.18970916 -0.088640906
000150 58 b0 e7 be fe 63 90 bc 31 24 50 3e 07 74 d2 3e
       -0.45251727 -0.017625805 0.20326306 0.41104147
000160 f0 86 8f 3e 96 eb cc 3e 7e b8 7e bf ff 83 57 be
       0.28032637 0.40023488 -0.9950026 -0.21046446
000170 f5 24 ad 3e 44 83 31 3f 8f 05 32 bc 70 37 64 3d
       0.33817258 0.6934092 -0.010865583 0.05571693
000180 78 1d e1 3c f1 6c c8 bd 70 b0 8a bd 0b 6c 81 bb
       0.027479872 -0.09786404 -0.06771934 -0.0039496473
000190 b2 1d 65 3d 79 95 82 bd 36 27 8a bd 6b 94 a6 3d
       0.055936523 -0.06376166 -0.0674576 0.08133777
0001a0 8a c1 24 3d 07 4d 71 3c 87 df b0 3d 8c 5f 51 3d
       0.040223636 0.014727837 0.086363845 0.05111651
0001b0 f5 64 45 3d 2d 73 99 3c 8b 27 a8 bd a8 4f 3b 3c
       0.048191983 0.018731678 -0.08210667 0.011432566
0001c0 95 ec 87 3d ce c5 3d bc ab a1 04 bc 8c 5a e4 3d
       0.06636921 -0.011582805 -0.008095185 0.11150083
0001d0 11 69 c0 bc 7a a4 50 bd bc d4 58 bb b2 44 e6 3c
       -0.0234876 -0.050938107 -0.0033085784 0.028108928
0001e0 83 8e ba 3c b2 e8 46 3d db c8 26 3c 25 0e fd bc
       0.022773033 0.04856176 0.010179724 -0.030890534
0001f0 30 db 15 bd 41 b1 14 3d d9 a4 69 3e ba 90 9e 3d
       -0.036585987 0.036301855 0.2281679 0.07742448
000200 99 2f 13 3f 16 13 90 3e 70 77 cb 3e 1b 47 39 3d
       0.57494503 0.2813956 0.3973956 0.045233827
000210 e0 10 73 3d 7f b1 95 be 02 f3 ff be 83 3a f3 3d
       0.059342265 -0.2923698 -0.49990088 0.118763946
000220 53 6c 6e be 14 19 96 3e 27 bf 02 bf 5b 34 d4 be
       -0.2328351 0.29316008 -0.51072925 -0.41446194
000230 dd 26 d1 bd c6 4c f0 bd c9 1f e2 3e 6d af 54 3e
       -0.10212491 -0.11733393 0.44164875 0.20770045
000240 c5 df 3a bf 9f b5 88 3f 2d da 4a 3c e3 02 15 3e
       -0.72997695 1.0680426 0.012381119 0.14551882
000250 01 a0 1c 3d 92 39 a1 3e 86 6f 3e 3f a0 98 11 3f
       0.03823853 0.31489235 0.7438892 0.5687351
000260 d9 32 6d 3b 9e 5b 00 3d 2e 0e 29 bf 6a 42 0a bf
       0.0036193638 0.031337373 -0.6603726 -0.5400759
000270 16 ec b5 3d 49 75 fb bd db 5b ef 3c 54 8e ee bd
       0.088829204 -0.1227823 0.029218605 -0.11648241
000280 48 2c 4c 3e ce f1 c6 3e 1c 87 8b bd 39 f5 3a 3d
       0.19938767 0.38856357 -0.068128794 0.04564402
000290 b5 c9 1e 3d f0 b1 52 3e a9 50 cb 3b 8f 8b b1 3e
       0.03876658 0.2057569 0.006204684 0.34676787
0002a0 62 3b b6 39 7d 3b a3 3d b9 12 30 c0 a8 5a 16 3f
       0.0003475799 0.07970331 -2.7511427 0.5873208
0002b0 fc be 0b 3f a1 16 46 3d 84 bb 86 bc 96 f7 03 3e
       0.54588294 0.048361424 -0.016446836 0.12887415
0002c0 0b 5e a7 3e 10 d1 6a bb e0 2d ba bd d3 a0 c5 bd
       0.32688937 -0.0035830177 -0.09090781 -0.096498154
0002d0 f1 2f 23 bd 4d 63 18 3e 08 1f ab 3d fc b5 e3 ba
       -0.039840642 0.1488163 0.08355528 -0.0017372961
0002e0 3b 9e 1b be 1b d6 88 3d 1d 3e df bc 4c 0b bb 3d
       -0.15197079 0.066814624 -0.027251298 0.09133014
0002f0 e9 fb 0f be c2 40 8f be 02 6a 83 be 22 35 ac 3c
       -0.1406094 -0.27979094 -0.25666815 0.02102143
000300 19 b2 d6 bd cd 6d f2 bd a7 16 ad 3d 09 07 fd 3b
       -0.10483188 -0.11837349 0.08451586 0.007721786
000310 e6 ec 01 bc 03 c1 a4 3c e0 8b de 3d a4 4f a9 be
       -0.007930016 0.020111566 0.10866523 -0.33068573
000320 37 fa f2 be c1 75 2e bb c9 c2 8f bc 08 0a 0b 3d
       -0.47456524 -0.002662048 -0.017548935 0.033945113
000330 68 76 83 be e2 f1 c3 3e 49 bc d6 bc 1d 4c 5f 3d
       -0.25676274 0.3827048 -0.026212828 0.054515947
000340 d8 e1 c8 bd e2 12 03 3f dc 7f b5 3b 32 66 18 3d
       -0.09808701 0.5120069 0.0055389237 0.037206836
000350 35 eb 76 be 37 b2 70 3e 92 29 45 be cf 8a 80 3d
       -0.24113162 0.23505484 -0.19254139 0.06276476
000360 d5 e4 48 bd 62 2f 28 3e 59 c4 54 3d 35 72 db 3d
       -0.049046356 0.16424325 0.051945064 0.10715143
000370 4f dd 87 be 97 31 e4 3d 99 e4 3b bf 00 d9 2d be
       -0.26536033 0.11142271 -0.7339569 -0.1697731
000380 68 48 ce be 38 24 24 bd fd 5b 98 be b0 79 e6 bc
       -0.40289617 -0.040073603 -0.2975768 -0.028134197
000390 e4 9b ca bd 91 34 ba 3e ef e7 35 3f eb e7 99 3d
       -0.09893015 0.3636823 0.7105703 0.07514938
0003a0 f6 b4 48 bc 10 74 97 bb 32 03 87 3c 80 71 5f bf
       -0.012250176 -0.00462199 0.016481016 -0.8728256
0003b0 bc 48 26 3e 9e 73 98 3e 92 a1 e3 3d dc 05 54 bd
       0.16238683 0.2977571 0.111148015 -0.0517634
0003c0 0d 60 42 3e ce 1b a4 3c d3 43 01 bd d4 81 20 bd
       0.18981953 0.02003279 -0.031558823 -0.039186314
0003d0 88 d8 70 bd 0b ed 96 bc 4e e6 00 be 1f 1a d9 bc
       -0.05880025 -0.018423578 -0.12587854 -0.026501713
0003e0 53 5f 11 3e e9 89 2b be 0c c8 25 bd 5a 2a b1 3d
       0.1419652 -0.16751827 -0.040473983 0.08650656
0003f0 10 ae ed bc 0d a0 c5 3c 18 f2 5b c0 10 b2 a6 3f
       -0.029013664 0.02412417 -3.4366512 1.302309

final.linears.0.bias f4 [84]
000000 a4 ff 80 3e 8d 54 02 be fb 02 8e 3d da 68 9e 3e
       0.25195038 -0.12727566 0.06934162 0.3093937
000010 92 13 93 3e 62 44 1d 3d ee 5b 9d be a8 c5 d1 3d
       0.28725868 0.038395293 -0.307342 0.10242778
000020 33 32 10 3e 3d 3a 47 3e 7b 8b 38 3e b5 77 99 bd
       0.1408165 0.1945581 0.18021958 -0.074935354
000030 dd 48 28 3e 07 b8 c1 3e f9 49 97 be 63 a7 47 3e
       0.16434045 0.37835714 -0.29548624 0.19497447
000040 be 64 57 3d 3b 38 0e bd f3 74 25 3e 6c ec 02 3e
       0.05258631 -0.034721594 0.16157894 0.127855
000050 1e 34 61 3e 92 2c 15 3e 7e 1c 7c bb e6 64 32 3f
       0.21992537 0.14567783 -0.003846913 0.6968521
000060 e6 4f 18 3e 80 f9 6b 3e de 52 74 bd e1 95 d4 3c
       0.14874229 0.23044395 -0.05964934 0.025950374
000070 6d f8 d2 3e 01 c4 8b 3e 12 a2 32 3e 25 5b 98 3d
       0.4120516 0.27297977 0.17444637 0.074392594
000080 dd db ec 3d 15 2d b4 3e 8a c8 a3 3d 70 98 87 3e
       0.11565373 0.35190645 0.07997234 0.26483488
000090 4b a4 a4 3d 30 4a f6 3b fe f4 44 bd 11 ba 91 3e
       0.08039149 0.007516168 -0.048085205 0.2846227
0000a0 bd d6 d1 be 6a 5b cd 3e 5b ff a2 3e 81 94 99 3e
       -0.40984145 0.40108806 0.31835446 0.29996112
0000b0 fb ba 22 3e a4 99 e3 3b 04 6a 2a 3e 16 a3 07 3f
       0.1589164 0.0069458056 0.16642004 0.52983224
0000c0 83 a9 57 3e dd 86 a0 3d 4f ec 5b bd 2f d5 bf 3e
       0.21060757 0.07838223 -0.05369216 0.37467334
0000d0 7b 28 a0 bd ea 27 c6 bb 3f 32 aa 3e 0a 0c 30 be
       -0.07820221 -0.0060472386 0.3324146 -0.17192093
0000e0 e4 37 51 bc 9f 6f 81 3d 11 85 9c 3e cd ff b0 be
       -0.012769673 0.06320118 0.30570272 -0.3457016
0000f0 87 8c b7 3e b1 42 23 3e 55 7b 2f 3e 3f 2a 2f 3e
       0.358494 0.1594341 0.17136891 0.1710596
000100 c0 04 8a 3e f3 f1 6a 3e da 87 3d 3e 92 a7 2f 3d
       0.2695675 0.22943859 0.18508855 0.042884417
000110 b5 89 73 bd 1b 0e fa 3e c1 1c 04 3e 17 03 0e 3e
       -0.0594575 0.48838887 0.12901594 0.13868366
000120 cb d5 0b 3d 0a 0a 18 3e 1b ce d0 bd b8 d2 5f 3e
       0.034139436 0.1484758 -0.101955615 0.21857727
000130 18 48 9f bd 39 f9 10 3f ac 8e 1d be 50 bd 69 3d
       -0.07777423 0.56630284 -0.15386456 0.057065308
000140 69 bf 2b 3e 2d 65 56 3e 31 a6 b4 3e 10 48 93 bc
       0.16772236 0.20937033 0.35283044 -0.017978698

final.linears.1.weight f4 [84, 84]
000000 55 05 5b be a9 6d d0 3d 08 4e c4 be da 04 1e bd
       -0.21388753 0.10177166 -0.38340783 -0.038578846
000010 d6 2a a6 3d 59 9a 5c be e9 ec df bd e9 9c 90 be
       0.08113639 -0.21543254 -0.10933859 -0.28244713
000020 ca 01 07 be bf ad 54 bd de b2 64 3d ed 88 d7 bd
       -0.13184276 -0.05192351 0.055834644 -0.105241634
000030 0c e6 1f bc 32 60 77 bd 25 e1 eb bb 32 42 d9 bd
       -0.009759437 -0.060394473 -0.00719847 -0.10608329
000040 b4 d8 3e bd d5 47 81 3e 28 36 c0 ba 41 43 ac bd
       -0.046593383 0.25250116 -0.0014664577 -0.08411265
000050 35 48 c5 bd 17 94 eb bd c1 c5 54 bc 42 b3 f7 bd
       -0.09632913 -0.11502855 -0.012986601 -0.120947376
000060 c0 33 85 bd 46 ee 05 3c 33 a3 f9 3c cc 00 83 bd
       -0.06504011 0.008174485 0.030473327 -0.06396636
000070 1c 33 31 be ca d8 9b bd 95 de 39 be 9c 88 08 3e
       -0.17304653 -0.076097086 -0.18151315 0.13333362
000080 9d 10 05 bd 08 17 03 3e 63 b6 23 be 39 7c e8 bd
       -0.032486547 0.12801754 -0.15987544 -0.113518186
000090 ae b0 40 3c f0 55 0c be 2b 0e 53 3c a1 87 04 be
       0.011760874 -0.13704658 0.012881796 -0.12942363
0000a0 f0 a2 0b 3e 87 0d ca bd 28 2a ca 3c 13 9e f9 bb
       0.13636374 -0.098658614 0.024678305 -0.007617721
0000b0 0f a6 a6 3c a5 66 8b 3b 06 a7 66 bc a5 28 2b bd
       0.020342855 0.0042541795 -0.014077907 -0.04178681
0000c0 1e 28 58 bd 36 f4 fb bd ac a7 3b be 7c f2 a2 39
       -0.052772634 -0.12302439 -0.1832568 0.00031079713
0000d0 e3 a6 ca bc 4f 45 8a 3d 7e a6 1c bd 2e af 0d be
       -0.02473778 0.06751501 -0.038244717 -0.13836357
0000e0 22 98 24 3d 17 31 24 bc 69 d8 c6 bd 3b b1 80 bd
       0.040184148 -0.01002147 -0.09709246 -0.06283804
0000f0 a3 0b 95 bd 52 89 25 bd 3c db eb 3d bf 61 53 3e
       -0.0727761 -0.040414162 0.11516425 0.20642756
000100 01 3c fd bd 84 2e 2b bd e6 5f 11 be f4 cb bf bd
       -0.123649605 -0.041792408 -0.14196739 -0.09365073
000110 d7 4a 38 bd 82 09 cc bc 2e 69 b8 3e ce 23 0e 3b
       -0.044993248 -0.024906877 0.36017746 0.0021688822
000120 5b b2 80 3c f6 4b 2e be 0a 9f 2d bd 43 44 90 3c
       0.015710047 -0.17021164 -0.042388 0.017610675
000130 c6 80 af b9 d5 17 87 bd b5 ca 34 bd db 14 80 bd
       -0.00033474545 -0.065963425 -0.04413863 -0.06253978
000140 71 01 e3 bd 73 0d 35 be 26 de 05 be 26 5e fe bc
       -0.11084259 -0.17680912 -0.13073024 -0.031050753
000150 45 14 47 be 74 57 99 3d 00 7e b4 bd f3 8b ae bd
       -0.19441326 0.074873835 -0.08813095 -0.08522787
000160 87 af a3 3d d2 50 10 be d5 4b 40 3d bd e6 37 be
       0.079924636 -0.1409333 0.04694732 -0.17959113
000170 b2 ff 47 be 15 17 22 be f9 1e 3f be 15 94 02 be
       -0.19531134 -0.15829118 -0.18664159 -0.12751801
000180 f3 30 18 be dd 30 8f 3c 68 99 44 bc c8 d8 f2 be
       -0.14862423 0.017479355 -0.0119994655 -0.47431016
000190 f7 4c a2 bd a8 12 45 be 7d 22 90 3c fb 57 20 be
       -0.07924836 -0.19245398 0.01759457 -0.15658562
0001a0 9a 37 27 be 74 6f 8e bd 1d 61 a1 3b 90 52 81 be
       -0.16329804 -0.06954852 0.004924907 -0.25258303
0001b0 cf 9a db bd 72 90 91 bd 62 22 25 bd 25 59 7e bd
       -0.10722887 -0.07107629 -0.040315993 -0.062096734
0001c0 f2 51 a3 bd f2 51 9a be 46 d1 bd be 3d 90 44 be
       -0.07974614 -0.30140644 -0.37073725 -0.19195648
0001d0 b8 6d fd bc cb 50 8c be 9c 18 c3 be e9 10 88 be
       -0.030936107 -0.2740539 -0.38104713 -0.265754
0001e0 dd 50 d8 3a 6a de 05 be ce 3f ba bd 65 1e 11 be
       0.0016503591 -0.13073125 -0.09094201 -0.14171751
0001f0 6b 26 36 3e 89 f6 76 bf 9c 6a f9 3d 77 59 0e be
       0.17788093 -0.9646993 0.12178537 -0.13901316
000200 20 06 4d be b7 56 6b bd 85 06 f6 bc 95 18 08 be
       -0.20021868 -0.057455745 -0.030032406 -0.13290627
000210 80 ab 0b be 75 a1 83 bd 08 d1 2c be 75 82 8c 3d
       -0.13639641 -0.0642728 -0.16876614 0.0686082
000220 cf 6b 94 bd 26 37 cd bd a2 95 47 be f0 35 81 bd
       -0.07247125 -0.10020284 -0.19490674 -0.06309116
000230 63 a4 70 3d 96 e9 2b bd 87 17 14 be eb 2c e5 bb
       0.05875052 -0.04197081 -0.144621 -0.00699388
000240 c0 45 2d be 71 1f 4e bd 9d ca fb bc 1e 7c 49 bd
       -0.16921139 -0.050322954 -0.030736262 -0.049190633
000250 27 71 4a be f4 43 b6 bd ec 6f a0 be a2 74 83 be
       -0.19769727 -0.0889968 -0.3133539 -0.2567492
000260 e8 cd 3e be 78 b6 bc bd 83 49 f6 bd 2d 1c 9b bc
       -0.18633235 -0.09214491 -0.1202574 -0.018934334
000270 7c d8 9a bd e3 d3 43 be bb 04 56 be 94 c3 7c 3a
       -0.07560822 -0.19123797 -0.20900242 0.00096421805
000280 0f b0 b3 bd a8 94 3e be 41 96 e1 3d 19 7c 9e be
       -0.08773815 -0.18611395 0.11014987 -0.30954054
000290 c1 d3 5a be 22 62 8e bd 72 2f 63 be f5 ab 81 3e
       -0.2136984 -0.06952311 -0.22186068 0.25326505
0002a0 ea 81 3a be d6 8f b5 3d d3 94 ae 3b 1a b2 e7 be
       -0.18213621 0.08865325 0.0053278 -0.45253068
0002b0 9d 5d 49 3c c5 47 9b ba af 60 5e 3e 9e af 83 bc
       0.012290386 -0.001184695 0.2171657 -0.016074952
0002c0 b1 a9 7d be a1 78 e6 bd 7f c8 21 be 4e 49 3c bd
       -0.24771763 -0.11253477 -0.1579914 -0.045968346
0002d0 db 47 16 bf b1 56 ac be f0 5c a2 be 3e 02 16 be
       -0.5870339 -0.3365989 -0.3171153 -0.14649293
0002e0 59 f6 9f bd 9a 21 e4 ba 00 89 d4 be da fa 26 be
       -0.07810659 -0.0017405034 -0.41510773 -0.1630663
0002f0 49 c2 12 bf 46 39 fd bd 3b 93 b5 be 15 42 bb be
       -0.57327706 -0.1236444 -0.3546389 -0.36573854
000300 4b 44 11 bf 99 fd fb be 4a f0 33 bd 72 9d c6 bd
       -0.5674483 -0.49216917 -0.04393033 -0.09697999
000310 a3 31 83 be ba bc ff bd 86 03 a0 be a1 46 e2 bd
       -0.25623807 -0.124871686 -0.31252688 -0.11048628
000320 68 2b aa be 4b e5 f6 be ac 5e 78 be 88 56 3f be
       -0.3323624 -0.48221812 -0.24254864 -0.18685353
000330 06 16 c5 be 0d 7a aa bd 08 02 a9 3e cb 3f e1 be
       -0.38493365 -0.083240606 0.33009362 -0.43993983
000340 5b 27 5b 3e e3 6e 27 bf c4 a3 cb 3d 54 07 01 c0
       0.21401732 -0.65403575 0.09943345 -2.0160723
000350 6c a0 d1 bd 41 f3 a8 bd dd 5f d2 be d8 0e 0b bf
       -0.10235676 -0.08249522 -0.41088763 -0.54319525
000360 ce e1 f8 3b 9f a9 93 be 8c 55 0d 3e b5 f3 86 bd
       0.0075952774 -0.28840348 0.13802165 -0.06589452
000370 cf b0 3e be a7 2a ae be a7 a9 14 bf 71 ea 11 be
       -0.18622135 -0.34016916 -0.5807137 -0.14249589
000380 e9 ee c8 bd 14 10 77 bd 02 53 d4 bd 3f ce c6 3d
       -0.098111935 -0.060318068 -0.10367395 0.09707307
000390 a2 22 d6 be 89 a5 d2 be 88 77 57 be 3a c3 03 bd
       -0.41823298 -0.41141918 -0.21041691 -0.032168604
0003a0 a6 16 b4 bc c8 2f c0 be eb 26 d0 be 52 2b d1 bd
       -0.021983456 -0.37536454 -0.40654692 -0.10213341
0003b0 fe 40 63 bd 12 99 22 bf 39 88 5b bd 83 8e c9 be
       -0.055481903 -0.63514817 -0.05359671 -0.3936654
0003c0 d7 94 ce be c6 f0 92 be 51 d1 13 be 4f 9c e1 be
       -0.4034793 -0.2869932 -0.14435317 -0.44064566
0003d0 db 04 2d bd da 96 ab be df 7d ec bc 7d c8 96 be
       -0.04224096 -0.33513528 -0.028868614 -0.29449835
0003e0 12 85 1a be 0f 81 97 bd 9b 99 10 bf 07 97 84 3e
       -0.15089825 -0.07397663 -0.56484383 0.25896475
0003f0 25 f0 cc 3d 56 de 0f 3d 16 02 42 3e 04 50 b9 bd
       0.100067414 0.035124145 0.18946108 -0.09048465

final.linears.1.bias f4 [84]
000000 e2 36 03 3d fa 9e b2 be 72 01 e4 be f3 f5 a9 bd
       0.032034762 -0.34886914 -0.44532353 -0.08298864
000010 a7 84 95 be 46 cb e4 bd 66 21 53 bd c5 1f d8 3e
       -0.29202768 -0.11171584 -0.051545523 0.42211738
000020 d7 c0 6d bd 38 da 89 bd b8 55 5f bc e9 83 bb 3d
       -0.058045235 -0.06731075 -0.013631277 0.09156019
000030 a6 68 f9 bd 92 f0 bc 3d 00 bc 18 be 70 c1 98 3e
       -0.12178163 0.09225573 -0.14915466 0.2983508
000040 cf 6d ed bd f5 d3 01 bf 7e 14 f7 bd 2c e7 31 be
       -0.1159321 -0.50714046 -0.120644554 -0.17373341
000050 c8 e7 79 be 80 0c 07 bf 62 07 1d bc 71 db 63 be
       -0.24404824 -0.5275345 -0.00958428 -0.22251679
000060 db 4c 88 be d6 af 11 bd 11 c9 dd bd 3a 93 94 be
       -0.26621136 -0.03556808 -0.10829366 -0.29018575
000070 b9 ff 04 bf cd 65 c3 be e6 db ec be 7e 98 10 bc
       -0.519527 -0.38163605 -0.4626152 -0.0088254195
000080 01 fd 0d 3c bc a4 e5 3d f1 e0 71 be dc 63 a5 bd
       0.008666278 0.11213061 -0.23620965 -0.08075687
000090 d7 39 63 bd 2d 95 dd be 3a e8 8a be 5f c9 67 bc
       -0.055475082 -0.43277875 -0.271303 -0.014147132
0000a0 db d0 f7 bd ce 8a 31 bf cb ed c3 be 97 c8 42 be
       -0.12100383 -0.69352424 -0.3826736 -0.19021831
0000b0 f7 0f 1e be 6e 12 fc 3c 4a 29 5b be be fd 53 bd
       -0.15435778 0.030770507 -0.2140247 -0.05175566
0000c0 fc 24 61 3c e9 1c 22 bf 46 e9 fe be 26 73 42 be
       0.013741728 -0.63325363 -0.49787349 -0.18989238
0000d0 ee 61 86 bd 05 b2 cd be e9 90 a0 bd 88 e8 e3 bd
       -0.06561647 -0.4017488 -0.078401394 -0.11128336
0000e0 b3 3a 2e 3e 20 ae 9b be b6 df e5 be 8c 80 3b be
       0.1701458 -0.30406284 -0.4489724 -0.18310755
0000f0 f6 cb 7d be 08 60 52 bd 1a c7 76 be b6 41 c3 be
       -0.24784836 -0.051361114 -0.24099389 -0.3813607
000100 b7 7f b7 3e bb 10 e6 bd 28 a0 97 be f4 5a f2 be
       0.35839626 -0.1123366 -0.29614377 -0.47335017
000110 b3 fd 04 bf f9 0f 91 be aa c2 45 be 55 b7 0e bd
       -0.51949614 -0.283325 -0.1931254 -0.034842808
000120 dd c0 4b be e7 7b 4d be 3d 85 86 be 18 d7 eb be
       -0.1989779 -0.20066796 -0.26273528 -0.4606254
000130 ae c1 c8 3d 71 37 98 bd 10 81 b9 be 4c e5 26 be
       0.098025665 -0.074324496 -0.3623128 -0.16298407
000140 91 7c 93 3a 75 10 b0 bd a4 18 b8 bd 53 ca 29 3f
       0.0011252334 -0.08596889 -0.08989075 0.6632435

final.linears.2.weight f4 [10, 84]
000000 6b 9e 72 3d ff c1 28 3c 8d f5 8a be 9a 47 b6 3d
       0.05923311 0.0103001585 -0.27140465 0.08900376
000010 fc b0 85 ba 87 5e 1d be 49 72 90 be a4 af a2 bc
       -0.001019984 -0.1536809 -0.28212193 -0.019859143
000020 02 9c f8 3e 17 50 e2 3b 54 0a 9f be 40 82 05 3b
       0.48556525 0.00690652 -0.31062567 0.0020371825
000030 f7 2d f6 3e 81 41 85 bd 3e eb 2b 3c b4 e2 5e bc
       0.48081943 -0.065066345 0.010493098 -0.013603855
000040 f6 be 07 3e 98 a6 13 bf dc 25 30 3e 88 c6 e1 3d
       0.1325644 -0.57676077 0.17201942 0.11024195
000050 59 ba 70 bd 6b 05 e6 3b b9 07 5b 3d cf b4 27 3d
       -0.058771465 0.007019689 0.05347416 0.040943917
000060 ec 6d 8c 3e e8 b1 57 3a 50 de dd 3c 4f 7e 4b 3f
       0.27427614 0.0008228109 0.027083546 0.79489607
000070 58 36 c2 39 c4 3e 5c ba 00 76 d5 be f9 fb ac ba
       0.00037043053 -0.0008401687 -0.4169159 -0.0013197652
000080 e4 6d 28 be 81 06 ca 3c af dc 62 3e c7 92 94 3e
       -0.1644817 0.024661304 0.22154497 0.29018232
000090 15 90 08 be f3 4b 4d 3e 61 64 2e 3e e1 9c 71 be
       -0.13336213 0.20048504 0.17030479 -0.23595001
0000a0 21 95 cf bd ab fa e9 3d 3c 9a 30 bf 6b cd b4 bc
       -0.10135866 0.11424764 -0.6898534 -0.022070607
0000b0 72 a4 cc 3e 43 08 52 3d da 1d b2 bb 20 eb 8e bd
       0.39969212 0.05127741 -0.0054356875 -0.0697844
0000c0 29 5b aa 3c df 8b 57 3d ab 34 41 3c a5 ba 39 3c
       0.020795422 0.052623626 0.011792342 0.011336003
0000d0 18 79 f9 bb c5 f4 e4 3e bb 10 f5 3d fe 54 ad 3c
       -0.0076133125 0.44717994 0.11966082 0.021158691
0000e0 07 31 71 3a 12 5e be be f9 53 51 3f d2 1e de 3d
       0.0009200726 -0.37181145 0.8176876 0.10845722
0000f0 d8 8f 4e ba 02 30 d6 bd 88 92 2e 3d 07 43 7a bc
       -0.0007879711 -0.104583755 0.04262021 -0.01527477
000100 6a 55 cf bb 0e 82 66 be 8b 3b bf 3b 73 84 0a 3d
       -0.006327321 -0.2251055 0.0058359555 0.03381772
000110 02 b8 86 bb 0d 2b 77 bd a9 8a 54 bf fa ba 63 bc
       -0.004111291 -0.06034379 -0.8302408 -0.013899559
000120 aa 76 03 be 5c 6d 2b be 31 0b 1a bb 3b ac 36 bf
       -0.12838235 -0.16740936 -0.0023505206 -0.7135655
000130 a4 58 0f bc fe 8a 6f 3c 53 05 2b 3f 3b ad 3d bd
       -0.008749161 0.014620541 0.66805 -0.046307784
000140 12 fe d2 bb d3 f8 9f be 8c b7 d2 3d 0d 06 99 3b
       -0.006438979 -0.31244525 0.10288915 0.0046699108
000150 09 c9 37 bd b9 54 d0 bc 1a 05 3d 3f 76 b0 ac bb
       -0.044869456 -0.025431024 0.7383591 -0.005270059
000160 cf e5 67 3b 5a a7 2a be 40 86 40 be 99 88 39 bc
       0.003538478 -0.16665402 -0.18801212 -0.011324071
000170 bc bc d1 3e 45 c7 e9 3a 2b 1d 8d bd 01 f9 3a 3c
       0.40964305 0.0017835876 -0.06890329 0.011411906
000180 3b b1 5a 3e 99 9e 3d bd 69 8f c5 bd ee bc 01 3c
       0.2135667 -0.04629383 -0.09646494 0.0079185795
000190 bb 29 53 be a1 8f 95 be 48 c9 e8 3c ab 67 fb 3c
       -0.20621388 -0.29211143 0.02841629 0.030689081
0001a0 56 a1 01 3e c1 24 60 bc 53 62 d0 bc fe f2 c1 3e
       0.12659201 -0.013680638 -0.02543751 0.378807
0001b0 f4 ee 24 bf ab a8 de 3c 4a fe 3a bb 16 95 2d be
       -0.64427114 0.027180037 -0.0028532916 -0.16951403
0001c0 32 8a 67 3c 31 09 8e 3a 91 bc 60 3f a6 48 d8 3c
       0.014132069 0.001083648 0.8778773 0.026401829
0001d0 ae 7c 77 3e 8d a8 dd 3c de 0d 80 be 11 d9 94 3d
       0.24168655 0.02705791 -0.2501058 0.07267965
0001e0 f1 8d 1b 3e 4c b7 48 3e dc c4 10 be d2 2c 91 3d
       0.15190865 0.19601172 -0.14137596 0.07088627
0001f0 d9 d8 12 be b5 e3 51 3d 59 a1 46 bf ba 8c 11 3d
       -0.14340533 0.05124255 -0.77589947 0.035534598
000200 ad 88 d2 3d 18 76 b6 3e 88 c5 1b 3d 76 f7 57 bd
       0.10279975 0.35636973 0.038030177 -0.05272623
000210 08 d7 56 3c f0 a9 53 3d 35 9c 32 3c 9e 5f b1 bd
       0.013112791 0.051675737 0.0109015005 -0.08660816
000220 70 ca 88 bc 76 9d 3b 3f e1 de 1e be 72 e3 e0 be
       -0.016698092 0.7328714 -0.15514709 -0.43923527
000230 c3 27 72 bc 29 75 63 3f a5 34 22 bf da bc c3 be
       -0.014779988 0.8885065 -0.6336158 -0.3823002
000240 d0 c6 81 38 0d 25 80 3c 98 05 73 3d de 99 39 bc
       6.188231e-05 0.015642667 0.059331506 -0.011328189
000250 8c d1 fb bb 9e e5 18 bd ea 24 e9 bc 91 ae 38 bd
       -0.007684892 -0.037328355 -0.028459985 -0.045088354
000260 fc 32 72 3c 51 b2 eb 3d 8d c7 0e bf 12 54 f7 3c
       0.014782663 0.115086205 -0.5577324 0.030191455
000270 8a c9 61 bd 4a a6 8d 3e e4 ae d6 3c 4e 40 99 be
       -0.055123843 0.2766593 0.026206441 -0.29931873
000280 ea c9 51 bd d9 f4 03 3d e7 d7 b0 be f0 b5 a0 be
       -0.05121795 0.032215927 -0.3453972 -0.31388807
000290 19 1f 5b 3d c9 b3 6b 3e 43 b6 45 3d 15 b7 86 bc
       0.053496454 0.23017801 0.04826952 -0.016444722
0002a0 63 b3 8f bc 1f ac 15 bd a6 b6 ed 3d 0b 53 02 bb
       -0.017541593 -0.0365411 0.11607103 -0.0019885923
0002b0 02 07 08 3e cb 15 d3 bd 86 8a 10 3c 0a e3 ed 3e
       0.13283923 -0.10306891 0.008822089 0.4646228
0002c0 11 5c 3e 3b e9 3f a0 3d 81 25 12 3c 51 e0 17 3e
       0.0029046575 0.0782469 0.008920074 0.14831664
0002d0 68 2c 0f bf 75 9b ca bd f0 d9 9e bc 19 49 c9 bf
       -0.55927134 -0.09892932 -0.01939103 -1.5725433
0002e0 c8 c8 68 3c 5b 9f 81 3e 1f 4a 03 bd d8 f6 62 3b
       0.014208026 0.2531689 -0.03205311 0.0034631994
0002f0 2a 69 79 3b 77 76 af bd ba e4 57 be 38 d6 36 3d
       0.0038057067 -0.08567517 -0.21083346 0.04463789
000300 5f c8 04 be 53 79 d2 3c 3d 74 9d bb 9c 34 6c be
       -0.1296706 0.025692618 -0.0048051164 -0.23066944
000310 9b 95 f9 be 92 5d 91 bd 68 15 bb bd 06 d1 0a bd
       -0.48746952 -0.07097925 -0.09134942 -0.033890747
000320 5c 5f d0 bc 26 18 36 3e c2 77 15 bd 9d c2 03 bc
       -0.025436096 0.1778265 -0.036491163 -0.008042005
000330 5f be ae bc ad 15 17 3f 83 d3 65 3d 4b 8c 05 bf
       -0.02133101 0.5901745 0.056109916 -0.52167195
000340 c0 b6 04 3b 49 17 48 3f d0 ca c2 bd 71 8c 1e 3d
       0.002025053 0.7816053 -0.0951134 0.038708154
000350 6d f6 47 bd 15 ad 28 bc 0b 6e d7 3c 92 29 91 bc
       -0.048818994 -0.010295172 0.02629759 -0.017720018
000360 c5 be 92 3f e2 8b 66 3f c3 73 10 40 8c bf d6 bd
       1.1464468 0.90057194 2.2570655 -0.104857534
000370 d7 d9 85 be 77 0d f2 bd 71 52 aa bf 82 e7 34 ba
       -0.2614276 -0.118189745 -1.3306409 -0.00069009524
000380 24 36 d4 3e e7 da 77 be 52 cd 69 3e dd b9 ce bd
       0.41447556 -0.24204598 0.2283223 -0.10094044
000390 40 37 af 3d a8 e2 00 bb 0b ff f9 3d e1 55 e6 3e
       0.0855546 -0.0019666348 0.12206849 0.44987395
0003a0 05 c5 ce be cb 13 0f 3d 89 ab c6 bc 7a 94 24 bd
       -0.4038469 0.034930985 -0.024251716 -0.04018066
0003b0 99 cd 20 3e 30 6e 21 3d 5c 24 e8 bd 85 d8 1c bf
       0.1570343 0.039411724 -0.1133506 -0.6126788
0003c0 d2 15 3b 3d 51 b5 c2 bd d0 7a e5 3e 94 26 07 3d
       0.045675106 -0.095072396 0.4482026 0.032995775
0003d0 6a 26 38 bc 1c 1d d4 3d 95 04 04 be 32 16 13 3c
       -0.011239627 0.10357115 -0.12892373 0.00897746
0003e0 96 90 d4 be 01 92 17 3c 18 53 e8 3c d4 7f 23 be
       -0.4151656 0.009251119 0.028359935 -0.15966731
0003f0 d3 e8 2d bd b5 9a 06 3e 48 26 a7 3e 77 ab ec 3a
       -0.042458367 0.13144954 0.32646394 0.0018056472

final.linears.2.bias f4 [10]
000000 1a e0 ae 3d 16 9a ed bd ae 39 c6 3c f8 bb 6f be
       0.08538838 -0.11601655 0.024197426 -0.23411548
000010 8d e0 0a be ca 66 7a 3d 80 be e9 3c 9b dd e8 3d
       -0.13562222 0.061133184 0.02853322 0.11370393
000020 4a b4 87 bd 06 7e 10 bd
       -0.06626184 -0.035276435

layers.0.attn.0.gnn_q.weight f4 [10, 16]
000000 7f bc 11 34 54 ac 92 38 e0 e4 95 b9 59 be eb 32
       1.3572752e-07 6.993921e-05 -0.0002859002 2.744416e-08
000010 6a 5a 11 3c d4 5f 96 35 2f a8 83 b9 48 4e 9d 32
       0.008871654 1.120376e-06 -0.00025111574 1.8312804e-08
000020 5b 78 9a 37 c6 14 3f 38 15 af e6 37 75 e6 4c 37
       1.8414275e-05 4.5557295e-05 2.7499666e-05 1.2213005e-05
000030 51 cc b9 3c 9f 8f 0f bc c1 76 bf 3c e4 91 de 3b
       0.022680433 -0.008762269 0.023372056 0.006792294
000040 55 4a 9b 34 20 00 11 3b 21 95 b1 ba 2f f0 e0 b1
       2.8925083e-07 0.0022125319 -0.0013548472 -6.5465637e-09
000050 d0 96 ce 38 0e 1d bb 37 d8 8f 50 bb fc e1 72 b3
       9.8509365e-05 2.2305667e-05 -0.0031824019 -5.6550547e-08
000060 04 aa 2a 38 37 41 f8 39 71 7f e0 37 f2 56 b0 b7
       4.0689498e-05 0.00047350835 2.6762225e-05 -2.1021322e-05
000070 ad 40 c3 bc 5d ba 8c bb d0 bd 83 bc d6 c2 d5 3c
       -0.02383455 -0.004294677 -0.01608172 0.026093882
000080 e6 03 04 b3 1f 6a 64 3a c8 9d 8a 39 d0 81 15 b3
       -3.073719e-08 0.0008713323 0.00026438967 -3.480983e-08
000090 6d ff a7 bc df 8f c3 37 b8 30 45 ba 22 5b b7 b2
       -0.020507539 2.3312807e-05 -0.0007522213 -2.1345446e-08
0000a0 0b 0c 07 b7 87 95 f9 38 44 e4 04 b8 65 94 51 b8
       -8.049431e-06 0.00011901097 -3.168384e-05 -4.9967686e-05
0000b0 f0 aa df be 8e cf d5 3c 7c ba b5 be 92 5d c1 bb
       -0.43685102 0.026099946 -0.3549384 -0.005901047
0000c0 c4 8c 44 34 04 c0 b0 b9 92 1d 8a ba ae 44 f4 33
       1.8305133e-07 -0.000337124 -0.0010537377 1.1374628e-07
0000d0 2b 36 9c 3c 98 58 71 b7 01 cc 00 ba f2 1b d8 32
       0.019068798 -1.4385347e-05 -0.00049132115 2.5158418e-08
0000e0 70 19 81 37 a8 19 d0 37 50 70 a9 38 74 db 66 b8
       1.5389844e-05 2.480748e-05 8.079468e-05 -5.5040655e-05
0000f0 69 c5 ed 3d 80 fc 09 bc ba b2 e9 3d b6 e5 87 3c
       0.116099186 -0.008422017 0.114110425 0.016589027
000100 b5 a5 f7 b3 ff 71 0e 3b 56 1c 5e ba 24 3b e6 b3
       -1.1531976e-07 0.0021735427 -0.00084728503 -1.0720967e-07
000110 23 5e e0 3d aa a5 41 38 6c b2 5a bb d5 ba 85 b3
       0.10955455 4.6169072e-05 -0.0033370508 -6.22728e-08
000120 da 3a c0 b7 ad 61 1f 3a 25 52 a7 b8 ab ed 1c 38
       -2.2915588e-05 0.00060799235 -7.978481e-05 3.7414644e-05
000130 4c 13 b3 3c cd e0 d5 bd d5 fa 8f 3d 78 6b c5 3c
       0.021859787 -0.10443268 0.07030264 0.024099097
000140 86 91 95 33 09 ed 6e bb 1e 5d de 38 2b 24 10 34
       6.964824e-08 -0.0036457202 0.00010603129 1.3424203e-07
000150 7c a5 3f bc 15 d9 cc b8 5e 06 92 3b 3d 0c c3 33
       -0.011697169 -9.767913e-05 0.0044563254 9.082621e-08
000160 70 61 d9 37 75 47 35 ba da 42 f7 38 54 6c 17 b8
       2.5913789e-05 -0.000691525 0.0001179033 -3.6102094e-05
000170 b8 6a 59 3c 7c 83 a1 3c 16 8d 15 3c 49 b8 04 bc
       0.013270073 0.019716017 0.009127876 -0.008100578
000180 62 6e b3 32 17 4c 06 3a 58 54 d5 b9 22 a3 37 b3
       2.0888539e-08 0.00051230326 -0.00040689367 -4.2756376e-08
000190 2c 4b 94 3c 93 e5 0f 37 ea ac 0c ba 7c 9d 47 b0
       0.018102251 8.576916e-06 -0.00053663424 -7.2619577e-10
0001a0 31 0c 09 37 4e ac 4a 37 08 7e af b7 9e 4d 0c 38
       8.168675e-06 1.2080256e-05 -2.0920314e-05 3.3450888e-05
0001b0 af fb c0 3d a5 3b ee bc 25 31 a3 3d 20 87 83 3c
       0.09423005 -0.029081175 0.07968358 0.016055644
0001c0 74 d9 46 b4 da 25 84 b9 f5 ea ca 39 70 24 49 b3
       -1.8519296e-07 -0.00025205204 0.000387035 -4.68321e-08
0001d0 02 a3 0b bc ac af 8e 37 b7 10 e4 39 9a 79 02 b2
       -0.008522751 1.7009523e-05 0.00043500002 -7.594645e-09
0001e0 d5 ab 40 b8 76 e6 a3 b8 e8 20 db b8 58 ae 55 b8
       -4.59364e-05 -7.8153724e-05 -0.00010448863 -5.0945528e-05
0001f0 2a 44 ab 3d c0 f9 34 3c dc c5 77 3d 98 35 c4 bb
       0.08362611 0.011045873 0.060491428 -0.005987834
000200 fd 33 08 b2 d0 90 63 39 44 17 a4 39 2a 4e 3f b2
       -7.928063e-09 0.00021702354 0.00031297852 -1.1135436e-08
000210 22 eb 70 3b 62 cf 65 b7 e2 35 03 ba 53 0e 07 b3
       0.0036761244 -1.3697749e-05 -0.00050052826 -3.1445165e-08
000220 d6 4a 1c 37 5b 58 11 39 62 1c 07 38 c1 bc c0 37
       9.315749e-06 0.00013861193 3.221294e-05 2.2976079e-05
000230 f1 f4 f3 bd c8 85 44 bb 14 34 bd bd 50 ff 78 b8
       -0.11911953 -0.0029986966 -0.09238449 -5.9365586e-05
000240 9c 96 13 33 be 79 79 ba 44 a3 3a b9 bb 30 07 33
       3.4363083e-08 -0.0009516737 -0.00017799163 3.1476457e-08
000250 cf e0 34 3c 4f 74 08 b8 7e 5e a1 3a 47 8b d0 32
       0.011039927 -3.2533248e-05 0.0012311486 2.4277723e-08
000260 20 ea 3e 37 94 4d 7e b9 21 eb af 37 30 23 85 b6
       1.1379394e-05 -0.00024252228 2.0971116e-05 -3.9678052e-06
000270 e4 63 55 3c ea b6 af bb 22 4c 46 3c 08 7b 5c bb
       0.013024304 -0.005362381 0.012103112 -0.0033642668

layers.0.attn.0.gnn_q.bias f4 [16]
000000 e0 d5 9c 33 a4 5b b3 3a 42 4e f5 b9 88 0d da b2
       7.30322e-08 0.0013683927 -0.00046788348 -2.5384693e-08
000010 e1 40 33 3d 8d 27 ed 37 e0 76 e4 ba 8f 19 55 b3
       0.043763045 2.8271019e-05 -0.0017430447 -4.9616173e-08
000020 94 52 6f b4 73 75 8f 39 ad b3 b6 b7 ec 16 51 38
       -2.2288651e-07 0.00027362592 -2.1779759e-05 4.985083e-05
000030 61 52 f6 bd 87 90 1e bd d5 e0 3b bd e9 7f 0f 3c
       -0.12027431 -0.03871205 -0.045868713 0.0087585235

layers.0.attn.0.gnn_k.weight f4 [10, 16]
000000 de b9 11 b4 3d be 14 b9 7e 92 94 39 3d e6 ea b2
       -1.3571795e-07 -0.00014185249 0.00028337905 -2.7345886e-08
000010 ff 89 15 bc 84 42 e0 36 68 88 83 39 7c 7f 26 32
       -0.009127139 6.6834637e-06 0.00025087898 9.691458e-09
000020 b9 cf 99 b7 0c 07 3a b7 c6 d1 e6 b7 ef c0 68 b7
       -1.833575e-05 -1.1088105e-05 -2.751582e-05 -1.3873198e-05
000030 78 58 bb bc 4e ce 0f 3c 7b d8 bc bc 6d f8 e0 bb
       -0.022869334 0.008777214 -0.023052445 -0.006865552
000040 2b 4b 9b b4 01 ca 18 bb 54 9a b1 3a aa 05 e2 31
       -2.8925692e-07 -0.0023313763 0.0013550022 6.5781096e-09
000050 10 8c 1c b8 ac c1 9d b7 ca 8e 50 3b 22 89 9c 33
       -3.732374e-05 -1.8806044e-05 0.003182339 7.2892604e-08
000060 fc d2 2a b8 fc 37 f6 b9 b4 9e e0 b7 f7 b7 a0 37
       -4.0727653e-05 -0.00046962488 -2.6776783e-05 1.9159152e-05
000070 fa f4 c1 3c 93 f1 8f 3b ef 69 68 3c a1 f4 d5 bc
       0.023676384 0.0043928116 0.014185413 -0.026117625
000080 20 07 04 33 7e 4c 5d ba e5 f9 8e b9 cd 7e 15 33
       3.0740125e-08 -0.0008441879 -0.00027270537 3.480709e-08
000090 f7 5c 9c 3c 79 3a b3 b7 57 2f 45 3a 69 ca bd 32
       0.019087298 -2.1365691e-05 0.0007522008 2.2094541e-08
0000a0 aa 70 07 37 d0 9d db b8 8a e2 04 38 36 13 38 38
       8.072859e-06 -0.000104721286 3.1682233e-05 4.388691e-05
0000b0 28 42 df 3e 86 2b d6 bc 0e db b0 3e 1c 00 c1 3b
       0.4360516 -0.0261438 0.34542125 0.0058899056
0000c0 b6 8b 44 b4 cb 0d d7 39 d7 46 8a 3a fa 48 f4 b3
       -1.8304749e-07 0.00041018272 0.0010549676 -1.137541e-07
0000d0 5f 76 9e bc 7c e0 a4 37 65 ce 00 3a cd 0a 34 b3
       -0.019343553 1.9654857e-05 0.00049135677 -4.191934e-08
0000e0 30 31 80 b7 6d 29 58 b8 6e 60 a9 b8 f7 99 6c 38
       -1.5281694e-05 -5.1536994e-05 -8.0765094e-05 5.6410176e-05
0000f0 3f ca ed bd eb 2b 08 3c 7c 49 ea bd 39 fd 86 bc
       -0.11610841 0.008311252 -0.11439797 -0.016478168
000100 41 ab f7 33 59 27 13 bb f9 4b 5d 3a b8 64 e6 33
       1.1532985e-07 -0.0022453873 0.0008441802 1.072853e-07
000110 f8 59 e3 bd 4d 2f 1a b8 74 ad 5a 3b a7 dc cb 33
       -0.111011446 -3.6760513e-05 0.0033367546 9.4930606e-08
000120 1d d7 c0 37 65 02 17 ba 76 44 a7 38 e7 6f 27 b8
       2.2988354e-05 -0.00057605497 7.9759324e-05 -3.992012e-05
000130 30 51 be bc 01 99 d5 3d 86 e7 a3 bd 33 d2 c5 bc
       -0.023232073 0.10429574 -0.08003144 -0.024148082
000140 2e 91 95 b3 36 d6 6f 3b d8 f7 dd b8 6d 2d 10 b4
       -6.964761e-08 0.0036596186 -0.00010584266 -1.3427571e-07
000150 51 06 46 3c e5 b5 d4 38 ed 05 92 bb 76 d8 ca b3
       0.012086467 0.00010142828 -0.004456273 -9.445732e-08
000160 d4 15 d9 b7 f0 32 37 3a b8 4c f7 b8 d7 db 1e 38
       -2.587858e-05 0.0006988486 -0.00011792168 3.7874877e-05
000170 ea 28 5c bc 10 64 a0 bc c5 b7 0f bc 19 74 04 3c
       -0.013437489 -0.019578964 -0.008771841 0.00808432
000180 72 5f b3 b2 90 5b 24 ba 0f 58 d5 39 f8 e2 37 33
       -2.0881746e-08 -0.00062697474 0.00040692135 4.2814435e-08
000190 6c 9e 8f bc 00 1d 9b 36 49 97 0c 3a cb 90 32 33
       -0.017531596 4.622736e-06 0.00053631194 4.1575543e-08
0001a0 0e 13 09 b7 f2 5b af 36 9d 5b af 37 d6 5c 27 b8
       -8.170273e-06 5.2261103e-06 2.0904286e-05 -3.9902363e-05
0001b0 2e 61 c1 bd bf aa ed 3c ad c8 a0 bd 6d 72 84 bc
       -0.09442364 0.029012082 -0.07850776 -0.016167844
0001c0 b1 d9 46 34 13 37 ee 39 bf 79 cd b9 50 6e 49 33
       1.8519383e-07 0.0004543593 -0.00039191355 4.6899288e-08
0001d0 79 1c 08 3c cb 11 d3 b7 60 0d e4 b9 87 88 ca b2
       0.00830757 -2.5161446e-05 -0.00043497514 -2.357798e-08
0001e0 dd aa 40 38 05 b2 7a 38 38 52 db 38 ad 5c 50 38
       4.5935496e-05 5.977044e-05 0.00010458048 4.9677376e-05
0001f0 c3 b8 aa bd 7a 30 38 bc 00 4d 71 bd 54 31 c7 3b
       -0.08336022 -0.011242026 -0.058911324 0.0060788784
000200 4c 00 08 32 8a 59 55 b9 73 db a2 b9 a6 0f 3c 32
       7.916309e-09 -0.00020346619 -0.0003106255 1.0946598e-08
000210 4a 2f 7d bb fe b8 95 36 14 4e 03 3a c8 de ea b0
       -0.0038632923 4.462082e-06 0.0005008888 -1.7089059e-09
000220 39 c0 1c b7 c5 70 34 b9 e4 10 07 b8 cf dd b8 b7
       -9.34308e-06 -0.00017208148 -3.220224e-05 -2.2037797e-05
000230 e5 b9 f4 3d 6e fc 46 3b 04 41 ba 3d 20 cc f1 38
       0.11949519 0.0030362862 0.09094432 0.00011529797
000240 2a 9f 13 b3 85 15 83 3a 37 73 39 39 91 49 07 b3
       -3.4370863e-08 0.001000092 0.00017685896 -3.1499045e-08
000250 a9 3e 3d bc d0 64 ce 37 e6 5a a1 ba 48 3f 0c b3
       -0.011550584 2.4604058e-05 -0.0012310415 -3.2653844e-08
000260 f9 61 40 b7 fd 6b 6b 39 94 ec af b7 d1 d2 43 36
       -1.1466903e-05 0.00022451575 -2.0971791e-05 2.9179976e-06
000270 7c ac 58 bc 21 ec ad 3b 22 50 5b bc c9 0a 61 3b
       -0.013224717 0.00530769 -0.013385804 0.0034338704

layers.0.attn.0.gnn_k.bias f4 [16]
000000 af d5 9c b3 9c 88 a8 ba f2 d4 f7 39 df 49 da 32
       -7.303185e-08 -0.0012858096 0.00047270168 2.5412133e-08
000010 52 8c 28 bd 55 85 fc b7 1d 75 e4 3a 9d 75 29 33
       -0.041149445 -3.0102829e-05 0.0017429922 3.9455347e-08
000020 68 9a 76 34 4f e7 a0 b9 72 ab b6 37 d3 9f 3b b8
       2.2966708e-07 -0.00030689916 2.1775926e-05 -4.4733122e-05
000030 1e b4 f9 3d e6 6f 1f 3d 1c 16 87 3d 2c 04 0f bc
       0.12192558 0.038925074 0.06596014 -0.008729022
