checkpoints/ames_50_train1_pos/Aug22-21:35:09_610.pth (torch, 377407 bytes, 294 tensors)

layers.0.weight f4 [10, 16]
000000 18 24 ce 3e ea 27 92 3f ad d6 13 be 26 56 da 3e
       0.40261912 1.1418431 -0.14437361 0.4264385
000010 fe 81 25 3e da b4 4a 3e 1d d2 3f be 2e de 95 3f
       0.1616287 0.19795552 -0.18732496 1.1708429
000020 7b fc 6d 3f eb 54 aa bf ba b1 93 be 58 bd 34 3d
       0.9296338 -1.3307165 -0.28846532 0.044125885
000030 d7 32 aa bd fa d6 9f 3f fe 65 6a bd 34 da d9 be
       -0.08310478 1.2487481 -0.057226174 -0.42549288
000040 9a 43 8d 3f 7f 41 15 3b 1e a0 e8 be 02 23 4c 3f
       1.1036255 0.0022774634 -0.4543466 0.7974092
000050 f6 f3 3f be 58 72 c2 be 30 f7 66 be e7 1e 36 3e
       -0.18745407 -0.37977862 -0.22555232 0.17785226
000060 b9 cf c8 bf 15 b8 52 be 34 5e 41 bf 22 5d f9 3b
       -1.5688392 -0.20578034 -0.7553437 0.0076099792
000070 da 22 aa 3e e3 d3 78 3e 4d 52 ad 3f 5c 73 80 be
       0.33229715 0.24299578 1.3540741 -0.25088012
000080 b2 99 d0 3e 2b 80 2a 3d ff 10 98 be 0c 36 b8 3d
       0.4074226 0.041626137 -0.29700467 0.089946836
000090 bc af 91 3e fc ec e2 3e 64 1c 39 3d 01 7b 07 3d
       0.28454387 0.4432143 0.04519309 0.03307629
0000a0 31 4b a8 3e b4 6a 8c be 26 bc 14 3f 78 b2 f3 3f
       0.32869866 -0.27425158 0.5809959 1.9038839
0000b0 ab 9a 05 3f 72 25 df be 60 b8 df 3e a9 33 ea 3e
       0.5218913 -0.43583256 0.43695354 0.4574254
0000c0 09 84 96 3e ea 46 60 bd dc f2 1c bf 8f d3 aa 3d
       0.2939761 -0.05475513 -0.61308074 0.08341133
0000d0 47 0b bf bf 6c e4 d2 3e e1 36 82 3f 17 62 09 bc
       -1.4925317 0.41189897 1.0172998 -0.008385203
0000e0 09 32 b8 3e 22 7b a9 be 4c dd 8b 3f 0c 17 ae be
       0.35975674 -0.33101755 1.092691 -0.34001958
0000f0 26 2b 33 3e 41 a0 d1 be c4 0c ca 3e fd 03 53 bf
       0.17496929 -0.40942577 0.39462864 -0.8242796
000100 d5 0d dc 3e 3d 59 11 be 84 3f 6b 3f 89 39 12 3e
       0.42979303 -0.14194198 0.9189379 0.1427976
000110 15 13 3c 3e ab ee 87 3e 90 2c c7 3f 05 e6 07 bd
       0.18366654 0.26549277 1.5560474 -0.033178348
000120 78 0a c0 3e fb 56 27 bf 08 09 24 bf bf bc 2a bf
       0.37507987 -0.65367097 -0.6407628 -0.66694254
000130 d0 2d a0 3e 03 ad 1b be 81 46 a6 3e 98 67 90 3f
       0.31284952 -0.15202717 0.32475665 1.1281614
000140 18 56 3e 3f 13 eb 43 bf 5a 4f df 3c b8 1b 30 bd
       0.7435012 -0.7653057 0.027259517 -0.042995185
000150 73 f7 28 3f d3 85 66 3f 99 ab 8f 3e 19 0b 82 bf
       0.6600258 0.9004795 0.28060606 -1.0159637
000160 7e 72 cb be b1 ca 16 bf ac 1e 19 3e aa 58 42 3c
       -0.39735788 -0.5890303 0.14953107 0.0118619595
000170 cf 39 d1 3e ab d5 85 3f 6b 75 81 bf 77 dc 38 bf
       0.40864417 1.0455831 -1.0113958 -0.722114
000180 c5 f8 17 3e 01 2c 1b 3f 41 ed b1 3c 2b 2e 68 bf
       0.14840992 0.6061402 0.021719577 -0.90695447
000190 be 8a 1b 3e b4 57 1a 3d 2f 70 63 be a0 54 b4 bf
       0.15189645 0.037681296 -0.22210763 -1.4088326
0001a0 a0 99 ca bd a0 bc 4c bf 3d 23 95 be 20 a7 3a 3d
       -0.09892583 -0.7997532 -0.29128447 0.04556954
0001b0 ca 54 37 bf 7b cf 83 3d 4d bb bc 3f d6 8d d3 be
       -0.7161375 0.06436058 1.474466 -0.4131915
0001c0 84 17 6b 3f b7 cc 30 bf b4 e0 be be bd 02 a6 be
       0.91832757 -0.6906237 -0.3728081 -0.32423964
0001d0 79 a7 60 3d e9 e7 b8 bf 4a 72 29 be 27 ee 11 bd
       0.054847214 -1.4445773 -0.16547504 -0.03562751
0001e0 8b a3 11 3f d7 c6 38 bf 45 d8 6c be cf 87 a7 bd
       0.5689017 -0.72178406 -0.23129375 -0.081802
0001f0 2d 7d a1 3e c9 c1 0a bf 60 32 db be 28 57 e7 be
       0.31540814 -0.5420194 -0.4281187 -0.45183682
000200 be a0 47 3f 34 5e 10 3e 6f 86 b4 3f cb 54 55 3e
       0.7797965 0.14098436 1.4103526 0.20833127
000210 6f d8 0e bf fc e4 f4 3e c9 fa 64 bf ff cb 3e be
       -0.55799 0.4783095 -0.8944517 -0.18632506
000220 cd 5a ce 3b af 2a 20 be a6 4f d7 be 53 8a bd bd
       0.0062974454 -0.15641282 -0.42052954 -0.09254899
000230 fc df f0 3e 89 b3 9b bf d4 c3 cb bd f8 33 fa be
       0.47045887 -1.2164165 -0.099494606 -0.48867774
000240 ea 5c aa bf 2a 03 99 3e 50 7d 85 3e de 4a 84 3f
       -1.3309605 0.29885226 0.26072168 1.0335348
000250 99 3c 2a 3f 23 e2 81 bf c6 e9 e7 3d 0d cc 6d bf
       0.66498715 -1.0147136 0.113238856 -0.9288948
000260 eb d9 5e be b4 b1 88 bf b6 0c 4f 3f 64 90 73 bd
       -0.21762817 -1.0679231 0.8087877 -0.059463874
000270 be 76 f1 3d 8e 14 b5 be d7 8d 1d be 2e 5e 0f be
       0.117902264 -0.35367244 -0.15386139 -0.1400077

layers.0.bias f4 [16]
000000 7a e2 b8 bd bb 43 10 bf 5d 9f 57 be 9a 99 12 3f
       -0.09027572 -0.5635335 -0.21056886 0.5726563
000010 a3 c6 92 3e e4 f4 84 3e 39 e0 10 bf 95 ca cc bb
       0.28667173 0.25968087 -0.56592137 -0.0062497356
000020 9e c6 ac 3e 7b 3d ce 3d fe 3b a2 be f3 5f 3e bf
       0.33745283 0.1007032 -0.31686395 -0.74365157
000030 3a 8d 53 bf 51 fe f6 bd b8 1a a6 3c a5 8b 35 be
       -0.8263737 -0.12060226 0.020276412 -0.17729051

layers.1.weight f4 [16, 16]
000000 94 df 06 3e ec 09 93 3d 57 d4 83 3c fb 09 94 bf
       0.13171226 0.07179627 0.016092462 -1.1565546
000010 53 2a 7b bd 29 d7 3d bf 7b b3 43 bc 88 a7 97 3e
       -0.06131966 -0.74156433 -0.011944647 0.29620004
000020 1c 48 95 3e 40 e4 7c bf d3 b4 57 be 02 7d 84 bd
       0.29156578 -0.9878578 -0.21065073 -0.06469156
000030 00 eb c7 bc 2a 46 e8 3c f2 e2 84 be db 5e 34 bf
       -0.024404049 0.02835377 -0.25954396 -0.7045724
000040 a7 24 3e 3d a6 25 39 3e a6 08 2f 3f ed 89 15 3c
       0.046421673 0.18080768 0.6837257 0.009127122
000050 e4 ef af 3e d7 52 e7 3e ad 83 75 bd e8 0d 56 bf
       0.3436271 0.4518039 -0.05994003 -0.8361497
000060 db d6 3a 3f 16 86 83 3e 3f 30 9f 3c 34 de 0c be
       0.72984093 0.25688237 0.019432185 -0.13756639
000070 e1 c9 3e be ea 1d bb be 45 c3 af 3e c4 bf a9 ba
       -0.18631698 -0.3654626 0.34328666 -0.0012950827
000080 2e b3 7b 3e b0 6c d2 3e 51 b2 c5 bd 9f 65 23 3e
       0.2458007 0.41098547 -0.09653152 0.15956734
000090 ef 2a 8a 3e 53 71 e4 bd b1 92 d9 3e 78 d3 12 3e
       0.2698588 -0.111544274 0.4249473 0.14338481
0000a0 93 f9 bc bc 9d 9f 51 bf cb 95 27 3e 09 7a de 3d
       -0.023068225 -0.81884176 0.16365735 0.1086312
0000b0 75 79 38 3f f4 04 96 be fe c9 07 3e 5f 9e ac be
       0.7206033 -0.29300654 0.13260648 -0.33714578
0000c0 b4 d3 6e 3c a8 2c 63 3e 27 6c 68 3f b9 1b bd 3e
       0.014576841 0.22185004 0.9079003 0.36935213
0000d0 bd b4 cd be ec 26 e1 be 8f 7c 62 3d 1a 70 09 3e
       -0.40176955 -0.43975008 0.05529457 0.1342167
0000e0 87 65 84 3c c6 06 ca bd 6c bc e0 3d e6 19 d3 3d
       0.016161693 -0.09864573 0.109734386 0.10307674
0000f0 70 c9 ff bd 91 cd 19 3e c5 f0 bc be de fd 63 3d
       -0.12489593 0.15019824 -0.36902443 0.05566203
000100 11 e0 f2 be 6d 22 5b 3f cd 13 d5 3e 10 58 b3 3e
       -0.47436574 0.85599405 0.4161667 0.35028124
000110 37 12 ab be 12 83 a5 bc ed 0e fa be d1 e2 18 3f
       -0.33412334 -0.0202041 -0.48839512 0.59721094
000120 9c 49 53 be ad 34 09 3f 3c 56 da 3b a8 0c 6e be
       -0.20633548 0.53596 0.006663112 -0.23247015
000130 c5 42 61 3f 09 84 64 be 43 ae ee bd e2 ef a9 3e
       0.8799251 -0.22315992 -0.116543315 0.3319083
000140 65 f0 b3 3d bd 6a 08 3b 30 e0 11 be b5 72 93 be
       0.08786086 0.0020815574 -0.14245677 -0.28798452
000150 29 99 79 be c9 61 35 bf 47 51 25 be 28 9c 7a 3d
       -0.24374832 -0.70852333 -0.16144286 0.06118408
000160 96 bf 03 bf 17 fe 15 3e 4e 15 e9 bd 01 13 c9 bd
       -0.5146421 0.14647709 -0.11381017 -0.09818078
000170 7a 3f b3 be ec 55 7e 3e e2 71 b2 be d3 43 a5 be
       -0.35009366 0.24837464 -0.3485251 -0.32278308
000180 e5 87 03 3f ec e7 57 bf 15 f6 b0 bd ab 4c 3e 3e
       0.51379234 -0.8433826 -0.086406864 0.18583934
000190 68 81 f4 3e 66 e5 83 bf f8 b6 10 3f 77 d9 b7 3d
       0.4775498 -1.0304382 0.5652919 0.08977025
0001a0 93 d8 e1 be 43 e7 13 3f c1 89 29 be cb 1b 04 3e
       -0.44110546 0.5777475 -0.16556455 0.12901227
0001b0 ba 98 8c 3d 61 91 6b be 21 b1 bf bd 77 87 bd bf
       0.06865068 -0.23004676 -0.093599565 -1.4806966
0001c0 3e 20 ff bb 24 16 87 3e ce a2 13 3f be 3f f9 be
       -0.007785826 0.2638408 0.57670295 -0.48681444
0001d0 cb ce 2f bd cd 2b 6d 3d 8b 2a d5 3c 84 b6 ed bf
       -0.042921823 0.0579031 0.026021263 -1.8571324
0001e0 1c d4 f6 be 96 c6 b5 be 85 d4 89 3c 0d eb 67 bb
       -0.48208702 -0.35503072 0.01682497 -0.0035387904
0001f0 b8 6e 02 be 9a 11 4a 3d c4 3e 41 3d 63 7f 10 bd
       -0.12737548 0.049333192 0.047179 -0.035277735
000200 d1 a5 24 bd d3 47 a6 be 13 8f 06 3f 13 58 73 bb
       -0.040197197 -0.32476673 0.52562064 -0.0037131354
000210 c4 3b 86 be 2a 45 29 bf 0d 08 f7 bd 75 e6 5c bf
       -0.26217473 -0.6612116 -0.120620824 -0.8628915
000220 6c e8 4c bf 77 fa a7 3e b4 1f a5 bd 64 3f 7e bd
       -0.8004215 0.32808277 -0.080626875 -0.062072173
000230 84 ad b8 3d 49 ee c2 3d a1 2d b2 be 09 28 ad be
       0.090174705 0.095181055 -0.34800437 -0.33819607
000240 e1 e0 75 be 7d 9f d3 3e 0e df bb bf e3 f6 e4 ba
       -0.24011566 0.41332617 -1.4677446 -0.0017468598
000250 05 65 a3 bd c2 03 3b 3f 7c fb 73 bd 60 ec 27 bf
       -0.07978252 0.7305261 -0.059566006 -0.65595055
000260 9a 62 0a bf 35 31 37 be 10 96 9e 3e fe 05 6c 3c
       -0.54056704 -0.17889865 0.30973864 0.0144057255
000270 fa 7d 24 be 75 02 c9 3d f6 ff 81 3e 98 9a 30 3f
       -0.16063681 0.09814922 0.25390595 0.6898589
000280 57 34 cd bd ae 29 3f bf 88 a3 d7 3d b5 6b 33 3f
       -0.10019749 -0.74672973 0.10529238 0.7008622
000290 ce da 12 be d5 ed fc be 67 8a 1f be b2 97 66 3e
       -0.1434128 -0.494002 -0.1558014 0.22518805
0002a0 ec 8c 17 bf 06 32 a9 3e d5 4d 41 be 88 d9 8b be
       -0.59199405 0.33045977 -0.18877347 -0.273144
0002b0 c5 5e 86 bf 07 7c 56 bd 9a 40 8f bd 75 04 20 bf
       -1.0497671 -0.052364375 -0.06994744 -0.625068
0002c0 00 24 9c be ff 32 40 3e 52 c1 4d bd 1c be 5c bd
       -0.30496216 0.18769453 -0.050233193 -0.05389224
0002d0 c0 b8 78 be b5 35 93 bf c6 98 db bf c9 64 b0 bd
       -0.24289227 -1.1500765 -1.7155998 -0.08612973
0002e0 8f 80 08 3d 40 86 2e be 01 40 72 3e 20 80 1a be
       0.033325728 -0.170434 0.23657228 -0.15087938
0002f0 c5 6b d2 be 83 a1 b3 be dc 14 34 be b0 0b a5 bf
       -0.41097847 -0.3508416 -0.17586082 -1.2894192
000300 d4 20 33 3e 82 44 75 3d 3a 72 da 3d ee a5 69 be
       0.17492992 0.059879787 0.10666318 -0.22817203
000310 c4 f8 d5 3e 7f 6b b5 be 3b 67 c3 be 2f c6 98 3e
       0.41791356 -0.35433576 -0.38164696 0.29838702
000320 53 bd 63 be 84 51 19 bf 60 15 9a be d4 e2 d8 be
       -0.2224019 -0.5989001 -0.30094433 -0.42360556
000330 34 c1 20 be 9e ce b9 be 0b 51 42 3e d0 96 53 bf
       -0.15698701 -0.3629045 0.18976228 -0.82651997
000340 08 da cb 3b aa 68 e7 ba 7a cb 81 3f 2f 73 cf be
       0.0062210597 -0.0017655094 1.0140221 -0.40517566
000350 8c 33 28 3e 22 2a 3f 3f ed 5d 4e 3e 17 42 7b be
       0.16425914 0.74673665 0.20153017 -0.2453693
000360 b5 93 e7 bc 35 37 85 3f a1 b6 4a 3e 21 b1 9c 3d
       -0.028268674 1.0407473 0.1979623 0.07650972
000370 06 6c 8f 3e 18 4c 93 be bd da 8a 3e ec 62 0a 3f
       0.28012103 -0.28768992 0.2712001 0.5405719
000380 25 2c 9b 3e 28 75 c7 3d 6a ed b2 be 30 25 ad be
       0.30307117 0.09739143 -0.34946758 -0.33817434
000390 61 09 08 be a7 5a 17 bf cb 10 8e bd 2c 98 7f be
       -0.13284828 -0.591227 -0.06936797 -0.24960393
0003a0 8b 51 ce 3f 15 0d 20 3f 6e 5f 71 be 96 91 28 be
       1.6118635 0.6251996 -0.2357156 -0.16461787
0003b0 4d 01 98 be 49 28 2f 3e 94 cd 7c be 3f 14 03 bf
       -0.29688492 0.17105211 -0.24687797 -0.5120277
0003c0 05 3c 24 3e 67 61 29 3f a8 6d 0d bf f5 6f ba 3d
       0.1603852 0.6616425 -0.5524545 0.09103385
0003d0 5e 00 d1 3d e7 7f 46 bf 19 a2 5a be d8 1a ff be
       0.10205148 -0.77538913 -0.21350898 -0.49825168
0003e0 54 b8 ae be a0 d2 a7 3e e5 02 2b bd 81 25 58 be
       -0.34125006 0.32777882 -0.041750807 -0.21108057
0003f0 82 98 5e 3f dd 0d da be 60 0c 94 be 27 54 09 bf
       0.8695146 -0.42588702 -0.2891569 -0.5364403

layers.1.bias f4 [16]
000000 6b 7e bb 3e b5 96 9e be b3 d5 3e be 2f e8 1a be
       0.36619887 -0.30974355 -0.18636207 -0.15127634
000010 08 6d 54 be c3 b7 c1 be aa b1 20 bf 77 29 e8 bd
       -0.20744717 -0.37835512 -0.62771094 -0.11336034
000020 46 35 73 3e 8f 9f 7a be f9 4c 1b 3c f3 a8 c0 3e
       0.23750791 -0.2447493 0.009478801 0.37628898
000030 3c 77 96 be e4 fd 5b bf da 6f af 3d 04 ee 6b bf
       -0.29387844 -0.8593428 0.08566256 -0.9216006

final.linears.0.weight f4 [84, 42]
000000 d1 0a af 3d b6 fa e6 bc 9c 76 10 bf 3d 45 33 bf
       0.08546985 -0.02819572 -0.56430984 -0.70027524
000010 19 34 13 bf d8 61 b0 bf e5 e3 80 bf 56 1c 9a be
       -0.5750137 -1.377986 -1.0069548 -0.30099744
000020 8d 74 ef be 4a 2e a4 3e a0 90 aa be 61 9f 68 be
       -0.4676861 0.32066566 -0.33313465 -0.22717048
000030 51 7a 69 3d 75 9e 00 be 16 ad 0b 3e c5 4d 85 bb
       0.057001416 -0.12560447 0.13640246 -0.0040681087
000040 01 c6 59 3e a0 e5 1c be 7f 3f 0c be f8 27 5a 3e
       0.21266939 -0.1532197 -0.13696097 0.2130431
000050 0e 27 45 3e e9 34 51 3e 48 5c 2c 3e 95 df 30 3e
       0.1925318 0.2043034 0.16832078 0.1727279
000060 a2 36 85 be 20 5d 4a 3d be 31 ba 3c 60 60 24 3e
       -0.26018244 0.049405217 0.022728797 0.16052389
000070 15 4c 81 3e 27 ff 3b be 17 21 84 3b 42 e7 0a 3e
       0.25253358 -0.18359052 0.004032265 0.1356478
000080 93 06 98 bd e4 5f 21 be 6a d7 11 3e f5 f2 9c bd
       -0.07423129 -0.15759236 0.1424233 -0.07663528
000090 be c5 34 be d4 ba a5 3e 06 17 8d bd 11 55 0d 3e
       -0.17653558 0.323691 -0.06889157 0.13801982
0000a0 39 2e 01 be 4f b1 84 be c0 9f 13 be 09 98 20 bf
       -0.12615289 -0.25916526 -0.14416409 -0.6273199
0000b0 3d b3 75 bf 48 21 87 3f 32 d8 30 be 4d ba 0b bf
       -0.9597662 1.0557032 -0.17269972 -0.5458115
0000c0 7d 9e 18 3f c3 c4 07 bb ac 7c d3 be 45 48 5d bf
       0.59616834 -0.0020716644 -0.41306055 -0.864384
0000d0 34 3b 6c bd 58 fe 99 bd 1a f8 73 3e ff 4a 84 3f
       -0.057673648 -0.07519215 0.23825112 1.0335387
0000e0 dd aa b5 3f 48 3b dc 3d fe a6 1b bf 1f ee 0d be
       1.4192768 0.107534945 -0.60801685 -0.13860367
0000f0 dd df 6f bd 8c aa 6e be ed cc 08 3d 1c 6b 76 3f
       -0.058563102 -0.23307246 0.033398557 0.96257186
000100 a4 d5 51 3f 16 7e 6a bc 2e ba 83 bd f2 30 37 3f
       0.81966615 -0.014312288 -0.06431995 0.7155906
000110 da 2c 3a 3e fe d9 fe bd 3d 9b f5 bd 6f 55 4e be
       0.18181172 -0.124439225 -0.119925 -0.20149778
000120 e0 d1 bf 3e 94 ce 62 3e e3 0b dd 3e f1 de 82 bd
       0.3746481 0.22149116 0.4317313 -0.06390179
000130 c6 cb 18 bd a8 b3 7c 3d 05 54 e3 be ba 30 89 3e
       -0.03730371 0.06169477 -0.4440004 0.26794988
000140 22 d8 1e be 43 d1 40 3f 5a 7d 24 3e b6 9c 83 bd
       -0.15512136 0.7531931 0.16063443 -0.064263746
000150 fc 10 f0 be 11 92 88 bd 03 1a 43 3e 74 ea ec 3e
       -0.46887958 -0.06668485 0.19052891 0.46272624
000160 9d 72 97 3e 98 8d e5 3e 49 10 7b bf ae c3 3d be
       0.2957963 0.4483459 -0.98071724 -0.18531677
000170 77 57 be 3e 7b 35 2f 3f e1 89 e8 bb ee 9e 0a 3d
       0.37176105 0.6844098 -0.0070965146 0.033842973
000180 f2 cf b2 3c de 82 d6 bd 02 42 a8 bd 76 47 33 3c
       0.021827672 -0.1047418 -0.08215715 0.010942331
000190 f4 47 9e 3d 70 27 5a bd 2f a7 66 bd 0c 0a bb 3d
       0.07728568 -0.053260267 -0.056311782 0.09132776
0001a0 5c c8 35 3d 74 bd 5f 3c 57 b8 a1 3d 9d fb 73 3d
       0.04438053 0.013656009 0.07896488 0.05956613
0001b0 30 af 73 3d f2 07 b5 3c a4 49 a5 bd c0 37 b9 3c
       0.059493244 0.022098515 -0.080706865 0.022609591
0001c0 b0 06 9b 3d 23 be 90 bb 28 eb bd bb 18 f7 02 3e
       0.07569635 -0.0044171973 -0.005795855 0.12789571
0001d0 f3 94 05 bd 8c a1 54 bd e2 24 bf 3b 13 48 99 3c
       -0.032612752 -0.051911876 0.005833254 0.018711125
0001e0 5c eb b3 3c 68 ec 3c 3d 19 8a 31 3c 76 3f 93 bc
       0.021962814 0.046123892 0.010836148 -0.017974596
0001f0 a1 a2 3a bd 39 15 c9 3c 99 a2 8b 3e c5 6a a8 3d
       -0.04556525 0.024546253 0.2727249 0.0822349
000200 0e 1e 12 3f 41 b2 81 3e 05 22 cc 3e 51 ec fa 3d
       0.5707711 0.2533131 0.39869705 0.12252105
000210 82 6e 00 3d 22 67 b7 be b8 a3 01 bf df de f5 3d
       0.03135539 -0.35820872 -0.5064044 0.120054
000220 d9 cc 8c be 43 79 94 3e 16 f8 fe be 45 00 ce be
       -0.27500036 0.28998765 -0.4979865 -0.4023458
000230 7f df 32 bd 4d bc b9 bd 2d e1 ed 3e a0 0d 0d 3e
       -0.043670174 -0.09069119 0.46460858 0.13774729
000240 14 1e 35 bf 93 f9 85 3f 7d d7 4b 3d d4 19 27 3e
       -0.7074902 1.0466789 0.049766053 0.16318446
000250 cc bc 2f 3d 5f 95 ac 3e cb bd 2f 3f 19 19 03 3f
       0.04290466 0.3370771 0.68648976 0.5121017
000260 db d9 0d 3d 3e 0b 20 3d ac 50 23 bf a2 82 f2 be
       0.03463159 0.03907322 -0.6379497 -0.4736529
000270 df ae c7 3d 7a 31 e8 bd c6 04 a5 3c 58 f6 bd bd
       0.09750151 -0.11337562 0.020143878 -0.09275502
000280 8e 13 87 3e 74 42 b0 3e 90 c7 92 bd 40 80 0e 3d
       0.26382107 0.344257 -0.0716697 0.034790277
000290 16 a3 47 3d cd be 43 3e 32 f9 99 bb 73 c4 b1 3e
       0.048739515 0.19115753 -0.004698896 0.3472019
0002a0 a2 fb ad bb 8d 66 87 3d b9 0e 34 c0 11 3e 0e 3f
       -0.005309538 0.06611357 -2.8133986 0.55563456
0002b0 04 b1 0b 3f b5 bd 1e 3d 55 89 07 bd 1e ac 0b 3e
       0.5456698 0.038755137 -0.033089954 0.13639876
0002c0 eb 8c 9e 3e 4c ae 39 bc 23 cb 06 be 4e b8 d3 bd
       0.30966887 -0.0113330595 -0.13163428 -0.10337888
0002d0 dd e6 e9 bc 7d 6d 0d 3e 54 19 e0 3d 24 67 09 3c
       -0.028552467 0.13811298 0.10942331 0.008386407
0002e0 34 13 26 be 6c 1f 40 3d 37 7a cc bc b7 3c d1 3d
       -0.16218263 0.046904966 -0.02496062 0.102166586
0002f0 9d a3 19 be 79 38 92 be 1a 0d 8a be 52 19 c6 3c
       -0.1500382 -0.2855871 -0.2696312 0.024181996
000300 f0 f0 f7 bd 0b 06 00 be 63 7c b8 3d ea 41 c2 3c
       -0.12106502 -0.12502305 0.090081 0.02371307
000310 23 10 64 3c 33 ea 0a 3d ad 4e 99 3d 2f 0c bc be
       0.013919863 0.033914756 0.07485709 -0.36728045
000320 db 1e fb be c9 d4 ed bb 68 53 a4 bc 50 3e 53 3d
       -0.49046978 -0.007258032 -0.020059302 0.051573098
000330 02 7c 79 be 19 10 e0 3e 31 88 30 bc 59 87 a2 3d
       -0.24363711 0.43762282 -0.010774658 0.07935972
000340 99 52 06 be cc 98 01 3f cd b5 4b 3d 7b 8f 47 3d
       -0.13117446 0.50623775 0.049733926 0.048720818
000350 1c e2 82 be 82 37 80 3e 33 6f 50 be e6 90 1c 3d
       -0.25563133 0.2504235 -0.20354919 0.038224123
000360 1c 62 7d 3c 11 a1 63 3e c4 c3 83 3d b2 49 a9 3d
       0.015465286 0.2222941 0.06433824 0.082660094
000370 50 47 82 be 98 2a ca 3d c9 d0 20 bf c1 f3 f7 bd
       -0.25445032 0.09871405 -0.6281858 -0.12107039
000380 f2 19 ae be a3 3c 60 bd 1f e1 25 be 3c d0 bd bd
       -0.3400417 -0.054745328 -0.16199158 -0.09268233
000390 3a 64 ef bd 1b 38 90 3e 29 41 16 3f be 66 6f 3d
       -0.116890386 0.28167805 0.58693177 0.058447592
0003a0 c3 c8 68 3c 6f 7c 6f 3c b2 b1 53 3d 9f a3 4d bf
       0.014208022 0.01461707 0.051683135 -0.8032779
0003b0 5d 77 93 3d 2f ec 62 3e a1 fb 82 3d c3 9d 8c bd
       0.07200501 0.2216041 0.06395651 -0.06866028
0003c0 a9 9b a4 3d a5 1d 68 3c 5e 61 73 bd 3f b3 76 bd
       0.08037502 0.014167224 -0.05941903 -0.060229536
0003d0 5d c8 84 bd 2c 3a 34 bb 39 a2 b0 3a c9 71 0c bb
       -0.06483529 -0.0027500493 0.001347608 -0.0021430126
0003e0 0a e6 c0 3d cb 4f 3e be b4 7a dc 3c 1f ff 8f 3c
       0.094188765 -0.18585126 0.026913978 0.017577706
0003f0 33 7e 80 bc e6 e5 58 bb c4 c4 5d c0 48 18 ac 3f
       -0.015685176 -0.0033096015 -3.4651346 1.344491

final.linears.0.bias f4 [84]
000000 19 76 71 3e 0e 49 e3 bd 4e 7d 60 3d 9b 26 9d 3e
       0.23580207 -0.110979185 0.054807 0.30693516
000010 2f 0a 93 3e 7d 28 5f 3d 59 e1 a0 be 50 65 c6 3d
       0.28718707 0.054481972 -0.31421927 0.096872926
000020 d2 bb 12 3e e5 7f 3d 3e b9 db 3b 3e 8a 2c 7a bd
       0.1432946 0.18505819 0.18345536 -0.061077632
000030 3c 2e 0f 3e 40 d0 b4 3e ac 59 9c be 45 c6 38 3e
       0.13982481 0.35315132 -0.30537164 0.18044384
000040 f7 51 8d 3d d5 7d 03 bd 62 2c 2b 3e be de 06 3e
       0.06900399 -0.032102425 0.1671615 0.13170907
000050 55 12 4b 3e cd fa 16 3e 0a aa a4 bb 68 c0 26 3f
       0.19831212 0.1474411 -0.005025153 0.6513734
000060 2a ca 04 3e 07 ab 5a 3e 79 d3 37 bd 83 99 22 3d
       0.12967744 0.21354304 -0.04487941 0.03969718
000070 bc fc cb 3e d4 58 86 3e f3 e9 2c 3e f1 0c a1 3d
       0.3984126 0.26239645 0.1688612 0.078637965
000080 35 3a f6 3d bf 59 af 3e 4f da b8 3d 3a b7 7f 3e
       0.12022821 0.34248158 0.09026014 0.24972239
000090 e4 7a ae 3d 62 a0 90 3c b9 e7 94 3b f1 52 8a 3e
       0.08519533 0.017654601 0.004544225 0.27016404
0000a0 93 1c c3 be 2d 86 bc 3e 8b 02 88 3e 9a 6a 8c 3e
       -0.38107738 0.36821118 0.2656444 0.2742508
0000b0 b1 30 2c 3e 77 1c a8 3c b1 78 1b 3e 76 b1 01 3f
       0.1681545 0.020521386 0.15182759 0.5066141
0000c0 7e da 6b 3e d2 78 91 3d 45 97 4e bd 37 64 d5 3e
       0.23032567 0.07103123 -0.05043723 0.4167802
0000d0 00 fe 8a bd 5d 45 95 bb 65 92 9f 3e e0 60 3f be
       -0.06786728 -0.004555388 0.31166378 -0.18689299
0000e0 6d 96 11 3c 65 2c e5 3d 9d bf 89 3e 5e 36 99 be
       0.008885962 0.11190108 0.26904002 -0.2992429
0000f0 b6 a3 ad 3e 12 5e 1b 3e 3a b1 32 3e e3 bd 12 3e
       0.33913964 0.15172604 0.17450419 0.14330249
000100 b2 76 88 3e 58 e7 68 3e 65 65 35 3e bb c1 00 3d
       0.26653057 0.227445 0.1771446 0.031434756
000110 b9 44 8d bd 5d 56 e5 3e dd 15 08 3e 18 29 0a 3e
       -0.068978734 0.44792452 0.1328959 0.13492239
000120 91 15 0d 3d 28 fd 19 3e 35 2b d9 bd 74 f3 5a 3e
       0.034444395 0.15037978 -0.10603944 0.21381932
000130 f2 da 86 bd 83 da 08 3f 85 eb 19 be 32 0a 45 3d
       -0.06584729 0.5345842 -0.1503125 0.048105426
000140 b2 89 23 3e 49 3f 53 3e 82 ae ac 3e 08 9a 09 bd
       0.15970495 0.2062961 0.3372689 -0.03359416

final.linears.1.weight f4 [84, 84]
000000 57 92 5f be 3c 97 d9 3d 8c 14 bf be da d5 18 bd
       -0.21833168 0.10624549 -0.37320364 -0.03731332
000010 f4 44 85 3d 74 cc 50 be 52 14 d1 bd aa 06 9f be
       0.065072924 -0.20390493 -0.10208954 -0.31059772
000020 c8 5e 11 be 84 13 1f bd eb ca ac 3d 1d b7 ce bd
       -0.14196312 -0.03883697 0.08437141 -0.1009352
000030 4f 37 4f bc 0e 4f 41 bd e3 06 98 bc 92 d0 ec bd
       -0.012647464 -0.047194533 -0.018557971 -0.11563219
000040 75 03 29 bd d9 8e 74 3e b3 8f 4f 3c 81 47 c1 bd
       -0.041263063 0.23882617 0.012668538 -0.094374664
000050 cd 61 e6 bd fb 67 ed bd c2 bc 7a bc 35 00 e4 bd
       -0.11249123 -0.11592098 -0.015303792 -0.11132852
000060 63 19 99 bd 63 ed 8d 3b 74 98 d9 3c 95 52 ac bd
       -0.07475545 0.004331277 0.026561953 -0.08414189
000070 8f d1 2f be 05 fe e8 bd db e3 4f be ab 99 e9 3d
       -0.17169784 -0.113765754 -0.20301764 0.11406263
000080 b3 ec cd bb 29 24 2b 3e 89 b3 39 be ac d3 f7 bd
       -0.0062843203 0.16713013 -0.18134893 -0.1210092
000090 d2 07 2c 3d ee a4 c4 bd 98 b4 71 3c ef 7a e7 bd
       0.041999646 -0.0960177 0.01475253 -0.113027446
0000a0 66 e4 07 3e 1e 2a e5 bd 95 91 92 3c 96 a0 00 3b
       0.13270721 -0.11189674 0.017891685 0.0019626967
0000b0 99 5b cf 3c 77 79 49 bd 07 32 5f bc 3b 66 fe bc
       0.025312232 -0.049188104 -0.013622767 -0.031054607
0000c0 35 35 62 bd b8 87 0b be aa be 43 be 55 42 a6 3b
       -0.055226523 -0.13625991 -0.19115701 0.0050738254
0000d0 49 f5 99 bc d2 36 b2 3d 71 07 21 bd c0 88 08 be
       -0.018793719 0.087018624 -0.039313737 -0.13333416
0000e0 50 d1 38 3d 3d 59 87 bc 2a 5e c3 bd c7 d4 5b bd
       0.04512149 -0.016522044 -0.09539445 -0.053669717
0000f0 4b aa c3 bd 0d 5a 57 bd c9 91 03 3e 34 bf 45 3e
       -0.09553965 -0.052576113 0.12848581 0.1931122
000100 dc 9e 03 be 20 84 69 bd 87 85 0d be 11 0b ab bd
       -0.12853569 -0.05701077 -0.13820468 -0.0835172
000110 9d d0 d0 bc c3 87 a4 bc 9b d3 9a 3e 98 e0 56 3c
       -0.0254901 -0.020084267 0.30239567 0.013115071
000120 b6 a8 3b 3c 92 bc 26 be b4 98 63 bd 2a 7d 85 3c
       0.011453798 -0.16282871 -0.05556555 0.016295034
000130 9d 0c fa 3b 9b 33 98 bd 8a d2 21 bd e5 45 86 bd
       0.007630898 -0.07431718 -0.039507426 -0.065563
000140 3c a9 ae bd f0 44 27 be 14 17 13 be c4 9b 2c bd
       -0.08528373 -0.16334891 -0.14364272 -0.042140737
000150 f7 78 35 be af 40 b3 3d fb 5d f7 bd 6f e4 a4 bd
       -0.17721926 0.08752572 -0.12078472 -0.08051383
000160 18 99 6a 3d 6a a2 e7 bd 9c fe af 3d e8 ac 46 be
       0.057274908 -0.11310275 0.08593485 -0.19401896
000170 8a b3 35 be 09 70 50 be ba 50 53 be 3d 0a df bd
       -0.1774427 -0.20355238 -0.20636263 -0.10890625
000180 9e 77 24 be c1 1b 07 3d 6c 3c 55 bc d9 2e 00 bf
       -0.16061255 0.032985453 -0.013014894 -0.50071484
000190 33 e4 54 bd d5 a1 59 be fb 0a 40 3c d9 b0 3e be
       -0.05197544 -0.2125314 0.011721368 -0.1862215
0001a0 38 37 23 be 2c 86 88 bd cb 66 cb 3c b8 50 79 be
       -0.15939033 -0.06666216 0.024829289 -0.24347198
0001b0 59 d3 e2 bd 2b 58 b8 bd a4 12 77 bd ff 36 bb bd
       -0.110754676 -0.09001192 -0.06032051 -0.09141349
0001c0 2d 09 f3 bd 7d dc 9b be 17 3e ae be 17 3b 3a be
       -0.118669845 -0.30441657 -0.34031746 -0.18186603
0001d0 39 da 6f bb 7b 0d 9a be e9 3a bc be 58 66 98 be
       -0.0036598577 -0.3008841 -0.36763695 -0.29765582
0001e0 84 d4 c1 bc e2 03 d4 bd 36 c1 7a bd cb ae 0a be
       -0.023660906 -0.10352303 -0.061219417 -0.1354324
0001f0 7c 2f 16 3e 2d 7c 77 bf 2b 0e e1 3d b8 d1 2c be
       0.14666551 -0.9667385 0.109890305 -0.16876876
000200 70 fd 42 be 27 67 df bd 27 1d 2f bd b3 d5 03 be
       -0.19041991 -0.109083466 -0.04275241 -0.12874489
000210 9d 6e 11 be 22 63 56 bd e6 2c 3e be f9 23 84 3d
       -0.14202352 -0.052340634 -0.18571815 0.06452174
000220 1a cb 86 bd 42 d9 db bd be bd 50 be fd fc 4e bd
       -0.06581707 -0.10734798 -0.20384881 -0.050534237
000230 2a 6f 7c 3d 4e 2f 6f bd 1e 8a 20 be 9e a5 d0 bc
       0.06162945 -0.058394723 -0.15677688 -0.025469597
000240 e5 37 26 be 9f 39 4a bd d3 01 e6 bc c5 5f 12 bd
       -0.1623226 -0.049371358 -0.028077042 -0.035735864
000250 50 98 30 be c1 44 8d bd a9 aa 91 be 14 13 85 be
       -0.17245603 -0.068978794 -0.28450516 -0.25991118
000260 ce 4c 4a be 97 0e ae bd 02 c4 20 be bd 6e 6e bc
       -0.19755861 -0.084988765 -0.15699771 -0.014552769
000270 d1 2e c0 bd 13 3e 44 be 63 63 51 be f2 21 f6 bb
       -0.093839295 -0.19164304 -0.2044807 -0.007511371
000280 b9 bf bd bd 04 7f 29 be 7e b9 d5 3d a2 3d a7 be
       -0.09265084 -0.16552359 0.104357705 -0.3266421
000290 e7 02 37 be 50 ad 15 bd d3 12 50 be ce e1 7d 3e
       -0.17872201 -0.036542237 -0.20319681 0.24793169
0002a0 11 b6 41 be 79 07 9c 3d ba c0 87 3c 19 b0 de be
       -0.18917109 0.07618613 0.016571391 -0.43493727
0002b0 bf 61 59 3b 60 87 1c bc 24 2b 6b 3e a8 65 12 bd
       0.0033169833 -0.00955376 0.22965676 -0.03574148
0002c0 97 83 81 be 06 1b da bd 76 9f 32 be 8f ee 8b bd
       -0.25295708 -0.106496856 -0.17443642 -0.06832611
0002d0 e8 11 0e bf 0d 77 9a be 6c 8b 97 be 39 9d 38 be
       -0.5549607 -0.30168954 -0.29598558 -0.18028726
0002e0 25 89 b1 bd d0 aa 70 3d 4b 5c cd be 5d 13 26 be
       -0.08668736 0.05875665 -0.40109476 -0.16218324
0002f0 04 de 0a bf 18 6b 0c be 53 2b ad be 80 72 b4 be
       -0.5424502 -0.13712728 -0.33822116 -0.35243607
000300 41 7c 09 bf 3c 22 ff be 52 f6 1c bd 78 ce a3 bd
       -0.5370522 -0.49830806 -0.038320847 -0.07998365
000310 64 9b 55 be 37 c0 f0 bd 8c bd a3 be f0 cd 13 be
       -0.20860058 -0.11755412 -0.3198055 -0.14434028
000320 d8 b6 aa be 13 e2 05 bf 55 54 84 be af ea 66 be
       -0.33342624 -0.52298087 -0.2584559 -0.22550462
000330 64 f9 c1 be 6d c1 ed bd 4f aa 9d 3e 49 59 df be
       -0.37885582 -0.11609159 0.30793998 -0.43622807
000340 d9 c9 63 3e 82 1f 22 bf 91 25 02 3e 10 c8 f4 bf
       0.22244968 -0.6332933 0.12709643 -1.9123554
000350 6f 5b fe bd 4c 06 85 bd 2c ff ca be c9 5e 09 bf
       -0.12419783 -0.06495342 -0.39647806 -0.53660256
000360 e6 ec 30 bc db 91 a3 be 8e 82 21 3e 43 a6 61 bd
       -0.0107986685 -0.31947216 0.15772459 -0.0550902
000370 00 2b 7e be 47 4b b0 be 98 a7 10 bf da e0 35 be
       -0.2482109 -0.34432432 -0.5650573 -0.17761555
000380 52 61 aa bd e9 53 87 bd 7e c2 da bd 49 88 7a 3d
       -0.083193436 -0.066078015 -0.10681628 0.061165128
000390 42 4d ce be f4 59 ca be b0 bf 4f be e8 2d 4f bd
       -0.40293318 -0.39521754 -0.20287967 -0.05058089
0003a0 43 e7 26 bc 3a b2 c1 be 57 8c d0 be e8 8a db bd
       -0.010186973 -0.3783129 -0.4073207 -0.10719854
0003b0 48 2c 67 bd 6a a4 1a bf 3d e9 7d bd 85 83 bf be
       -0.056438714 -0.60407126 -0.06199001 -0.3740503
0003c0 96 f2 cc be c7 a0 8b be c5 12 12 be b0 5f d7 be
       -0.40028828 -0.272711 -0.14264973 -0.4206519
0003d0 d7 7b 82 bd 57 a2 ae be 8a 16 2f bd 9b 7c a1 be
       -0.06371277 -0.3410823 -0.042746104 -0.3154038
0003e0 6e c5 38 be 40 77 7d bc 88 94 0c bf fa 89 8a 3e
       -0.18044063 -0.015470326 -0.5491414 0.27058393
0003f0 03 80 e5 3d bf 7e 21 3d 16 9b 51 3e 5e 42 ca bd
       0.11206057 0.039427515 0.20469317 -0.0987594

final.linears.1.bias f4 [84]
000000 fe 40 17 3d f5 ac ad be 19 d8 e6 be 90 fd 89 bd
       0.036927216 -0.33921018 -0.45086744 -0.06737816
000010 c3 be 9e be ce 67 0e be f8 0f 2b bd 56 99 de 3e
       -0.31004915 -0.13906786 -0.041763276 0.4347636
000020 5e 2b f5 bc f7 cf a6 bd 18 bc 12 bc 3c 94 9f 3d
       -0.029927906 -0.08145135 -0.008955978 0.07791945
000030 2f 7d fa bd ec 6e 97 3d c9 d1 39 be 38 7c a2 3e
       -0.12230908 0.073942035 -0.18146433 0.31735396
000040 f4 d4 fd bd 4e 5f 07 bf 3e 78 fc bd a5 76 11 be
       -0.12394133 -0.528798 -0.12327622 -0.14205416
000050 4d 1d 67 be 1c be 03 bf 1f 11 2e 3c 02 6a 67 be
       -0.22569771 -0.5146196 0.010624199 -0.22599033
000060 1b 24 93 be ee 60 3d bd 05 3d d4 bd 2a 00 94 be
       -0.28738484 -0.046235017 -0.10363201 -0.28906375
000070 e6 cc fa be 36 8d d5 be 9a 2b f2 be 87 2a a8 bc
       -0.4898445 -0.41709298 -0.4729889 -0.020528091
000080 43 df 02 3d 61 a5 0c 3e e2 14 7f be 7e 12 a3 bd
       0.0319512 0.13734962 -0.2491031 -0.079625115
000090 73 d7 af bd 56 ef db be 29 91 89 be 35 ad dc bc
       -0.085860156 -0.42956036 -0.2686856 -0.02693806
0000a0 ed 85 e9 bd 42 15 2f bf 1a 4c c7 be c0 db 4c be
       -0.114024974 -0.6839181 -0.38925248 -0.20005703
0000b0 9e d3 2e be 4f 02 37 3d e1 18 46 be e6 e6 45 bd
       -0.17072913 0.044679936 -0.19345428 -0.048315905
0000c0 ca 90 a1 bb 26 f0 21 bf 83 5e f9 be 77 21 1d be
       -0.0049305903 -0.6325706 -0.4870492 -0.15344797
0000d0 d6 4b c2 bd e9 58 cf be dd d6 8f bd 6b f7 b6 3a
       -0.09487121 -0.4049752 -0.07023404 0.0013959234
0000e0 77 b1 10 3e 64 4b 9a be f2 85 f1 be 57 6c 35 be
       0.14130197 -0.30135643 -0.47172505 -0.1771711
0000f0 3e ae 72 be 2a ab 4e bd 1c b5 6b be 61 a0 cb be
       -0.2369928 -0.050456204 -0.23018306 -0.39770797
000100 8b 7e a0 3e ed 4f fc bd cf 37 83 be 33 6b f3 be
       0.31346545 -0.12319932 -0.25628516 -0.47542724
000110 78 d6 05 bf 24 86 71 be 2c aa 5d be a6 c0 27 bd
       -0.5228038 -0.23586327 -0.21646947 -0.04095521
000120 4d 0d 44 be 42 1d 47 be c2 37 6c be 30 d6 ed be
       -0.19145699 -0.19444755 -0.23068145 -0.46452475
000130 38 56 8f 3d ec b7 98 bd 14 22 ba be 48 87 38 be
       0.06998867 -0.07456955 -0.36354125 -0.18020356
000140 1a a7 40 3c 31 b5 bd bd 49 0f c1 bd e6 d4 2e 3f
       0.01175859 -0.09263075 -0.094267435 0.6829361

final.linears.2.weight f4 [10, 84]
000000 74 61 79 3d d2 f2 4b 3c b4 72 8a be 4d a1 a4 3d
       0.060883954 0.01244803 -0.27040637 0.08038578
000010 d8 28 93 bb eb 76 1e be 6f dc 8a be 7a b2 dc bc
       -0.004490953 -0.15475051 -0.27121302 -0.026940573
000020 75 a3 da 3e d5 5f ee 3a 6b cc 98 be cd 95 62 3b
       0.42702833 0.0018186519 -0.2984346 0.0034574152
000030 a9 19 eb 3e bb 17 53 bd 28 47 23 3c ab b1 2e bc
       0.45918015 -0.051536303 0.009965695 -0.0106624765
000040 15 75 f9 3d 9a e7 0d bf 87 26 3a 3e 2e b6 c1 3d
       0.12180535 -0.5543152 0.1817876 0.09458576
000050 07 47 61 bd 90 b9 3a 3c 9c 3b 27 3d 18 5a 0a 3d
       -0.054999378 0.011396781 0.040828332 0.033777326
000060 36 c6 77 3e 43 50 6f bb 1f 66 f5 3c 30 71 45 3f
       0.24196705 -0.0036516346 0.029955922 0.77125835
000070 c7 37 10 3b 1a 61 58 3a 19 bb d8 be 79 24 bf bb
       0.0022005902 0.00082542154 -0.42330244 -0.0058332053
000080 1b fa 0e be cf 5d ea 3c 6e e1 51 3e c9 a6 8d 3e
       -0.13962595 0.028609185 0.20496151 0.2766631
000090 e5 c7 0b be 9b c3 4a 3e 5d f2 33 3e ed 2e 74 be
       -0.13650472 0.1980118 0.17572923 -0.23846026
0000a0 2d 31 d2 bd ae 1d f6 3d e0 a6 24 bf 4d 97 d9 bc
       -0.10263286 0.1201738 -0.6431713 -0.026561404
0000b0 8f 8c ca 3e d8 89 54 3d 7d 16 3f bc dc ec bc bd
       0.39560363 0.05188927 -0.0116630765 -0.09224865
0000c0 0b 3f d5 3c 2b 54 71 3d a1 70 b9 3b e7 0c 07 bc
       0.026031038 0.05891816 0.0056591784 -0.008242822
0000d0 de 3e 87 bb 27 ea e4 3e 15 e7 01 3e 02 31 0d 3d
       -0.0041273674 0.44709894 0.12685807 0.034470566
0000e0 16 fa 1d 39 e6 5a b1 be 5c 48 4d 3f 48 35 f6 3d
       0.00015065851 -0.34639663 0.80188537 0.12021881
0000f0 8d 3f 49 bb fc 16 c2 bd 05 5c ed 3c dc 3b 39 bc
       -0.0030708045 -0.0947704 0.028974542 -0.0113057755
000100 db 4c 61 bc ce aa 66 be 1d 74 91 3b 1b 38 12 3d
       -0.013751234 -0.22526094 0.0044388906 0.035698038
000110 72 b6 80 bb 2a 71 5e bd fc 6f 51 bf 35 31 23 bd
       -0.003927999 -0.05430714 -0.818115 -0.03984185
000120 a6 79 fb bd 48 9e 13 be 64 43 20 3b 00 f1 34 bf
       -0.12279062 -0.14415848 0.002445423 -0.70680237
000130 31 13 5e bc 20 3f 9f 3c 30 cd 21 3f 34 4e 31 bd
       -0.01355438 0.01943928 0.63203716 -0.04328747
000140 fe 4d 27 3c e3 23 8b be 1c d0 f1 3d 19 c0 eb 3b
       0.010211466 -0.27175817 0.11807272 0.0071945307
000150 e6 56 f7 bc 3b 22 ec bc a7 be 32 3f 42 88 43 bb
       -0.030192804 -0.028824916 0.6982216 -0.0029835855
000160 40 54 0c 3c 5f 9d 4a be 69 24 0a be cb 4c 58 bc
       0.008565009 -0.19786595 -0.13490452 -0.013201903
000170 e0 8b c1 3e 0e bd 4d 3c 10 ec 68 bd ea 64 63 3c
       0.3780203 0.012557281 -0.05686575 0.01387904
000180 87 bd 61 3e 04 8a 41 bd d5 2d c2 bd 20 97 00 bb
       0.22044955 -0.047250763 -0.09481398 -0.0019621328
000190 c8 34 59 be 3c 45 98 be 8b a6 e4 3c a3 1c 20 3d
       -0.2121154 -0.29740322 0.027911445 0.03908981
0001a0 01 cb f2 3d b1 66 21 bc a6 87 0f bd 6f bd af 3e
       0.11855126 -0.009851144 -0.035041474 0.34324214
0001b0 ab 5e 25 bf b1 7b ad 3c 6b 10 ad 3a 16 dd 3a be
       -0.64597577 0.021177145 0.0013203745 -0.182484
0001c0 7a 1b aa 3b ca 83 ce bb ba 42 57 3f 7c b8 d0 3c
       0.0051912637 -0.0063023316 0.8408619 0.025478594
0001d0 0c 27 80 3e d1 ec cb 3c 23 08 6a be be 48 87 3d
       0.2502979 0.024893196 -0.22854666 0.06605671
0001e0 48 46 19 3e 9e 06 46 3e d6 ed 08 be b2 52 38 3d
       0.14968216 0.19338462 -0.13371977 0.04500074
0001f0 68 2a 01 be b3 94 8d 3d 37 14 3e bf 92 c8 ea 3c
       -0.12613833 0.06913128 -0.74249595 0.028660093
000200 6c 72 d1 3d ca 2d aa 3e ba e1 06 3d b8 e7 3c bd
       0.10226902 0.3323806 0.032930113 -0.04611942
000210 52 e3 55 3c a6 db 80 3d e0 8e e2 3b 19 d2 98 bd
       0.013054686 0.062918946 0.0069140047 -0.07461948
000220 2f 53 93 bc 1d a5 2e 3f 9a 42 11 be 97 87 48 be
       -0.017984001 0.6822069 -0.14185563 -0.19582973
000230 0d 47 18 bc 19 46 60 3f c2 1f 1c bf 19 f8 9a be
       -0.009294284 0.8760696 -0.6098596 -0.30267408
000240 fa fb 21 bb d0 eb 0c 3c 3f 96 69 3d 02 8c 81 bc
       -0.002471684 0.008601144 0.05702805 -0.015813831
000250 de 43 c5 ba 78 0e 02 bd 68 dc e8 bc b2 68 43 bd
       -0.0015050133 -0.03175208 -0.02842541 -0.047707267
000260 58 70 5b 3c d2 e2 d0 3d ed 4b 10 bf 95 70 cd 3c
       0.013393484 0.101995125 -0.56365854 0.025078097
000270 25 7b 8f bd 8c 8e 7d 3e 42 84 cc 3c ee 3b 9d be
       -0.0700591 0.24761409 0.02496541 -0.30709785
000280 00 46 20 bd 28 dd 81 3c 10 5e b7 be 71 b3 9d be
       -0.039129257 0.015852526 -0.35813951 -0.30800965
000290 5e 52 26 3d 04 4e 49 3e c4 92 3a 3d dc ff 72 bc
       0.040605895 0.19658667 0.045550123 -0.014831509
0002a0 d4 4a 68 bc 9c 94 9e bd 69 62 eb 3d 46 95 07 3c
       -0.014177997 -0.07743189 0.114933796 0.008275336
0002b0 27 79 ff 3d 93 32 b6 bd a2 dd 4e 3c de 71 db 3e
       0.1247428 -0.08896365 0.012626084 0.4286031
0002c0 39 65 77 3c 20 d4 ab 3d 8e 9f 42 3b 61 d1 11 3e
       0.015099817 0.08390069 0.0029697153 0.14240028
0002d0 a4 5b 0d bf d3 60 b4 bd b5 c2 4d bc 26 7b c4 bf
       -0.5521796 -0.0880753 -0.012558629 -1.5350082
0002e0 8e 5d cd 3b f2 6c 88 3e 4c 12 d9 bc 38 22 e3 3a
       0.006267256 0.2664562 -0.026497982 0.0017328924
0002f0 e2 4c 11 3c 1a ad 8e bd 23 5b 47 be 6b 29 4e 3d
       0.008868428 -0.0696661 -0.1946836 0.050332468
000300 09 85 e3 bd d0 8d 60 bb e0 94 ff ba e8 e4 51 be
       -0.11109359 -0.0034264214 -0.0019499324 -0.20497477
000310 13 d2 db be 22 7b 71 bd 5d a9 a4 bd 45 85 c0 bc
       -0.4293371 -0.05895532 -0.08040116 -0.023501048
000320 6a bd a3 bc 4c 4b 26 3e 97 f2 15 bd 0a ca 83 3b
       -0.01998778 0.16239661 -0.036608305 0.0040218877
000330 d4 cd 00 bd 13 2d 10 3f 31 4e 4c 3d d3 30 fa be
       -0.031446293 0.5631878 0.049879257 -0.48865375
000340 4a ee 1e 3b ca 2f 3f 3f d9 1e 80 bd 09 5e 1a 3d
       0.0024250918 0.74682295 -0.06255884 0.037687335
000350 da 69 ec bc a7 63 a3 bc f3 47 84 bb a4 bd 95 bc
       -0.028859068 -0.019944979 -0.0040368973 -0.018278904
000360 98 bb 8c 3f 22 2e 5a 3f ad c3 0a 40 a8 ce f7 bd
       1.0994749 0.85226643 2.168193 -0.120999634
000370 d2 01 87 be c6 11 e8 bd 2b 52 a0 bf c4 d7 87 3b
       -0.26368576 -0.11331515 -1.2525076 0.0041455943
000380 64 ca bd 3e cc e0 63 be 9b 98 6d 3e 36 2c 8b bd
       0.37068474 -0.22253722 0.23202746 -0.06795542
000390 69 bd bc 3d 3f b6 95 bb ab 39 da 3d 32 a0 cc 3e
       0.092158146 -0.0045688446 0.106555305 0.3996597
0003a0 38 ad b5 be 04 5f 06 3d 3a ac 8b bc 93 ae 17 bd
       -0.35483718 0.032805458 -0.017049897 -0.03703172
0003b0 25 fc 1e 3e a6 70 0d 3d 67 21 db bd c2 89 20 bf
       0.15525873 0.034531258 -0.1069973 -0.627102
0003c0 3c 9b 46 3d b7 e3 ab bd 9c 7e d7 3e c7 b4 63 3d
       0.048487887 -0.083930425 0.42088783 0.055592325
0003d0 74 84 10 bc 91 68 ec 3d 8b c6 dd bd 7a 59 90 3c
       -0.008820642 0.11543382 -0.10828885 0.01762079
0003e0 e5 22 e8 be 16 ab 00 3c 6c 57 da 3c 52 1f 1f be
       -0.45339122 0.00785329 0.026653014 -0.15539292
0003f0 e8 1e 54 bd 3c 39 18 3e 58 32 b0 3e 5f 85 8b ba
       -0.051787287 0.14865583 0.3441341 -0.0010644606

final.linears.2.bias f4 [10]
000000 b9 e9 8d 3d 24 33 ac bd a7 f0 11 bc 9c c8 5b be
       0.06929345 -0.08408192 -0.008907474 -0.21463245
000010 7f 11 14 be b6 ce 45 3d 6d 7e c2 3c bf e3 c6 3d
       -0.14459799 0.048292838 0.023741925 0.09711408
000020 99 1c 4a bd 50 9e ca bc
       -0.04934368 -0.024733692

layers.0.attn.0.gnn_q.weight f4 [10, 16]
000000 b9 f3 c3 b8 f8 99 a3 ba cc 25 15 bb a1 6b 47 3a
       -9.3437215e-05 -0.0012481799 -0.0022758124 0.00076072855
000010 3c df 6d 3c 66 9d ff 38 dc ce 4e 3c 14 09 ac 33
       0.014518555 0.00012188665 0.012622561 8.0110254e-08
000020 5a fc 9d 3a 82 26 c9 ba 86 3e 51 34 a3 05 fa b5
       0.0012053356 -0.0015346559 1.9487388e-07 -1.8628092e-06
000030 a9 d0 60 bc bc a7 bd 38 cb 17 4b bc 2b 57 cf b8
       -0.013721623 9.043465e-05 -0.012395809 -9.8867655e-05
000040 18 ba 9f bc a5 b5 08 3b 4a 92 59 3b 43 74 c2 3c
       -0.019497916 0.0020860222 0.0033198767 0.023737079
000050 ae 6d 76 3d 47 ba 3a ba 9b d7 c1 bb e2 0f 65 b3
       0.060163192 -0.00071230944 -0.0059155948 -5.3332663e-08
000060 44 17 a9 39 71 e8 c4 38 da ca 90 b3 59 ac a3 34
       0.00032251526 9.389304e-05 -6.742421e-08 3.0486515e-07
000070 f7 12 fc bb d2 4b 62 ba 6d a9 0f 3b 4d 59 86 3a
       -0.0076926905 -0.0008632514 0.0021921054 0.0010250002
000080 a5 1c 98 3c e4 e5 3a bb 31 81 a8 bb 1b 38 b9 bc
       0.018568346 -0.0028518373 -0.005142354 -0.022609761
000090 51 c7 91 bd 51 88 f2 b9 f9 89 93 3c 18 7c e2 33
       -0.07118095 -0.000462594 0.018010126 1.05465176e-07
0000a0 58 c3 63 3b a1 41 27 bb 46 92 ac 34 49 4f 56 b6
       0.0034753885 -0.0025521296 3.2143924e-07 -3.1934635e-06
0000b0 19 f9 01 bf 29 47 e3 3a 7c aa df be c1 eb e1 ba
       -0.5077072 0.0017339933 -0.43684757 -0.0017236398
0000c0 a8 09 16 bd aa 63 e9 3b ec dc 4b 3c 52 f5 32 3d
       -0.036630303 0.0071224766 0.012442809 0.043690987
0000d0 a7 67 ec 3d 90 26 2f ba cc 40 19 bd 36 04 38 b4
       0.115432076 -0.00066814665 -0.03741531 -1.7137867e-07
0000e0 e3 ba 6f bb d3 f5 1e 3b 9d 7e a9 b4 06 4e 39 36
       -0.00365799 0.002425541 -3.1570826e-07 2.7612564e-06
0000f0 c5 f3 f1 3d da f6 66 bb 2a 9f f7 3d 8b 45 6b 3b
       0.118140735 -0.003524235 0.12090905 0.0035899605
000100 26 87 fa bc 9d 6e 83 3a 93 0c f8 3a 90 f3 1d 3d
       -0.030582022 0.0010027472 0.0018924646 0.038562357
000110 d2 fd 15 3e 8b cd 54 ba 53 e0 9d bb b8 e6 d8 32
       0.14647606 -0.00081177865 -0.0048180013 2.5250628e-08
000120 4b 9a 1b 3a 72 c2 3a ba 8c ac b0 32 78 49 00 b3
       0.0005935772 -0.00071243115 2.0567562e-08 -2.9869142e-08
000130 2e 4e 07 3e 34 d9 71 ba bc 88 1a 3e 92 ed a8 3a
       0.13213417 -0.0009225786 0.15091223 0.0012888184
000140 ac b2 af 3b d9 5b b1 ba 05 a0 41 bb 4b 9c c5 bb
       0.0053618755 -0.0013531401 -0.0029544842 -0.0060305945
000150 23 33 62 bc 4f 20 05 39 2e 38 4c 3c 23 ed b6 33
       -0.013806137 0.00012695904 0.012464566 8.51817e-08
000160 fb 83 7b 3b a5 b5 1e bb 5f b2 5f 34 a6 28 20 b6
       0.0038378227 -0.0024217155 2.0833384e-07 -2.3865518e-06
000170 81 2e dc bc 44 06 4a 3a 7c 3d e0 bc 7c 4a 47 ba
       -0.026877644 0.0007706622 -0.027373068 -0.00076023466
000180 d4 bd 19 3c 31 9a 5f bb 9e 80 c2 bb 6d cb 34 bc
       0.009383637 -0.0034119005 -0.0059357425 -0.011034829
000190 77 76 ae bc 96 b7 3b 38 3e c2 7c 3c b8 04 c5 32
       -0.021296723 4.4755252e-05 0.01542717 2.2935964e-08
0001a0 cf 09 17 bb 61 90 94 3a 9e 18 72 32 c5 5d 94 35
       -0.0023046618 0.0011334532 1.4091851e-08 1.105415e-06
0001b0 ab 29 a1 3c 40 dc 13 3b bb 01 46 3c c4 18 09 bb
       0.01967319 0.00225617 0.0120853735 -0.0020919302
0001c0 fe 7f 32 3c 20 8c e1 bb 4a 47 54 bc f7 e7 4b bc
       0.0108947735 -0.0068831593 -0.01295645 -0.012445441
0001d0 2a 3e 03 bd 8d 33 0d 3a 4d 57 35 3d 55 6e 6c 34
       -0.032041706 0.0005386405 0.04427271 2.2019351e-07
0001e0 3e 6f b6 3b fb f1 6c bb 31 85 ec 34 c4 86 8b b6
       0.0055674603 -0.0036154974 4.4055335e-07 -4.1582116e-06
0001f0 c1 0b e7 3d bc 60 81 3b 69 35 c3 3d 68 1e 62 bb
       0.11281539 0.003948299 0.095316716 -0.0034502987
000200 1a 77 c0 3c b0 08 02 bc 89 b1 74 bc c0 c8 df bc
       0.023494292 -0.007936642 -0.014934906 -0.027317405
000210 04 3c 2b bd 1b 9c 97 3a bb 1c 7c 3d 68 b5 8f 34
       -0.041805282 0.0011566909 0.061550837 2.6767816e-07
000220 bd a8 93 3b 14 5d 73 bb 3f dd 20 35 06 58 96 b6
       0.004506199 -0.0037134336 5.99266e-07 -4.4805956e-06
000230 3e b7 61 bd 4b 09 94 3b a6 1b 3a bd 57 fd 85 bb
       -0.055106394 0.0045177094 -0.045436524 -0.0040890384
000240 24 e0 12 3c 34 07 f5 ba ad f6 63 bb 83 ea 2b bc
       0.008964572 -0.0018694163 -0.0034784481 -0.010492924
000250 dd de 7e bc 1b 4a 2f b9 6b 43 6a 3c a4 f0 03 34
       -0.015556064 -0.00016716907 0.0142983 1.228787e-07
000260 54 5d b2 3b 96 b9 4f bb 06 07 8f 34 5c f8 5c b6
       0.0054432545 -0.0031696311 2.6640936e-07 -3.2927119e-06
000270 7d 8e 0e bd bf be 5a 3a d8 64 18 bd b6 66 ff b9
       -0.034803856 0.00083444634 -0.037205547 -0.00048713916

layers.0.attn.0.gnn_q.bias f4 [16]
000000 db 48 74 bc 38 f7 d3 3a 8b a0 06 3b 19 21 96 3c
       -0.014909948 0.0016171699 0.0020542468 0.018326329
000010 f7 e0 8a 3d bc 23 ea 39 36 c2 a3 bb 5c 9b d1 32
       0.0678119 0.00044658582 -0.004997517 2.4401452e-08
000020 8d 76 9b 3a 88 08 6d ba 0f de 9c 33 52 49 7c b5
       0.0011860892 -0.0009042104 7.304708e-08 -9.398401e-07
000030 37 fe 28 be 20 1c ea b9 44 3d c4 bd b1 ef 3a 3a
       -0.16503225 -0.00044652913 -0.09581998 0.0007131054

layers.0.attn.0.gnn_k.weight f4 [10, 16]
000000 76 c5 c3 38 88 86 b4 3a d0 81 14 3b 53 aa 46 ba
       9.3351046e-05 0.0013773004 0.0022660382 -0.0007578481
000010 4c 8b 87 bc 5d 01 45 b9 0d 27 4f bc 71 5d f8 b3
       -0.016545914 -0.00018787892 -0.012643588 -1.1565397e-07
000020 60 e5 9d ba d7 56 c4 3a 5b e6 50 b4 c6 dd f0 35
       -0.0012046508 0.0014979494 -1.9455312e-07 1.7945938e-06
000030 36 92 5c 3c ef 02 ca b8 08 3f 2f 3c 90 db d5 38
       0.013462594 -9.632657e-05 0.01069618 0.00010197528
000040 86 ba 9f 3c 9e 99 12 bb 75 49 59 bb 29 7c c2 bc
       0.019498121 -0.0022369395 -0.0033155356 -0.023740845
000050 ff 78 75 bd 5d c4 ca b9 39 39 c2 3b 24 74 0e 32
       -0.059929844 -0.00038674744 0.0059272316 8.291895e-09
000060 43 9d a9 b9 d6 b6 a9 b8 da e9 90 33 dc c5 8c b4
       -0.0003235136 -8.092604e-05 6.74806e-08 -2.6220994e-07
000070 5d 4e 05 3c c4 86 61 3a c3 77 3f bb c8 2f 86 ba
       0.008136359 0.00086031505 -0.002921567 -0.0010237629
000080 10 1d 98 bc c4 bf 32 3b a3 29 a9 3b 25 4b b9 3c
       -0.018568546 0.0027274946 0.005162434 0.02261884
000090 a6 40 82 3d 4b 76 54 ba f4 62 93 bc 43 17 28 b4
       0.06359987 -0.0008104785 -0.01799152 -1.5654682e-07
0000a0 a7 f3 63 bb 90 fa 2b 3b 74 f3 ac b4 75 d5 5f 36
       -0.003478268 0.0026241876 -3.2214632e-07 3.3353838e-06
0000b0 2f cb 01 3f d7 9c e2 ba d1 c5 da 3e 78 85 e1 3a
       0.5070066 -0.0017289174 0.42729047 0.0017205914
0000c0 b9 09 16 3d b5 bd de bb a2 ef 4b bc 79 f7 32 bd
       0.036630366 -0.006797517 -0.01244727 -0.04369304
0000d0 be 88 f1 bd 69 80 e1 39 39 3a 19 3d a7 88 02 34
       -0.117936596 0.00043011017 0.03740904 1.2156907e-07
0000e0 42 c9 6f 3b f2 a5 1d bb d6 4f a9 34 55 23 37 b6
       0.0036588465 -0.002405521 3.153679e-07 -2.728969e-06
0000f0 c8 54 f3 bd 7d 04 67 3b 2b 17 00 be f2 80 6b bb
       -0.11881405 0.0035250478 -0.12508838 -0.0035935012
000100 b1 86 fa 3c 44 86 8e ba 90 ac f5 ba 1e f1 1d bd
       0.030581804 -0.0010873755 -0.0018743444 -0.038560025
000110 b1 81 1c be ed 36 02 ba c0 27 9e 3b d9 c2 58 b3
       -0.15283848 -0.0004967291 0.004826516 -5.0468632e-08
000120 a1 4b 1c ba 2d 54 53 3a 02 20 b5 b2 84 04 0b 34
       -0.00059621973 0.00080615544 -2.1085729e-08 1.2947027e-07
000130 53 a6 09 be fa cb 71 3a c4 5d 29 be 34 f1 a8 ba
       -0.13442354 0.0009223815 -0.16539675 -0.0012889267
000140 e8 b2 af bb 28 ba bb 3a fb 0b 42 3b e4 a6 c5 3b
       -0.0053619035 0.0014322447 0.0029609192 0.006031858
000150 3f 85 81 3c 7c b8 80 b8 6c 94 4c bc ce 4c b5 b3
       0.015810607 -6.1378785e-05 -0.012486558 -8.44244e-08
000160 b2 6d 7b bb 1a 0e 1e 3b 6a b5 5f b4 fd 79 1c 36
       -0.0038364944 0.0024117292 -2.0834491e-07 2.3316818e-06
000170 80 49 db 3c a6 c7 4a ba e5 69 eb 3c 0d c5 47 3a
       0.026768446 -0.00077354384 0.028737018 0.00076206104
000180 f3 bd 19 bc 42 3b 5a 3b 5b b8 c2 3b 9c cb 34 3c
       -0.009383666 0.003329948 0.005942387 0.011034872
000190 21 2c ab 3c ee df e3 b9 9a e2 7c bc cc 0a e9 b2
       0.020895066 -0.00043463655 -0.015434885 -2.712968e-08
0001a0 2b f9 16 3b 8f f0 91 ba 5a 26 73 b2 58 e1 86 b5
       0.00230367 -0.0011134314 -1.4153182e-08 -1.0049362e-06
0001b0 56 27 a5 bc 56 30 14 bb 38 10 3f bc 88 92 09 3b
       -0.020160358 -0.0022611818 -0.011661582 0.002099188
0001c0 08 80 32 bc c8 f7 ce 3b 5e d1 54 3c c9 e8 4b 3c
       -0.010894783 0.006316159 0.01298937 0.012445637
0001d0 d7 eb 08 3d 3f dd a1 b9 e8 49 35 bd 3e 0a 59 b4
       0.03342804 -0.00030873154 -0.044259936 -2.0213426e-07
0001e0 f2 72 b6 bb 3f 4d 6e 3b 9a b1 ec b4 04 95 8c 36
       -0.005567902 0.003636196 -4.4087648e-07 4.189673e-06
0001f0 b0 27 e7 bd 7d 81 81 bb 6d 05 bb bd 06 8c 62 3b
       -0.11286867 -0.003952204 -0.09131894 0.0034568324
000200 54 77 c0 bc 6c bc 09 3c 40 cc 74 3c 18 d4 df 3c
       -0.0234944 0.00840674 0.014941275 0.027322814
000210 46 dc 35 3d 3c c6 f6 b8 27 23 7c bd 97 92 b1 b4
       0.044399522 -0.00011767118 -0.06155696 -3.3075477e-07
000220 30 ae 93 bb 3b aa 77 3b f1 16 21 b5 d4 47 99 36
       -0.0045068488 0.0037790674 -6.001056e-07 4.568117e-06
000230 ac 6f 67 3d 62 a0 93 bb 3a c1 41 3d 10 8b 85 3b
       0.056502983 -0.004505203 0.047303416 0.0040754154
000240 8c e0 12 bc 53 c8 b9 3a 5c 87 66 3b 96 f6 2b 3c
       -0.008964669 0.0014174081 0.0035175895 0.010495802
000250 5b b2 78 3c 6b c6 e5 b9 81 69 6a bc ab c7 d3 b3
       0.015179242 -0.00043826117 -0.014307381 -9.8617726e-08
000260 36 61 b2 bb 6a 2f 50 3b 6d 07 8f b4 2b 66 5e 36
       -0.0054437174 0.0031766542 -2.664123e-07 3.3140047e-06
000270 46 26 10 3d f4 f8 5a ba 4e e8 1a 3d 17 99 01 3a
       0.03519275 -0.0008353137 0.0378192 0.00049437716

layers.0.attn.0.gnn_k.bias f4 [16]
000000 88 4a 74 3c d2 73 b7 ba 88 d9 07 bb 36 4a 96 bc
       0.014910348 -0.0013996309 -0.0020729024 -0.018345933
000010 2d 41 74 bd 47 b7 3f 3a 9e ae a3 3b 1e ac cf b2
       -0.05963247 0.0007313382 0.004995181 -2.4176241e-08
000020 df 9a 9b ba 78 d8 77 3a fd cb 9d b3 37 31 91 35
       -0.0011871717 0.00094545586 -7.3479875e-08 1.0817665e-06
000030 44 cd 2a 3e 6d c1 e9 39 7a a6 f6 3d bc 4b 3b ba
       0.16679865 0.00044585337 0.12043472 -0.0007144769
