checkpoints/ames_50_train1_pos/Aug22-21:35:09_890.pth (torch, 377407 bytes, 294 tensors)

layers.0.weight f4 [10, 16]
0	0x3ebeb3bc	0.372465
1	0x3f923a5f	1.1424063
2	0xbdd2942a	-0.10282166
3	0x3ed3a914	0.41339934
4	0x3e0bc8ba	0.1365079
5	0x3e1426d6	0.1446794
6	0xbdeba875	-0.1150674
7	0x3f9919d6	1.196101
8	0x3f4c135b	0.79717034
9	0xbfc629dd	-1.5481526
10	0xbea28740	-0.31743813
11	0x3d1d57f3	0.038413953
12	0xbd429a52	-0.047510453
13	0x3f9819a0	1.188282
14	0xbc87ab4c	-0.016561173
15	0xbef733ed	-0.48281804
16	0x3f958562	1.168133
17	0x3c82ca6f	0.015965668
18	0xbed4293b	-0.41437706
19	0x3f4cc6ad	0.79990655
20	0xbe58c0e0	-0.21167326
21	0xbe7ebdc9	-0.24877085
22	0xbe4cabc3	-0.19987397
23	0x3df6346a	0.12021716
24	0xbfb8eac5	-1.4446646
25	0xbe20c907	-0.15701686
26	0xbf470ad3	-0.7775089
27	0xbd165a01	-0.03670693
28	0x3e9b7a61	0.30366805
29	0x3e3b473b	0.18288891
30	0x3fb8d79d	1.44408
31	0xbe63c55a	-0.22243252
32	0x3ec50768	0.38482213
33	0x3d8d4cec	0.06899437
34	0xbe7bc57e	-0.24587056
35	0x3d910988	0.07081896
36	0x3e87c1d1	0.26515058
37	0x3eb3bb41	0.351038
38	0xbbdd9c44	-0.006763013
39	0x3b98752f	0.0046526412
40	0x3e8bb8ad	0.27289334
41	0xbe8ad7ef	-0.2711787
42	0x3f186557	0.5952963
43	0x4001414f	2.0196111
44	0x3f046ee9	0.51731735
45	0xbed9d838	-0.42547774
46	0x3ec2b489	0.38028362
47	0x3ee1dc83	0.4411355
48	0x3eb19ef7	0.34691593
49	0xbd104d1d	-0.03522979
50	0xbeffbeca	-0.49950248
51	0x3dc475db	0.09592792
52	0xbfc208ff	-1.5158995
53	0x3e98b3ef	0.29824778
54	0x3f85f47c	1.0465236
55	0xbc224b53	-0.009905654
56	0x3eb17061	0.3465605
57	0xbe92d83e	-0.28680605
58	0x3f8d5f04	1.1044621
59	0xbea22adb	-0.3167332
60	0x3e5b4fbc	0.21417135
61	0xbedd772a	-0.43254977
62	0x3eb8adb0	0.36070013
63	0xbf3e2ee6	-0.7429031
64	0x3eb8579a	0.36004335
65	0xbdb25a54	-0.08708635
66	0x3f608fc9	0.877194
67	0x3e1ca79c	0.15298313
68	0x3e888865	0.2666656
69	0x3e7fd2bd	0.24982734
70	0x3fcba7bd	1.5910565
71	0xbdb2c51a	-0.087290004
72	0x3eb2a509	0.34891537
73	0xbf1bc2c8	-0.6084409
74	0xbf17ef70	-0.5934973
75	0xbf237cc0	-0.6386223
76	0x3ea8a18c	0.3293575
77	0xbe65551b	-0.22395746
78	0x3e8ddf0f	0.27709243
79	0x3f93c04e	1.1543062
80	0x3f7ad3fb	0.97979707
81	0xbf24ace1	-0.6432629
82	0x3d9d3f8f	0.076781385
83	0xbd5d3823	-0.054008614
84	0x3f0beefe	0.5466155
85	0x3f4b343c	0.7937658
86	0x3e822651	0.25419858
87	0xbf994f96	-1.1977413
88	0xbe925218	-0.28578258
89	0xbf16876d	-0.58800393
90	0x3e1c027d	0.15235324
91	0x3c0c4272	0.008560764
92	0x3ecedf7c	0.4040488
93	0x3f7f4698	0.9971709
94	0xbf8ccc69	-1.0999881
95	0xbf4b1d06	-0.7934116
96	0xbcfef1fc	-0.031121247
97	0x3f13ced5	0.57737476
98	0x3c50ed4c	0.0127518885
99	0xbf5171ce	-0.8181428
100	0x3e3fefe3	0.18743853
101	0xbd48ad16	-0.048993193
102	0xbdabe6bc	-0.083936185
103	0xbfbd7238	-1.4800482
104	0xbd86dc41	-0.06584979
105	0xbf40400a	-0.75097716
106	0xbe639f2c	-0.22228688
107	0x3d68aeea	0.056807436
108	0xbf4eb803	-0.8074953
109	0x3d780ed7	0.060561027
110	0x3fc26c7f	1.518936
111	0xbed065bb	-0.40702614
112	0x3f5a7149	0.8532911
113	0xbf21651c	-0.63044906
114	0xbec445ab	-0.38334402
115	0xbe8e1777	-0.27752277
116	0x3dd6fe2c	0.10497698
117	0xbfb4f4b1	-1.4137174
118	0xbdf600b5	-0.120118536
119	0xbdfb915b	-0.12283584
120	0x3f03734d	0.5134781
121	0xbf3f7948	-0.74794436
122	0xbea61e15	-0.32444826
123	0xbd7806aa	-0.06055323
124	0x3e9da028	0.30786252
125	0xbf047e60	-0.5175533
126	0xbe98b776	-0.2982747
127	0xbee158c5	-0.44013038
128	0x3f34ab69	0.7057405
129	0x3e687cbc	0.22703832
130	0x3fbb599d	1.4636723
131	0x3e0eee14	0.13958007
132	0xbeea0329	-0.45705536
133	0x3ec5151c	0.38492668
134	0xbf47d6d2	-0.78062165
135	0xbdfd2930	-0.123613715
136	0x3ded6f14	0.11593452
137	0xbde17b80	-0.11009884
138	0xbedaee1e	-0.42759794
139	0xbda99612	-0.08280577
140	0x3ed783e0	0.420928
141	0xbf9f65be	-1.2452924
142	0xbdd3c5f5	-0.10340492
143	0xbf0616dd	-0.52378637
144	0xbfbdd352	-1.4830115
145	0x3e666991	0.22501208
146	0x3e61be41	0.22045232
147	0x3f854a6d	1.0413338
148	0x3f0b3571	0.5437842
149	0xbf50414f	-0.81349653
150	0x3e088639	0.13332452
151	0xbf58dc64	-0.8471129
152	0xbe8fa3ac	-0.2805456
153	0xbf852be7	-1.0404023
154	0x3f5ee2cb	0.8706481
155	0xbd8de141	-0.069277294
156	0x3d6ced73	0.057843637
157	0xbebe69bb	-0.3719004
158	0xbe31089a	-0.17288437
159	0xbe3661c3	-0.1781073

layers.0.bias f4 [16]
0	0xbd678ff0	-0.056533754
1	0xbf1d85ad	-0.615321
2	0xbe56ae0b	-0.2096483
3	0x3f1c7678	0.6111827
4	0x3e9bffa3	0.30468473
5	0x3e97e23b	0.29664788
6	0xbf0afe93	-0.542947
7	0x3c5cda44	0.013479773
8	0x3ecd6956	0.40119427
9	0x3da544ce	0.08069764
10	0xbe8f7f50	-0.2802682
11	0xbf51248a	-0.8169638
12	0xbf5b39e5	-0.85635215
13	0xbddcd9b4	-0.10783711
14	0x3cc693ed	0.024240458
15	0xbe5b5306	-0.2141839

layers.1.weight f4 [16, 16]
0	0x3cad9f10	0.021194011
1	0x3d91cefe	0.07119559
2	0x3d9e986c	0.07743916
3	0xbfc0b20b	-1.5054334
4	0xbd8927b8	-0.06697029
5	0xbf39a30c	-0.72514415
6	0xbca889ca	-0.020573515
7	0x3e442407	0.19154368
8	0x3ce868bc	0.028370254
9	0xbf83e1fc	-1.030334
10	0xbe3aed8b	-0.18254678
11	0xbda2ea4d	-0.079548456
12	0xbe09bb04	-0.13450247
13	0x3dafc660	0.08582759
14	0xbe87386d	-0.26410237
15	0xbf30ef29	-0.6911493
16	0x3d83797d	0.064196564
17	0x3dcd0208	0.10010153
18	0x3f4d0d7d	0.80098706
19	0x3e48bcfc	0.19603342
20	0x3eae4d61	0.3404341
21	0x3ee5e18d	0.44898644
22	0xbd5de157	-0.05416998
23	0xbf43d3cd	-0.7649506
24	0x3f2f55b8	0.6849017
25	0x3e85e4cf	0.2615113
26	0xbc9cb017	-0.019126935
27	0xbe5a62ca	-0.21326748
28	0xbdf765c5	-0.12079958
29	0xbeb96f1b	-0.3621758
30	0x3ebc523b	0.36781487
31	0x3c104953	0.008806544
32	0x3e33ecf3	0.17570858
33	0x3eacf6cd	0.33782044
34	0xbcb737f0	-0.02236554
35	0x3e6fe78d	0.23428173
36	0x3e969e02	0.29417425
37	0xbe410021	-0.18847705
38	0x3eb5e227	0.35524103
39	0x3d8a9d1c	0.067682475
40	0xbcbaf330	-0.022821039
41	0xbf7b9fba	-0.982906
42	0x3e054a5d	0.13016649
43	0x3d8a953f	0.06766748
44	0x3f3c7514	0.7361615
45	0xbe890b27	-0.2676632
46	0x3e03c967	0.12869798
47	0xbeb624bb	-0.35574898
48	0xbe02d4b5	-0.12776454
49	0x3ddd7013	0.10812392
50	0x3f485f54	0.7827046
51	0x3eb01566	0.34391326
52	0xbed56851	-0.4168115
53	0xbee4788c	-0.4462322
54	0x3caf207f	0.0213778
55	0xbe0f432c	-0.13990468
56	0x3c73c87d	0.014879343
57	0xbdff25eb	-0.12458404
58	0x3de557e3	0.11198404
59	0x3e4a0fb4	0.19732553
60	0xbc1986da	-0.00937053
61	0x3e69f49a	0.22847214
62	0xbec07518	-0.37589335
63	0x3d03df2f	0.032195266
64	0xbec3c087	-0.38232824
65	0x3f7f451d	0.99714833
66	0x3ec8c22d	0.39210644
67	0x3e8c613e	0.2741794
68	0xbec1e144	-0.37867177
69	0x3cd0bdb2	0.025481079
70	0xbefba5f2	-0.49150044
71	0x3f195529	0.5989557
72	0xbe9d7c0d	-0.30758706
73	0x3f073f54	0.52831006
74	0xbc6de045	-0.014518802
75	0xbe472dda	-0.19451085
76	0x3f613e1b	0.8798539
77	0xbe23198d	-0.15927716
78	0xbddb288e	-0.107010946
79	0x3ea86456	0.3288905
80	0x3d81177c	0.063033074
81	0x3a53fc6f	0.0008086627
82	0xbdff0134	-0.12451401
83	0xbe96a735	-0.29424444
84	0xbe84f5d3	-0.259688
85	0xbf2b4712	-0.6690532
86	0xbe2a41e2	-0.16626695
87	0xbd2fbb1a	-0.042903043
88	0xbf07360e	-0.52816856
89	0x3e13b124	0.14423043
90	0xbe02c2f1	-0.12769677
91	0xbcef4961	-0.029209794
92	0xbe8d66d1	-0.27617505
93	0x3e93944e	0.28824085
94	0xbec1ee7b	-0.3787726
95	0xbe8ed9c4	-0.27900517
96	0x3ed364c2	0.4128781
97	0xbf5f0081	-0.87110144
98	0xbdc67d90	-0.09691918
99	0x3d78f00a	0.060775794
100	0x3ee9cc35	0.4566361
101	0xbf87ffc4	-1.0624928
102	0x3f0dcac4	0.5538752
103	0x3e166fb0	0.14691043
104	0xbeae001e	-0.33984464
105	0x3f169067	0.5881409
106	0xbe4e8579	-0.20168103
107	0x3dc1fc56	0.094719574
108	0x3d2d74a7	0.042347576
109	0xbe393c27	-0.18089353
110	0xbe004083	-0.1252461
111	0xbfc1e915	-1.5149256
112	0xbdb60832	-0.08888282
113	0x3e0f9fda	0.14025822
114	0x3ebc0814	0.36724913
115	0xbea47cdb	-0.32126507
116	0xbd36daeb	-0.04464237
117	0x3c93d00c	0.01804354
118	0xbc2fb6d2	-0.01072474
119	0xc0080012	-2.1250043
120	0xbec4c026	-0.38427848
121	0xbe82ddb8	-0.25559783
122	0x3d8080ac	0.06274542
123	0xbc63b171	-0.013897286
124	0xbddd58c4	-0.10807946
125	0x3da16bcf	0.07881891
126	0x3d3b42ac	0.04571788
127	0x3d724238	0.059145182
128	0xbdb195ec	-0.086711735
129	0xbe86f40f	-0.26358077
130	0x3ee90b33	0.45516357
131	0x3e20533c	0.15656751
132	0xbe8aa36c	-0.27077806
133	0xbf1f7b8f	-0.6229791
134	0xbdda1d4e	-0.10650121
135	0xbf417d00	-0.7558136
136	0xbf461120	-0.7736988
137	0x3e9c0863	0.3047515
138	0xbd8829d1	-0.06648601
139	0x3d3ceda5	0.046125073
140	0x3b29760a	0.002585771
141	0x3e221d08	0.15831387
142	0xbec997e2	-0.3937369
143	0xbeaaaa6b	-0.33333144
144	0xbd69f7ca	-0.057121076
145	0x3e9ab205	0.30213943
146	0xbfe3282c	-1.7746634
147	0x3b616922	0.003439494
148	0xbd8089f8	-0.062763155
149	0x3f3536aa	0.70786536
150	0xbc0cfc29	-0.008605042
151	0xbef833b8	-0.48476958
152	0xbe8f9fce	-0.2805161
153	0xbe49a31e	-0.1969113
154	0x3ea15a52	0.3151422
155	0x3c5c24ff	0.013436555
156	0xbe0e95ee	-0.13924381
157	0x3d47db39	0.04879305
158	0x3e7d1e52	0.24718598
159	0x3f29a6e0	0.66270256
160	0xbd0a2846	-0.033729814
161	0xbf457db3	-0.77144927
162	0x3cce9ce2	0.025221292
163	0x3f51dbf0	0.81976223
164	0xbe18d8e9	-0.14926495
165	0xbef22ae8	-0.4729836
166	0xbe30ff76	-0.1728495
167	0x3eb12141	0.34595683
168	0xbf2343da	-0.6377541
169	0x3ec578eb	0.38568816
170	0xbe80e0a7	-0.25171396
171	0xbe8df3fc	-0.27725208
172	0xbf834feb	-1.0258764
173	0x3d5989c0	0.053109884
174	0xbdc88437	-0.09790843
175	0xbf242bbe	-0.64129245
176	0xbe553e34	-0.2082451
177	0x3df76c2d	0.1208118
178	0xbcc0b010	-0.023521453
179	0xbd6ecf46	-0.05830314
180	0xbe8e7c42	-0.27829176
181	0xbfa031c3	-1.2515186
182	0xbfe0cd62	-1.7562678
183	0xbd4a1c6f	-0.049343523
184	0x3cfc2744	0.030780442
185	0xbdfbf7ae	-0.123031005
186	0x3e3797c4	0.17928988
187	0xbe8557d8	-0.26043582
188	0xbefcac65	-0.49350277
189	0xbec07ae1	-0.3759375
190	0xbe74b802	-0.23898318
191	0xbfaf709e	-1.3706243
192	0x3e474b67	0.19462357
193	0x3bf659cb	0.0075180284
194	0x3dc750da	0.09732218
195	0xbe9c7c64	-0.30563653
196	0x3ec3b312	0.38222557
197	0xbe9c59a1	-0.3053713
198	0xbe953739	-0.29143694
199	0x3d300dd1	0.042981926
200	0xbea9e36e	-0.33181328
201	0xbf1dcd7f	-0.6164169
202	0xbeae772a	-0.3407529
203	0xbeec1a0f	-0.4611363
204	0xbde41cd0	-0.11138308
205	0xbed39e7e	-0.41331857
206	0x3e45d9c3	0.19321351
207	0xbf3a56c6	-0.72788656
208	0x3d6565af	0.056005176
209	0x3d909959	0.07060499
210	0x3f80b991	1.005663
211	0xbf0567b4	-0.52111363
212	0x3e2eb66e	0.17061779
213	0x3f3f9ecb	0.74851674
214	0x3e2c38b0	0.168185
215	0xbe77f52d	-0.24214621
216	0xbe5b10b4	-0.2139309
217	0x3fa23100	1.2671204
218	0x3e42af92	0.19012287
219	0x3d09afc6	0.033614896
220	0x3e3f4038	0.18676841
221	0xbe9014f3	-0.28140983
222	0x3e97d8cf	0.296576
223	0x3f11b297	0.5691313
224	0x3dfd554f	0.12369787
225	0x3d6d5886	0.05794575
226	0xbe2eeefd	-0.17083354
227	0xbe6100ae	-0.21972916
228	0xbe071948	-0.13193238
229	0xbf0a55c5	-0.54037124
230	0xbd9d7bdd	-0.07689641
231	0xbe41938a	-0.18903938
232	0x3ffbf4f3	1.9684128
233	0x3f1504ad	0.5821026
234	0xbe842537	-0.25809643
235	0xbe0c7c74	-0.1371935
236	0xbe9f2336	-0.3108155
237	0x3e24b0d0	0.16083074
238	0xbe6feb68	-0.23429644
239	0xbef518f8	-0.47870612
240	0x3dccdaf4	0.100026995
241	0x3f313a19	0.69229275
242	0xbf36aba9	-0.7135568
243	0x3e89d729	0.26921967
244	0x3dbb984b	0.09159907
245	0xbf46ee04	-0.77706933
246	0xbdf8a8d6	-0.12141578
247	0xbef342ba	-0.47511846
248	0xbe531876	-0.206148
249	0x3ed29643	0.41130266
250	0xbe03655d	-0.12831636
251	0xbe7a6607	-0.24452983
252	0x3f40cfb0	0.75316906
253	0xbecdba00	-0.4018097
254	0xbe860118	-0.2617271
255	0xbf15952a	-0.5843073

layers.1.bias f4 [16]
0	0x3ef1bc74	0.4721409
1	0xbeb78cd2	-0.35849625
2	0xbe0e987a	-0.13925353
3	0xbe0364c5	-0.1283141
4	0xbe0b8ec1	-0.13628675
5	0xbedb1274	-0.42787516
6	0xbf30c513	-0.6905071
7	0xbd9cc20b	-0.07654198
8	0x3e74ab40	0.23893452
9	0xbe36d349	-0.17854036
10	0xb7541a90	-1.2642369e-05
11	0x3ed8295a	0.4221905
12	0xbec0ccfe	-0.37656397
13	0xbf7f2fc4	-0.9968226
14	0x3e14dfd1	0.14538504
15	0xbf688f45	-0.9084361

final.linears.0.weight f4 [84, 42]
0	0xbe10678f	-0.14102004
1	0xbeb7e677	-0.35918018
2	0xbf14c225	-0.5810874
3	0xbf24e709	-0.6441503
4	0xbf1b8295	-0.6074613
5	0xbfb34571	-1.4005567
6	0xbf6c33b2	-0.9226638
7	0xbed59fd9	-0.41723517
8	0xbf0bb1c3	-0.5456812
9	0x3e514a0e	0.20438406
10	0xbe8df051	-0.2772241
11	0xbe1f60be	-0.15564248
12	0x3d1d5826	0.038414143
13	0xbdb8ae8c	-0.09017667
14	0x3d6fc623	0.058538567
15	0xbd8c4399	-0.06848831
16	0x3e270ece	0.16314241
17	0x3ad23f28	0.001604055
18	0xbe0ad511	-0.13557841
19	0x3e5127f8	0.20425403
20	0x3e036eb4	0.12835199
21	0x3e560ad2	0.20902565
22	0x3e2f406d	0.1711442
23	0x3e0bea3d	0.13663574
24	0xbe548257	-0.20752846
25	0x3dedd90c	0.11613664
26	0x3c8771fe	0.016533848
27	0x3d43cc52	0.047802277
28	0x3e6d5694	0.23177558
29	0xbe63a5cd	-0.22231217
30	0x3cbb9b79	0.022901284
31	0x3e3213d0	0.1739037
32	0xbd1e537a	-0.03865383
33	0xbd47adba	-0.048749663
34	0x3e1c7b96	0.1528152
35	0xbc85c0c0	-0.016327262
36	0xbdcce46e	-0.10004507
37	0x3e98a26c	0.29811418
38	0xbd1a1619	-0.03761873
39	0x3d11e9a4	0.035623208
40	0xbdcefb49	-0.101065226
41	0xbe876bbd	-0.26449385
42	0xbd79928f	-0.060930785
43	0xbf18f91e	-0.5975512
44	0xbf797ac3	-0.97452945
45	0x3f8c1dfa	1.0946648
46	0xbe823437	-0.25430462
47	0xbecab1e5	-0.39588848
48	0x3f048526	0.5176567
49	0x3d081159	0.03321967
50	0xbe9d3dcc	-0.3071121
51	0xbf34053d	-0.70320493
52	0xbd4c651d	-0.049901117
53	0xbddbec34	-0.107384115
54	0x3e457525	0.19282968
55	0x3f752740	0.95763016
56	0x3fbc4cc5	1.4710928
57	0x3e20587a	0.15658751
58	0xbf2f23cc	-0.68413997
59	0xbdeaaa4a	-0.11458261
60	0xbd11eb4d	-0.03562479
61	0xbe4a9bc0	-0.19785976
62	0xbd859b98	-0.06523818
63	0x3f89baa0	1.0760078
64	0x3f32f23b	0.69900864
65	0xbcbfbb45	-0.023404727
66	0x3cbbe30c	0.022935413
67	0x3f462a83	0.7740862
68	0x3e98fc01	0.29879764
69	0xbdeead26	-0.11654119
70	0xbd92858a	-0.07154377
71	0xbdde113f	-0.10843133
72	0x3ece55e8	0.40299916
73	0x3e8fd8a4	0.2809497
74	0x3ef1b8a6	0.47211188
75	0xbd25689a	-0.04038296
76	0xbd2110de	-0.039322726
77	0xba52c972	-0.0008040882
78	0xbef2b344	-0.47402394
79	0x3e9f595a	0.31122857
80	0xbe32a701	-0.1744652
81	0x3f6d42a8	0.92679834
82	0x3e644c92	0.22294834
83	0xbdcf0a81	-0.10109425
84	0xbed74d4a	-0.42051154
85	0x3cd0b110	0.025475055
86	0x3e560018	0.20898473
87	0x3eb9a5af	0.3625922
88	0x3e75354f	0.23946117
89	0x3eb428e3	0.35187444
90	0xbf78276f	-0.9693517
91	0xbe806b73	-0.25081977
92	0x3ea2b283	0.3177682
93	0x3f2ebea2	0.6825963
94	0xbc9ac47e	-0.018892523
95	0x3da00053	0.07812562
96	0x3ce855b3	0.028361177
97	0xbdc78cee	-0.09743677
98	0xbd907373	-0.0705327
99	0xbca222a9	-0.019791918
100	0x3d18419a	0.037171938
101	0xbd7be4f3	-0.06149764
102	0xbd8ed7c9	-0.069747515
103	0x3d98116c	0.07425198
104	0x3d126dcc	0.03574924
105	0x3c707ba7	0.0146779185
106	0x3da272dc	0.07932064
107	0x3d6004c4	0.054692045
108	0x3d3fa829	0.04679123
109	0x3c19dbaf	0.009390756
110	0xbd8488da	-0.06471415
111	0x3803c020	3.1411764e-05
112	0x3d8862c9	0.06659467
113	0xbd15d518	-0.036580175
114	0xbbace846	-0.0052767126
115	0x3db4a56a	0.08820613
116	0xbabacee0	-0.0014252327
117	0xbd174e07	-0.036939647
118	0xbca83d4d	-0.020537043
119	0x3cdb6802	0.026782993
120	0x3c83e650	0.016101032
121	0x3d5915a2	0.052999146
122	0x3c2bd9fa	0.010488981
123	0xbd22d069	-0.039749537
124	0xbcd7eda4	-0.026358433
125	0x3d1bef58	0.038070053
126	0x3e35c5f2	0.17751291
127	0x3debbabc	0.11510226
128	0x3f130efb	0.57444733
129	0x3e944108	0.28955865
130	0x3ec9dedc	0.3942784
131	0x3c2646e5	0.0101487385
132	0x3d6b8ea2	0.057509072
133	0xbe760b7d	-0.2402782
134	0xbf01b00e	-0.50659263
135	0x3e1024c8	0.14076531
136	0xbe3cdb87	-0.18443118
137	0x3e941be2	0.28927523
138	0xbf08e33f	-0.5347175
139	0xbed5254e	-0.41630024
140	0xbe20ceb1	-0.15703847
141	0xbe07e5a0	-0.13271189
142	0x3ed69e86	0.4191782
143	0x3e8e1477	0.27749988
144	0xbf3dc35c	-0.7412622
145	0x3f8bfb4c	1.0936065
146	0xbcbc0d19	-0.022955464
147	0x3e09cc33	0.13456802
148	0x3d0ec73a	0.034857966
149	0x3e93834f	0.28811118
150	0x3f4d9b0b	0.803147
151	0x3f20dee3	0.628401
152	0xbd060a2d	-0.032724548
153	0x3d122868	0.035683066
154	0xbf2cf880	-0.6756668
155	0xbf1af628	-0.60531855
156	0x3d99e2cd	0.07513962
157	0xbe0cd610	-0.13753533
158	0x3d0da11e	0.03457748
159	0xbe071dd6	-0.13194975
160	0x3e32745e	0.17427203
161	0x3ef64a0e	0.48103374
162	0xbd6d2af6	-0.0579023
163	0x3d5e90cd	0.05433731
164	0x3d1fba20	0.038995862
165	0x3e496894	0.196688
166	0x3c54ac65	0.012980555
167	0x3eae6143	0.3405858
168	0x3c48d895	0.012258668
169	0x3dacc1e2	0.08435418
170	0xc02c4a19	-2.6920226
171	0x3f1c1e84	0.60984063
172	0x3f16502e	0.58716094
173	0x3d476fed	0.048690725
174	0x3c51bc1f	0.012801199
175	0x3dd8099a	0.10548706
176	0x3eabfdbf	0.3359203
177	0xbc5e44b9	-0.013566189
178	0xbdae534f	-0.085119836
179	0xbdb147a7	-0.08656245
180	0xbd03f424	-0.032215253
181	0x3e181ef5	0.14855559
182	0x3d96c953	0.07362618
183	0xbb090e34	-0.0020913007
184	0xbdfeacc4	-0.12435296
185	0x3d2f7838	0.04283926
186	0xbc377b73	-0.011198866
187	0x3d92767b	0.071515046
188	0xbe03065a	-0.12795392
189	0xbe824e0f	-0.2545018
190	0xbe741b1c	-0.23838466
191	0x3c33f3e9	0.010983446
192	0xbdadb9fc	-0.08482739
193	0xbdad4db7	-0.084620886
194	0x3df6d574	0.12052432
195	0xbc3dc8b8	-0.0115835
196	0xbb89855f	-0.0041968073
197	0x3c4fda12	0.012686269
198	0x3df9f142	0.122042194
199	0xbe994c73	-0.2994114
200	0xbee240e0	-0.4419012
201	0xbc2d95cf	-0.010594799
202	0xbcc7c64f	-0.024386553
203	0x3be2953f	0.006914764
204	0xbe8a10cb	-0.26965937
205	0x3ea07ca2	0.31345087
206	0xbd347e80	-0.044065952
207	0x3d003cee	0.031308107
208	0xbd8a04d9	-0.06739206
209	0x3f024fb2	0.50902855
210	0xbb4158e9	-0.0029502457
211	0x3ae29446	0.001728662
212	0xbe6d0142	-0.23145011
213	0x3e89ff4d	0.26952592
214	0xbe04e6b8	-0.12978637
215	0x3d5e7c72	0.0543179
216	0xbd872a2f	-0.06599843
217	0x3e0e8e70	0.13921523
218	0x3d23b966	0.03997173
219	0x3df1684b	0.117874704
220	0xbe67d2e9	-0.2263905
221	0x3df1f052	0.118134156
222	0xbf4c9e9d	-0.79929525
223	0xbe3f2c65	-0.18669279
224	0xbef27fe6	-0.47363204
225	0xbcd55ceb	-0.026045283
226	0xbed0ac56	-0.40756482
227	0x3cb88661	0.022525014
228	0xbdce131b	-0.10062238
229	0x3ed0eea8	0.4080708
230	0x3f49bacc	0.78800654
231	0x3da318a3	0.079636835
232	0xbd26fa26	-0.040765904
233	0xbd131ca3	-0.035915982
234	0x3c18fda8	0.00933782
235	0xbf659e35	-0.8969453
236	0x3e5d694c	0.21622199
237	0x3eb731f3	0.35780296
238	0x3de500c5	0.111817874
239	0xbd18112a	-0.037125744
240	0x3e81e4f3	0.25369987
241	0x3d329469	0.043598566
242	0x3cae1a49	0.021252768
243	0xbcf21636	-0.029551607
244	0xbd414021	-0.0471803
245	0xbd1486d1	-0.036261383
246	0xbe585268	-0.21125185
247	0xbd6034d2	-0.054737873
248	0x3e2fd374	0.17170507
249	0xbe1aad31	-0.1510513
250	0xbde0cad0	-0.109761834
251	0x3dfd5bc7	0.12371021
252	0xbd06c456	-0.032902084
253	0x3c5dab37	0.01352959
254	0xc05b22a2	-3.4239888
255	0x3fa1addd	1.2631184

final.linears.0.bias f4 [84]
0	0x3e8c6875	0.27423444
1	0xbe148baa	-0.14506403
2	0x3da81132	0.08206405
3	0x3ea1ec03	0.31625375
4	0x3e8efef0	0.27928877
5	0x3d24fa93	0.04027803
6	0xbe98e5b5	-0.29862753
7	0x3dda8ad5	0.10671011
8	0x3e0e2fa5	0.13885362
9	0x3e583009	0.21112074
10	0x3e32af5b	0.17449705
11	0xbdb5cee7	-0.08877354
12	0x3e44d88a	0.19223228
13	0x3ececf23	0.40392408
14	0xbe9160e2	-0.28394228
15	0x3e501e79	0.20324124
16	0x3d221951	0.039574925
17	0xbd243603	-0.040090572
18	0x3e25696e	0.161535
19	0x3e016fb1	0.12640263
20	0x3e7c7726	0.24654827
21	0x3e1a715d	0.15082307
22	0xbad19937	-0.0015991096
23	0x3f3cc9b5	0.7374528
24	0x3e3006db	0.17190115
25	0x3e7cecd3	0.24699716
26	0xbda5f1e5	-0.08102778
27	0x3c77f743	0.015134635
28	0x3edaea73	0.42756996
29	0x3e91eb02	0.2849961
30	0x3e3ab809	0.18234266
31	0x3d914be0	0.0709455
32	0x3de5fde7	0.11230069
33	0x3ebab110	0.36463213
34	0x3d911659	0.070843406
35	0x3e8e0618	0.27739024
36	0x3d945c1a	0.072441295
37	0xbb85626d	-0.004070571
38	0xbdebf877	-0.11522
39	0x3e9d299f	0.30695817
40	0xbee0a7fd	-0.43878165
41	0x3ede531a	0.43422776
42	0x3eba6bf4	0.36410487
43	0x3e9feedd	0.31236926
44	0x3e1804f4	0.1484564
45	0x3b18d6b9	0.0023321344
46	0x3e3dd967	0.18539964
47	0x3f0b2dfa	0.5436703
48	0x3e4e1759	0.20126094
49	0x3db20b40	0.08693552
50	0xbd82ad90	-0.06380761
51	0x3ea902db	0.3300999
52	0xbdc3b1c3	-0.0955539
53	0xbc008a99	-0.007845544
54	0x3eb670de	0.35632986
55	0xbe1ea4c0	-0.15492535
56	0xbcfdc064	-0.030975528
57	0x3cbaeb68	0.022817329
58	0x3eb0401b	0.3442391
59	0xbebfef17	-0.374871
60	0x3ebe37f4	0.37152064
61	0x3e34c8e7	0.17654763
62	0x3e2c7086	0.168398
63	0x3e570462	0.20997766
64	0x3e900cc6	0.28134745
65	0x3e6c1b86	0.23057374
66	0x3e453749	0.19259371
67	0x3d464464	0.048405066
68	0xbd4963ec	-0.04916756
69	0x3f06e284	0.52689385
70	0x3e073bef	0.13206457
71	0x3e0f817b	0.14014237
72	0x3d0bd349	0.034137044
73	0x3e1d6b74	0.15373021
74	0xbdcde015	-0.10052506
75	0x3e62d9bc	0.22153372
76	0xbdb14387	-0.08655458
77	0x3f18cbf8	0.5968623
78	0xbe2afd78	-0.16698253
79	0x3d70465a	0.058660842
80	0x3e32c7f3	0.17459087
81	0x3e60130b	0.21882264
82	0x3ebd3adc	0.3695897
83	0x3c6f9c94	0.0146247335

final.linears.1.weight f4 [84, 84]
0	0xbe60285b	-0.21890394
1	0x3dc30f60	0.09524417
2	0xbec907ed	-0.3926386
3	0xbd356642	-0.044286974
4	0x3db24a31	0.08705557
5	0xbe63bc43	-0.22239785
6	0xbdd71ea3	-0.1050389
7	0xbe910c57	-0.28329727
8	0xbe091453	-0.1338666
9	0xbd6033fc	-0.054737076
10	0x3c62461d	0.013810662
11	0xbdcc1253	-0.099644326
12	0xbb957412	-0.004560956
13	0xbd5fbe46	-0.05462482
14	0xbb8df8de	-0.004332646
15	0xbdb9d0f9	-0.090730615
16	0xbcd758c4	-0.026287444
17	0x3e76d4e4	0.24104649
18	0x3b66b994	0.0035205828
19	0xbd866f5e	-0.0656421
20	0xbdb47339	-0.088110395
21	0xbdfa36b6	-0.122174665
22	0xbc0d271d	-0.008615282
23	0xbdf1044c	-0.11768398
24	0xbd8d995b	-0.06914016
25	0x3bbcd133	0.005762243
26	0x3cffd80b	0.031230947
27	0xbd0556ce	-0.032553487
28	0xbe347e61	-0.17626335
29	0xbd5449bc	-0.05182813
30	0xbe2ed9a0	-0.17075205
31	0x3e1f5a04	0.15561682
32	0xbcb61d5a	-0.022230793
33	0x3d9deba5	0.07710961
34	0xbdfdb0a7	-0.123872094
35	0xbe0d512b	-0.13800494
36	0x3b4ec518	0.0031550582
37	0xbe33e64a	-0.17568317
38	0x3cabeb5f	0.020986257
39	0xbe085a9f	-0.13315819
40	0x3e1ed90b	0.15512483
41	0xbdc8cb6f	-0.09804427
42	0x3d093b48	0.0335038
43	0xbc1fbfd9	-0.00975033
44	0x3c4bc72c	0.012437623
45	0x3d6be72e	0.057593517
46	0xbc73d188	-0.014881499
47	0xbd31608f	-0.043304976
48	0xbd823bae	-0.06359039
49	0xbdf99075	-0.12185756
50	0xbe44a87f	-0.19204901
51	0x3be88e73	0.0070970594
52	0xbbc3dbfd	-0.0059771524
53	0x3d7a4b5f	0.061107036
54	0xbd19b8ed	-0.037529875
55	0xbe0caee2	-0.13738587
56	0x3d3f4368	0.046695143
57	0x3c592080	0.0132523775
58	0xbde98dd4	-0.11404005
59	0xbd91097a	-0.07081886
60	0xbda5682a	-0.08076508
61	0xbd2c37d0	-0.042045414
62	0x3daab920	0.08336091
63	0x3e496a56	0.1966947
64	0xbe00a654	-0.12563449
65	0xbcac875c	-0.021060638
66	0xbe11eb70	-0.14249969
67	0xbdbadc49	-0.09124047
68	0xbd608558	-0.054814667
69	0xbcfc1524	-0.0307718
70	0x3ed56cd1	0.41684583
71	0xbc1dab6a	-0.009623388
72	0x3cf8e869	0.03038426
73	0xbe19d21b	-0.15021555
74	0xbd978e44	-0.07400182
75	0x3c3ac291	0.011398927
76	0x3bcf5fb7	0.006328549
77	0xbd6f9d24	-0.05849947
78	0xbd43a1d4	-0.047761753
79	0xbd7d4b7d	-0.06183957
80	0xbdf9ec29	-0.12203247
81	0xbe4cd9eb	-0.20005004
82	0xbdfe92d0	-0.12430346
83	0xbcde290f	-0.027119188
84	0xbe66c1f9	-0.22534932
85	0x3dabfb08	0.0839749
86	0xbd89b411	-0.06723798
87	0xbd90c534	-0.070688635
88	0x3dd2b6f4	0.10288802
89	0xbe39f084	-0.18158156
90	0x3b9b0b47	0.004731569
91	0xbe119ca0	-0.14219904
92	0xbe568e6d	-0.20952769
93	0xbdfab0c3	-0.12240746
94	0xbe278a40	-0.16361332
95	0xbe0b6ed9	-0.13616504
96	0xbe1f3a53	-0.15549593
97	0xbbadc53d	-0.0053030537
98	0xbcaae1cd	-0.020859623
99	0xbeed229b	-0.46315464
100	0xbd9d0749	-0.07667405
101	0xbe2d898e	-0.16947004
102	0x3cefd699	0.029277133
103	0xbe171e97	-0.14757763
104	0xbe29ffd5	-0.16601498
105	0xbdd47327	-0.10373526
106	0x3c97f268	0.018548205
107	0xbe870656	-0.2637202
108	0xbdd53b2d	-0.104116775
109	0xbd65ccfe	-0.0561037
110	0xbcbc2fae	-0.022971954
111	0xbd11b9ca	-0.035577573
112	0xbdac01ef	-0.08398806
113	0xbea4cf92	-0.32189614
114	0xbec77726	-0.3895809
115	0xbe44af23	-0.19207434
116	0xbc1dcfa8	-0.009632029
117	0xbe8feb5c	-0.28109252
118	0xbec001e1	-0.37501433
119	0xbe73075f	-0.2373328
120	0x3c2f68bf	0.010706126
121	0xbe15d5ab	-0.14632289
122	0xbdf7b365	-0.12094764
123	0xbe22aa29	-0.15885223
124	0x3e5cc8c5	0.21560962
125	0xbf738619	-0.9512649
126	0x3e00c5d4	0.12575465
127	0xbe08ef6a	-0.13372579
128	0xbe5cea24	-0.21573693
129	0xbd708d4f	-0.058728512
130	0xbc864fdd	-0.016395504
131	0xbe06b991	-0.13156725
132	0xbdc1d87a	-0.09465118
133	0xbdc5fb5e	-0.09667085
134	0xbe19306c	-0.14959878
135	0x3db2dd6c	0.08733639
136	0xbd54a50c	-0.051915213
137	0xbdb6ffbe	-0.08935498
138	0xbe4a413e	-0.1975145
139	0xbdb28235	-0.08716241
140	0x3d50232e	0.0508148
141	0xbc2b85ef	-0.010468944
142	0xbe0974a9	-0.13423409
143	0x3b34902b	0.002755175
144	0xbe3a6ec4	-0.18206316
145	0xbcf036fa	-0.02932309
146	0xbd4c1365	-0.049823184
147	0xbdaf1909	-0.08549697
148	0xbe327957	-0.174291
149	0xbdb406e5	-0.087903775
150	0xbea5fe54	-0.324206
151	0xbe82d4ba	-0.25552922
152	0xbe50beb9	-0.20385255
153	0xbde296a8	-0.11063892
154	0xbdb0397b	-0.086047135
155	0xb9bffc9a	-0.00036618562
156	0xbd8a09b2	-0.067401305
157	0xbe5d8c8a	-0.21635643
158	0xbe478d3d	-0.19487472
159	0x3ca6cdb9	0.020361768
160	0xbd9313b4	-0.071814924
161	0xbe4fdd59	-0.20299281
162	0x3de9cf91	0.11416543
163	0xbe9f68ea	-0.3113473
164	0xbe53ba64	-0.20676571
165	0xbd7e2b9b	-0.062053304
166	0xbe709c84	-0.23497206
167	0x3e857f23	0.2607356
168	0xbe2e0730	-0.1699493
169	0x3dc739a8	0.09727794
170	0xbc7c12cb	-0.01538534
171	0xbef203ba	-0.47268468
172	0x3cba83e8	0.022767976
173	0xbc36fa27	-0.011168039
174	0x3e5fe73e	0.21865556
175	0xbcfa8fa1	-0.030586066
176	0xbe7e125b	-0.2481169
177	0xbe064d28	-0.1311537
178	0xbe0bb6ec	-0.13643998
179	0xbd716628	-0.058935314
180	0xbf183463	-0.59454936
181	0xbebf9adf	-0.37422845
182	0xbea903fb	-0.3301085
183	0xbdbcf39c	-0.09226152
184	0xbda16598	-0.078807056
185	0xbd2fe4f3	-0.042942952
186	0xbee04b7d	-0.43807593
187	0xbe29a8d4	-0.16568309
188	0xbf1ec3f2	-0.6201774
189	0xbdda1f55	-0.10650507
190	0xbec02db3	-0.37534866
191	0xbec23c29	-0.37936524
192	0xbf1545d2	-0.5830966
193	0xbf024396	-0.5088438
194	0xbd43426f	-0.047670778
195	0xbddcc77f	-0.10780238
196	0xbea02e98	-0.31285548
197	0xbe0e42ed	-0.13892718
198	0xbe9a72df	-0.30165765
199	0xbda3b4b2	-0.07993449
200	0xbea8ddcf	-0.32981727
201	0xbeed5769	-0.4635575
202	0xbe7f4830	-0.24929881
203	0xbe1ed97c	-0.15512651
204	0xbecc3dd1	-0.39890912
205	0xbd9cff2f	-0.0766586
206	0x3eb84778	0.35992026
207	0xbee1f0fe	-0.44129175
208	0x3e4604cb	0.19337766
209	0xbf2d3767	-0.6766266
210	0x3da9b2e8	0.08286077
211	0xc008a80b	-2.1352565
212	0xbdc366c3	-0.095410846
213	0xbd950d74	-0.072779566
214	0xbed92df4	-0.42417872
215	0xbf0d14f6	-0.5511011
216	0x3bb5b33f	0.0055450494
217	0xbe934aeb	-0.28768095
218	0x3dd4ce14	0.10390869
219	0xbd6b55d2	-0.05745489
220	0xbe2098a7	-0.15683232
221	0xbeb1e4c8	-0.3474486
222	0xbf1ca47e	-0.61188495
223	0xbde3df12	-0.11126532
224	0xbdd0c454	-0.101936966
225	0xbda11dac	-0.078669876
226	0xbdea61b7	-0.11444419
227	0x3df47415	0.119362034
228	0xbeda6721	-0.42656806
229	0xbee060b1	-0.4382377
230	0xbe679674	-0.22615987
231	0xbcaa6c9b	-0.02080374
232	0xbcdd7204	-0.027031906
233	0xbebcc4d8	-0.3686893
234	0xbecfb82c	-0.405702
235	0xbdc9ec2a	-0.09859498
236	0xbd32b238	-0.043626994
237	0xbf297a24	-0.66201997
238	0xbd51ffaf	-0.05126923
239	0xbed0b60a	-0.40763885
240	0xbecb36d1	-0.3969026
241	0xbe980d1f	-0.2969751
242	0xbe1f5983	-0.1556149
243	0xbee8d53d	-0.45475188
244	0xbce5390b	-0.027981302
245	0xbea8625e	-0.32887548
246	0xbc92997a	-0.017895449
247	0xbe918da1	-0.28428367
248	0xbe0247a7	-0.12722646
249	0xbdafcb1c	-0.08583662
250	0xbf16e989	-0.58950096
251	0x3e81273a	0.2522524
252	0x3da80043	0.08203175
253	0x3d59252a	0.053013958
254	0x3e1d225f	0.15345143
255	0xbdb96f2d	-0.09054408

final.linears.1.bias f4 [84]
0	0x3cc6fcd7	0.024290485
1	0xbeb53ab0	-0.35396338
2	0xbedf8732	-0.43657833
3	0xbdd5d397	-0.10440748
4	0xbe8d0136	-0.27539986
5	0xbdbee277	-0.093205385
6	0xbd7dfed0	-0.062010586
7	0x3ed0d6da	0.4078892
8	0xbdce95a4	-0.100871354
9	0xbd57253d	-0.052525748
10	0xbcaf3daa	-0.021391708
11	0x3dc94d7e	0.098292336
12	0xbdedd191	-0.11612237
13	0x3ddf8b8a	0.10915287
14	0xbe01fde3	-0.12694506
15	0x3e957656	0.29191846
16	0xbde49f9f	-0.11163258
17	0xbef4186d	-0.47674885
18	0xbdf257f6	-0.118331835
19	0xbe500aa5	-0.2031656
20	0xbe8362d5	-0.2566134
21	0xbf07982a	-0.5296656
22	0xbcd46079	-0.025924908
23	0xbe6e5fd4	-0.23278743
24	0xbe7f99c0	-0.24960995
25	0xbd192a8b	-0.037394088
26	0xbdd34241	-0.10315371
27	0xbe93a139	-0.2883394
28	0xbf0a0301	-0.53910834
29	0xbebb4565	-0.3657638
30	0xbee2a1df	-0.44264123
31	0x39ea4ee3	0.00044690733
32	0xbc58d325	-0.0132339345
33	0x3db8f5fb	0.09031292
34	0xbe5e2217	-0.21692692
35	0xbda150dc	-0.07876751
36	0xbd4d7455	-0.05015977
37	0xbedab052	-0.42712647
38	0xbe900068	-0.2812531
39	0x3a9a0c52	0.0011752939
40	0xbe033571	-0.12813355
41	0xbf30279d	-0.68810445
42	0xbec111d8	-0.37708926
43	0xbe3c197d	-0.18369098
44	0xbe18ea2c	-0.1493308
45	0x3c9a35de	0.018824514
46	0xbe6e9677	-0.23299585
47	0xbd82c381	-0.06384946
48	0x3ced478b	0.028964778
49	0xbf1efe89	-0.6210714
50	0xbefff214	-0.49989378
51	0xbe6fdf59	-0.23425044
52	0xbd29f405	-0.04149248
53	0xbecaf933	-0.3964325
54	0xbda70cca	-0.08156736
55	0xbe8bd760	-0.27312756
56	0x3e429d76	0.19005379
57	0xbe9a14fb	-0.30094132
58	0xbeda2881	-0.42609027
59	0xbe428711	-0.18996836
60	0xbe869cac	-0.26291406
61	0xbd6a8696	-0.057257257
62	0xbe8227bd	-0.25420943
63	0xbebf6c66	-0.3738739
64	0x3ecd5c4b	0.40109476
65	0xbdbd3581	-0.09238721
66	0xbea409f5	-0.32038847
67	0xbeed0fc2	-0.46301085
68	0xbf02f5b0	-0.5115614
69	0xbea6a9fc	-0.32551563
70	0xbe28b84a	-0.1647655
71	0xbd12e553	-0.035863232
72	0xbe562650	-0.20913053
73	0xbe3e5472	-0.18586901
74	0xbe96547a	-0.29361326
75	0xbee7376d	-0.45159474
76	0x3deb87dc	0.115005225
77	0xbd97ff7b	-0.07421776
78	0xbeb79362	-0.35854632
79	0xbe215a10	-0.15757012
80	0x3add1726	0.0016867861
81	0xbdb16ad3	-0.08662953
82	0xbd98e535	-0.07465593
83	0x3f21fbf9	0.63275105

final.linears.2.weight f4 [10, 84]
0	0x3d6c476d	0.057685304
1	0x3b8232bf	0.0039733346
2	0xbe8a408a	-0.27002364
3	0x3dbdcd32	0.092676535
4	0x3a05f4b3	0.00051100104
5	0xbe1ca6b1	-0.15297963
6	0xbe925ae6	-0.28584975
7	0xbc2200aa	-0.009887854
8	0x3f0b6fae	0.54467285
9	0x3c1b44a3	0.0094768135
10	0xbe9f865f	-0.31157205
11	0x3b9eaa58	0.004842084
12	0x3efce132	0.4939056
13	0xbd91a085	-0.07110695
14	0x3c64531e	0.013935832
15	0xbc56dcf1	-0.0131142
16	0x3e129dd7	0.14318024
17	0xbf189b69	-0.5961214
18	0x3e1ea612	0.15493038
19	0x3e037df3	0.12841015
20	0xbd898af3	-0.067159556
21	0x39ba5c40	0.00035545416
22	0x3d6b2703	0.05741025
23	0x3d5a815d	0.053346027
24	0x3e9d48b4	0.3071953
25	0x3a5fd75e	0.0008538867
26	0x3c786e1a	0.015162969
27	0x3f4f676d	0.8101719
28	0xbb28058f	-0.0025638079
29	0xbb1aa70d	-0.0023598105
30	0xbed46724	-0.4148494
31	0x3bd584bf	0.0065160687
32	0xbe3eb3ac	-0.18623227
33	0x3caf193c	0.021374337
34	0x3e82d365	0.25551906
35	0x3e96a48f	0.29422423
36	0xbe093f4b	-0.1340305
37	0x3e50681d	0.20352216
38	0x3e273f5f	0.16332768
39	0xbe631ca2	-0.22178891
40	0xbdbbfb07	-0.09178739
41	0x3dd36df4	0.10323706
42	0xbf3e28e4	-0.74281144
43	0xbca436b6	-0.02004562
44	0x3ed49fa7	0.41528055
45	0x3d380503	0.044926655
46	0xbbe45659	-0.0069683013
47	0xbd4ceb8b	-0.05002932
48	0x3c6852d9	0.014179909
49	0x3d409803	0.04701997
50	0x3be94f16	0.0071200235
51	0x3ccb2abe	0.024800655
52	0xbc7a6115	-0.015281935
53	0x3ee2749e	0.44229597
54	0x3ddb64bb	0.10712572
55	0x39c9cc87	0.00038490092
56	0x3b361937	0.0027786025
57	0xbecca25c	-0.3996762
58	0x3f52e5f6	0.8238214
59	0x3dc41766	0.095747754
60	0x3bcccf83	0.0062503233
61	0xbde7d171	-0.11319245
62	0x3d473004	0.048629776
63	0xbc449e66	-0.012000656
64	0xb8e6073c	-0.00010968602
65	0xbe5f1722	-0.21786168
66	0x3b6531c6	0.0034972294
67	0x3cee6e2d	0.02910527
68	0xbb6c2ba2	-0.003603675
69	0xbd734a5d	-0.05939709
70	0xbf57167c	-0.84018683
71	0xbc09c678	-0.008409135
72	0xbe0b0f63	-0.13580088
73	0xbe45de50	-0.19323087
74	0xbb4002c0	-0.0029298514
75	0xbf36aee8	-0.71360636
76	0x3c045e8d	0.008079183
77	0x3be5aa02	0.007008792
78	0x3f34a569	0.70564896
79	0xbd0ba178	-0.034089535
80	0xbcb795b8	-0.022410259
81	0xbeb4c293	-0.35304698
82	0x3dbf720c	0.093479246
83	0x3b2e253e	0.002657249
84	0xbd64ad8c	-0.05582957
85	0xbc70567e	-0.014669059
86	0x3f44c295	0.7685941
87	0x3bc7a9b0	0.0060932264
88	0x3b839f33	0.0040167808
89	0xbdffdc40	-0.12493181
90	0xbe7a01ab	-0.24414699
91	0xbbc8d334	-0.006128693
92	0x3ee59e01	0.4484711
93	0xbc1b1d28	-0.009467401
94	0xbdb57838	-0.088608205
95	0x3c01d4fb	0.007924314
96	0x3e58b600	0.21163177
97	0xbd4522a9	-0.048128758
98	0xbdc897c8	-0.09794575
99	0x3ccef196	0.025261682
100	0xbe4e5487	-0.20149432
101	0xbe97a0f1	-0.29614976
102	0x3d364577	0.04449984
103	0x3c93b772	0.01803181
104	0x3e0d2800	0.1378479
105	0xbc309231	-0.010777042
106	0x3a8957be	0.001047842
107	0x3edaeb09	0.42757443
108	0xbf237db6	-0.63863695
109	0x3d0dd2b9	0.03462479
110	0xbbbd58fd	-0.0057784305
111	0xbe2ee164	-0.17078167
112	0x3c8e24eb	0.017351588
113	0x3b6cf933	0.0036159276
114	0x3f6805ba	0.9063374
115	0x3d283835	0.04106923
116	0x3e7ad804	0.24496466
117	0x3cf1d930	0.029522508
118	0xbe8d7815	-0.27630678
119	0x3dbc7521	0.09202028
120	0x3e27f4bf	0.16401957
121	0x3e4a3dee	0.19750187
122	0xbe18b806	-0.1491395
123	0x3dad4653	0.08460679
124	0xbe35b8c5	-0.17746265
125	0x3d0693f3	0.03285594
126	0xbf503ffa	-0.8134762
127	0x3d1ffabe	0.039057486
128	0x3db156ae	0.08659111
129	0x3ebbdebf	0.3669338
130	0x3d08e6ec	0.03342335
131	0xbd6fb023	-0.058517586
132	0x3b155b87	0.002279015
133	0x3d218fac	0.039443657
134	0x3b8a0b28	0.0042127557
135	0xbddc3f5d	-0.10754273
136	0xbc193ba9	-0.009352603
137	0x3f470afc	0.77751136
138	0xbe23ac23	-0.15983634
139	0xbf24b22c	-0.6433437
140	0xbc8493e7	-0.016183807
141	0x3f65891a	0.89662325
142	0xbf28ba96	-0.6590971
143	0xbee6290c	-0.4495319
144	0xbbaf40b2	-0.0053482885
145	0x3bbc6c91	0.005750247
146	0x3d8efc36	0.06981699
147	0xbc54318f	-0.012951269
148	0xbc90a120	-0.017654955
149	0xbd394536	-0.04523202
150	0xbc993d6c	-0.018706046
151	0xbd38d64c	-0.045126244
152	0x3c8f7600	0.017512321
153	0x3e030557	0.12795006
154	0xbf0c40dc	-0.5478647
155	0x3d187d39	0.037228797
156	0xbd28a62f	-0.04117411
157	0x3ea05188	0.31312203
158	0x3d0843d9	0.03326783
159	0xbe96d1bf	-0.294569
160	0xbdbe0c69	-0.09279711
161	0x3d6446a0	0.055731416
162	0xbea9d2c0	-0.33168602
163	0xbe9c36de	-0.3051061
164	0x3d980297	0.07422369
165	0x3e81966e	0.2531008
166	0x3d43234f	0.047641095
167	0xbca461a4	-0.02006609
168	0xbccff485	-0.02538515
169	0x3d0427c2	0.03226448
170	0x3de5e205	0.112247504
171	0xbb5d926f	-0.0033809205
172	0x3e056e82	0.13030437
173	0xbde6af28	-0.11263877
174	0x3be02be5	0.00684117
175	0x3f006a9b	0.5016267
176	0xbc29cfcb	-0.010364483
177	0x3d9817f2	0.07426442
178	0x3c49be75	0.012313475
179	0x3e1ae320	0.15125704
180	0xbf107a14	-0.56436276
181	0xbdd1e895	-0.102494396
182	0xbc8c1223	-0.017098492
183	0xbfcbca6d	-1.592115
184	0x3c427ef3	0.011871087
185	0x3e73d95f	0.23813389
186	0xbd0087f5	-0.03137966
187	0xbc05dd9e	-0.008170513
188	0x3bd731eb	0.00656723
189	0xbdd1cbbc	-0.102439374
190	0xbe636f1b	-0.22210352
191	0x3d3bf2ba	0.04588578
192	0xbe1671eb	-0.14691894
193	0x3d7a041b	0.06103907
194	0xbc0a4376	-0.0084389355
195	0xbe831842	-0.25604445
196	0xbf0b074e	-0.5430802
197	0xbdaac0d0	-0.08337557
198	0xbdd3483b	-0.10316511
199	0xbd4a3be5	-0.049373526
200	0xbce0fefb	-0.027465334
201	0x3e4ea4e2	0.20180085
202	0xbd1ab447	-0.037769582
203	0xbc43f859	-0.011961066
204	0xbc8d3644	-0.01723779
205	0x3f1cfe02	0.61325085
206	0x3d52511d	0.051346887
207	0xbf102039	-0.5629917
208	0x3bd24ab4	0.0064175967
209	0x3f515576	0.8177103
210	0xbdf72e3f	-0.120693676
211	0x3d10c7ec	0.03534691
212	0xbd933df1	-0.07189549
213	0xbc8a3a64	-0.016873546
214	0x3d56ee27	0.052473214
215	0xbcbef9e7	-0.023312522
216	0x3f970df2	1.1801131
217	0x3f724689	0.9463888
218	0x4015b655	2.3392537
219	0xbdcdc37e	-0.10047053
220	0xbe85046b	-0.25979933
221	0xbe015e7d	-0.126337
222	0xbfb3c9b3	-1.4045929
223	0x3cd707fe	0.026248928
224	0x3eeae606	0.4587862
225	0xbe86fc7e	-0.2636451
226	0x3e654731	0.22390439
227	0xbe039942	-0.12851432
228	0x3d9ec13f	0.077517025
229	0x3be9fc4b	0.0071406714
230	0x3e05b083	0.13055615
231	0x3f00b213	0.5027172
232	0xbee826ed	-0.45342198
233	0x3d33ef77	0.043929543
234	0xbd05925a	-0.032610275
235	0xbd371844	-0.044700876
236	0x3e2ad9be	0.16684625
237	0x3d22e79c	0.03977166
238	0xbdf16a75	-0.11787883
239	0xbf1c260c	-0.60995555
240	0x3d3559a2	0.044274934
241	0xbdd96fdb	-0.10617038
242	0x3ef6771c	0.48137748
243	0x3c68b8d0	0.014204219
244	0xbba79f32	-0.005115413
245	0x3db21b00	0.08696556
246	0xbe17e685	-0.1483403
247	0x3c38da15	0.011282464
248	0xbeb89ffe	-0.36059564
249	0x3bf868df	0.007580861
250	0x3cc5f129	0.024162846
251	0xbe2a16d7	-0.16610275
252	0xbd149ad8	-0.036280483
253	0x3e0073b4	0.12544137
254	0x3e9ce53f	0.3064365
255	0xbb0f602e	-0.0021877396

final.linears.2.bias f4 [10]
0	0x3dd56cb3	0.10421123
1	0xbe32e17b	-0.17468826
2	0x3d6db5de	0.05803477
3	0xbe7a4eed	-0.2444417
4	0xbe016bfd	-0.1263885
5	0x3d7dc054	0.061950997
6	0x3d34b289	0.044115577
7	0x3dfbe88f	0.123002164
8	0xbd983e5a	-0.074337676
9	0xbd4155d7	-0.047201004

layers.0.attn.0.gnn_q.weight f4 [10, 16]
0	0xb8550bca	-5.0794137e-05
1	0xba71b237	-0.00092199765
2	0xb36b7ed4	-5.483055e-08
3	0xb11a97ac	-2.2496165e-09
4	0x3849465c	4.798766e-05
5	0xbc00fb40	-0.007872403
6	0xb74df0b7	-1.2274998e-05
7	0x3c37b62a	0.011212865
8	0x36dba57d	6.545974e-06
9	0x33a8c735	7.859345e-08
10	0xba3c6550	-0.00071867276
11	0xb6eb365c	-7.009874e-06
12	0x3c478346	0.012177294
13	0x3339f9e5	4.3300947e-08
14	0x3ba46654	0.0050170813
15	0x3b6ee18c	0.0036450354
16	0xb69d1bbc	-4.6821933e-06
17	0xba8fb575	-0.0010964113
18	0x326f68de	1.3935475e-08
19	0xb13ab5d3	-2.7169917e-09
20	0x388fb729	6.8528876e-05
21	0xbb69da96	-0.0035683266
22	0xb73ba371	-1.1184123e-05
23	0x3c482e80	0.012218118
24	0x383c7af2	4.4937195e-05
25	0x340aad78	1.2915359e-07
26	0xbac63368	-0.0015121521
27	0xba03060a	-0.00049981533
28	0xbc9d471d	-0.019198949
29	0x315cb668	3.21179e-09
30	0xbc994029	-0.018707352
31	0x3b595dc8	0.003316747
32	0x37e1f9b6	2.693837e-05
33	0x3ac0eb7f	0.0014718621
34	0xb1e25d50	-6.588074e-09
35	0x302e642f	6.34432e-10
36	0xb90066a0	-0.00012245262
37	0x3c20724b	0.009792875
38	0x388278c2	6.221376e-05
39	0xbc8a8b95	-0.016912261
40	0xb98689d0	-0.0002566115
41	0x332bd02c	4.000337e-08
42	0x3aab3b13	0.001306387
43	0x3ab303d0	0.0013657752
44	0xbebab77d	-0.36468115
45	0x32a2477b	1.8891788e-08
46	0xbe8614ba	-0.26187688
47	0xbbae5b0e	-0.005320913
48	0x38bd2a11	9.020058e-05
49	0x3bbc6d83	0.0057503595
50	0xb429e6bc	-1.5823292e-07
51	0x31f6c987	7.1824533e-09
52	0xb800e797	-3.0733263e-05
53	0xbc0af034	-0.00848012
54	0xb74b1893	-1.21054645e-05
55	0xbac48ac0	-0.0014994964
56	0x3808f253	3.265061e-05
57	0xb4b20103	-3.315582e-07
58	0x3bc811db	0.006105644
59	0x39579b55	0.00020561863
60	0x3ce843d5	0.028352657
61	0x32d9d677	2.5359652e-08
62	0x3cdedf75	0.027206162
63	0x3a936b0f	0.0011247116
64	0xb86d9c61	-5.6650842e-05
65	0xba7af18b	-0.0009572736
66	0x330ba347	3.251196e-08
67	0xafa40a92	-2.9838937e-10
68	0x398676f0	0.00025647087
69	0xbb42204d	-0.0029621304
70	0xb85f59d3	-5.3251e-05
71	0x3cf27663	0.029597467
72	0x36cae635	6.0468687e-06
73	0xb49a85f0	-2.8782188e-07
74	0xba576a0c	-0.00082174013
75	0xba2e404f	-0.0006647156
76	0xbd0e2a6c	-0.034708425
77	0x330a3e80	3.2187472e-08
78	0x3cac8f56	0.021064442
79	0x3bcf9fd4	0.0063361917
80	0x38eee2fc	0.000113910035
81	0x3bb0d137	0.005396034
82	0xb41f8b84	-1.4858784e-07
83	0x31300d17	2.5618812e-09
84	0x3714a948	8.860901e-06
85	0xbbf1c9b4	-0.007378781
86	0xb75b7f8b	-1.3083113e-05
87	0xba9caf98	-0.0011954186
88	0x38632dcb	5.4163665e-05
89	0xb4b7c62b	-3.4230592e-07
90	0x3bb37da6	0.005477625
91	0x391e683c	0.00015106885
92	0x3cc109f5	0.023564318
93	0x338a8b0d	6.451419e-08
94	0x3c4bc4ab	0.012437026
95	0x3b65529d	0.0034991868
96	0x37befd4a	2.2767712e-05
97	0xba05561a	-0.00050863775
98	0xb2bfacc8	-2.2313898e-08
99	0x32226636	9.452881e-09
100	0xb7dc2116	-2.624145e-05
101	0x3a80d790	0.0009829868
102	0x3743c67c	1.1669119e-05
103	0xbb43a018	-0.0029850062
104	0x37fa04b1	2.9804507e-05
105	0x351213c1	5.4417984e-07
106	0xbb01be35	-0.001979721
107	0xb7acb198	-2.0586696e-05
108	0x3d8b100a	0.067901686
109	0xb2d497dd	-2.4749108e-08
110	0x3d82f9b0	0.0639528
111	0xbbd44f1a	-0.006479156
112	0xb6ed8855	-7.0790215e-06
113	0xb89a908c	-7.370216e-05
114	0x33638ecc	5.298243e-08
115	0xb26a7723	-1.3647681e-08
116	0xb89d00b0	-7.4864714e-05
117	0x3c4f14ee	0.012639267
118	0x3890718e	6.887606e-05
119	0xbbaf3a41	-0.0053475206
120	0xb96908dd	-0.00022223913
121	0xb449798e	-1.8763805e-07
122	0x39ba2bdb	0.0003550936
123	0x3a74b74c	0.00093351747
124	0x3e2c1bf9	0.16807546
125	0x3139a492	2.701459e-09
126	0x3de3533f	0.11099862
127	0x3ac0f7d7	0.00147223
128	0x38c1412d	9.215097e-05
129	0x3b11088e	0.0022130343
130	0xb3e14108	-1.0489208e-07
131	0x329bd662	1.8141865e-08
132	0x38a1d30f	7.716391e-05
133	0xbc4da223	-0.012550863
134	0xb89d309f	-7.4954e-05
135	0x3be0190c	0.0068389233
136	0x3992c2af	0.0002799234
137	0x33da988c	1.0179164e-07
138	0x3adc7e00	0.0016822219
139	0xba8345a4	-0.0010015261
140	0xbd20423c	-0.039125666
141	0x31b0aa84	5.1416595e-09
142	0xbd0779be	-0.033075087
143	0x3aca3b3c	0.001542903
144	0xb39eef00	-7.400922e-08
145	0xbacf4306	-0.0015812821
146	0x34178361	1.4110766e-07
147	0xb20f552f	-8.343064e-09
148	0xb93eee5e	-0.0001820861
149	0x3cafb19a	0.021446992
150	0x38c9ab6c	9.616357e-05
151	0xbcd4fd18	-0.02599959
152	0xb99c17b6	-0.00029772305
153	0x34a9d37b	3.1632575e-07
154	0xbae19b54	-0.0017212429
155	0x3aa36730	0.0012466665
156	0x3cb3f6d1	0.021968277
157	0xb3669fe2	-5.369646e-08
158	0x3c958050	0.01824966
159	0xbc157d64	-0.009124134

layers.0.attn.0.gnn_q.bias f4 [16]
0	0x36cd545a	6.119296e-06
1	0xb9699256	-0.00022275126
2	0xb2b8dec8	-2.1521728e-08
3	0x31c33362	5.6810885e-09
4	0x388b16d0	6.632286e-05
5	0xbafcac7c	-0.0019277479
6	0xb7d6c486	-2.5602301e-05
7	0x3bfbcfa8	0.0076846667
8	0x39048525	0.00012638101
9	0x34b6bb31	3.403634e-07
10	0xba22fcd1	-0.0006217482
11	0xba5a3a75	-0.0008324751
12	0xbdd330f7	-0.10312074
13	0xb1f8d4ad	-7.2419284e-09
14	0xbcd675ac	-0.026179157
15	0x3aa489e5	0.0012553303

layers.0.attn.0.gnn_k.weight f4 [10, 16]
0	0x38550bcb	5.079414e-05
1	0x3a6d822f	0.00090602314
2	0x336c0535	5.4952768e-08
3	0x311d4ea1	2.2891202e-09
4	0xb853b1d0	-5.047192e-05
5	0x3c02b67f	0.007978081
6	0x374df312	1.2275546e-05
7	0xbc37b307	-0.011212117
8	0xb6d7a022	-6.426141e-06
9	0xb3b02bb0	-8.2035854e-08
10	0x3a3c69b8	0.0007187384
11	0x36ce6c5c	6.151893e-06
12	0xbc47d7f6	-0.012197485
13	0xb33b1180	-4.3555247e-08
14	0xbb9f00d3	-0.004852393
15	0xbb6ffaab	-0.0036617916
16	0x369d1f44	4.6826044e-06
17	0x3a93b1d9	0.0011268213
18	0xb270c7df	-1.4015284e-08
19	0x313891ba	2.685836e-09
20	0xb88bd926	-6.6684835e-05
21	0x3b6542e6	0.0034982502
22	0x373ba0fe	1.11835525e-05
23	0xbc48111f	-0.012211113
24	0xb83d3e43	-4.5119097e-05
25	0xb4060f43	-1.2485275e-07
26	0x3ac63313	0.0015121422
27	0x3a038a44	0.00050178566
28	0x3c9edaa8	0.019391373
29	0xb1413415	-2.8114802e-09
30	0x3c9cb6f3	0.019130206
31	0xbb58f289	-0.0033103547
32	0xb7e1f972	-2.6938247e-05
33	0xbac22fde	-0.0014815291
34	0x31dbb176	6.393914e-09
35	0xb0470a7c	-7.241068e-10
36	0x3908a17d	0.0001303013
37	0xbc23ef6a	-0.010005811
38	0xb8827a07	-6.2216124e-05
39	0x3c8aa046	0.016922127
40	0x398648bf	0.00025612672
41	0xb3391780	-4.3095042e-08
42	0xbaab3d66	-0.0013064563
43	0xbab23ac5	-0.0013597837
44	0x3eba6575	0.3640553
45	0xb29bbdd1	-1.8130693e-08
46	0x3e82383d	0.2543353
47	0x3bad96e5	0.005297529
48	0xb8bd2a97	-9.020155e-05
49	0xbbbe1a8b	-0.005801504
50	0x342a3e66	1.5855184e-07
51	0xb1f38b22	-7.0880484e-09
52	0x37ef834c	2.855216e-05
53	0x3c0e57d8	0.008687936
54	0x374b1edf	1.2106931e-05
55	0x3ac4016c	0.0014954037
56	0xb807fdd0	-3.242289e-05
57	0x34a875bd	3.1378104e-07
58	0xbbc8103d	-0.0061054514
59	0xb95acacb	-0.00020865646
60	0xbce6dd1f	-0.02818161
61	0xb2dcc50f	-2.5700983e-08
62	0xbcd65f32	-0.02616844
63	0xba94add4	-0.0011343309
64	0x386d9c63	5.665085e-05
65	0x3a7f8574	0.0009747364
66	0xb30b601b	-3.2450867e-08
67	0x2fb9a0de	3.3765607e-10
68	0xb9861265	-0.00025572177
69	0x3b3d3462	0.0028870334
70	0x385f59de	5.325104e-05
71	0xbcf26ca9	-0.029592829
72	0xb6c9dba8	-6.015838e-06
73	0x3497e3c4	2.8291663e-07
74	0x3a5772d1	0.0008218708
75	0x3a2e1c67	0.00066418055
76	0x3d0b9688	0.034079105
77	0xb30aac62	-3.228741e-08
78	0xbce50707	-0.027957452
79	0xbbd047ff	-0.006356239
80	0xb8eee31b	-0.00011391026
81	0xbbaff626	-0.0053699194
82	0x341f8d82	1.4859509e-07
83	0xb12e0161	-2.5321116e-09
84	0xb701a782	-7.728e-06
85	0x3befbedd	0.007316454
86	0x375b7e96	1.308289e-05
87	0x3a9c59a6	0.0011928573
88	0xb8630624	-5.4126736e-05
89	0x34b69f5d	3.4016094e-07
90	0xbbb37d3d	-0.005477576
91	0xb91e8bed	-0.0001512018
92	0xbcc0990e	-0.023510482
93	0xb38ad2c9	-6.4644674e-08
94	0xbc42e35f	-0.01189503
95	0xbb6594b8	-0.003503127
96	0xb7befcf2	-2.2767552e-05
97	0x3a09853f	0.00052459905
98	0x32c02422	2.2368173e-08
99	0xb221b7a2	-9.413187e-09
100	0x37a638be	1.9815165e-05
101	0xba805dc8	-0.0009793574
102	0xb743bc23	-1.166671e-05
103	0x3b439d26	0.0029848306
104	0xb7f77fb0	-2.9504154e-05
105	0xb510ae37	-5.3897696e-07
106	0x3b01bd83	0.0019796796
107	0x378709b4	1.6097772e-05
108	0xbd8b18e4	-0.06791857
109	0x32d10e9f	2.4337451e-08
110	0xbd811a43	-0.06303837
111	0x3bd4b5d3	0.0064914017
112	0x36ed87ef	7.078975e-06
113	0x389a590c	7.3598785e-05
114	0xb3641154	-5.3101147e-08
115	0x3269f157	1.3617259e-08
116	0x389915f8	7.2997005e-05
117	0xbc522329	-0.012825766
118	0xb8907196	-6.887612e-05
119	0x3baf4fe6	0.005350101
120	0x3968f230	0.00022215466
121	0x344a9bea	1.8869437e-07
122	0xb9ba31db	-0.0003551383
123	0xba74ce91	-0.0009338642
124	0xbe2bc292	-0.16773441
125	0xb12b9597	-2.4968807e-09
126	0xbdd99b6d	-0.10625348
127	0xbac04d74	-0.001467152
128	0xb8c140e2	-9.2150425e-05
129	0xbb0e6642	-0.002172843
130	0x33e09472	1.0457815e-07
131	0xb29c8ed0	-1.8225734e-08
132	0xb897aac6	-7.23205e-05
133	0x3c46047e	0.012086032
134	0x389d2fe0	7.495261e-05
135	0xbbdfe97e	-0.0068332544
136	0xb992ed61	-0.0002802415
137	0xb3c03d16	-8.951808e-08
138	0xbadc82f5	-0.0016823696
139	0x3a83b314	0.0010047876
140	0x3d207531	0.039174262
141	0xb1a6439c	-4.838922e-09
142	0x3d0b28d3	0.03397448
143	0xbac75525	-0.001520787
144	0x33a00480	7.451399e-08
145	0x3ad4d01c	0.0016236338
146	0xb41772e3	-1.4104766e-07
147	0x320f9afc	8.358935e-09
148	0x393da8d8	0.00018087344
149	0xbcaf43cd	-0.021394635
150	0xb8c9ab59	-9.616343e-05
151	0x3cd4f763	0.02599687
152	0x399c20e2	0.00029779138
153	0xb4a71eee	-3.1128678e-07
154	0x3ae19a28	0.001721208
155	0xbaa38867	-0.0012476564
156	0xbcb4f625	-0.022090027
157	0x336553bb	5.339437e-08
158	0xbc91b542	-0.017786626
159	0x3c159150	0.0091288835

layers.0.attn.0.gnn_k.bias f4 [16]
0	0xb6cd53ba	-6.119223e-06
1	0x3964a9f3	0.00021807085
2	0x32bae866	2.1758932e-08
3	0xb1c0152e	-5.5903433e-09
4	0xb894a1aa	-7.087302e-05
5	0x3b0836ca	0.002078461
6	0x37d6c7df	2.560386e-05
7	0xbbfc067e	-0.0076912036
8	0xb90434ca	-0.00012608166
9	0xb4ba9f20	-3.4760978e-07
10	0x3a230405	0.00062185555
11	0x3a593dbd	0.0008287093
12	0x3dd5e5ba	0.104442075
13	0x31e6d3fc	6.717981e-09
14	0x3d2cdd5b	0.04220329
15	0xbaa2cfcb	-0.0012421546
