checkpoints/ames_50_train1_pos/Aug22-21:35:09_570.pth (torch, 377407 bytes, 294 tensors)

layers.0.weight f4 [10, 16]
0.41954103 1.1325648 -0.15667686 0.4065481 0.1759934 0.19928388 -0.20801274 1.1557499
0.9685435 -1.3205699 -0.28437635 0.050535295 -0.06513013 1.2975699 -0.05349631 -0.47962418
1.1080357 0.00849314 -0.46189994 0.79781276 -0.17683363 -0.3649793 -0.22688125 0.2276373
-1.6086873 -0.23607458 -0.75139827 0.013717848 0.3259482 0.2550336 1.379985 -0.25957254
0.38145924 0.038353685 -0.31151652 0.105625674 0.29396698 0.4639935 0.04682672 0.02102391
0.3385378 -0.27569202 0.5794504 1.8912598 0.51788676 -0.44079313 0.44115198 0.46582738
0.27752528 -0.0674558 -0.6387225 0.08608333 -1.4810001 0.44426465 1.0055073 0.003975137
0.3548994 -0.31911024 1.1004714 -0.3790197 0.16844946 -0.42011586 0.37441647 -0.85270697
0.42921564 -0.1329161 0.9476051 0.15700673 0.14894298 0.26200435 1.5461744 -0.0026759522
0.39185494 -0.6664459 -0.6816217 -0.6658392 0.30016673 -0.15112896 0.35341197 1.1758213
0.7530084 -0.7981333 0.009387221 -0.039376546 0.70697427 0.92111427 0.26993886 -1.002184
-0.40936142 -0.54373676 0.15376487 0.015453448 0.4022298 1.0370632 -1.0052147 -0.74079233
0.10491838 0.62036735 0.013339538 -0.93725514 0.11343173 0.045544032 -0.2037485 -1.4278668
-0.109488785 -0.80347234 -0.277718 0.018752387 -0.71169764 0.045609348 1.4718649 -0.39707682
0.8875385 -0.67380255 -0.3734299 -0.3359883 0.06601751 -1.4371338 -0.14756857 -0.06234418
0.5752143 -0.7115374 -0.19654743 -0.09235931 0.28987843 -0.5482704 -0.4345391 -0.45259622
0.80351895 0.11826058 1.3998771 0.2367706 -0.56103563 0.4899136 -0.90770835 -0.16938649
-0.017598957 -0.19762476 -0.41086885 -0.11413099 0.4628379 -1.2246449 -0.10022768 -0.46993494
-1.2742796 0.30784208 0.27130356 1.0477245 0.6953329 -1.0377568 0.11661284 -0.94091165
-0.21816291 -1.1015164 0.7905205 -0.04901241 0.11547831 -0.3625596 -0.14297588 -0.10447399
00000000: 15ce d63e e2f7 903f e66f 20be 1327 d03e
00000010: 9d37 343e 1311 4c3e 4b01 55be 9def 933f
00000020: 78f2 773f 6f08 a9bf c799 91be 19fe 4e3d
00000030: f262 85bd c516 a63f f21e 5bbd 4d91 f5be
00000040: 1dd4 8d3f d026 0b3c 267e ecbe 753d 4c3f
00000050: e013 35be 91de babe 8f53 68be c119 693e
00000060: 77e9 cdbf 89bd 71be a35b 40bf d3c0 603c
00000070: afe2 a63e c493 823e 59a3 b03f b1e6 84be
00000080: a04e c33e c118 1d3d 187f 9fbe 4652 d83d
00000090: d782 963e 8e90 ed3e 60cd 3f3d 563a ac3c
000000a0: d454 ad3e 8127 8dbe dd56 143f cd14 f23f
000000b0: 3a94 043f a3af e1be acde e13e ed80 ee3e
000000c0: cb17 8e3e 4426 8abd 5183 23bf 754c b03d
000000d0: 6991 bdbf a876 e33e 77b4 803f de41 823b
000000e0: 60b5 b53e 6b62 a3be 3fdc 8c3f df0e c2be
000000f0: 047e 2c3e 6d19 d7be 84b3 bf3e 014b 5abf
00000100: 27c2 db3e 281b 08be 3f96 723f 5fc6 203e
00000110: 8284 183e 6f25 863e 0be9 c53f 075f 2fbb
00000120: 36a1 c83e 339c 2abf c27e 2ebf 7074 2abf
00000130: 74af 993e 8dc1 1abe 6af2 b43e 5081 963f
00000140: 29c5 403f 7752 4cbf dccc 193c 4d49 21bd
00000150: 44fc 343f 25ce 6b3f 6d35 8a3e 9147 80bf
00000160: d297 d1be 5532 0bbf 8a74 1d3e 7530 7d3c
00000170: 10f1 cd3e 7dbe 843f e0aa 80bf 91a4 3dbf
00000180: 73df d63d 65d0 1e3f 148e 5a3c f4ef 6fbf
00000190: e54e e83d 618c 3a3d 72a3 50be 57c4 b6bf
000001a0: a83b e0bd 5db0 4dbf 0e31 8ebe 9b9e 993c
000001b0: d131 36bf ded0 3a3d 1266 bc3f a74d cbbe
000001c0: b935 633f 537e 2cbf 3432 bfbe a906 acbe
000001d0: 3034 873d 00f4 b7bf 371c 17be 9c5c 7fbd
000001e0: 3f41 133f 5127 36bf bb43 49be e126 bdbd
000001f0: f26a 943e 735b 0cbf e97b debe b1ba e7be
00000200: 6bb3 4d3f 9a32 f23d 2c2f b33f fe73 723e
00000210: 08a0 0fbf f5d5 fa3e 935f 68bf a773 2dbe
00000220: b02b 90bc 255e 4abe 675d d2be 82bd e9bd
00000230: 17f9 ec3e 2ac1 9cbf 2b44 cdbd 509b f0be
00000240: 981b a3bf 7a9d 9d3e 4de8 8a3e d61b 863f
00000250: 5601 323f 37d5 84bf b6d2 ee3d 96df 70bf
00000260: 1966 5fbe 7dfe 8cbf 8d5f 4a3f 3dc1 48bd
00000270: e47f ec3d 69a1 b9be 4568 12be 76f6 d5bd

layers.0.bias f4 [16]
-0.10760585 -0.5529619 -0.20444219 0.5640425 0.28464454 0.25289276 -0.56812745 -0.006431923
0.3287011 0.09209058 -0.32032162 -0.72525877 -0.8206693 -0.12058958 0.02039133 -0.17009154
00000000: 7560 dcbd e98e 0dbf 4b59 51be 1765 103f
00000010: eebc 913e 297b 813e cd70 11bf e1c2 d2bb
00000020: 834b a83e fc99 bc3d 3201 a4be 8faa 39bf
00000030: 6217 52bf abf7 f6bd b80b a73c 7a2c 2ebe

layers.1.weight f4 [16, 16]
0.1858524 0.08423148 -0.045451894 -1.1284497 -0.034306888 -0.74998707 -0.00971883 0.36257267
0.3288558 -0.962695 -0.20641656 -0.07770048 0.018439896 -0.0023182658 -0.25461105 -0.7003701
0.04205085 0.19473928 0.67723584 -0.0037695605 0.35829896 0.45536068 -0.056710515 -0.8527205
0.7381245 0.26410702 0.01559968 -0.12796739 -0.19373505 -0.3588671 0.34290463 -0.0025859512
0.2741978 0.43330723 -0.12658352 0.15502766 0.2874142 -0.100555435 0.4164884 0.15214449
-0.057374835 -0.79002047 0.17129683 0.11561625 0.7397442 -0.28930923 0.12948516 -0.33805102
0.018974995 0.24108976 0.9395662 0.3534158 -0.40597028 -0.44590923 0.05506834 0.17720482
0.024845386 -0.11672845 0.111286685 0.09069997 -0.14886819 0.13198663 -0.3727973 0.07507993
-0.48382834 0.85637623 0.4453555 0.3926977 -0.32760796 -0.031647038 -0.4882327 0.5956418
-0.18480143 0.5551242 0.011181125 -0.22965282 0.87544185 -0.23578362 -0.1173006 0.35679346
0.09941413 -0.013034459 -0.14232378 -0.28256437 -0.2427508 -0.7034613 -0.16753983 0.074382514
-0.54264915 0.17445336 -0.106955454 -0.10391934 -0.37907583 0.23594566 -0.34011397 -0.32326406
0.5333122 -0.838194 -0.106117 0.19946902 0.47300833 -1.0212829 0.5689477 0.069369294
-0.44805878 0.58497393 -0.1673937 0.13676007 0.07518639 -0.2463361 -0.09020257 -1.4668931
0.027843999 0.317276 0.62610054 -0.48660272 -0.039057158 0.032168955 0.037743688 -1.8114927
-0.48095348 -0.34431234 0.0148375835 -0.010068867 -0.1602819 0.04767027 0.04640597 0.015516431
-0.030478403 -0.33592948 0.53653896 -0.018197678 -0.2632566 -0.6666134 -0.126398 -0.8915839
-0.81671405 0.35960674 -0.07092511 -0.07365655 0.08663866 0.0848332 -0.34404665 -0.31806004
-0.25167203 0.41547725 -1.429386 -0.02748042 -0.08707706 0.73147404 -0.07944323 -0.6671166
-0.60696983 -0.15844594 0.30511314 0.021314584 -0.17283952 0.10716947 0.25529847 0.67633885
-0.13292873 -0.78445476 0.13578518 0.69835854 -0.13347968 -0.48852918 -0.16203822 0.2009208
-0.58541095 0.3029419 -0.18077677 -0.2670514 -1.0656136 -0.075555906 -0.07708141 -0.62503487
-0.3212387 0.20265767 -0.049118154 -0.04673611 -0.23168029 -1.1252666 -1.712456 -0.083455555
0.041222204 -0.1613783 0.23858397 -0.12981491 -0.4040454 -0.3507931 -0.16671146 -1.2768711
0.16603571 0.07471936 0.09731343 -0.2175993 0.420665 -0.36207798 -0.3932066 0.3598679
-0.20928288 -0.6105086 -0.28951448 -0.421409 -0.1550448 -0.3506043 0.18843274 -0.8440635
0.022272883 0.035346445 1.0180063 -0.38267666 0.18439963 0.76060075 0.21388729 -0.2503691
-0.007157602 1.0207584 0.18797459 0.0827101 0.29693368 -0.2982861 0.27218303 0.55156034
0.31196418 0.104271986 -0.36950687 -0.34380525 -0.13051754 -0.6184507 -0.1040921 -0.26840925
1.5726155 0.6432884 -0.2462633 -0.16860223 -0.30713275 0.16708557 -0.24377057 -0.4841459
0.17414339 0.67680657 -0.5462952 0.096194066 0.09625891 -0.7819849 -0.25036895 -0.5067036
-0.35391232 0.36501086 -0.030079283 -0.18577158 0.9041008 -0.4377098 -0.28806305 -0.51110137
00000000: 1750 3e3e 8e81 ac3d c42b 3abd 0a71 90bf
00000010: 6185 0cbd 27ff 3fbf ba3b 1fbc 20a3 b93e
00000020: ca5f a83e 2e73 76bf dd5e 53be 6e21 9fbd
00000030: 440f 973c 0cee 17bb 615c 82be 744b 33bf
00000040: 833d 2c3d bc69 473e 545f 2d3f bb0a 77bb
00000050: f672 b73e 0925 e93e 4949 68bd e44b 5abf
00000060: baf5 3c3f 0939 873e cd95 7f3c e209 03be
00000070: 7b62 46be 6ebd b7be 3291 af3e 1079 29bb
00000080: a763 8c3e 72da dd3e 1c9f 01be 92bf 1e3e
00000090: f427 933e 02f0 cdbd f83d d53e c4cb 1b3e
000000a0: e001 6bbd c83e 4abf 7068 2f3e 36c8 ec3d
000000b0: e05f 3d3f 5720 94be c297 043e 0615 adbe
000000c0: 7371 9b3c 3ce0 763e 6987 703f eaf2 b43e
000000d0: 56db cfbe 374e e4be 578f 613d 2e75 353e
000000e0: 8d88 cb3c 530f efbd 46ea e33d e8c0 b93d
000000f0: e770 18be 8127 073e 4adf bebe 82c3 993d
00000100: 59b8 f7be 793b 5b3f a305 e43e ac0f c93e
00000110: 3bbc a7be 53a0 01bd a3f9 f9be fb7b 183f
00000120: 963c 3dbe 9f1c 0e3f 0a31 373c 1c2a 6bbe
00000130: f51c 603f 4371 71be 4c3b f0bd a2ad b63e
00000140: a399 cb3d 7c8e 55bc 53bd 11be 47ac 90be
00000150: aa93 78be 0a16 34bf 908f 2bbe dc55 983d
00000160: 0eeb 0abf e7a3 323e 760b dbbd aad3 d4bd
00000170: 3a16 c2be bd9b 713e 6b23 aebe de82 a5be
00000180: 2687 083f e293 56bf df53 d9bd 9b41 4c3e
00000190: 262e f23e 66b9 82bf 8ea6 113f 7d11 8e3d
000001a0: f667 e5be dac0 153f 4169 2bbe d50a 0c3e
000001b0: 52fb 993d 883f 7cbe 20bc b8bd 27c3 bbbf
000001c0: 1919 e43c 0072 a23e 2048 203f fe23 f9be
000001d0: 66fa 1fbd 98c3 033d 2099 1a3d fede e7bf
000001e0: 893f f6be b549 b0be 5619 733c e4f7 24bc
000001f0: f020 24be e741 433d 3014 3e3d a138 7e3c
00000200: d8ad f9bc f3fe abbe 9e5a 093f 4c13 95bc
00000210: 92c9 86be 2da7 2abf 7a6e 01be d83e 64bf
00000220: 2c14 51bf 601e b83e 2f41 91bd 3fd9 96bd
00000230: 9c6f b13d 07bd ad3d e226 b0be c4d8 a2be
00000240: 28db 80be 6fb9 d43e 1ff6 b6bf 9e1e e1bc
00000250: 7555 b2bd e241 3b3f 22b3 a2bd 27c8 2abf
00000260: 6062 1bbf a73f 22be ca37 9c3e ec9b ae3c
00000270: d8fc 30be ab7b db3d 7bb6 823e 8b24 2d3f
00000280: 781e 08be 07d2 48bf 450b 0b3e a0c7 323f
00000290: e6ae 08be 7f20 fabe 59ed 25be 2fbe 4d3e
000002a0: 7edd 15bf 331b 9b3e 8c1d 39be f6ba 88be
000002b0: 0766 88bf 0ebd 9abd dcdc 9dbd 4902 20bf
000002c0: 6679 a4be 7e85 4f3e 1e30 49bd 5d6e 3fbd
000002d0: 993d 6dbe bc08 90bf c231 dbbf bfea aabd
000002e0: 9dd8 283d 5a40 25be 5b4f 743e 33ee 04be
000002f0: 0adf cebe 279b b3be 69b6 2abe 8370 a3bf
00000300: 4405 2a3e 7706 993d 434c c73d 5ad2 5ebe
00000310: 6761 d73e 4962 b9be 6052 c9be 9b40 b83e
00000320: 404e 56be 4b4a 1cbf 3e3b 94be ecc2 d7be
00000330: 10c4 1ebe 6882 b3be 83f4 403e 8c14 58bf
00000340: 9f75 b63c 6fc7 103d 084e 823f 32ee c3be
00000350: 42d3 3c3e bbb6 423f 4505 5b3e 6130 80be
00000360: 518a eabb 36a8 823f 697c 403e ea63 a93d
00000370: b107 983e f5b8 98be 935b 8b3e 0f33 0d3f
00000380: c5b9 9f3e 8d8c d53d 0130 bdbe 3e07 b0be
00000390: 64a6 05be c952 1ebf 3d2e d5bd f06c 89be
000003a0: 774b c93f 8cae 243f 722c 7cbe 10a6 2cbe
000003b0: 8140 9dbe 7b18 2b3e fe9e 79be f9e1 f7be
000003c0: a552 323e 3243 2d3f 01da 0bbf 6501 c53d
000003d0: 6423 c53d 2a30 48bf 5c30 80be 54b7 01bf
000003e0: ff33 b5be b4e2 ba3e d468 f6bc e83a 3ebe
000003f0: 2673 673f 801b e0be 007d 93be 8ad7 02bf

layers.1.bias f4 [16]
0.3527033 -0.29393306 -0.18801448 -0.14753358 -0.22227411 -0.3678083 -0.6099626 -0.11873019
0.24005024 -0.25143966 0.018883808 0.36717477 -0.29018813 -0.83676696 0.0819946 -0.91809505
00000000: 8795 b43e 657e 96be de86 40be 0b13 17be
00000010: d39b 63be 5f51 bcbe 8226 1cbf d028 f3bd
00000020: bbcf 753e b3bc 80be 37b2 9a3c 55fe bb3e
00000030: 8a93 94be 5c36 56bf c9ec a73d 4708 6bbf

final.linears.0.weight f4 [84, 42]
0.09871662 0.01725344 -0.5675037 -0.7205863 -0.5866384 -1.3652977 -1.0436941 -0.27520862
-0.45913902 0.34151572 -0.3468846 -0.24096341 0.05133176 -0.13455546 0.14267726 0.0041659297
0.22331005 -0.19085889 -0.14044169 0.22322132 0.20483743 0.20781796 0.1704416 0.1693989
-0.2545825 0.028276242 0.027706219 0.1845708 0.2461484 -0.17460029 -0.005606541 0.1324858
-0.08818453 -0.17569499 0.13067827 -0.094684824 -0.18179135 0.32712358 -0.062531695 0.16805544
-0.12785128 -0.25332657 -0.14697221 -0.6331484 -0.9482682 1.0472826 -0.13158892 -0.57272583
0.61549175 -0.008310887 -0.4390432 -0.88825446 -0.062876865 -0.06692471 0.24053894 1.0404433
1.4001312 0.10110706 -0.58766836 -0.13692051 -0.059089493 -0.23626322 0.055209924 0.9417608
0.840136 -0.007174541 -0.08037443 0.6871951 0.16396463 -0.13252278 -0.13339372 -0.21122119
0.37018463 0.20853269 0.41986644 -0.07515763 -0.044906165 0.066481516 -0.43082094 0.26080382
-0.15873703 0.7251501 0.15331554 -0.051814813 -0.46405044 -0.09398956 0.19030692 0.47241858
0.29966837 0.46850508 -0.9671593 -0.17957929 0.3764491 0.6868198 -0.014874604 0.025525324
0.019875912 -0.11256126 -0.08696709 0.008977848 0.08523621 -0.05359015 -0.05386807 0.094856925
0.05126911 0.009030799 0.07265338 0.061384466 0.06493313 0.02668995 -0.07945179 0.034703348
0.07597546 -0.0018080992 -0.003909267 0.13034414 -0.039688535 -0.05520895 0.011594503 0.0151604
0.026450958 0.04703611 0.01824845 -0.015801499 -0.054819684 0.024304038 0.2648623 0.12044001
0.56946576 0.23341863 0.38360256 0.1513347 0.02408152 -0.38537946 -0.5145492 0.11519295
-0.2734094 0.28814507 -0.482821 -0.40025055 -0.024564588 -0.08495888 0.47666967 0.11939817
-0.69898546 1.0371916 0.053687956 0.16934 0.045196194 0.34173003 0.658612 0.4924067
0.044180892 0.039084643 -0.63347423 -0.47075135 0.099154666 -0.11145226 0.015867146 -0.08160474
0.2654682 0.32115483 -0.07610357 0.034141876 0.04747051 0.20338532 -0.0076657888 0.34649155
-0.026465584 0.042749774 -2.842875 0.57402915 0.5244015 0.04558213 -0.036922846 0.13114041
0.29134324 0.013605325 -0.13556719 -0.10191656 -0.022661911 0.13842337 0.10109662 0.006160364
-0.1660548 0.05663326 -0.016771862 0.11251578 -0.16314264 -0.29936188 -0.27705783 0.037525013
-0.11025512 -0.14022928 0.0845378 0.024092782 -0.00065784063 0.039042287 0.059666663 -0.3841122
-0.48924989 -0.010285791 -0.0051228725 0.04663109 -0.2244449 0.45826375 -0.008815256 0.0884817
-0.13962851 0.5022443 0.06513324 0.045620278 -0.27776727 0.25266948 -0.20402066 0.041372936
0.027153727 0.2914723 0.05298559 0.071479015 -0.22346297 0.073806874 -0.5995238 -0.100122124
-0.29318878 -0.06287187 -0.10930358 -0.09077178 -0.11992803 0.23622896 0.5184692 0.0496064
0.027538454 0.027650481 0.049804833 -0.7408119 0.011866805 0.17823814 0.052589957 -0.07298195
0.032781642 -0.007299909 -0.0676467 -0.068228394 -0.062887415 -0.00024913475 0.030103048 0.01565982
0.09839302 -0.17404798 0.042928528 -0.017642772 -0.027604273 0.008810194 -3.4666963 1.3643922
00000000: f02b ca3d 1657 8d3c ec47 11bf 5878 38bf
00000010: ef2d 16bf 13c2 aebf c597 85bf 25e8 8cbe
00000020: 4514 ebbe 26db ae3e dc9a b1be 1dbf 76be
00000030: 4041 523d e8c8 09be fd19 123e 5a82 883b
00000040: 64ab 643e 8370 43be f2cf 0fbe 2194 643e
00000050: e7c0 513e 3bce 543e 3e88 2e3e e876 2d3e
00000060: a358 82be 94a3 e73c 27f8 e23c 2100 3d3e
00000070: 530e 7c3e 6bca 32be 13b7 b7bb 5caa 073e
00000080: 179a b4bd 63e9 33be 86d0 053e 1eea c1bd
00000090: 8327 3abe be7c a73e 9e10 80bd ba16 2c3e
000000a0: 72eb 02be 05b4 81be e27f 16be 0316 22bf
000000b0: b4c1 72bf 5b0d 863f 3fbf 06be 299e 12bf
000000c0: de90 1d3f 632a 08bc 45ca e0be a564 63bf
000000d0: 96c5 80bd d30f 89bd d74f 763e 3f2d 853f
000000e0: 8037 b33f 3811 cf3d 6f71 16bf e434 0cbe
000000f0: d307 72bd fcee 71be cd23 623d 3c17 713f
00000100: 2713 573f 6918 ebbb 599b a4bd 05ec 2f3f
00000110: 58e6 273e 0db4 07be 5d98 08be 5e4a 58be
00000120: d788 bd3e 9889 553e bcf8 d63e 3eec 99bd
00000130: 87ef 37bd 7627 883d 9094 dcbe 1488 853e
00000140: f68b 22be 70a3 393f c0fe 1c3e c53b 54bd
00000150: 0598 edbe 997d c0bd d1df 423e d9e0 f13e
00000160: 226e 993e e6df ef3e c097 77bf a2e3 37be
00000170: f0bd c03e 6cd3 2f3f 9cb4 73bc 7c1a d13c
00000180: cfd2 a23c 8586 e6bd cd1b b2bd d317 133c
00000190: 5290 ae3d 5881 5bbd c4a4 5cbd 5944 c23d
000001a0: 8fff 513d ebf5 133c 4ccb 943d 476e 7b3d
000001b0: a9fb 843d e2a4 da3c 9fb7 a2bd 1925 0e3d
000001c0: 0699 9b3d befd ecba 4f19 80bb ef78 053e
000001d0: 7290 22bd c822 62bd dff6 3d3c 5463 783c
000001e0: aeaf d83c f0a8 403d c67d 953c 2572 81bc
000001f0: 9b8a 60bd 4319 c73c 089c 873e 41a9 f63d
00000200: 82c8 113f 4b05 6f3e 8e67 c43e 7cf7 1a3e
00000210: 9c46 c53c 7550 c5be 7fb9 03bf 48ea eb3d
00000220: 51fc 8bbe c087 933e 5034 f7be a4ed ccbe
00000230: ad3b c9bc ecfe adbd 0c0e f43e 0787 f43d
00000240: b6f0 32bf b2c2 843f e7e7 5b3d 7767 2d3e
00000250: a51f 393d 3df7 ae3e cc9a 283f bb1c fc3e
00000260: 06f7 343d 3817 203d 5e2b 22bf 5206 f1be
00000270: 9a11 cb3d 1541 e4bd d1fb 813c 6320 a7bd
00000280: 73eb 873e 686e a43e 30dc 9bbd 5ad8 0b3d
00000290: 7070 423d 3e44 503e 4c31 fbbb 5767 b13e
000002a0: 5ace d8bc 631a 2f3d aaf1 35c0 93f3 123f
000002b0: 2d3f 063f 54b4 3a3d 693c 17bd ac49 063e
000002c0: f12a 953e dee8 5e3c 20d2 0abe a1b9 d0bd
000002d0: 79a5 b9bc dbbe 0d3e bf0b cf3d e1dc c93b
000002e0: 450a 2abe 47f8 673d 2565 89bc ac6e e63d
000002f0: dd0e 27be f645 99be 86da 8dbe d4b3 193d
00000300: 70cd e1bd 4498 0fbe 2722 ad3d 3a5e c53c
00000310: f072 2cba ceea 1f3d 0865 743d 5baa c4be
00000320: f67e fabe bc85 28bc c5dd a7bb 3e00 3f3d
00000330: e2d4 65be 8ca1 ea3e dd6d 10bc e535 b53d
00000340: c7fa 0ebe 1593 003f 9364 853d 54dc 3a3d
00000350: 8337 8ebe e55d 813e cbea 50be ab76 293d
00000360: 7e71 de3c db3b 953e 6b07 593d 9763 923d
00000370: 7ad3 64be 0f28 973d 647a 19bf d40c cdbd
00000380: d71c 96be f8c2 80bd 8eda dfbd 8ee6 b9bd
00000390: d49c f5bd 01e6 713e 66ba 043f 1530 4b3d
000003a0: 5398 e13c 4383 e23c 2700 4c3d d9a5 3dbf
000003b0: fd6c 423c 0f84 363e 9168 573d 9077 95bd
000003c0: 0b46 063d 1334 efbb 5a8a 8abd 54bb 8bbd
000003d0: 1ecb 80bd 4d9e 82b9 ab9a f63c 0649 803c
000003e0: 4882 c93d a239 32be d3d5 2f3d 9387 90bc
000003f0: 5b22 e2bc a258 103c 5ade 5dc0 67a4 ae3f

final.linears.0.bias f4 [84]
0.22942695 -0.1032597 0.05309356 0.30373657 0.28867155 0.062296275 -0.31889924 0.09693487
0.14573266 0.18372467 0.18740289 -0.061173934 0.13409774 0.34537223 -0.30638278 0.18203531
0.075137675 -0.030398635 0.16900983 0.13362168 0.18903244 0.15178551 -0.0035501586 0.6342033
0.122968055 0.20558766 -0.04263418 0.04737558 0.39220688 0.25859338 0.16671558 0.08363416
0.12572454 0.3391529 0.096228346 0.24244085 0.08749703 0.025581425 0.018348236 0.2634584
-0.36995128 0.36237636 0.24862418 0.26569194 0.17215522 0.029982423 0.14572105 0.49703038
0.24074419 0.06986049 -0.05035283 0.43139094 -0.06505345 -0.0025791528 0.30517757 -0.196562
0.018153718 0.12393406 0.25414258 -0.27859572 0.3304134 0.14547877 0.1767414 0.13566928
0.2671927 0.2286679 0.17436086 0.027705526 -0.07149619 0.43260187 0.13561048 0.13513169
0.037849307 0.15101796 -0.105623335 0.2125459 -0.06120991 0.5233848 -0.15357406 0.047116864
0.15620372 0.20618044 0.3323768 -0.037380964
00000000: e6ee 6a3e d279 d3bd a278 593d 5c83 9b3e
00000010: c2cc 933e 612a 7f3d c346 a3be ca85 c63d
00000020: f13a 153e 5222 3c3e 8be6 3f3e 8591 7abd
00000030: eb50 093e a1d4 b03e 34de 9cbe 7767 3a3e
00000040: c8e1 993d 8f06 f9bc ea10 2d3e 1fd4 083e
00000050: b891 413e a96d 1b3e c7a9 68bb 265b 223f
00000060: add6 fb3d 9285 523e 2ea1 2ebd e50c 423d
00000070: 57cf c83e 5a66 843e 7db7 2a3e 6348 ab3d
00000080: efbd 003e 73a5 ad3e 5e13 c53d 6a42 783e
00000090: a531 b33d 2390 d13c 0a4f 963c 05e4 863e
000000a0: 416a bdbe 6589 b93e 5697 7e3e c608 883e
000000b0: 7549 303e b39d f53c e637 153e c47a fe3e
000000c0: a585 763e 0413 8f3d c53e 4ebd 46df dc3e
000000d0: be3a 85bd 0107 29bb 3c40 9c3e 8d47 49be
000000e0: 1bb7 943c 24d1 fd3d fa1e 823e 19a4 8ebe
000000f0: f22b a93e 63f8 143e b3fb 343e e3ec 0a3e
00000100: 7bcd 883e eb27 6a3e a78b 323e b3f6 e23c
00000110: 986c 92bd fe7d dd3e 79dd 0a3e f65f 0a3e
00000120: e007 1b3d 74a4 1a3e 0c51 d8bd a2a5 593e
00000130: 3eb7 7abd 8cfc 053f 8542 1dbe 9dfd 403d
00000140: def3 1f3e f720 533e 4b2d aa3e c81c 19bd

final.linears.1.weight f4 [84, 84]
-0.20908335 0.11512177 -0.37232655 -0.034300666 0.059824847 -0.17508951 -0.102381125 -0.3183478
-0.13476701 -0.02296245 0.07243145 -0.09460493 0.00039887478 -0.045713224 -0.01520176 -0.11861191
-0.026704503 0.23187414 0.023168603 -0.10131356 -0.11410822 -0.118645884 -0.018851936 -0.10641762
-0.07987046 0.0035136635 0.029503923 -0.072488904 -0.16305205 -0.12368168 -0.20315267 0.10926626
-0.0050917035 0.17407152 -0.19275983 -0.14011379 0.055091914 -0.07404495 0.010834769 -0.11554853
0.13045572 -0.11903142 0.015043497 0.0020835013 0.035311352 -0.051050875 -0.009888562 -0.02295383
-0.060289558 -0.15808538 -0.17888238 0.018157745 -0.042120237 0.10182954 -0.040751666 -0.12707369
0.04177522 -0.011172252 -0.0896256 -0.058845874 -0.103993475 -0.055437792 0.12792633 0.18664165
-0.12106555 -0.062640004 -0.13391687 -0.08867601 -0.02660689 -0.017683705 0.28476188 0.018737102
-0.0026428795 -0.1569029 -0.07289643 0.00628485 -0.006823113 -0.080491595 -0.03504499 -0.07517352
-0.07982824 -0.16880682 -0.15373394 -0.035019446 -0.18158136 0.07657465 -0.1298258 -0.09639485
0.05151152 -0.108056985 0.10310899 -0.21050426 -0.15375373 -0.2407351 -0.19746095 -0.09446798
-0.13830644 0.03039563 -0.010584472 -0.51390064 -0.065948844 -0.22502476 0.0028665224 -0.20043248
-0.16369247 -0.07106169 0.00824656 -0.24293819 -0.12461345 -0.10079793 -0.04756214 -0.09814548
-0.119700745 -0.30046797 -0.33481303 -0.15899834 -0.012394189 -0.30066237 -0.36840102 -0.29427847
-0.033008814 -0.09636853 -0.042092945 -0.1253425 0.14368582 -0.97008175 0.10236138 -0.15563378
-0.20238675 -0.10763025 -0.043775626 -0.12947868 -0.14991607 -0.06830298 -0.18499579 0.06358762
-0.08420853 -0.13239142 -0.21648836 -0.041560736 0.060409486 -0.05317249 -0.14873908 -0.02359866
-0.15529229 -0.05212333 -0.030545993 -0.04768742 -0.1596243 -0.078994766 -0.28660184 -0.23740177
-0.18587747 -0.08293471 -0.16510165 -0.016734013 -0.10315588 -0.18009494 -0.21591401 -0.031902608
-0.09971904 -0.1604629 0.09598387 -0.33295575 -0.17289025 -0.02737207 -0.19599302 0.23769744
-0.20082608 0.08688137 0.022137579 -0.43852925 -0.0010219435 -0.008661612 0.22687106 -0.027643891
-0.2460522 -0.10264824 -0.18084972 -0.084212445 -0.5548315 -0.29201862 -0.2932224 -0.19353919
-0.087986454 0.08207255 -0.38762283 -0.160304 -0.5271807 -0.14239803 -0.33814797 -0.35214564
-0.52716047 -0.49116373 -0.03653954 -0.07402664 -0.18513574 -0.10757481 -0.31023604 -0.14574936
-0.33042172 -0.53365797 -0.26525033 -0.2280119 -0.3794587 -0.118618615 0.29309726 -0.43549287
0.23056723 -0.6274183 0.13626991 -1.8998004 -0.13548651 -0.059786644 -0.38391232 -0.53663135
-0.007013773 -0.3121322 0.16061239 -0.070360385 -0.2620898 -0.36456627 -0.5603852 -0.19422334
-0.07587452 -0.078778885 -0.10286871 0.045445558 -0.40697417 -0.39081112 -0.21203426 -0.045366812
-0.014861082 -0.38750252 -0.39668003 -0.104395576 -0.059416767 -0.5987288 -0.06151034 -0.36087823
-0.4139443 -0.2620442 -0.11236441 -0.41275424 -0.06782389 -0.3459165 -0.04813558 -0.30906588
-0.17993309 -0.0049827555 -0.5430584 0.26862353 0.105727986 0.037609242 0.20537567 -0.09886151
00000000: f219 56be f6c4 eb3d 96a1 bebe db7e 0cbd
00000010: e60a 753d aa4a 33be 32ad d1bd 7cfe a2be
00000020: 5d00 0abe bf1b bcbc f156 943d 3bc0 c1bd
00000030: 1120 d139 ca3d 3bbd ce10 79bc cdea f2bd
00000040: 67c3 dabc 6a70 6d3e 15cc bd3c 7c7d cfbd
00000050: 92b1 e9bd 9dfc f2bd 606f 9abc 7bf1 d9bd
00000060: 2093 a3bd 7e45 663b 36b2 f13c 1075 94bd
00000070: 1ef7 26be d24c fdbd 4107 50be fdc6 df3d
00000080: 4ed8 a6bb ce3f 323e d562 45be fd79 0fbe
00000090: 0fa8 613d e1a4 97bd 5184 313c b5a4 ecbd
000000a0: 2f96 053e bfc6 f3bd 0079 763c 5a8b 083b
000000b0: a3a2 103d b91a 51bd a303 22bc ac09 bcbc
000000c0: 2ff2 76bd 22e1 21be f12c 37be 8dbf 943c
000000d0: 4586 2cbd 028c d03d 38eb 26bd 9b1f 02be
000000e0: 7e1c 2b3d d20b 37bc a08d b7bd 5f08 71bd
000000f0: 88fa d4bd bd12 63bd 1fff 023e fd1e 3f3e
00000100: 37f1 f7bd 6749 80bd 8121 09be c59b b5bd
00000110: b1f6 d9bc 6bdd 90bc 4fcc 913e 8d7e 993c
00000120: 2934 2dbb 27ab 20be b94a 95bd 25f1 cd3b
00000130: 6c94 dfbb c7d8 a4bd 568b 0fbd 93f4 99bd
00000140: fd7c a3bd b2db 2cbe 6e6c 1dbe 8d70 0fbd
00000150: 77f0 39be 2cd3 9c3d 0ef1 04be aa6a c5bd
00000160: befd 523d fb4c ddbd ce2a d33d 6e8e 57be
00000170: 9e71 1dbe 4383 76be 3433 4abe 6e78 c1bd
00000180: 34a0 0dbe 4200 f93c 7e6a 2dbc fe8e 03bf
00000190: 3010 87bd e46c 66be 44dc 3b3b 2c3e 4dbe
000001a0: 009f 27be cb88 91bd 941c 073c cac4 78be
000001b0: 5635 ffbd 256f cebd 85d0 42bd 7f00 c9bd
000001c0: aa25 f5bd f0d6 99be 9d6c abbe 76d0 22be
000001d0: ff10 4bbc 6bf0 99be 0f9f bcbe abab 96be
000001e0: 4034 07bd dd5c c5bd a769 2cbd c959 00be
000001f0: 6022 133e 4757 78bf d8a2 d13d 765e 1fbe
00000200: 793e 4fbe 406d dcbd 124e 33bd 0f96 04be
00000210: 9983 19be 6fe2 8bbd 896f 3dbe 3a3a 823d
00000220: 8675 acbd 9e91 07be 20af 5dbe 973b 2abd
00000230: f06f 773d 66cb 59bd 0f4f 18be fa51 c1bc
00000240: f104 1fbe 467f 55bd 973b fabc e253 43bd
00000250: 8d74 23be 02c8 a1bd 7abd 92be 7319 73be
00000260: aa56 3ebe acd9 a9bd 6810 29be c515 89bc
00000270: 6443 d3bd cf6a 38be 9018 5dbe 4fac 02bd
00000280: 7f39 ccbd 6350 24be 3193 c43d 2d79 aabe
00000290: 240a 31be 643b e0bc 65b2 48be f566 733e
000002a0: 5aa5 4dbe dcee b13d de59 b53c e886 e0be
000002b0: bcf2 85ba 6fe9 0dbc e350 683e 7175 e2bc
000002c0: 1cf5 7bbe 3e39 d2bd ab30 39be 9377 acbd
000002d0: 7009 0ebf 7783 95be 3f21 96be 232f 46be
000002e0: 3e32 b4bd a715 a83d 8076 c6be bb26 24be
000002f0: 50f5 06bf cad0 11be bb21 adbe 6f4c b4be
00000300: fdf3 06bf d079 fbbe 7caa 15bd 479b 97bd
00000310: 3994 3dbe 2f50 dcbd 42d7 9ebe 523f 15be
00000320: 092d a9be cf9d 08bf e4ce 87be f47b 69be
00000330: 6948 c2be 51ee f2bd d810 963e ecf8 debe
00000340: d119 6c3e 7c9e 20bf 578a 0b3e a92c f3bf
00000350: fabc 0abe d7e2 74bd 2890 c4be ac60 09bf
00000360: cbd3 e5bb cbcf 9fbe 9377 243e 1b19 90bd
00000370: a230 86be 6ea8 babe 6875 0fbf 7ce2 46be
00000380: 1a64 9bbd d356 a1bd d5ac d2bd 1f25 3a3d
00000390: eb5e d0be 6518 c8be 821f 59be 8dd2 39bd
000003a0: e57b 73bc bb66 c6be a519 cbbe 59cd d5bd
000003b0: ff5e 73bd 4a46 19bf 44f2 7bbd 08c5 b8be
000003c0: 82f0 d3be a82a 86be 501f e6bd 8654 d3be
000003d0: 40e7 8abd f81b b1be d029 45bd e23d 9ebe
000003e0: 6140 38be 6246 a3bb e005 0bbf 0689 893e
000003f0: ea87 d83d 260c 1a3d 004e 523e e777 cabd

final.linears.1.bias f4 [84]
0.036826544 -0.33749858 -0.45781904 -0.059808098 -0.3139716 -0.1488016 -0.03385291 0.44031492
-0.02213158 -0.08372147 -0.0061783954 0.071504384 -0.12212579 0.07266706 -0.1917215 0.32297483
-0.119271815 -0.53627205 -0.12292068 -0.12958804 -0.21500516 -0.5084718 0.015276219 -0.22410202
-0.29286584 -0.051376943 -0.096404985 -0.29098603 -0.4762937 -0.42890626 -0.47329545 -0.024910659
0.04013876 0.14293855 -0.25108907 -0.07495559 -0.10460685 -0.4272856 -0.2620444 -0.02966739
-0.11158913 -0.67811376 -0.3855801 -0.20166022 -0.17837076 0.05016581 -0.1929016 -0.044669244
-0.006673968 -0.6295938 -0.4829169 -0.14388035 -0.105784796 -0.40328363 -0.062418956 0.010782533
0.12010045 -0.303495 -0.47938058 -0.17302872 -0.23007193 -0.04962968 -0.22542073 -0.40803832
0.30276692 -0.12230439 -0.24026515 -0.47616142 -0.52364826 -0.22438918 -0.21824555 -0.045285776
-0.18668476 -0.19082208 -0.22153048 -0.46410725 0.0602173 -0.07345318 -0.36271375 -0.18025032
0.018309332 -0.092448756 -0.09250263 0.6843073
00000000: 6ed7 163d 9dcc acbe 4267 eabe 56f9 74bd
00000010: e3c0 a0be 725f 18be 59a9 0abd f570 e13e
00000020: 4a4d b5bc 2976 abbd 2374 cabb e470 923d
00000030: 161d fabd 78d2 943d a452 44be f55c a53e
00000040: c844 f4bd 2049 09bf d6bd fbbd bab2 04be
00000050: 502a 5cbe 352b 02bf 1b49 7a3c 007b 65be
00000060: 83f2 95be a170 52bd fa6f c5bd 1ffc 94be
00000070: c5dc f3be 9a99 dbbe c853 f2be 7011 ccbc
00000080: 8a68 243d 7c5e 123e bf8e 80be 5182 99bd
00000090: 1e3c d6bd 2ec5 dabe af2a 86be 0709 f3bc
000000a0: d788 e4bd dd98 2dbf c16a c5be 0480 4ebe
000000b0: d3a6 36be aa7a 4d3d ff87 45be 19f7 36bd
000000c0: 4db1 dabb 0f2d 21bf e240 f7be 5f55 13be
000000d0: b3a5 d8bd 317b cebe 05ab 7fbd 39a9 303c
000000e0: 3af7 f53d b263 9bbe 5f71 f5be 712e 31be
000000f0: fa97 6bbe 7e48 4bbd b1d4 66be 66ea d0be
00000100: 4404 9b3e b97a fabd 1108 76be 6ecb f3be
00000110: d00d 06bf 47c6 65be c37b 5fbe 947d 39bd
00000120: 4a2a 3fbe dd66 43be e3d8 62be 779f edbe
00000130: 6aa6 763d 9f6e 96bd 9eb5 b9be 8a93 38be
00000140: 74fd 953c c655 bdbd 0572 bdbd c32e 2f3f

final.linears.2.weight f4 [10, 84]
0.060465164 0.012979585 -0.27168572 0.07828263 -2.7182425e-05 -0.15270662 -0.2640429 -0.026407871
0.40890294 0.00056871027 -0.29495412 0.0038488065 0.4493017 -0.050056662 0.008857378 -0.011404923
0.12136085 -0.5470869 0.19066752 0.08954911 -0.05544974 0.014294083 0.04168507 0.03276138
0.23150134 -0.0037107095 0.030684369 0.76068145 0.00052642 0.0017280632 -0.4248094 -0.0053409245
-0.13599658 0.024399366 0.20192225 0.2719483 -0.13748369 0.19588284 0.17818496 -0.23707977
-0.098510504 0.11961129 -0.6299223 -0.031152802 0.3960389 0.047217313 -0.012067561 -0.09615928
0.026374262 0.060960278 0.011035845 -0.006888241 -0.0029234532 0.44903314 0.12675597 0.03369459
-0.0011482874 -0.34069443 0.79517347 0.12640537 -0.0055772266 -0.09506271 0.028894242 -0.011374322
-0.011518589 -0.22520453 0.005767793 0.037352387 -0.0034124088 -0.057010803 -0.8121993 -0.05170307
-0.12342277 -0.13722728 0.0006518805 -0.7044984 -0.01874245 0.020467961 0.62076306 -0.042205192
0.014546194 -0.25613692 0.12348706 0.0074864705 -0.031736933 -0.026180869 0.68721926 0.00030992014
0.008492034 -0.20686914 -0.12953247 -0.010165281 0.35842362 0.016535277 -0.05643627 0.014656469
0.2248176 -0.04701075 -0.097507454 -0.0030260708 -0.21863642 -0.29953772 0.026215553 0.045828283
0.11862575 -0.010505353 -0.037989285 0.3348848 -0.6482028 0.019371228 -0.0005907024 -0.18798903
0.009117565 -0.0047052624 0.82839286 0.021674981 0.25439128 0.022974232 -0.22880541 0.06913632
0.15064864 0.1956126 -0.12906952 0.036959678 -0.12569578 0.07332355 -0.73183995 0.025523415
0.101075396 0.32513174 0.031674247 -0.04996627 0.019529184 0.06896035 0.005026799 -0.078760505
-0.017832855 0.66643834 -0.13602436 -0.15202263 -0.00930474 0.87465554 -0.5988307 -0.27816504
-0.0037890212 0.0049142055 0.057410367 -0.01633087 0.004444464 -0.029009294 -0.028712777 -0.046609
0.013680734 0.10180722 -0.56186134 0.023741134 -0.07450389 0.23953424 0.02026539 -0.30825508
-0.036831837 0.0147315245 -0.3600222 -0.30189395 0.039094917 0.18620715 0.043656446 -0.015608325
-0.018059524 -0.082132 0.113902874 0.01137181 0.11727474 -0.08340875 0.015283426 0.41847253
0.017863126 0.08587586 0.011861272 0.14129296 -0.54943025 -0.0836837 -0.012111627 -1.5148607
0.010445292 0.2697715 -0.030447057 0.005529364 0.00849975 -0.06142951 -0.18972187 0.05550517
-0.104793996 -0.010574735 -0.00713892 -0.19811468 -0.4034237 -0.052354988 -0.076524004 -0.023509057
-0.017012855 0.15519552 -0.03334407 -0.0059137396 -0.038350035 0.5557353 0.04765582 -0.48105097
0.002172948 0.7354825 -0.05146687 0.044346128 -0.02098843 -0.020132147 -0.022930278 -0.01795234
1.0813615 0.8358422 2.1290932 -0.13046668 -0.26716304 -0.11386475 -1.2279487 0.020141963
0.35247865 -0.21888681 0.23474142 -0.058870986 0.09103095 -0.0031223416 0.09685865 0.38511568
-0.34128982 0.034906443 -0.010889695 -0.035204194 0.15059775 0.03735159 -0.104526006 -0.63445747
0.047059536 -0.081091456 0.41114366 0.06138285 -0.01124055 0.11858691 -0.10091299 0.014814086
-0.4621572 0.007158392 0.031434506 -0.15711616 -0.050247382 0.14883813 0.3498444 0.001102201
00000000: 52aa 773d 53a8 543c 641a 8bbe a552 a03d
00000010: d005 e4b7 205f 1cbe a230 87be 5255 d8bc
00000020: ba5b d13e 8015 153a 3a04 97be 423c 7c3b
00000030: df0a e63e 3708 4dbd 891e 113c b7db 3abc
00000040: 0a8c f83d e30d 0cbf 593e 433e 8665 b73d
00000050: 441f 63bd bb31 6a3c f7bd 2a3d cc30 063d
00000060: b00e 6d3e 602f 73bb c95d fb3c 05bc 423f
00000070: 73ff 093a 2e80 e23a 9e80 d9be ec02 afbb
00000080: b042 0bbe 2ee1 c73c b5c4 4e3e cf3c 8b3e
00000090: 86c8 0cbe 8395 483e 1e76 363e 0ac5 72be
000000a0: e0bf c9bd c4f6 f43d 9642 21bf 2934 ffbc
000000b0: 9cc5 ca3e f166 413d 05b7 45bc 28ef c4bd
000000c0: d60e d83c 7cb1 793d b0cf 343c c1b6 e1bb
000000d0: 6897 3fbb ace7 e53e 51cc 013e 5703 0a3d
000000e0: 2282 96ba 806f aebe 7d90 4b3f 6970 013e
000000f0: 2bc1 b6bb 3db0 c2bd 9eb3 ec3c 5d5b 3abc
00000100: 77b8 3cbc 049c 66be c1ff bc3b d1fe 183d
00000110: b8a2 5fbb 2984 69bd 4bec 4fbf 99c6 53bd
00000120: 14c5 fcbd 4f85 0cbe f6e2 2a3a 025a 34bf
00000130: c489 99bc 6dac a73c 54ea 1e3f 5adf 2cbd
00000140: 2953 6e3c 6124 83be c9e6 fc3d 1151 f53b
00000150: 96fe 01bd 4379 d6bc 9aed 2f3f c77c a239
00000160: 2c22 0b3c 81d5 53be 29a4 04be 478c 26bc
00000170: 4d83 b73e fd74 873c b829 67bd b021 703c
00000180: 9636 663e 588e 40bd fdb1 c7bd 0b51 46bb
00000190: 3ae2 5fbe 025d 99be 00c2 d63c 70b6 3b3d
000001a0: 0ff2 f23d a51e 2cbc a79a 1bbd 0576 ab3e
000001b0: 9ef0 25bf 69b0 9e3c 5ed9 1aba 3280 40be
000001c0: d761 153c 9a2e 9abb 8e11 543f bb8f b13c
000001d0: 933f 823e 7534 bc3c f74b 6abe 5897 8d3d
000001e0: a343 1a3e ab4e 483e cd2a 04be 0863 173d
000001f0: 65b6 00be a82a 963d dd59 3bbf 7b16 d13c
00000200: 9e00 cf3d ab77 a63e dbbc 013d 6ea9 4cbd
00000210: abfb 9f3c 153b 8d3d d9b7 a43b 304d a1bd
00000220: 3516 92bc b49b 2a3f f849 0bbe d2ab 1bbe
00000230: e872 18bc 6de9 5f3f f84c 19bf a66b 8ebe
00000240: 3a51 78bb 5807 a13b 2227 6b3d 51c8 85bc
00000250: dea2 913b e6a4 edbc 0f37 ebbc 14e9 3ebd
00000260: 2825 603c 4e80 d03d 25d6 0fbf c47c c23c
00000270: 7f95 98bd 7748 753e 9a03 a63c 9cd3 9dbe
00000280: fbdc 16bd 7e5c 713c d454 b8be d891 9abe
00000290: fe21 203d 16ad 3e3e 1ad1 323d 0fba 7fbc
000002a0: 91f1 93bc d234 a8bd e945 e93d d450 3a3c
000002b0: bd2d f03d 35d2 aabd 5667 7a3c 0842 d63e
000002c0: b155 923c afdf af3d c855 423c 1aaf 103e
000002d0: 76a7 0cbf 5c62 abbd d86f 46bc f5e6 c1bf
000002e0: bb22 2b3c 7d1f 8a3e 1b6c f9bc ab2f b53b
000002f0: 8942 0b3c 839d 7bbd 7346 42be 6459 633d
00000300: 3c9e d6bd a741 2dbc 9aed e9bb 93de 4abe
00000310: 8d8d cebe 2f72 56bd 9eb8 9cbd 1196 c0bc
00000320: 8b5e 8bbc 93eb 1e3e cb93 08bd 0bc8 c1bb
00000330: ed14 1dbd ab44 0e3f c032 433d 504c f6be
00000340: 0568 0e3b 9548 3c3f edce 52bd 49a4 353d
00000350: eeef abbc 2cec a4bc 47d8 bbbc c910 93bc
00000360: 0e6a 8a3f c1f9 553f 1043 0840 0f99 05be
00000370: 98c9 88be ec31 e9bd 6c2d 9dbf c200 a53c
00000380: 1578 b43e dd23 60be 0e60 703e b422 71bd
00000390: 6f6e ba3d 33a0 4cbb d45d c63d e22d c53e
000003a0: 8abd aebe 0ffa 0e3d b16a 32bc 4632 10bd
000003b0: 4c36 1a3e fbfd 183d bb11 d6bd ce6b 22bf
000003c0: 80c1 403d 4713 a6bd 6c81 d23e 956c 7b3d
000003d0: 492a 38bc b2dd f23d 78ab cebd c8b6 723c
000003e0: de9f ecbe f290 ea3b 78c1 003d 0fe3 20be
000003f0: 33d0 4dbd 0669 183e ce1e b33e ba77 903a

final.linears.2.bias f4 [10]
0.06412703 -0.0803507 -0.020372221 -0.20833331 -0.14899294 0.04266296 0.02358527 0.09151725
-0.043692693 -0.022840846
00000000: 0855 833d e88e a4bd a5e3 a6bc 5455 55be
00000010: 9b91 18be 5bbf 2e3d e535 c13c 656d bb3d
00000020: 1cf7 32bd ba1c bbbc

layers.0.attn.0.gnn_q.weight f4 [10, 16]
-0.012183963 0.0026647814 0.00053008145 0.013351112 0.022537608 -0.0038613274 4.807361e-06 -6.204788e-05
8.739303e-06 0.00022497476 3.4814907e-06 2.4158142e-06 0.048802815 0.0014692884 0.045025364 -0.0015447155
0.0036353024 0.00048434958 0.00042278448 -0.0039781975 -0.0046366537 -0.0018913153 8.819458e-07 -3.3176468e-05
1.6412074e-06 0.0001077336 1.8230646e-06 1.2866841e-06 -0.010435155 0.000904878 -0.010601728 -0.0013338805
0.019554108 0.001944732 7.879055e-05 -0.021393353 -0.08094981 -0.00030838075 7.37199e-07 -2.4370833e-05
-5.046545e-07 -2.8610957e-05 -1.2290478e-06 2.319037e-06 -0.5266335 0.0024860874 -0.45681667 -0.005030516
-0.008176684 -0.00050515286 -0.0004217545 0.009165456 0.022914547 0.00042570633 -2.3535863e-06 5.274811e-05
-6.3906473e-06 -0.00017082541 -3.5676314e-06 -6.3682415e-07 0.12078789 -0.0022579122 0.11553435 0.003916725
-0.05313296 -0.0037325253 -0.00017758702 0.059561998 0.10698599 0.0047022193 -9.030992e-07 8.2998486e-05
-3.7623192e-06 -7.970076e-05 -4.071281e-06 7.1875195e-07 0.13908535 -0.0051133176 0.14811549 0.010898272
0.010304178 -0.0010850232 0.0002689386 -0.010996539 -0.010766619 0.0021824224 2.6276866e-06 -0.00011119733
9.568342e-06 0.0002465915 5.917849e-06 5.9829376e-06 -0.03546412 0.004220119 -0.033663347 -0.006823633
-0.00015820953 0.0021437595 -0.00067702675 0.00047814217 0.014170453 -0.002691638 -3.2591663e-06 3.4406246e-05
-1.4580777e-05 -0.00027968027 -1.1137896e-06 1.7644229e-06 0.019385274 0.00039692805 0.024989627 -0.0013534006
-0.0011052096 -0.0021251112 0.00062171416 0.001455721 0.002728349 0.0026522733 1.5833547e-06 -5.066979e-05
7.396867e-06 0.0001972247 2.7906503e-06 1.3763536e-06 0.061960608 0.0012229787 0.052814055 -0.0013224859
0.01817064 -7.330603e-05 -0.00030570538 -0.01960784 -0.026833676 -0.0006142865 -1.2496293e-06 -0.000100997655
-5.4607663e-06 6.190792e-05 4.4939025e-06 3.1271925e-06 -0.08705916 0.0049542664 -0.08226006 -0.009071725
0.0055807075 0.0012062172 0.00083733187 -0.0060635107 -0.010796018 0.0015506488 6.6981966e-06 -0.00010866879
1.8840063e-05 0.00047257164 7.854293e-06 1.3270082e-06 -0.032286204 0.003182324 -0.035599776 -0.0044581033
00000000: 3f9f 47bc 9da3 2e3b 2af5 0a3a 9fbe 5a3c
00000010: caa0 b83c 530e 7dbb eb4e a136 b41f 82b8
00000020: 059f 1237 34e7 6b39 8ea3 6936 5f1f 2236
00000030: 76e5 473d 2395 c03a 846c 383d 0d78 caba
00000040: 413e 6e3b 4df0 fd39 2ca9 dd39 8a5b 82bb
00000050: 12ef 97bb 03e6 f7ba dbbe 6c35 f626 0bb8
00000060: 7547 dc35 09ef e138 06b0 f435 21b2 ac35
00000070: 36f8 2abc 5635 6d3a dfb2 2dbc 9ad5 aeba
00000080: f02f a03c 61e6 fe3a 5b3c a538 1d41 afbc
00000090: 04c9 a5bd 2aae a1b9 eee3 4535 f76f ccb7
000000a0: 9877 07b5 9001 f0b7 c3f5 a4b5 c1a0 1b36
000000b0: 74d1 06bf a0ed 223b e0e3 e9be 07d7 a4bb
000000c0: 80f7 05bc 3c6c 04ba ee1e ddb9 b52a 163c
000000d0: 4ab7 bb3c 5631 df39 4ef2 1db6 da3d 5d38
000000e0: 3e6f d6b6 991f 33b9 716b 6fb6 39f2 2ab5
000000f0: a45f f73d 7bf9 13bb 469d ec3d df57 803b
00000100: f2a1 59bd 629d 74bb a736 3ab9 48f7 733d
00000110: 791b db3d 1315 9a3b 816c 72b5 790f ae38
00000120: 277c 7cb6 0525 a7b8 0a9c 88b6 42f0 4035
00000130: 646c 0e3e 9e8d a7bb 96ab 173e aa8e 323c
00000140: dbd2 283c 5637 8eba 5400 8d39 d42a 34bc
00000150: 7966 30bc f906 0f3b 5057 3036 9d32 e9b8
00000160: b787 2037 f348 8139 f091 c636 0bc1 c836
00000170: d342 11bd ed48 8a3b 94e2 09bd c898 dfbb
00000180: 0ce5 25b9 517e 0c3b 7f7a 31ba 28af fa39
00000190: 302b 683c 3166 30bb 0db8 5ab6 6d4f 1038
000001a0: f69f 74b7 0da2 92b9 857d 95b5 1cd1 ec35
000001b0: decd 9e3c c81a d039 0cb7 cc3c 9764 b1ba
000001c0: aedc 90ba 7345 0bbb 88fa 223a e4cd be3a
000001d0: 1ace 323b c3d1 2d3b a783 d435 4686 54b8
000001e0: 9b32 f836 1ace 4e39 0247 3b36 26bb b835
000001f0: 68ca 7d3d 5b4c a03a 8d53 583d 4357 adba
00000200: 98da 943c e0bb 99b8 1547 a0b9 9fa0 a0bc
00000210: 4cd2 dbbc 1208 21ba f0b8 a7b5 b4ce d3b8
00000220: a03b b7b6 90d4 8138 54ca 9636 c2dc 5136
00000230: 134c b2bd 6657 a23b f677 a8bd 93a1 14bc
00000240: 5ede b63b ef19 9e3a 6480 5b3a 6ab0 c6bb
00000250: c8e1 30bc 243f cb3a 12c1 e036 1de5 e3b8
00000260: ba0a 9e37 7ec3 f739 eec5 0337 a81b b235
00000270: 8a3e 04bd 8a8e 503b 12d1 11bd 4815 92bb

layers.0.attn.0.gnn_q.bias f4 [16]
-0.020561893 0.0019783142 0.0003864693 0.022802182 0.060066007 -0.0014807567 2.2564e-06 2.5875977e-05
2.2896425e-06 5.556258e-05 4.610237e-08 -4.4181e-06 -0.19201963 -0.0027048604 -0.12487141 0.0052875853
00000000: 6a71 a8bc 9ba6 013b 089f ca39 a4cb ba3c
00000010: c607 763d f315 c2ba a86c 1736 3d10 d937
00000020: c2a7 1936 de0b 6938 1802 4633 313f 94b6
00000030: cba0 44be 0744 31bb 95bc ffbd 7b43 ad3b

layers.0.attn.0.gnn_k.weight f4 [10, 16]
0.012183993 0.004013565 -0.00012144781 -0.013364601 -0.026299637 -0.007965397 -2.481721e-06 5.8596204e-05
-8.774952e-06 -0.00019769648 -3.3902256e-06 -1.645813e-06 -0.04928899 -0.0014789308 -0.04622058 0.0015492265
-0.003635279 0.0011470518 -0.00032345037 0.00397492 0.0061636306 -0.0015999259 -2.770696e-07 3.8415645e-05
-1.6335862e-06 -0.00010864787 -1.932111e-06 1.5685222e-07 0.010873873 -0.000888448 0.013184462 0.0013030979
-0.019555118 0.0019858002 0.00012697229 0.02140693 0.064978234 -0.00073854695 3.1312345e-07 3.532651e-05
5.1678114e-07 2.0367142e-05 9.715955e-07 -1.4025738e-06 0.52607864 -0.0024135644 0.4471136 0.0049405238
0.008176613 -0.001663212 0.0002749015 -0.009158648 -0.022310447 0.0027557232 1.3096951e-06 -4.4015727e-05
6.417927e-06 0.00014495291 3.3675408e-06 1.3861018e-06 -0.121646814 0.0022966417 -0.117441416 -0.0039566443
0.05313208 -0.003873586 -0.0003020875 -0.05954504 -0.117867894 0.005295702 -1.1980553e-06 -4.2865115e-05
3.856764e-06 3.5246885e-05 3.3452952e-06 6.3964217e-06 -0.14143793 0.0052153645 -0.16308905 -0.011033398
-0.010304493 0.00041944513 -0.00030294163 0.011007068 0.0117201535 -0.0011305297 -2.775052e-06 0.00012104655
-9.546982e-06 -0.00024835474 -6.066527e-06 -3.8886e-06 0.03532 -0.004203434 0.034642782 0.006807265
0.00015789061 0.00013894608 0.00079405156 -0.00047538447 -0.015971666 0.0032750037 4.0761784e-06 -3.280661e-05
1.4580525e-05 0.00028112336 1.0875874e-06 -1.1363776e-06 -0.019505572 -0.0004107509 -0.026083007 0.0013803262
0.0011049829 -0.00054966146 -0.00078064925 -0.0014411866 -0.0023533702 0.00021901686 -2.3546722e-06 5.1726263e-05
-7.400248e-06 -0.0002029841 -2.8279728e-06 -1.0327772e-06 -0.06259364 -0.0012404857 -0.05257761 0.0013489495
-0.018170916 -0.000984799 0.00023661873 0.019628009 0.02919041 0.0033430208 6.902105e-07 9.476742e-05
5.432965e-06 -6.160106e-05 -4.405899e-06 -5.389741e-06 0.089463145 -0.00494219 0.08767073 0.009058719
-0.005580871 0.0035907864 -0.0005573911 0.0060662106 0.008054111 -0.0050831656 -5.131801e-06 0.00010737397
-1.8866647e-05 -0.00044895912 -7.77272e-06 -1.4177306e-06 0.03245829 -0.0031808426 0.036544077 0.0044412757
00000000: 5f9f 473c 3984 833b ccb1 feb8 33f7 5abc
00000010: 5672 d7bc 4c81 02bc a48b 26b6 32c5 7538
00000020: 2238 13b7 bf4c 4fb9 a283 63b6 b4e5 dcb5
00000030: 41e3 49bd afd8 c1ba ca51 3dbd 6a0f cb3a
00000040: dc3d 6ebb ac58 963a c694 a9b9 0c40 823b
00000050: 48f8 c93b 9bb4 d1ba 28c0 94b4 7c20 2138
00000060: 9841 dbb5 e2d9 e3b8 6aa9 01b6 366b 2834
00000070: 5428 323c bce6 68ba a403 583c b6cc aa3a
00000080: 0e32 a0bc 3324 023b dd23 0539 965d af3c
00000090: 4f13 853d 0c9b 41ba 5c1b a834 8d2b 1438
000000a0: eeb8 0a35 1bda aa37 c467 8235 1240 bcb5
000000b0: 17ad 063f e42c 1ebb 13ec e43e 1ee4 a13b
000000c0: 33f7 053c 2200 daba a820 9039 270e 16bc
000000d0: 66c4 b6bc 5d99 343b c8c8 af35 879d 38b8
000000e0: 9359 d736 80fe 1739 e9fd 6136 180a ba35
000000f0: f721 f9bd 4183 163b 2085 f0bd bda6 81bb
00000100: 06a1 593d fddb 7dbb 7f61 9eb9 80e5 73bd
00000110: b964 f1bd 9187 ad3b decc a0b5 11ca 33b8
00000120: 5a69 8136 0ed6 1338 bc7f 6036 d8a0 d636
00000130: 1bd5 10be a6e5 aa3b d100 27be 6dc5 34bc
00000140: 2dd4 28bc f9e8 db39 23d4 9eb9 fd56 343c
00000150: e305 403c 482e 94ba 083b 3ab6 5fda fd38
00000160: fa2b 20b7 9c35 82b9 128f cbb6 d27a 82b6
00000170: b4ab 103d f6bc 89bb 97e5 0d3d 7a0f df3b
00000180: 708f 2539 0eb2 1139 e627 503a 063d f9b9
00000190: 03d7 82bc 72a1 563b 1bc6 8836 d499 09b8
000001a0: e19e 7437 bd63 9339 38f9 9135 a385 98b5
000001b0: 26ca 9fbc 0d5a d7b9 08ac d5bc 10ec b43a
000001c0: 13d5 903a 2817 10ba 7ca4 4cba 33e6 bcba
000001d0: 003b 1abb e4a7 6539 f604 1eb6 a7f4 5838
000001e0: a54f f8b6 21d8 54b9 34c8 3db6 f49d 8ab5
000001f0: 1831 80bd cb97 a2ba 9f5b 57bd 3ccf b03a
00000200: 2cdb 94bc 5f14 81ba db1c 7839 ebca a03c
00000210: ba20 ef3c 9516 5b3b e846 3935 dfbd c638
00000220: d04c b636 d12f 81b8 62d6 93b6 86d9 b4b6
00000230: 7438 b73d 18f2 a1bb b68c b33d 056b 143c
00000240: bddf b6bb 6653 6b3b e21d 12ba 10c7 c63b
00000250: 64f5 033c af90 a6bb d631 acb6 f62d e138
00000260: d143 9eb7 4662 ebb9 9467 02b7 da48 beb5
00000270: fcf2 043d af75 50bb 3eaf 153d 1f88 913b

layers.0.attn.0.gnn_k.bias f4 [16]
0.020563103 0.002410441 -0.00011539675 -0.022833765 -0.046525028 -0.0034992802 -8.875183e-07 -5.52089e-05
-2.3468733e-06 -2.7311891e-05 5.3130856e-07 -1.2714567e-06 0.19379681 0.0026198365 0.15156598 -0.005181129
00000000: f473 a83c 7df8 1d3b 2901 f2b8 e00d bbbc
00000010: 0791 3ebd 2e54 65bb cb3d 6eb5 1b90 67b8
00000020: fa7e 1db6 d71b e5b7 3f9f 0e35 eba6 aab5
00000030: ac72 463e 90b1 2b3b 1d34 1b3e 76c6 a9bb

layers.0.attn.0.gnn_v.weight f4 [10, 16]
0.2706584 -0.6141509 0.18644784 1.1533542 0.3759967 -0.6813953 -0.54233414 -0.23358251
0.25649992 0.37160435 1.035966 -0.9879849 -0.05898064 -0.2294956 0.3796759 -0.6571565
-0.028677072 0.0063122953 -0.098063275 -0.01891836 -0.038779106 0.03462223 0.011126318 -0.022119738
0.006395071 0.010553053 -0.040259104 0.028658314 0.040009253 0.08230219 -0.034357205 0.037280153
-0.14877905 0.015239302 0.065176174 0.3559808 -0.22438987 0.15802447 -0.24278137 0.1571763
-0.3197066 -0.028470328 -0.24506196 0.2570187 -0.38733366 -0.16915342 0.10344615 -0.21923786
0.02349158 0.078621015 0.35593644 -0.31313574 -0.0043271594 -0.071976975 0.22213136 0.10910482
-0.37728035 -0.03460488 0.2227009 -0.09918069 -0.038710058 -0.22705385 0.042760413 -0.104756676
0.046285056 -0.22538616 -0.87831193 -0.10693685 -0.31675622 -0.0886739 -0.121562324 0.15894118
-0.00936137 0.18311304 0.1129122 -0.1626405 0.6088678 0.72607315 0.22285107 0.0013967691
0.059094276 -0.052259307 -0.1435301 -0.1040792 -0.014437285 -0.04666501 -0.006582155 -0.01846703
-0.009747617 0.026463183 -0.031217154 0.009748231 0.12158398 0.06305043 0.040529996 0.048651755
-0.17537032 0.06613499 0.11352422 -0.109759636 -0.037243254 0.3157674 0.21926321 0.016740335
-0.05555623 -0.015579054 -0.04714812 0.066846594 -0.11718541 0.19335222 0.015345277 -0.0066090296
-0.036637805 0.012857583 0.1616111 -0.068544015 -0.062426154 -0.015260772 0.08753531 0.12802146
-0.29847056 0.031167936 0.1374509 -0.06136635 -0.06662564 -0.09153832 0.09062399 -0.12903054
-0.010855781 -0.07590704 -0.25009295 0.072040096 -0.08514266 0.006536893 -0.102935195 -0.032928504
0.062025543 0.04962014 -0.05334295 0.013173547 0.10992493 0.17393404 0.031553034 0.012227551
0.9521191 -0.10174619 -0.53571445 -0.2985607 0.1114821 -0.95282674 -0.9656252 -0.026333842
-0.07334022 -0.39232174 -0.6538013 0.5641922 0.5060564 -1.1202143 -0.07141615 0.22683872
00000000: bd93 8a3e fe38 1dbf 2fec 3e3e 1ca1 933f
00000010: a482 c03e ec6f 2ebf 69d6 0abf 4130 6fbe
00000020: f553 833e ed42 be3e 899a 843f 94ec 7cbf
00000030: af95 71bd e500 6bbe e164 c23e 693b 28bf
00000040: 2eec eabc 5fd7 ce3b 66d5 c8bd adfa 9abc
00000050: d7d6 1ebd 0ad0 0d3d 294b 363c 7434 b5bc
00000060: be8d d13b b6e6 2c3c bbe6 24bd d7c4 ea3c
00000070: bee0 233d 0d8e a83d 24ba 0cbd 13b3 183d
00000080: 8959 18be 44ae 793c 167b 853d 1e43 b63e
00000090: 75c6 65be 2bd1 213e ae9b 78be d3f2 203e
000000a0: 95b0 a3be 9b3a e9bc 86f1 7abe f497 833e
000000b0: 9950 c6be 8e36 2dbe 93db d33d e47f 60be
000000c0: 6a71 c03c 0e04 a13d 4d3d b63e 5453 a0be
000000d0: d8ca 8dbb aa68 93bd 6776 633e 5972 df3d
000000e0: e42a c1be d9bd 0dbd b40b 643e 3f1f cbbd
000000f0: 708e 1ebd ce80 68be 8b25 2f3d ab8a d6bd
00000100: 6695 3d3d a1cb 66be 0dd9 60bf b501 dbbd
00000110: df2d a2be a99a b5bd abf5 f8bd 7ac1 223e
00000120: 6e60 19bc fc81 3b3e 833e e73d 3b8b 26be
00000130: c3de 1b3f eedf 393f 1233 643e cb13 b73a
00000140: d70c 723d db0d 56bd 8ef9 12be 7a27 d5bd
00000150: 5d8a 6cbc cf23 3fbd 1eaf d7bb 2b48 97bc
00000160: 78b4 1fbc 51c9 d83c 1ebb ffbc 0bb7 1f3c
00000170: 0601 f93d 9520 813d c802 263d 1047 473d
00000180: 4794 33be c871 873d 637f e83d a9c9 e0bd
00000190: 628c 18bd 44ac a13e 8986 603e 0723 893c
000001a0: ee8e 63bd 4a3f 7fbc 631e 41bd dee6 883d
000001b0: e7fe efbd 20fe 453e c26a 7b3c 8f90 d8bb
000001c0: 8611 16bd 9da8 523c 617d 253e ce60 8cbd
000001d0: 91b2 7fbd 5108 7abc b645 b33d 0f18 033e
000001e0: 22d1 98be e653 ff3c eebf 0c3e 485b 7bbd
000001f0: 0673 88bd 7178 bbbd 1299 b93d 9520 04be
00000200: 72dc 31bc 2675 9bbd 2f0c 80be c289 933d
00000210: 465f aebd 6f33 d63b b0cf d2bd 0ae0 06bd
00000220: 7f0e 7e3d 7d3e 4b3d 237e 5abd dcd5 573c
00000230: 5220 e13d c41b 323e c13d 013d 1156 483c
00000240: 14be 733f 4e60 d0bd 9524 09bf f3dc 98be
00000250: ba50 e43d 74ec 73bf 3733 77bf 12ba d7bc
00000260: 6633 96bd 65de c8be 865f 27bf e66e 103f
00000270: ea8c 013f 2f63 8fbf a142 92bd 6948 683e

layers.0.attn.0.gnn_v.bias f4 [16]
0.12972334 -0.0076564793 -0.023044884 -0.25307038 0.21678974 -0.12422921 0.16925372 -0.15719983
0.27965388 0.0025458261 0.14204796 -0.16271332 0.25998518 0.07249652 -0.10829062 0.18960662
00000000: 32d6 043e 34e3 fabb a0c8 bcbc 7192 81be
00000010: 21fe 5d3e e26b febd d950 2d3e fef8 20be
00000020: cb2e 8f3e e0d7 263b 0575 113e 529e 26be
00000030: c71c 853e 0e79 943d 79c7 ddbd 3d28 423e
