checkpoints/ames_25_train1_neg/Aug22-09:38:42_500.pth (torch, 377407 bytes, 294 tensors)

layers.0.weight f4 [10, 16]
0	0x3f28fb56	0.6600851
1	0x3f873dc1	1.0565721
2	0xbe5cc779	-0.21560468
3	0x3f420ebb	0.75803727
4	0xbec16ee7	-0.37779924
5	0x3f06141d	0.5237444
6	0xbeb78716	-0.3584525
7	0x3f504ce5	0.8136733
8	0x3f2801a7	0.6562752
9	0xbf92386f	-1.1423472
10	0x3e22b97c	0.15891069
11	0xbd1e6207	-0.038667705
12	0x3d1b016e	0.03784316
13	0x3f8488f0	1.035429
14	0xbf022432	-0.5083648
15	0xbeabd3ef	-0.3356013
16	0x3f6cc01a	0.92480624
17	0x3cda176b	0.026622495
18	0xbf3434bd	-0.7039297
19	0x3f3e54f6	0.7434839
20	0xbe9158db	-0.28388104
21	0xbf28a1d5	-0.65871936
22	0xbd9f5841	-0.07780505
23	0x3f5cb1e1	0.8620892
24	0xbfbb1526	-1.4615829
25	0xbe54f171	-0.20795228
26	0xbf242626	-0.6412071
27	0xbe271874	-0.16317922
28	0x3e93763a	0.28801137
29	0x3e709751	0.23495223
30	0x3fcf3a26	1.618962
31	0xbe83fe59	-0.2577999
32	0x3f16b85e	0.5887507
33	0xbdd6bed4	-0.10485616
34	0xbf0d26e8	-0.5513749
35	0x3e624659	0.22097148
36	0x3ee57ff0	0.4482417
37	0x3f0363d7	0.5132422
38	0x3dcbc0b0	0.099488616
39	0xbf10d9de	-0.5658244
40	0x3eb8e986	0.36115664
41	0xbe906266	-0.28200072
42	0x3f1688e1	0.5880261
43	0x40079d81	2.1189883
44	0x3f48bc50	0.7841234
45	0xbe9c99c4	-0.30586064
46	0x3f30cbe4	0.6906111
47	0x3f14af3b	0.5807988
48	0x3deb82d6	0.11499564
49	0xbe782726	-0.24233684
50	0xbf5aa4f4	-0.8540795
51	0xbd6806f5	-0.05664726
52	0xbf7c5989	-0.9857412
53	0x3ee45eb6	0.4460351
54	0x3f4d9022	0.80298054
55	0x3e8821c4	0.2658826
56	0x3dfc8ec7	0.1233192
57	0xbef2904f	-0.47375724
58	0x3f8b13f7	1.0865468
59	0xbf0ba001	-0.5454102
60	0xbe490926	-0.19632396
61	0xbf3ef774	-0.74596334
62	0x3ea02796	0.31280202
63	0x3e0c77f3	0.13717632
64	0x3ef881d2	0.48536545
65	0xbe57127a	-0.21003142
66	0x3f0c408e	0.54786
67	0x3db76b36	0.08955996
68	0x3e04c28d	0.1296484
69	0x3d28595c	0.041100845
70	0x3fb518e9	1.4148227
71	0x3e8d956c	0.27653062
72	0x3ee214e0	0.4415655
73	0xbf3a51d7	-0.7278113
74	0xbf1bd1e2	-0.6086713
75	0xbf554be8	-0.8331895
76	0xbc74cbc7	-0.014941162
77	0x3e8b1db6	0.27171105
78	0x3ea272bf	0.3172817
79	0x3fbb1141	1.461464
80	0xbd1fa899	-0.038979147
81	0xbf856f8d	-1.0424668
82	0xbe167407	-0.14692698
83	0xbe8deea5	-0.27721134
84	0x3f2f953f	0.68587106
85	0x3f26e00a	0.65185606
86	0x3f0367c6	0.5133022
87	0xbf67441c	-0.903383
88	0xbf90bc15	-1.1307398
89	0xbdf29333	-0.11844482
90	0x3e85adb0	0.26109076
91	0xbdad7332	-0.084692374
92	0x3e5b7702	0.21432117
93	0x3f8dee90	1.1088428
94	0xbf909a81	-1.1297151
95	0xbeb83e9c	-0.35985267
96	0x3ee2282b	0.4417127
97	0x3f5680c3	0.83790225
98	0xbeb27597	-0.3485534
99	0xbf961f7d	-1.172836
100	0xbf08fa3c	-0.5350683
101	0x3ef4edd2	0.47837692
102	0xbe89f5af	-0.26945254
103	0xbfa8e1c8	-1.3193903
104	0xbe5f1ef2	-0.21789148
105	0xbf2307d5	-0.63683826
106	0xbf07420e	-0.52835166
107	0xbe3e38b6	-0.18576321
108	0xbf4d4bb2	-0.80193627
109	0xbe4418e5	-0.19150122
110	0x3f96d84e	1.1784761
111	0xbe9662ce	-0.29372257
112	0x3f3177ab	0.69323224
113	0xbf84b1ba	-1.0366738
114	0xbf1e7e65	-0.6191161
115	0xbc28109e	-0.010257868
116	0xbddff1d1	-0.10934795
117	0xbfdbc798	-1.7170286
118	0xbf2783f0	-0.65435696
119	0xbef2f28c	-0.47450674
120	0x3e729ff4	0.2369383
121	0xbf72fd7a	-0.94918025
122	0xbe2fd072	-0.1716936
123	0xbe3b1d20	-0.18272829
124	0x3e0f984b	0.14022939
125	0xbef78c09	-0.48349026
126	0xbf462382	-0.7739793
127	0xbdde1c9a	-0.10845299
128	0x3f2cdb3c	0.67522025
129	0xbee8fb88	-0.45504403
130	0x3fb38ecc	1.4027953
131	0x3efba4b3	0.49149093
132	0xbf299cc7	-0.6625485
133	0x3f29f5e1	0.66390806
134	0xbef70ff9	-0.48254374
135	0xbe9dcb12	-0.30818993
136	0xbf42a825	-0.7603782
137	0xbf253041	-0.64526755
138	0xbf02f05e	-0.5114802
139	0xbe26621f	-0.16248368
140	0x3eda9bd9	0.42697027
141	0xbf8af53c	-1.085609
142	0x3d4c381a	0.04985819
143	0xbeac2e4f	-0.3362908
144	0xbfb2e298	-1.3975401
145	0x3f32596f	0.69667715
146	0x3eddf580	0.43351364
147	0x3f75eb4b	0.96062154
148	0x3f3e2ae0	0.7428417
149	0xbf90dfa8	-1.1318254
150	0x3f10a3d5	0.5649999
151	0xbf3f96cd	-0.7483948
152	0xbea85830	-0.32879782
153	0xbf8e3bd0	-1.1112003
154	0x3f1da181	0.6157456
155	0xbe681ccc	-0.22667235
156	0x3df3a825	0.118973054
157	0xbddb01d7	-0.1069371
158	0x3e1c27a7	0.15249501
159	0xbe84517e	-0.25843424

layers.0.bias f4 [16]
0	0xbe80cb6c	-0.251552
1	0xbed9351b	-0.4242333
2	0xbe61d264	-0.22052914
3	0x3f0a0d93	0.5392696
4	0x3e7b6467	0.24550019
5	0x3e838b88	0.2569239
6	0xbda955bf	-0.08268308
7	0x3dd90cc7	0.1059814
8	0x3ea6ed37	0.32602856
9	0x3e39050f	0.18068336
10	0xbee61f0e	-0.44945568
11	0xbe5b16e9	-0.21395458
12	0xbf210cac	-0.6290996
13	0xbdb40673	-0.087902926
14	0xbd4e7f1a	-0.050414182
15	0xbf51c92f	-0.81947607

layers.1.weight f4 [16, 16]
0	0x3f10abb4	0.56512
1	0x3eb46a98	0.35237575
2	0xbe89a32f	-0.26882312
3	0xbf222788	-0.6334157
4	0x3edaf1e0	0.4276266
5	0xbf365937	-0.7122988
6	0xbf33c3ae	-0.7022046
7	0x3f1f1050	0.62134266
8	0x3edead56	0.4349162
9	0xbf5a54d9	-0.8528572
10	0xbed456ba	-0.41472417
11	0xbea9def4	-0.33177912
12	0xbdcf8060	-0.101319075
13	0x3e3ee5f5	0.18642409
14	0xbdcabacf	-0.09898912
15	0xbf3cb8c0	-0.73719406
16	0xbedec973	-0.4351307
17	0x3e3cb98b	0.18430154
18	0x3f7808cf	0.9688844
19	0xbf644b68	-0.8917756
20	0x3de2bd53	0.11071267
21	0x3ee91eef	0.45531413
22	0x3e55dab3	0.20884208
23	0xbea59144	-0.3233739
24	0x3eb6dde8	0.35716176
25	0x3f3efddd	0.74606115
26	0x3ec58a1a	0.38581926
27	0x3e60d2c5	0.21955402
28	0xbea226c2	-0.31670195
29	0x3e0ee646	0.1395503
30	0x3e610513	0.21974592
31	0x3d8b3548	0.06797272
32	0x3f45de14	0.7729199
33	0x3eb06828	0.34454465
34	0x3e257e75	0.16161521
35	0x3c03c59d	0.00804272
36	0x3c8a5a6f	0.016888825
37	0x3d4613b9	0.048358653
38	0x3ea3feb1	0.32030252
39	0x3f0685ff	0.5254821
40	0xbf682898	-0.9068694
41	0xbe5ef781	-0.21774103
42	0x3f6504ae	0.89460266
43	0x3e83de0a	0.2575534
44	0x3f104eda	0.5637032
45	0xbe441cf8	-0.19151676
46	0x3ea7d1e0	0.3277731
47	0xbd80a167	-0.06280785
48	0xbdabe5a2	-0.08393408
49	0x3f588383	0.8457567
50	0x3f92f00d	1.1479508
51	0x3e282d8c	0.16423625
52	0xbeef7b18	-0.467736
53	0xbf07735c	-0.529104
54	0xbde9c2ae	-0.11414085
55	0x3f30d905	0.69081146
56	0x3e736d33	0.23772125
57	0xbd8c9dc5	-0.0686603
58	0x3de2eca5	0.110802926
59	0xbe7f0e73	-0.24907856
60	0xbf2b18da	-0.66834795
61	0xbe6e3b82	-0.23264888
62	0xbf1b9dd8	-0.60787725
63	0x3d8e2076	0.06939785
64	0xbf7c7e8b	-0.9863059
65	0x3ef37345	0.4754888
66	0x3ed5e8b2	0.41779095
67	0x3f569f9f	0.8383731
68	0xbf01dcf6	-0.50727785
69	0xbf18c4ac	-0.596751
70	0xbecb4d19	-0.39707258
71	0x3ed63774	0.41839182
72	0x3ec0f587	0.37687322
73	0x3f2d995e	0.67812145
74	0x3f246235	0.6421235
75	0xbeb7b783	-0.35882196
76	0xbe05cfa9	-0.13067497
77	0xbf2dc226	-0.6787437
78	0xbf0b6211	-0.5444651
79	0xbe6b9b75	-0.23008521
80	0x3ed86a99	0.42268828
81	0xbe22709d	-0.15863271
82	0xbed2be78	-0.4116094
83	0xbf0b2eb8	-0.5436816
84	0xbe711f7b	-0.23547165
85	0xbf0a876d	-0.54112893
86	0xbebc4f0f	-0.36779067
87	0x3eb7e7df	0.3591909
88	0xbf018b2d	-0.5060299
89	0x3eb21750	0.3478341
90	0xbea4b6fd	-0.3217086
91	0xbe9b2208	-0.302994
92	0xbf0065c9	-0.5015531
93	0xbea6991f	-0.32538697
94	0xbec1b8bd	-0.37836257
95	0xbe94babb	-0.29048714
96	0x3f2787b8	0.65441465
97	0xbf7a5d62	-0.9779874
98	0x3d5ae340	0.05343938
99	0x3f6ed8b1	0.93299395
100	0x3e9c6280	0.305439
101	0xbf87ec25	-1.061894
102	0xbe058952	-0.13040665
103	0xbf111dd9	-0.5668617
104	0xbe702798	-0.23452604
105	0x3f43d06c	0.764899
106	0xbe91cc6f	-0.28476283
107	0xbe698fcf	-0.22808765
108	0x3eb684d8	0.35648227
109	0xbe5d9a2a	-0.2164084
110	0x3e96ea15	0.29475465
111	0xbebf33ab	-0.37344107
112	0x3f2a89db	0.666166
113	0x3f6a4101	0.9150544
114	0x3f485b66	0.7826446
115	0xbedf40eb	-0.43604216
116	0xbc1dbc40	-0.009627402
117	0x3ea6b4bb	0.3255976
118	0x3edd1cc9	0.43186024
119	0xbf6b668b	-0.91953343
120	0xbf1a3d78	-0.60250044
121	0xbee3ab68	-0.4446671
122	0xbe79c87e	-0.24392888
123	0x3e6293d5	0.22126706
124	0x3e6654af	0.22493242
125	0x3eb88cb0	0.36044836
126	0x3e8b7dce	0.2724442
127	0x3f001b91	0.50042063
128	0x3bfb1691	0.0076626022
129	0xbdf7c1ff	-0.12097549
130	0x3e9888c6	0.2979185
131	0xbf69b298	-0.9128814
132	0xbea0bd5f	-0.3139448
133	0xbf481de1	-0.7817059
134	0xbdaed39b	-0.08536454
135	0xbef69788	-0.48162484
136	0xbf41c3a1	-0.7568913
137	0x3d6bd2f8	0.057574242
138	0xbe66a3c5	-0.2252341
139	0xbe904fc6	-0.28185862
140	0x3e8fa346	0.28054255
141	0xbf024e42	-0.5090066
142	0xbea93179	-0.33045557
143	0xbea582df	-0.3232641
144	0xbf136219	-0.5757156
145	0x3f44f929	0.7694269
146	0xbf309a6e	-0.6898564
147	0x3df54c57	0.11977451
148	0xbeb56fbb	-0.35436806
149	0x3f005ea1	0.5014439
150	0x3f263a3e	0.6493262
151	0xbeba9efe	-0.36449426
152	0xbf63f1ed	-0.89041024
153	0x3ed83fb6	0.42236108
154	0x3ed20c42	0.41024977
155	0x3e78a20c	0.24280566
156	0x3ebb8cf1	0.36630967
157	0x3e9eabcb	0.30990443
158	0xbe4b339d	-0.19843908
159	0x3ead2108	0.33814263
160	0xbedf597c	-0.4362296
161	0xbe785bb9	-0.2425374
162	0x3f6d825f	0.92777056
163	0x3ed62495	0.41824785
164	0xbed43c5c	-0.414523
165	0xbe77babf	-0.24192332
166	0xbec31c53	-0.38107547
167	0xbe94b110	-0.29041338
168	0xbe8f2e82	-0.2796517
169	0x3d8f0e4a	0.06985147
170	0xbe7b5068	-0.24542391
171	0x3d5dbd8b	0.05413584
172	0xbf92340f	-1.1422137
173	0xbf5a405d	-0.8525446
174	0x3cc02311	0.023454221
175	0xbf7e40a6	-0.99317396
176	0xbf10fbc9	-0.56634194
177	0x3ee18c99	0.4405258
178	0xbd9c9a74	-0.07646647
179	0xbdd6e69a	-0.104932025
180	0x3de4bcc7	0.11168819
181	0xbf324818	-0.69641256
182	0xbf7555eb	-0.95834225
183	0xbead65fc	-0.3386687
184	0xbf2f645e	-0.68512523
185	0xbbdf9088	-0.0068226494
186	0x3f3c5e48	0.7358136
187	0xbeb4d96f	-0.3532214
188	0xbf8362a0	-1.0264473
189	0x3e4f9a6c	0.20273751
190	0x3dd20558	0.102549255
191	0x3ea1ba41	0.31587413
192	0x3da40876	0.08009426
193	0x3f497dbf	0.787075
194	0x3e1e16e3	0.15438418
195	0x3ed468ce	0.4148621
196	0x3e3ffe9a	0.18749467
197	0xbe9f390c	-0.3109821
198	0xbf3658db	-0.7122933
199	0x3f64f184	0.89431024
200	0xbd893023	-0.066986345
201	0xbf0a421c	-0.54007125
202	0xbea04c22	-0.31308085
203	0xbe468d5d	-0.19389863
204	0xbef6aa87	-0.48176977
205	0xbee3f26c	-0.4452089
206	0x3e1e8796	0.1548141
207	0xbf9a29df	-1.2044028
208	0xbe954868	-0.29156804
209	0xbe4ad1e0	-0.19806623
210	0x3f1d773e	0.61510074
211	0x3ed8448e	0.42239803
212	0xbe276906	-0.16348657
213	0x3eb894eb	0.36051115
214	0x3bc1f385	0.0059189224
215	0xbefa00c9	-0.48828724
216	0x3e2a685f	0.16641377
217	0x3f0b95b4	0.54525304
218	0x3f404a3f	0.7511329
219	0x3db0d119	0.08633632
220	0x3f4a506e	0.79028976
221	0xbf09a961	-0.53774077
222	0x3e99a816	0.30011052
223	0x3e0e61d0	0.139045
224	0x3e9d1787	0.30682012
225	0x3ee02e28	0.43785214
226	0xbee876bd	-0.4540309
227	0xbf16d773	-0.589225
228	0x3e8a2526	0.26981467
229	0xbf229ed5	-0.6352361
230	0xbebbfa01	-0.36714175
231	0x3cd9f416	0.026605647
232	0x3f8571ed	1.0425392
233	0x3f190505	0.59773284
234	0xbe776a63	-0.24161677
235	0xbe63ac09	-0.22233595
236	0xbeb2f29d	-0.34950724
237	0x3f109b32	0.5648681
238	0xbe6cb4fd	-0.23115917
239	0xbf31fd2f	-0.6952695
240	0xbe321773	-0.17391758
241	0x3e9e891a	0.30963975
242	0xbead60e8	-0.33862996
243	0xbd4e8a87	-0.05042508
244	0x3e043df2	0.12914255
245	0xbf8ba007	-1.0908211
246	0xbf4c56b8	-0.7981982
247	0xbed60eea	-0.41808254
248	0xbf220895	-0.63294345
249	0x3e9f3114	0.3109213
250	0xbe7a1464	-0.24421841
251	0xbe058c34	-0.13041764
252	0x3f24023c	0.6406591
253	0xbd0d1f5b	-0.03445373
254	0x3f207075	0.62671596
255	0xbfc31efd	-1.5243832

layers.1.bias f4 [16]
0	0x3dd4444b	0.10364588
1	0xbcbe0851	-0.023197325
2	0xbd555dd7	-0.052091446
3	0x3dd57122	0.10421969
4	0x3ea472c0	0.32118797
5	0xbe36e3bb	-0.1786031
6	0xbea3e007	-0.32006857
7	0xbe6ced6e	-0.23137447
8	0xbe123a0c	-0.14279956
9	0xbe0eb5b0	-0.13936496
10	0xbdad0520	-0.08448243
11	0xbda07c2e	-0.078361854
12	0xbe3cd2a9	-0.18439735
13	0x3d9c9d6a	0.07647212
14	0xbee47676	-0.4462163
15	0xbf12be8e	-0.57322013

final.linears.0.weight f4 [84, 42]
0	0xbdbd8f86	-0.092558905
1	0x3f4a90e4	0.79127336
2	0xbed53895	-0.4164473
3	0xbf03071e	-0.51182735
4	0xbe98ab98	-0.29818416
5	0xbfeb54dd	-1.8385273
6	0xbfad360b	-1.3532118
7	0x3ee6dce7	0.4509041
8	0x3f18f99b	0.5975587
9	0x3df349f4	0.1187934
10	0xbe3add8f	-0.1824858
11	0xbecccf4d	-0.40001908
12	0xbd7700c0	-0.06030345
13	0xbe1c596d	-0.15268488
14	0x3e6a1961	0.22861244
15	0xbe28b837	-0.16476522
16	0x3e536aa4	0.20646149
17	0xbe6143e2	-0.21998551
18	0xbda94320	-0.08264756
19	0x3e03a331	0.12855221
20	0x3eaae320	0.33376408
21	0x3cc491e1	0.023995342
22	0x3e1e38d9	0.15451373
23	0x3d972f84	0.0738211
24	0xbe80cc82	-0.25156027
25	0x3e6f8a67	0.2339264
26	0x3dc5fc88	0.09667307
27	0x3eb37fdb	0.35058483
28	0x3ebb0a91	0.365315
29	0xbe01b379	-0.1266612
30	0xbd0e0fbd	-0.034682978
31	0x3e6d21ac	0.23157376
32	0xbd919583	-0.07108595
33	0xbe23a75c	-0.15981811
34	0xbe22085a	-0.15823498
35	0xbe57af3f	-0.21062945
36	0xbdc4c212	-0.096073285
37	0x3d94bb0e	0.0726224
38	0xbd2edf78	-0.042693585
39	0x3da85f72	0.0822133
40	0xbe0ee2ea	-0.13953748
41	0xbdc7117d	-0.097201325
42	0x3d21134b	0.03932504
43	0xbe9f2051	-0.31079343
44	0xbee692ba	-0.45033818
45	0x3ef03bc0	0.46920586
46	0x3f2259b6	0.6341814
47	0xbf09664f	-0.53671736
48	0x3f1ab374	0.60430074
49	0xbe6e928a	-0.23298088
50	0xbea9d4b2	-0.33170086
51	0xbf356d68	-0.70870066
52	0xbcbea691	-0.023272784
53	0xbd8879b2	-0.066638365
54	0x3e1749d6	0.1477426
55	0x3f19afa5	0.6003364
56	0x3f3babcc	0.73309016
57	0xbcfe6b50	-0.03105703
58	0xbe129224	-0.1431356
59	0xbe44cb1a	-0.19218102
60	0xbe7c220a	-0.2462236
61	0xbdf1f744	-0.1181474
62	0x3e8dd188	0.27698922
63	0x3eea848b	0.45804247
64	0x3f53a617	0.8267531
65	0x3ce64f75	0.02811406
66	0xbe3b488e	-0.18289396
67	0xbe0ef10d	-0.13959141
68	0x3d8b8f1a	0.06814404
69	0xbe735951	-0.2376454
70	0xbcece188	-0.028916135
71	0xbcf60d9d	-0.030035788
72	0x3e54f4cd	0.20796509
73	0x3e0c1d1e	0.13682982
74	0x3e15de96	0.14635691
75	0xbe0da88d	-0.13833828
76	0x3cefed10	0.029287845
77	0xbb93eac9	-0.0045140726
78	0xbd6a1b5a	-0.05715499
79	0x3e48d5c2	0.19612792
80	0x3e092e12	0.1339648
81	0x3e82bac8	0.25533128
82	0x3d54333f	0.051806685
83	0x3e841df5	0.25804105
84	0xbed6d3cc	-0.41958463
85	0xbec8d36c	-0.39223802
86	0x3e7ab4d8	0.24483049
87	0x3f659acb	0.8968932
88	0x3e98d4a1	0.29849723
89	0x3ead2e68	0.33824468
90	0xbebf9037	-0.37414715
91	0xbeaa2765	-0.3323318
92	0x3f32b0f6	0.6980127
93	0x3f5c7f2f	0.86131567
94	0x3dbaed0f	0.091272466
95	0xbe19d84f	-0.15023921
96	0x3cba93c4	0.022775538
97	0xbe7621c2	-0.24036315
98	0xbe4c38e9	-0.19943585
99	0xbc488809	-0.012239465
100	0x3dd5938d	0.10428534
101	0xbd613da8	-0.05499044
102	0xbd8c59f4	-0.06853095
103	0x3d8aa6bc	0.06770083
104	0x3de37d31	0.11107863
105	0x3dfd2253	0.123600625
106	0x3e2a30e9	0.1662022
107	0x3dea2715	0.114332356
108	0xbd67ef5b	-0.05662475
109	0xbd5fc1bd	-0.054628123
110	0x3d50104d	0.050796796
111	0x3dc227d8	0.09480256
112	0x3dc4c157	0.09607189
113	0x3c4e3b42	0.01258737
114	0x3d8cca0a	0.068744734
115	0x3e11a577	0.14223276
116	0xba5e59c6	-0.0008482005
117	0x3daedbbd	0.085380055
118	0xbbf65552	-0.007517495
119	0xbcc5dce8	-0.024153188
120	0xbce405be	-0.02783477
121	0x3e22af7e	0.15887257
122	0xbc631af1	-0.013861404
123	0x3b8b5764	0.004252361
124	0xbaef0339	-0.0018235213
125	0x3e062aca	0.1310226
126	0xbf5da8c7	-0.8658566
127	0x3dcc9c73	0.09990778
128	0x3e666050	0.22497678
129	0xbecfb6d2	-0.40569168
130	0xbd46add3	-0.048505615
131	0x3ef8260f	0.48466536
132	0x3f417e78	0.755836
133	0xbf083264	-0.5320189
134	0xbfed97fe	-1.8562009
135	0xbeb4d34e	-0.35317463
136	0xbec9afa9	-0.3939183
137	0x3ea73782	0.32659537
138	0xbe15d173	-0.1463068
139	0xbecc99ad	-0.39960995
140	0x3e58fd36	0.21190342
141	0xbe109159	-0.14117946
142	0x3e97fcbb	0.29685006
143	0xbe01dc6a	-0.12681738
144	0xbea28b90	-0.31747103
145	0x3f36199a	0.71132815
146	0x3dd5075c	0.10401794
147	0x3e1f3be0	0.15550184
148	0xbe2fae6d	-0.17156382
149	0xbd6346ae	-0.055487327
150	0x3e1f6188	0.15564549
151	0x3e9d4344	0.30715382
152	0xbda850c8	-0.08218533
153	0xbcf24a02	-0.029576305
154	0xbee09397	-0.43862602
155	0xbe37a485	-0.17933853
156	0x3e92ae89	0.28648785
157	0xbcb768bb	-0.022388807
158	0xbd99dc92	-0.075127736
159	0xbdca1d8b	-0.09868916
160	0xbb4c1c2e	-0.0031144726
161	0x3e988269	0.29786995
162	0xbdae7637	-0.085186414
163	0x3dff1320	0.1245482
164	0x3d07b558	0.033131927
165	0x3e9f8e10	0.31163073
166	0x3b07c4da	0.0020716698
167	0x3e827aa7	0.254842
168	0x3d56c096	0.052429758
169	0x3bc01382	0.0058617005
170	0xc0527f81	-3.2890322
171	0x3f2c9d34	0.6742737
172	0x3f892f99	1.0717651
173	0x3e54e436	0.2079018
174	0x3dbb4b03	0.09145167
175	0x3e6cbcc4	0.23118883
176	0x3e63d487	0.22249041
177	0x3e4bd9d1	0.19907309
178	0xbe7f2ce8	-0.24919474
179	0xbddbee5c	-0.10738823
180	0x3cc94f86	0.024574053
181	0x3dbae966	0.091265485
182	0x3da9c8e1	0.08290268
183	0xbd0ddf63	-0.034636866
184	0xbd4e9ad9	-0.050440643
185	0x3e9cb54f	0.30607077
186	0xbd2a65c3	-0.041600954
187	0x3d494c75	0.04914518
188	0xbea9a186	-0.33131045
189	0x3eca8be8	0.39559865
190	0xbed47410	-0.414948
191	0x3bcab15c	0.0061856937
192	0xbddad9e1	-0.10686088
193	0xbe8a46f0	-0.27007246
194	0x3d29474b	0.041327756
195	0xbdbda056	-0.09259097
196	0xbbb0892f	-0.0053874473
197	0x3d0c08e7	0.034188177
198	0x3d2417be	0.040061705
199	0xbf09fe45	-0.5390361
200	0xbe361c00	-0.17784119
201	0xbe0ad0fb	-0.13556282
202	0xbd9a08cf	-0.07521211
203	0xbcff8cf3	-0.03119514
204	0x3debf737	0.11521762
205	0xbe75f944	-0.24020869
206	0xbe53ca1d	-0.20682569
207	0x3e236c5c	0.15959305
208	0xbd686d69	-0.056744967
209	0x3efe57a1	0.4967623
210	0x3f3f3b66	0.7470001
211	0x3d792995	0.06083067
212	0xbefe9b85	-0.49728027
213	0x3f11dfe8	0.5698228
214	0xbf38baa6	-0.721598
215	0xbf154f40	-0.5832405
216	0x3f394aee	0.7237996
217	0x3f57ca00	0.842926
218	0xbdbc99d8	-0.09209031
219	0xbe36bcac	-0.1784541
220	0xbe814d2d	-0.25254193
221	0xbe29f8be	-0.16598794
222	0xbcc7c178	-0.024384245
223	0x3e1522d5	0.14564069
224	0x3e883a6d	0.26607075
225	0xbd221a6e	-0.039575987
226	0x3e58e343	0.21180443
227	0x3d9f542e	0.07779728
228	0xbea6d221	-0.3258219
229	0x3e9ad7ed	0.30242863
230	0xbe57a4d8	-0.21058977
231	0xbad98d0d	-0.0016597823
232	0xbd169378	-0.03676173
233	0xbc1f6284	-0.009728078
234	0x3e294266	0.16529235
235	0xbe89aa26	-0.26887625
236	0x3e273b67	0.16331254
237	0xbd5cc4e7	-0.05389872
238	0xbda5400d	-0.08068857
239	0x3d2faa2b	0.042886894
240	0xbd93c73e	-0.07215737
241	0xbe2cf7e2	-0.16891435
242	0xbe89b61f	-0.2689676
243	0x3d751424	0.05983366
244	0xbe315b7a	-0.17320052
245	0x3de3b6eb	0.11118873
246	0xbc4c0e8b	-0.012454639
247	0x3eab906c	0.33508623
248	0xbc85c06e	-0.01632711
249	0x3d5c3f31	0.0537712
250	0x3d8d766e	0.06907354
251	0xbe4350eb	-0.19073837
252	0xbb0c9881	-0.0021453204
253	0xbe8738ad	-0.26410428
254	0xbfe8f5fc	-1.8200068
255	0x3eefbeae	0.46825165

final.linears.0.bias f4 [84]
0	0x3e3e2ed9	0.18572558
1	0x3d990e11	0.07473386
2	0x3e3d8fb1	0.18511845
3	0x3e310589	0.17287268
4	0x3e73a53d	0.23793502
5	0x3e23f6f6	0.16012177
6	0xbe2ad651	-0.16683318
7	0xbd0a03d3	-0.033695053
8	0x3e5c1c2c	0.21495122
9	0x3cf3f1d2	0.029778395
10	0x3e2c5b3b	0.16831677
11	0x3d9cbcd3	0.07653203
12	0xbdc24e70	-0.09487617
13	0x3e6a7c9c	0.22899097
14	0x3c82124e	0.015877869
15	0x3e3bffda	0.18359318
16	0x3e0a3cba	0.13499728
17	0x3c8d070e	0.017215278
18	0x3e78be92	0.24291447
19	0x3e0130ac	0.12616223
20	0xbcc1e83c	-0.023670308
21	0x3e6d834a	0.23194614
22	0x3c6ffd02	0.014647724
23	0x3eac56a6	0.33659858
24	0x3c0bca7f	0.008532166
25	0x3d4b2ca5	0.049603123
26	0x3d1ce3eb	0.038303297
27	0xbb0e9a49	-0.0021759442
28	0x3e4ca518	0.19984853
29	0x3e638f8b	0.22222726
30	0x3e034711	0.12820078
31	0x3d9ecd6f	0.07754027
32	0x3de9150e	0.11380969
33	0x3e4e4318	0.20142782
34	0x3e378a02	0.1792374
35	0x3df6abed	0.12044511
36	0x3e2a75cf	0.16646503
37	0x3e43341e	0.1906285
38	0xbb56adcf	-0.0032757407
39	0x3e6ec46a	0.23317114
40	0xbe28f2b0	-0.16498828
41	0x3e3c4394	0.18385154
42	0x3cfa38af	0.030544607
43	0x3d6f2580	0.058385372
44	0x3e417e3b	0.1889581
45	0x3dda8320	0.10669541
46	0x3ddf539f	0.10904621
47	0x3e8e906e	0.27844566
48	0x3e2a6ff9	0.16644277
49	0x3e325923	0.17416815
50	0xbc967502	-0.01836634
51	0x3e4fd9f5	0.20297988
52	0xbb025192	-0.0019885045
53	0xbcf813a4	-0.030282803
54	0x3dfaab7b	0.122397386
55	0x3a2a6da2	0.0006501322
56	0x3d3a689f	0.04550993
57	0x3c4e35bf	0.012586056
58	0x3dd7213d	0.105043866
59	0x3d2fe21c	0.042940244
60	0x3e36273b	0.17788403
61	0x3cc92f1d	0.024558598
62	0x3e61f6d8	0.2206682
63	0xbce5eeaa	-0.028067905
64	0x3e5a5d70	0.21324706
65	0x3e29a0cf	0.1656525
66	0xbc0dd7f6	-0.008657446
67	0x3d85e423	0.06537654
68	0xbe391085	-0.18072708
69	0x3e1e581c	0.15463299
70	0x3e22da11	0.15903498
71	0x3d352959	0.044228885
72	0x3da49d94	0.08037868
73	0x3e238698	0.15969312
74	0x3dd61b5e	0.104544386
75	0x3e3610fb	0.17779915
76	0x3de755a4	0.112956315
77	0x3e875c2c	0.2643751
78	0xbbbd3538	-0.0057741664
79	0x3cffbb2a	0.031217176
80	0xbc56a96d	-0.013101918
81	0x3e436b2d	0.19083853
82	0x3e2d9cd5	0.16954358
83	0x3c9f0f77	0.019416554

final.linears.1.weight f4 [84, 84]
0	0xbe578643	-0.2104731
1	0xbc91f85f	-0.017818628
2	0xbef112d4	-0.47084677
3	0x3e086dc0	0.13323116
4	0x3df4765a	0.11936636
5	0x3cb790a6	0.022407841
6	0xbde48041	-0.11157275
7	0xbe26ad21	-0.16276981
8	0x3aedb322	0.0018135051
9	0xbe09bbdf	-0.13450573
10	0x3c9dbbe3	0.01925463
11	0xbe49138c	-0.19636363
12	0xbc18201e	-0.009285001
13	0xbe5e6c0a	-0.21720901
14	0xbe0e96cb	-0.1392471
15	0xbe56f7a9	-0.20992912
16	0xbd9abfab	-0.07556089
17	0x3da572f8	0.08078569
18	0xbe11cdf6	-0.14238724
19	0xbde570e2	-0.11203171
20	0xbe8549ab	-0.26032767
21	0xbcc13964	-0.023586936
22	0xbbf0bbed	-0.0073466212
23	0x3d3b1d15	0.04568203
24	0xbe322234	-0.1739586
25	0xbd906f0a	-0.07052429
26	0xbecd1eaf	-0.40062472
27	0x3c8101b4	0.015747882
28	0xbd3cd225	-0.046098847
29	0xbe8f70a9	-0.2801564
30	0xbe2979c3	-0.16550355
31	0xbd4b2fbe	-0.049606077
32	0x3be4d4f8	0.0069833957
33	0x3da8fad7	0.08250969
34	0xbe48ae69	-0.19597782
35	0xbe14e69e	-0.14541098
36	0x3df399d7	0.11894577
37	0xbe141c36	-0.14463887
38	0xbcb74b88	-0.022374883
39	0xbdd0126f	-0.10159766
40	0x3e9afd22	0.3027125
41	0xbc341d1c	-0.010993268
42	0x3d1243de	0.035709254
43	0xbe14975b	-0.14510863
44	0xbe54d2a0	-0.20783472
45	0xbe3b8b7f	-0.18314932
46	0xbe3d4dc8	-0.18486702
47	0x3dd7ebca	0.1054302
48	0xbe1ff80f	-0.1562197
49	0xbea912ea	-0.33022243
50	0xbecaee6e	-0.39635032
51	0xbde4fb4b	-0.11180743
52	0xbe5a17b5	-0.21298106
53	0x3e22d456	0.15901312
54	0xbdd71f15	-0.10503975
55	0x3d8b2eca	0.06796034
56	0x3d727923	0.059197556
57	0xbe63ccec	-0.2224614
58	0xbd86bb32	-0.065786734
59	0xbe09536d	-0.1341073
60	0xbe409722	-0.18807653
61	0xbe2a6385	-0.16639526
62	0x3e848aba	0.2588709
63	0x3dec5e3d	0.11541412
64	0xbe8acf53	-0.271113
65	0xbd1ba1e0	-0.037996173
66	0xbdfb031d	-0.12256453
67	0xbe77b352	-0.24189499
68	0x3e521724	0.2051664
69	0x3e1218e6	0.1426731
70	0x3e3de3df	0.18543957
71	0xbd1c34a5	-0.038136143
72	0x3db16878	0.08662504
73	0x3dcb7b78	0.09935659
74	0xbeebb012	-0.46032768
75	0xbd99151e	-0.07474731
76	0x3e0bf672	0.1366823
77	0xbe234747	-0.15945159
78	0xbe7f8feb	-0.24957244
79	0xbdb36a75	-0.087605394
80	0xbd585a37	-0.05282041
81	0xbe9e699c	-0.3093995
82	0xbe56c364	-0.20972973
83	0x3d0eec9f	0.03489363
84	0xbe319c4f	-0.17344783
85	0x3daa64c4	0.08320001
86	0xbd89268c	-0.06696805
87	0xbb6e65bc	-0.0036376556
88	0x3db37bd2	0.08763851
89	0xbdbff4d4	-0.09372869
90	0xbdc7240e	-0.09723674
91	0x3d7eea4d	0.062235165
92	0xbe1b7461	-0.15181114
93	0xbde728e5	-0.11287097
94	0xbe35fb50	-0.1777165
95	0xbdace5d5	-0.084422745
96	0xbdcb9922	-0.09941317
97	0xbe66c8da	-0.22537556
98	0xbe3ecbaa	-0.18632379
99	0xbe8b8cac	-0.27255762
100	0x3d12b748	0.035819322
101	0xbe2c0b48	-0.16801178
102	0xbde9e236	-0.114200994
103	0xbd67df55	-0.05660947
104	0xbe029d4c	-0.12755316
105	0xbe27cf48	-0.16387665
106	0xbdb414ff	-0.08793067
107	0xbd2e8b72	-0.042613454
108	0xbea66295	-0.32497087
109	0xbdaf724a	-0.08566721
110	0xbdf28f2e	-0.118437156
111	0xbd2dda39	-0.04244444
112	0xbdd27df3	-0.10277929
113	0xbe472cba	-0.19450656
114	0xbec50a32	-0.3848434
115	0xbd1c1cda	-0.038113452
116	0xbdb6f2c4	-0.089330226
117	0xbe0b05ea	-0.13576475
118	0xbe447f10	-0.19189095
119	0xbd1c32bd	-0.038134325
120	0xbe49becd	-0.19701691
121	0xbd908f25	-0.07058553
122	0xbd43662d	-0.047704864
123	0xbde7a840	-0.11311388
124	0xbd87857c	-0.06617257
125	0xbe970f33	-0.29503784
126	0xbe066148	-0.13123047
127	0xbe19194b	-0.14951055
128	0xbe8c3009	-0.27380398
129	0xbdf54b6e	-0.11977278
130	0xbc9a61a4	-0.018845387
131	0xbde7fa91	-0.113270886
132	0xbe18e652	-0.1493161
133	0xbdfde2b0	-0.12396753
134	0xbe65caaf	-0.22440599
135	0xbe309db6	-0.17247662
136	0xbd7f2f62	-0.062301047
137	0xbdd0a326	-0.10187368
138	0xbe424ce9	-0.18974651
139	0xbca9bf06	-0.02072097
140	0xbe2ba82d	-0.16763373
141	0xbcf530a7	-0.029930426
142	0xbe35f5bc	-0.17769521
143	0xbd9c3e7a	-0.07629104
144	0xbedb4f9e	-0.4283418
145	0xbca37b2e	-0.019956198
146	0xbca46cf3	-0.020071482
147	0xbcc83304	-0.024438389
148	0xbe0f2944	-0.13980585
149	0xbe2af47a	-0.16694823
150	0xbdd78ab9	-0.10524506
151	0x3d44d3fb	0.048053723
152	0x3cbf4286	0.02334715
153	0xbcb0d939	-0.021587955
154	0xbce78770	-0.028262824
155	0xbddd1f2b	-0.107969604
156	0xbe497b1e	-0.19675872
157	0xbda285e5	-0.079356946
158	0xbdb16099	-0.08661003
159	0xbde2edc0	-0.110805035
160	0xbe4e82a7	-0.20167027
161	0xbe12b19a	-0.14325562
162	0xbd982ff3	-0.074310206
163	0xbd125fe2	-0.035735972
164	0xbda5ce2b	-0.08095964
165	0xbdcb0f47	-0.09915023
166	0xbdf1d254	-0.11807695
167	0xbdee7ac4	-0.116445094
168	0xbed6288e	-0.41827816
169	0xbbcc45d3	-0.0062339096
170	0xbe78dcf7	-0.24303041
171	0xbee763f4	-0.45193446
172	0x3c19038b	0.009339224
173	0xbea2d80f	-0.31805465
174	0xbd5a5d14	-0.053311422
175	0xbeb8a415	-0.36062685
176	0xbec0a2b8	-0.37624145
177	0xbddb591a	-0.10710354
178	0xbe14602d	-0.14489813
179	0xbe594526	-0.21217784
180	0xbeb24143	-0.34815416
181	0xbe87dbed	-0.26534978
182	0xbe8b0399	-0.27151182
183	0xbe929737	-0.28630993
184	0xbebdab26	-0.37044638
185	0x3de258c3	0.11052086
186	0xbeaa2779	-0.3323324
187	0xbe826d8b	-0.254742
188	0xbf0bbe21	-0.5458699
189	0xbe6b7c93	-0.2299674
190	0xbe85afa2	-0.2611056
191	0xbebcafb7	-0.3685281
192	0xbee3b39f	-0.44472978
193	0xbf092dc5	-0.53585464
194	0xbdd03a76	-0.101674005
195	0xbdd640b5	-0.10461561
196	0xbe89d035	-0.26916662
197	0xbea4aafd	-0.32161704
198	0xbe8731d4	-0.26405203
199	0xbe7105a7	-0.23537312
200	0xbee743f3	-0.4516903
201	0xbfa39184	-1.2778783
202	0xbe9ef08e	-0.31042904
203	0xbe6b23f4	-0.22962934
204	0xbec94fc3	-0.39318666
205	0xbe46c706	-0.19411859
206	0xbe38278d	-0.17983837
207	0xbec8c53d	-0.3921298
208	0x3e027be0	0.12742567
209	0xbe9b1036	-0.30285805
210	0xbe2b2035	-0.16711505
211	0xbfb44ceb	-1.4085974
212	0xbefa8e91	-0.48936895
213	0xbeee4d5f	-0.46543404
214	0xbe936d19	-0.28794172
215	0xbec3e446	-0.38260096
216	0xbe98dd4a	-0.2985633
217	0xbea8b082	-0.32947165
218	0xbe5d1764	-0.21590954
219	0xbeae1c03	-0.34005746
220	0xbe8ce439	-0.2751787
221	0xbecd485b	-0.40094265
222	0xbed836eb	-0.422294
223	0xbe56486d	-0.20926066
224	0x3e11474a	0.14187351
225	0xbdcb213c	-0.09918448
226	0xbe6c059e	-0.23049018
227	0xbd2bf061	-0.04197729
228	0xbf138635	-0.5762666
229	0xbe860ed7	-0.26183197
230	0xbe51998a	-0.20468727
231	0xbe94b923	-0.29047498
232	0xbe86a60f	-0.26298568
233	0xbefbfea3	-0.4921771
234	0xbebbb621	-0.3666239
235	0xbe562c8b	-0.2091543
236	0xbd9ea9c1	-0.07747222
237	0xbed4a4f3	-0.41532096
238	0xbea0d797	-0.31414482
239	0xbea761d8	-0.32691836
240	0xbeb5d866	-0.3551666
241	0xbeeb9003	-0.4600831
242	0xbe380a1a	-0.17972603
243	0xbeac9577	-0.33707783
244	0xbe4742ac	-0.19459027
245	0xbee53ceb	-0.4477304
246	0xbeaaec98	-0.33383632
247	0xbeb1c3e1	-0.34719756
248	0xbdaae622	-0.083446756
249	0x3d130bca	0.035899915
250	0xbee6c3d8	-0.45071292
251	0xbe07799b	-0.13229983
252	0x3e389d3b	0.18028729
253	0x3d59d50e	0.0531817
254	0xbe845a47	-0.25850126
255	0xbe2aff97	-0.16699062

final.linears.1.bias f4 [84]
0	0x3d336163	0.043794047
1	0xbe02dd1d	-0.1277966
2	0xbeceb988	-0.40375924
3	0x3daf0c32	0.08547248
4	0xbe80488c	-0.2505535
5	0xbe895b4f	-0.26827475
6	0x3d87b1a4	0.06625679
7	0x3d7c4567	0.061589625
8	0xbe71095d	-0.23538728
9	0xbdb9a6af	-0.090649955
10	0xbd383cdc	-0.044979915
11	0x3d8c5a6d	0.06853185
12	0x3d70332c	0.05864255
13	0x3e455f2b	0.19274585
14	0xbd9bd9ea	-0.07609923
15	0x3f0e492a	0.5558039
16	0xbba82253	-0.005131045
17	0xbf04add3	-0.51827735
18	0xbd5c51f0	-0.05378908
19	0xbdb333a1	-0.08750082
20	0xbdd7cbd2	-0.105369225
21	0xbe2db5e3	-0.16963916
22	0xbaa7a150	-0.0012789164
23	0xbddaba95	-0.10680119
24	0xbe92b825	-0.28656116
25	0x3d1fc131	0.0390026
26	0xbdc745a8	-0.09730083
27	0xbdc71c86	-0.09722237
28	0xbe51f8b5	-0.2050503
29	0xbe7ca5ec	-0.24672669
30	0xbe9d8776	-0.3076741
31	0x3d3bb790	0.045829356
32	0x3e7b56e3	0.24544863
33	0xbe5ad59c	-0.21370548
34	0xbe23322b	-0.15937106
35	0xbd31fa07	-0.043451335
36	0x3df57342	0.11984874
37	0xbeb8689c	-0.3601731
38	0x3c8281f6	0.01593111
39	0x3c9a1ac5	0.018811593
40	0xbd32ed5d	-0.0436834
41	0xbe97fcde	-0.2968511
42	0xbedc24d0	-0.42996836
43	0xbc3e72c6	-0.011624044
44	0xbe14f99c	-0.14548343
45	0x3e26e732	0.16299132
46	0xbd6e4f52	-0.058181114
47	0xbdc6fd21	-0.09716249
48	0x3e0011b6	0.12506756
49	0xbeff13e7	-0.49819872
50	0xbe653cd9	-0.22386493
51	0x3dc0b345	0.09409193
52	0xbe2c6353	-0.16834764
53	0xbe930fd6	-0.2872302
54	0x3e42cad2	0.19022682
55	0xb898dc34	-7.288941e-05
56	0xbd5eee17	-0.05442628
57	0xbe65e3dd	-0.22450204
58	0xbe98d5d7	-0.29850647
59	0xbe14713a	-0.14496318
60	0xbede7194	-0.43446028
61	0xbdf60582	-0.12012769
62	0xbe06a9d9	-0.13150729
63	0xbe69b588	-0.22823155
64	0x3e82c0d0	0.2553773
65	0xbc00840b	-0.0078439815
66	0xbe126f8d	-0.14300366
67	0xbebea157	-0.37232468
68	0xbe158e3f	-0.14605044
69	0xbdae696d	-0.08516202
70	0x3cd10d44	0.02551902
71	0xbe29775a	-0.16549435
72	0xbe5bd0ff	-0.21466444
73	0x3de8692e	0.113481864
74	0xbe52a288	-0.20569813
75	0xbe99b17e	-0.30018228
76	0xbdf6d339	-0.12052006
77	0xbe202c92	-0.15642002
78	0xbe66fa2d	-0.22556372
79	0xbe0a98e1	-0.13534881
80	0x3dc30c02	0.09523775
81	0xbe62872c	-0.22121876
82	0x3ddea8be	0.10872029
83	0x3e8b9fbc	0.27270305

final.linears.2.weight f4 [10, 84]
0	0x3bf236a8	0.0073917694
1	0xbdafc8ac	-0.08583197
2	0xbed44488	-0.41458535
3	0x3dfefabe	0.12450169
4	0xbc637c2e	-0.013884587
5	0xbdee7e76	-0.11645214
6	0x3cbbad49	0.022909777
7	0x3d20d2e3	0.039263617
8	0x3ec77373	0.38955268
9	0x3c5f85a8	0.013642706
10	0xbea5b3dd	-0.32363787
11	0xbb8ad1e3	-0.004236446
12	0x3c5aae44	0.013347212
13	0x3bc8e417	0.006130706
14	0x3d9e9c19	0.07744617
15	0xbbd82661	-0.006596372
16	0x3db38a00	0.08766556
17	0xbe715791	-0.2356856
18	0x3e1d4d3b	0.15361492
19	0x3bfd3cdb	0.007728202
20	0xbed6aee6	-0.41930312
21	0xbb6896d5	-0.0035490294
22	0xbb0fc302	-0.0021936302
23	0x3dda7f6a	0.106688336
24	0x3f1604fe	0.5860137
25	0xbc9d770a	-0.019221801
26	0x3d3737df	0.044731017
27	0x3ec67e04	0.38768017
28	0xbc624740	-0.013810933
29	0xbc6ac761	-0.014329762
30	0xbe660163	-0.22461466
31	0x3cb33a0d	0.021878267
32	0xbe809f02	-0.25121313
33	0xbe38acd1	-0.18034674
34	0x3e7afdb0	0.24510837
35	0x3deff76a	0.11717112
36	0xbba97880	-0.0051718354
37	0xbc9328c8	-0.017963782
38	0xbc477665	-0.012174224
39	0x3bd66de1	0.0065438603
40	0xbccb8af6	-0.024846535
41	0xbda96ab5	-0.08272306
42	0xbed95f90	-0.4245572
43	0x3bd60bb3	0.0065321564
44	0x3d0748dd	0.033028472
45	0x3db22759	0.08698911
46	0x3d3ea7f6	0.0465469
47	0xbdbe0a1e	-0.092792735
48	0xbb394a62	-0.0028273095
49	0x3db40bb3	0.08791294
50	0xba908e5e	-0.0011028757
51	0x3ad69aa5	0.0016372992
52	0x3d1fb3fa	0.03899
53	0x3ef4e5ed	0.4783167
54	0x3d60a1e0	0.054841876
55	0x3d8fdbdc	0.07024357
56	0x3b972c3e	0.0046134284
57	0xbe983f0f	-0.2973561
58	0x3ef5b4c2	0.4798947
59	0x3e0a55f6	0.13509354
60	0xbd039c04	-0.03213121
61	0xbe04ccce	-0.12968752
62	0xbd95140a	-0.07279213
63	0xbb415981	-0.0029502811
64	0x3c94b9b3	0.018154955
65	0xbe267d16	-0.16258654
66	0x3c2644cf	0.010148241
67	0x3dd74fec	0.10513291
68	0x3c2afa34	0.01043563
69	0xbd80dbba	-0.062919095
70	0xbddba281	-0.107243545
71	0xbdee55d6	-0.11637466
72	0xbeea35d4	-0.45744193
73	0x3aef444e	0.0018254609
74	0x3d68d6c9	0.05684546
75	0xbe112526	-0.14174327
76	0xbd72c593	-0.059270453
77	0x3ca0a1f6	0.019608479
78	0x3e231c5a	0.15928784
79	0xbd8a33ca	-0.06748159
80	0x3d2a5a76	0.041590177
81	0x3e3a858e	0.1821501
82	0x3db5798e	0.08861075
83	0xbbbca580	-0.005757034
84	0x3ccb5080	0.024818659
85	0x3ca7cad9	0.020482467
86	0x3eb169b3	0.34650955
87	0x3d9ebcf1	0.077508815
88	0x3bdd982e	0.006762526
89	0xbe952b08	-0.29134393
90	0xbd359c2c	-0.04433839
91	0xbd5e5179	-0.054276917
92	0x3efaefaf	0.4901099
93	0x3c80dede	0.015731271
94	0xbdc9007b	-0.09814545
95	0xbc14446a	-0.009049514
96	0x3e6d7fda	0.23193303
97	0x3b50a7ab	0.003183822
98	0xbdcc4c2b	-0.099754654
99	0xbba9c334	-0.0051807407
100	0xbe13c1ec	-0.14429444
101	0xbe1a4363	-0.15064768
102	0x3c65fa7f	0.014036774
103	0x3c51dd7d	0.012809155
104	0x3dad2b0a	0.08455475
105	0xbc99d61a	-0.01877885
106	0xbbc4baee	-0.006003729
107	0x3e56d985	0.20981415
108	0xbe57b08f	-0.21063446
109	0x3d436603	0.047704708
110	0xbc0b4614	-0.008500595
111	0xbdbec91c	-0.09315702
112	0xbc572f2b	-0.013133804
113	0xbcc90881	-0.024540188
114	0x3f13cc82	0.5773393
115	0x3e463831	0.19357373
116	0x3dd2199b	0.1025879
117	0xbe628659	-0.22121562
118	0xbc8bb684	-0.017054804
119	0x3d0214e2	0.031758197
120	0x3c2c6eca	0.010524461
121	0x3dcbc347	0.099493556
122	0x3cdd48bb	0.02701222
123	0xbab703fa	-0.0013962977
124	0x3d88a00e	0.06671153
125	0x3d9785b2	0.07398547
126	0xbf00f084	-0.50367
127	0xbcb6c5d2	-0.022311125
128	0x3d02d917	0.031945314
129	0x3e622bd6	0.22087035
130	0x3c9a78e4	0.018856473
131	0x3c411406	0.011784559
132	0x3bc6a5e8	0.006062258
133	0x3e63d576	0.22249398
134	0x3c4d229e	0.01252046
135	0xbc3fa46b	-0.011696915
136	0xbb6f7de4	-0.0036543543
137	0x3ec345a6	0.38139075
138	0x3ca4532a	0.020059187
139	0xbe220d09	-0.15825285
140	0x3bcde66d	0.0062835724
141	0x3f0e2c21	0.55536085
142	0xbe85c606	-0.26127642
143	0xbdcb4b33	-0.099264525
144	0xbbed17e3	-0.0072355135
145	0xbdadac6e	-0.08480154
146	0x3e309056	0.1724256
147	0xbc6b5c7e	-0.014365314
148	0xb9a12056	-0.00030732405
149	0xbc985c79	-0.018598782
150	0xbc92d480	-0.017923594
151	0x3c4f6b52	0.0126598645
152	0xba13cf4a	-0.00056384935
153	0x3e00620d	0.12537403
154	0x3cbc37dc	0.022975855
155	0xbe10d3c5	-0.14143284
156	0xbed4200c	-0.414307
157	0x3b81ee93	0.003965208
158	0xbcc1c877	-0.02365516
159	0x3c0b5359	0.008503758
160	0xbe420875	-0.18948539
161	0x3b8b0710	0.0042427853
162	0xbf101e05	-0.56295806
163	0xbe5d7651	-0.21627165
164	0x3d80deca	0.06292494
165	0xbea72f6f	-0.32653376
166	0xbc6d38b6	-0.014478853
167	0xbbe1004d	-0.006866491
168	0xbba790b3	-0.005113685
169	0x3d881702	0.066450134
170	0x3da763c4	0.08173326
171	0xbb01ac04	-0.0019786367
172	0x3d51ff5f	0.05126893
173	0x3d891239	0.06692929
174	0xbd643b84	-0.05572082
175	0xbca1ff31	-0.019775005
176	0x3e25352d	0.16133566
177	0x3d9d1adf	0.07671141
178	0x3cbfb3e0	0.0234012
179	0x3ddc00f3	0.107423685
180	0xbeef3025	-0.4671642
181	0xbdda68e1	-0.10664535
182	0x3d035412	0.032062598
183	0xbd8466f1	-0.06464947
184	0x3c7611d3	0.015018898
185	0x3ebb50c7	0.36585066
186	0xbc112b34	-0.008860398
187	0x3eca9c36	0.39572304
188	0xbe40f13e	-0.18842027
189	0xbdd71443	-0.105019115
190	0xbe2d103d	-0.16900726
191	0x3d2c770f	0.04210573
192	0xba95140c	-0.0011373772
193	0xbde7c0b3	-0.11316051
194	0x3d24bfdd	0.040222038
195	0x3c5c8065	0.013458346
196	0xbe8a4b21	-0.27010444
197	0x3dae8300	0.0852108
198	0xbd0f4f9b	-0.034988027
199	0x3cf59a2c	0.029980741
200	0xbcd127f9	-0.025531756
201	0x3e10c783	0.14138608
202	0x3d7ba71e	0.061438672
203	0x3ce7f4a1	0.02831489
204	0xbf2cf8ae	-0.67566955
205	0x3ed733eb	0.42031798
206	0xbdd56701	-0.10420037
207	0xbe041128	-0.1289717
208	0x3d47a68a	0.04874281
209	0x3ea938a0	0.33051014
210	0x3cecb5ca	0.028895278
211	0x3d0ac868	0.03388253
212	0x3c9ea387	0.019365085
213	0xbd1a7e45	-0.037718076
214	0xbe95cb2a	-0.29256564
215	0x3c98b39f	0.018640338
216	0x3e9d622f	0.3073897
217	0x3f0b2d00	0.5436554
218	0x3f473462	0.77814305
219	0xbe6dcb18	-0.23222005
220	0xbe7de2c2	-0.24793532
221	0xbe14f16d	-0.14545222
222	0xbf99bde7	-1.2011079
223	0xbd2f979a	-0.042869188
224	0x3ea3b450	0.31973505
225	0xbe71c445	-0.23610027
226	0x3e7c11fc	0.24616235
227	0xbd2f1c76	-0.04275175
228	0x3e8dc2a0	0.2768755
229	0x3bd62301	0.0065349345
230	0x3da78531	0.08179701
231	0x3f23b929	0.63954407
232	0xbebd1468	-0.3692963
233	0x3c08e581	0.008355499
234	0x3ef25bda	0.47335702
235	0x3d4ea8aa	0.05045382
236	0x3dd3d551	0.10343421
237	0x3c96e0ba	0.018417705
238	0x3c246824	0.010034595
239	0xbeda7f21	-0.42675117
240	0xbd90b694	-0.07066074
241	0xbe1419de	-0.14462993
242	0x3dc1daec	0.09465584
243	0x3e7b3223	0.24530844
244	0x3c46ee64	0.012141798
245	0xbcba3fd0	-0.022735506
246	0xbdd2778c	-0.10276708
247	0x3d368a60	0.04456556
248	0xbeceb766	-0.40374297
249	0xbcb26ea6	-0.021781277
250	0xbc469eaa	-0.012122789
251	0xbe4e9fac	-0.20178097
252	0xbdc8084c	-0.097672075
253	0xbccd7d44	-0.025084145
254	0x3ee8520b	0.45375094
255	0xbbe3c140	-0.0069505274

final.linears.2.bias f4 [10]
0	0xbd34d9a5	-0.044152874
1	0xbbb70e3a	-0.0055864127
2	0xbe235328	-0.1594969
3	0xbddaf322	-0.10690905
4	0xbea49580	-0.3214531
5	0xbd41760d	-0.047231723
6	0x3d2ca82a	0.04215256
7	0xbc39df3f	-0.01134473
8	0xbce12f49	-0.027488368
9	0xbceaa7e5	-0.028644511

layers.0.attn.0.gnn_q.weight f4 [10, 16]
0	0xbb8fdddc	-0.0043904614
1	0x3adf272e	0.0017025226
2	0x39a7ee1f	0.00032030136
3	0x3be4dc07	0.006984237
4	0x3bcfa937	0.0063373107
5	0xb9d0602f	-0.00039744514
6	0x3a3deba4	0.0007244891
7	0xbaf575eb	-0.0018727159
8	0xbb75f4c7	-0.0037529932
9	0xba92201b	-0.0011148484
10	0x3a49d87e	0.00076998014
11	0xbb22eafa	-0.0024859295
12	0x3b8e0a9e	0.0043347618
13	0xb812aa76	-3.4967867e-05
14	0x3bfd37ba	0.0077275904
15	0x3a34bb8a	0.00068944006
16	0xbb8d5455	-0.0043130317
17	0x3ad2936f	0.0016065667
18	0x39f4f42a	0.00046721223
19	0x3bc57794	0.0060262177
20	0xbba0ebb7	-0.004910912
21	0x3ad4c296	0.0016232308
22	0xba8436d9	-0.0010087147
23	0xbb1d7e38	-0.002403153
24	0xbb5fd8d6	-0.0034156344
25	0xbaa93b45	-0.001291134
26	0x3a329577	0.0006812433
27	0xbaa4f916	-0.001258644
28	0xbbd3aa43	-0.0064595058
29	0xb8bb7e0d	-8.940334e-05
30	0xbbd07ce0	-0.0063625425
31	0xba6d8b60	-0.0009061601
32	0x3d09b1bc	0.033616766
33	0xbc64df35	-0.013969232
34	0xbb24a3a3	-0.002512195
35	0xbd7d4147	-0.06182983
36	0xbd1227a3	-0.03568233
37	0xbc22c52f	-0.009934708
38	0x3b9cbeee	0.004783503
39	0x3c533820	0.012891799
40	0x3d179d8b	0.03701548
41	0x3bfe472d	0.0077599497
42	0xbb9056a1	-0.004404858
43	0x3c455d97	0.012046239
44	0xbcfb7d3b	-0.030699363
45	0x3995b12a	0.00028551492
46	0xbd67732a	-0.056506313
47	0x3bab8d76	0.0052353693
48	0x3c172f99	0.009227657
49	0xbb663879	-0.0035128875
50	0xba88df4c	-0.0010442524
51	0xbc294530	-0.010331437
52	0xbcfba359	-0.030717539
53	0x3b242bc4	0.00250505
54	0xbb51b5d6	-0.0031999252
55	0x3bbff9e1	0.0058586453
56	0x3bab240f	0.0052228044
57	0x3b3b6262	0.0028592576
58	0xbacd283e	-0.0015652252
59	0x3b9f2da3	0.0048577352
60	0xbcfe92fd	-0.031075949
61	0x391fd16c	0.00015241437
62	0xbd243582	-0.04009009
63	0xbb0af37c	-0.0021202257
64	0xbb088e91	-0.002083693
65	0x3a4cb736	0.0007809283
66	0xb6f697ac	-7.3490282e-06
67	0x3bb4195b	0.0054961867
68	0xbc38cb60	-0.011278957
69	0x3b0bb5cf	0.0021318083
70	0xbacbb430	-0.0015541371
71	0xb98c2499	-0.00026730148
72	0xbb2d6f6c	-0.0026464118
73	0xb90a3706	-0.00013181203
74	0x398d67a2	0.00026970828
75	0xb9fb3f25	-0.00047921497
76	0xbc5d1846	-0.013494557
77	0x37c9222e	2.3976983e-05
78	0xbc7854cc	-0.015156936
79	0xba9da166	-0.001202625
80	0x3b8dd088	0.0043278374
81	0xbae164e7	-0.0017196209
82	0xb9b78c99	-0.00035009233
83	0xbb962edc	-0.004583223
84	0xbc4fa7ee	-0.012674315
85	0x3b1f84fe	0.0024340744
86	0xbb20499b	-0.0024457935
87	0x3b0a0572	0.0021060375
88	0x3b11b937	0.002223564
89	0x3a9e586f	0.0012080799
90	0xba80c17b	-0.0009823287
91	0x3b4c5b01	0.0031182172
92	0xbc51eeb9	-0.012813264
93	0x38229958	3.8766622e-05
94	0xbc7b7ded	-0.015349847
95	0xbb023d0a	-0.0019872808
96	0x3b533646	0.0032228394
97	0xbaaeb056	-0.0013327699
98	0xb9a904c2	-0.00032237737
99	0xbbb4d749	-0.005518828
100	0xbb358d98	-0.0027702805
101	0xba2208f5	-0.0006181144
102	0x3897ffb9	7.247873e-05
103	0x3aa5da0b	0.0012653483
104	0x3b478ef4	0.0030450197
105	0x3a537b3c	0.00080673746
106	0xb9daf997	-0.0004176616
107	0x3a9809d5	0.001159961
108	0xba6913c3	-0.00088911894
109	0x38722fba	5.7741745e-05
110	0xbb3ebfe1	-0.0029106068
111	0x3987947c	0.00025859836
112	0x3bc1023f	0.0058901603
113	0xbb010831	-0.001968872
114	0xb991e350	-0.00027825916
115	0xbbeb7fc8	-0.0071868636
116	0xba78574d	-0.0009473458
117	0x391655c7	0.0001433707
118	0xb8232238	-3.8894097e-05
119	0x3b18cc74	0.0023315223
120	0x3b868235	0.0041048774
121	0x3a9d31a6	0.0011992946
122	0xba4d4149	-0.00078298576
123	0x3b119091	0.0022211412
124	0x390e456c	0.00013568037
125	0xb8362f1a	-4.3436048e-05
126	0xbaa0db96	-0.0012272473
127	0xba000484	-0.00048834854
128	0xbb2c726f	-0.0026313325
129	0x3a885c6f	0.0010403524
130	0x3974408a	0.00023293696
131	0x3b9cba0e	0.0047829216
132	0x3c3d4efa	0.011554474
133	0xba85fbb1	-0.0010222105
134	0x3ab30b48	0.0013659978
135	0xba63a150	-0.00086834
136	0xbb1bada5	-0.0023754623
137	0xba0d1b7d	-0.0005382819
138	0x39ea4f74	0.00044691155
139	0xbaed4776	-0.0018102962
140	0x3c2d2348	0.010567494
141	0xb811e46f	-3.478344e-05
142	0x3c74a954	0.014932949
143	0x3a7b229a	0.0009580046
144	0xbbc22e3e	-0.0059259227
145	0x3aeb5402	0.0017954113
146	0x39d90396	0.00041392137
147	0x3c0a9687	0.00845874
148	0x3b71deaa	0.00369064
149	0x3ae02f97	0.0017104027
150	0xba0cc17d	-0.0005369408
151	0xbb364b9d	-0.0027816065
152	0xbb87d68c	-0.004145449
153	0xbac23ae2	-0.0014818574
154	0x3a3b9226	0.00071552617
155	0xbadce9c8	-0.001685434
156	0x3aef8062	0.0018272514
157	0xb8951a49	-7.10977e-05
158	0x3b915986	0.004435721
159	0xba7fa18a	-0.0009751549

layers.0.attn.0.gnn_q.bias f4 [16]
0	0xbcc64438	-0.024202451
1	0x3c2b9a1c	0.010473754
2	0x3af65ace	0.0018795372
3	0x3d2944fa	0.041325547
4	0xbd5eb21c	-0.054369077
5	0x3c9ad306	0.018899452
6	0xbc7b1ad8	-0.015326224
7	0xbc190779	-0.0093401605
8	0xbcf72288	-0.030167833
9	0xbbb942b6	-0.0056537045
10	0x3b27456c	0.0025523556
11	0xbb3b5020	-0.0028581694
12	0xbd82695b	-0.06367751
13	0xb9605fb0	-0.00021397951
14	0xbd8ee3d9	-0.06977052
15	0xbc500a4e	-0.012697769

layers.0.attn.0.gnn_k.weight f4 [10, 16]
0	0xbb820410	-0.0039677694
1	0x3b03e159	0.0020123331
2	0x39c4b12c	0.00037516037
3	0x3bdec824	0.006798761
4	0xbbb7ce90	-0.005609341
5	0x3b6a4084	0.003574402
6	0xbb4f566f	-0.0031637212
7	0xbabf7a1b	-0.0014608534
8	0xbbac24e7	-0.0052534225
9	0xba7be970	-0.0009609675
10	0x39db2327	0.00041797126
11	0xb991a29f	-0.00027777717
12	0xbbc2889d	-0.0059366957
13	0xb7dbd6e9	-2.620691e-05
14	0xbb9bae0c	-0.0047509726
15	0xbb2dcd5b	-0.0026520106
16	0xbb56ae46	-0.0032757684
17	0x3b0d3d7a	0.0021551535
18	0x3a051622	0.00050768454
19	0x3bb5f88e	0.0055533117
20	0x3babe158	0.005245369
21	0x3ab1d4c4	0.0013567437
22	0xba81429a	-0.0009861768
23	0xbae8e678	-0.001776888
24	0xbba05c8d	-0.0048938454
25	0xbaa208e9	-0.0012362275
26	0x3a22bdc4	0.0006208087
27	0xba91b5dc	-0.001111682
28	0x3bb3ad0f	0.0054832767
29	0xb87f096a	-6.0805505e-05
30	0x3c0219f4	0.007940758
31	0xba87cb00	-0.0010360181
32	0x3d135785	0.035972137
33	0xbc57615e	-0.013145773
34	0xbb251e93	-0.0025195226
35	0xbd809a58	-0.06279439
36	0x3cce928a	0.02521636
37	0xbc92d429	-0.017923431
38	0x3c483085	0.012218599
39	0x3c66214e	0.014046026
40	0x3d100fce	0.035171323
41	0x3c06989f	0.008215099
42	0xbb85dede	-0.0040854057
43	0x3c0bffac	0.008544844
44	0x3d36dd93	0.044644903
45	0x39920380	0.00027849898
46	0x3cff90ac	0.031196915
47	0x3c33b503	0.0109684495
48	0x3bd8add1	0.0066125174
49	0xbba89087	-0.005144182
50	0xbaa06ace	-0.0012238862
51	0xbc1372a8	-0.008999504
52	0x3ce62e7e	0.028098341
53	0xbbee7bb5	-0.0072779306
54	0x3bd990a5	0.0066395574
55	0x3b7ce162	0.0038586487
56	0x3c33037f	0.0109261265
57	0x3b236d95	0.0024937142
58	0xba80c3b7	-0.0009823953
59	0xb9b3e156	-0.0003430943
60	0x3cff042f	0.031129925
61	0x38f9f353	0.00011918568
62	0x3d1e725f	0.03868329
63	0x3bad4305	0.0052875304
64	0xbb18a3fb	-0.00232911
65	0x3a3bab5c	0.00071590184
66	0xb7ee2611	-2.8389537e-05
67	0x3bb62b3d	0.0055593536
68	0x3c3dbeed	0.011581165
69	0x39afef38	0.00033556833
70	0x38f1a7c5	0.00011523025
71	0xb9c45716	-0.00037448917
72	0xbb171a4b	-0.0023056443
73	0xb94357c2	-0.00018629342
74	0x397edbba	0.00024305182
75	0xba93c6ab	-0.0011274418
76	0x3c47540d	0.012166035
77	0x379fe06b	1.905878e-05
78	0x3c8a9732	0.016917799
79	0xb8ee6500	-0.00011367537
80	0x3b47c185	0.0030480337
81	0xbb12e7c2	-0.002241597
82	0xb9cde1f1	-0.00039268986
83	0xbb7f408e	-0.003894839
84	0x3c54269e	0.01294866
85	0xbb9b0a45	-0.004731449
86	0x3b9af9b7	0.0047294754
87	0x3ab15bd6	0.0013531398
88	0x3bb8a046	0.0056343405
89	0x3a955738	0.0011393791
90	0xb9adad22	-0.00033126125
91	0xba50eeac	-0.0007970135
92	0x3c5457e0	0.012960404
93	0x380ac192	3.308204e-05
94	0x3c6e8217	0.014557383
95	0x3b72add2	0.0037029875
96	0x3b54451b	0.0032389823
97	0xba98d739	-0.0011660821
98	0xb99795ab	-0.00028912476
99	0xbbb1a28f	-0.00542099
100	0x3b06aa57	0.0020548308
101	0xbaf146e9	-0.0018407974
102	0x3a9c38f6	0.0011918831
103	0x3ac16262	0.0014754052
104	0x3b5fb9ed	0.003413792
105	0x3a56694b	0.0008179142
106	0xb9a640ad	-0.00031710175
107	0x3a168bd3	0.00057428813
108	0x3b049116	0.002022808
109	0x38632bbe	5.4161756e-05
110	0x3a3b38bb	0.00071419374
111	0x3a9166e4	0.0011093286
112	0x3b87a0ca	0.0041390406
113	0xbb21deea	-0.0024699518
114	0xb996409d	-0.0002865837
115	0xbbdb6cd1	-0.0066963215
116	0x3aac393a	0.0013139613
117	0xbb6c6b2b	-0.003607462
118	0x3b434a88	0.0029799063
119	0x3ad2122a	0.0016027142
120	0x3bdece8c	0.0067995246
121	0x3a82fe8c	0.0009994074
122	0xb9fb2a05	-0.00047905758
123	0x3a0931c3	0.00052335503
124	0x3a70d0c1	0.000918638
125	0xb6fc7f36	-7.5249945e-06
126	0xb9a61a8a	-0.0003168176
127	0x3b29a27a	0.0025884197
128	0xbb38d553	-0.0028203323
129	0x3a7321a1	0.00092747255
130	0x39381b5f	0.00017557804
131	0x3b9cf732	0.00479021
132	0xbc2aa575	-0.010415425
133	0x3b509eba	0.003183289
134	0xbb2899ea	-0.0025726506
135	0xba9f2211	-0.001214089
136	0xbb4fea9b	-0.003172553
137	0xba19efe5	-0.0005872234
138	0x3911485c	0.00013855234
139	0x3985367f	0.0002540834
140	0xbc3b30bb	-0.0114251925
141	0xb81fe6cd	-3.8123504e-05
142	0xbc54710d	-0.0129664065
143	0xbb0fc2da	-0.002193621
144	0xbb8ebe0a	-0.0043561505
145	0x3b22dae2	0.0024849703
146	0x3a0a9e95	0.0005287913
147	0x3bfbe446	0.0076871244
148	0xbb2954ff	-0.0025838015
149	0x3b1dddc7	0.0024088488
150	0xbac1e05e	-0.0014791598
151	0xbb020291	-0.0019837955
152	0xbbc172bf	-0.0059035714
153	0xbabc1e5e	-0.0014352312
154	0x3a3dc933	0.0007239759
155	0xba950c82	-0.0011371525
156	0xbb4bc08e	-0.0031090113
157	0xb8a09036	-7.656256e-05
158	0xbb071527	-0.0020611973
159	0xbab5d712	-0.00138733

layers.0.attn.0.gnn_k.bias f4 [16]
0	0xbcd956dd	-0.026530677
1	0x3c1e5ebb	0.00966614
2	0x3af1da7a	0.0018451952
3	0x3d2e6a91	0.0425821
4	0x3d84adef	0.06478488
5	0x39700932	0.00022891609
6	0x3b3454d7	0.0027516389
7	0xbc2ab020	-0.010417968
8	0xbcbcbaad	-0.023038233
9	0xbbc36906	-0.0059634475
10	0x3b75da92	0.0037514311
11	0xbc453d58	-0.012038551
12	0x3d697251	0.056993786
13	0xb9664c4c	-0.00021962932
14	0x3daf86c9	0.0857063
15	0x3a927bd2	0.0011175817
