checkpoints/herg_karim_40_train1_pos/Aug25-09:43:28_800.pth (torch, 377407 bytes, 294 tensors)

layers.0.weight f4 [10, 16]
00000000: 536e 063d f984 653f 5b08 463f 752d aa3f
00000010: 575b 2e3e 7565 e1be 1350 41be fa25 3d40
00000020: 8a4a 7c3f 21dd 86bf ab9c 64bd eef1 9abd
00000030: a9a7 373d 0887 693e 3ab5 773f 1e7f ce3d
00000040: b807 0a3e eaba c53e b51b 14c0 95c8 7f3f
00000050: a5bb 4fbc 76c3 c2be 3ac1 9cbe 8284 063f
00000060: a513 20c0 56b3 d5ba 1ceb 9fbe 0d69 72bd
00000070: c2b1 043d a9f8 533d 08b3 323f 7b74 98be
00000080: 1208 4d3f 0dfd f73d a3a4 f5be 6809 6d3e
00000090: fa3b ddbc daf3 b43e 04ae 4b3e 4a66 6fbe
000000a0: 733b aa3e 1df0 98be a781 893e 19aa 1240
000000b0: d6d9 ef3e 9726 99bf 7b3b be3e edec 42be
000000c0: 8006 1e3f b3a8 9c3c 9042 d0be c2c6 6f3e
000000d0: 472a 2bbd 9f51 b03e 4819 c03d 232c 4cbe
000000e0: 6942 873e 391f 96be e4ca d63f 6910 08bf
000000f0: 4516 583e f0a8 89bd 779d b63e e992 59be
00000100: 1313 f33e 1a1c 3c3d 0047 d9be 1d12 893e
00000110: 20d8 e7bb f53e 863e 8be8 c53f a3a5 41be
00000120: b5b2 693e 414b 26be 12b6 6d3d 1734 c3be
00000130: 6997 723e ede5 08bd 2f3c 9d3e 7158 cdbc
00000140: e51d b63e 2b15 363d 168b 34be 822f 893e
00000150: 0423 b13d ff2d 063f ed39 853e 7e41 4ebe
00000160: 7d0b 6d3e 24f2 b5be eb01 e23b 982a 93be
00000170: e7f2 463e d0cd 473e b831 b23d 929a a0bf
00000180: cfe2 013e e997 a7bf f569 6f3e a39f 14c0
00000190: 8629 9bbe 047c 6cbf 1f7a 003e 67ca b83e
000001a0: 0e7e fcbe 7bbb a5bf 7f0d 14be a8f7 d8bc
000001b0: 0372 8abc 8470 c2bd d520 1840 c159 90be
000001c0: 8c04 753e f693 41be b7f4 8ebf 455b 4a3d
000001d0: c32b e6bd a378 bdbf fca0 b2be 85e6 29be
000001e0: 5837 7e3f c1a6 47bf d982 2c3d d134 f8bd
000001f0: 1f5c d13d 442a c83c 9cce 74bf 93c5 30bf
00000200: 6bed 543e df8b a03d 55a7 26be fa19 013f
00000210: 2410 f8bf a32d fb3e bfbf 99be e572 80be
00000220: e705 6a3e 1043 74be 8b28 cebd 4d32 28be
00000230: 00f3 f43d c787 ba3d 65f6 573d e0cb 693e
00000240: 5e36 ccbb 8266 683f 7306 d93f f911 8a3f
00000250: ed71 1e3e aa6d 70bf f447 213e bdb2 dcbf
00000260: b8e1 96bf e5a7 05c0 1c56 7f3d 9280 bb3a
00000270: 4cfd a43c 475e 8e3d 960e f8be 8f36 c53e
0.032820057 0.89656025 0.773565 1.3295122 0.17027031 -0.44022718 -0.18878202 2.955443
0.9855124 -1.0536233 -0.055813473 -0.07565676 0.044837628 0.22805417 0.96760905 0.100828394
0.13479507 0.38619167 -2.314191 0.9991544 -0.012679015 -0.3803975 -0.3061617 0.5254594
-2.501199 -0.0016304057 -0.31234062 -0.059182215 0.032396086 0.051750813 0.6980443 -0.29776368
0.8009044 0.121088125 -0.4797717 0.2314812 -0.027006138 0.35342294 0.198906 -0.23378864
0.3324848 -0.29870692 0.2685673 2.291632 0.46845883 -1.1964902 0.37154755 -0.19035693
0.6172867 0.01912341 -0.40675783 0.23415664 -0.041788366 0.34437272 0.09379822 -0.19938712
0.26417854 -0.29320696 1.6780667 -0.5315004 0.21102245 -0.067216754 0.3566701 -0.21247448
0.4747549 0.045925237 -0.4243698 0.26771632 -0.0070753247 0.26219907 1.5461591 -0.18910842
0.22822078 -0.16239645 0.058034964 -0.3812568 0.23690571 -0.0334224 0.3070998 -0.025066586
0.35569683 0.04445378 -0.17631182 0.26794058 0.08649257 0.52413934 0.26020756 -0.20142171
0.23148914 -0.355363 0.0068972013 -0.28743434 0.19428597 0.19512105 0.08700889 -1.2547171
0.12684177 -1.3093234 0.23380263 -2.3222435 -0.30305117 -0.9237673 0.12546586 0.3609192
-0.49314922 -1.294784 -0.14458273 -0.02648528 -0.016900068 -0.09494117 2.377004 -0.28193477
0.23927516 -0.18904099 -1.1168431 0.049403448 -0.11238816 -1.480244 -0.34888446 -0.16591842
0.993032 -0.7798882 0.042116974 -0.12119449 0.10222649 0.024434216 -0.9562776 -0.69051474
0.20793693 0.07839178 -0.1627477 0.5043026 -1.9379926 0.49058256 -0.30029103 -0.25087658
0.22853814 -0.23853707 -0.10066327 -0.16425438 0.11960411 0.09107929 0.052725215 0.22831678
-0.006232067 0.90781415 1.6955093 1.0786735 0.15473147 -0.93917334 0.15750104 -1.7242047
-1.1787634 -2.0883725 0.06233798 0.0014305285 0.020140313 0.06951576 -0.48448628 0.38518187

layers.0.bias f4 [16]
00000000: 9a34 fc3d e6cb febe 6da6 67be 0b47 bb3e
00000010: d391 3c3f f0b9 903e 468a 17bf 2678 00bf
00000020: 671e c63e 71f0 aebe 1635 2dbf 26cc 1bbf
00000030: 6d19 c53f 208c 5c3f 3787 4b3e f1f1 313f
0.123147205 -0.49764937 -0.2262208 0.3657764 0.7366001 0.2826686 -0.59195364 -0.5018333
0.3869507 -0.34167817 -0.6765913 -0.6085838 1.5398384 0.86151314 0.19875799 0.695098

layers.1.weight f4 [16, 16]
00000000: 5545 483e a828 853e 1ec4 f33e 1bc3 48bc
00000010: 2bd1 493f 9353 1d3f a045 0f3e 6b9f 8c3d
00000020: 9337 e0be 61fd 523d 23b3 68bf 44d9 693e
00000030: f6ae 793d 57fe 71be cd6a e2bc b6f1 2cbf
00000040: 55fe 6dbf 3cf4 1b3e 8fd3 3a3f 6049 de3d
00000050: 189f 91be 1fa8 043e 795f 913e 9d2a 9cbe
00000060: b191 c93d 4f95 afbe cb31 633d 6816 753c
00000070: c451 f5b8 7dd1 e1be b341 a13e 1504 883b
00000080: 65ce 41bc 49be cf3d ae6c d83e 444c f73e
00000090: 5c5b ec3e 0b94 49bf c0c0 7e3e d525 37bf
000000a0: f066 efbe fa01 92be b1e5 2f3e dbdd fa3e
000000b0: e88f a43e eea8 e3be 7c65 613e 7c42 333f
000000c0: 9fda ffbe a857 4abe 0084 423f 40b5 e9be
000000d0: beb4 63bf 09cb 83be ba32 a9be b3bb 933e
000000e0: d006 eb3e c004 cb3e 4baa 45be ebad b2be
000000f0: b093 aabe aca4 313e 814d a1be 2658 f0be
00000100: ba8a 29bf b184 673e 044a 85be 4d48 833e
00000110: 64f6 46bf 44af d3be 5f3a a4be 9af8 31bc
00000120: d888 833e 997b a93e 6755 173e b7f7 a0be
00000130: dfae ddbd 8f81 ef3d f15d ecbe 605d 62be
00000140: 978d 30be fa23 9bbd 4669 61be 213b b5be
00000150: a7b7 98be 888c e7be 8ac1 6abe 35e9 1e3e
00000160: 38e0 ecbd 1b4d 593e f3e2 24be e213 25be
00000170: c213 97be e4a6 203f d7e5 69be ba26 18bf
00000180: 8db8 03be 0c64 86be 24d5 013d c73c 54bf
00000190: a5fc e83d 9d9e 34bd 8675 073d 76cd fabe
000001a0: bea5 8bbd b7a3 21be 3cfa 3abe 50f1 683e
000001b0: 09fc 48bd 7e65 efbd 9fd0 e93e c144 b2be
000001c0: 3ce9 29be 7849 913d a230 f23e 8e59 843e
000001d0: 2524 f23e 120d ea3e 3755 8e3e d006 b2be
000001e0: cfc7 20bf 66f2 9dbe f548 a73d 5a85 36bf
000001f0: ea79 913e 9324 5ebd 9744 663e a545 013f
00000200: 19d8 a33e b123 f4bd 81b9 08bf b331 c3be
00000210: 52ec c2be 83bf 4abf 6201 80be 5dcb f1be
00000220: 09f2 63bf d1a9 863e 13f1 20be 3d29 17bf
00000230: 6c09 b8be 8334 673e f741 69be 385d 1ebf
00000240: 396e 5fbf c875 143e c93b 803c a03c d53e
00000250: 9b54 8fbe 6df4 403f b203 883e fdd8 d53d
00000260: a4fe 06bf 2854 ddbe aa5e 7e3e c17c 913e
00000270: 239f d03e 0087 ed3e 7be3 743e 6373 063f
00000280: 9c55 b1be 540e 7bbd 3a20 653d 025a 7ebf
00000290: 9d37 2bbe 62a5 72bc 61e9 16bf 4572 aabe
000002a0: f745 2fbe 572a 6abe 4a16 063c 3af0 4c3e
000002b0: f2f4 f5be 51df 23be 89e4 d93e 7240 47bf
000002c0: 2bdc c3be e31c a23c f6bc abbd 9683 84bf
000002d0: b66c 55be 540b 9bbd a8ba 8d3d a1dd e0be
000002e0: 3949 fbbb 3e6a 013e 5bca bd3d 648a a13d
000002f0: c60f 45be 138c dcbd d619 0e3e d71f 8dbf
00000300: 2566 39bf 9298 0740 617f 893f ccd5 b03e
00000310: 510c 4c3f 5df4 963f ece1 29bf 047a 84be
00000320: 49f4 44bf bcf0 a7bf 9fd1 8fbf 5f35 3e3f
00000330: cf28 6b3f 638b 41bf ad4e 5ebf 2a35 c3be
00000340: 0efb 2abe 9cbe 08bf 5b70 e3bd 8a30 0a3f
00000350: 4b03 42be cca2 14be da5a 1bbf 2573 83be
00000360: d7a9 db3d 1ce8 9c3e db3f 103f 763a 40be
00000370: 0e81 443f e49c c2bd 34ca 083f 338e 543f
00000380: dd02 9a3f 18c9 6fbc f1f8 dabe dd79 c3be
00000390: e0cf 1f3f 5b69 86be f280 8dbe 3d9d 483e
000003a0: 5bc9 2f3f 4b52 183e aef4 4fbd 54df 06bf
000003b0: 47f5 89be ad97 22be ded4 70be 0488 2abf
000003c0: db00 4ebe 8765 863e d944 f2bd c58c 003f
000003d0: cf70 a1be eaa3 20bf 576b 75be 2bec 96be
000003e0: 8fa2 703e 6e92 933e ac92 ed3d 95f1 85be
000003f0: 6300 0bbd 709b c73e b297 e8be 3d2a 9e3d
0.19557698 0.2600758 0.47610563 -0.012253548 0.7883479 0.6145565 0.13991404 0.06866344
-0.437924 0.051511172 -0.9089834 0.22836787 0.06095787 -0.23632179 -0.027638817 -0.6755632
-0.92966205 0.15229887 0.7297906 0.10853839 -0.2844169 0.12954758 0.28393152 -0.3050126
0.098422416 -0.342936 0.05546741 0.014958955 -0.000116977404 -0.4410514 0.31495437 0.0041508772
-0.011828993 0.10143716 0.42270416 0.48300374 0.46163452 -0.7874152 0.24878216 -0.715421
-0.46758223 -0.28517133 0.17177464 0.48997387 0.32141042 -0.4446482 0.2201137 0.7002332
-0.49971482 -0.1976 0.75982666 -0.45646095 -0.88947666 -0.2574084 -0.33046514 0.2885414
0.45903635 0.3965206 -0.19303243 -0.34898314 -0.33315802 0.17347974 -0.31504443 -0.46942252
-0.66227305 0.22609212 -0.26033032 0.256411 -0.7771971 -0.41344655 -0.32075784 -0.010862494
0.2569034 0.3310211 0.14778672 -0.3143899 -0.1082437 0.11694633 -0.46165422 -0.22105932
-0.17241512 -0.07575221 -0.22012815 -0.35396674 -0.29827616 -0.45224404 -0.22925392 0.15518649
-0.11566204 0.2122082 -0.161022 -0.16120866 -0.29507262 0.62754655 -0.22841583 -0.5943409
-0.1286337 -0.26248205 0.031697407 -0.8290524 0.11376313 -0.044096578 0.033071063 -0.4898488
-0.06818722 -0.15785109 -0.1825952 0.22748303 -0.049068484 -0.1168928 0.45666978 -0.3481808
-0.16592878 0.07094091 0.4730273 0.25849575 0.472932 0.45713097 0.2779939 -0.34770823
-0.62804884 -0.30848998 0.08168212 -0.7129723 0.28413326 -0.0542341 0.22487102 0.50496894
0.32000807 -0.1192087 -0.53408056 -0.38123855 -0.38070923 -0.79198474 -0.25001055 -0.47225466
-0.8904119 0.26301435 -0.15716963 -0.590473 -0.35944688 0.22578625 -0.2277907 -0.6186099
-0.8727756 0.14498055 0.015653508 0.41647816 -0.27994236 0.75372964 0.2656532 0.10441778
-0.527323 -0.4322827 0.24840799 0.28415492 0.40746412 0.4639206 0.23914902 0.52519816
-0.34635627 -0.06129296 0.055938937 -0.9935609 -0.16720434 -0.014809938 -0.5894986 -0.33290306
-0.17116533 -0.22867714 0.008184025 0.20013514 -0.4803844 -0.16003157 0.4255717 -0.7783271
-0.38253912 0.019789165 -0.08385651 -1.0352657 -0.20842251 -0.0757052 0.069203675 -0.4391909
-0.007668641 0.12638184 0.09267112 0.07887724 -0.19244298 -0.107689045 0.13877043 -1.1025342
-0.72421485 2.1186872 1.0741998 0.34538114 0.79706293 1.1793324 -0.66360354 -0.2587434
-0.7693525 -1.3120341 -1.1235846 0.7430019 0.91859144 -0.7560331 -0.868388 -0.38126498
-0.16697332 -0.53415847 -0.111054145 0.53980315 -0.18946569 -0.14515227 -0.60685503 -0.25673786
0.10725754 0.30645835 0.56347436 -0.18772301 0.7675942 -0.09502581 0.5343354 0.8302948
1.2032124 -0.014635347 -0.42768052 -0.38178912 0.6242657 -0.26252255 -0.2763744 0.19591232
0.6866662 0.14875142 -0.050770454 -0.5268452 -0.26944944 -0.15878172 -0.23518702 -0.66613793
-0.20117514 0.26249334 -0.11829538 0.502148 -0.3153138 -0.62750113 -0.23966728 -0.29477057
0.23499511 0.28822654 0.11600241 -0.26160875 -0.033935916 0.38985777 -0.45428234 0.077229

layers.1.bias f4 [16]
00000000: 4186 3d3e 513a 8cbf 62c8 0bbd 81a7 14bf
00000010: 49d3 143e 6111 c63d d368 133f 5083 a8be
00000020: f0ab 23bb af79 42be a005 0c3f 45bf 843e
00000030: dd32 9b3e 8a33 95bd 70ca 5a3f b71f 793e
0.18508245 -1.0955297 -0.034126647 -0.5806809 0.14533724 0.096712835 0.57581824 -0.32912683
-0.002497431 -0.18991731 0.54696083 0.25927177 0.30312243 -0.07285221 0.85465145 0.24328505

final.linears.0.weight f4 [84, 42]
00000000: 1baa 2d3e e1cf bc3e e7d4 30bf cfda 35bf
00000010: 3382 1abf 564d 24bf 4321 a1be 7d03 e6bd
00000020: d8e1 1a3d cf7b 033e 6324 91be 9129 09bc
00000030: b513 f03d b6f4 9cbe e643 2e3e c8d0 13be
00000040: e9ae 9dbe 91b1 dcbd 1975 4ebe ffa5 c33e
00000050: c988 1abe 2f3c e8bd 3fbc 2b3e 5393 153e
00000060: 9078 3dbe 4b70 653d 0a71 4abd b478 0c3f
00000070: 8af8 1c3e 2af8 293e e9bb 313e 72ee a5bc
00000080: 2168 04be 7648 8cbd ee82 cbbd 6556 8cbe
00000090: 8ad8 a6bd 980e d0bd 98e6 843e 5a1b a3bd
000000a0: fc69 75be 3bc7 af3e c7ec f9bd 9f70 98be
000000b0: 830e 6e3d c966 363d f1ad 4abe 383b 89be
000000c0: cd34 093f e502 35bd aff6 07be 5448 93be
000000d0: 3598 713e 1782 b33e 5f61 483e 7165 b03e
000000e0: 49a4 e1bd 55c4 653d caf0 8e3e 7014 b43e
000000f0: 1757 b03e e693 85be 1461 8e3d 8ccb 063e
00000100: 91ca e23d 0608 aabd b7e9 1bbe d00b 883b
00000110: 3bab aabd 31e8 dabe 3bac 0bbe e335 5d3e
00000120: a8f0 9f3d 4645 7e3e 1a3d 2ebc 3728 cc3e
00000130: 8118 553e d729 9e3e 2640 483e ec65 c93e
00000140: 977a e5bc 0fba 1b3e 25d5 6f3d 5f94 d93d
00000150: fdaf 95be 4f38 34bd 57de 68bf afe5 0a3f
00000160: 1ffa 213f 7fc3 c43e f026 953d 7c80 b93e
00000170: 9830 9b3e b6a7 5c3d 699f b0bc 66ce d63d
00000180: 4cb3 0b3e dd70 02bd 3c52 2dbd 0a96 d4bc
00000190: c627 0bbd 4cfc b23d cd7d abbc 41f0 64bd
000001a0: 2c46 4dbe 6be2 10be b7e4 ac3c 0de0 29be
000001b0: 0caf 85bd 87c1 e7bd 3d1e bbbc c1de 593e
000001c0: 03dc 0fbc 36f4 d83e 4e0f 603c 9b62 283c
000001d0: c62b e3be 3621 683d 7eda d63b e480 743b
000001e0: 3a1d f7bd 278b ec3b 39e8 40bc 41cc 943d
000001f0: 884e 96bd 0abd 763d 9b4a acbe 1dee cabc
00000200: 8874 073f 1552 1b3f bd9c 013f 121c 2f3f
00000210: dcb3 3a3e 8038 c03d e8b2 17c0 0153 16be
00000220: c5d7 1abe 1365 903e 75be 103e 247a 60be
00000230: fcac 03be d1a8 3dbe 738b 253e 600e 8c3e
00000240: 667a 88be fc6e 5d3e e376 dc3d 86ca a6bd
00000250: c95b 553d 2e53 53be 35cf 0dbe fccf 16be
00000260: 6c0f 2ebe e4d3 823d 42fc 323c ca5a 263e
00000270: 32e4 603e 1711 a43d 3a5a 30be 82c4 f2bc
00000280: 1574 02be 6bed 973d f547 19bc 43db b53d
00000290: 8041 0d3d ba87 82bd 58e6 a2be 3425 843d
000002a0: 99d1 f93c 0f7e 7bbc 3d7c 45bf 9ed6 a6bf
000002b0: acba 043f 7917 093f 09e5 1c3d cf99 ab3e
000002c0: 88bc 2e3e 2b04 383d 891c a2bd 7542 e4bd
000002d0: d641 1fbd 03cd 9b3d e2f8 c53d a19e df3d
000002e0: ef2a b93b bd0c 40bd 5c5b 203d df62 0fbd
000002f0: c293 f3bd 356d a4be e0b3 babd fd31 c13d
00000300: 182e 1b3d acfc 9e3d fcc6 0a3e ba1b 093c
00000310: baac bcba 2845 2c3e c52a f8bd 3a49 0bbe
00000320: 8814 943e aa41 183e de7f 523c dae1 893e
00000330: 300c 23bd 9e10 85bd 6633 1b3e 779e cfbb
00000340: 4b92 113e b455 50be d197 5ebc f10b 5a3e
00000350: 6ea5 42bf 362a 9040 0416 31bf 10ef 08bf
00000360: 6830 bdbc 69b7 56be 6dd7 b9be 56d0 053d
00000370: d626 453e 2e93 6bbd a058 c5bd 2489 113e
00000380: b348 bd3c a547 583d e95c f03c 238b 59bd
00000390: 0801 a23d b3b1 90bd 0db1 203e 42b1 463e
000003a0: 0ee2 973c be44 c6bd 7ba0 0ebd eec0 20bb
000003b0: 2071 f33d 26d4 4ebe 5034 89bd ccd1 90be
000003c0: d3aa f3bd a470 9bbd 110e 423d c1c2 823c
000003d0: b865 4c3d 59bd d5bc 1dc4 393e e087 7dbd
000003e0: 695e 093e 51b4 783d 0c5c 9f3d 055b a63c
000003f0: e6bc 143f adfc b5bf 5fa2 f93d af79 363e
0.16959421 0.3687735 -0.69074863 -0.71037 -0.6035492 -0.64180505 -0.3147069 -0.11231134
0.037813038 0.12840198 -0.28348073 -0.008371727 0.11722509 -0.3065545 0.17018089 -0.14435112
-0.30797508 -0.107760556 -0.20161857 0.38212582 -0.15091242 -0.11339604 0.16771029 0.14606981
-0.18503022 0.056015294 -0.04942421 0.5487168 0.15329185 0.16598573 0.17356838 -0.020255301
-0.12930347 -0.06849758 -0.09937082 -0.27409664 -0.0814677 -0.101590335 0.2595718 -0.07964201
-0.23966211 0.34331688 -0.12203365 -0.29773423 0.05811931 0.044531617 -0.19792916 -0.26802993
0.5359619 -0.044192214 -0.13277696 -0.2876612 0.23593219 0.35060188 0.19568394 0.34452394
-0.11017663 0.05609544 0.27918082 0.35171843 0.34441444 -0.260894 0.0695211 0.13163584
0.11073793 -0.083023116 -0.15225874 0.004151799 -0.08333441 -0.42755273 -0.1363992 0.21602587
0.078095734 0.24831113 -0.010634685 0.39874431 0.20810129 0.30891296 0.1955572 0.39335573
-0.028012557 0.15207694 0.05855288 0.10624003 -0.2923583 -0.043999013 -0.90964264 0.5425672
0.6327228 0.38430402 0.07282817 0.36230838 0.30310512 0.05387088 -0.021560388 0.10488586
0.13642615 -0.031845916 -0.042314753 -0.02595045 -0.033973478 0.08739528 -0.02093401 -0.055893186
-0.200463 -0.14148872 0.021105153 -0.16589375 -0.06527528 -0.11316209 -0.022841567 0.2127638
-0.008780482 0.42373818 0.013675524 0.010277416 -0.44369334 0.056672297 0.006556808 0.003730827
-0.120661214 0.0072187367 -0.011774116 0.07265521 -0.073391974 0.060238875 -0.3365067 -0.024771744
0.5291219 0.6067212 0.5062979 0.68402207 0.18232673 0.093857765 -2.3702946 -0.14680101
-0.15121372 0.28202114 0.14135154 -0.21921593 -0.12858957 -0.1852143 0.16166477 0.27354717
-0.26655883 0.21624368 0.10764863 -0.08144097 0.052089486 -0.206372 -0.13848574 -0.14727777
-0.1699807 0.06388071 0.010924401 0.16245571 0.2196205 0.08011072 -0.17221919 -0.029634718
-0.12739594 0.07418331 -0.009355535 0.088797115 0.034486294 -0.06373544 -0.31816363 0.064524084
0.030495452 -0.015349879 -0.771427 -1.3034246 0.5184734 0.5355144 0.038304362 0.33515784
0.17064106 0.04492585 -0.07915599 -0.11145488 -0.038881145 0.07607462 0.09666611 0.10918928
0.00565087 -0.04688715 0.039149627 -0.0350064 -0.11893417 -0.32114568 -0.0911634 0.09433363
0.037885755 0.07763037 0.13552469 0.008368427 -0.0014394738 0.16823256 -0.12117533 -0.13602152
0.28921914 0.14868799 0.012847869 0.26930124 -0.039806545 -0.0649731 0.15156326 -0.006336029
0.14215963 -0.20345193 -0.013586001 0.21293618 -0.76033676 4.5051527 -0.6917422 -0.5348978
-0.023094371 -0.20968403 -0.3629717 0.032669388 0.19253096 -0.05751341 -0.096360445 0.14212471
0.023105955 0.0528027 0.029341178 -0.053111207 0.07910353 -0.070651434 0.1569254 0.19403556
0.018540408 -0.0968108 -0.034821015 -0.0024529058 0.11886811 -0.20198116 -0.06699431 -0.28285062
-0.118978165 -0.07589844 0.047376696 0.015962007 0.049901694 -0.026091265 0.18141218 -0.06189716
0.13414921 0.060718838 0.077812284 0.020307073 0.58100736 -1.4217736 0.12189173 0.17819856

final.linears.0.bias f4 [84]
00000000: 7a2d 4f3f cf2e c13e 4b1c 67be 7d68 f53e
00000010: 7159 773e d8bf ad3d d741 d13e d485 383d
00000020: 7cb3 f4bd 84e8 b83e 2e67 783d 56db 803e
00000030: 394f b53d 19e4 0e3f 7a45 273f 4e0d 493c
00000040: 5b25 c33d 2ebf 9ebe b8ba e1bd 8cd8 3c3e
00000050: b4d8 86bd 3a76 0f3e d716 3d3e 831c dc3e
00000060: 3c8d 4c3e ad37 133d 5027 613b f3a2 3dbe
00000070: eef6 ad3e df25 853e 195f d3bd 5f9b e1bd
00000080: 4224 b73d 2941 193f b747 7e3d 015b 9e3d
00000090: 6c6e a83e 12fe 46bd b8bd 32be a2e8 903e
000000a0: e17c 96be 9d26 b03e 5d03 f13d b056 e63c
000000b0: 2c44 d03c 0c51 be3e 45c7 d93e 12c2 583f
000000c0: ee6e aa3e a4d1 52bd 6109 0abf 703e f33e
000000d0: f3e6 4fbe 7d39 113c 8fed af3e 68f9 b43e
000000e0: 18d9 c43e cb60 e73c 01a3 fdbe 5af4 1b3f
000000f0: bb29 363e 25ae 8d3e 425a 71be db56 a4bb
00000100: ee0c ff3e c94f f3bc 375b 673e efe3 663e
00000110: ba16 eebe 501e 41be e8f0 563d 7a10 a63e
00000120: cd24 b53e 339b 893e 808f 273f dabf 863e
00000130: 7b07 743e 0968 b73c fd69 85be a74d 923e
00000140: 7f71 2abf 44b5 e6ba 6579 9e3e 6b8d 6f3e
0.80928767 0.37731025 -0.22569387 0.4793128 0.24155213 0.08483857 0.40870544 0.045049503
-0.119482964 0.36114895 0.060645275 0.2516734 0.08853001 0.558168 0.6534039 0.0122712385
0.09528609 -0.31005234 -0.11021942 0.18441981 -0.065843016 0.14009944 0.18465744 0.42990503
0.19975752 0.03594177 0.0034355707 -0.18519191 0.33977455 0.26005456 -0.10320873 -0.11015963
0.089424625 0.5986505 0.06208011 0.07732201 0.32896745 -0.048582144 -0.17455184 0.28302485
-0.2939215 0.3440446 0.117682196 0.028117508 0.025423132 0.3717121 0.42534843 0.8467113
0.33287758 -0.05146946 -0.5392056 0.47508574 -0.20302944 0.008863804 0.3436093 0.35346532
0.3844688 0.028244397 -0.49538425 0.60919726 0.17789356 0.27671924 -0.23569587 -0.005015237
0.49814552 -0.02970113 0.2259339 0.22547887 -0.46501714 -0.1885922 0.05247584 0.32434446
0.3537964 0.2687622 0.6545334 0.26318246 0.23830979 0.022388475 -0.26057425 0.2857487
-0.6657943 -0.0017601629 0.30951992 0.2339379

final.linears.1.weight f4 [84, 84]
00000000: e033 f4be 08ac c3be 235e 183e 9e9a fabe
00000010: 5ba6 393d 1f59 f2bf 72a7 e5be 2a8f 93be
00000020: 3b0d 72bc 4d60 59be 57be 96bc 4d81 74bd
00000030: 9096 9cbe f536 b2be 27f3 f4be 04ea babe
00000040: 1afb 88bc c53f ac3d 93d7 233f 68f4 c6be
00000050: ad80 0cbe 4ae3 9bbe 4509 b2be 6421 cdbd
00000060: 456b 03bf 1085 acbe ab05 bbbe bfbc 233e
00000070: bddc a9be 5ee5 13bf f910 32be 5687 14be
00000080: 65c1 a1be 5244 60be 827a 01bd f002 b5bd
00000090: a6cb a3be 7c39 2a3e c256 933c 2044 30be
000000a0: aae1 5cbe 71fa 2dbe 9e65 5dbd 73f0 1dbf
000000b0: 2ea5 06be b3ac a7be 6752 85be 93ef c7be
000000c0: 9a42 cabe 65c8 f5bd 4bc9 6e3e 0f49 b3be
000000d0: c08a 51be 0e49 d7be c7a6 fabe 5f29 43be
000000e0: 0578 93be a805 c9be 3edf debd 6083 dbbd
000000f0: f23b 11bf 9b41 8e3d c88a 97be fa7e 61be
00000100: 95db 58be 2062 2bbe 1a64 e7be fe34 edbd
00000110: 1af9 fb3d 9b59 3d3f 1ff9 11bd 01aa 3dbe
00000120: 99e1 0fbf 02f5 90be 00d9 b0be a81e c1be
00000130: 4b5a 26bf 9043 d1be 8920 563e fb64 fabe
00000140: 0adf 3a3d f037 35be db7a 8abf 0776 54be
00000150: 530e bebe 1893 9fbe a255 0e3e 1955 1cbf
00000160: 2dda a4bd defc 03bf c021 dabe bf2a 77be
00000170: 9e5e f7bd 6d6a 61be 7029 f8bd 0eae a5bd
00000180: 8609 97be 5105 5ebe 0f2f 8fbe 993b 03bf
00000190: f22b d6bd 75b7 6b3d d6af 913d 6143 f5be
000001a0: 586c 9abe 9eb0 a6be 96c5 85be 672f 8dbe
000001b0: 20ff 4abf 3e59 86be bec3 b5bd f767 babb
000001c0: 821f 73be f5af f8be fc6b 5bbe b687 d7bc
000001d0: 86e2 9abe 7f6c e7be 5500 853c 96b4 3abe
000001e0: d72c e3be 80d9 2a3e e28a 91bc 7915 73be
000001f0: d3b3 a1be 5b16 57be 22dc ffbd 85b0 00bf
00000200: 1465 08bd aed8 98be 0b36 b6be 92ff 7bbe
00000210: 8637 2dbe 6008 2dbd 63a6 693d 9867 76be
00000220: d0f8 14be 50c4 e3be d55a 1dbf 581d 49be
00000230: abf8 48bd a9db 65be 6a43 47bd cb3e 0bbe
00000240: ef16 07c0 7f25 cabd 7e91 79be fb7e 0cbe
00000250: af27 83be cde7 42be f08c 0abf c7d1 61bd
00000260: 9eb2 d93e e43e c93e 2437 a7be 4477 dfbd
00000270: b62f 03bf 2797 a3be 5be2 87be b5fa f0be
00000280: 97a2 6abf 0122 f7be 9bf9 7abd 4b1d 01bf
00000290: 0442 bd3e 6097 85be 5c75 37be 374d 86be
000002a0: e14e 3ebe a3bd c23d b250 583e 26a7 863d
000002b0: 24b4 a13d 36a2 05be e919 13be 51e5 973d
000002c0: f9c8 88be fec5 12be 762d abbc 5a57 08be
000002d0: 3a16 d83d f2b4 e5bd c406 66be 9357 38be
000002e0: 067f 96bd 1d42 c2bd 90d9 c03c 5a97 13bc
000002f0: 7057 20be efeb edbd a7a3 aabd 0bc8 8dbe
00000300: d9ae 13be cbd4 39be be87 243d 41a2 72be
00000310: 78ae f8bd 0b66 dabd 0896 20be 63ff fbbd
00000320: 336f 93bd 0cfd 8ebf 4896 a63d 0863 61bd
00000330: ebad 33bd 12d9 a63c c9ee 1f3d a96f de3b
00000340: d8e0 56bd 77e9 5ebe 1e6c b4bd 5416 06be
00000350: d7e2 ae3d 4447 8bbe 6f65 88be cb69 5fbd
00000360: c72b d7bd 44dc 2e3e 1706 30be 397d 57bd
00000370: 1dc6 afbd 9a45 69bd d23b c0bd e992 fb3d
00000380: e7d9 60be 2188 28be e071 0f3e 7577 43bd
00000390: f860 a8bd 90a6 f6bc 25d1 d8bd fb58 15be
000003a0: fce9 20be 6b79 24be aac4 3cbe 1c06 eabc
000003b0: cf6e 3b3e a92a 2c3e 78b1 0a3e 390f b9bd
000003c0: e77d 92bd 462e dcbd e7fb 5e3e 4f4d 87be
000003d0: 9075 2ebe 66af e9bc 4cc1 563d 79a7 62be
000003e0: a3ad 963d b91e 28bd 90d9 2bbe eb48 39be
000003f0: e6f5 793d 03c3 81bc 16b4 d93b ab68 0d3d
-0.47695827 -0.38217187 0.1487966 -0.4894609 0.045324665 -1.8933448 -0.44854313 -0.28820163
-0.014773662 -0.21228142 -0.018401308 -0.059693623 -0.3058362 -0.34807554 -0.4784176 -0.36506665
-0.016721297 0.084106006 0.64000815 -0.38858342 -0.13720961 -0.30446845 -0.34772697 -0.100161344
-0.51335555 -0.3369527 -0.36527762 0.1598997 -0.33176222 -0.5777186 -0.17389287 -0.14504752
-0.3159286 -0.21901062 -0.031610973 -0.08838451 -0.3199131 0.16623491 0.017985705 -0.17213488
-0.21570459 -0.16990067 -0.054051988 -0.6169502 -0.13148949 -0.32748947 -0.2603943 -0.39049968
-0.39503938 -0.12001113 0.23318975 -0.35016677 -0.20463085 -0.42047924 -0.48955366 -0.1905875
-0.28802505 -0.39262128 -0.10882424 -0.10718417 -0.56732094 0.06946107 -0.2959807 -0.22021094
-0.21177514 -0.1673665 -0.4519356 -0.11582373 0.12303372 0.7396485 -0.03563797 -0.18521883
-0.5620361 -0.28311926 -0.34540558 -0.377187 -0.64981526 -0.4087186 0.20910849 -0.48905167
0.045622863 -0.1769712 -1.0818743 -0.20748149 -0.37120304 -0.3116691 0.13899854 -0.6106735
-0.08049426 -0.5155772 -0.42603874 -0.241374 -0.12078594 -0.22013254 -0.121172786 -0.08089839
-0.29499453 -0.21681716 -0.2796559 -0.51262814 -0.10457601 0.057548005 0.07113616 -0.4790297
-0.30160785 -0.32556623 -0.2612731 -0.27575228 -0.7929554 -0.2623996 -0.088752255 -0.005688663
-0.23742488 -0.48571745 -0.21427912 -0.02630983 -0.3025095 -0.45199963 0.01623551 -0.1823295
-0.44370148 0.16684532 -0.01776642 -0.2373866 -0.31582507 -0.21004622 -0.12493159 -0.5026935
-0.03329952 -0.29852813 -0.35588107 -0.24609211 -0.16915712 -0.042244315 0.057043444 -0.24062955
-0.1454804 -0.44485712 -0.61466724 -0.196401 -0.049065273 -0.22447075 -0.048648275 -0.13598172
-2.1107748 -0.09870433 -0.24371907 -0.13720314 -0.25616214 -0.19033737 -0.54121304 -0.0551317
0.42519087 0.39305794 -0.32659256 -0.1091142 -0.51244676 -0.31951258 -0.26539883 -0.47066274
-0.9165434 -0.4826813 -0.0612732 -0.5043532 0.36964428 -0.26092052 -0.17915863 -0.26230785
-0.18584777 0.095088266 0.21124533 0.0657485 0.07895687 -0.1305016 -0.14365353 0.074167855
-0.2671583 -0.1433334 -0.0208957 -0.13314572 0.105511144 -0.11216153 -0.22463518 -0.18002157
-0.073484465 -0.09485266 0.023541242 -0.009008253 -0.15658355 -0.116172664 -0.083319955 -0.27691683
-0.14422168 -0.1814758 0.040168516 -0.23694707 -0.12142652 -0.106639944 -0.15682232 -0.123045705
-0.07198944 -1.1170974 0.081341326 -0.055026084 -0.043867033 0.020367179 0.039046083 0.0067882133
-0.05246052 -0.21768747 -0.08809684 -0.13094455 0.0853936 -0.2720281 -0.26639888 -0.05454425
-0.10506397 0.17076212 -0.17189823 -0.052609656 -0.08582709 -0.056951143 -0.0938641 0.1228388
-0.21958123 -0.16458179 0.14008284 -0.047721345 -0.0822162 -0.03010872 -0.10586766 -0.14584725
-0.15714258 -0.16061942 -0.18434396 -0.028567366 0.18303989 0.16813149 0.13544261 -0.090361066
-0.0715292 -0.107510135 0.2177578 -0.2642617 -0.17037034 -0.02852602 0.052430436 -0.22134198
0.07357337 -0.041044924 -0.16782212 -0.18094222 0.061025523 -0.01584006 0.0066437824 0.034523647

final.linears.1.bias f4 [84]
00000000: 5fc2 e9be 5248 a2be a2e8 b9be dae1 253b
00000010: 7fe5 3d3c 7c13 d0bd 0741 eebd b565 56bd
00000020: f705 43bd df43 debe d6ae 79be a5b0 debc
00000030: 0176 2fbe d809 043e a77b c8bd 0960 fa3e
00000040: 8cd4 0abe b7f7 0bbf 50ff 14be 6aa3 01bf
00000050: e2cf 91be 5b99 20be a1cd d6bd 468c 23be
00000060: fee3 49be 78af f73e 2340 63be 6af3 4bbe
00000070: e4cf 1ebf 5a33 c63d 8cf2 53be a9fa 02be
00000080: ff64 3cbc 4985 8ebe a6e0 19be 00b5 1dbe
00000090: 53e0 93be a770 8bbe 19d5 803e 7687 ba3e
000000a0: 8d3a aabe 1798 d1bc 8bc1 2fbe 8bf7 89bd
000000b0: bf1b 4fbe 0145 8b3d ccbd 893d 48ef 833c
000000c0: 1adf 7f3e 92b2 c6be 13da a4be 5ade f4bd
000000d0: 81dc e0bd 957f 56be bb68 0ebe 8c28 373e
000000e0: b3ee 073e f747 a7bd 536e b4be cc9b 13be
000000f0: ea55 2fbe 01f1 8cbe 1e80 a8be 9624 f6bd
00000100: 94a5 3d3e 4f55 21be b090 a5bc fe66 e43e
00000110: 0390 013d 4f26 3dbe 1a01 7bbe f357 93ba
00000120: 91e5 89be 4de3 80be 6f7a 1dbe bb8a 86be
00000130: 05d5 9cbd ea7f 093e 9c09 67be 7e52 13be
00000140: a85b b5bd bebb 08be af60 1ebe 47a1 493e
-0.45656106 -0.316958 -0.36310297 0.002531162 0.011590361 -0.10159966 -0.11633497 -0.05234309
-0.04761311 -0.43411157 -0.24383101 -0.02718384 -0.17134859 0.1289438 -0.0978921 0.48901394
-0.13557643 -0.5467486 -0.14550519 -0.50639975 -0.28478914 -0.156835 -0.10488439 -0.15971479
-0.19715878 0.4837606 -0.22192435 -0.19917074 -0.62035966 0.09677763 -0.20697993 -0.12790932
-0.011498689 -0.27836064 -0.15027103 -0.15401077 -0.28882083 -0.27234384 0.2516258 0.36431473
-0.33247796 -0.025585217 -0.17163675 -0.06736668 -0.20225428 0.06800271 0.06725654 0.01610531
0.2498745 -0.38808113 -0.32197627 -0.11956473 -0.10979558 -0.20947106 -0.13907139 0.17886561
0.1327465 -0.08168023 -0.3524042 -0.144149 -0.17122617 -0.2752762 -0.32910246 -0.12018697
0.18520194 -0.15755199 -0.020210594 0.44609827 0.03163148 -0.18471645 -0.24512139 -0.0011241421
-0.26932958 -0.25173417 -0.15378736 -0.26277718 -0.07657818 0.13427702 -0.2256226 -0.14386937
-0.08855373 -0.13352868 -0.1546657 0.19690429

final.linears.2.weight f4 [10, 84]
00000000: 50c4 8d3c e594 debe a845 1dbd bdb1 b03e
00000010: 54b8 e3bb 8c25 883e 86fa eabe ffab fd3c
00000020: 2e9a 903c 34c9 5ebc 0995 f1be 0e97 683a
00000030: a3fa c93e 15dd 8dbc 1992 613d 64a9 9dbc
00000040: bb67 ad3e 6048 afbb 7cea 213e db2a d2bb
00000050: b89b 0abf 77e5 c73c 6a41 5abc c45a e83c
00000060: 1841 113f fe6b 353a e28e 423d 4b37 1f3c
00000070: 2ed7 273c 5e4c 863d 1fd8 2cbf df9a 0f3c
00000080: 9330 56bd 560b 4ebd 5b31 f3bb b88a 053f
00000090: f30f 04bc e756 183b 388c 493b ee82 1b3a
000000a0: 6c5d 4a3e 56e4 c5be 4efc 71be 4145 603d
000000b0: 4e0e 903e 1685 40bd 74ce 643d 9208 36be
000000c0: 2212 17bb ffac 283e c63a 18bf 0b40 363a
000000d0: 37b6 073e d41f 363f ea87 e1bc dcc1 3b3c
000000e0: 3e63 5b39 f079 0dbf f59b 413f e7e0 0cbc
000000f0: 0049 2e3d 136b d0be 101d d73e 2e79 56bc
00000100: c397 853c a756 6a3e 6b12 ac3a a9b4 28bc
00000110: 6aaa 513c f8df 0fbd f9f5 72bf fd92 463b
00000120: cae9 473d da82 803d 5606 e43c 3885 ba3c
00000130: e398 21bd 6ead 34bd ea63 0b3d 2ec0 d23c
00000140: cdb8 d63c 6356 e4bc 149f 1b3e 636c 8bbb
00000150: 8c2e 7c3a 53b0 d7be 0737 a3bd 0193 813e
00000160: b2f4 d43c 2707 e9be 9e1e ea3e 002b 763c
00000170: 713e f23c 95a4 a9bc 6c03 a3be 78c0 563b
00000180: 7213 023f b3b9 aa3c c178 a9bd 3f2f 843b
00000190: 1d2d b3be cb1d 523c 6dfa f23d 0ed8 3b3b
000001a0: 5850 4bbe a4d6 f93d 8c5b a2bd c108 923e
000001b0: 0e3a c9be 0398 0b3d 93f8 1b3c b374 94bd
000001c0: fb57 1fbb 326b 19bd 436e 4a3e 6728 393c
000001d0: 4a39 713d 409f e0bd 2707 bd3c 1b7b 9f3e
000001e0: a8e9 403c b9db 64bd cd69 d2bb df28 0c3d
000001f0: ec44 5e3f a9de cb3e 53eb c0be b81e 9ebd
00000200: 6c26 133e ebbe 363e 3e11 5f3c 59c5 63be
00000210: afaf 63bc 5286 9c3d 468f 223f 31e6 6c3c
00000220: eec3 9fbd 22c2 293f 6f6d 233d 24e7 c8bc
00000230: 1a0f 553b 901c 1d3f f076 92bf e365 393a
00000240: d131 b2bc 5422 8ebe be20 273d c4c1 243c
00000250: 7401 07bc 37f3 553e d844 b0bc 2990 393b
00000260: 4291 f1ba 3ebc 1f3e 4209 25bf 72b0 abbc
00000270: 5060 7dba 3c5f 95bd da1b 46bd 935b 3abc
00000280: 5905 883b 27e6 e0bd 1181 33be 2943 a9bd
00000290: c54f 61bd 8d84 41be 3063 4d3e dd55 07bc
000002a0: 6d09 343f 8405 443c 4691 a03e d684 83bb
000002b0: f97e 383d 1712 8ebf ee75 7bbf 4082 7fbd
000002c0: b82e 73bc a36f a43e 4a1a 4b3e 89dd 793e
000002d0: a1de aebe cb7e 97be 4ff7 2ebb 774a 26be
000002e0: 41e0 503b 2372 e63f fa86 403d a08c 013f
000002f0: 1e49 81bd 338c a43c 8035 14bf d8be 9e3d
00000300: d2fb 143d fc6f eebc 0fe5 983d 45c9 bd3d
00000310: 2eb2 9fbf 7bf2 dfbe a52e c639 d884 393d
00000320: a909 213c dd49 a23c ea43 0d3d 257b b93a
00000330: 4586 78be 1684 4a3f d5b9 50bf f98b e03d
00000340: af96 653c da89 51bc 4b02 c33c 4b8a afbb
00000350: 4d2d 123d bc76 c53c 0eb5 b33e e481 153c
00000360: 4cc4 923f dbc0 fc3e 7ff4 c73e e88d 1bbf
00000370: 34d9 4bba 6ada 0bbe 6e35 9f3e bb75 c3bd
00000380: 47b0 a43e 7f37 04bd 4353 8e3e d42b ba3d
00000390: 0b70 90be 1cc4 d9bc 4a04 2c3e ded9 f9bb
000003a0: 13e2 6bbe 31ee 0dbd f3b7 8c3d 6c19 54be
000003b0: 4d22 3d3e d41e bdbb 0fb2 6cbd 760f f33c
000003c0: 020f 233d d0aa e83c 066c 8ebe 2b2e 943e
000003d0: 6563 7e3e c69a c9bc 84b1 443d 761a c9bd
000003e0: f0ff 8bbe 5525 f23d e6c1 82bc 78a9 183b
000003f0: 7a72 92bf e8e7 7c3d 6f8c 823e 69df a23b
0.017305523 -0.43472973 -0.038396508 0.34510604 -0.006949464 0.26591146 -0.4589426 0.030965803
0.017651644 -0.013597775 -0.47184017 0.00088726066 0.39449033 -0.017317334 0.05507097 -0.01924581
0.33868203 -0.005349204 0.15812105 -0.0064138 -0.5414386 0.02440141 -0.01332126 0.028363593
0.5673995 0.0006920694 0.047499545 0.009717773 0.010244174 0.06557535 -0.67517275 0.0087649515
-0.052292418 -0.05030378 -0.007421655 0.52164793 -0.008060443 0.0023245157 0.0030753743 0.0005932291
0.197622 -0.3865077 -0.23631403 0.054753546 0.28135914 -0.04700192 0.05586095 -0.17776707
-0.002305158 0.16472243 -0.5946468 0.0006952292 0.13253103 0.71142316 -0.02753063 0.011459794
0.00020922438 -0.55264187 0.75628597 -0.008598543 0.042550087 -0.4070669 0.4201436 -0.013090415
0.016307717 0.22884618 0.0013128048 -0.010296979 0.012796978 -0.035125703 -0.94906574 0.0030300014
0.048806943 0.06274958 0.027835052 0.022768602 -0.039452445 -0.044110708 0.034030832 0.025726404
0.026211167 -0.027873224 0.15197402 -0.004254864 0.0009619973 -0.42126712 -0.0796948 0.25307468
0.025995586 -0.4551327 0.45726484 0.0150249 0.02957079 -0.020708362 -0.31838548 0.003276853
0.5081092 0.020840501 -0.08274985 0.0040339525 -0.34995356 0.012824486 0.11864171 0.0028662714
-0.19854867 0.121991426 -0.079276174 0.28522304 -0.39302105 0.034080517 0.009519714 -0.07248821
-0.0024313915 -0.037455745 0.19768624 0.011301137 0.058892526 -0.109678745 0.0230747 0.3114861
0.011774458 -0.055873606 -0.006421304 0.034218665 0.86823916 0.39818314 -0.37679538 -0.07720703
0.14370126 0.17846267 0.013614951 -0.22243251 -0.013896867 0.07642807 0.6349987 0.014459179
-0.078010425 0.6631185 0.039899286 -0.024524279 0.0032510222 0.6137171 -1.1442547 0.0007072372
-0.02175227 -0.27760565 0.04080271 0.010055963 -0.008240093 0.2089356 -0.021517202 0.0028314686
-0.0018430131 0.15599152 -0.6446725 -0.02095816 -0.0009665536 -0.07293555 -0.048366405 -0.011374372
0.004151028 -0.10981398 -0.17529704 -0.08264763 -0.055007715 -0.1889822 0.20057368 -0.0082602175
0.7032688 0.011964206 0.31360835 -0.004013638 0.045042966 -1.109927 -0.9822682 -0.062380075
-0.014842682 0.32116422 0.19834247 0.24400915 -0.34154227 -0.29588923 -0.00266977 -0.16239344
0.0031871947 1.8003582 0.047003724 0.506052 -0.06312774 0.020086383 -0.57894135 0.07751244
0.036372967 -0.029106133 0.074655645 0.09266905 -1.2476251 -0.43739685 0.00037800256 0.045292705
0.009828963 0.019810611 0.034488596 0.001415108 -0.2426997 0.791078 -0.8153356 0.10964198
0.014012977 -0.012789214 0.023804804 -0.005357062 0.035687733 0.024104469 0.3509907 0.009125207
1.1466155 0.49365887 0.39053723 -0.60763407 -0.0007776201 -0.13657537 0.3109545 -0.0954394
0.3216574 -0.032279488 0.277979 0.09090391 -0.28210482 -0.02658277 0.16798511 -0.0076248487
-0.23035459 -0.034650985 0.06871023 -0.20712823 0.18470116 -0.0057714973 -0.057786997 0.029670458
0.039809234 0.028401762 -0.2781679 0.28941473 0.24842604 -0.024609935 0.048020855 -0.098195
-0.27343702 0.11823527 -0.015961599 0.002329437 -1.1441185 0.0617446 0.25497767 0.00497048

final.linears.2.bias f4 [10]
00000000: ec39 5c3c dea6 473c ddee 223d 8fe9 16be
00000010: aa48 83be b31d 44be 9d15 ebbc 38e4 c7bd
00000020: dda4 f8bd 9236 223d
0.013441544 0.01218578 0.03977858 -0.14737533 -0.25641376 -0.19151954 -0.02869683 -0.09760326
-0.1214082 0.039602824

layers.0.attn.0.gnn_q.weight f4 [10, 16]
00000000: 08fb 8c87 65e1 7188 1103 4088 0c95 a187
00000010: 003b 3e88 dc1a 5105 a7b4 5a88 d249 c308
00000020: d74a ab08 7b56 3607 5fb2 9308 3e46 5987
00000030: 9b42 9808 97dc fa07 851e ef07 cb9c e407
00000040: 95b2 9f87 3c8b 2908 f86e c985 2c91 0288
00000050: a72f 1f88 8a4e c108 d4bf 2408 ad7f c288
00000060: 5d7b 4388 6117 bf87 2e7a b188 0c43 e887
00000070: fa72 6707 5e5c 2e88 2d62 af08 aa27 c388
00000080: 0207 1a88 7750 5e88 8b9b c307 3643 f287
00000090: fda6 a807 4049 c308 00fb 9d88 62d1 8b08
000000a0: 3c00 8d87 c930 2408 8ce9 1e87 9aed 8808
000000b0: d5f5 5007 598b 6b08 778b 0808 02d0 fb86
000000c0: b2bb a487 e80d 5d88 2c08 cb87 0246 c288
000000d0: 9923 8587 75d2 1188 2790 2208 23be 9f08
000000e0: bcbd 8188 d0eb cc87 3ad4 7a87 d5f2 5d07
000000f0: 1861 8987 88e4 7604 199b 9c88 0af9 6788
00000100: 27e2 ca06 8d3c a586 ebc6 c288 a015 6508
00000110: a746 c308 1090 c108 ff7e 4188 5a24 2b88
00000120: 64bb 9408 3948 e107 e042 6e08 bb63 3988
00000130: cdaa 4488 ce4b 8107 f124 9b08 e313 4808
00000140: 5a74 6b87 8c9a be87 6c4b c208 f6e6 f487
00000150: 1abe 9188 e859 a108 5ad6 8688 7377 4508
00000160: 5c18 9188 3560 c188 14b7 5c87 fc2c 7388
00000170: c292 e606 f5bd c008 763e a788 e12b 8688
00000180: 9be5 c108 50e0 8684 e07a bb08 edcc c088
00000190: 7783 bf08 4f62 c008 70b4 3f87 8dde 0288
000001a0: 62c8 c188 7b35 1508 87bc d987 fa05 4e08
000001b0: c47c b007 1cd0 7888 67dd 9688 2854 c087
000001c0: 1833 0588 9022 8a08 6610 5187 e3b4 4888
000001d0: 5459 7a88 7933 c308 76eb 1288 947a 3d88
000001e0: 1328 9588 a69b c108 561c 2108 e2fb 9207
000001f0: 09dc 2108 b809 f187 a122 8008 da0e 6486
00000200: c416 c288 a8e2 a687 88ea c208 cf36 0c08
00000210: 7d9b 2c87 06ed 7e08 3ea9 7e88 e357 7706
00000220: 6a7d c188 91d0 cc07 a4ba 8f87 5f4d 9e06
00000230: cf1b 2688 87c2 fe07 14f5 8888 e6e1 1785
00000240: eeaf 5788 6fec 5308 9118 8a88 36b8 2b05
00000250: 41a7 4c08 5621 8588 0861 b388 477b 0d08
00000260: 7ed0 0487 6e07 cb87 85c9 a807 bba9 2708
00000270: 5524 ca07 8b4b c088 4ae1 c108 d64e 3b08
-2.1212402e-34 -7.278825e-34 -5.7781503e-34 -2.431219e-34 -5.72454e-34 9.832066e-36 -6.5814345e-34 1.1753491e-33
1.0309283e-33 1.3717573e-34 8.8891755e-34 -1.6345908e-34 9.163826e-34 3.774547e-34 3.597866e-34 3.4397782e-34
-2.4028622e-34 5.1020257e-34 -1.8942713e-35 -3.92911e-34 -4.7903337e-34 1.1634229e-33 4.9577448e-34 -1.1705967e-33
-5.882569e-34 -2.8752227e-34 -1.0681524e-33 -3.4946887e-34 1.7412297e-34 -5.2469797e-34 1.055551e-33 -1.1745461e-33
-4.6350927e-34 -6.690028e-34 2.943176e-34 -3.6451616e-34 2.5375977e-34 1.1753357e-33 -9.508104e-34 8.414984e-34
-2.121546e-34 4.94093e-34 -1.1955232e-34 8.241062e-34 1.5720424e-34 7.0881543e-34 4.108995e-34 -9.4721346e-35
-2.4786295e-34 -6.6521115e-34 -3.0548848e-34 -1.1692409e-33 -2.0032538e-34 -4.388174e-34 4.891955e-34 9.614165e-34
-7.808511e-34 -3.0833107e-34 -1.8870277e-34 1.6697554e-34 -2.0670536e-34 2.9022097e-36 -9.425372e-34 -6.980678e-34
7.6316256e-35 -6.2155073e-35 -1.1722716e-33 6.89376e-34 1.1752746e-33 1.1649634e-33 -5.822811e-34 -5.150117e-34
8.951481e-34 3.3896686e-34 7.169913e-34 -5.5788645e-34 -5.918238e-34 1.9454317e-34 9.337408e-34 6.0208687e-34
-1.7713628e-34 -2.8678857e-34 1.1693682e-33 -3.6848786e-34 -8.771563e-34 9.710972e-34 -8.115225e-34 5.9422943e-34
-8.732597e-34 -1.1638383e-33 -1.6604762e-34 -7.317803e-34 8.6732025e-35 1.1600238e-33 -1.0065631e-33 -8.0751475e-34
1.1669745e-33 -3.1709247e-36 1.1283541e-33 -1.16037575e-33 1.1526302e-33 1.1578692e-33 -1.4422269e-34 -3.938206e-34
-1.1662875e-33 4.4900923e-34 -3.2761338e-34 6.1997896e-34 2.6554867e-34 -7.4874417e-34 -9.079848e-34 -2.8938412e-34
-4.008329e-34 8.3136985e-34 -1.5728232e-34 -6.039794e-34 -7.5336643e-34 1.1748237e-33 -4.421206e-34 -5.701921e-34
-8.977033e-34 1.1652358e-33 4.8482484e-34 2.2115682e-34 4.8707825e-34 -3.6267362e-34 7.711861e-34 -4.2892945e-35
-1.16813025e-33 -2.511012e-34 1.1731088e-33 4.2194145e-34 -1.2985536e-34 7.6713964e-34 -7.663429e-34 4.6520106e-35
-1.164525e-33 3.0817093e-34 -2.1625946e-34 5.954668e-35 -4.9986497e-34 3.8332005e-34 -8.24282e-34 -7.141477e-36
-6.4906013e-34 6.377343e-34 -8.311348e-34 8.0742156e-36 6.1585623e-34 -8.012484e-34 -1.0795983e-33 4.2575556e-34
-9.991847e-35 -3.0548412e-34 2.5396273e-34 5.045425e-34 3.0414936e-34 -1.157334e-33 1.166873e-33 5.6365937e-34

layers.0.attn.0.gnn_q.bias f4 [16]
00000000: 10c5 8a07 10ad 5f87 b88b 6207 d540 7408
00000010: acbe 7e88 52da 5487 e931 6688 3b78 2f07
00000020: 28b8 4808 a89f 7a08 e77b e887 551f 1b86
00000030: 542f 1908 eea5 6108 7097 9988 ae16 8988
2.0879755e-34 -1.6827514e-34 1.704341e-34 7.350229e-34 -7.665948e-34 -1.6013266e-34 -6.9271776e-34 1.3200869e-34
6.0401785e-34 7.5419313e-34 -3.4980303e-34 -2.917528e-35 4.6097397e-34 6.7903524e-34 -9.243955e-34 -8.25072e-34

layers.0.attn.0.gnn_k.weight f4 [10, 16]
00000000: 9a31 8707 2a0e 5407 07fa ed86 3716 a907
00000010: fb1d b888 4797 b508 2fa8 3b07 344f 6708
00000020: c2fc 8187 217d 4488 e9f0 c008 c385 6b08
00000030: 3e5c be07 10e6 c288 ce87 7608 afb8 bf88
00000040: 24c6 ab87 5b44 be08 6f87 b887 ccc0 4408
00000050: 76f4 ab07 041e b707 e5d5 4207 b583 0208
00000060: 3b97 c188 7ba5 3488 c917 9d87 25e3 7e08
00000070: d3fc 0188 a8b2 9887 82b5 8208 9d3a c288
00000080: b7a9 6788 c2ed 1b88 da3b ba08 05a5 aa88
00000090: 7b7c 3b88 5a8f 8e88 57f3 f107 b227 7106
000000a0: 7c71 6d87 da13 2108 291a 3307 8fea 7d08
000000b0: 04c8 2d87 a4e3 fc07 035a e705 c93b 8608
000000c0: f9d4 7508 9a7f a108 b216 4d88 c944 8008
000000d0: 2415 c907 78d3 c008 ce49 a605 cde1 7b08
000000e0: 5f41 d887 4cc8 8808 c2b2 7008 3c7a 9c08
000000f0: 2155 f106 d764 0708 b826 2788 cf95 9a87
00000100: 695d c208 ab39 c208 48f3 2f88 d9cf 2c06
00000110: db63 9687 b633 3f08 9549 c308 a876 9007
00000120: 8dfc bd08 687c 7c84 188a 7708 3f4c 8787
00000130: 7118 0388 94ef 4508 ee90 e287 9509 7508
00000140: 616e b488 b3d7 8908 01ea 2108 cd6d 8088
00000150: 4f75 8308 15a2 9108 2b74 c208 af9f a108
00000160: 8860 c108 b0d6 fe07 d4d7 a208 7d0d a888
00000170: ddf7 0608 76a7 0688 49a8 0e08 1c6f fc87
00000180: ee19 f507 7fd5 4c06 c6b4 5308 d279 2908
00000190: 3827 a388 170c 5788 abef 2888 79b9 2b88
000001a0: add2 2a87 b2d4 8706 5589 8408 c4f6 5c88
000001b0: 72d5 a508 fe5c 3387 91cf 4388 c82f 2808
000001c0: eb4e c108 b689 1d08 1e93 0308 22d9 8187
000001d0: 91df 3708 730b b708 6d25 8608 5f15 2186
000001e0: 13fb b888 e72e ac07 49c6 bd08 d2f0 bb87
000001f0: d83f bb88 609b c288 2872 e707 6a60 c208
00000200: 3268 6888 ab2e 8107 2ee2 8c88 4bde 3c88
00000210: 6ec6 8688 6254 7888 4bbf c288 a8e9 9908
00000220: 7ef4 a808 b4fe d807 27f6 b888 62cc 3887
00000230: 189e 8707 7094 c306 bf11 3988 e67e b288
00000240: eaaf a788 57c5 5b87 751e 5e86 94d4 6f08
00000250: 5ff5 0388 bcb2 c088 d2d7 6f08 0ace 4a86
00000260: 7ba6 bd88 53d4 5a88 6453 8c07 3d52 2e88
00000270: bd98 9888 541e c208 13e0 a007 eb6e e587
2.0341696e-34 1.595327e-34 -8.9516874e-35 2.544135e-34 -1.1081146e-33 1.0929106e-33 1.4117741e-34 6.9607137e-34
-1.955832e-34 -5.9128693e-34 1.1612217e-33 7.0874976e-34 2.8642238e-34 -1.1730038e-33 7.418757e-34 -1.1538813e-33
-2.5845677e-34 1.1451279e-33 -2.7764844e-34 5.9208236e-34 2.5872902e-34 2.7552421e-34 1.4657796e-34 3.9275273e-34
-1.1651319e-33 -5.43613e-34 -2.3636714e-34 7.670235e-34 -3.911672e-34 -2.2975423e-34 7.866763e-34 -1.168973e-33
-6.9713533e-34 -4.69231e-34 1.1208539e-33 -1.0270299e-33 -5.641959e-34 -8.580016e-34 3.6404672e-34 4.5356226e-35
-1.7863248e-34 4.847251e-34 1.3474151e-34 7.641014e-34 -1.3073853e-34 3.805054e-34 2.17562e-35 8.078887e-34
7.3977354e-34 9.719834e-34 -6.171662e-34 7.719891e-34 3.0255544e-34 1.1605296e-33 1.5637677e-35 7.5797993e-34
-3.253849e-34 8.232292e-34 7.24325e-34 9.417646e-34 9.077921e-35 4.074362e-34 -5.030025e-34 -2.3259394e-34
1.1697911e-33 1.1689508e-33 -5.2948123e-34 3.2502307e-35 -2.2628181e-34 5.7537758e-34 1.1753435e-33 2.1736452e-34
1.1434398e-33 -2.9679582e-36 7.4491187e-34 -2.0357356e-34 -3.945011e-34 5.9564154e-34 -3.4089883e-34 7.373827e-34
-1.0859306e-33 8.296098e-34 4.8724245e-34 -7.729534e-34 7.911855e-34 8.764975e-34 1.1703261e-33 9.7273765e-34
1.1638459e-33 3.8343854e-34 9.800761e-34 -1.0114303e-33 4.061552e-34 -4.0521008e-34 4.292939e-34 -3.798205e-34
3.6878743e-34 3.8524988e-35 6.3708e-34 5.0999787e-34 -9.819426e-34 -6.471342e-34 -5.083739e-34 -5.1676463e-34
-1.2851291e-34 5.1093884e-35 7.976748e-34 -6.6493913e-34 9.980757e-34 -1.3493791e-34 -5.892467e-34 5.0611828e-34
1.16343185e-33 4.7407347e-34 3.9594314e-34 -1.9537382e-34 5.533236e-34 1.1016604e-33 8.07363e-34 -3.0296435e-35
-1.1133124e-33 2.590725e-34 1.142164e-33 -2.8278174e-34 -1.1269663e-33 -1.1712479e-33 3.4824112e-34 1.1698617e-33
-6.993744e-34 1.9437192e-34 -8.479118e-34 -5.6835496e-34 -8.111482e-34 -7.4728977e-34 -1.1720923e-33 9.263285e-34
1.0168612e-33 3.264977e-34 -1.1131967e-33 -1.3902684e-34 2.0405462e-34 7.3568957e-35 -5.5692273e-34 -1.0742819e-33
-1.0092304e-33 -1.6533722e-34 -4.1775936e-35 7.217133e-34 -3.970981e-34 -1.15976e-33 7.217514e-34 -3.814335e-35
-1.1414163e-33 -6.5851575e-34 2.1113871e-34 -5.245789e-34 -9.184076e-34 1.168308e-33 2.4205823e-34 -3.4521282e-34

layers.0.attn.0.gnn_k.bias f4 [16]
00000000: 8787 9107 72d1 a708 c50d 7888 105a 4508
00000010: 4dd9 e286 7dee 9888 e133 7188 c9ad b888
00000020: 41fa 1007 4d4d 9f87 43a3 1188 c37d f707
00000030: 690b 3088 7ced 1a08 bbf6 e887 80f1 0d08
2.189683e-34 1.0100187e-33 -7.464597e-34 5.93884e-34 -8.5331046e-35 -9.204236e-34 -7.2584283e-34 -1.1114954e-33
1.0906899e-34 -2.3969094e-34 -4.3826264e-34 3.7238345e-34 -5.2976486e-34 4.662185e-34 -3.5052495e-34 4.2714526e-34

layers.0.attn.0.gnn_v.weight f4 [10, 16]
00000000: 10d4 d8be ee0d 96be fd55 d73d 4a43 293f
00000010: be69 753d f732 d63e 31b3 a13d 73ce 4fbe
00000020: dee8 053e 94cc 263e d5f8 0c3f 5fd1 db3c
00000030: 25ef 03bf d856 9d3e e9e8 bb3e dd8f df3e
00000040: c30b a6bb a488 98bc b02a acbb 22fc d83d
00000050: cebe b0bb 8487 6b3d 83d7 d13c 2eba 63bd
00000060: 532f 073c 5c28 8bbc 2225 623d 635c 5c3c
00000070: 5d01 17bd 66ed 7f3d bed9 403d 2cf4 983d
00000080: 0898 18be 4719 d33d 8722 8a3b 05b2 663e
00000090: bbe9 1dbe 02bd 5cbd 9733 94be e7b8 e23e
000000a0: 529d acbe ea36 b8bd 9e72 83bd 8bc3 2e3e
000000b0: aa50 8dbe b958 a1be fe7e edbc da88 abbd
000000c0: 9b3d 973e 50fb 96bd 754d 41bc cdab 93be
000000d0: ea6d 3b3b 30aa 40be 4713 b9be 387c 35be
000000e0: 2453 30be a8bd dbbe 6b8b 363e a2fe b83d
000000f0: 2541 d3bd b39f 37bd 1956 ad3e da02 d13e
00000100: 0c67 1d3e 33c1 e7bd 23a8 ffbb d139 3cbe
00000110: 35d1 343d 7276 5d3d 6155 3c3e 28b0 e9be
00000120: 6614 2f3e e22a a4bd 9027 d4bd 31a6 d93c
00000130: 5a68 853e 6135 c33e d9b2 253e 41c6 d63d
00000140: 9015 29be ae3a 823d fc3a 9ebc cf5b 0a3e
00000150: 4195 8d3c ee89 1d3e 7ec1 d73e 074b 783b
00000160: 4142 5b3e 5be8 c63e 801b 39be f28d 01be
00000170: 75c2 6a3e 3753 053e 312b 9fbe 4006 babe
00000180: 1210 59be af27 163f b411 c23d 10e5 60bf
00000190: 8526 13be 3093 633f 7ea9 de3e 734f 543e
000001a0: d525 99bd 1424 313d a593 2dbf e391 3b3d
000001b0: 0896 2fbf 0d2b ee3d ab59 a2bd 8f70 2c3f
000001c0: 5fcc cb3c a4d6 45bb 5a1d 733a b271 4bbd
000001d0: 8373 6a3c b6cc 9fbc 2c2b e4bc 6831 a3ba
000001e0: 23b7 b7bc c77e 9dbc afbb 213d fbf4 ccbc
000001f0: 9af1 4ebc 818c eabc 2fcf d83b 273e 133d
00000200: 2feb 9abd 2232 56bc 2efa b2bc 63df e83d
00000210: bf52 de3b 2cd3 7d3d 0097 2c3e fc54 9dbc
00000220: f35c 103d eca8 0c3e 5e1f dcbd c574 c7bc
00000230: 9c17 ec3d 80ee cc3d a9e6 c7bd ab66 36be
00000240: 3783 c43e de20 743e 5bc0 97bd 7dc5 1cbf
00000250: 371a 8dbc 9a99 bcbe fa8b 3dbd 0914 f53d
00000260: c9d4 b3bd 5163 21be d958 f4be 29a0 09bd
00000270: a657 ef3e daab 73be 4c58 95be 4e41 b3be
-0.4234929 -0.29307503 0.10514448 0.661183 0.059915297 0.41835758 0.07895506 -0.20293598
0.13077113 0.16288978 0.5506719 0.026833234 -0.5153678 0.3073032 0.36701134 0.43664446
-0.00506732 -0.018619843 -0.005254112 0.105949655 -0.0053938394 0.057502285 0.02561546 -0.055597477
0.008251029 -0.016987018 0.055211194 0.013449761 -0.036866535 0.06248226 0.047082655 0.07468447
-0.14901745 0.10307556 0.0042155418 0.22528847 -0.15421192 -0.05389119 -0.2894561 0.44281694
-0.33713776 -0.08994849 -0.06418346 0.17066781 -0.27600604 -0.31513003 -0.028991219 -0.08375712
0.2953919 -0.07372153 -0.011798252 -0.2884201 0.002859945 -0.18814921 -0.3614752 -0.17723167
-0.17219216 -0.42918134 0.17826621 0.09032942 -0.1031516 -0.044830035 0.3385475 0.40822488
0.1537134 -0.11316147 -0.007802026 -0.1838143 0.044144828 0.054068036 0.18391944 -0.4564221
0.17097625 -0.08015992 -0.103591084 0.026568504 0.26056176 0.38126662 0.16181506 0.10487033
-0.16512132 0.063588485 -0.019315235 0.13511585 0.017283084 0.15384647 0.4213981 0.0037886517
0.21411993 0.38849148 -0.18076897 -0.12651804 0.22925742 0.13020025 -0.3108764 -0.36332893
-0.21197537 0.586543 0.09476033 -0.8784952 -0.14370163 0.88896465 0.43488687 0.20733432
-0.07477919 0.043247297 -0.6780341 0.045793425 -0.68588305 0.11629305 -0.07927259 0.6735925
0.024877725 -0.003018775 0.0009274088 -0.049668975 0.014309767 -0.019506793 -0.027852617 -0.0012450637
-0.022426194 -0.019225491 0.03948563 -0.02501916 -0.0126308445 -0.02863145 0.006616495 0.035947945
-0.07564389 -0.013073476 -0.02184781 0.11370733 0.0067847664 0.061968967 0.16854477 -0.019205563
0.035244893 0.13736314 -0.1074817 -0.024347672 0.11527941 0.10006428 -0.09760792 -0.17812602
0.3838136 0.23840663 -0.07409736 -0.61238843 -0.017224414 -0.3683594 -0.04627607 0.11966712
-0.0878082 -0.15760542 -0.47724035 -0.033600006 0.46746558 -0.23796025 -0.29168928 -0.3501076

layers.0.attn.0.gnn_v.bias f4 [16]
00000000: 0386 9c3d bcd4 6dbd b8a8 d33a 723c 14be
00000010: 165d df3d 8db2 4a3d ddb9 6a3e 30dd 8abe
00000020: b295 7d3e bca0 d63d a64c cd3c 53e2 08be
00000030: 11f7 483e d231 523e 5d55 b0bc 8a97 813c
0.07642748 -0.058064207 0.0016148305 -0.14476183 0.109064266 0.049486686 0.22922464 -0.27121878
0.24764135 0.104798764 0.025060963 -0.13367586 0.19625498 0.20526817 -0.02152508 0.01581933
