checkpoints/bbb_martins_40_train1_neg/Aug21-22:54:56_700.pth (torch, 383295 bytes, 294 tensors)

layers.0.weight f4 [11, 16]
0	0x3dd3c510	0.10340321
1	0x3f56069d	0.8360384
2	0xbef69fd2	-0.48168808
3	0x3f13ec52	0.5778247
4	0xbf43fdbb	-0.76559037
5	0x3f47927d	0.779579
6	0x3dacc62e	0.08436237
7	0x3f076466	0.5288757
8	0x3fac654e	1.3468416
9	0xbf4dde76	-0.80417573
10	0xbc476df3	-0.01217221
11	0x3d5a5881	0.05330706
12	0x3f1f43c5	0.62212783
13	0x3ee8557f	0.45377728
14	0x3f07b6d6	0.5301336
15	0xbe8cf10f	-0.27527663
16	0x3f2438e8	0.6414933
17	0xbe78efa9	-0.24310173
18	0xbd546c00	-0.05186081
19	0x3f6b0596	0.918054
20	0xbece1e0e	-0.40257305
21	0xbf712737	-0.9420046
22	0x3d281bfd	0.041042317
23	0x3f5ee02f	0.87060827
24	0xbf3dd168	-0.74147654
25	0xbe635483	-0.22200207
26	0xbf6f22c0	-0.934124
27	0xbd70b45a	-0.058765747
28	0x3e1c1556	0.15242514
29	0xbfad4a87	-1.3538369
30	0x3f91eb7e	1.1399992
31	0xbf412dc9	-0.7546049
32	0x3f32fc88	0.6991658
33	0x3ca5efcc	0.020255946
34	0xbf06b42c	-0.5261867
35	0x3f36accd	0.71357423
36	0x3eb78a1f	0.35847566
37	0x3f2d4120	0.676775
38	0xbf575432	-0.84112847
39	0xbf361cb3	-0.7113754
40	0xbeac5a9c	-0.3366288
41	0x3e657566	0.22408065
42	0x3ec866bd	0.39140883
43	0x3fd18d5d	1.6371266
44	0x3f3d3c61	0.73920256
45	0xbea7ac8d	-0.32748833
46	0x3efc650e	0.4929585
47	0x3f412962	0.7545377
48	0x3f4aad14	0.79170346
49	0xbf9b21ab	-1.211965
50	0xbf492a0a	-0.7857977
51	0xbefc03cb	-0.49221644
52	0xbea7a971	-0.3274646
53	0x3f1f4b60	0.6222439
54	0x3f27823f	0.65433115
55	0x3da817ab	0.08207639
56	0xbdb7bce1	-0.08971573
57	0x3e899196	0.26868886
58	0x3f6df0a9	0.92945343
59	0xbe9ecbba	-0.31014806
60	0x3e2ef319	0.17084922
61	0xbcc004de	-0.02343982
62	0x3f5e24dc	0.8677499
63	0xbee04e70	-0.43809843
64	0x3efbd6d9	0.49187353
65	0xbfa8305f	-1.3139762
66	0x3f699815	0.91247684
67	0xbc2c2a9b	-0.010508205
68	0xbe01ec57	-0.12687813
69	0x3cff2b4e	0.031148579
70	0x3f623980	0.8836899
71	0xbd71b32e	-0.05900877
72	0x3f3c4879	0.73548084
73	0xbf560221	-0.83597
74	0xbf1442e7	-0.57914585
75	0x3ebeca34	0.37263644
76	0xbf02c31e	-0.51078975
77	0xbe658a22	-0.22415975
78	0x3f1334c7	0.57502407
79	0x3fa08d21	1.2543069
80	0xbf06ffae	-0.52733886
81	0xbecf03f4	-0.40432703
82	0x3e34728e	0.17621824
83	0x3e101406	0.14070138
84	0x3eaa4b32	0.33260494
85	0x3f168834	0.5880158
86	0x3ef1a31e	0.4719476
87	0xbf8962a5	-1.0733229
88	0xbf181ec8	-0.5942197
89	0xbf05a188	-0.521996
90	0xbf17a5b4	-0.5923722
91	0xbc01676a	-0.007898191
92	0x3f41ef0e	0.75755394
93	0x3f6f1e4c	0.93405604
94	0xbf1b5c94	-0.6068814
95	0xbf10d73e	-0.56578434
96	0x3f17382e	0.590701
97	0x3eb8b84a	0.360781
98	0xbec0d05d	-0.3765897
99	0xbfaccb47	-1.3499535
100	0xbd6e84f7	-0.058232274
101	0xbdf80e3f	-0.12112092
102	0xbf0c7f8c	-0.5488212
103	0xbf545e30	-0.8295622
104	0xbed95018	-0.4244392
105	0xbf399b48	-0.72502565
106	0xbf71af46	-0.9440807
107	0xbdf30110	-0.11865437
108	0xbf0b9922	-0.5453054
109	0x3e02e51e	0.12782714
110	0x3fa67ed0	1.300745
111	0xbe6f58fd	-0.2337379
112	0xbe81169e	-0.25212568
113	0xbf109bd2	-0.5648776
114	0xbf2eeb90	-0.6832819
115	0xbdbdd84c	-0.09269771
116	0xbecd8a9c	-0.40144813
117	0xbf2efb0f	-0.68351835
118	0xbe898382	-0.26858145
119	0xbf83a57e	-1.0284879
120	0x3efcd317	0.493798
121	0xbf33770c	-0.70103526
122	0x3e01874c	0.12649268
123	0xbd185f67	-0.037200358
124	0xbdfe3d1b	-0.12413999
125	0xbf98e4f5	-1.1944872
126	0xbf948dbd	-1.1605755
127	0xbf162797	-0.5865416
128	0x3ef01edb	0.4689854
129	0x3e8f953c	0.28043544
130	0x3f94fbd3	1.1639351
131	0x3e2b1467	0.16707002
132	0xbf849fec	-1.0361304
133	0x3f8eaa08	1.114564
134	0xbe214531	-0.1574905
135	0xbe45871a	-0.19289818
136	0xbee4d84b	-0.44696268
137	0xbf2c9d0c	-0.67427135
138	0x3ed67152	0.41883332
139	0xbe6e593f	-0.23276232
140	0x3d83f958	0.06444043
141	0xbf567910	-0.83778477
142	0x3d308ef8	0.043105096
143	0xbf33e519	-0.7027145
144	0x3e874104	0.2641679
145	0x3c69dfe9	0.014274576
146	0x3f0ed648	0.5579572
147	0x3e46ac37	0.19401632
148	0x3f004096	0.5009855
149	0xbfc5c651	-1.5451146
150	0x3d2680c0	0.04065013
151	0xbee3c2c7	-0.4448454
152	0x3ca6ca1f	0.02036005
153	0xbf25b384	-0.64727044
154	0x3f92b785	1.1462256
155	0xbe053277	-0.13007532
156	0x3ea94818	0.33062816
157	0x3ebaff51	0.36522916
158	0x3f0cf2b1	0.5505782
159	0xbec948f5	-0.39313474
160	0x3e61800f	0.22021507
161	0xbde536fc	-0.11192128
162	0x3dd5ceab	0.104398094
163	0xbf8a0b9d	-1.0784794
164	0x3f9ff6a8	1.2497149
165	0x3e999865	0.2999908
166	0xbe9ff6b7	-0.31242916
167	0x3f875c69	1.0575076
168	0x3e66deac	0.2254588
169	0xbf3b42ac	-0.7314861
170	0xbc616aca	-0.013758371
171	0x3d158a82	0.036509044
172	0x3f518252	0.8183948
173	0xbf5d51a5	-0.86452705
174	0xbf1df2f2	-0.6169883
175	0xbe3f4ccf	-0.18681644

layers.0.bias f4 [16]
0	0xbf1fdce3	-0.6244642
1	0x3e793540	0.2433672
2	0x3c78c5a0	0.015183836
3	0xbda4e984	-0.08052352
4	0x3e954baf	0.29159304
5	0x3de496bf	0.11161565
6	0x3e55c4ec	0.20875901
7	0x3deab5e9	0.11460478
8	0x3abbd162	0.0014329369
9	0xbe1c6f9d	-0.15276952
10	0x3e13213f	0.14368151
11	0x3d52fc1c	0.05150996
12	0xbeb5e9d4	-0.3552996
13	0xbe8a47b7	-0.2700784
14	0x3e5fedf8	0.21868122
15	0xbed33df4	-0.41258204

layers.1.weight f4 [16, 16]
0	0xbfb5af30	-1.4194088
1	0xbddfdaed	-0.10930429
2	0x3f0112ec	0.504195
3	0xbe0926ed	-0.13393755
4	0x3f16bb2d	0.5887936
5	0xbe4c0585	-0.1992398
6	0xbef10a9a	-0.470784
7	0x3d8fcc45	0.07021383
8	0x3ed58c46	0.41708583
9	0xbdaefd79	-0.0854444
10	0xbd498a0e	-0.049203925
11	0x3e2348c3	0.15945725
12	0x3f176d51	0.5915118
13	0x3d34863e	0.044073336
14	0x3d98ebae	0.07466827
15	0x3d8939d3	0.06700482
16	0x3f84cbbf	1.0374678
17	0x3e77d940	0.24203968
18	0xbe2437b6	-0.16036877
19	0xbc580958	-0.0131858215
20	0xbe86465a	-0.2622555
21	0xbeba10a4	-0.3634082
22	0x3f0cf40c	0.55059886
23	0x3e305438	0.17219627
24	0xbf32fa82	-0.69913495
25	0x3e0b9733	0.13631897
26	0x3f6b74ec	0.91975284
27	0xbe853a2c	-0.26020944
28	0xbd8ffc36	-0.07030527
29	0xbeaa2e04	-0.33238232
30	0xbe648321	-0.22315647
31	0xbf769cbf	-0.96332926
32	0x3daaea41	0.08345462
33	0x3e1cfd89	0.15331091
34	0x3f2d7b00	0.6776581
35	0xbd1889d1	-0.037240807
36	0xbf272de1	-0.6530438
37	0xbf65655a	-0.89607775
38	0x3e193db8	0.1496495
39	0x3f5e34a3	0.8679907
40	0x3db1e1bc	0.086856335
41	0xbdd793e1	-0.105262525
42	0xbd949719	-0.07255382
43	0xbe9db4ec	-0.30802095
44	0xbf5ea1bb	-0.8696553
45	0x3f2091ae	0.6272229
46	0xbdd51e0a	-0.1040612
47	0x3ee03cb8	0.43796325
48	0xbf2910b5	-0.6604112
49	0x3f75a333	0.9595215
50	0x3f49cbb5	0.7882646
51	0xbe4b4dab	-0.19853847
52	0x3e0caff4	0.13738996
53	0xbeb07ae5	-0.3446876
54	0xbf2d249b	-0.6763398
55	0x3f2bed89	0.67159325
56	0xbd77e0df	-0.06051719
57	0x3dd3b2fc	0.10336873
58	0x3da1ace5	0.07894305
59	0x3cbe1082	0.02320123
60	0x3d2c6d42	0.042096384
61	0xbf03980f	-0.514039
62	0x3ded0074	0.11572352
63	0xbec839a2	-0.3910647
64	0xbe0eb927	-0.13937818
65	0xbe8e8c02	-0.27841192
66	0xbf185786	-0.5950855
67	0xbe26b1d3	-0.16278772
68	0x3c8f448d	0.017488742
69	0xbf1a494e	-0.60268104
70	0xbf08208a	-0.5317465
71	0x3ed7be38	0.42137313
72	0xbe23cfc8	-0.15997231
73	0x3e079eb8	0.1324414
74	0x3d15c8a1	0.036568288
75	0xbe8062fe	-0.25075525
76	0xbe47a0d2	-0.19494942
77	0xbf09e208	-0.5386052
78	0x3e02bf3b	0.12768261
79	0x3d812b79	0.0630712
80	0xbed5e5eb	-0.41776976
81	0xbe65bca8	-0.22435248
82	0x3ebac4a6	0.36478156
83	0xbd659dcf	-0.0560587
84	0x3f2f2fdb	0.68432397
85	0xbf0cbc0c	-0.54974437
86	0xbf160ab0	-0.5861006
87	0xbe875ee9	-0.26439598
88	0x3bb6a3e9	0.005573739
89	0x3dbcb015	0.092132725
90	0xbe4cf42c	-0.20015019
91	0xbe46c7c1	-0.19412138
92	0xbe9e740a	-0.30947906
93	0xbe5960b2	-0.21228293
94	0x3e6476f6	0.22311005
95	0xbf54584f	-0.8294725
96	0x3f146b2c	0.5797603
97	0x3f61a30e	0.88139427
98	0x3ebcab22	0.36849314
99	0x3dad7107	0.08468824
100	0xbf343a4f	-0.7040147
101	0x3c326acf	0.010889723
102	0x3da86203	0.08221819
103	0xbf06b731	-0.5262328
104	0x3de3ff0b	0.1113263
105	0xbdda0a94	-0.10646549
106	0xbf10c5e4	-0.5655196
107	0xbebc63fd	-0.36795035
108	0xbe97cb03	-0.29647073
109	0x3f2f8e65	0.6857665
110	0xbc77c686	-0.015123015
111	0x3f632bd2	0.8873874
112	0x3f71d0e1	0.9445935
113	0xbee07888	-0.43841958
114	0xba0a70c3	-0.0005281085
115	0x3e164c0d	0.14677449
116	0xbed1b48b	-0.40958056
117	0xbf809441	-1.0045244
118	0x3f41510f	0.7551431
119	0xbec756cd	-0.3893341
120	0x3c77c93f	0.015123664
121	0xbd9b350e	-0.07578479
122	0xbd6033ad	-0.054736782
123	0xbee62265	-0.44948116
124	0x3eef8042	0.4677754
125	0x3e9e2ef1	0.30895188
126	0xbe38cbc3	-0.18046479
127	0x3d862c07	0.06551366
128	0xbd0ab60b	-0.033865016
129	0x3f28571f	0.65757936
130	0xbf393b52	-0.7235614
131	0xbd2a68da	-0.0416039
132	0xbe6526b3	-0.22378044
133	0x3e39f90b	0.18161409
134	0x3d6ac289	0.05731443
135	0x3e62751c	0.22114986
136	0x3db70bde	0.0893781
137	0xbdc6ef9f	-0.09713673
138	0xbde4f789	-0.11180026
139	0xbeb5db39	-0.35518816
140	0x3f5e799c	0.8690431
141	0x3f0f7422	0.5603658
142	0xbd497a9e	-0.049189202
143	0x3eb934cf	0.36173102
144	0xbd9c24d2	-0.076242104
145	0x3dd19914	0.102342755
146	0xbec4fd2e	-0.3847441
147	0x3d89ab35	0.06722108
148	0x3ce38bd6	0.02777664
149	0xbd18fe27	-0.037351754
150	0x3dc91fd6	0.09820525
151	0xbf221e41	-0.63327414
152	0xbe7dc346	-0.24781522
153	0x3daef9bd	0.085437275
154	0x3efbda80	0.4919014
155	0x3f03b6eb	0.51450986
156	0xbf419ce8	-0.75630045
157	0xbf02750c	-0.5095985
158	0xbdb773b8	-0.089576185
159	0xbf248c71	-0.64276797
160	0xbe1a0b15	-0.1504329
161	0x3f402752	0.7506
162	0xbebede21	-0.37278846
163	0x3e107166	0.14105758
164	0x3f193cf6	0.59858644
165	0xbeb38c6f	-0.3506808
166	0xbed87060	-0.42273235
167	0xbf2ee4c8	-0.6831784
168	0xbec3864b	-0.38188395
169	0x3d8a2ab4	0.06746426
170	0x3f0e802f	0.5566434
171	0x3eb8fd82	0.3613091
172	0xbe2721eb	-0.16321532
173	0xbea2e9a5	-0.31818882
174	0x3e2fa696	0.17153391
175	0x3f270982	0.6524888
176	0x3eab2cd2	0.33432633
177	0xbd27651e	-0.040867917
178	0xbf1e2457	-0.617742
179	0x3e2b5e59	0.1673521
180	0x3e7867d9	0.24258365
181	0xbdc45f2c	-0.09588465
182	0xbf070a52	-0.5275012
183	0x3f8546f8	1.0412283
184	0x3e5e2962	0.21695474
185	0xbcaa4d24	-0.020788737
186	0xbefae046	-0.48999232
187	0xbe406292	-0.18787602
188	0x3d95abbe	0.07308148
189	0x3c3c59b0	0.011495993
190	0x3e7592db	0.23981802
191	0xbf34a1c4	-0.70559335
192	0xbf8bc6ef	-1.0920085
193	0xbd241b06	-0.040064834
194	0x3f2972e6	0.66190946
195	0x3bf8784e	0.007582701
196	0x3eaf39af	0.34223697
197	0xbf3b567e	-0.7317885
198	0xbf218f79	-0.63109547
199	0xbe2b2142	-0.16711906
200	0xbca517c7	-0.02015294
201	0x3d9417fc	0.07231137
202	0x3e9799b0	0.29609442
203	0xbf5739a7	-0.84072345
204	0x3eb99e8f	0.36253783
205	0xbf3b8695	-0.7325223
206	0x3db238c9	0.08702237
207	0x3eff3b0e	0.49849743
208	0x3e39c000	0.18139648
209	0x3f772ad6	0.9654974
210	0xbf221d3d	-0.63325864
211	0x3d47531e	0.04866325
212	0xbeba58ab	-0.36395773
213	0xbd15079b	-0.036384206
214	0x3ed32590	0.41239595
215	0xbe36f4b6	-0.17866787
216	0x3e482ba7	0.19547902
217	0xbdd48c0c	-0.10378274
218	0x3cd56b00	0.026051998
219	0xbf581a9b	-0.84415597
220	0xbf7257c3	-0.94665164
221	0x3e14ebfa	0.14543143
222	0xbdf08bb9	-0.117454
223	0xbda2dc6a	-0.07952197
224	0xbece1612	-0.40251213
225	0x3e80c559	0.25150564
226	0x3eae6a29	0.3406537
227	0x3d53750d	0.0516253
228	0xbe0d15ac	-0.13777798
229	0xbe88a28d	-0.26686516
230	0xbf82ac3b	-1.020881
231	0xbe949b1c	-0.2902459
232	0xbd84cbcb	-0.06484183
233	0x3d9935a6	0.07480936
234	0xbea253a7	-0.31704447
235	0x3d8089d6	0.0627629
236	0x3ef90757	0.48638412
237	0xbe432064	-0.19055325
238	0x3e8ec38b	0.27883562
239	0xbe61eee7	-0.2206379
240	0xbfad6c6b	-1.3548712
241	0x3ed0daec	0.40792024
242	0xbf5a00da	-0.8515755
243	0xbe9df14a	-0.3084815
244	0x3e912c24	0.2835399
245	0xbdabcd33	-0.08388748
246	0xbf602ab1	-0.8756514
247	0x3f54d6c5	0.8314021
248	0x3eeadc17	0.4587104
249	0xbca4ed5a	-0.02013271
250	0xbf1e4e4c	-0.6183822
251	0xbd3ceb55	-0.046122868
252	0xbead1281	-0.3380318
253	0x3e40275d	0.18765016
254	0x3e677e50	0.22606778
255	0xbe04cce6	-0.12968788

layers.1.bias f4 [16]
0	0xbe1c214c	-0.15247077
1	0x3e3b8ad7	0.18314682
2	0x3e00a256	0.12561926
3	0xbc018fdc	-0.007907834
4	0x3e24e211	0.16101862
5	0x3e09f8d8	0.13473833
6	0x3e7f3838	0.2492379
7	0x3ea0a187	0.31373236
8	0x3e28f604	0.16500098
9	0x3de5daea	0.11223395
10	0xbe0232fe	-0.12714764
11	0xbe4cb55c	-0.19991058
12	0xbdba3cd6	-0.09093635
13	0xbe7b7710	-0.24557137
14	0xbd81f18f	-0.06344902
15	0x3e295bea	0.16538969

final.linears.0.weight f4 [86, 43]
0	0x3e03f0ac	0.12884778
1	0x3eb6689f	0.35626695
2	0xbfa374b9	-1.2769996
3	0x3fe8c329	1.8184558
4	0xbf4c3f68	-0.7978425
5	0xbe6078eb	-0.21921127
6	0x3ddbeaf5	0.10738174
7	0x3e8fe887	0.28107092
8	0x3dde776c	0.10862622
9	0x3f14d787	0.5814137
10	0x3e2f6110	0.1712687
11	0x3d9bd84b	0.07609614
12	0xbdab39d3	-0.083606385
13	0x3dbdda3c	0.092701405
14	0xbdff2ddf	-0.12459921
15	0x3d807e54	0.06274095
16	0x3df98737	0.12183993
17	0x3c7ba9ac	0.015360277
18	0x3d880d3f	0.066431515
19	0xbe0753d7	-0.13215576
20	0x3d69982d	0.05702989
21	0x3e256888	0.16153157
22	0x3ede7e9a	0.43455964
23	0xbdb03c67	-0.08605271
24	0xbcd98069	-0.026550489
25	0x3e473f8c	0.19457835
26	0x3e041563	0.12898783
27	0xbe25f80f	-0.16207908
28	0x3d22a286	0.039705776
29	0x3d750e32	0.05982799
30	0xbca0bdb9	-0.019621717
31	0xbbd3cec2	-0.0064638564
32	0x3de39585	0.11112503
33	0x3bdbd0e6	0.0067082522
34	0xbddd1e64	-0.10796812
35	0xbc92348f	-0.017847328
36	0xbdc223f8	-0.09479517
37	0xbcdedcb5	-0.02720485
38	0x3c954291	0.018220218
39	0x3d38e51b	0.045140367
40	0x3bb246be	0.005440562
41	0xbea36f7e	-0.31921
42	0xbcaf55cc	-0.021403216
43	0x3e9c907b	0.3057898
44	0xbe63ab62	-0.22233346
45	0xbea0ed24	-0.31430924
46	0xbeef69a1	-0.46760276
47	0xbea48e95	-0.3214003
48	0x3f930180	1.1484833
49	0xbf59a247	-0.8501324
50	0xbf907b5e	-1.1287649
51	0x3db521c8	0.08844334
52	0xbef98a94	-0.4873854
53	0xbf6a0045	-0.9140666
54	0x3d82c2c8	0.06384808
55	0xbcc3927a	-0.023873556
56	0xbe7aecf4	-0.24504453
57	0xbd282ffd	-0.04106139
58	0x3ded9d33	0.11602249
59	0xbe778a88	-0.24173939
60	0xbe2ed409	-0.17073072
61	0x3e17abf1	0.14811684
62	0x3e19127e	0.1494846
63	0xbcb0cf78	-0.021583304
64	0xbdc3522b	-0.09537157
65	0x3e61c897	0.22049175
66	0xbe361a66	-0.17783508
67	0xbe695bbe	-0.22788903
68	0xbe155ff3	-0.14587383
69	0xbd2636fe	-0.04057979
70	0x3d653d5d	0.055966724
71	0x3db49959	0.08818311
72	0xbd479f77	-0.048736062
73	0x3e31f93b	0.1738023
74	0x3c212b2e	0.009836955
75	0xbdb5d34e	-0.08878194
76	0xbe3f5306	-0.18684015
77	0xbcdd2486	-0.026994955
78	0x3d601463	0.054706942
79	0xbe3770f0	-0.17914176
80	0x3d2b917d	0.041886795
81	0xbe0f914e	-0.14020273
82	0xbae459c0	-0.0017421767
83	0xbd8f4933	-0.069963835
84	0xbc782dbe	-0.015147625
85	0xbd92066a	-0.0713013
86	0x3e91a19e	0.28443617
87	0xbd4f1ce5	-0.050564665
88	0xbea0d975	-0.31415907
89	0x402cafe0	2.6982346
90	0xbee10063	-0.43945608
91	0x3ea36685	0.31914154
92	0x3f5fe56a	0.87459433
93	0xbde342f6	-0.11096756
94	0x3e907fae	0.28222412
95	0x3e12cebd	0.14336677
96	0x3efb5767	0.4909012
97	0x3e81abfb	0.25326523
98	0xbdb001c3	-0.08594086
99	0xbedd71c3	-0.43250856
100	0xbed617c1	-0.41814998
101	0xbcbf5484	-0.02335573
102	0x3e328455	0.17433293
103	0xbe68140d	-0.22663899
104	0xbee61cb5	-0.44943777
105	0x3e9f8486	0.31155795
106	0xbedabd3c	-0.427225
107	0x3e1bfd5d	0.15233369
108	0xbea75a13	-0.3268591
109	0x3e40535f	0.18781804
110	0x3dbf2489	0.093331404
111	0x3d7b21e8	0.061311632
112	0xbd2e2a1f	-0.04252064
113	0x3d86f1ba	0.065890744
114	0x3df33240	0.11874819
115	0x3dd6a62d	0.10480914
116	0xbea80c5b	-0.32821926
117	0x3daaa9b3	0.08333149
118	0x3d2dccc9	0.042431626
119	0x3c34702a	0.01101307
120	0xbe83ce41	-0.25743297
121	0x3db2710a	0.08712967
122	0x3db86fc5	0.09005693
123	0x3d5da3d2	0.05411131
124	0x3d615733	0.0550148
125	0x3db796ce	0.089643106
126	0xbca5da31	-0.020245643
127	0x3e5fbe05	0.2184983
128	0x3e90491d	0.2818078
129	0x3f2c3760	0.67271996
130	0xbddaf7c1	-0.106917866
131	0xbeb7791a	-0.3583458
132	0xbf12f8b3	-0.57410735
133	0xbedc0ddd	-0.42979327
134	0xbf0e7d9f	-0.5566043
135	0xbf3629d5	-0.7115758
136	0xbfa02da8	-1.2513933
137	0xbe8391f1	-0.25697282
138	0xbf2bbc71	-0.67084414
139	0xbf2e7fe0	-0.6816387
140	0x3dfcad25	0.12337712
141	0xbe26cc5e	-0.16288897
142	0x3e32308c	0.17401332
143	0xbed63d41	-0.41843608
144	0x3e09ebee	0.13468906
145	0xbd83d259	-0.06436605
146	0xbe72505e	-0.2366347
147	0xbec56365	-0.38552395
148	0xbd4f69e8	-0.05063811
149	0xbefb06c4	-0.490286
150	0x3e0bd5a9	0.13655724
151	0x3de1ed5d	0.110316016
152	0x3e48a5fd	0.1959457
153	0xbd899043	-0.06716969
154	0xbdf4ce99	-0.11953468
155	0xbe55d6a8	-0.20882666
156	0xbcba2453	-0.022722399
157	0x3c25afd4	0.0101127215
158	0x3d7c6a1b	0.061624628
159	0x3e6fe6fe	0.2342796
160	0x3de20acc	0.110372156
161	0x3e454109	0.1926309
162	0xbde1f8d7	-0.110337906
163	0xbd68003c	-0.05664085
164	0x3e421cd4	0.1895631
165	0xbdccc9bb	-0.099994145
166	0x3d02e765	0.031958956
167	0x3e3531e6	0.17694816
168	0x3d2be712	0.041968413
169	0x3b259c95	0.0025270332
170	0xbe3cc9b0	-0.18436313
171	0x3dae2ef9	0.08505053
172	0xbf0e6e86	-0.55637395
173	0xbe8dfebf	-0.27733418
174	0xbb1e9d03	-0.0024202473
175	0x3cae5ed8	0.02128546
176	0xbe4ddf0c	-0.20104617
177	0x3f9176e0	1.1364403
178	0x3f8ba759	1.0910445
179	0xbf728318	-0.94731283
180	0x3e1fb2d5	0.15595563
181	0x3f8686b1	1.0509855
182	0xbe3a081a	-0.18167153
183	0x3ddc44a3	0.10755279
184	0x3dc0f4a1	0.09421659
185	0x3de5a301	0.11212731
186	0xbd9842ce	-0.07434617
187	0x3d627b1a	0.05529318
188	0xbe4b51f4	-0.19855481
189	0xbda7267b	-0.081616364
190	0xbe3c3bfb	-0.18382256
191	0xbe492538	-0.19643104
192	0xbdd2e905	-0.10298351
193	0xbd4e0de4	-0.050306216
194	0xbe04e1de	-0.12976786
195	0xbd882a48	-0.066486895
196	0xbd2b61d3	-0.04184134
197	0x3d2d79bc	0.042352423
198	0xbddee906	-0.108842894
199	0x3d5b4ccd	0.05354004
200	0x3e1746cc	0.147731
201	0xbdcb1c9a	-0.09917565
202	0xbd90cfc2	-0.07070877
203	0xbc2901a3	-0.010315332
204	0xbbba5e6f	-0.005687527
205	0xbe1ca94b	-0.15298955
206	0xbd8f857e	-0.070078835
207	0xbcd0659c	-0.025439076
208	0x3e0be975	0.13663276
209	0xbd8e9661	-0.06962276
210	0xbd59b997	-0.053155508
211	0xbd6a3010	-0.057174742
212	0xbcb9eb6c	-0.022695266
213	0xbca3ea71	-0.020009251
214	0x3e140777	0.14455973
215	0x3f257d8e	0.64644706
216	0x3f619387	0.88115734
217	0xbe7176d6	-0.23580489
218	0xbd8eea01	-0.069782265
219	0xbe7a2f91	-0.24432208
220	0x3f42976d	0.7601231
221	0xbeedc03e	-0.46435732
222	0xbfb5a04a	-1.4189541
223	0x3ec0edef	0.3768153
224	0xbdd0e828	-0.1020053
225	0xbf99a741	-1.2004167
226	0x3d8b9218	0.068149745
227	0x3e26b258	0.1627897
228	0x3db71768	0.08940011
229	0x3f32ee98	0.69895315
230	0xbed5e7a8	-0.41778302
231	0x3ea1a559	0.31571463
232	0x3eea7d03	0.457985
233	0xbd72c1c5	-0.059266824
234	0xbea2b5d9	-0.31779364
235	0xbc991da1	-0.018690886
236	0xbea4e6c3	-0.32207307
237	0xbe460f4f	-0.19341777
238	0x3ebeb486	0.37247103
239	0x3eebf6fc	0.46086872
240	0x3ecf5bd4	0.40499747
241	0xbe19f47f	-0.15034674
242	0xbe60b551	-0.21944167
243	0x3eb02e66	0.344104
244	0x3eb562d4	0.35426962
245	0xbd927b8b	-0.0715247
246	0xbe86d9db	-0.26338086
247	0xbe4bd8f1	-0.19906975
248	0x3d6c3db4	0.057676032
249	0x3ca66564	0.020312019
250	0x3d5e69bc	0.054300055
251	0x3e88ef20	0.26744938
252	0x3d289c1d	0.041164506
253	0xbe777e76	-0.24169335
254	0xbe6ad99e	-0.22934577
255	0xbd987147	-0.07443481

final.linears.0.bias f4 [86]
0	0x3d7e30b4	0.062058166
1	0x3d3b5efe	0.04574489
2	0x3d9f2315	0.07770363
3	0x3e27d8e9	0.16391338
4	0x3c243df4	0.010024536
5	0x3d5a74cf	0.053334054
6	0x3c4700f1	0.012146221
7	0xbd19ce53	-0.03755028
8	0x3e1d322e	0.15351173
9	0x3d0786da	0.03308759
10	0x3db4381f	0.08799767
11	0xbd256d61	-0.040387515
12	0x3e147cae	0.14500687
13	0xbc987174	-0.018608786
14	0x3d1f9482	0.038959987
15	0x3db43872	0.087998286
16	0x3ddbd3ea	0.10733779
17	0xbe373d11	-0.17894389
18	0xbd346392	-0.04404027
19	0xbd5633a0	-0.052295327
20	0x3edbcedd	0.42931262
21	0x3cf69a55	0.030102888
22	0xbd236959	-0.03989539
23	0x3dd53f53	0.10412469
24	0x3d373fb8	0.0447385
25	0xbcfd4fc8	-0.030921832
26	0x3b66fb58	0.0035245027
27	0x3da37cb7	0.07982772
28	0x3e358304	0.1772576
29	0x3e30dd9a	0.17272034
30	0x3d0772f3	0.03306861
31	0xbcd0d5ec	-0.02549263
32	0x3ca02354	0.019548096
33	0x3d2d7eb8	0.042357177
34	0x3e423255	0.18964513
35	0x3e3a1aa2	0.18174222
36	0xbdecd3cc	-0.115638345
37	0x3d51b221	0.051195268
38	0xbc210b58	-0.009829365
39	0x3e068f64	0.13140637
40	0x3c709dd3	0.014686066
41	0xbbb070c5	-0.005384537
42	0x3dbf157b	0.09330269
43	0x3be2cd60	0.0069214553
44	0xbd0127f7	-0.031532254
45	0x3d327dcd	0.043577004
46	0xbd23061b	-0.039800745
47	0x3e1f82aa	0.15577188
48	0x3ded1b84	0.11577514
49	0x3dab508b	0.08364972
50	0xbe7b0003	-0.24511723
51	0xbcb72d94	-0.0223606
52	0x3dbdee0f	0.09273922
53	0xbe4d96be	-0.20077035
54	0xbc95e4bb	-0.018297544
55	0x3e0e0852	0.13870361
56	0x3e763129	0.2404219
57	0x3d51527a	0.051104046
58	0xbd1f4ed2	-0.03889353
59	0x3e113ceb	0.14183395
60	0x3d8e4d08	0.06948286
61	0x3e482ae0	0.19547606
62	0x3de646a6	0.11243944
63	0x3aee7f8e	0.0018195973
64	0x3d5093b1	0.0509221
65	0x3d315c7c	0.04330109
66	0x3cc4f9ea	0.02404495
67	0x3aa0a080	0.0012254864
68	0x3d2b02e3	0.0417508
69	0xbcad21d8	-0.021134302
70	0x3d8201a0	0.06347966
71	0x3d946f5e	0.07247804
72	0x3c13471f	0.008989125
73	0x3e32ebbc	0.17472738
74	0x3d75f8ca	0.060051717
75	0xbcf6863e	-0.030093309
76	0x3c8c8159	0.017151522
77	0x3d79ee8f	0.061018523
78	0x3b6b799e	0.0035930644
79	0x3e352666	0.17690429
80	0x3de65d00	0.11248207
81	0xbe563b9c	-0.20921177
82	0x3d9ff61a	0.07810612
83	0xbbf4d9f6	-0.007472272
84	0x3db0f652	0.08640732
85	0x3e422ade	0.18961665

final.linears.1.weight f4 [86, 86]
0	0xbba9b411	-0.0051789363
1	0xbf53b694	-0.8270047
2	0xbe929bf8	-0.2863462
3	0xbf2c538a	-0.6731497
4	0xbe613918	-0.21994436
5	0xbf17adc1	-0.592495
6	0xbe2cc790	-0.16873002
7	0x3c4b078c	0.012391936
8	0xbdab6e04	-0.08370593
9	0xbea58aa7	-0.32332346
10	0xbe5d8051	-0.2163098
11	0xbea5f266	-0.32411498
12	0xbd5af220	-0.053453565
13	0xbe16a81f	-0.1471257
14	0xbeddebc9	-0.43343952
15	0xbecc6a39	-0.3992479
16	0xbe1b5fd3	-0.15173273
17	0xbe39cc72	-0.18144396
18	0xbea15bb0	-0.31515265
19	0xbdd92062	-0.1060188
20	0xbe44ce93	-0.19219427
21	0xbdbed375	-0.09317676
22	0xbeaabadd	-0.3334569
23	0xbec70f7d	-0.38879004
24	0xbddcc638	-0.10779995
25	0xbeb7af0f	-0.35875747
26	0xbec15df9	-0.37767008
27	0xbe8f2600	-0.2795868
28	0xbe92554b	-0.28580698
29	0xbcc4815f	-0.02398747
30	0x3c25c7fd	0.010118482
31	0xbe922f15	-0.28551546
32	0xbdc84836	-0.09779398
33	0xbe5ec84e	-0.21756098
34	0xbdf3073a	-0.11866613
35	0xbe351bc3	-0.17686372
36	0xbeb3370c	-0.35002935
37	0xbd661c6a	-0.05617944
38	0xbe42bbe4	-0.19016987
39	0xbec73669	-0.389087
40	0xbe8963a6	-0.26833838
41	0xbe92c962	-0.28669268
42	0xbea500bd	-0.32227126
43	0xbe2a7b48	-0.1664859
44	0xbe30de9e	-0.17272422
45	0xbea765c7	-0.32694837
46	0xbefe23de	-0.4963674
47	0xbe0c697d	-0.13712116
48	0xbefdc76f	-0.49566218
49	0xbdceaff8	-0.10092157
50	0x3d32967d	0.043600548
51	0xbe923138	-0.28553176
52	0xbe4dbf64	-0.20092541
53	0xbd94bd26	-0.0726264
54	0xbe9c74b4	-0.30557787
55	0xbe297b73	-0.16550998
56	0xbe8c98ce	-0.2746033
57	0xbead8c68	-0.33896184
58	0xbf822bc4	-1.0169606
59	0xbe871460	-0.26382732
60	0xbe8b7366	-0.2723648
61	0xbe01ab1d	-0.12662931
62	0xbe22f162	-0.15912393
63	0xbe1ada4a	-0.15122333
64	0xbe930beb	-0.2872003
65	0xbe9b7336	-0.30361336
66	0xbe631974	-0.22177678
67	0xbe8bbfad	-0.27294675
68	0xbe94fc55	-0.29098764
69	0xbe131d37	-0.14366613
70	0xbe76e0ff	-0.24109267
71	0xbe1ce556	-0.1532186
72	0xbe8e31f8	-0.27772498
73	0xbe81987f	-0.25311658
74	0xbe914040	-0.2836933
75	0xbdb717cd	-0.089400865
76	0xbe864e75	-0.26231733
77	0xbe889a83	-0.26680383
78	0xbe9f921f	-0.3116617
79	0xbeaea51f	-0.34110352
80	0xbe62b732	-0.22140196
81	0x3d68348f	0.05669075
82	0xbe0a211b	-0.13489191
83	0xbec46a28	-0.3836224
84	0xbe376f3d	-0.17913528
85	0xbca51a3a	-0.020154107
86	0xbf2dd208	-0.6789861
87	0xbd21945b	-0.039448123
88	0xbf130ed2	-0.5744449
89	0xbea7c133	-0.32764587
90	0xbe65bfc3	-0.22436433
91	0xbea6f217	-0.32606575
92	0xbeb7e868	-0.359195
93	0x3c2a145e	0.0103808325
94	0xbeeee31f	-0.46657655
95	0xbea70124	-0.32618058
96	0xbf086c21	-0.5328999
97	0xbe904284	-0.28175747
98	0xbf17b33c	-0.59257865
99	0xbe5d335e	-0.21601626
100	0xbed04c87	-0.40683386
101	0xbea597f5	-0.32342497
102	0xbd31da58	-0.04342112
103	0xbe968fd7	-0.29406616
104	0xbe87adc0	-0.26499748
105	0x3dda0c0d	0.1064683
106	0xbee49c08	-0.44650292
107	0xbe3f7167	-0.18695603
108	0xbe1fed5f	-0.15617894
109	0xbe8fb6ae	-0.2806906
110	0xbd8fd584	-0.07023147
111	0xbed56189	-0.41675976
112	0xbe8df43a	-0.27725393
113	0xbec6a1f8	-0.38795447
114	0xbe2c58b7	-0.16830717
115	0xbf02c0cc	-0.51075435
116	0xbebd457e	-0.3696708
117	0xbe3600a0	-0.17773676
118	0xbe847b5d	-0.2587537
119	0xbed655fe	-0.41862482
120	0xbe98830f	-0.2978749
121	0xbeb24cde	-0.3482427
122	0xbd085230	-0.033281505
123	0xbd28a975	-0.04117723
124	0xbd79a61e	-0.060949437
125	0xbdd77def	-0.10522067
126	0xbea0d480	-0.31412125
127	0xbf82336d	-1.0171944
128	0xbdfa2da7	-0.12215739
129	0x3dd7c198	0.10534972
130	0xbe2f0d5b	-0.17094938
131	0xbe90b96f	-0.28266475
132	0xbecb395d	-0.39692202
133	0xbeb075a0	-0.3446474
134	0xbe764bd1	-0.24052359
135	0xbdc870e6	-0.09787159
136	0x3e0f9252	0.1402066
137	0xbe0e18d3	-0.13876657
138	0xbe9b4987	-0.30329534
139	0xbe0d748b	-0.13813989
140	0xbe58f60e	-0.21187612
141	0xbf6a9ece	-0.91648567
142	0xbeb38f07	-0.3507006
143	0xbed77e8f	-0.42088744
144	0xbedac648	-0.42729402
145	0xbe825635	-0.25456396
146	0x3d959513	0.07303824
147	0xbede238d	-0.43386498
148	0xbe8ed692	-0.2789808
149	0xbe5650cc	-0.20929259
150	0xbe545ef4	-0.20739347
151	0xbe5037dc	-0.20333809
152	0xbe647990	-0.22311997
153	0xbe850cda	-0.25986367
154	0xbe9d2e41	-0.3069935
155	0xbe6ce32f	-0.23133539
156	0xbf4e8a14	-0.8067944
157	0xbc2623cc	-0.010140371
158	0xbe911cb5	-0.28342214
159	0xbf157473	-0.5838081
160	0xbea57336	-0.3231446
161	0xbe629e6b	-0.22130744
162	0xbe700a68	-0.2344147
163	0xbe867177	-0.26258442
164	0xbe17c26e	-0.14820263
165	0xbe9a62d2	-0.3015352
166	0xbee24c67	-0.44198915
167	0x3d2b76b2	0.041861244
168	0xbbf932a3	-0.0076049133
169	0xbea5e977	-0.32404682
170	0xbeeea8c4	-0.46613133
171	0xbd5be92a	-0.05368916
172	0x3e06b11c	0.131535
173	0x370b9fbd	8.322238e-06
174	0xbd90d933	-0.070726775
175	0xbe36665e	-0.17812487
176	0xbe1d7c75	-0.15379508
177	0xbdcafdfd	-0.09911726
178	0xbe1bdc02	-0.15220645
179	0x3e884102	0.26612097
180	0xbe5a060e	-0.21291372
181	0xbdc9b60f	-0.09849178
182	0xbdf15c45	-0.11785177
183	0xbda47aa1	-0.08031202
184	0xbf012cc6	-0.50458944
185	0xbda8a7b5	-0.082351126
186	0xbe079cfb	-0.13243477
187	0xbe0d0f61	-0.13775398
188	0xbddeb48e	-0.10874282
189	0x3c8397fe	0.016063686
190	0xbd6bbb9c	-0.057551965
191	0x3d4ed4a2	0.05049575
192	0x3e8f3364	0.27968895
193	0xbea0b6df	-0.3138952
194	0xbdd40f8b	-0.10354527
195	0xbe44b592	-0.19209889
196	0xbe16f39c	-0.14741367
197	0xbd92ac17	-0.0716173
198	0xbe183393	-0.14863424
199	0xbdbd80c2	-0.09253074
200	0x3debc3e1	0.1151197
201	0xbe4453fd	-0.19172664
202	0xbdeb8068	-0.11499101
203	0xbc50fa65	-0.012755011
204	0xbe5a584b	-0.21322744
205	0xbd92f57d	-0.071757294
206	0xbdde1749	-0.10844285
207	0xbda4f5e6	-0.08054714
208	0x3e61b010	0.22039819
209	0x3e00fc16	0.12596163
210	0x3c1a8417	0.009430907
211	0xbe612481	-0.21986581
212	0xbdfda27d	-0.12384508
213	0xbe0400d4	-0.12890941
214	0xbe6433d1	-0.22285391
215	0x3e63a7f9	0.22232045
216	0xbeab7a08	-0.3349154
217	0xbd9ed4a5	-0.077554025
218	0xbd94dc09	-0.07268531
219	0xbeb67c0f	-0.35641524
220	0xbe85ee11	-0.26158193
221	0xbe132a1a	-0.14371529
222	0x3ea76ea1	0.3270159
223	0xbc398e54	-0.011325438
224	0x3e18ffef	0.14941381
225	0xbe38a934	-0.18033296
226	0xbda637fb	-0.08116146
227	0xbf716166	-0.94289243
228	0xbdb32f84	-0.08749297
229	0xbd9efe5b	-0.07763358
230	0xbd457053	-0.048202824
231	0xbdfea681	-0.12434102
232	0xbdf788ca	-0.12086637
233	0xbf16e384	-0.5894091
234	0xbd91784d	-0.07103024
235	0xbe0bbba1	-0.13645793
236	0xbe070125	-0.1318403
237	0xbdcbc806	-0.09950261
238	0xbe940204	-0.28907788
239	0xbeb4999c	-0.35273445
240	0xbe289a92	-0.16465214
241	0x3e05e815	0.13076814
242	0xbe8a511a	-0.27015
243	0xbe9366ae	-0.28789276
244	0xbccd1939	-0.025036441
245	0xbebfe0e4	-0.37476265
246	0xbe136694	-0.14394599
247	0x3e03110b	0.1279947
248	0xbd5e9015	-0.054336626
249	0xbd8a979e	-0.067672
250	0xbe2624fe	-0.16225049
251	0xbe25b917	-0.16183887
252	0xbbaf0534	-0.0053411964
253	0x3c7b69a6	0.015345013
254	0x3d302b4a	0.043010034
255	0xbd3fbb29	-0.04680935

final.linears.1.bias f4 [86]
0	0xbeb32e97	-0.34996483
1	0xbee1451a	-0.43998033
2	0xbebf92e1	-0.37416747
3	0xbddda5c8	-0.10822636
4	0x3d8f69ad	0.07002578
5	0xbd57bd01	-0.052670483
6	0xbe5847e1	-0.2112117
7	0x3cd4eb98	0.025991246
8	0x3ccad525	0.024759838
9	0x3b21d330	0.0024692528
10	0xbe10cc4c	-0.14140433
11	0xbe4ab20d	-0.19794483
12	0xbd8d28db	-0.06892558
13	0xbe11ea05	-0.14249428
14	0x3cf81101	0.030281546
15	0x3e1ad5c0	0.15120602
16	0x3e1b137a	0.15144148
17	0xbcd81aa4	-0.02637989
18	0xbcdbbcd5	-0.02682344
19	0xbda7c43a	-0.08191724
20	0xbe211305	-0.15729912
21	0xbeae7d5d	-0.3408002
22	0xbe9412b7	-0.28920528
23	0xbedf08e5	-0.43561473
24	0xbdfe8a27	-0.12428694
25	0xbe9dee7e	-0.30846018
26	0xbe1adead	-0.15124007
27	0xbdc519ab	-0.096240364
28	0xbda93d50	-0.082636476
29	0xbe9e9836	-0.30975503
30	0xbe7f8311	-0.24952342
31	0xbd88909e	-0.066682085
32	0xbcc2c1dd	-0.023774082
33	0xbe960558	-0.29300952
34	0x3db6c452	0.08924164
35	0x3d91a540	0.07111597
36	0xbeab954a	-0.33512336
37	0x3af44450	0.0018636081
38	0xbde22b01	-0.110433586
39	0x3cb4f9c0	0.022091746
40	0xbe196d2e	-0.14983055
41	0xbd9c7249	-0.07638986
42	0xbdac8862	-0.084244505
43	0xbf016557	-0.5054526
44	0xbda5ee16	-0.08102052
45	0xbeb775ad	-0.35831967
46	0xbe54d310	-0.20783639
47	0xbc67d312	-0.014149444
48	0x3d8a8d39	0.06765217
49	0xbe13e14c	-0.14441413
50	0xbe99b314	-0.30019438
51	0xbe03569e	-0.1282601
52	0x3da5307c	0.08065888
53	0x3e162613	0.14662962
54	0xbc897378	-0.016778693
55	0xbe8de73e	-0.27715486
56	0x3cdda180	0.027054548
57	0x3e591de6	0.21202812
58	0xbd16ab8e	-0.0367847
59	0xbe673343	-0.22578149
60	0xbd5b5e35	-0.05355664
61	0x3c8d2df2	0.017233822
62	0x3d597169	0.053086672
63	0xbd520cb8	-0.05128166
64	0xbd002553	-0.031285595
65	0xbe4a3b71	-0.19749238
66	0xbe018eb8	-0.12652099
67	0xbeca409d	-0.3950242
68	0xbde87d51	-0.11352027
69	0xbe365c38	-0.17808616
70	0x3c9fc242	0.019501809
71	0xbe9564ca	-0.29178458
72	0x3d130e43	0.035902273
73	0xbe737449	-0.23774828
74	0xbeaa1c93	-0.33224925
75	0xbe9b220f	-0.30299422
76	0xbf0e9691	-0.55698496
77	0xbe633356	-0.22187552
78	0x3d79f32f	0.061022934
79	0xbeb0de82	-0.3454476
80	0x3d812f70	0.06307876
81	0xbcf6aafc	-0.030110829
82	0xbe3ed6c8	-0.1863662
83	0xbe71603b	-0.23571865
84	0xbcadc107	-0.021210207
85	0xbe9808f7	-0.2969434

final.linears.2.weight f4 [11, 86]
0	0xbf127d5a	-0.5722252
1	0x3e1780d1	0.14795233
2	0xbc958a91	-0.01825455
3	0xbc223dc9	-0.009902426
4	0xbdef7f82	-0.11694242
5	0x3d1d6a85	0.038431663
6	0xbe8327fd	-0.25616446
7	0xbe0670b0	-0.13128924
8	0xbd9f8b15	-0.077902
9	0x3d5ed902	0.054406174
10	0xbddcd73a	-0.10783239
11	0x3cec2c1a	0.028829623
12	0xbe18b8cc	-0.14914244
13	0x3e2ab132	0.16669157
14	0xbccadc0d	-0.024763132
15	0xbba2963e	-0.004961758
16	0xba9b761a	-0.0011860759
17	0xbe082fbb	-0.13299458
18	0xbd0c6548	-0.034276277
19	0x3e0136fc	0.12618631
20	0xbebf6f53	-0.3738962
21	0xbea4d541	-0.3219395
22	0x3e8b10c9	0.27161244
23	0xbd3411d3	-0.04396231
24	0x3d5f9110	0.0545817
25	0xbe210f8b	-0.15728585
26	0x3bb808fc	0.0056163054
27	0xbde70e8c	-0.112820715
28	0xbcd4bd8c	-0.02596929
29	0xbf2d4c31	-0.67694384
30	0x3ea4da36	0.32197732
31	0xbbc1606f	-0.0059013884
32	0xbdc7cb6f	-0.09755599
33	0x3e31f18d	0.173773
34	0xbd5c5e60	-0.05380094
35	0x3d18b2af	0.03727978
36	0x3d74a617	0.059728708
37	0x3c8e7384	0.017389067
38	0xbdf2d4e2	-0.118570104
39	0xbbcf5898	-0.0063277
40	0x3da01885	0.07817177
41	0x3c5ceba6	0.013483917
42	0x3bcf3119	0.0063229916
43	0x3be0cfcc	0.006860709
44	0x3d67ed1f	0.05662262
45	0x3da3fa20	0.08006692
46	0x3d8d0f84	0.06887725
47	0x3dd06dd9	0.10177202
48	0xbcbe0843	-0.023197299
49	0xbe58c6cc	-0.21169585
50	0xbed8dcdb	-0.42356
51	0x3e7520ba	0.23938265
52	0x3a78cde2	0.0009491128
53	0x3a9a2779	0.0011761031
54	0x3ecd91ef	0.401504
55	0xbc105969	-0.00881038
56	0x3ce13295	0.02748994
57	0x3c2b1269	0.010441401
58	0x3e36e75f	0.17861699
59	0x3ebaaab9	0.36458376
60	0x3df2ab60	0.118490934
61	0xbe2e829b	-0.1704201
62	0x3ca86511	0.020556005
63	0xbda3eea9	-0.08004505
64	0x3dd6c69c	0.104871005
65	0xbe2ca312	-0.16859081
66	0x3dc39b58	0.09551114
67	0x3eef7971	0.4677234
68	0x3ddcb045	0.10775808
69	0x3e762a72	0.24039629
70	0x3e1bbcbb	0.15208714
71	0xbdef6ad3	-0.11690297
72	0x3cd89fb0	0.026443332
73	0x3e802830	0.2503066
74	0x3d3a92a2	0.045549996
75	0x3ea6ac0d	0.3255314
76	0xbc51fabe	-0.012816129
77	0x3ba7f7d4	0.005125979
78	0xbbc0a37b	-0.0058788634
79	0xbdb90358	-0.09033841
80	0xbd06ec3a	-0.032940127
81	0xbd66c93b	-0.056344252
82	0x3d23fddf	0.040037032
83	0xbc22af22	-0.00992945
84	0xbd858062	-0.06518628
85	0x3becd1c5	0.007227155
86	0xbe48bdde	-0.19603679
87	0xbdc22b73	-0.094809435
88	0xba56041d	-0.0008164065
89	0xbb6107ec	-0.0034336997
90	0x3de90577	0.113779955
91	0x3d71d9fc	0.059045777
92	0x3eb104e3	0.3457404
93	0x3cb0d1a5	0.021584341
94	0x3ca3c289	0.019990223
95	0xbc7c88a5	-0.015413438
96	0x3de179c7	0.11009555
97	0x3da2470e	0.07923709
98	0x3e171d32	0.14757231
99	0x3dd88356	0.10571925
100	0x3cc93d6c	0.024565421
101	0xbcb72755	-0.022357622
102	0xbd24fad1	-0.04027826
103	0xbdce3e3a	-0.100704625
104	0x3d87f1bf	0.06637906
105	0xbe041f49	-0.1290256
106	0xbf217f07	-0.63084453
107	0x3e0d982e	0.13827583
108	0xbe84e526	-0.25956076
109	0x3d5db4ef	0.05412763
110	0xbd259453	-0.040424656
111	0xbe8025b8	-0.25028777
112	0x3be466bf	0.006970256
113	0x3c29cdbc	0.010363992
114	0xbd0bb63b	-0.034109335
115	0x3ec067f8	0.37579322
116	0xbe71e685	-0.23623092
117	0x3bb2a7ae	0.005452118
118	0xbdcaeb25	-0.099081315
119	0xbe7e359b	-0.24825136
120	0xbdbdbdeb	-0.092647396
121	0x3d546363	0.051852595
122	0xbf260e03	-0.6486513
123	0x3b2cfc8e	0.0026395652
124	0xbd604358	-0.054751724
125	0xbc0b7742	-0.00851232
126	0x3e3e3722	0.18575719
127	0x3a9fcfdd	0.0012192685
128	0xbb821088	-0.003969256
129	0x3b86292e	0.0040942645
130	0xbd8229e8	-0.06355649
131	0x3e97cad1	0.29646924
132	0x3dcf935b	0.10135528
133	0x3d81dfa8	0.06341487
134	0xbb12c06c	-0.0022392524
135	0x3e9a1365	0.30092922
136	0x3e72c67c	0.23708528
137	0x3e62e399	0.22157134
138	0x3c4026ca	0.011727998
139	0xbd49758b	-0.049184363
140	0x3e39261c	0.18080944
141	0xbbb277f4	-0.0054464284
142	0xbb953de7	-0.0045544985
143	0xbcf1221f	-0.029435216
144	0x3da211d1	0.079135545
145	0xbdd7fc5e	-0.10546182
146	0xbcc84612	-0.024447475
147	0x3d84abca	0.06478079
148	0x3bc1ebec	0.0059180167
149	0x3d350738	0.044196337
150	0x3df4a880	0.11946201
151	0xbf24e298	-0.64408255
152	0x3d87f6f4	0.066388994
153	0xbc3e1cd7	-0.011603556
154	0xbda97823	-0.082748674
155	0xbd40f802	-0.04711152
156	0xbe135f79	-0.14391889
157	0x3b8e3870	0.004340224
158	0xbd9516f8	-0.072797716
159	0x3e343cb6	0.17601284
160	0x3eea497b	0.45759186
161	0x3e96bbab	0.29440054
162	0xbaaef0bc	-0.0013346891
163	0xbc791826	-0.015203511
164	0x3c04b92d	0.00810079
165	0x3d3ac68b	0.0455995
166	0xbd0af845	-0.033928175
167	0xbe684d53	-0.22685747
168	0x3de4ccd5	0.11171881
169	0xbbb322ed	-0.00546681
170	0x3b84a123	0.0040475293
171	0x3b26e26b	0.0025464545
172	0x3da5044a	0.08057459
173	0x3eeb46a3	0.4595233
174	0x3e3c7291	0.18403079
175	0x3e166585	0.14687164
176	0x3c952ad6	0.018208902
177	0x3cedd9a2	0.02903444
178	0xbe420f81	-0.18951227
179	0x3cc33659	0.023829626
180	0x3d30f6c9	0.043204103
181	0xbc8a3f50	-0.016875893
182	0xbf2b4236	-0.66897905
183	0x3d1f1e5a	0.038847305
184	0x3c54d234	0.012989569
185	0xbc96b2c6	-0.018395793
186	0x3e101954	0.14072162
187	0xbe81e2f2	-0.25368458
188	0xbf032a9d	-0.512369
189	0xbcec5f9a	-0.02885418
190	0xbb22050a	-0.0024722242
191	0x3ca7f1b2	0.020500991
192	0xbdb956b3	-0.0904974
193	0x3ddb9f38	0.10723728
194	0xbbcd4bb2	-0.006265127
195	0x3efa0bd7	0.48837158
196	0x3e2d0d37	0.16899572
197	0x3e3d6981	0.18497278
198	0xbe3ec017	-0.18627964
199	0x3d822c8f	0.06356155
200	0xbee62641	-0.4495106
201	0xbd9832af	-0.07431542
202	0x3e9b6c7f	0.30356213
203	0x3f9565ac	1.1671653
204	0x3ca7d9f8	0.020489678
205	0xbb4ce724	-0.00312657
206	0xbd71730e	-0.058947615
207	0xbbb1daac	-0.005427679
208	0x3e490f90	0.19634843
209	0xbdc6fb25	-0.09715871
210	0x3de7ed3b	0.11324545
211	0xbde92a64	-0.113850385
212	0xbc30f2f1	-0.010800109
213	0xbe0a9e5e	-0.13536975
214	0xbe02fdf5	-0.1279219
215	0xbe138125	-0.14404733
216	0x3c5df091	0.013546125
217	0x3da579e7	0.08079892
218	0xbe59287d	-0.21206851
219	0xbdc2e735	-0.095167555
220	0xbb5746cc	-0.0032848595
221	0x3d63a94a	0.05558137
222	0xbdec5307	-0.11539274
223	0xbe7ac10d	-0.24487706
224	0xbe9898e2	-0.2980414
225	0x3ed3424e	0.41261524
226	0xbf25d3e8	-0.6477647
227	0x3deea76a	0.116530254
228	0x3921dd9e	0.00015436715
229	0x3ec1fef5	0.3788983
230	0x3e26cb78	0.16288555
231	0xbd63027e	-0.0554223
232	0xbc658264	-0.014008138
233	0x3be5f440	0.0070176423
234	0xbe066d60	-0.13127661
235	0x3ccfa119	0.025345372
236	0x3ba1e2fc	0.0049403887
237	0xbf15cac1	-0.585125
238	0x3d8c628b	0.06854733
239	0xbe915af8	-0.28389716
240	0x3c268ac9	0.010164925
241	0xbc803e1f	-0.015654622
242	0xbb80440d	-0.0039143623
243	0x3d8f4b59	0.06996793
244	0x3c03cca6	0.008044397
245	0x3e50b183	0.20380215
246	0x3dc5b10c	0.0965291
247	0x3e88db90	0.26730013
248	0x3d3cf0d5	0.046128113
249	0x3e12c8ad	0.14334364
250	0xbe121a62	-0.14267877
251	0x3eec6bf7	0.4617612
252	0x3c9672e5	0.018365333
253	0x3d1d5e32	0.03841991
254	0x3cde41e7	0.027131034
255	0xbe248de8	-0.16069758

final.linears.2.bias f4 [11]
0	0xbcadcf66	-0.02121706
1	0x3c86e734	0.016467668
2	0xbe1867cb	-0.14883344
3	0xbd832121	-0.06402803
4	0x3d856f78	0.065154016
5	0x3d80a8b8	0.062821805
6	0xbd023fb6	-0.03179904
7	0xbd803e36	-0.06261866
8	0x3c8447d5	0.016147533
9	0x3d4317f1	0.047630254
10	0x3d971421	0.07376886

layers.0.attn.0.gnn_q.weight f4 [11, 16]
0	0x150807a3	2.7471006e-26
1	0xac803f36	-3.6449966e-12
2	0x2455daaa	4.6372228e-17
3	0xaf23f49d	-1.4911668e-10
4	0x2116acfb	5.1050915e-19
5	0x87dd50e1	-3.329992e-34
6	0x12da00cc	1.3757931e-27
7	0x07d76d04	3.2413678e-34
8	0xacf1b883	-6.870117e-12
9	0xab7f8b08	-9.0787143e-13
10	0x0d84ef9d	8.192813e-31
11	0x1b16247a	1.2419495e-22
12	0x28497e22	1.1185092e-14
13	0x0ab2bc72	1.7211662e-32
14	0x91d9e0e0	-3.4375153e-28
15	0x0f4448bc	9.677554e-30
16	0x9510f6e4	-2.927533e-26
17	0x2c3157ef	2.5202026e-12
18	0xa3c21962	-2.1044272e-17
19	0x2e89c4dd	6.2650087e-11
20	0xa1049b4e	-4.4928884e-19
21	0x88680e61	-6.9831863e-34
22	0x128775a1	8.548696e-28
23	0x02deab40	3.271826e-37
24	0x2c1f8cdf	2.2673458e-12
25	0x29f4496b	1.0848513e-13
26	0x0c2b0373	1.3174399e-31
27	0x9b150042	-1.2325074e-22
28	0xa8b1c239	-1.9735178e-14
29	0x8b154e3e	-2.875522e-32
30	0x921cd768	-4.949043e-28
31	0x10e4c7df	9.0238093e-29
32	0x1293972a	9.314269e-28
33	0xafee4c92	-4.3346354e-10
34	0x27841dce	3.6669674e-15
35	0x2eb55113	8.245329e-11
36	0x2571955a	2.095402e-16
37	0x07bc6585	2.8346764e-34
38	0x1280728a	8.106172e-28
39	0x0807c716	4.085911e-34
40	0xb03ef1bf	-6.946514e-10
41	0x2bacc7e3	1.2276815e-12
42	0x0e091954	1.6898749e-30
43	0x1d81fcbb	3.4407333e-21
44	0x2cbfd01a	5.4516504e-12
45	0x0bdaf066	8.4332257e-32
46	0x959389ff	-5.9590547e-26
47	0x909e479d	-6.243035e-29
48	0x156d6bce	4.7946812e-26
49	0xad99b75c	-1.7475514e-11
50	0x250a36a3	1.1988104e-16
51	0xaf840e07	-2.4020627e-10
52	0xa1a46c55	-1.1141748e-18
53	0x082fb690	5.287675e-34
54	0x130fc5c8	1.8146651e-27
55	0x884783b8	-6.003922e-34
56	0xae033219	-2.9830447e-11
57	0xabdf8651	-1.5882383e-12
58	0x0e1f85e0	1.9662722e-30
59	0x1bc84d0c	3.3137015e-22
60	0x29a071c9	7.125166e-14
61	0x0aa2e49a	1.5686023e-32
62	0x92323286	-5.622917e-28
63	0x10eed9ed	9.4210216e-29
64	0x15190b35	3.0906945e-26
65	0xad9c41b8	-1.7764332e-11
66	0x24c65de5	8.6027876e-17
67	0xad806963	-1.4598716e-11
68	0xa247112d	-2.6978622e-18
69	0x878aff71	-2.0914067e-34
70	0x128e8bf1	8.995958e-28
71	0x085a542b	6.5700928e-34
72	0xadf008ad	-2.7288694e-11
73	0xab0a7cc8	-4.920062e-13
74	0x0d303c90	5.4307087e-31
75	0x1b89e484	2.2812424e-22
76	0x2989d115	6.120292e-14
77	0x096cbd9c	2.849662e-33
78	0x94ef165c	-2.4141652e-26
79	0x10a68277	6.567647e-29
80	0x953f1d98	-3.8595488e-26
81	0xad1b502b	-8.828531e-12
82	0x243df970	4.1194124e-17
83	0x2be1b200	1.6036616e-12
84	0x22331d02	2.427438e-18
85	0x08808460	7.734841e-34
86	0x92634b6b	-7.172153e-28
87	0x87c166ba	-2.909979e-34
88	0xad1d67aa	-8.947435e-12
89	0x29af55c2	7.786438e-14
90	0x0c8bd381	2.1543635e-31
91	0x1ae0445f	9.275469e-23
92	0x297c295e	5.599112e-14
93	0x09028346	1.5709905e-33
94	0x93266895	-2.1003709e-27
95	0x9001fe1b	-2.563652e-29
96	0x93722584	-3.056319e-27
97	0x2c91809e	4.1354272e-12
98	0xa3e6e5bf	-2.5033951e-17
99	0x2e05b1fe	3.0398788e-11
100	0xa1bc9319	-1.2778312e-18
101	0x8863e958	-6.858462e-34
102	0x1143d24e	1.5447593e-28
103	0x07dfd5b8	3.3678923e-34
104	0x2d02c59b	7.433522e-12
105	0x29324db4	3.9591336e-14
106	0x0c2177f2	1.2439084e-31
107	0x1a81dc27	5.3708825e-23
108	0xa96a0dfb	-5.1970564e-14
109	0x0a9aa4d3	1.489166e-32
110	0x9229d389	-5.3587734e-28
111	0x0f3b9a85	9.249571e-30
112	0x9438baea	-9.326488e-27
113	0x2d4a4117	1.14968235e-11
114	0xa4b4475a	-7.818343e-17
115	0x2f253477	1.5025302e-10
116	0xa153fc27	-7.18233e-19
117	0x08767609	7.416668e-34
118	0x92ce65e0	-1.3025542e-27
119	0x888b7d36	-8.395195e-34
120	0x2d9fa8cc	1.8151168e-11
121	0x2b7ce0e4	8.9840483e-13
122	0x8da2d4fe	-1.0035297e-30
123	0x9b2d4d95	-1.4335293e-22
124	0xa993923e	-6.5534804e-14
125	0x891959f2	-1.8458997e-33
126	0x12cbf252	1.2870838e-27
127	0x90a84936	-6.6377115e-29
128	0x14c6fc3d	2.0092381e-26
129	0xad08cede	-7.776639e-12
130	0x250b06c9	1.2058627e-16
131	0xaf290758	-1.537307e-10
132	0x2128e4dc	5.7223507e-19
133	0x8866598d	-6.9318374e-34
134	0x1256b67d	6.775143e-28
135	0x078ce005	2.1196526e-34
136	0xada818ba	-1.911037e-11
137	0xab1061b8	-5.129469e-13
138	0x0d20af87	4.951509e-31
139	0x1baa11bc	2.8135601e-22
140	0x296d44a4	5.2684108e-14
141	0x0afde928	2.4450717e-32
142	0x9321a4b7	-2.0402268e-27
143	0x0fb030aa	1.7373685e-29
144	0x13a5837a	4.17815e-27
145	0x2b7cac66	8.9767636e-13
146	0xa3c6a2d9	-2.1536172e-17
147	0xadebe5f5	-2.6818528e-11
148	0xa166ba7b	-7.8173836e-19
149	0x079420e8	2.2287906e-34
150	0x12979ae6	9.567625e-28
151	0x88561583	-6.442357e-34
152	0xabfb19be	-1.7841768e-12
153	0xaabf62c8	-3.399696e-13
154	0x8aa21dfa	-1.5611308e-32
155	0x9991a5dc	-1.5059639e-23
156	0xa82b79dd	-9.518832e-15
157	0x8a820897	-1.2521776e-32
158	0x130cbcab	1.7763505e-27
159	0x103cced3	3.7235794e-29
160	0x152d715b	3.5026493e-26
161	0xad1640bc	-8.540887e-12
162	0x242fd625	3.8128464e-17
163	0xaececfe9	-9.404728e-11
164	0xa24482fa	-2.6632292e-18
165	0x872b5c2e	-1.2891699e-34
166	0x12adcc89	1.0968257e-27
167	0x07a81462	2.528981e-34
168	0xad51bf6e	-1.19227805e-11
169	0xab83258c	-9.318531e-13
170	0x8da8b14e	-1.0396484e-30
171	0x1a629f32	4.68643e-23
172	0x28d5e163	2.3745496e-14
173	0x8ab89f3e	-1.7778456e-32
174	0x12abe90a	1.0849066e-27
175	0x10be2e8b	7.5013497e-29

layers.0.attn.0.gnn_q.bias f4 [16]
0	0x9547f042	-4.037726e-26
1	0x314e76c2	3.0044451e-09
2	0xa82d57fb	-9.622507e-15
3	0x303861c6	6.7077754e-10
4	0xa4ff0202	-1.1059202e-16
5	0x87813f0d	-1.944682e-34
6	0x928fd582	-9.0772025e-28
7	0x06e5a6df	8.638542e-35
8	0x318e5320	4.142194e-09
9	0xad2706d3	-9.494366e-12
10	0x8fd63060	-2.1120663e-29
11	0x9e8916f0	-1.4514926e-20
12	0xad1fcf87	-9.084184e-12
13	0x8c4a939d	-1.5605935e-31
14	0x1565d056	4.641053e-26
15	0x10f35b20	9.5987e-29

layers.0.attn.0.gnn_k.weight f4 [11, 16]
0	0x93bcc530	-4.7652314e-27
1	0x2f732536	2.2113941e-10
2	0xa66dddf6	-8.2526706e-16
3	0x2e5c0f09	5.0035562e-11
4	0xa30d27d9	-7.652063e-18
5	0x864b9708	-3.8291017e-35
6	0x91039497	-1.0379866e-28
7	0x08199034	4.6211273e-34
8	0x2f91a27a	2.6490793e-10
9	0xab57fc65	-7.673361e-13
10	0x8ec93a06	-4.96062e-30
11	0x9ca18340	-1.0688014e-21
12	0xab10febb	-5.1512587e-13
13	0x8a9ba4de	-1.4987973e-32
14	0x1259e560	6.8755853e-28
15	0x8fa161a3	-1.5913434e-29
16	0x148f3ce2	1.4463324e-26
17	0xae786a58	-5.6483124e-11
18	0xa483136b	-5.684509e-17
19	0xad13bd2e	-8.397989e-12
20	0xa39c8e28	-1.697376e-17
21	0x07f6fe88	3.7163566e-34
22	0x10b87dd1	7.2769054e-29
23	0x85e6e72a	-2.1714012e-35
24	0x2dfc0480	2.8651082e-11
25	0x2aa21796	2.8793347e-13
26	0x0e54be2c	2.6222582e-30
27	0x9c3d0ffe	-6.2555524e-22
28	0xaaa9e0b3	-3.0176347e-13
29	0x8bb0ab99	-6.8050925e-32
30	0x146823f8	1.17201e-26
31	0x8d41fbc2	-5.977576e-31
32	0x957842ee	-5.0136e-26
33	0xae4f0aa2	-4.7075795e-11
34	0xa4fcdccf	-1.0966164e-16
35	0xb0037735	-4.7826926e-10
36	0xa3a7ad28	-1.817951e-17
37	0x8759d9f3	-1.6389315e-34
38	0x93a4367d	-4.145315e-27
39	0x87ac387a	-2.5912878e-34
40	0xae605b33	-5.1012704e-11
41	0x2c498794	2.863908e-12
42	0x0ec6fac4	4.9052247e-30
43	0x9adb5147	-9.070759e-23
44	0xaae530b5	-4.071237e-13
45	0x8b0cdd92	-2.712971e-32
46	0x1461733a	1.13823215e-26
47	0x919ac18e	-2.4416203e-28
48	0x9430da7d	-8.9288185e-27
49	0x2fbe5a3a	3.4624908e-10
50	0xa69fe9c8	-1.1096208e-15
51	0x2ea68154	7.571779e-11
52	0xa38390ac	-1.426432e-17
53	0x07c3a213	2.9435598e-34
54	0x91bd19ea	-2.9834913e-28
55	0x881fa39a	-4.8039635e-34
56	0x2fc4f924	3.5829217e-10
57	0xaba65a34	-1.1820046e-12
58	0x8f03f0f6	-6.505206e-30
59	0x9d1e4acf	-2.0949801e-21
60	0xab896082	-9.761222e-13
61	0x8b5abe4b	-4.2128433e-32
62	0x1458a670	1.0938037e-26
63	0x8f1f2e8a	-7.848268e-30
64	0x92b31bd3	-1.1303347e-27
65	0x2eee9e1a	1.08510714e-10
66	0xa62da14f	-6.0240046e-16
67	0x2db721da	2.0819724e-11
68	0xa3e31319	-2.4619477e-17
69	0x07667152	1.7336579e-34
70	0x10d87ad0	8.53862e-29
71	0x07393dce	1.3936016e-34
72	0x2f164780	1.3667822e-10
73	0xaa9c6508	-2.778127e-13
74	0x88ce1f80	-1.240558e-33
75	0x9c59d1ba	-7.207034e-22
76	0xab343c93	-6.403291e-13
77	0x0b4eef10	3.9854007e-32
78	0x1477db80	1.2513602e-26
79	0x0fff0b2f	2.5149249e-29
80	0x942ca5c9	-8.716476e-27
81	0xae144d7a	-3.3720117e-11
82	0x23f61ec8	2.668441e-17
83	0xad5d306f	-1.257315e-11
84	0x227d3b4c	3.4319285e-18
85	0x8810e695	-4.360447e-34
86	0x9125f372	-1.3091222e-28
87	0x07d4e2d6	3.2031537e-34
88	0xade0420a	-2.5495179e-11
89	0x2a167540	1.3363356e-13
90	0x8e0738e6	-1.666743e-30
91	0x1bc8965b	3.318439e-22
92	0x2a844673	2.3496794e-13
93	0x0b7444b2	4.704437e-32
94	0x131b64e8	1.9613501e-27
95	0x8fd8b5c4	-2.1369258e-29
96	0x937e0a35	-3.206434e-27
97	0xad42b65d	-1.1068116e-11
98	0x232e65b4	9.454095e-18
99	0xad1b7925	-8.837629e-12
100	0x21266d28	5.6387455e-19
101	0x875b8747	-1.6515483e-34
102	0x90b11f46	-6.9862374e-29
103	0x87f7a374	-3.7260499e-34
104	0xae1242d2	-3.3255905e-11
105	0x28322f48	9.891237e-15
106	0x8d526c5f	-6.4841693e-31
107	0x9ab58a7f	-7.50836e-23
108	0xa7ed3728	-6.5840515e-15
109	0x8a1f20d2	-7.661744e-33
110	0x928f41f0	-9.040824e-28
111	0x8ffec259	-2.5121194e-29
112	0x14364a7f	9.2033436e-27
113	0xaf6b4ebe	-2.14011e-10
114	0x26637b82	7.892383e-16
115	0xae7ed515	-5.794217e-11
116	0x230d6a54	7.666141e-18
117	0x0787c40b	2.0427766e-34
118	0x10f5e665	9.699044e-29
119	0x86048ec7	-2.4931337e-35
120	0xafa0ab61	-2.9225602e-10
121	0x2b4af531	7.210509e-13
122	0x0ea9d24b	4.186422e-30
123	0x1ce80bbf	1.5355508e-21
124	0x2b3bce77	6.6722273e-13
125	0x0b602d3a	4.3174855e-32
126	0x9424cfa8	-8.320837e-27
127	0x8eef10fc	-5.8934404e-30
128	0x9492a571	-1.4807488e-26
129	0x2f0aa5e4	1.2609963e-10
130	0xa5b909ec	-3.2099108e-16
131	0x2e4649cb	4.508553e-11
132	0x238069d2	1.3922604e-17
133	0x07e01367	3.3715178e-34
134	0x91414df7	-1.524904e-28
135	0x8660d648	-4.2287147e-35
136	0x2f513c90	1.9029955e-10
137	0xab0753bf	-4.8077856e-13
138	0x8e9f8d9f	-3.9332902e-30
139	0x9c5390a9	-7.0001013e-22
140	0xa9a8a3cf	-7.489115e-14
141	0x8b4e24a0	-3.970171e-32
142	0x93bf6537	-4.8314984e-27
143	0x8ff94739	-2.458073e-29
144	0x12cfca1a	1.3113358e-27
145	0x2ea2acbc	7.397591e-11
146	0xa5bac64d	-3.240023e-16
147	0x2d9d8285	1.7906796e-11
148	0xa3515c87	-1.1349506e-17
149	0x083381a3	5.401824e-34
150	0x0fc561ed	1.946342e-29
151	0x078672d9	2.022958e-34
152	0x2efb5f51	1.143109e-10
153	0xaa862d6f	-2.3834708e-13
154	0x8cc7e158	-3.0796429e-31
155	0x9c03a19c	-4.355314e-22
156	0xaad5356c	-3.787347e-13
157	0x8a5feb26	-1.0781286e-32
158	0x139212c2	3.687408e-27
159	0x0fbe04c7	1.8737287e-29
160	0x93f81390	-6.262329e-27
161	0x2f4eae13	1.8797434e-10
162	0xa68e0c68	-9.856592e-16
163	0x2e2def72	3.9548316e-11
164	0xa394ad6d	-1.6119641e-17
165	0x886ee435	-7.1888776e-34
166	0x10e087fd	8.8561945e-29
167	0x870de148	-1.0673865e-34
168	0x2f2cd4bf	1.5718891e-10
169	0xab4ab324	-7.2013424e-13
170	0x8e03b00c	-1.623176e-30
171	0x9c93fdac	-9.793217e-22
172	0xab2f1aaa	-6.2209493e-13
173	0x8b177442	-2.9169005e-32
174	0x140c5d1f	7.0865586e-27
175	0x105eedf2	4.3965087e-29

layers.0.attn.0.gnn_k.bias f4 [16]
0	0x168f1aac	2.3119728e-25
1	0xae0cc488	-3.200687e-11
2	0x2610bc33	5.0215094e-16
3	0xb1050b7e	-1.936058e-09
4	0xa20519f8	-1.8038609e-18
5	0x87249994	-1.2383121e-34
6	0x14424910	9.808906e-27
7	0x073b9a6c	1.4113697e-34
8	0xaef9416e	-1.1334832e-10
9	0xad567737	-1.2190963e-11
10	0x0e0d4bf0	1.7416154e-30
11	0x1ca024b6	1.0597401e-21
12	0x2ad88ce8	3.846708e-13
13	0x8a66a6f2	-1.1105496e-32
14	0x12928732	9.247224e-28
15	0x11df8118	3.5262757e-28
